reinforcement_learning/models_cartpole/cartpole_ne2000_lr0.0001_ep0.2ddqn_agent.pt (torch, 654679 bytes, 6 tensors)

fc1.weight f4 [400, 4]
00000000: a682 9c3e ffc3 91bd d2f0 47be de63 99be
00000010: 7341 813e aa6a cabe b330 46bf bc24 313e
00000020: d00b bbbd af19 a73e e27f dd3e 73ea 06bf
00000030: fef5 963c 7927 143e 09bd 91be d6e2 c33e
00000040: 90a4 17bf ddf4 5fbe 0c27 0e3f 49ca 403e
00000050: 9ba5 9fbd 5099 82be 4178 5fbf cae6 ee3d
00000060: 8d17 c03e 2761 b1be 355a cebe e6da bf3e
00000070: 13d6 de3e e044 7d3d 8d44 68be 576a 8ebd
00000080: d0bc 103e 81e8 a6bd 2990 5abf 4d1f 8bbe
00000090: 5635 bebe 7de9 c93e be70 44bf a827 a7bd
000000a0: 0636 a9be 9b9a f2bc 3b14 5a3f 1fc1 d93d
000000b0: 48d7 163e 0c62 25be 8248 7b3f 2721 b43e
000000c0: 2d8e 5cbe 5fed cd3e 9d89 1ebf f76c 533d
000000d0: c68c e43e 3883 a8be 2bd8 50bf 6493 cfbe
000000e0: 8737 e6be af8f 523e 4f06 643f fead 903e
000000f0: a2ea 273e 79af c83e 67b1 fbbe 6ce0 afbe
00000100: 8518 7c3e 8f36 35bd 575f 473f 858e 8e3e
00000110: f1fc ca3e 5ea6 45bd c449 813e 96f6 ec3e
00000120: 3d16 a5be 8c57 09bf 87f6 36bf bd80 e4be
00000130: 2134 d83e c327 b1be fff9 b13e a826 e6be
00000140: 3297 9f3e 11e6 52be ca1f edbe 4e7b a6be
00000150: 8b1c 3fbe a570 b5be becd 2d3f 57b9 a43e
00000160: d34f bcbe 5663 a53e 21cd 453f 2a9d e6be
00000170: f47a 8e3d e5cb a83e cd0a e7be 2fab 84be
00000180: ffcf f6bd 5c0c c9be a5ce 29bf ddb5 81be
00000190: bd73 383d c28e 88bd 015b 3dbf ec50 2dbe
000001a0: 6538 dbbe fa7e 623e 187c 3ebd ad55 aa3e
000001b0: 7db1 03bf cc0d 9d3e 5bd9 6e3f 243e dc3e
000001c0: c7f7 093f 4e1e 2c3d ddf2 f33d a677 98be
000001d0: 91ef 453c 50f6 6ebe 9ee9 dd39 f959 dcbe
000001e0: d6a6 503e 7602 053f 79c2 6f3e 65f7 73be
000001f0: 80f0 ba3d 7806 a73d 7552 5a3e 635f 6c3e
00000200: 2cef 583e 5ab6 6ebe 721e 9a3e af5d 383d
00000210: a964 a13e 7681 9bbe 1581 14bf 62c3 8f3e
00000220: 97fd 723e ac01 f33d 5b80 433f 90ed bc3e
00000230: 2ff7 a53d eae5 683d bbce 073f b37c af3d
00000240: 0c91 7fbd 548f 01bd 62be f8bd 4f42 59bd
00000250: e6d9 b5be e1ad 54be d2e9 b3be 3ded e53e
00000260: 0f76 eb3e dce4 b5bd 53d3 de3e 4f32 de3e
00000270: 792a 333d f981 06bf 6a7a 6b3e 3a46 a73e
00000280: caa0 b63d 173d 7cbe bf8f e63e 33dd a13e
00000290: 569b b2be a6bf 85be 8138 59be 14ba c1bd
000002a0: 1733 ab3d 21ce f23d 4111 183f 7536 593e
000002b0: aa6d 6b3c b546 863d 38a9 5f3f 05c7 583e
000002c0: af43 90be 6fe6 2e3d 058e 9a3d 3a42 213e
000002d0: cb2f b3be d9a5 e1be ee27 783f b645 913e
000002e0: ad65 89be 64c3 72be 2283 a8be 81e6 bb3e
000002f0: 4dd0 113c 5106 83bd eceb f1be a6bd 42be
00000300: 4b81 1ebe d89b 013e fd1b 493f d44b 803c
00000310: 8850 163e d67d 203e ee3a 19bf 75f4 cc3e
00000320: 9d31 c5be 96b5 053d b59b febe 0fef f3be
00000330: 1a09 d8be 0975 1abd 20df 08bf 7784 5e3d
00000340: e775 b2be f205 603e 0cc1 d0be b7dd 8b3d
00000350: 165e b33c 01ab 4d3e f6e6 e13e dff4 c83e
00000360: 01ef 143e 709a 28be f105 6d3f ff32 fa3d
00000370: 407c 76be a6d0 f53e 75a3 003f 4b8c 09bc
00000380: b498 583e 14f5 a93d 809e 13bf 78fe a13d
00000390: 2bac ff3c 231d 8bbc ca4a 46be aa48 d13e
000003a0: 1d2a 85be d2b8 913e 112e 5f3f 6654 cebd
000003b0: 3b93 9dbe 1841 99be 3eff 0b3f bfc8 8b3e
000003c0: c293 1dbe 079e 9abc 7dd8 a93e 0280 5abe
000003d0: 1685 5a3d c74c 08be 930b c2bf 739c d0be
000003e0: e31f a2bd 7798 183e 3766 893e 0c15 f2be
000003f0: 43bb 25be c9c1 e03d 7fc6 413e 4b6f db3e
0.30568427 -0.071174614 -0.1952546 -0.29959005 0.25245246 -0.39534503 -0.7741806 0.1729917
-0.091331124 0.32636783 0.4326163 -0.5270149 0.018427845 0.14468183 -0.28464535 0.38259
-0.5923548 -0.21870752 0.5552833 0.18827166 -0.077952586 -0.25507593 -0.8729287 0.11665113
0.37517968 -0.34644434 -0.40303198 0.37471694 0.435227 0.061833262 -0.226824 -0.069538765
0.14134526 -0.08149815 -0.8537622 -0.27172318 -0.37150067 0.3943595 -0.7673453 -0.08161861
-0.3304903 -0.029614737 0.8518712 0.10632538 0.14730561 -0.16150683 0.98157513 0.35181543
-0.21538611 0.40220162 -0.6192873 0.05161759 0.44638652 -0.32912612 -0.81579846 -0.40542138
-0.4496424 0.20562623 0.89072126 0.28257746 0.16398099 0.39196375 -0.49158785 -0.34350908
0.24618728 -0.044241484 0.7787985 0.2784311 0.39646104 -0.048254363 0.2525159 0.4628188
-0.3224353 -0.5364921 -0.7146992 -0.4462947 0.4222727 -0.34600648 0.34761044 -0.44951367
0.3117004 -0.20595576 -0.46313316 -0.3251595 -0.18663232 -0.35437503 0.6789206 0.32172653
-0.3677965 0.3230235 0.77266127 -0.45041782 0.06957045 0.3296806 -0.45125428 -0.25911853
-0.12051391 -0.39267242 -0.6633094 -0.25334063 0.04503225 -0.06667854 -0.73966986 -0.169254
-0.42816463 0.2211875 -0.046505064 0.3326849 -0.514427 0.3067459 0.9330041 0.4301616
0.53893703 0.04202109 0.11911557 -0.29778785 0.012081043 -0.23336148 0.00042326463 -0.43037394
0.20376143 0.5195688 0.23414029 -0.23824842 0.09127903 0.08155531 0.21320517 0.23083262
0.21184987 -0.23311749 0.30101353 0.04501122 0.3152211 -0.30372208 -0.58009464 0.28078753
0.2372955 0.11865553 0.7636773 0.36899996 0.08103787 0.056859888 0.5304982 0.08568706
-0.062394187 -0.03163083 -0.12145688 -0.053041752 -0.35517806 -0.20769455 -0.35139328 0.4490756
0.4598851 -0.08881542 0.43520603 0.43397757 0.043741677 -0.5254207 0.22995916 0.32670766
0.08917387 -0.24632679 0.45031545 0.31614074 -0.34884137 -0.2612278 -0.21212961 -0.0945932
0.08359354 0.11855722 0.5940133 0.2121218 0.014369408 0.06556455 0.8736758 0.2116967
-0.28176638 0.042700227 0.07546619 0.1574792 -0.349974 -0.44071844 0.9693593 0.28373498
-0.26835385 -0.23707348 -0.32912546 0.36699298 0.00889976 -0.06397689 -0.47250307 -0.19017658
-0.15479009 0.12657106 0.7855833 0.015661158 0.14679158 0.15673003 -0.59855545 0.40030256
-0.38514414 0.032643877 -0.4972817 -0.47643325 -0.42194444 -0.03770927 -0.5346546 0.054325547
-0.34855577 0.21877268 -0.40772283 0.06829398 0.02189545 0.20084764 0.44121522 0.39249322
0.14544298 -0.16465163 0.9258719 0.12216758 -0.24070835 0.4801075 0.50249416 -0.008395265
0.21152002 0.08298698 -0.57663727 0.07909864 0.031210026 -0.016981667 -0.19364467 0.4087575
-0.26008692 0.2846132 0.87179667 -0.100746915 -0.3077639 -0.29932475 0.54686344 0.27301595
-0.15388396 -0.018874181 0.3317298 -0.21337894 0.053349577 -0.13310538 -1.5159782 -0.4074436
-0.07916238 0.1490191 0.26835796 -0.47281682 -0.16184716 0.109744616 0.18923377 0.42858347

fc1.bias f4 [400]
00000000: ec75 e5be 5c25 e63e f807 9e3e 621d 043f
00000010: 934b 33bd f9ff 1d3e 14eb 5c3d ccdc b23c
00000020: dc22 e33e df25 19bf 49c8 b63e 0010 26be
00000030: 9131 f23e 81e3 a7be c592 cb3e 1c20 043f
00000040: 4ded a2be 9fd5 90be 913e 183e dbd5 353e
00000050: a993 5abe c281 35be 0e52 223e d12c c83e
00000060: aaf2 093f 849b 943e 85c0 d2be 713f 9dbe
00000070: 73c8 a3be 2553 8d3e dc65 bfbe 6a81 013f
00000080: 4f48 da3e 0f3a b73d 9ff3 c6be 9fba a73e
00000090: c95b 763e 8db4 8e3e 0bd2 19be ccf9 fbbd
000000a0: 8445 5bbe fe80 2fbe 90f4 623e 779f d43e
000000b0: 9b52 8d3e 81e3 623e 0e8a 80be 391b 903e
000000c0: ce39 803e db5f b83e a456 6ebd 6ee9 6dbe
000000d0: 390f b9be 9e91 103f 4758 9ebd d611 c6be
000000e0: c1e7 13bf c819 5b3e eea5 1d3e be95 60be
000000f0: b859 afbe 920c a0be 774f 2e3e df48 ae3e
00000100: e07f 0f3e 08d7 9cbe ce39 6b3e 08e5 16bd
00000110: 640e af3e 7ced a0be 0078 d73d caa9 443e
00000120: 6784 b2be a669 b1be caab d13e 8ab2 a6be
00000130: 3376 82be 2007 ac3e e603 913d f8a3 943d
00000140: 967e 4e3e 9bdb 5e3e 06c3 c63e ec8b 0cbe
00000150: 4302 c2be b9cc cabd 104d fc3c a753 6dbe
00000160: 53f2 0abd 2ecc e43e 9c6d 6cbe f03e c93e
00000170: 1c17 ec3e 7b31 9cbe 3512 123e b2d5 d93e
00000180: d51f 84be a04d 613e 8734 9b3e caad b9be
00000190: 9748 ea3e 8179 393e 7ce3 fc3e 6d8b 703e
000001a0: 3f0f 63bd 8b3a 723d 7764 9ebe 0088 0f3f
000001b0: cd87 943e 6fd7 45bc bfe5 f8be 9774 4c3e
000001c0: e862 6abe c938 94be b443 3d3e d5a1 c9bd
000001d0: a0eb 8e3e 490f eebe dc11 313d 877b edbc
000001e0: 4886 0fbe 058c d0be 16f4 2f3e d6f8 c3bd
000001f0: e5b2 8e3e dd6b a93e 0041 b0be 99ad be3e
00000200: 857a 8fbd 6991 7f3e 29fb 37bd 06cc 903d
00000210: 5787 ac3b 25a1 013f e616 ab3e 01e0 ed3e
00000220: dbfb 163e 89a4 22be 368e aabe f118 c23e
00000230: ec88 983e ffd8 f9be b5e8 d73d b478 80be
00000240: f5e9 eb3e fb4f 94bc 455f 00bf 4054 4a3e
00000250: fc0f c33e 0f33 9fbe a557 f6be e248 e8be
00000260: 1c0e 86be baa5 623d ac2d 4fbe 39e4 fb3e
00000270: a72d 9a3e f81f aabe a63b c13e 5fde d1be
00000280: 1d1c 8bbe 16fd dd3d 5bb8 92be 0754 f4be
00000290: 07cb 17be 8c16 383e c530 ce3e 149f a83e
000002a0: 0508 ae3e 520a 9f3e 9977 ab3e 5cd2 9cbe
000002b0: 6e02 bebe 70b1 cd3e ef7c a83e 9e3e d3be
000002c0: faa4 5d3e bff2 3fbe f0c2 db3e e326 06bf
000002d0: 035d dabe baf1 bb3e 0be3 00be 80e4 783e
000002e0: e3c8 873e d32e fd3d bed4 28bf 1aa9 453e
000002f0: 102f 0c3e 5a77 893e c7ac 8d3e 5a78 da3e
00000300: 5d30 8e3e 6a7d 32be bb3c a6be 45f5 083e
00000310: b400 26be 2386 26be 0e63 39be 8fb9 0e3c
00000320: ae27 2fbe b872 ec3e b04d 14be 3f62 acbe
00000330: bbf5 5dbe 395b 85be e778 313c fc64 31bd
00000340: 8c58 bdbd aeb6 003f b7e9 023f dd5f a3be
00000350: 2569 573e fbd5 07bd 5276 b2be 785a 17be
00000360: 7847 c53e 886e d23e 14ab 3a3e 099c babe
00000370: 6184 2d3e 8836 ccbd 4dce a4be f8c7 0cbf
00000380: 82cb b5be dcf9 b33d aced d73e f1ce 08be
00000390: 928d f13e af31 bd3e f59f 46be 1f5a e0be
000003a0: d924 cf3d 70ea ce3e 96f9 b1be d99b c2be
000003b0: e381 33be ccea f0ba c410 9f3e 1936 2dbe
000003c0: 634c a7bd 3173 883e 76a6 58be 92e1 cebe
000003d0: 4e5a 053f d8f8 a43e 3cf1 abbe 232f f63e
000003e0: f084 4d3e c266 c0bc afef 17bf cb1c 31bd
000003f0: 029c c6be bb47 eabe 8634 f5be 6df4 fe3e
-0.4481653 0.44950378 0.30865455 0.51607335 -0.043773245 0.15429677 0.053935125 0.0218338
0.44362533 -0.5982341 0.3569968 -0.16217041 0.4730344 -0.3279076 0.39760414 0.51611495
-0.3182167 -0.2828798 0.14867617 0.1775736 -0.2134539 -0.1772528 0.15851614 0.39096692
0.538859 0.290249 -0.41162506 -0.30712464 -0.31988868 0.27602497 -0.373824 0.50588095
0.42633292 0.08946621 -0.38857743 0.32759568 0.24058451 0.27872124 -0.15021531 -0.12303504
-0.21413237 -0.1713905 0.22163606 0.41527912 0.27602085 0.22157098 -0.25105327 0.2814577
0.250441 0.36010632 -0.058188096 -0.23233578 -0.36144426 0.56472194 -0.07731681 -0.38685483
-0.57775503 0.21396554 0.15395328 -0.21932122 -0.34248137 -0.3125959 0.17022501 0.3403997
0.14013624 -0.30632806 0.2297127 -0.036839515 0.34190667 -0.31431186 0.10520935 0.19205394
-0.3486664 -0.34650916 0.40951377 -0.3255809 -0.25480804 0.33599186 0.07080822 0.07257837
0.20165476 0.2176346 0.38820666 -0.13725251 -0.3789235 -0.09902329 0.030798465 -0.23176442
-0.033922505 0.44687027 -0.23088688 0.3930583 0.4611138 -0.305065 0.14264758 0.4254585
-0.25805536 0.22002268 0.30313513 -0.36265403 0.45758507 0.18112756 0.49392307 0.23490687
-0.05543446 0.059137862 -0.30936024 0.56066895 0.29009858 -0.012075289 -0.48612782 0.1996635
-0.22889292 -0.28949574 0.18482858 -0.0984532 0.27914143 -0.46496037 0.043229923 -0.028989566
-0.14016068 -0.40731826 0.17182955 -0.09568946 0.2787086 0.33090106 -0.3442459 0.3724182
-0.070057906 0.24957813 -0.04491726 0.070701644 0.005265157 0.5063651 0.33415908 0.46459964
0.14744513 -0.15883078 -0.33311623 0.37909654 0.29791963 -0.48798367 0.10542432 -0.2509209
0.46076933 -0.018104544 -0.5014537 0.19758701 0.38098133 -0.31093642 -0.48113742 -0.45368105
-0.2618264 0.05533383 -0.20232266 0.49197558 0.30112955 -0.33227515 0.3774082 -0.40989968
-0.27169886 0.10839288 -0.28656277 -0.47720358 -0.14823543 0.17977351 0.40271583 0.32933867
0.33990493 0.3106256 0.33489683 -0.3062924 -0.3711123 0.40174437 0.32907817 -0.4125871
0.21644965 -0.18744944 0.42922163 -0.52403086 -0.42649087 0.3670786 -0.1258661 0.24305916
0.26520452 0.12362447 -0.6594962 0.19302788 0.13689828 0.2684887 0.2767088 0.42669946
0.27771273 -0.17430654 -0.3246821 0.13374813 -0.16211206 -0.16262107 -0.18104193 0.008711233
-0.1710498 0.46181273 -0.1448276 -0.33668706 -0.2167577 -0.2604616 0.010832048 -0.043309197
-0.092454046 0.5027875 0.5113787 -0.31909075 0.21036203 -0.033163052 -0.34855896 -0.14780605
0.3853109 0.41099954 0.18229324 -0.3644717 0.1694503 -0.099713385 -0.32188645 -0.5499263
-0.35506827 0.08787891 0.42173517 -0.13360192 0.47178322 0.36951968 -0.19396956 -0.43818757
0.1011445 0.40413237 -0.3476073 -0.38009527 -0.17530017 -0.0018380522 0.3106748 -0.16915168
-0.081688665 0.26650384 -0.2115725 -0.40406471 0.5209092 0.32221103 -0.33582485 0.48082837
0.20070243 -0.023486499 -0.59350103 -0.04324035 -0.387909 -0.4575785 -0.47891635 0.49795857

fc2.weight f4 [400, 400]
00000000: f398 e93c e3f9 dc3c de06 31bb dbf4 39bd
00000010: cd4b 883b aacb ed3c 724a 1ebd 17bb fd3c
00000020: 8948 323d 70d8 ccbc 73a0 4bbc cb64 013d
00000030: e4b8 07bd 737a 6f3c 7204 5e3c 54e6 0a3d
00000040: 4be8 453d 2ab8 c0bc 2218 26bd b339 db3b
00000050: 4d3a 993c d014 43bd 8528 bdbc 3cda 48bd
00000060: fd06 51bd e7d0 063d 100a 4cbd ba5f 113d
00000070: 4aa3 b5bc 5f03 19bd ff79 15bd 7049 bcbc
00000080: d603 39bd cd4c 3d3c 271a f23c 5d38 323c
00000090: c244 3ebc db13 4b3c d739 813c 8841 45bd
000000a0: 8de3 f33b 7db0 cc3c 5c5a 1a3d e658 f9bc
000000b0: 97f4 133d 910d 4abd 30c4 f3bc 9942 453c
000000c0: 95f4 d13c f175 1fbd 4809 253d 0a76 0b3d
000000d0: f39d cd3c 7700 ae3c 95dc a6bc 73af 89bc
000000e0: 87fe b53c b54a 033d 19f0 8c3c b784 af3c
000000f0: d313 5cbc 57a5 8a3c 55fe d83c 26fd f9bc
00000100: f4c9 b9bc a01d 413d 8118 d6bc 694b de3c
00000110: 0a8d 86bc 5d26 efbc 5379 873c 9524 ad3c
00000120: 80a7 e33b 4a3f b43c 7f68 a2bb ead2 0c3d
00000130: 8a75 9d3c 427c 053d dd88 2bbd 0e62 073d
00000140: b81f 393d 4b5a 36bc 4f2d 27bd d419 27bd
00000150: cdd4 8bba 2600 0fbd da1a c5bb 9387 fbbc
00000160: ed95 2fbc 09f7 85bc 80bd 153b e9fd 7abc
00000170: e7a7 cbbb 2d48 1a3c 0799 2e3d ad41 62b9
00000180: b355 c3bc b159 ac3b 9ec9 05bd 9a9b b93c
00000190: 74b3 12bd c9d0 4cbc 713f ccbc a331 85bc
000001a0: 9aeb 323a 3553 20bd 3382 753b 1bc6 02bd
000001b0: 5157 413d 4034 2d3d ddd8 db3c 3b67 36bd
000001c0: a3ed dbbc 6d22 71bc 44a8 b63c 5781 aebc
000001d0: bfa7 35bb d82a 4bbd cdad 55bd 9689 093d
000001e0: e707 1abb 2f55 423d f537 713b 4abe b73c
000001f0: 7659 03bd f680 d43c f313 03bc ddd6 1cbd
00000200: c3ec eebc 9286 dd3c c7f1 283c bfd4 043d
00000210: 6311 173d c207 76bb 6dd5 87b8 a514 febc
00000220: 0621 883c e715 08bc f730 a0bc 51e8 dbbb
00000230: 23dd 153d 93d7 313d d854 38bd e8a6 1bbd
00000240: 4eab 8dbc 405c 6abc c0bd a9bb 749d 873c
00000250: 974b ec3c fac0 e9bc 6a52 4bbd 6085 4abd
00000260: 72fa 333d 53bc 48bc ea95 48bd bd10 0d3d
00000270: b14f 67bc 009e e4ba 41c5 31bd 2352 aa3c
00000280: 438d b9bc cd87 57bc 0ddd 08bd 1ade 66bc
00000290: 13ef 783c dc21 3abd b7af d6bc 698a 01bd
000002a0: db28 923c 4309 de3c f858 30bd 2a30 2c3d
000002b0: 2bdb 153d f6f4 d1bc 0e2d be3c 2baa 043d
000002c0: a2df 25bd fbcb 1bbd e0f3 bfbc 0a99 393d
000002d0: e530 173d 4aa2 f53c 6b4d b6bc 2a8d 02bd
000002e0: 1f01 e2bc 56e4 f4bc cd10 dabb 6ea6 23bd
000002f0: aaa8 383c 9ae5 bfbc 302a b1ba 49b3 b9bc
00000300: c3e5 e43b daec 553c b0dd cabc 806d f73c
00000310: 58c7 143d 38e5 0dbd 37f3 a63c 6859 34bd
00000320: 1acf 22bb 9b1f 41bc 837b 3bbd 934a 32bc
00000330: 3bae 23bd cd8f fd3c bd5a d63c 2d30 e4ba
00000340: c3b5 88bc 918f 20bc 1450 843c 3251 1bbd
00000350: 8eef 163d 950a adba 73db 98bb 9ad5 873c
00000360: 84bf 54bc d07a f13c b4bb a3bb 4dae 883b
00000370: e9a5 cabc 4236 05bd 4058 023d a8c6 33bd
00000380: 6789 033d ce1f 403d e89c c2bc 133d f43c
00000390: f5af 3fbd 0d1b 273c 83b3 e0bc b776 0bbd
000003a0: 00f5 dc3b 6f19 1c3d 3507 2b3d 3ae9 b6bc
000003b0: 8772 d1bc 6895 b7bc 9326 1fbc d092 9bbc
000003c0: 0719 49bd c1be 7a3c b7e1 0d3d 7889 35bd
000003d0: d6da f63c 34be 30bd 4d21 ab3c a529 3fbd
000003e0: faa0 ae3c 8d1a fbbb e319 32bd 23c0 4dbd
000003f0: 38c6 18bd 874b f5bc 6797 c4bb cdce ed3c
0.028515315 0.026974624 -0.002701215 -0.045399528 0.004159427 0.029027779 -0.038645215 0.030973
0.043526206 -0.02500555 -0.012428391 0.031590264 -0.03313531 0.0146165965 0.0135508645 0.033911064
0.048317235 -0.023525316 -0.04055036 0.006690228 0.018704558 -0.04762727 -0.02309061 -0.04903625
-0.051032055 0.03291407 -0.049814284 0.035491683 -0.022172589 -0.03735673 -0.036493298 -0.022984236
-0.045169674 0.011553955 0.029553486 0.010877696 -0.011613073 0.012394871 0.01577465 -0.0481582
0.0074428977 0.0249865 0.03768383 -0.030437898 0.03612193 -0.049329344 -0.029756635 0.012039804
0.025629321 -0.038930837 0.040292054 0.034048118 0.02509973 0.021240456 -0.020368854 -0.016807294
0.022216095 0.032053668 0.017204331 0.021425588 -0.013432461 0.016924543 0.026488462 -0.030516218
-0.022679307 0.047147393 -0.026134731 0.027135568 -0.016424675 -0.029193098 0.016537344 0.021135608
0.006947458 0.022002835 -0.0049563046 0.03438083 0.019221086 0.032589205 -0.04187857 0.033052497
0.045196265 -0.011129926 -0.040814694 -0.040796116 -0.0010668278 -0.03491225 -0.006015164 -0.030704295
-0.010716897 -0.016353147 0.0022848547 -0.015319326 -0.006215084 0.009416622 0.042626407 -0.00021577506
-0.023844576 0.0052597155 -0.03266298 0.022657204 -0.03581567 -0.01250095 -0.024932595 -0.01625902
0.00068252685 -0.039141852 0.0037461638 -0.03192721 0.047202412 0.042286158 0.026836807 -0.044532042
-0.026846712 -0.01471768 0.022297032 -0.021301908 -0.0027718393 -0.049601406 -0.052167702 0.033578478
-0.0023503245 0.04744452 0.0036807035 0.022429604 -0.03206774 0.0259404 -0.008000362 -0.038290847
-0.029165631 0.027041707 0.01031155 0.032429453 0.036881816 -0.0037541245 -6.477055e-05 -0.031015703
0.01661731 -0.008306003 -0.019554598 -0.006711044 0.036587846 0.04341848 -0.04500279 -0.03800097
-0.017293599 -0.014304221 -0.0051800907 0.016554572 0.028844638 -0.028534401 -0.049639143 -0.049443603
0.043940015 -0.012251931 -0.048971094 0.03443979 -0.014118121 -0.0017442107 -0.043401007 0.020791119
-0.022650367 -0.013154936 -0.033413935 -0.014091039 0.0151937185 -0.045442447 -0.026206834 -0.03162614
0.017841747 0.027104026 -0.043053597 0.04203812 0.036585968 -0.025629502 0.023214843 0.032388847
-0.040496476 -0.038036328 -0.023431718 0.045311965 0.036911864 0.029984612 -0.022253713 -0.031872906
-0.027588425 -0.029894035 -0.006654835 -0.03995364 0.011270681 -0.023424912 -0.0013516601 -0.022668498
0.0069853975 0.013056958 -0.024763912 0.03020358 0.03632292 -0.03464243 0.020379646 -0.044030577
-0.002484268 -0.0117873205 -0.045772087 -0.010882038 -0.03996108 0.030952359 0.026166314 -0.0017409377
-0.016688233 -0.009799854 0.016151465 -0.03791923 0.03684955 -0.0013202006 -0.0046648323 0.016581345
-0.012985114 0.029477507 -0.004996741 0.004171169 -0.024737315 -0.032522447 0.031822443 -0.043890625
0.03211346 0.04690533 -0.02375646 0.029814279 -0.046798665 0.0101993205 -0.027429348 -0.034048762
0.0067430735 0.038110193 0.04175492 -0.022328008 -0.025567306 -0.02241011 -0.009713787 -0.018990904
-0.049096134 0.015304268 0.034639087 -0.044320554 0.030133646 -0.04315014 0.020889902 -0.046670575
0.021316994 -0.007663077 -0.04348172 -0.050232064 -0.03729841 -0.02994324 -0.005999494 0.029029274

fc2.bias f4 [400]
00000000: 3f7e 063d 5b95 85bc a028 e0bb 786a 0abd
00000010: 13c6 653c becc 3c3d a50f 423d 96d1 0fbd
00000020: 3bac 6fbd 9586 13bd c77d 9c3d 7be0 c0bc
00000030: 8c21 593d 4d39 973d 6df7 1a3d 6fb4 3e3d
00000040: 94f5 4a3d b720 d73c 62af a43d 0728 523c
00000050: 5e3d 823c 55e9 fe3c f136 413c fea1 e33c
00000060: fbd5 923d 2ad9 573d 4ca4 7e3d 4916 abbc
00000070: 5dd7 43bc f326 febc a385 373d eeeb a33b
00000080: bc04 0bbd 4f62 8f3d 9c1f 51bd fb5c 563d
00000090: 416f 17bd fad3 bd3c 53e5 933b 9f5a 1ebd
000000a0: e32a e13c 90db 793d cb46 a4bc 0c32 3e3d
000000b0: 175d 6d3a fd45 e8bb fb69 37bc 5d19 95bc
000000c0: f9ae d63c ca99 4cbd 7160 b3bc 6a81 083d
000000d0: f285 7a3d b449 60bc 4579 503d 94c6 cb3b
000000e0: 8feb 89bc a8e9 6b3c 713b b4bc 1024 a53d
000000f0: ff79 b2bc 1079 6a3d bb90 56bd d456 96bd
00000100: dd78 933a 3939 21bd 8228 79bc 8dd2 35bd
00000110: a336 c4bc 3b77 9b3d d0b2 19bd 07c8 75bc
00000120: 99df f7bc bf14 d23c 440b e03c b011 9d3d
00000130: 1af0 48bb 44b2 543d 74a3 30bd 7b64 903d
00000140: 1532 15bd 40db b13d b90e 56bd b6c7 51bc
00000150: 5a75 22bd 9982 cabc 622c 2a3d 3d7a 993b
00000160: 3a21 c83b 6ab1 cb3c 7877 e6bc 4a09 733d
00000170: c2fc 70bd 78fc ad3c af46 333a 6fd1 3d3c
00000180: e2c7 913b 88c9 233d 66a8 8e3b e735 ad3c
00000190: b5b9 8a3d d6fc a43c dd75 773d e34c c03d
000001a0: e4b0 173d 9243 383d 074a ce3b e6b3 c1bc
000001b0: 0882 933d 9fc0 b6bc e2ab bd3c aa99 ebbc
000001c0: b8aa a3bb 96f5 48bc 6345 ab3d 2059 d33c
000001d0: 0038 b23c e20e b53d 7523 273d 6a06 17bd
000001e0: 6cfc f6bc 282b aabc 3b37 b43d 9af8 723d
000001f0: b8d7 213d e9b9 e63a 4940 0f3d efa4 d2bd
00000200: 0e6c cf3c 8050 8bbd be06 ca3c f153 87bc
00000210: f537 333d 77d6 8f3d 86e3 b13b c94c 693d
00000220: f055 dbbc fa3d e23c 40b2 0cbd 5e59 fbbc
00000230: 0d5d 50bc 9907 bc3c 7c53 b23b 445a 5e3d
00000240: edff d9bc fdc5 65bd 80b1 1e3d a575 60bd
00000250: 9e2e 90ba 4f4a e13c ecaa 343d ac41 4b3d
00000260: c0fa be3d 1ed0 683d 346c 21bd 7df5 503d
00000270: 7b11 5c3b c5f7 873d 1369 f3bc 6c1e 25bd
00000280: 57f3 f73c 2b31 a93d 9d0c 1f3d 3980 35bd
00000290: 583c 40bb 410a 7abb c6f1 00bd f5df 8c3c
000002a0: 011e 03bd 606e 68bb 413a 76bb a7aa 7b3c
000002b0: b30e 8f3d 6460 ed3c 524f d3ba ff4f 143d
000002c0: 1314 70bd 001d 893d 8969 093d 128c 3b3d
000002d0: 2908 2ebd 7813 023c ca1c b03d a671 e6b9
000002e0: e925 f0b9 120f 5bbd 6712 f03c 675e 753d
000002f0: 6f0d 61b8 755d ba3c 8a58 97bc e607 da3c
00000300: 50ff 74bc 35d3 01bd c0b2 063d 70b5 543d
00000310: 2a42 103b 47a5 2fbd 0f19 813d a082 5b3d
00000320: 6d1e cabc 9fc2 753c cdcf 363b c5d4 673d
00000330: 5024 a9bc 85eb 1abd 1f9d 773d 6070 aabc
00000340: 85ec 17bc 1ba6 3d3d db0f d03a f1f4 0cbd
00000350: 0fc3 9bbd a8f7 0abd 337b 843d 4264 303c
00000360: 69b5 5a3d b86f a4bb 1d1a 0e3d 088a 46bd
00000370: 2df3 f23c 7224 82bd 8714 01bd 8c44 e23c
00000380: 0062 9a3c 6f0a f6bb 417f 6bbc 5046 4b3d
00000390: 66db 823d 3570 b13d f6ca 2dbc 0d1f 4cbc
000003a0: c285 1b3d 3817 213b 6bfd 39bd ddef bc3c
000003b0: 5712 a13d d6f2 703d 6e35 f83c 459b 4a3d
000003c0: 6d5a bb3d cf0b d5bc b8af b6bb 3ec0 20bd
000003d0: 10a2 a9bc f87f c83c eb20 033c 0f0f 28bb
000003e0: c1bb af3c 102e 94bd e62b 8d3d 61d4 21bd
000003f0: ba04 bb3c d6eb 1cbd 7c4d 85bd 4ba4 79bc
0.03283524 -0.01630657 -0.0068407804 -0.033792943 0.014024275 0.046093695 0.0473782 -0.035111986
-0.05851386 -0.03601702 0.076411776 -0.02354454 0.05301051 0.07383976 0.03783362 0.046558794
0.049550608 0.026260717 0.08041264 0.012826926 0.015898403 0.03111712 0.011792884 0.027787205
0.0716972 0.05269734 0.062168404 -0.02088465 -0.011953202 -0.031024432 0.04480518 0.0050024902
-0.033940062 0.07001173 -0.051055536 0.052334767 -0.036971334 0.023172367 0.0045134216 -0.03866064
0.02748627 0.061000407 -0.020053288 0.046434447 0.0009054704 -0.0070884214 -0.011194701 -0.01820057
0.02620648 -0.049951352 -0.021896573 0.033326544 0.061162896 -0.013689447 0.0508969 0.0062187407
-0.016835956 0.01439897 -0.022001 0.08063519 -0.021786688 0.05724436 -0.05238412 -0.0734078
0.001125123 -0.039361212 -0.015207412 -0.04439025 -0.023951834 0.07591101 -0.037524045 -0.0150013035
-0.030257987 0.025644658 0.027349122 0.07669389 -0.003066069 0.05192782 -0.04312463 0.07050415
-0.036424715 0.08684397 -0.052260134 -0.012803962 -0.039662696 -0.024720477 0.041546233 0.0046837614
0.0061074765 0.024864871 -0.028133139 0.05933503 -0.0588348 0.02123855 0.0006838841 0.011585577
0.0044488767 0.039987117 0.0043535708 0.021143867 0.06773702 0.020140093 0.060415138 0.09389665
0.03703393 0.044986315 0.006295446 -0.023645353 0.07202536 -0.022308646 0.02315325 -0.028759796
-0.0049947165 -0.0122655835 0.08362844 0.025799334 0.021755219 0.08840729 0.0408053 -0.03687135
-0.030149661 -0.020772532 0.08799597 0.059319116 0.039512366 0.0017603013 0.034973416 -0.10285365
0.02532008 -0.068024635 0.024661418 -0.016519519 0.043754537 0.07023328 0.0054287342 0.056957994
-0.026774377 0.027617443 -0.03434968 -0.030682262 -0.012717498 0.022952842 0.005442081 0.054285303
-0.026611293 -0.05609702 0.038743496 -0.054799695 -0.0011000221 0.027501253 0.044108316 0.049623176
0.093251705 0.0568391 -0.03940983 0.051015366 0.0033579755 0.06639055 -0.02971319 -0.040312216
0.0302674 0.08261331 0.03883039 -0.044311736 -0.0029332843 -0.0038153084 -0.031480573 0.017196635
-0.032011036 -0.003546618 -0.0037571343 0.015360511 0.069852255 0.028976627 -0.0016121662 0.036209103
-0.058612894 0.066949844 0.03354791 0.04578788 -0.04248825 0.007939212 0.08599241 -0.00043953693
-0.00045804612 -0.05348117 0.02930565 0.059904482 -5.365669e-05 0.022749642 -0.018474836 0.026615094
-0.014953449 -0.031695563 0.032885313 0.051930845 0.0022012093 -0.04288223 0.06303608 0.05359137
-0.024672711 0.015000015 0.0027894855 0.056599397 -0.020647198 -0.037822265 0.060452577 -0.020805538
-0.009272699 0.04630099 0.0015873866 -0.03441328 -0.07605564 -0.03392759 0.06468811 0.010766091
0.053395662 -0.0050182007 0.034692872 -0.04847148 0.02965697 -0.06354608 -0.031513717 0.027620576
0.018845558 -0.007508568 -0.014373601 0.049627602 0.06389503 0.0866398 -0.010607472 -0.012458575
0.03796936 0.002458049 -0.045407694 0.023063594 0.07864826 0.058825336 0.030298915 0.049464483
0.09148107 -0.026006607 -0.0055751465 -0.039245836 -0.02070716 0.024475083 0.008003454 -0.0025643741
0.021451833 -0.07235348 0.068931386 -0.03950918 0.022829402 -0.03831085 -0.065089196 -0.015236924

fc3.weight f4 [2, 400]
00000000: e77b 33bc 9362 24bd 7085 16be 733c afbb
00000010: db78 d93d 9398 b03d 7606 7b3d c69e 2bbd
00000020: 45f8 adbd 738e d6bb 77b3 023e 46dc 333d
00000030: 769c cb3d 9321 d63d 87b1 13bb 3b93 cb3d
00000040: d9fa 00be 529e 76bf bee4 d63d 9d2e 073e
00000050: 243a 6e3c f18e 763c 1de5 8b3d 94f5 703d
00000060: 0f07 343e ebf3 183e 8141 363d 7b15 dd3d
00000070: 6d31 b0bc 9a43 cc3c 9c6e a13d 4d64 1cbe
00000080: 474c eb3c 997b 1b3e 5e4d 63bb 4136 21bd
00000090: b64b 3d3c 4695 2fbe d86d eabe babc 67bc
000000a0: db55 0a3e 3fd3 b93d 05bc 10bd c62e 1d3e
000000b0: 921a 09be 9557 313e e7ec 193e 9b9d 0cbd
000000c0: b5fc fe3a 57d7 3dbd 4dee c0be 0a3b 063e
000000d0: f222 b93d 22ed 5dbe b4e8 2d3d 56c6 c13c
000000e0: 7ecc 02bf 4188 abbd b8d4 29bd c15f 923d
000000f0: 840b f13d 2897 203e 7e3c 07bd 57bb 89be
00000100: d256 babd e426 323d 78f0 b03c 586b 08bd
00000110: ba75 373d 57a2 e83d 8073 293c 1c93 26bf
00000120: 36ca d7bb 87bd e43c d762 bf3d 3a40 0c3e
00000130: 97a8 e7bc 8537 f23d 29a4 03bf 82d3 f23d
00000140: fa85 c8bc d4b8 e13d a53f cabc 9189 763c
00000150: 4aab 313c c761 223d 5858 cebb c21f 923c
00000160: f799 6e3e 7d46 aebc cb94 123d bf47 063e
00000170: 1b6a c23e e13e 3dbc 4e76 0d3e f28f a0be
00000180: fa22 10be 2e40 a0bd 4747 e53d c3df cdbc
00000190: fe31 ae3d 10c3 113d af79 013e 0e1e 253e
000001a0: 2b96 b73c 2220 3b3d 6198 1abe 2b20 f1bc
000001b0: f746 983d 43b4 76be db92 4abc f5fc 92be
000001c0: 845f 06be 1509 28bd 810c 8e3d 37da 133e
000001d0: 5f7b d33d 60dc 9a3d f5af 2abf 0a09 1cbe
000001e0: d8c2 683c 556e 6c3d 9ffd c43d c38d a93d
000001f0: a7d4 7f3c add7 1fbf 43f7 4a3d a0f2 753d
00000200: 5a1a 09bd cbfc 86be e821 143e 760d 29be
00000210: 1e9e 67bd eb55 e13d 5b6b 1f3d 27b0 16bf
00000220: f910 623c 8a80 063e a870 acbe 70fb c0be
00000230: fbbb a5bd 475b 823d b2d1 33bf 476b 293e
00000240: a85e 44bd 5c76 10be 3c6c 173e 6af3 83be
00000250: aa7e 06bb 95c6 523d 9602 39be 7653 a53c
00000260: 6289 ff3d a77d 8dba 7c72 ffbe 71b8 34be
00000270: 59e0 fabd 6f6d ac3d 7580 173e 8df7 17bf
00000280: 57a0 9d3c 7767 d13d d69a 4a3e 6444 7fbe
00000290: 2dda 90bc 75ca 033d e759 e6bd 2825 c03d
000002a0: 36cf 483e 4556 603c 0ece 03bf c08e c9bb
000002b0: 4403 493d e788 153e 1165 cbbd 000d d93c
000002c0: 42ca 91bd 60d7 053e cb8c f33c 389b 073d
000002d0: d3c9 85be 13fd a23d 9ac8 d6bd 4e92 ca3d
000002e0: 219d d83c 1b8c e53e 8ba1 ae3d 803f 0bbd
000002f0: 9ae7 a4be 6e05 0bbc 00f6 56bc 87cb 1a3e
00000300: 1875 9fbe 0e70 c4be 94ca 653c 1805 b13d
00000310: e2fd 48bc 33f3 50bb b82d d43d 4ae5 ae3d
00000320: b20d ac3a 0e05 01be 6f10 2f3d 5753 883c
00000330: 5d68 c23d 12f2 153d 02a2 bb3d 9ad3 463b
00000340: a800 a13d 0efd d83d 93e8 efbe 3370 eb3a
00000350: 3f5a 8dbe c422 253e a131 003e 9c6c f63c
00000360: fe23 323e 6f93 c6be dd4d 7dbe 8842 43bd
00000370: 3139 a33d 0729 143e 98fa a83e e339 34bf
00000380: 8a2a e63c b58b 5d3c 6704 2cbf eba3 173e
00000390: 180d 053e 93cb c23d 8df0 523d 1a8c de3b
000003a0: d6df 013e 5b18 0a3e f85b 66bc d0b7 683d
000003b0: 1a3c 093e 64d4 9f3d 5909 30bf e96b b73d
000003c0: bf4e 1b3e c223 bcbe 9e79 143d 114e 583c
000003d0: 9f39 a53a 7d7a 22bf 563e ebbc 7111 92bb
000003e0: 5cc1 dcbc b8c0 af3e 788b 20bc a2ef ba3c
000003f0: 2b1e ea3d fd0c 773e 80d1 a73e d95f 34bf
-0.010954834 -0.04013307 -0.1469934 -0.0053477823 0.106187545 0.08622851 0.06128546 -0.041899465
-0.08494619 -0.006547743 0.12763773 0.04391124 0.09941952 0.104556225 -0.0022536234 0.09940191
-0.12595691 -0.9633533 0.10492848 0.13201375 0.014540229 0.015048728 0.06830809 0.05882795
0.17580818 0.14936797 0.044496063 0.10795113 -0.021507943 0.024934579 0.07882425 -0.15272637
0.028722895 0.15183868 -0.0034683566 -0.03935838 0.011553695 -0.17146787 -0.4578693 -0.014144117
0.13509314 0.09073495 -0.03533556 0.15349874 -0.13389042 0.17318566 0.15031777 -0.03432999
0.0019453975 -0.046347942 -0.3768181 0.13108459 0.090398684 -0.2167249 0.04245825 0.023654144
-0.5109328 -0.08375598 -0.04146263 0.0714717 0.117697746 0.15682662 -0.033016674 -0.2690074
-0.09098591 0.04349412 0.02159904 -0.033305496 0.044790007 0.11359089 0.010342479 -0.6506822
-0.0065853847 0.027922405 0.09345024 0.13696375 -0.028278632 0.11826996 -0.51422364 0.11856748
-0.024477948 0.11021581 -0.024688551 0.015047447 0.010844061 0.03964403 -0.0062971525 0.017837409
0.2330092 -0.021273846 0.03578643 0.13113306 0.37971577 -0.011550636 0.13814661 -0.31359822
-0.14075842 -0.07824741 0.11195236 -0.025131112 0.08505629 0.035586417 0.12644075 0.16124746
0.022410473 0.04568494 -0.1509719 -0.029434284 0.074354105 -0.24092202 -0.012364115 -0.28708616
-0.13122374 -0.041024286 0.06935979 0.14438711 0.103262655 0.075615644 -0.6667474 -0.15237823
0.014206611 0.05772241 0.09618687 0.08278992 0.015614665 -0.6243847 0.049552213 0.06004584
-0.033472396 -0.2636474 0.14466059 -0.16509041 -0.056547277 0.11002716 0.03892074 -0.5886254
0.013797992 0.13134971 -0.336797 -0.37691832 -0.08092495 0.06365066 -0.70241845 0.1654483
-0.047941834 -0.1410765 0.14787382 -0.25771648 -0.0020522275 0.051458914 -0.18067393 0.020181399
0.124773756 -0.0010794894 -0.49892032 -0.17648484 -0.12249822 0.0841931 0.14795096 -0.5936211
0.019241495 0.102248125 0.19785628 -0.24928433 -0.01768216 0.0321755 -0.11247616 0.09382087
0.19610295 0.013692443 -0.5148629 -0.0061510503 0.04907538 0.14603005 -0.09931386 0.026495457
-0.07118656 0.1307044 0.029730221 0.033107013 -0.26130542 0.07958426 -0.104874805 0.09891187
0.026442112 0.44833454 0.085269056 -0.033996105 -0.32207948 -0.008485181 -0.013120174 0.15116702
-0.31144023 -0.3836674 0.014025349 0.0864355 -0.012267562 -0.003188324 0.10360283 0.08539827
0.001312664 -0.12599584 0.04274028 0.016641302 0.09492562 0.03660781 0.0916176 0.0030338527
0.07861453 0.10595141 -0.46857128 0.0017962515 -0.27607915 0.16126543 0.12518932 0.030081086
0.17396542 -0.38784358 -0.24736734 -0.04767087 0.07969893 0.14468776 0.33003688 -0.7040083
0.028096456 0.013522078 -0.6719422 0.14808623 0.12993276 0.09511485 0.05149894 0.0067916038
0.12683043 0.13485853 -0.014060013 0.056815922 0.13401833 0.07804182 -0.68764263 0.08956129
0.15166758 -0.3674603 0.036248796 0.013202206 0.0012605673 -0.6346815 -0.028716248 -0.0044576456
-0.02694767 0.3432672 -0.009798877 0.022819344 0.11431535 0.24126048 0.32777023 -0.7045875

fc3.bias f4 [2]
00000000: 246e 803d f182 4d3d
0.06271008 0.050173704
