reinforcement_learning/models_cartpole/cartpole_ne500_lr0.0001_ep0.9experimentalbest_dqn_agent.pt (torch, 654679 bytes, 6 tensors)

fc1.weight f4 [400, 4]
-0.48235124 0.0454117 -0.56720865 -0.1382011 0.35986078 0.3488087 -0.54293764 -0.14474003
-0.3597279 -0.49616256 0.2353373 0.23623659 -0.5237041 -0.44572282 0.11409125 -0.26010418
-0.27284357 0.43730152 -0.853528 -0.29608005 -0.009328537 -0.5046481 -0.586751 -0.34781674
0.011224137 0.30163065 0.5269518 -0.37782222 -0.44035578 -0.048275694 0.39951047 -0.5640738
0.22093928 -0.24025998 0.8064056 0.47109106 -0.07857215 0.066732354 0.9243334 0.29595312
-0.28624105 0.510246 -0.13557029 -0.17106616 -0.377907 -0.5300941 0.009921893 -0.33083782
0.30901244 -0.47824317 -0.6310375 0.3808582 -0.48783284 -0.027850198 0.7358085 0.3933923
-0.15151991 -0.05529875 0.62174696 -0.20453887 -0.4306739 0.3531942 -0.81648225 -0.40119866
-0.09631817 0.34836417 -0.3721514 0.27435413 -0.11742715 0.32342908 -0.33051515 -0.11228524
0.08836991 -0.14278011 -0.8793563 -0.33375943 -0.119243026 -0.42552418 -0.60681844 0.12162464
0.12470018 0.068132475 -0.7747603 0.45290172 -0.23356137 -0.48463693 0.19209097 -0.16565737
-0.44401875 -0.09892319 0.6198509 -0.17498675 0.28015682 0.045702897 0.3168165 0.22305572
-0.14333567 0.49120188 0.17813647 0.13502339 0.09937101 -0.19934313 -0.22473967 0.09727931
0.006672001 0.20461015 -0.33148518 -0.4568586 0.20030658 -0.14756843 -0.36789927 0.11790698
0.2887062 -0.022199778 -0.44708753 -0.10245446 0.18299827 0.3313442 -0.5937781 -0.12319054
0.41798285 -0.3687905 -0.33445746 0.22376134 -0.23807973 0.10749614 0.6877555 0.27961522
0.3828543 0.40327471 -0.66623205 0.10170349 -0.2307917 -0.38439548 -0.39325792 0.0234262
-0.11193787 0.54531896 0.67386377 0.3829301 0.08437899 0.20642228 -0.7076442 0.04700178
0.07327905 0.026084827 0.71042764 0.108761474 0.2981679 0.30529383 0.4274195 0.104680344
-0.5719296 -0.0834438 0.1622068 0.49097228 -0.22224529 -0.14071807 0.35277545 0.5099326
0.17714617 0.46822977 0.9006977 0.47658962 -0.01214505 0.07397214 0.577425 -0.21563843
-0.14970836 -0.007771339 -0.8928853 -0.32986698 0.46888193 -0.2302838 -0.28491974 0.2544244
-0.34902558 0.0833773 0.2622 0.16559543 -0.07045561 -0.2875979 -0.70601964 -0.33626437
0.34050962 -0.2376778 0.36709931 0.13822813 -0.26072413 -0.4643872 -0.1714662 -0.14370821
0.10647249 -0.15241104 -0.38431793 -0.11632979 -0.39718238 0.057722528 -0.6311752 -0.4719208
0.21736765 0.054345097 -0.55196506 -0.13541111 0.14383273 0.22520693 0.7139159 0.54053426
0.2937968 0.021273047 -0.87691855 -0.41446346 0.23362218 -0.19977884 -0.56593764 -0.347622
0.040696997 0.07868089 -0.39306718 -0.23072574 0.4202447 0.17569895 0.6257084 0.35709527
0.46775413 -0.19593658 0.4915856 -0.015893685 -0.23807523 0.22803307 0.28687343 0.3677918
-0.4531469 -0.0425132 -0.4539441 0.005852359 0.27542934 0.24507011 -0.16708209 0.15719068
-0.3144373 -0.07862394 -0.7140844 -0.22781688 0.28867534 0.44888648 -0.16261636 -0.14415178
-0.5324286 0.33213738 0.55246186 -0.27204296 0.6193738 -0.14475964 0.24982713 -0.2698194
00000000: bef6 f6be 9e01 3a3d 9634 11bf 9784 0dbe
00000010: ac3f b83e 0e97 b23e f6fd 0abf bb36 14be
00000020: 412e b8be 0509 febe 43fc 703e 01e8 713e
00000030: 7911 06bf c835 e4be aca8 e93d 602c 85be
00000040: 27b2 8bbe fce5 df3e d080 5abf ce97 97be
00000050: b8d6 18bc 9e30 01bf 5035 16bf 0915 b2be
00000060: 71e5 373c 556f 9a3e 50e6 063f ea71 c1be
00000070: 5076 e1be bcbc 45bd a38c cc3e 2467 10bf
00000080: e83d 623e b606 76be 9970 4e3f d932 f13e
00000090: 6fea a0bd f9aa 883d 1da1 6c3f 2b87 973e
000000a0: 308e 92be 7b9f 023f f0d2 0abe f82b 2fbe
000000b0: 077d c1be 3fb4 07bf 6f8f 223c 9363 a9be
000000c0: e136 9e3e 4adc f4be ac8b 21bf d9ff c23e
000000d0: 3ac5 f9be 1926 e4bc f25d 3c3f b76a c93e
000000e0: 0928 1bbe f180 62bd cf2a 1f3f a372 51be
000000f0: 4a81 dcbe dfd5 b43e fb04 51bf e969 cdbe
00000100: 7642 c5bd ca5c b23e a18a bebe 2578 8c3e
00000110: a57d f0bd 7f98 a53e 4839 a9be cef5 e5bd
00000120: 49fb b43d f334 12be 7f1d 61bf 84e2 aabe
00000130: b035 f4bd 4ede d9be 7458 1bbf 5716 f93d
00000140: cf62 ff3d 0a89 8b3d b156 46bf bce2 e73e
00000150: b62a 6fbe 5522 f8be 7fb3 443e 16a2 29be
00000160: 6d56 e3be 3e98 cabd 8cae 1e3f ba2f 33be
00000170: b770 8f3e f632 3b3d c635 a23e b868 643e
00000180: 96c6 12be d07e fb3e 6869 363e 9243 0a3e
00000190: 0783 cb3d 9b20 4cbe 2822 66be 603a c73d
000001a0: cda0 da3b 5385 513e 6db8 a9be 5fe9 e9be
000001b0: 2b1d 4d3e 2e1c 17be 4b5d bcbe 3779 f13d
000001c0: 4dd1 933e 4fdc b5bc a8e8 e4be a5d3 d1bd
000001d0: e663 3b3e f2a5 a93e d701 18bf 524b fcbd
000001e0: d901 d63e 1cd2 bcbe 023e abbe b121 653e
000001f0: 2ccb 73be f026 dc3d bf10 303f ba29 8f3e
00000200: 7b05 c43e 067a ce3e 2f8e 2abf eb49 d03d
00000210: a954 6cbe 7ccf c4be 1a59 c9be 4de8 bf3c
00000220: af3f e5bd 069a 0b3f 5682 2c3f 6a0f c43e
00000230: e4ce ac3d 5d60 533e 2c28 35bf f084 403d
00000240: 5413 963d d9af d53c 96de 353f 56be de3d
00000250: 77a9 983e 794f 9c3e bbd6 da3e a662 d63d
00000260: fa69 12bf 95e4 aabd 8a19 263e b860 fb3e
00000270: 4594 63be 6618 10be fc9e b43e f18a 023f
00000280: ce65 353e d0bb ef3e 2094 663f 8e03 f43e
00000290: 08fc 46bc b57e 973d 20d2 133f 52d0 5cbe
000002a0: 264d 19be b7a6 febb 2294 64bf 53e4 a8be
000002b0: 4b11 f03e 84cf 6bbe 00e1 91be ea43 823e
000002c0: 7bb3 b2be b8c1 aa3d 143f 863e d991 293e
000002d0: 084b 90bd 0840 93be b4bd 34bf d82a acbe
000002e0: 4757 ae3e cf61 73be 71f4 bb3e ad8b 0d3e
000002f0: a27d 85be 29c4 edbe d694 2fbe 3f28 13be
00000300: 400e da3d a411 1cbe 52c5 c4be 503e eebd
00000310: 7d5b cbbe 756e 6c3d b394 21bf 9a9f f1be
00000320: a095 5e3e f798 5e3d 954d 0dbf 36a9 0abe
00000330: e348 133e a59c 663e 31c3 363f 7460 0a3f
00000340: 896c 963e d044 ae3c bc7d 60bf 8e34 d4be
00000350: a73a 6f3e d392 4cbe 4ae1 10bf 83fb b1be
00000360: e5b1 263d 7223 a13d 1a40 c9be 5e43 6cbe
00000370: 502a d73e 6dea 333e 6d2e 203f 31d5 b63e
00000380: 787d ef3e 99a3 48be 1cb1 fb3e 7933 82bc
00000390: fec9 73be 8081 693e 13e1 923e 354f bc3e
000003a0: df02 e8be 5222 2ebd 5c6b e8be 25c5 bf3b
000003b0: 1305 8d3e a9f3 7a3e 9117 2bbe 98f6 203e
000003c0: edfd a0be 9705 a1bd 3cce 36bf d448 69be
000003d0: 41cd 933e 73d4 e53e e784 26be 869c 13be
000003e0: 3e4d 08bf e90d aa3e 246e 0d3f 3749 8bbe
000003f0: 488f 1e3f df3b 14be afd2 7f3e c525 8abe

fc1.bias f4 [400]
-0.46058407 -0.55755764 -0.27181748 0.39334223 -0.06927549 0.19053352 -0.03359857 -0.3531026
-0.2850538 0.51490164 0.32640988 -0.07740095 -0.16358966 0.16181505 0.5263876 -0.10788111
0.31614327 0.32505488 -0.2555651 0.5026948 0.4234976 -0.19441383 0.27766934 0.30897376
-0.18717127 0.11026888 -0.07195733 -0.25664124 0.20916817 0.52299535 -0.10558952 0.4578488
-0.17959066 -0.16946258 0.35342902 -0.08196363 -0.12567152 0.14211363 0.07346141 -0.10643056
-0.24865511 0.05773861 -0.14122437 -0.014574981 0.22287138 -0.17037915 -0.1895546 -0.4054326
-0.41410428 -0.5326122 0.33413544 -0.34694636 -0.27482814 0.39445195 0.36770138 0.42007983
0.5135573 0.39030677 -0.21973595 0.19105549 0.32847637 0.54822356 -0.1751196 -0.19046664
0.18688832 -0.2751677 0.5180035 0.48238784 0.2691566 -0.07818557 0.11711073 -0.2507603
-0.40075323 -0.43949294 0.4200717 -0.20622578 -0.11711186 -0.021367237 -0.30074793 0.07725063
0.20309241 -0.13720326 -0.18808413 0.4341171 -0.23624808 0.4413464 -0.15898311 -0.23140156
0.10874418 0.3685351 -0.20910685 0.35336658 -0.4126907 0.039705615 0.29305702 0.2210418
-0.47770366 -0.13306797 0.13142194 0.23282938 0.32791945 0.49728742 0.539728 -0.037867922
0.23758021 -0.31395477 0.38684422 0.040021315 -0.40996587 -0.21570577 0.18879671 -0.16980577
0.13861217 -0.19581811 0.48345825 0.41027626 0.19947712 0.52948976 0.081758134 0.1970383
-0.35727474 -0.032177333 0.43203178 -2.9941431e-05 0.53622913 0.45617086 0.031613372 0.35993275
0.10328157 -0.48093283 -0.400944 -0.3126244 0.2828974 -0.054977715 -0.3402267 0.18117066
0.4054172 -0.3110239 0.4204538 0.14392005 -0.36576414 0.05575955 -0.35442987 0.38488683
-0.095255315 -0.37495127 0.3898816 0.34737518 -0.27410364 -0.06544843 0.043632198 -0.33600152
-0.42566848 0.43060723 -0.43479654 -0.04617137 0.36113176 0.18494675 0.32269216 0.33141565
0.24321063 0.32754812 -0.20984696 -0.1141266 0.48952648 -0.11133069 -0.12641858 -0.28861135
-0.22837894 -0.26777616 -0.2979739 0.26593298 0.5211919 -0.4664402 -0.12126369 -0.39649513
0.30180398 0.52336305 0.5409088 -0.2802314 0.36464092 -0.17295583 -0.101035334 -0.23261729
0.08987946 -0.19701318 -0.026469648 -0.2490475 -0.17411008 0.43929115 0.26539168 -0.2155038
0.43286735 0.36500946 0.12817171 0.44544983 0.070341714 0.35880607 0.32984734 0.2228835
0.1387634 0.4959755 -0.19510397 -0.33579236 0.36402464 -0.16936386 0.20046258 0.38096932
-0.15824825 -0.16578281 -0.060513414 -0.15236525 0.5249009 0.3817456 -0.4162573 0.33915973
0.5191432 -0.11296754 -0.3250481 -0.0836717 -0.46154833 0.26566568 -0.27048138 0.21001586
0.4553673 0.5517635 0.039362703 0.2932248 0.3865122 0.5536703 -0.3835447 -0.12856019
-0.43709415 0.5022786 -0.11996658 0.2947767 0.47866634 0.1254414 0.5188625 0.3861942
-0.3387 0.22070925 -0.03933578 -0.01862194 -0.24577942 -0.1482553 0.2953737 0.3157659
-0.2199399 0.4054771 0.50662243 0.037970535 0.09886354 -0.2250325 0.50020957 -0.44417927
00000000: add1 ebbe 19bc 0ebf a92b 8bbe 2764 c93e
00000010: 4fe0 8dbd 381b 433e a79e 09bd ddc9 b4be
00000020: 92f2 91be 98d0 033f 321f a73e 6484 9ebd
00000030: 0c84 27be d8b2 253e 56c1 063f c5f0 dcbd
00000040: 88dd a13e 986d a63e 6ed9 82be 9bb0 003f
00000050: add4 d83e 6b14 47be ad2a 8e3e cf31 9e3e
00000060: d3a9 3fbe a7d4 e13d 5d5e 93bd 7b66 83be
00000070: 2e30 563e 06e3 053f 513f d8bd 286b ea3e
00000080: 9de6 37be 9987 2dbe a6f4 b43e 8cdc a7bd
00000090: 09b0 00be 3c86 113e f072 963d 44f8 d9bd
000000a0: 729f 7ebe 527f 6c3d 1f9d 10be e7cb 6ebc
000000b0: 6538 643e df77 2ebe 9a1a 42be dd94 cfbe
000000c0: 7a05 d4be 4659 08bf cd13 ab3e f4a2 b1be
000000d0: 46b6 8cbe 9bf5 c93e 5b43 bc3e b414 d73e
000000e0: 7e78 033f 4ad6 c73e 7602 61be 0da4 433e
000000f0: 0e2e a83e 6158 0c3f 8d52 33be b009 43be
00000100: a75f 3f3e c8e2 8cbe e19b 043f 8afb f63e
00000110: e5ce 893e c21f a0bd c0d7 ef3d a763 80be
00000120: 872f cdbe 3805 e1be a313 d73e da2c 53be
00000130: 58d8 efbd 580a afbc a2fb 99be 9435 9e3d
00000140: 75f7 4f3e 037f 0cbe 2099 40be 9944 de3e
00000150: 04eb 71be 28f8 e13e 78cc 22be 88f4 6cbe
00000160: 45b5 de3d a2b0 bc3e 1b20 56be 77ec b43e
00000170: 324c d3be 5ba2 223d 920b 963e c858 623e
00000180: 9395 f4be f842 08be 7993 063e d36a 6e3e
00000190: 0fe5 a73e 759c fe3e 9d2b 0a3f 651b 1bbd
000001a0: 3a48 733e aebe a0be 7210 c63e 64ed 233d
000001b0: 0ce7 d1be f9e1 5cbe ed53 413e 90e1 2dbe
000001c0: 59f0 0d3e 8b84 48be d787 f73e bb0f d23e
000001d0: bb43 4c3e a48c 073f cf70 a73d 68c4 493e
000001e0: b7ec b6be 61cc 03bd 4533 dd3e bc2a fbb7
000001f0: 5046 093f 3a8f e93e 067d 013d 1b49 b83e
00000200: 4a85 d33d d43c f6be 8848 cdbe 4e10 a0be
00000210: eed7 903e 5030 61bd 3232 aebe cd84 393e
00000220: d892 cf3e 863e 9fbe b845 d73e c75f 133e
00000230: 7045 bbbe 2064 643d d577 b5be e30f c53e
00000240: 3815 c3bd 9df9 bfbe 909e c73e 29db b13e
00000250: 5057 8cbe d409 86bd adb7 323d 6408 acbe
00000260: 38f1 d9be 8d78 dc3e a79d debe 311e 3dbd
00000270: 43e6 b83e ae62 3d3e e837 a53e 50af a93e
00000280: 350c 793e 63b4 a73e 1fe2 56be 35bb e9bd
00000290: 37a3 fa3e 5801 e4bd df73 01be dec4 93be
000002a0: 2bdc 69be f519 89be 0990 98be 5e28 883e
000002b0: d56c 053f 40d1 eebe 1959 f8bd 6901 cbbe
000002c0: 0d86 9a3e 1ffb 053f 0079 0a3f 7d7a 8fbe
000002d0: 37b2 ba3e 551b 31be 9deb cebd 3a33 6ebe
000002e0: b912 b83d d3bd 49be e0d6 d8bc 4f06 7fbe
000002f0: ea49 32be c5ea e03e 6be1 873e 07ad 5cbe
00000300: caa0 dd3e 85e2 ba3e 723f 033e 0012 e43e
00000310: 510f 903d 6eb5 b73e c0e1 a83e 923b 643e
00000320: fe17 0e3e 80f0 fd3e 56c9 47be faec abbe
00000330: 7061 ba3e b86d 2dbe 1046 4d3e 690e c33e
00000340: d40b 22be f8c2 29be eadc 77bd a305 1cbe
00000350: e85f 063f 2974 c33e ad1f d5be 58a6 ad3e
00000360: 92e6 043f 875b e7bd b46c a6be 115c abbd
00000370: 1050 ecbe 5505 883e 897c 8abe 660e 573e
00000380: e725 e93e 5f40 0d3f c93a 213d 9021 963e
00000390: ede4 c53e 56bd 0d3f f95f c4be 48a5 03be
000003a0: ceca dfbe 5595 003f 0ab1 f5bd f9ec 963e
000003b0: c113 f53e b673 003e 2cd4 043f 3fbb c53e
000003c0: 166a adbe 9b01 623e 8e1e 21bd 0a8d 98bc
000003d0: 9aad 7bbe 3dd0 17be 393b 973e 11ac a13e
000003e0: ed37 61be b29a cf3e 02b2 013f fe86 1b3d
000003f0: f878 ca3d eb6e 66be bc0d 003f 776b e3be

fc2.weight f4 [400, 400]
-0.18498032 -0.048312 -0.052113127 0.034897726 -0.040944714 -0.050066885 0.053412817 0.059502237
-0.07397498 0.02824471 0.029846942 -0.083001755 0.008873115 -0.052366916 0.07930849 -0.08616705
0.079801664 0.048066184 -0.29892826 0.0489637 -0.012114185 -0.024675157 -0.03239984 0.037291095
-0.087666735 -0.0020329023 0.007815887 -0.10567084 -0.004584024 0.015765414 0.052132655 0.04328746
-0.038784754 0.012172343 -0.023681631 -0.0647599 -0.30376682 -0.008626155 0.001579641 0.012690273
-0.28281656 0.14288637 -0.10688049 0.032886326 -0.0059267394 -0.19533592 -0.09799831 -0.056647886
0.018697614 -0.07364964 -0.023652874 -0.14209343 -0.017501032 0.09082667 0.0038050376 0.039613362
0.058155745 0.09364144 -0.115215816 0.03647948 0.00993655 0.0032075988 -0.011797894 0.10474883
0.04323887 -0.07766204 0.03315697 0.040934328 0.023570277 -0.004945484 0.07036173 -0.073756315
-0.02608513 0.020609476 0.03080543 -0.018603899 -0.13134125 0.13561502 -0.017032117 -0.057280447
0.048034877 0.22362779 -0.014228617 0.011932537 -0.13180445 0.039146785 -0.34445688 -0.018709062
-0.0565068 -0.02219336 -0.056439932 0.02856853 -0.08986451 0.07738411 0.0030648373 0.054646287
-0.010441817 -0.11549155 -0.058437027 0.038350336 -0.013554319 0.025429355 0.044383984 0.018262092
0.01195058 -0.093917556 0.045069274 0.07304788 -0.0656103 -0.150097 0.04216192 -0.12068533
0.013760078 0.056949764 0.026720533 -0.00076526107 -0.017358407 0.06296223 0.022459831 0.0483947
-0.011041969 0.00084244047 0.071044065 -0.007014725 0.056556225 -0.0034631966 -0.019505754 0.038553555
-0.008155451 -0.096211344 0.033868954 0.13182831 0.032553628 -0.04331864 -0.044240464 -0.0145471
0.04236243 -0.061280504 -0.029379662 0.06279437 0.008410517 0.04105458 -0.05159835 0.079292215
-0.19148058 -0.05857166 0.014432845 0.060624342 -0.035318002 -0.017616645 0.10109514 -0.14144771
0.0066634356 -0.025975438 -0.05986578 0.10264411 0.0063269767 0.07626287 0.031460296 0.041957147
-0.0038981694 0.0017112632 -0.21842614 0.0074819415 -0.030928971 -0.27815598 -0.07229651 -0.035127737
-0.16092514 -0.026771998 0.009902321 0.03318282 -0.014905345 -0.050988887 -0.048670985 0.011584523
-0.019338338 -0.009154766 0.022497592 -0.10024907 0.02759274 -0.023775818 0.030557996 -0.09567609
0.0012543615 -0.015553739 0.040841103 -0.0071451734 -0.028196704 0.06357784 -0.0072315657 0.016749823
0.029731493 0.031407896 -0.052399367 0.003029145 0.019309754 -0.024312012 -0.03433574 0.06055401
0.02601186 0.07745546 -0.058504164 0.18685998 0.0023644508 0.005009457 0.006088705 0.030950814
-0.32016772 0.028131396 -0.09666256 -0.191439 -0.0023613623 0.07064228 -0.1444186 0.03568512
0.059567515 -0.07267755 -0.1837241 0.036642164 -0.08225493 0.07911837 -0.03164452 -0.030536357
0.0047740764 0.00982851 -0.006188203 0.06322254 0.031732783 -0.010454731 -0.0036510609 0.049812716
0.030786486 0.056407023 0.006436882 0.027894182 0.062076863 0.059880402 0.031578735 0.07290102
-0.15214995 0.037275318 -0.13599178 0.0831161 -0.06428539 -0.020654373 -0.021379264 -0.007613224
-0.04276052 0.05201447 -0.0063566836 0.0048548644 0.03473715 -0.034220282 0.049684744 0.024946567
00000000: 7b6b 3dbe cee2 45bd 9374 55bd ebf0 0e3d
00000010: a5b5 27bd ef12 4dbd 66c7 5a3d 9eb8 733d
00000020: 3280 97bd 7361 e73c 9381 f43c d3fc a9bd
00000030: 8b60 113c b17e 56bd 7d6c a23d 5a78 b0bd
00000040: 0e6f a33d 0ce1 443d 200d 99be 298e 483d
00000050: 937a 46bc 8e23 cabc b2b5 04bd 8cbe 183d
00000060: 9e8a b3bd 713a 05bb 350e 003c f469 d8bd
00000070: 9535 96bb 7826 813c 0d89 553d 314e 313d
00000080: c3dc 1ebd 826e 473c fbff c1bc d7a0 84bd
00000090: 5387 9bbe b754 0dbc f50b cf3a ddea 4f3c
000000a0: 55cd 90be ce50 123e 29e4 dabd d0b3 063d
000000b0: 1835 c2bb 2406 48be 57b3 c8bd 9d07 68bd
000000c0: bd2b 993c 9fd5 96bd acc3 c1bc f180 11be
000000d0: 535e 8fbc 5503 ba3d f05d 793b 9f41 223d
000000e0: b834 6e3d 15c7 bf3d 45f6 ebbd 826b 153d
000000f0: e9cc 223c 9436 523b f44b 41bc 8e86 d63d
00000100: 3e1b 313d 470d 9fbd 9acf 073d c1aa 273d
00000110: 7416 c13c ba0d a2bb d019 903d 8d0d 97bd
00000120: 7cb0 d5bc 34d5 a83c ab5b fc3c 3467 98bc
00000130: 527e 06be aade 0a3e f086 8bbc e79e 6abd
00000140: 38c0 443d affe 643e 251f 69bc b080 433c
00000150: bff7 06be 6158 203d a75c b0be bf43 99bc
00000160: ad73 67bd d9ce b5bc 8f2d 67bd 8d08 ea3c
00000170: e20a b8bd 8f7b 9e3d 70db 483b c9d4 5f3d
00000180: 2814 2bbc d586 ecbd aa5b 6fbd 3e15 1d3d
00000190: ef12 5ebc 3951 d03c fbcb 353d 629a 953c
000001a0: 5ecc 433c d957 c0bd 8f9a 383d 209a 953d
000001b0: b15e 86bd 07b3 19be fab1 2c3d df29 f7bd
000001c0: f371 613c 2844 693d 05e5 da3c cd9b 48ba
000001d0: 3833 8ebc 57f2 803d aefd b73c 8539 463d
000001e0: 60e9 34bc 39d7 5c3a 8d7f 913d c7db e5bb
000001f0: 80a7 673d ccf6 62bb 88ca 9fbc 55ea 1d3d
00000200: 719e 05bc 740a c5bd 2cba 0a3d 00fe 063e
00000210: f456 053d e36e 31bd 7d35 35bd f656 6ebc
00000220: 3a84 2d3d 4401 7bbd 9ead f0bc 569a 803d
00000230: 44cc 093c d928 283d cb58 53bd f563 a23d
00000240: 7c13 44be d6e8 6fbd bd77 6c3c 3b51 783d
00000250: 9ca9 10bd c850 90bc f80a cf3d abd7 10be
00000260: f358 da3b 71ca d4bc d235 75bd 1337 d23d
00000270: 8752 cf3b b52f 9c3d 83dc 003d 42db 2b3d
00000280: 6e78 7fbb 774c e03a 1aab 5fbe 132b f53b
00000290: c15e fdbc 766a 8ebe 3110 94bd 1ae2 0fbd
000002a0: 8fc9 24be f350 dbbc 583d 223c b5ea 073d
000002b0: 8c35 74bc b9d9 50bd 3a5b 47bd 03cd 3d3c
000002c0: 6f6b 9ebc dffd 15bc df4c b83c 624f cdbd
000002d0: 2b0a e23c 81c5 c2bc c354 fa3c d3f1 c3bd
000002e0: 6369 a43a 1cd5 7ebc 0049 273d 0f22 eabb
000002f0: c6fc e6bc 1935 823d c5f6 ecbb ed36 893c
00000300: 768f f33c 91a5 003d b8a0 56bd 9f84 463b
00000310: 7d2f 9e3c fc29 c7bc a2a3 0cbd 7b07 783d
00000320: d316 d53c f8a0 9e3d 10a2 6fbd 3958 3f3e
00000330: e7f4 1a3b 5f26 a43b c283 c73b 908c fd3c
00000340: 06ed a3be d073 e63c 05f7 c5bd 9608 44be
00000350: 16c1 1abb e6ac 903d 78e2 13be 8f2a 123d
00000360: 11fd 733d f8d7 94bd 2c22 3cbe 1816 163d
00000370: 4675 a8bd d008 a23d af9d 01bd 6227 fabc
00000380: db6f 9c3b c207 213c 69c6 cabb d27a 813d
00000390: 3cfa 013d 524a 2bbc a346 6fbb 6b08 4c3d
000003a0: f133 fc3c 0d0b 673d 7bec d23b 5782 e43c
000003b0: 4f44 7e3d 2745 753d b458 013d 214d 953d
000003c0: 32cd 1bbe 01ae 183d 6e41 0bbe c638 aa3d
000003d0: 0fa8 83bd 5c33 a9bc 9123 afbc 5a78 f9bb
000003e0: a825 2fbd 200d 553d ba4b d0bb 8e15 9f3b
000003f0: 8b48 0e3d 912a 0cbd 3b82 4b3d be5c cc3c

fc2.bias f4 [400]
0.03968104 0.05060494 0.041148856 0.011746332 -0.018489456 -0.029125893 -0.05295463 0.019183354
-0.04765154 0.005001826 0.05227567 0.023856701 0.012340625 0.03838722 -0.009368258 0.037733123
0.07440567 0.000999822 -0.0032877582 -0.019477433 -0.046511725 0.02628699 0.06901069 -0.006765338
-0.023646224 -0.044073652 -0.0033985404 -0.03310512 0.016117096 -0.009341047 0.052347038 -0.044712998
0.04278881 0.054318845 0.014261807 0.07819423 0.03585519 0.041856784 0.049604658 -0.035940856
0.027847977 0.002021864 -0.03251976 -0.06741922 0.0108030755 0.059103314 0.006795907 -0.016941497
-0.041680295 -0.0073135644 -0.016270421 0.05799957 0.02579993 -0.0024275265 0.0034292182 0.032613218
0.06297918 0.07079785 -0.018290628 -0.028435603 0.08044247 0.0121663585 0.022730066 0.03698579
0.042550668 -0.03983406 0.03079511 -0.0475958 0.0391059 0.03747323 -0.04326806 -0.012181486
0.015692042 0.0022228425 -0.0029859326 0.054683875 -0.050594274 0.019202955 0.026107058 0.060528487
-0.017100934 0.055128913 -0.010794098 -0.00304737 0.06203302 -0.016101012 -0.04102594 0.02089672
0.0036714368 0.07847127 -0.007698072 -0.034104932 0.06131072 0.035066694 0.07181685 0.080290616
0.009781271 0.039431635 0.017333342 0.04840614 0.027469972 0.009265063 0.07627594 0.019181091
-0.0297414 0.016334912 -0.008450401 -0.02440157 0.07099768 0.032249533 0.057101957 0.028675314
-0.029185267 -0.026149264 0.085485816 -0.01827276 0.078860626 -0.027336305 0.027122281 0.033809114
-0.00079602894 -0.019824635 0.013210298 0.008776209 0.009671628 0.044870052 -0.006972069 0.0020085569
-0.032512236 0.054345615 -0.0047908663 -0.046353966 0.0244064 0.034454003 -0.0015733886 -0.010869844
0.02880373 -0.015924271 0.041379545 -0.0014206566 0.03678493 -0.009370554 -0.034479585 -0.025569214
-0.037802894 0.05022288 0.029375162 -0.011533961 0.049167797 0.04088559 0.044246826 0.02263795
0.0106605925 0.06309088 0.04993296 0.06437406 0.020034345 0.00054713857 -0.019311324 0.03461909
0.06517972 -0.046953104 -0.00013953625 0.014506112 -0.041447837 0.05246292 -0.048814762 0.060076833
-0.040372107 0.0025227172 0.04620152 0.042112086 0.06452083 -0.039765857 0.08483317 0.034233786
-0.038221516 0.0052444055 -0.043904986 0.074096344 0.09514538 0.068385296 -0.0073727076 -0.07283045
0.0033942312 0.00085375534 -0.017952565 0.003263706 0.059843726 0.019385232 0.031277016 0.043935727
0.018629637 0.0055108275 0.0008315426 0.04939065 -0.019685404 -0.0026848468 0.021102307 -0.032394957
0.093724616 -0.029525165 0.017087795 0.058748074 -0.030484632 0.022907138 -0.0036093427 0.029122317
0.06454414 0.024089755 0.03066166 -0.00090580096 0.037018206 0.07361765 -0.016766474 -0.015576807
-0.0015789006 0.04556213 -0.013395653 -0.056232255 -0.0073088757 0.069021575 0.025735276 0.0106529845
0.025119843 0.009028493 0.013417362 0.06518606 0.008180581 0.039709155 0.01860822 -0.0017484021
-0.04579716 0.04055756 0.014631781 0.004755551 0.018969536 0.020779982 -0.021717023 -0.023358595
0.0682562 0.065726526 0.023245506 -0.039363593 0.014342239 -0.03347207 0.069828235 -0.029810559
0.013694809 0.069619596 -0.018056452 0.039342683 0.04166892 0.046956316 0.0332416 0.06384266
00000000: 9688 223d 2047 4f3d b48b 283d b073 403c
00000010: 3377 97bc 6d99 eebc f4e6 58bd 6926 9d3c
00000020: 432e 43bd 5ce6 a33b 031f 563d 216f c33c
00000030: 5530 4a3c eb3b 1d3d 527d 19bc 0c8e 1a3d
00000040: 0062 983d 760c 833a 6e77 57bb 238f 9fbc
00000050: 1483 3ebd d057 d73c 7a55 8d3d c5af ddbb
00000060: bab5 c1bc 9386 34bd 0cba 5ebb 3c99 07bd
00000070: 0008 843c 310b 19bc d969 563d fa24 37bd
00000080: 5243 2f3d 707d 5e3d 5baa 693c 4c24 a03d
00000090: e4dc 123d 0572 2b3d 412e 4b3d b836 13bd
000000a0: 7121 e43c 4081 043b 7133 05bd 1713 8abd
000000b0: 62ff 303c 5116 723d 33b0 de3b e5c8 8abc
000000c0: f5b8 2abd a0a6 efbb 8c49 85bc f590 6d3d
000000d0: 605a d33c 2317 1fbb bcbc 603b 7095 053d
000000e0: 3afb 803d 77fe 903d 3ad6 95bc c8f1 e8bc
000000f0: 06bf a43d 6855 473c 6734 ba3c 697e 173d
00000100: 9c49 2e3d 0a29 23bd 0746 fc3c d0f3 42bd
00000110: 822d 203d 887d 193d d939 31bd db94 47bc
00000120: 998c 803c 1cad 113b a3af 43bb 33fc 5f3d
00000130: f13b 4fbd 844f 9d3c 78de d53c b8ec 773d
00000140: 4217 8cbc dbce 613d bad9 30bc 62b6 47bb
00000150: 5616 7e3d 45e6 83bc d10a 28bd 992f ab3c
00000160: 7d9c 703b 8cb5 a03d 1c40 fcbb 9db1 0bbd
00000170: f320 7b3d 18a2 0f3d b614 933d 686f a43d
00000180: a041 203c 1183 213d a7fe 8d3c 8445 463d
00000190: b508 e13c 7ecc 173c 8f36 9c3d aa21 9d3c
000001a0: 3da4 f3bc cbd0 853c 8d73 0abc cde5 c7bc
000001b0: 3b67 913d 1618 043d bee3 693d 7ee8 ea3c
000001c0: f115 efbc fb36 d6bc 3013 af3d c1b0 95bc
000001d0: ae81 a13d 63f0 dfbc 8c2f de3c 6d7b 0a3d
000001e0: 99ac 50ba 4667 a2bc 0170 583c 17ca 0f3c
000001f0: bf75 1e3c a9c9 373d f475 e4bb fea1 033b
00000200: 8d2b 05bd 8299 5e3d b3fc 9cbb a8dd 3dbd
00000210: eeef c73c a41f 0d3d 293a ceba 6e17 32bc
00000220: cdf5 eb3c 9e73 82bc 997d 293d 5335 baba
00000230: cbab 163d f486 19bc 773a 0dbd 8776 d1bc
00000240: 35d7 1abd 82b6 4d3d 2ea4 f03c f0f8 3cbc
00000250: 2c64 493d a677 273d 293c 353d 3973 b93c
00000260: c4a9 2e3c cb35 813d 8186 4c3d 8cd6 833d
00000270: 111f a43c d96d 0f3a c832 9ebc bfcc 0d3d
00000280: f27c 853d e651 40bd 7a50 12b9 0bab 6d3c
00000290: 35c5 29bd 5ce3 563d fdf1 47bd 2013 763d
000002a0: 395d 25bd 2c54 253b ce3d 3d3d b97d 2c3d
000002b0: 7f23 843d 86e1 22bd 03bd ad3d ba38 0c3d
000002c0: 2a8e 1cbd 43d9 ab3b b7d5 33bd d3bf 973d
000002d0: 95db c23d 970d 8c3d c196 f1bb 2228 95bd
000002e0: c071 5e3b 8dce 5f3a 4211 93bc e7e3 553b
000002f0: b21e 753d c7cd 9e3c 541c 003d f3f5 333d
00000300: 2e9d 983c 2c94 b43b e1fb 593a da4d 4a3d
00000310: 4943 a1bc 41f4 2fbb bfde ac3c 93b0 04bd
00000320: b1f2 bf3d c2de f1bc b4fb 8b3c d2a1 703d
00000330: e8ba f9bc c0a7 bb3c b98a 6cbb ed91 ee3c
00000340: b82f 843d e157 c53c 292e fb3c 4673 6dba
00000350: 67a0 173d dac4 963d d859 89bc dd35 7fbc
00000360: 1df3 ceba 5b9f 3a3d 7179 5bbc cb53 66bd
00000370: 4b7f efbb 2f5b 8d3d c9d2 d23c db89 2e3c
00000380: 21c8 cd3c 3fec 133c 7fd4 5b3c 4580 853d
00000390: d807 063c 11a6 223d 4470 983c a42a e5ba
000003a0: ce95 3bbd af1f 263d 23ba 6f3c 74d4 9b3b
000003b0: 0066 9b3c c83a aa3c e6e7 b1bc 865a bfbc
000003c0: e8c9 8b3d a19b 863d 5c6d be3c b83b 21bd
000003d0: b6fb 6a3c 021a 09bd 1b02 8f3d 4635 f4bc
000003e0: 3160 603c b894 8e3d 20eb 93bc cb25 213d
000003f0: 08ad 2a3d 4455 403d 5828 083d f1bf 823d

fc3.weight f4 [2, 400]
0.119418606 -0.2682058 0.105988845 0.09032793 0.0045539024 0.040437568 -0.022052921 0.002204207
-0.037619136 -0.041598987 0.1242433 0.14977123 -0.44409332 0.1207903 0.08323132 0.10926961
0.14886221 -0.16519791 0.12838927 -0.0365602 0.048259504 -0.0011122347 0.1632312 -0.01655583
-0.17870784 0.03208341 -0.021340804 -0.02118368 -0.004326762 0.15328093 0.12765446 -0.027754864
-0.31192145 0.10447791 -0.009000862 0.094661035 -0.4199158 0.0044973153 0.118462786 -0.04252736
-0.01274034 -0.015455225 -0.27715522 0.1973196 0.09312737 0.20845334 -0.040805113 0.017970687
-0.036837667 -0.022273816 -0.44670948 0.037443895 0.13894181 -0.04904381 0.21261048 -0.0333896
0.1944657 0.09572338 0.08326947 -0.21009956 0.09340831 -0.13972554 -0.02608658 0.13071217
-0.06890255 -0.045791473 0.09222512 0.066945344 0.09558201 -0.43163198 -0.015179067 -0.0015672825
-0.41032293 0.17371209 0.12182163 -0.0056078616 -0.04192836 -0.20219107 0.14263973 0.21237968
-0.32063603 0.07061644 -0.20261404 0.07783762 0.09363881 -0.10353082 -0.062471736 -0.41426468
0.07745473 -0.22241314 -0.008171678 -0.3461651 0.018292174 0.019411003 0.10190272 0.1035891
0.178312 -0.0417296 0.11163793 0.15931329 -0.30420887 0.10016041 0.28666025 -0.029880257
-0.007004881 -0.044455774 -0.48619127 -0.012776047 0.109326966 -0.055168938 0.14251378 0.133749
0.055368472 -0.009564039 0.16731384 -0.024613312 0.0808714 -0.03472088 -0.13607362 0.12367269
-0.46151853 -0.32404742 0.12185565 0.002767907 -0.020438902 -0.023596298 0.16227639 -0.12634963
-0.41127762 0.07476623 0.043962173 -0.031908985 -0.0070286286 -0.33314022 0.03512449 0.0868801
0.12970431 -0.09512524 -0.21327531 -0.04141576 0.044446014 -0.30515525 -0.0071246806 -0.009112672
-0.0374716 0.13728358 -0.059491873 0.104080275 0.11219773 0.16650824 0.11274794 0.043697402
-0.20700404 0.11526316 0.14964792 -0.03771561 0.17006087 0.042625908 0.0457001 -0.2829281
0.116070814 -0.038763434 0.032932617 0.014338627 -0.047648758 0.13729656 -0.029957043 0.16585216
-0.04751437 -0.3346984 0.15823933 0.13659488 0.120682366 -0.15339129 0.17267756 -0.028797625
-0.39491692 -0.12717439 -0.035282694 0.10905004 0.14246011 0.14759308 -0.17738634 -0.15356119
0.19323757 0.1450691 0.029076332 -0.2147589 -0.18412122 0.085637875 -0.04622 0.111831866
-0.10613737 0.04558228 -0.42072594 0.13697655 -0.17528947 -0.03428784 0.3116631 0.04414001
0.122903 -0.30180696 -0.0076796054 0.13603021 -0.02133976 -5.798201e-05 -0.102573186 0.13530977
-0.22200526 0.116333924 0.0007350851 -0.03193906 0.03504437 0.10975877 0.10253804 0.03482053
0.04932095 -0.02956979 -0.008325344 -0.47375718 0.13507006 0.13196132 0.09354528 0.10170063
-0.19207963 0.14449473 0.016864857 0.1060526 0.22170536 -0.24433485 0.102091305 -0.10879296
0.027347177 -0.048681386 0.0022331509 0.24627504 -0.43947014 -0.2978677 -0.43317133 -0.02648427
0.1443021 0.08473565 -0.09238333 -0.27176702 -0.1632786 -0.08573512 0.05717271 0.16519085
-0.1828717 0.1192318 -0.3882654 0.1130155 0.102742404 -0.22260024 0.12343476 0.10060332
00000000: be91 f43d 4552 89be ae10 d93d dafd b83d
00000010: e738 953b dda1 253d 54a8 b4bc 7574 103b
00000020: 8616 1abd b363 2abd 4573 fe3d a15d 193e
00000030: 3360 e3be e860 f73d 2f75 aa3d bfc8 df3d
00000040: 566f 183e a429 29be 7a78 033e 26c0 15bd
00000050: c2ab 453d 67c8 91ba 1426 273e 18a0 87bc
00000060: 30ff 36be e569 033d e9d2 aebc 6689 adbc
00000070: 83c7 8dbb adf5 1c3e dab7 023e 2b5e e3bc
00000080: 2bb4 9fbe 84f8 d53d 5a78 13bc a5dd c13d
00000090: 34ff d6be 375e 933b 9e9c f23d 2b31 2ebd
000000a0: dcbc 50bc e937 7dbc 4ae7 8dbe 260e 4a3e
000000b0: 90b9 be3d cb74 553e 4323 27bd 4337 933c
000000c0: 18e3 16bd 9477 b6bc 1bb7 e4be c55e 193d
000000d0: c346 0e3e 2ae2 48bd 90b6 593e 89c3 08bd
000000e0: 0422 473e 9f0a c43d 2f89 aa3d 5724 57be
000000f0: db4c bf3d 3614 0fbe 86b3 d5bc 69d9 053e
00000100: c81c 8dbd d78f 3bbd 86e0 bc3d a41a 893d
00000110: 80c0 c33d defe dcbe 9fb1 78bc 466d cdba
00000120: d915 d2be 95e1 313e 9e7d f93d 27c2 b7bb
00000130: 12bd 2bbd 2d0b 4fbe 2610 123e 0f7a 593e
00000140: 682a a4be 5a9f 903d 0e7a 4fbe 5569 9f3d
00000150: b4c5 bf3d f707 d4bd 5de2 7fbd 801a d4be
00000160: 96a0 9e3d 45c0 63be 80e2 05bc 8d3c b1be
00000170: 78d9 953c d303 9f3c 60b2 d03d 8626 d43d
00000180: 6c97 363e a8ec 2abd 6da2 e43d 0623 233e
00000190: 44c1 9bbe e720 cd3d 22c5 923e 71c7 f4bc
000001a0: 3389 e5bb 4217 36bd 10ee f8be a052 51bc
000001b0: d1e6 df3d d3f8 61bd 22ef 113e 7ff5 083e
000001c0: 0dca 623d 7db2 1cbc 5254 2b3e dba1 c9bc
000001d0: e89f a53d 7b37 0ebd e256 0bbe 1b48 fd3d
000001e0: 284c ecbe 8be9 a5be 748f f93d c665 353b
000001f0: 7c6f a7bc 064d c1bc c82b 263e cc61 01be
00000200: fb92 d2be 0a1f 993d ae11 343d ffb2 02bd
00000210: 6950 e6bb 5b91 aabe b2de 0f3d 32ee b13d
00000220: 35d1 043e 06d1 c2bd d864 5abe 92a3 29bd
00000230: 060d 363d 4f3d 9cbe 2776 e9bb 514d 15bc
00000240: d27b 19bd 1194 0c3e c0ad 73bd 0a28 d53d
00000250: ecc7 e53d 2381 2a3e 64e8 e63d 0cfc 323d
00000260: def8 53be 170f ec3d 4e3d 193e af7b 1abd
00000270: 7024 2e3e 8198 2e3d 0730 3b3d f4db 90be
00000280: 89b6 ed3d 68c6 1ebd 5ae4 063d 90ec 6a3c
00000290: 582b 43bd 7897 0c3e 7968 f5bc 26d5 293e
000002a0: 6e9e 42bd 975d abbe 7e09 223e 87df 0b3e
000002b0: 5128 f73d 9b12 1dbe 63d2 303e ffe8 ebbc
000002c0: 8d32 cabe 013a 02be 9684 10bd a155 df3d
000002d0: 10e1 113e a422 173e c4a4 35be 253f 1dbe
000002e0: 12e0 453e ff8c 143e 7d31 ee3c c2e9 5bbe
000002f0: 468a 3cbe e962 af3d 2f51 3dbd 1b08 e53d
00000300: 8d5e d9bd 7cb4 3a3d 6469 d7be 9543 0c3e
00000310: 157f 33be 6871 0cbd 4e92 9f3e 28cc 343d
00000320: 91b4 fb3d 7186 9abe 33a5 fbbb 814b 0b3e
00000330: b8d0 aebc b631 73b8 e411 d2bd a58e 0a3e
00000340: 5955 63be 7b40 ee3d bab2 403a 88d2 02bd
00000350: af8a 0f3d 35c9 e03d 77ff d13d f99f 0e3d
00000360: c404 4a3d 583c f2bc 0667 08bc 4d90 f2be
00000370: ce4f 0a3e de20 073e ab94 bf3d 6b48 d03d
00000380: 86b0 44be 6df6 133e 2b28 8a3c 1b32 d93d
00000390: bb06 633e ea32 7abe 3f15 d13d d8ce debd
000003a0: 3007 e03c 2266 47bd 0e5a 123b 862f 7c3e
000003b0: 3b02 e1be 1d82 98be a2c8 ddbe 8af5 d8bc
000003c0: eec3 133e e289 ad3d 7933 bdbd 0c25 8bbe
000003d0: 8132 27be e595 afbd ee2d 6a3d ca27 293e
000003e0: b842 3bbe cd2f f43d b9ca c6be ac74 e73d
000003f0: 9c6a d23d 51f1 63be 5dcb fc3d 1d09 ce3d

fc3.bias f4 [2]
0.0068666358 -0.032152914
00000000: 8401 e13b c6b2 03bd
