reinforcement_learning/models_cartpole/cartpole_ne500_lr0.0001_ep0.9dqn_agent.pt (torch, 654679 bytes, 6 tensors)

fc1.weight f4 [400, 4]
0.24605687 -0.27999613 0.40793276 0.31113237 0.0060308417 -0.14602925 -0.051139582 0.2488703
0.24595617 0.31304565 -0.3752154 0.11562157 0.09766091 0.050500177 -0.5292096 -0.3914358
0.09778092 0.41604137 0.5451499 -0.30449092 -0.36707854 -0.24151783 -0.61234784 -0.09136575
-0.17680103 -0.12071702 -0.69674444 -0.25569585 0.27641416 -0.08701888 -0.48216426 -0.2655769
0.20422687 0.51706964 0.54030585 0.21877229 0.27228513 -0.420504 0.36109102 0.03581
-0.025816837 -0.32217258 -0.67899084 -0.32098842 -0.49780732 0.44453564 0.46876976 -0.16500603
0.20018528 0.14591575 -0.59026504 -0.2662233 -0.078405865 0.16042143 0.12400586 0.2224687
0.3017184 0.33482268 -0.48481986 -0.06951389 0.2619651 -0.46899235 0.26372015 -0.49593222
0.051147852 -0.3135218 0.22253613 0.2639459 -0.45116425 -0.17598492 -0.1803528 0.086041175
-0.012249102 -0.40785807 -0.52238816 -0.47225317 -0.24568264 0.39680746 0.40402842 -0.44766343
0.02390332 -0.013752365 -0.30846485 0.21498103 0.20287478 0.24017711 0.68264854 0.2195487
0.36859167 0.13728666 0.4345023 0.39215955 -0.4893686 -0.42581445 -0.5529063 0.4105231
-0.26734895 0.41497102 -0.1946927 0.48817647 0.11509642 0.3593552 -0.093425736 0.34043768
0.34302393 0.16511631 -0.12623852 -0.36046103 0.4049065 -0.077438004 0.67503387 0.39428848
-0.086419895 0.07658047 -0.77597165 -0.3030446 0.38137138 -0.36799937 -0.6460966 -0.41701543
-0.2897435 -0.120863944 -0.10746847 -0.23418781 -0.083684824 -0.21921533 0.36724156 -0.20721915
-0.51589006 0.23682523 -0.20840406 0.18126427 -0.13604513 -0.25182962 -0.14683366 0.12862979
0.10356699 0.3778219 0.0038420907 0.2796861 -0.55545723 -0.2296513 0.32024083 -0.0015379206
0.24715139 -0.29265344 -0.4967823 0.43319193 0.08404801 0.040893964 -0.16300666 -0.3456792
0.441153 -0.24983571 -0.2877117 -0.3259012 -0.2732491 -0.06380798 0.3922045 -0.026752314
0.45793566 -0.521784 0.42710397 -0.28266782 0.39088392 -0.20823525 -0.5364101 -0.47145563
-0.39906842 -0.3528548 -0.5141587 0.3579742 -0.15775053 0.43284884 -0.6090496 0.06003316
-0.18216333 -0.003191681 0.76159626 -0.047942806 0.19381072 0.08423326 -0.73333484 -0.2120239
-0.5155987 0.35040078 0.37105212 0.16681325 0.21858025 0.05376091 -0.3702044 0.13355443
0.56776506 -0.031052204 0.0205653 -0.032554634 -0.58673745 0.424959 0.39438802 -0.21446314
0.34673196 -0.4082827 0.31005853 0.342953 0.4838092 0.4002924 0.12095713 -0.1038548
-0.1270023 -0.18575148 -0.42043045 -0.26736736 -0.03642804 0.5511525 -0.5612107 -0.37629786
0.12788193 0.039968487 -0.5059821 -0.39502817 0.04004738 0.08189854 0.2841049 0.32796928
0.36772543 -0.08399744 -0.16918342 -0.02089658 -0.2568216 -0.3191504 0.5309916 0.24813381
-0.11362088 0.09249598 0.11746478 -0.025700152 0.17281495 -0.51153123 0.13810912 0.25228718
0.36627966 0.03509475 0.11817645 0.009844923 0.32472956 -0.4490148 -0.16324793 -0.42834353
-0.25748447 0.30897534 -0.07027528 -0.42608804 -0.22560248 0.39865327 0.06909313 -0.054866742
00000000: 55f6 7b3e a75b 8fbe 90dc d03e be4c 9f3e
00000010: 5e9e c53b b188 15be bd77 51bd dbd7 7e3e
00000020: efdb 7b3e 8547 a03e 3c1c c0be 00cb ec3d
00000030: 7102 c83d 46d9 4e3d 487a 07bf 466a c8be
00000040: 5d41 c83d 6003 d53e f28e 0b3f 3ce6 9bbe
00000050: b8f1 bbbe 7350 77be d4c2 1cbf f71d bbbd
00000060: 540b 35be 7c3a f7bd d85d 32bf 91ea 82be
00000070: 2886 8d3e f436 b2bd 3cde f6be b2f9 87be
00000080: d920 513e ad5e 043f 7c51 0a3f d805 603e
00000090: f568 8b3e 4d4c d7be ece0 b83e 82ad 123d
000000a0: d57d d3bc cef3 a4be 58d2 2dbf 9858 a4be
000000b0: 9ae0 febe 2d9a e33e 9702 f03e 57f7 28be
000000c0: 5ffd 4c3e f06a 153e 9c1b 17bf 6c4e 88be
000000d0: 4193 a0bd 8445 243e c9f6 fd3d d6ce 633e
000000e0: d67a 9a3e e16d ab3e 4f3a f8be 4c5d 8ebd
000000f0: 4a20 863e c41f f0be 5406 873e d4ea fdbe
00000100: 6980 513d ee85 a0be 83e0 633e eb23 873e
00000110: 00ff e6be 6435 34be 68ae 38be 5b36 b03d
00000120: 75b0 48bc c6d2 d0be 3bbb 05bf 2bcb f1be
00000130: 3b94 7bbe 592a cb3e d0dc ce3e 2434 e5be
00000140: e5d0 c33c 9951 61bc 1bef 9dbe fd23 5c3e
00000150: 68be 4f3e fdf0 753e 0ec2 2e3f 60d1 603e
00000160: 0cb8 bc3e e094 0c3e 1677 de3e 23c9 c83e
00000170: 858e fabe 5a04 dabe 448b 0dbf 1530 d23e
00000180: f6e1 88be 1577 d43e 865d 47be 44f2 f93e
00000190: acb7 eb3d 68fd b73e fe55 bfbd d94d ae3e
000001a0: d5a0 af3e 4014 293e ac44 01be 598e b8be
000001b0: e84f cf3e d197 9ebd 05cf 2c3f 2ee0 c93e
000001c0: eafc b0bd 39d6 9c3d 14a6 46bf a928 9bbe
000001d0: 1c43 c33e 6a6a bcbe 9666 25bf 0c83 d5be
000001e0: 4359 94be 8487 f7bd 6e18 dcbd eece 6fbe
000001f0: f362 abbd fc79 60be 1607 bc3e 4231 54be
00000200: 5f11 04bf 5082 723e e067 55be 579d 393e
00000210: 6a4f 0bbe d0ef 80be 905b 16be 87b7 033e
00000220: ee1a d43d df71 c13e 96cb 7b3b 0433 8f3e
00000230: 7232 0ebf b629 6bbe 9bf6 a33e 0d94 c9ba
00000240: 4115 7d3e acd6 95be 405a febe 55cb dd3e
00000250: 5d21 ac3d 6e80 273d 38eb 26be ddfc b0be
00000260: cede e13e efd4 7fbe f34e 93be 86dc a6be
00000270: 4ee7 8bbe c2ad 82bd 07cf c83e ab27 dbbc
00000280: 8b76 ea3e a393 05bf 5fad da3e d6b9 90be
00000290: f021 c83e 9f3b 55be 2c52 09bf a262 f1be
000002a0: b252 ccbe 62a9 b4be e89f 03bf 6548 b73e
000002b0: 5b89 21be 5d9e dd3e adea 1bbf 55e5 753d
000002c0: 0689 3abe 862b 51bb f9f7 423f ad5f 44bd
000002d0: 5176 463e 7d82 ac3d d5bb 3bbf cb1c 59be
000002e0: 47fe 03bf bb67 b33e 8bfa bd3e 18d1 2a3e
000002f0: 80d3 5f3e 6634 5c3d 6e8b bdbe 7ec2 083e
00000300: 0d59 113f 3161 febc 8f78 a83c 0258 05bd
00000310: 6d34 16bf 3a94 d93e 3aed c93e 3a9c 5bbe
00000320: da86 b13e 6e0a d1be febf 9e3e 8997 af3e
00000330: d7b5 f73e 20f3 cc3e 5fb8 f73d d3b1 d4bd
00000340: e40c 02be a335 3ebe a942 d7be 60e4 88be
00000350: 9235 15bd 5518 0d3f 81ab 0fbf 1daa c0be
00000360: 7bf3 023e ffb5 233d 0b88 01bf 2241 cabe
00000370: b908 243d 6cba a73d 3376 913e 97eb a73e
00000380: 8246 bc3e da06 acbd 6b3e 2dbe 4e2f abbc
00000390: 1f7e 83be ae67 a3be 11ef 073f ca16 7e3e
000003a0: 10b2 e8bd 886e bd3d 6091 f03d 2089 d2bc
000003b0: 67f6 303e b6f3 02bf 7a6c 0d3e c92b 813e
000003c0: 0289 bb3e 83bf 0f3d 7f06 f23d 9a4c 213c
000003d0: f442 a63e 45e5 e5be 772a 27be d84f dbbe
000003e0: 01d5 83be 0432 9e3e 7cec 8fbd 3628 dabe
000003f0: 5604 67be 481c cc3e b380 8d3d f3bb 60bd

fc1.bias f4 [400]
-0.49332434 0.44511726 0.26658446 0.26355362 0.45024565 -0.035392508 -0.16434921 0.036553968
0.40728363 -0.16164167 -0.16083187 -0.15738083 0.035680618 0.41749617 -0.33663425 0.34494978
-0.33580458 -0.43470386 0.480695 -0.42898917 0.38721594 0.18191613 0.1344873 -0.0032903124
0.42862493 0.4442637 0.15532668 -0.10117834 -0.38636154 0.4812855 0.20000862 -0.19592631
0.07949829 -0.5728408 -0.5713286 0.19364154 0.5124924 -0.4353665 0.17155558 -0.62458676
-0.12271011 -0.3827211 0.22347255 -0.2603023 0.16766328 -0.3642368 0.26058695 0.49752477
-0.07182569 0.08073041 0.31415012 -0.32658166 0.30810648 0.16048233 -0.3362457 -0.27882227
-0.35903248 -0.08202945 -0.42246497 -0.27578506 -0.31822118 -0.43161795 0.49942145 -0.16850966
-0.25526655 -0.3081191 -0.48308164 -0.30795774 0.30041152 0.4265811 -0.37378418 -0.46934637
0.4084169 -0.06721526 0.56003493 0.42044818 0.13872261 -0.19868591 0.24120326 0.26530966
0.27615792 -0.41058347 0.44488072 0.13967599 -0.63401043 0.22943789 0.12122571 -0.27874544
0.42598373 0.29788044 -0.2569149 -0.017865557 0.21320511 0.3104545 0.29914334 0.15789992
0.42957166 -0.17128038 -0.32237148 -0.2024773 -0.11943369 0.28439632 -0.26389936 0.5086643
-0.3854638 -0.25253785 0.29520097 0.13516623 0.11860656 -0.15498589 -0.07049245 -0.35404134
0.53871995 -0.23582238 0.49308115 -0.12037572 -0.4418643 -0.2731101 -0.31951982 -0.5014194
0.22005883 -0.05417098 -0.5947801 0.40330714 0.36586517 0.31754157 -0.06349977 0.5391005
0.39459997 -0.15189306 0.2887043 0.37212586 0.03774747 0.1599372 -0.14472766 -0.18727139
-0.34316406 -0.24162388 0.23366332 0.01647616 0.29382446 -0.39940727 -0.18850088 0.3998872
0.49478126 0.16936727 -0.15155919 -0.33340684 0.043507673 0.20391367 -0.47564512 -0.5186348
-0.06303791 -0.21031503 0.23000719 0.23059548 0.118375964 0.19851187 0.38970995 -0.21290964
0.4842559 -0.38902932 0.47615728 -0.29876468 0.090361305 -0.037884198 -0.08777474 0.13459323
-0.14987686 0.28511903 -0.40935588 0.3264147 -0.28110638 -0.366817 0.13050461 0.08164094
0.23950444 0.23143227 -0.2953895 -0.0645834 0.47280312 -0.33680797 0.27349976 0.36803237
-0.15038335 0.5141401 -0.08552057 -0.23544544 0.5293937 -0.51773167 -0.09209263 -0.46266228
0.13713561 0.13595767 0.47395015 -0.440948 -0.055228803 0.2654626 -0.2230367 -0.4639539
0.033098076 -0.5167867 -0.668771 0.30090332 0.35717797 0.2985478 0.108488165 -0.0054729437
-0.07172114 0.2567189 -0.3620268 -0.14931107 -0.27171272 -0.26141727 -0.45101267 -0.23043238
-0.21993594 0.47816664 0.06926613 0.2918338 -0.10657098 -0.09764208 0.0725486 0.05736657
0.14398779 -0.10576769 0.1675453 -0.27623272 -0.2845377 0.20537698 -0.49563703 -0.5506421
-0.49147052 0.015590512 0.10962066 0.12170999 -0.32407907 0.080193624 -0.03690858 0.13035367
-0.15326095 0.38449082 -0.43968755 0.49885783 0.1804615 0.08893737 0.27196458 0.4099535
0.6227064 0.51942533 -0.13989165 -0.20895669 0.2947887 0.48039016 -0.3970179 0.49613225
00000000: 0295 fcbe 69e6 e33e c27d 883e 80f0 863e
00000010: 9986 e63e bcf7 10bd 294b 28be 9db9 153d
00000020: 7b87 d03e 6585 25be 1cb1 24be 7128 21be
00000030: d725 123d 0fc2 d53e 535b acbe 429d b03e
00000040: 94ee abbe 8191 debe a81d f63e 78a4 dbbe
00000050: 2b41 c63e 3948 3a3e 0ab7 093e 48a2 57bb
00000060: ba74 db3e 8876 e33e f50d 1f3e 9736 cfbd
00000070: 2ed1 c5be 0e6b f63e 0fcf 4c3e e8a0 48be
00000080: 00d0 a23d b2a5 12bf 9742 12bf f849 463e
00000090: b432 033f 5ce8 debe 44ac 2f3e ebe4 1fbf
000000a0: 704f fbbd 05f4 c3be fdd5 643e 5846 85be
000000b0: ecaf 2b3e 3f7d babe a76b 853e 91bb fe3e
000000c0: 5919 93bd fc55 a53d 49d8 a03e b635 a7be
000000d0: 22c0 9d3e 7b55 243e 6528 acbe cbc1 8ebe
000000e0: 1bd3 b7be 0eff a7bd 544d d8be b333 8dbe
000000f0: e3ed a2be 07fd dcbe 2bb4 ff3e cc8d 2cbe
00000100: 4cb2 82be c9c1 9dbe 7a56 f7be a3ac 9dbe
00000110: 8acf 993e d768 da3e a460 bfbe 2b4e f0be
00000120: 051c d13e 27a8 89bd 735e 0f3f fc44 d73e
00000130: 4d0d 0e3e 5274 4bbe fdfd 763e abd6 873e
00000140: 9264 8d3e ff37 d2be 68c7 e33e 3907 0f3e
00000150: 824e 22bf c4f1 6a3e 2f45 f83d b9b7 8ebe
00000160: 8a1a da3e c983 983e 5a8a 83be ca5a 92bc
00000170: 7152 5a3e e4f3 9e3e 5129 993e 84b0 213e
00000180: d1f0 db3e 2064 2fbe e00d a5be 3656 4fbe
00000190: a799 f4bd 659c 913e d11d 87be d337 023f
000001a0: 835b c5be a44c 81be 9524 973e 0469 0a3e
000001b0: ffe7 f23d 9fb4 1ebe 585e 90bd e844 b5be
000001c0: 8de9 093f 6c7b 71be 2275 fc3e 8c87 f6bd
000001d0: 0a3c e2be 16d5 8bbe 1a98 a3be 065d 00bf
000001e0: 1a57 613e 64e2 5dbd 8243 18bf 467e ce3e
000001f0: ae52 bb3e cf94 a23e 2b0c 82bd 7e02 0a3f
00000200: 0209 ca3e db89 1bbe 0dd1 933e 4887 be3e
00000210: 179d 1a3d 94c6 233e 7d33 14be 12c4 3fbe
00000220: 33b3 afbe 406c 77be 7045 6f3e 03f9 863c
00000230: 2970 963e 1c7f ccbe 6006 41be 04be cc3e
00000240: f853 fd3e 9d6e 2d3e 5532 1bbe 4db4 aabe
00000250: 1a35 323d bfce 503e c287 f3be 40c5 04bf
00000260: 051a 81bd d35c 57be 0187 6b3e 3921 6c3e
00000270: 196f f23d b246 4b3e 1088 c73e fc04 5abe
00000280: 64f0 f73e da2e c7be e3ca f33e aff7 98be
00000290: 590f b93d 762c 1bbd 3ec3 b3bd cfd2 093e
000002a0: 5279 19be 1ffb 913e 1897 d1be d41f a73e
000002b0: 2ded 8fbe 70cf bbbe 00a3 053e 5d33 a73d
000002c0: a740 753e 95fc 6c3e 4b3d 97be 4d44 84bd
000002d0: 4013 f23e 1872 acbe 2908 8c3e bd6e bc3e
000002e0: 18fe 19be b09e 033f 6925 afbd 9c18 71be
000002f0: 5886 073f 108a 04bf 109b bcbd 12e2 ecbe
00000300: 476d 0c3e 7d38 0b3e 98a9 f23e f0c3 e1be
00000310: 9937 62bd b7ea 873e bc63 64be 5e8b edbe
00000320: d991 073d 224c 04bf 9434 2bbf 0010 9a3e
00000330: 08e0 b63e 42db 983e 0b2f de3d 6156 b3bb
00000340: 88e2 92bd a970 833e 945b b9be 00e5 18be
00000350: ee1d 8bbe 7cd8 85be 22eb e6be 77f6 6bbe
00000360: e336 61be 42d2 f43e 67db 8d3d 3d6b 953e
00000370: e341 dabd 92f8 c7bd 5c94 943d 35f9 6a3d
00000380: 8971 133e bb9c d8bd ff90 2b3e 606e 8dbe
00000390: edae 91be 584e 523e 23c4 fdbe e1f6 0cbf
000003a0: 06a2 fbbe 596f 7f3c cc80 e03d 1643 f93d
000003b0: b1ed a5be 8e3c a43d 742d 17bd 6f7b 053e
000003c0: 70f0 1cbe fbdb c43e ba1e e1be 4b6a ff3e
000003d0: e6ca 383e cc24 b63d f13e 8b3e 6de5 d13e
000003e0: b069 1f3f 0ff9 043f c23f 0fbe bef8 55be
000003f0: 8bee 963e b3f5 f53e ee45 cbbe 0c05 fe3e

fc2.weight f4 [400, 400]
-0.13997284 -0.021797173 0.03903848 0.028479716 -0.07122795 -0.2357037 0.14868443 -0.017615907
-0.011154232 -0.06500424 0.32770076 -0.19349185 0.011139589 0.010887719 0.0048443414 -0.07011445
-0.049459245 -0.29035547 0.027988117 -0.1413667 -0.0026510821 0.059807517 0.03952519 -0.13690184
0.06899637 0.021252086 -0.014283566 0.06313598 0.17252807 0.025259905 0.010719852 -0.11879861
0.13187955 -0.12071939 0.06732841 -0.050270326 -0.011264926 -0.0550864 -0.006016071 0.031252265
-0.13327533 0.3191474 -0.10088897 -0.06399281 -0.059426874 0.20113362 0.030791778 -0.008420162
-0.16257446 -0.06710267 -0.0456353 -0.07686309 0.0057477923 -0.048190437 0.17270523 -0.030458169
0.1292578 -0.020271145 -0.029806191 -0.07264116 0.14633308 -0.083983995 -0.035923265 -0.22194964
-0.07584233 0.059551295 -0.048820674 0.008815705 0.02577099 -0.05954419 0.005543601 0.073534906
0.0012779438 -0.15285622 0.041174613 -0.04275703 -0.059107278 0.3114566 -0.12475507 -0.01754386
0.05462382 0.25881067 -0.03681938 -0.14973171 -0.18722616 -0.030563364 -0.10440172 0.119043946
0.0020429397 0.020058692 -0.06662008 -0.09939347 0.032982398 -0.034594163 0.054635927 -0.009471562
0.006616302 0.025941504 0.1605416 0.030524481 -0.07992653 0.00083976635 -0.16667351 -0.0050159
0.21678199 -0.009213394 0.031300295 0.009417418 0.072641276 -0.0023080888 -0.028758474 -0.018888127
-0.015672382 0.305074 0.009277985 0.09834173 -0.082064055 0.020034071 0.19805881 0.19164874
0.00056852674 0.06569125 -0.20444341 -0.057581387 0.008750879 -0.011250924 0.03625142 -0.04469076
0.0020461653 -0.1575796 0.012946365 0.045794424 0.030653602 0.016964583 0.034090634 -0.059960116
-0.049008004 0.08373321 0.020471787 0.14952849 -0.011639247 -0.068315916 0.12899086 -0.003700326
0.0073899166 -0.051489282 0.08707503 -0.073868394 -0.055214778 0.024811113 -0.044803992 -0.12941556
0.08544309 0.07668483 -0.041669108 0.009848507 0.0016999992 -0.008497929 -0.026888426 -0.08465379
-0.061531 0.0550772 0.021628615 0.0826927 0.111862876 0.04335736 0.07578855 -0.045652706
-0.189624 0.030094562 0.023782624 0.014686852 -0.021061258 -0.1306622 -0.1438943 0.029138345
0.091212474 -0.046299145 -0.05894361 0.024089161 -0.011156115 0.0027122651 0.0137981465 -0.025927108
0.44565555 -0.013886858 -0.121623956 -0.052147307 -0.016904578 0.12291156 0.16290541 -0.053941596
-0.05606219 0.009048315 -0.0016829794 -0.11882765 -0.23021221 -0.021469668 -0.07784913 -0.027668132
0.04080042 0.07390855 -0.09452798 -0.023947876 0.06952321 -0.07777198 -0.0071607223 0.18731879
0.19990328 -0.05818755 0.1263629 -0.01932995 -0.016216822 -0.004867995 0.017036945 0.39383247
-0.059824623 -0.04032381 -0.045063104 -0.0032475712 0.081839375 -0.08208658 -0.033308044 -0.031580113
-0.14797166 0.08192166 -0.0017582568 -0.00040293988 0.28216094 0.18436395 0.168643 0.14947176
0.023529232 0.035984278 -0.032853905 -0.08143392 -0.09845232 0.029421251 -0.07869018 -0.24467495
0.08930045 -0.019240398 0.14663248 -0.019448599 -0.105580516 -0.0333317 0.026716797 0.010815827
0.01581596 0.005687125 0.2436749 0.09057738 -0.08303221 -0.042791348 -0.12412517 0.042619314
00000000: 0a55 0fbe fc8f b2bc d0e6 1f3d 4b4e e93c
00000010: f6df 91bd 505c 71be bb40 183e 3c4f 90bc
00000020: 3dc0 36bc f120 85bd 65c8 a73e ba22 46be
00000030: d382 363c 6762 323c 48bd 9e3b 2a98 8fbd
00000040: c795 4abd 79a9 94be 5647 e53c 6fc2 10be
00000050: c7bd 2dbb baf8 743d 2ae5 213d ff2f 0cbe
00000060: f84d 8d3d db18 ae3c 9e05 6abc 704d 813d
00000070: 33ab 303e dced ce3c 51a2 2f3c b04c f3bd
00000080: 6f0b 073e ba3b f7bd 7ae3 893d 42e8 4dbd
00000090: 8690 38bc 47a2 61bd 7622 c5bb 6002 003d
000000a0: 5479 08be 4a67 a33e e09e cebd aa0e 83bd
000000b0: 9869 73bd f9f5 4d3e 0a3f fc3c b8f4 09bc
000000c0: eb79 26be 206d 89bd 15ec 3abd 656a 9dbd
000000d0: fa57 bc3b 5663 45bd a4d9 303e 6983 f9bc
000000e0: 285c 043e ac0f a6bc 1d2c f4bc e3c4 94bd
000000f0: 57d8 153e cdff abbd 4624 13bd c446 63be
00000100: 3953 9bbd 0fec 733d 30f8 47bd bf6f 103c
00000110: af1d d33c 9ce4 73bd 18a7 b53b 7899 963d
00000120: ae80 a73a 5786 1cbe b6a6 283d ff21 2fbd
00000130: 791a 72bd 3d77 9f3e 967f ffbd 24b8 8fbc
00000140: 3abd 5f3d d582 843e ebcf 16bd 4553 19be
00000150: 37b8 3fbe 0560 fabc 92d0 d5bd 50cd f33d
00000160: d7e2 053b 2052 a43c 1c70 88bd ce8e cbbd
00000170: 8d18 073d 9cb2 0dbd ecc9 5f3d 9c2e 1bbc
00000180: 90cd d83b 4783 d43c 0465 243e 7a0e fa3c
00000190: 85b0 a3bd c423 5c3a 76ac 2abe 6b5c a4bb
000001a0: 19fc 5d3e c6f3 16bc bd34 003d 844b 1a3c
000001b0: f3c4 943d 4e43 17bb e496 ebbc 46bb 9abc
000001c0: 5e63 80bc a932 9c3e b102 183c 6467 c93d
000001d0: 3311 a8bd 7e1e a43c eecf 4a3e 913f 443e
000001e0: 2f09 153a 2289 863d 9d59 51be 76da 6bbd
000001f0: d95f 0f3c cc55 38bc 5e7c 143d a90d 37bd
00000200: f518 063b 8c5c 21be fe1c 543c ef92 3b3d
00000210: 431d fb3c 4ff9 8a3c 9fa2 0b3d bd98 75bd
00000220: 9ebc 48bd 517c ab3d 73b4 a73c ff1d 193e
00000230: 8ab2 3ebc 37e9 8bbd 2e16 043e 2b81 72bb
00000240: 1d27 f23b 6de6 52bd 6554 b23d 5048 97bd
00000250: e428 62bd ad40 cb3c 6484 37bd 8385 04be
00000260: c9fc ae3d f00c 9d3d 3aad 2abd a25b 213c
00000270: 82d2 de3a e63a 0bbc 1e45 dcbc f75e adbd
00000280: ee07 7cbd a198 613d 7e2e b13c ca5a a93d
00000290: 5d18 e53d 7d97 313d 0737 9b3d 55fe 3abd
000002a0: cb2c 42be df88 f63c c7d3 c23c 1fa1 703c
000002b0: a988 acbc 50cc 05be 0759 13be 8ab3 ee3c
000002c0: 9bcd ba3d 2ca4 3dbd db6e 71bd a256 c53c
000002d0: 23c8 36bc 42c0 313b 9f11 623c 1665 d4bc
000002e0: f72c e43e b485 63bc fb15 f9bd 6a98 55bd
000002f0: 787b 8abc 0eb9 fb3d add0 263e ddf1 5cbd
00000300: 78a1 65bd 623f 143c 6b97 dcba e95b f3bd
00000310: c0bc 6bbe 28e1 afbc 5d6f 9fbd 47a8 e2bc
00000320: 571e 273d 5e5d 973d e397 c1bd 562e c4bc
00000330: 2f62 8e3d ea46 9fbd 7ea4 eabb 7fd0 3f3e
00000340: 72b3 4c3e 1256 6ebd 4765 013e d859 9ebc
00000350: 24d9 84bc b483 9fbb 1091 8b3c 69a4 c93e
00000360: aa0a 75bd 942a 25bd 1794 38bd 34d5 54bb
00000370: 679b a73d 021d a8bd 046e 08bd 265a 01bd
00000380: e285 17be 8bc6 a73d 4f75 e6ba ad41 d3b9
00000390: 6677 903e e7c9 3c3e c0b0 2c3e 200f 193e
000003a0: 60c0 c03c 4064 133d d191 06bd d4c6 a6bd
000003b0: 5fa1 c9bd d604 f13c 5128 a1bd 128c 7abe
000003c0: 28e3 b63d 0a9e 9dbc d326 163e ab52 9fbc
000003d0: 993a d8bd d286 08bd 2fdd da3c de34 313c
000003e0: 7990 813c 105b ba3b ea85 793e a280 b93d
000003f0: cb0c aabd fb45 2fbd 5635 febd 9791 2e3d

fc2.bias f4 [400]
-0.0292962 0.021994881 -0.05417371 0.03656579 0.027797353 0.043505255 0.0051541193 -0.007946581
0.0152459955 0.039824974 0.0074334955 -0.003751856 0.08072318 0.02781961 -0.03581594 0.031485014
0.005492107 -0.01329006 0.022867093 0.060935933 -0.031727117 -0.027110936 0.023453102 0.034987878
-0.00818307 0.052965008 -0.008557588 0.06631565 0.059465613 -0.0046683773 0.07699162 -0.033108532
0.023501275 -0.00814687 0.035353385 0.031947948 0.037210133 0.0730958 -0.032482304 0.086245745
0.0038402032 -0.008536996 -0.027094772 -0.011373188 -0.019732289 0.060627792 0.019775253 -0.024391424
0.04894535 0.041575633 -0.020372294 0.010215547 0.038673162 0.03841145 -0.021286994 0.054399025
-0.023342555 0.050049737 0.048299655 -0.033131808 0.038105167 0.017937945 0.010839893 0.04705103
0.040305592 0.036633883 -0.0151278 -0.044302423 -0.014966301 -0.043516397 0.0674488 -0.007513605
0.016308116 -0.040415786 0.0068814536 0.0038560159 -0.0061126747 0.043902475 0.008100823 0.07118242
-0.03436165 -0.028062595 -0.015068549 0.0580557 0.059970286 0.07159184 0.06863081 0.029745527
0.05468492 0.007566866 0.049740113 0.037341084 -0.011071385 0.04765178 0.06961483 0.05716358
0.016647542 0.026457902 0.043552753 -0.03671814 0.035260737 0.035425473 -0.04245649 0.03716991
-0.01754087 -0.041011523 0.04329559 -0.012207163 0.023039158 -0.022016337 0.06810934 0.055361364
0.034475554 -0.081588164 0.12012474 0.05623906 0.0049335463 0.018566621 0.0042999145 0.07983381
-0.056537554 0.04680892 0.010629007 -0.050612465 0.0727302 0.07741012 0.02713691 0.025215508
0.0011140255 0.04024064 -0.027379828 -0.036858536 -0.022845417 -0.06141447 0.020689033 0.017874612
-0.035105973 0.07055631 0.022974664 0.03329301 0.046893623 0.038108025 -0.0008362177 -0.0097392015
0.035794634 -0.010875214 0.030131074 0.06120435 -0.02096406 0.030476624 0.032085277 0.026542855
-0.033559524 0.08502326 0.04433165 -0.02748662 -0.039148897 0.0085197855 0.025070967 0.075822935
-0.019932153 -0.027762013 0.048776787 0.024113532 -0.018237209 0.015857248 0.038847517 0.07164812
-0.003184367 0.006420042 0.06839976 -0.008510455 0.029818635 -0.027789198 0.012723666 -0.07982371
0.01211828 0.03376523 -0.025114445 -0.026847005 -0.049157623 -0.0015281353 -0.073444515 -0.005276676
0.077289954 0.005176774 0.08795385 -0.044984963 -0.010849941 0.012182622 0.022518637 0.017884254
-0.033719584 0.070280656 -0.0208798 0.00070855074 0.0002380835 0.015427709 -0.045448683 0.025215982
0.056531038 -0.0048330394 -0.04535221 0.02827642 0.066729926 0.024964727 0.073232144 -0.020329718
0.07823389 -0.059033208 0.002129305 0.077748366 -0.028730778 -0.013132686 -0.04979176 0.044535134
0.03698715 0.024831941 0.017632231 -0.007303217 0.012522152 -0.0008277028 -0.011205233 0.03846554
0.044982184 -0.011758848 -0.066268384 0.012786399 0.05864749 0.015695693 0.036289454 -0.05343156
0.057246983 -0.015134864 -0.16071609 -0.03502254 0.061624013 0.024183847 0.047749016 0.06845113
-0.00017252335 0.018012416 0.042252712 0.092453994 -0.023714716 0.047852937 0.048752315 0.06699566
0.038104527 -0.0029668987 0.019708054 0.0035935824 0.013831751 0.025946101 0.001634904 0.03316131
00000000: 96fe efbc 9c2e b43c 41e5 5dbd 03c6 153d
00000010: 46b7 e33c 9132 323d e3e3 a83b 6032 02bc
00000020: 57ca 793c 831f 233d ae94 f33b b3e1 75bb
00000030: 3252 a53d f3e5 e33c bcb3 12bd 6ef6 003d
00000040: 22f7 b33b 8dbe 59bc c553 bb3c f597 793d
00000050: 4bf4 01bd c117 debc b820 c03c 734f 0f3d
00000060: 4912 06bc d6f1 583d 2035 0cbc 80d0 873d
00000070: 3792 733d 30f9 98bb c8ad 9d3d d09c 07bd
00000080: bf85 c03c 737a 05bc b6ce 103d dadb 023d
00000090: a769 183d 40b3 953d 2a0c 05bd 9ca1 b03d
000000a0: ebab 7b3b c2de 0bbc dbf5 ddbc 9c56 3abc
000000b0: 9ca5 a1bc d954 783d b6ff a13c 86d0 c7bc
000000c0: eb7a 483d 364b 2a3d cce3 a6bc 1c5f 273c
000000d0: c067 1e3d 5355 1d3d 1062 aebc 83d1 5e3d
000000e0: e338 bfbc f400 4d3d dcd5 453d 38b5 07bd
000000f0: 2a14 1c3d 99f2 923c ce99 313c 95b8 403d
00000100: 7a17 253d 690d 163d 98da 77bc 7576 35bd
00000110: 3735 75bc 403e 32bd 9922 8a3d b034 f6bb
00000120: 9998 853c 068b 25bd d17d e13b 36b5 7c3b
00000130: d54c c8bb 15d3 333d 50b9 043c 17c8 913d
00000140: cdbe 0cbd 87e3 e5bc 13e2 76bc d0cb 6d3d
00000150: 67a3 753d be9e 923d 4f8e 8c3d e4ac f33c
00000160: 4bfd 5f3d 79f3 f73b 4abc 4b3d f7f2 183d
00000170: c164 35bc 832e 433d 3892 8e3d 5c24 6a3d
00000180: 6d60 883c 3ebe d83c 5f64 323d c365 16bd
00000190: 906d 103d 4d1a 113d dbe6 2dbd 7a3f 183d
000001a0: dfb1 8fbc b3fb 27bd b756 313d 8d00 48bc
000001b0: 9ebc bc3c 9b5b b4bc e97c 8b3d 99c2 623d
000001c0: 3d36 0d3d b217 a7bd f603 f63d ee5a 663d
000001d0: 96a9 a13b 0719 983c 4ce6 8c3b e97f a33d
000001e0: ec93 67bd b6ba 3f3d 4925 2e3c 044f 4fbd
000001f0: 92f3 943d 3289 9e3d 3a4e de3c c190 ce3c
00000200: 7e04 923a 5fd3 243d a94b e0bc faf8 16bd
00000210: 5026 bbbc bd8d 7bbd 0c7c a93c c76d 923c
00000220: 48cb 0fbd d47f 903d 5d35 bc3c 405e 083d
00000230: 8713 403d 2917 1c3d 9f35 5bba 2c91 1fbc
00000240: 659d 123d f42d 32bc 71d5 f63c 6ab1 7a3d
00000250: d2bc abbc 1daa f93c da6b 033d 6770 d93c
00000260: b675 09bd ad20 ae3d 1b95 353d 9f2b e1bc
00000270: 985a 20bd 9296 0b3c a161 cd3c 0e49 9b3d
00000280: c148 a3bc 296d e3bc 2bca 473d be89 c53c
00000290: 3366 95bc 0fe7 813c 931e 1f3d 40bc 923d
000002a0: d0b0 50bb 375f d23b 2c15 8c3d 6f6f 0bbc
000002b0: 3646 f43c 2ca6 e3bc ec76 503c 9d7a a3bd
000002c0: c08b 463c 694d 0a3d cfbc cdbc 40ee dbbc
000002d0: 8159 49bd b64b c8ba 146a 96bd f7e7 acbb
000002e0: 324a 9e3d eea1 a93b 2621 b43d 2742 38bd
000002f0: f3c3 31bc 9f99 473c 0179 b83c 0082 923c
00000300: 8c1d 0abd 4eef 8f3d 1d0c abbc 09be 393a
00000310: 0ea6 7939 80c4 7c3c 6628 3abd bf91 ce3c
00000320: 178d 673d 795e 9ebb 3dc3 39bd f3a3 e73c
00000330: b3a9 883d d482 cc3c bcfa 953d 828a a6bc
00000340: 1739 a03d cecc 71bd cf8b 0b3b 893a 9f3d
00000350: cf5c ebbc 7a2a 57bc 72f2 4bbd 796a 363d
00000360: d67f 173d 5b6c cb3c 7871 903c d34f efbb
00000370: b629 4d3c 32fa 58ba 2796 37bc 0b8e 1d3d
00000380: 3d3f 383d 2fa8 40bc b8b7 87bd 0b7e 513c
00000390: 5a38 703d 4194 803c 40a4 143d 0ddb 5abd
000003a0: d07b 6a3d 38f8 77bc c292 24be cb73 0fbd
000003b0: 7669 7c3d 341d c63c 7994 433d 1b30 8c3d
000003c0: 62e7 34b9 c68e 933c 2e11 2d3d 8558 bd3d
000003d0: 5d45 c2bc 7101 443d 82b0 473d 0535 893d
000003e0: 7e13 1c3d 4d70 42bb c972 a13c 4f82 6b3b
000003f0: 929e 623c eb8c d43c 464a d63a 27d4 073d

fc3.weight f4 [2, 400]
-0.6326346 -0.11413089 -0.58557487 -0.1419088 0.07068604 0.10356615 -0.41169313 0.033131562
0.13770033 -0.03322093 -0.351173 -0.033161182 0.16489515 -0.034364168 -0.20687714 -0.10760321
0.10425932 -0.008370191 0.09608125 0.11840554 -0.41517365 -0.13844147 0.08524599 0.067624524
0.12892912 0.10532878 0.066893645 0.13309349 -0.0686902 -0.4707213 -0.13023268 0.1206606
0.07964612 -0.3590946 -0.009782145 -0.0379733 -0.28388846 0.11965436 -0.6180056 0.18232256
0.08483403 0.096569836 -0.00940199 0.10465442 0.11574024 0.08711005 0.09880055 -0.08825091
-0.008901084 -0.15208936 0.021424886 -0.15625158 0.0855221 0.12313709 0.0047552707 0.18800217
0.001957977 0.08991844 0.106333435 -0.1185911 0.088854164 0.0085411435 0.12722139 -0.006612755
-0.020009626 0.0519628 -0.012627099 -0.043882143 0.12915538 -0.20923221 0.14241973 -0.09679423
0.09642091 0.036311872 0.14498563 -0.12815627 0.10197933 -0.048855543 0.09944484 0.09954142
-0.30308014 -0.033052117 -0.0040134517 0.11675943 0.074895285 -0.14915961 0.07790895 0.08406647
0.05302167 0.06613278 0.0781505 0.064445704 -0.37966427 0.1433921 -0.23002543 0.120954275
-0.38247395 0.10492302 -0.012648841 0.037256442 -0.013180047 0.0074115396 -0.08005385 -0.047911335
0.07569263 -0.14597102 0.028220654 0.01788741 -0.14708517 0.010086578 0.105660036 -0.035100758
-0.10162868 -0.43331414 -0.15486564 0.13476858 -0.041599058 0.28802085 -0.38241494 -0.20090894
-0.14582407 0.06481542 0.17182206 0.022966146 0.13269106 0.10135247 0.0438021 -0.12501743
-0.15195711 0.112743035 -0.035655595 0.17448856 -0.6009189 -0.3454728 0.14161104 -0.0943241
-0.044286937 0.10158501 -0.08499766 0.09533668 0.07124478 -0.1016062 0.069073685 -0.020212179
0.023286998 -0.15534714 -0.044826988 0.09456767 -0.024622293 0.11984847 -0.251931 -0.19842854
-0.19064869 0.14607073 0.13256146 -0.24636853 -0.09717548 0.10457001 0.19509381 -0.16484646
0.12343432 0.06893248 0.0999157 0.050265864 -0.06231045 0.11044881 0.11361095 0.10648645
0.21731709 0.11698562 0.0964803 0.12758304 0.12899832 0.01148727 0.082873985 0.12565722
-0.030621888 -0.043821055 -0.102883756 -0.35498017 -0.03208753 -0.036782783 -0.26261592 0.115785986
0.1446233 -0.0435503 -0.15836762 -0.03550519 0.064773925 0.16468416 -0.018421985 0.13528267
-0.0425703 0.1889873 0.012453365 -0.021065146 0.105535515 -0.16603698 -0.23578621 0.15322667
0.08405805 0.18674074 0.011239099 0.024863178 0.14372396 -0.59037787 0.098571114 -0.08838726
0.12493185 0.13571039 0.11181466 0.10627074 0.006019446 -0.029655872 0.0038626909 0.14704391
0.12954691 0.19194005 -0.014657421 0.12138456 -0.213482 -0.028017038 0.12995209 -0.029726647
0.12420017 -0.045861684 0.06937052 0.0050286767 -0.115342 -0.14937404 0.021227391 -0.33574775
0.18301812 -0.17026655 -0.35476235 -0.039773814 0.09792488 -0.12042905 0.12882723 0.13506357
0.103591196 0.086310394 0.15991086 -0.14814472 -0.11398891 0.12813711 0.10957184 0.18475637
0.035718057 -0.011944914 -0.2791275 -0.035038374 0.11048277 0.1300977 0.13407555 0.15887451
00000000: 57f4 21bf 75bd e9bd 3ce8 15bf 8a50 11be
00000010: d8c3 903d 7d1a d43d 71c9 d2be f6b4 073d
00000020: 5101 0d3e ab12 08bd f3cc b3be 05d4 07bd
00000030: 46da 283e 71c1 0cbd 9ad7 53be 125f dcbd
00000040: e985 d53d 2023 09bc 3fc6 c43d 9b7e f23d
00000050: a491 d4be 9ac3 0dbe 7395 ae3d ba7e 8a3d
00000060: ff05 043e 9eb6 d73d 89ff 883d a949 083e
00000070: 73ad 8cbd 6202 f1be b75b 05be e81c f73d
00000080: 811d a33d 3fdb b7be 4a45 20bc e489 1bbd
00000090: d459 91be 580d f53d 9d35 1ebf c4b2 3a3e
000000a0: 77bd ad3d 68c6 c53d ce0a 1abc 0e55 d63d
000000b0: 3809 ed3d c166 b23d f157 ca3d e5bc b4bd
000000c0: dad5 11bc 50bd 1bbe 3e83 af3c 6a00 20be
000000d0: 3626 af3d 4c2f fc3d 1ad2 9b3b a483 403e
000000e0: 6751 003b 2927 b83d 58c5 d93d e4df f2bd
000000f0: 2cf9 b53d 27f0 0b3c 5346 023e cfaf d8bb
00000100: 3aeb a3bc f2d6 543d e4e1 4ebc c3bd 33bd
00000110: 4f41 043e f840 56be 7ad6 113e 0e3c c6bd
00000120: 5378 c53d c2bb 143d 1d77 143e 663b 03be
00000130: 8ada d03d c01c 48bd bca9 cb3d 5fdc cb3d
00000140: 522d 9bbe a861 07bd 4683 83bb 911f ef3d
00000150: b362 993d 4cbd 18be ba8e 9f3d 0b2b ac3d
00000160: 402d 593d 9f70 873d 5f0d a03d 1cfc 833d
00000170: 5b63 c2be 61d5 123e c98b 6bbe e0b6 f73d
00000180: a0d3 c3be e1e1 d63d 163d 4fbc 369a 183d
00000190: 20f1 57bc 80dc f23b 46f3 a3bd ad3e 44bd
000001a0: bd04 9b3d 6d79 15be 002f e73c 9e88 923c
000001b0: 7f9d 16be 2d42 253c 4a64 d83d d0c5 0fbd
000001c0: b322 d0bd 5adb ddbe 1995 1ebe c600 0a3e
000001d0: c663 2abd 7877 933e e4cb c3be 13bb 4dbe
000001e0: e852 15be f2bd 843d 1ff2 2f3e 8023 bc3c
000001f0: 2ae0 073e e291 cf3d d569 333d 9204 00be
00000200: a59a 1bbe d2e5 e63d 9a0b 12bd 21ad 323e
00000210: d2d5 19bf d0e1 b0be 7c02 113e fe2c c1bd
00000220: 3866 35bd cd0b d03d 4113 aebd e13f c33d
00000230: c9e8 913d e916 d0bd 8176 8d3d 0394 a5bc
00000240: 60c4 be3c 5213 1fbe 819c 37bd b2ac c13d
00000250: b1b4 c9bc 1d73 f53d 1afd 80be da30 4bbe
00000260: 6939 43be 9193 153e 31be 073e 0848 7cbe
00000270: f003 c7bd cd28 d63d acc6 473e 83cd 28be
00000280: 22cb fc3d 792c 8d3d 9aa0 cc3d 94e3 4d3d
00000290: 3e39 7fbd fc32 e23d dcac e83d 9115 da3d
000002a0: 5f88 5e3e 2896 ef3d 7797 c53d 21a5 023e
000002b0: 2318 043e 1a35 3c3c d6b9 a93d 49ac 003e
000002c0: c1da fabc b57d 33bd b8b4 d2bd f6bf b5be
000002d0: 376e 03bd 8ba9 16bd 9875 86be 3421 ed3d
000002e0: 2118 143e cd61 32bd 1f2b 22be e46d 11bd
000002f0: 31a8 843d f7a2 283e b4e9 96bc 8a87 0a3e
00000300: 325e 2ebd e385 413e 3309 4c3c d090 acbc
00000310: 0123 d83d 9905 2abe f171 71be 74e7 1c3e
00000320: a026 ac3d f738 3f3e 3324 383c ddad cb3c
00000330: 602c 133e 0123 17bf a7df c93d 6104 b5bd
00000340: 45dc ff3d aaf7 0a3e 16ff e43d 79a4 d93d
00000350: c63e c53b dff0 f2bc 3325 7d3b ae92 163e
00000360: f2a7 043e ef8b 443e ae25 70bc 7898 f83d
00000370: 079b 5abe fd83 e5bc 2912 053e 4c85 f3bc
00000380: a95c fe3d 76d9 3bbd 2212 8e3d 99c7 a43b
00000390: 6d38 ecbd 82f5 18be 11e5 ad3c 21e7 abbe
000003a0: 1a69 3b3e 5b5a 2ebe 69a3 b5be dee9 22bd
000003b0: d78c c83d 81a3 f6bd 49eb 033e 1b4e 0a3e
000003c0: 9f27 d43d 81c3 b03d acbf 233e 40b3 17be
000003d0: 0573 e9bd 6036 033e 3367 e03d c630 3d3e
000003e0: 194d 123d 9ab4 43bc cde9 8ebe 6684 0fbd
000003f0: ca44 e23d 5538 053e 1a4b 093e 00b0 223e

fc3.bias f4 [2]
0.07306041 -0.010577799
00000000: b2a0 953d 814e 2dbc
