reinforcement_learning/models_cartpole/cartpole-ne1000lr0.01dqn_agent.pt (torch, 654679 bytes, 6 tensors)

fc1.weight f4 [400, 4]
000000 87 89 9c 3e 46 47 b9 be 2d ef 82 c0 22 e5 31 be
       0.30573675 -0.3618719 -4.0916963 -0.17372563
000010 81 ec 5f 3e fe 21 39 3e 28 86 87 be c7 2c 8d 3e
       0.21867563 0.18079373 -0.2646954 0.27573225
000020 de 1b 96 be 4d 07 32 3e 9b f7 db bd c4 ae 89 bd
       -0.29318136 0.17385598 -0.10740586 -0.06722787
000030 72 e9 80 3d 8c 34 da 3d a4 97 ed be 6c 2e 1c be
       0.06294526 0.10654554 -0.46404755 -0.15252084
000040 8b c3 94 be 34 bf 47 be 65 bc b1 3e 75 90 a8 be
       -0.29055437 -0.19506532 0.34714046 -0.32922712
000050 6a 4f 9e 3d 03 91 3b 3e 3e ef 86 3d ec 89 86 3d
       0.07729991 0.18317036 0.065886006 0.06569275
000060 18 b1 63 3d 5e 10 39 be 77 87 07 3e 13 12 eb bd
       0.05558881 -0.1807265 0.1323527 -0.11478057
000070 0c f5 fd bd 82 3f 9e be 74 37 0d 3f 4a a0 ad bb
       -0.124002546 -0.30907828 0.5516274 -0.005298649
000080 19 ad 46 be c2 c7 b7 be ba 8a ed be 1b 5d 57 be
       -0.19401969 -0.3589459 -0.46394902 -0.2103161
000090 ad d0 dc be 8d d6 8f 3e d2 03 ea 3f 3e 5a d0 3d
       -0.43127957 0.28093377 1.8282416 0.10173462
0000a0 6e 07 5c 3e a0 a7 0c be 70 9c fc bf 10 4b 03 be
       0.21487209 -0.13735819 -1.9735241 -0.12821603
0000b0 1f 52 87 3d 6a ad e0 bd 63 e7 79 bf f9 4b de bc
       0.0660746 -0.10970576 -0.97618693 -0.027135836
0000c0 79 9d 27 bf 7a 76 22 3e f2 cf 0b 3d 51 25 d2 bc
       -0.6547466 0.15865508 0.03413386 -0.02565256
0000d0 d6 57 50 be 88 24 2c 3e b7 5f 9d bd b2 79 dd 3d
       -0.20346007 0.1681081 -0.07684272 0.10814227
0000e0 8d 96 86 bd 82 bf 83 3c fc 72 87 3e 78 e8 28 bc
       -0.06571684 0.016082529 0.26454914 -0.010309331
0000f0 78 72 71 3d 26 89 09 3d 74 34 13 bd c6 ba 5e 3d
       0.058947057 0.03357806 -0.035938695 0.05437734
000100 e9 67 cb bc f1 fd 0f 3d 0f e3 43 be ff 91 11 3d
       -0.024829822 0.035154287 -0.19129585 0.035539623
000110 dd ca 70 3e f1 db c3 3c 06 64 13 be 2b 87 4c b9
       0.23514886 0.023908587 -0.14393625 -0.0001950531
000120 db 6b c3 be 01 29 8a 3e b7 18 dc 3d 32 f0 0c 3e
       -0.38168225 0.26984408 0.107469015 0.13763502
000130 70 73 c6 be 52 91 22 be e3 fb 39 3e e7 3a 35 be
       -0.38759947 -0.15875748 0.18162493 -0.1769825
000140 9a 44 b1 be d2 1a 09 bf 40 f3 3d bf 4e f9 9f be
       -0.3462265 -0.5355655 -0.74199295 -0.31244892
000150 b7 9c c0 be 08 bf 2d 3e cf e2 49 3c f3 01 c4 3d
       -0.37619564 0.16967404 0.012322142 0.09570684
000160 91 a4 f8 3d d1 8f 87 3d 33 61 97 be 81 97 00 3e
       0.121407636 0.06619228 -0.29566345 0.12557794
000170 d2 c0 bd be ee 51 50 3e f1 b6 17 3f 4d 0c 07 3e
       -0.37061173 0.20343754 0.5926352 0.13188286
000180 b3 86 c6 3d 9d 7d fa bd d3 4f 16 3e 5b 56 15 3d
       0.096936606 -0.1223099 0.14678888 0.036459308
000190 fb 24 c2 be 25 c2 cc 3e c2 20 8e bd a6 db aa 3e
       -0.3791884 0.3999187 -0.06939842 0.33370703
0001a0 cd 54 4c be 0c 44 0f be d0 44 dc be 07 40 ca bd
       -0.19954224 -0.13990802 -0.4302125 -0.098754935
0001b0 ac 0d 88 3e dc c5 a3 be 30 b2 73 bd 4e ed 86 be
       0.2657293 -0.31986892 -0.059496105 -0.26352924
0001c0 e6 fc 73 be c8 cd 32 3e 69 ea 67 bc 35 f3 35 3e
       -0.23826942 0.17461312 -0.014155009 0.17768557
0001d0 3e a0 2a 3f b2 44 89 be 7e 4b a7 bf 97 fb 0b be
       0.6665076 -0.26810223 -1.3069913 -0.13670193
0001e0 1f fe d5 be 17 a5 0f bf 4a 79 94 3d ff 5f cc be
       -0.41795442 -0.5611128 0.072496966 -0.3991699
0001f0 6a ef 61 3e 1f fb b8 3d d4 cb da be c7 8e c1 bd
       0.22063985 0.090322725 -0.42733634 -0.09451061
000200 fa b7 95 3e fb 29 8f be b1 0d e8 bd 40 d7 80 ba
       0.29241925 -0.27961716 -0.113307364 -0.0009829774
000210 65 be 0d bf 37 06 ba be eb 80 f7 3e 85 76 71 be
       -0.55368644 -0.36332867 0.48340544 -0.23580368
000220 d1 72 fc 3e 53 a3 05 be 06 ac 2f be c5 26 49 be
       0.49306348 -0.13050584 -0.17155465 -0.19643696
000230 05 3e 74 be a6 82 00 3e 4a a1 a2 3e 36 34 ae 3d
       -0.23851784 0.12549838 0.3176368 0.08506052
000240 3a 17 dc bc 52 16 46 3d 3a d3 bb be 8d 78 ff 3d
       -0.026866544 0.04836113 -0.3668459 0.12474165
000250 67 d5 e5 be d6 e4 91 3e ca 18 41 3d 39 59 30 3d
       -0.44889376 0.284949 0.04714278 0.04305384
000260 c6 cf ae be 21 8c 74 be 56 e2 d9 be 2a f6 07 be
       -0.34142894 -0.2388158 -0.42555493 -0.13277498
000270 4d b0 58 bf a1 9d 08 bf 66 2c 41 3e 73 61 98 be
       -0.84644014 -0.5336552 0.18864593 -0.29761848
000280 5c 7b 2a ba d3 f5 a6 bd 7d 30 35 3d 5f 58 56 bd
       -0.00065033673 -0.08152356 0.044235695 -0.05233037
000290 24 74 4a 3e 19 d6 9b 3e f6 25 aa be cf 8f 7a 3e
       0.19770867 0.3043678 -0.33232087 0.24468921
0002a0 b4 6f ab 3e 53 38 9c be 48 68 0c 3f bc 80 6a be
       0.3348366 -0.30511722 0.5484662 -0.22900671
0002b0 07 8e 82 be b9 69 2c bc f5 15 03 3f f4 c6 3e bd
       -0.25498983 -0.010523253 0.5120538 -0.046576455
0002c0 e1 68 a9 bd fd ad 65 3e ac 04 b6 bc 22 0b 19 3e
       -0.08271957 0.22429653 -0.022219025 0.14945653
0002d0 04 a2 c8 bd 4f 1a a3 3d 48 df 98 be c5 b5 92 3d
       -0.09796527 0.07964002 -0.2985785 0.07163576
0002e0 bd 23 51 be 21 6b 23 bd 99 8c 8f bd a4 85 32 3c
       -0.2042379 -0.039897088 -0.07009239 0.01089612
0002f0 cd 41 fd be 2b af d3 bb cf 1f 34 bf 4a 75 f4 3d
       -0.49464265 -0.0064600906 -0.70361036 0.119364336
000300 f5 a2 e3 be 5b 99 88 be bc 4d 91 3e b6 b2 9d bc
       -0.44460264 -0.266795 0.2837962 -0.019250255
000310 d9 a0 bc 3e f2 b7 23 be 5f 6a 32 bf 9b 95 c2 bd
       0.36841467 -0.15988138 -0.6969356 -0.09501191
000320 49 44 60 be d3 d2 57 3e 98 16 10 40 47 47 7b 3d
       -0.21901049 0.21076517 2.251379 0.061347272
000330 61 50 5d bf 26 67 c8 3e b9 90 73 be 27 cb 87 3e
       -0.86450773 0.39141196 -0.23785676 0.2652218
000340 a8 45 b0 be 6a 02 ca 3e 6f 66 ed bd e3 79 61 3e
       -0.34428144 0.39454967 -0.11591803 0.22019152
000350 9e a9 ce be cd ba 85 3e fc 8a 4c 3e 5f 22 0d 3e
       -0.40363783 0.2611908 0.19974893 0.13782643
000360 a5 06 bd bd e5 91 c7 3d 3a 24 ed bc a3 13 27 3e
       -0.09229783 0.09744624 -0.028947938 0.16316085
000370 99 d4 95 3c 6e bf 9c 3b 1b bc c6 be 98 e2 f0 bc
       0.018289851 0.0047835624 -0.38815388 -0.029404923
000380 3f 6d 9d 3e df de 9f 3d 58 40 35 be 77 17 4b 3e
       0.3074741 0.07806181 -0.17700326 0.1983317
000390 20 c1 08 bf 96 5f d2 3e 96 9c 2d be 91 c1 4e 3e
       -0.53419685 0.4108855 -0.16954264 0.20191027
0003a0 97 53 95 be e9 72 ec be 75 21 b3 3d f2 3f 98 be
       -0.29165336 -0.4618142 0.08746616 -0.29736286
0003b0 b4 3e 99 be 58 f7 62 bd 92 60 15 bf 67 1b a4 3d
       -0.2993065 -0.055411667 -0.5835048 0.08013039
0003c0 f8 b8 ec bd 73 08 37 be c6 f8 56 3d 80 ff 09 be
       -0.115587175 -0.17874317 0.052483343 -0.13476372
0003d0 dc 45 a8 3e 58 07 4d 3d 27 fc 80 be 57 6a 58 3e
       0.32865798 0.05005583 -0.25192377 0.21134315
0003e0 22 6b 0d bd be bc d6 3b 95 a2 0d 3f 52 b4 df bc
       -0.034525998 0.0065532615 0.55326205 -0.027307663
0003f0 06 ae 81 be d6 fe 17 bd e6 e4 2a 3e 07 3c 7d bd
       -0.25328082 -0.037108265 0.1668888 -0.061824825

fc1.bias f4 [400]
000000 39 61 88 bf 36 e1 84 bf 14 62 2a bf 04 c3 86 bf
       -1.065467 -1.0381229 -0.66555905 -1.0528264
000010 ef b4 3b bf 48 59 08 bf 56 be 21 be 59 74 8e bf
       -0.7332296 -0.5326123 -0.15795264 -1.1129256
000020 b8 00 ff be a5 de 10 bf ee 33 62 bf 3b 4a a2 be
       -0.49805236 -0.5658973 -0.8836049 -0.31697258
000030 4c 0b 0d bf b1 7b fa bd 79 84 1f bf e6 83 0c be
       -0.5509536 -0.122306235 -0.6231151 -0.1372219
000040 13 f6 43 bd 60 75 14 bf 02 af 41 bf 2c a5 92 be
       -0.047842097 -0.579916 -0.75657666 -0.2864164
000050 e4 c3 39 bf 9c f2 ff bd 4a 74 1c bf b3 38 c8 be
       -0.7256453 -0.12497446 -0.61114943 -0.39105758
000060 f0 09 9b bf 69 7c 00 bf 84 ae 86 be 04 78 e0 be
       -1.2112408 -0.50189835 -0.2630502 -0.43841565
000070 62 ea 23 bf 86 d2 4c bf 3e 2f 5a bf e0 b3 8f bf
       -0.64029515 -0.80008733 -0.85228336 -1.1226768
000080 b8 8a 64 bf 0e 4b 48 bf 23 09 8d bf 0c ef f3 be
       -0.8927417 -0.78239524 -1.1018413 -0.47643316
000090 dc 92 09 bf 7a 71 38 bf 8b 33 be be 20 eb 4a bf
       -0.53739715 -0.7204815 -0.371487 -0.7926502
0000a0 8c 23 b1 be 93 f6 36 bf df 17 fe be 8b 05 2c bf
       -0.34597433 -0.7146999 -0.49627587 -0.6719596
0000b0 5d 24 49 be 98 22 de be 96 7e c6 be 45 0b ff be
       -0.19642778 -0.43385768 -0.38768452 -0.49813285
0000c0 9a a3 75 bf b3 ba f5 be 75 8c 1d bf 53 8b 96 be
       -0.9595276 -0.47994003 -0.61542445 -0.2940317
0000d0 b9 9d 02 bf 35 0a 55 be 77 f9 0b bf 67 2c e4 be
       -0.51021916 -0.20804675 -0.5467753 -0.44565126
0000e0 f0 0f 29 bf bf df 1d bf fb af 3d bf 54 47 fc be
       -0.66039944 -0.61669534 -0.7409665 -0.4927317
0000f0 4d 82 8a be 67 c7 03 bf 56 16 01 be a0 ef 91 bf
       -0.27052537 -0.5147614 -0.12606177 -1.1401253
000100 c2 d7 11 bf 46 3f 36 be 24 64 38 bf 20 d8 0f bf
       -0.56969845 -0.17797574 -0.720278 -0.56189156
000110 4c 54 43 be 7d 66 4b bf 2e 6e ab be a8 6b fb be
       -0.19075125 -0.7945326 -0.33482498 -0.49105573
000120 df 4a 5f bf 30 5b fd be a6 16 2c be 70 5b a0 be
       -0.8722362 -0.49483633 -0.16805515 -0.3131976
000130 b9 8c f3 bd b4 fa 42 be ff a5 d8 be c3 f3 71 bf
       -0.11892075 -0.19040948 -0.42314145 -0.94512576
000140 04 a3 6d bf 9d 3e 0e bf d5 f1 7b bf f6 67 93 bf
       -0.9282687 -0.5556429 -0.9841588 -1.1516101
000150 2a 7d ec be 63 42 94 bd 6a 80 ff be c6 2d 38 be
       -0.46189243 -0.07239225 -0.4990266 -0.17986211
000160 10 e4 08 bf a5 98 28 bf b6 de b1 be 45 1c 5d bf
       -0.53472996 -0.6585792 -0.34740227 -0.8637126
000170 4d 45 37 be 38 f7 39 bf 5f 51 26 bf 2d c5 11 bf
       -0.1789753 -0.7264285 -0.6496791 -0.5694149
000180 b1 d5 17 bf ce 8c 15 bf 2d 50 1e be fa 60 81 bf
       -0.5931044 -0.58417976 -0.15460272 -1.010772
000190 0f a9 47 bf 33 f4 38 bf 0d ad 96 be 1c 55 fa be
       -0.7799234 -0.7224762 -0.29428902 -0.48893058
0001a0 d3 8d ed be 34 bf 6b bf bb ab 28 bf 5e 2f 9b be
       -0.46397266 -0.9208863 -0.6588704 -0.30309576
0001b0 a3 97 20 bf 0e b9 a2 bd 66 16 52 bf 21 56 5e bf
       -0.6273138 -0.07945453 -0.8206543 -0.8685017
0001c0 ae d3 02 be fd 20 11 bf 17 9a 51 bf 4e c4 42 bf
       -0.12776062 -0.5669096 -0.8187575 -0.7608079
0001d0 70 d2 f8 be 95 13 6e bf b2 3c 53 bf 34 df 4d bf
       -0.4859805 -0.9299863 -0.8251449 -0.80418706
0001e0 f5 2f 37 be 0e 99 41 bf b3 2e 07 bf 6f b5 ba be
       -0.17889388 -0.7562417 -0.5280563 -0.36466548
0001f0 30 9f 63 bf 1b f6 a9 bf 5f a5 d0 be e8 05 00 bf
       -0.88914776 -1.327823 -0.40751168 -0.5000901
000200 7c 11 56 be 88 90 50 bf cd 44 9e be 97 02 3c bf
       -0.20905107 -0.8147054 -0.30911866 -0.7344145
000210 28 52 3a bf 92 ed c5 be 58 28 4a bf f2 8b 6d be
       -0.7278161 -0.38657814 -0.7896781 -0.23197916
000220 d8 f6 23 bf 03 94 48 bf f1 d2 20 bf e9 37 82 bf
       -0.6404853 -0.7835085 -0.6282187 -1.0173312
000230 0d 2d 0b bf 82 52 85 bf 59 b0 63 bf 1d 03 03 bf
       -0.5436562 -1.0415804 -0.8894096 -0.51176625
000240 f1 71 81 be 74 d6 87 bf fe 71 97 be 4f 45 88 be
       -0.25282243 -1.0612321 -0.29579157 -0.26615378
000250 56 9c 61 be 1e 02 26 bf fb d9 9f bd 21 16 10 bf
       -0.22032294 -0.6484698 -0.07805248 -0.56283766
000260 16 8b 69 bf 6e 89 6c bf d1 84 88 be 17 df 67 bf
       -0.91227853 -0.923972 -0.2666383 -0.90574783
000270 8d bc ad be e4 f7 c2 be 90 6b bc be a0 06 d0 be
       -0.33932915 -0.3807975 -0.36800814 -0.40630054
000280 f4 52 63 bf 7b 0f 0d be f4 e2 80 bf 60 e9 37 bf
       -0.8879845 -0.13775437 -1.0069261 -0.71840477
000290 31 2d 0e bf 98 b2 1e bf c3 4a dc be af 06 5f bf
       -0.55537707 -0.6199126 -0.4302579 -0.87119573
0002a0 45 6d 5e bf 7a b7 68 bf 86 09 89 be 2b db 3f be
       -0.8688548 -0.90904963 -0.26765078 -0.1873595
0002b0 4b 26 37 bf f9 47 99 be cb cf 5a be a1 3b a6 be
       -0.71542805 -0.29937723 -0.21368329 -0.32467368
0002c0 05 67 76 bf 09 8d b6 be cb 20 5c bf cf 18 19 bf
       -0.96250945 -0.35654476 -0.8598754 -0.5980348
0002d0 dc 2c 5d bf ed 57 bd be ad 0c 4c bf 51 a7 40 be
       -0.86396575 -0.36981145 -0.7970684 -0.18813826
0002e0 0d 34 b3 be 01 48 bc be de 3d c6 be ba e8 87 be
       -0.3500065 -0.36773685 -0.38719076 -0.26544744
0002f0 19 fb 81 bf c8 49 8f bf cc 92 54 be 90 4a 7a be
       -1.0154754 -1.1194391 -0.20759124 -0.24442506
000300 41 c4 9c be 3a 77 55 bf 5d d4 b7 bf 31 ba ae bd
       -0.3061848 -0.8338505 -1.4361683 -0.08531607
000310 44 e3 1f bf a3 92 38 be 1b 09 0a bf 03 bc 1e bf
       -0.62456155 -0.18024687 -0.53920144 -0.62005633
000320 81 0e 2b be e2 20 6f bf 6a 0f 85 bf a3 27 f6 be
       -0.16704752 -0.9340955 -1.0395329 -0.48077115
000330 96 51 4e bf 31 e8 ae bf 7d 3f 62 bf 02 d3 93 bf
       -0.8059324 -1.3664609 -0.88378125 -1.154877
000340 e5 76 39 bf e0 51 18 bf 07 9d 46 bf 21 69 54 bf
       -0.72447044 -0.5949993 -0.77583355 -0.82972914
000350 bd 74 0b bf 44 19 df bd 35 6a 9c be e1 98 a1 bf
       -0.54475003 -0.10893491 -0.3054978 -1.262478
000360 64 a1 08 bf 6a 79 ea be d5 8b ff bd 0b 2c 31 bf
       -0.5337126 -0.45795757 -0.12477843 -0.6920783
000370 bf f0 3a bf 3e e6 b1 be a9 26 b1 be 84 62 11 bf
       -0.730236 -0.34745973 -0.34599808 -0.5679095
000380 f6 56 e1 be f2 9f 84 bf 71 1f 80 bf 6c f8 58 bf
       -0.44011658 -1.0361311 -1.0009595 -0.8475406
000390 f9 30 37 bf 87 d1 59 be 5a 72 59 bf 96 f8 16 bf
       -0.715591 -0.21271335 -0.8494011 -0.5897306
0003a0 17 5d 75 bf 92 b9 37 bf 08 35 39 be 47 d9 f9 be
       -0.9584517 -0.7176753 -0.18086636 -0.48798582
0003b0 7c 3b 95 be 79 4a 36 bf b9 85 51 bf 47 c4 44 bf
       -0.29146945 -0.71207386 -0.8184467 -0.76861995
0003c0 31 0c 4f be 72 cf 74 be 87 32 fb be ba e4 48 bf
       -0.20219494 -0.23907259 -0.49061987 -0.7847401
0003d0 f2 91 1a bf 32 77 5a bf ed 34 ab be e2 a3 fa be
       -0.60378945 -0.8533813 -0.33438817 -0.48953158
0003e0 2a 09 ae bf 03 ef bb be 9d ee 7f bf 51 5a 8d bf
       -1.3596547 -0.3670579 -0.9997347 -1.1043187
0003f0 ab 71 e3 be c0 65 84 bd 16 98 ff be c0 5d 40 bf
       -0.4442266 -0.0646472 -0.4992072 -0.7514305

fc2.weight f4 [400, 400]
000000 e1 f7 22 be fa 73 01 bd f8 93 48 3d 70 cd 70 be
       -0.15914871 -0.031604744 0.04896924 -0.23515868
000010 9d bf b8 3c bd 59 a6 3c 2d ca 36 bc c0 18 ba 3c
       0.022552306 0.020306462 -0.011156601 0.02271688
000020 fd fa 0a bd 17 68 11 bd 55 96 c3 3e 1f 16 2e bd
       -0.033930767 -0.03549966 0.38200632 -0.042501565
000030 c0 9d 8b 3b fb 53 46 3d ad 90 0f bc 0f 22 37 3d
       0.0042607486 0.048419934 -0.008762521 0.044710215
000040 4f d2 c3 be eb b6 3c 3d 31 55 8a be 88 55 28 bd
       -0.3824639 0.04607288 -0.2701812 -0.041097194
000050 07 a2 31 bd 10 70 eb bc 2d 78 ed 3c 44 8e a3 be
       -0.043367412 -0.028739959 0.028987968 -0.31944478
000060 68 6c 3a 3d ea 38 d3 bc 57 77 d1 bc 7a 87 ee bc
       0.04551354 -0.025783975 -0.025569601 -0.029117335
000070 8b db c1 be ed e4 26 bc 33 f7 ea 3a af cc 2b 3d
       -0.3786281 -0.010186416 0.0017926454 0.04194325
000080 32 7f 22 bd b2 55 0c bd 1a 11 14 bc e0 32 03 bd
       -0.039672084 -0.034261413 -0.00903728 -0.03203094
000090 63 49 b9 bc b7 b5 38 3d e7 bb ac 3c 4d 38 0a bb
       -0.022618001 0.04509517 0.021085693 -0.0021090687
0000a0 82 9e ba be f4 9c b2 be 7a 33 a0 bc 2a 73 8a bc
       -0.36449057 -0.3488537 -0.019555796 -0.016900618
0000b0 15 89 ae be 9a a1 49 3c f3 04 07 bc f7 da bb bc
       -0.3408896 0.012306595 -0.008240926 -0.022931559
0000c0 08 15 b7 3e 7a 0c 03 3c e2 a3 75 3e 23 db b0 be
       0.35758233 0.00799858 0.23988298 -0.34542188
0000d0 80 8d 40 3b 22 c4 39 bd 68 33 0f bf df 30 04 bd
       0.0029381216 -0.045353062 -0.55937815 -0.03227317
0000e0 0a 7e dd be c8 79 c4 be d7 2b b3 bc 00 ea 12 ba
       -0.43260223 -0.38374162 -0.02187149 -0.0005604327
0000f0 da fe d8 bb 33 9b 5f bc b8 f9 2f bd b3 ea c7 3b
       -0.0066221775 -0.013647842 -0.04296276 0.0061009764
000100 a7 04 48 bc 3d c2 9b be 5a b6 75 3c 1a 6b be be
       -0.01220814 -0.3042163 0.014997089 -0.37191087
000110 1a 19 d5 3b 31 9a e2 3d 75 b8 a4 be 83 0c 20 bd
       0.0065032365 0.11064566 -0.3217198 -0.039074432
000120 b8 40 28 bd 60 3d 9f bc 0d 88 18 3c 58 be 38 3d
       -0.041077346 -0.019438446 0.009309781 0.0451034
000130 2b 73 98 be d0 92 d2 3c 7f 5e 0d bf 2d 8e c6 be
       -0.29775366 0.025704771 -0.55222315 -0.38780347
000140 cd 3c 87 3a 15 67 14 3d d2 de 17 bd 20 74 94 3c
       0.0010317803 0.03623112 -0.037077732 0.018121779
000150 fa b2 38 3d 3a 58 ab be 40 45 25 3d 12 de 0c bd
       0.04509256 -0.3346575 0.040349245 -0.03439147
000160 63 7d 9a 3c e4 4d c6 be 1a 46 da bb 7c 65 1c bd
       0.018858617 -0.387313 -0.006661189 -0.03818272
000170 67 2e 11 3b 72 1a 87 be 3b b1 30 bd 13 e6 0a bc
       0.0022152902 -0.26387364 -0.04313777 -0.0084777055
000180 00 db dc 3b af 24 09 3d 8b c3 94 be 22 f0 3e 3d
       0.006739974 0.03348225 -0.29055437 0.046615727
000190 6f 48 49 3d 18 ab 26 bd 6a 0d 45 3d 2d 88 48 bc
       0.049141344 -0.04069051 0.048108496 -0.012239498
0001a0 2f 36 47 bd e3 71 c2 be 9a b9 61 3b bd d9 d9 3c
       -0.048635658 -0.37977514 0.0034442903 0.026593084
0001b0 3d b8 2e bd c9 77 a7 be 3a 8a 7b be ef 1d 2c bd
       -0.042656172 -0.32708576 -0.24564448 -0.042020734
0001c0 a9 e6 98 be 97 36 26 3d 3a be a4 3c 60 34 8d 3c
       -0.2986348 0.040579405 0.020110238 0.017236888
0001d0 5a f1 54 bc f6 92 a2 3e 5a de 1d bd 10 f4 d3 bc
       -0.012996996 0.31752747 -0.03854213 -0.025873214
0001e0 dd d1 4c be 4d be 5b bb 93 f0 3c 3c 60 e7 16 bd
       -0.20001931 -0.0033530176 0.011531967 -0.03684175
0001f0 f5 00 21 bd 9a 36 2c 3c 0c 62 7d be aa 1f a2 be
       -0.039307553 0.010511065 -0.24744433 -0.31664783
000200 37 db f6 3c e3 c2 e6 3c 4b 06 b9 be 93 d5 c7 3c
       0.030133827 0.028169101 -0.36137614 0.024393832
000210 ab 35 ba be 4d aa f8 bb 25 43 39 bd f1 8b ac be
       -0.3636907 -0.007588661 -0.04523005 -0.33700517
000220 60 a2 e2 bc 82 a9 04 bf b7 2f 40 3d 27 50 94 3c
       -0.027665317 -0.5182115 0.046920504 0.018104626
000230 b3 6b 2f bb d0 de fc bc 27 8f 9c bc 87 8e 19 3c
       -0.0026767075 -0.030867964 -0.01911123 0.00937236
000240 27 d8 5d 3c 8d 26 6b 3c 57 42 34 bd 1a d2 f1 bb
       0.013540304 0.014352453 -0.04400858 -0.0073797824
000250 00 90 3b 3a 23 e5 b1 be 9d 29 43 3d f0 a9 d3 bc
       0.00071549416 -0.3474513 0.047647107 -0.025837868
000260 9a 8a a7 bb f8 b0 3e bd b8 cb 0d bd f7 6e de 3c
       -0.005112958 -0.04655549 -0.03461811 0.027152522
000270 5d 0c cb be 43 74 4b 3d 67 c6 45 3a a2 68 0d bd
       -0.3965787 0.049671423 0.0007544518 -0.034523614
000280 8a e0 d8 bc 67 e2 88 ba 93 40 d2 3c 64 70 be be
       -0.026474256 -0.001044345 0.025665557 -0.37195122
000290 fd 48 cc bc 3a 3d d6 bc ea b9 40 bd 67 1e 30 3c
       -0.024937147 -0.026152242 -0.0470523 0.010749436
0002a0 2d 27 c9 bc 3a 91 21 bd cb 81 9a be da 4d c1 bc
       -0.024554813 -0.03944514 -0.3017715 -0.023596693
0002b0 90 28 d7 3c 90 78 36 bd f0 eb 81 bd 3d fc a9 3c
       0.026264459 -0.04454857 -0.0634383 0.02075016
0002c0 b3 cd 47 bd 47 5f f5 bc c8 ac 25 3d 78 dd 8f be
       -0.048780154 -0.029952658 0.04044798 -0.28098655
0002d0 cd a4 e7 bc 58 27 32 3d 65 d8 39 3d 99 bc c4 be
       -0.028276825 0.043494552 0.045372386 -0.3842514
0002e0 65 f6 33 3d 40 fc 1a bd c6 95 ed be 05 02 a9 be
       0.043936152 -0.03783822 -0.4640333 -0.33009353
0002f0 9a db d6 bc 77 ff 2e bd 3a ce 67 bc 77 a0 11 bd
       -0.026227761 -0.0427241 -0.014148289 -0.03555342
000300 bf 2e 0b bd 8d 14 fe be aa 65 90 3c 0c 73 4e be
       -0.033980127 -0.49625054 0.017626602 -0.20161074
000310 a0 17 9d 3c cb 57 8f be 33 55 41 3a da e3 0b 3c
       0.019176304 -0.27996668 0.00073750614 0.008538211
000320 d7 86 b3 be 8b d7 90 be aa 05 9f be 3a f9 9c 3d
       -0.35063812 -0.28289446 -0.3105901 0.07664724
000330 dd ae 8a bc 0d d7 88 bb 5f db 3c 3d 1d 6c 95 3c
       -0.016929084 -0.0041760267 0.046107646 0.018240029
000340 5f 6b 9d be f3 86 c3 bc 9b a4 ce be 5d 91 88 bc
       -0.3074598 -0.02386806 -0.4035996 -0.016670877
000350 4d d8 71 bb a3 84 c4 3c 4d bc ce 3b 93 8c bc 3c
       -0.0036902607 0.023989027 0.0063090683 0.02301625
000360 87 43 26 3c 92 51 3b bd d5 7b c7 be 45 3f 32 3e
       0.010147936 -0.04573209 -0.38961664 0.17406948
000370 9f b0 aa 3e f2 4b 33 3d 07 76 92 3c 9a 55 44 bd
       0.33337876 0.0437736 0.017878545 -0.0479332
000380 dd 42 a6 bc 50 7d a6 3e 1a 6e 7e bc 56 58 a7 3e
       -0.020295555 0.3251748 -0.01552918 0.32684582
000390 cd af f3 bc 87 00 6b 3c a3 69 b3 3c 4d c7 fb 3b
       -0.029746914 0.014343387 0.021900957 0.0076836706
0003a0 07 25 7e 3c 8d 99 d7 bc d3 6b 20 3d 34 16 1d 3e
       0.015511758 -0.026318336 0.03916533 0.15340501
0003b0 00 d6 b4 ba 4d 42 ee bb 20 2c 11 3d f7 ec a7 bc
       -0.0013796687 -0.0072710873 0.03544247 -0.020498736
0003c0 0b cc 3e 3d bb de 20 bd 07 03 47 3d 9a ac d6 bb
       0.04658131 -0.039274912 0.04858687 -0.0065513374
0003d0 1a fa 0e 3c f3 e5 6b bc 97 78 0a bf 47 bd a8 be
       0.008726621 -0.014398086 -0.54090255 -0.32956907
0003e0 10 16 aa 3c 1d ba 0c 3d 3b c3 49 bd 67 18 34 bc
       0.020762473 0.03435718 -0.049258452 -0.010992146
0003f0 f2 95 14 3d 26 80 ad be 4a ec 15 bd 80 45 47 3d
       0.03627581 -0.33886832 -0.036602296 0.048650265

fc2.bias f4 [400]
000000 0c 48 a9 be 6d 78 82 bd d8 92 60 bd f0 ea 8e bc
       -0.3306278 -0.06370626 -0.05482754 -0.017446011
000010 30 37 a0 bd ba 13 37 bd 9e fa e4 bd a6 39 91 bd
       -0.07823026 -0.044696547 -0.11180614 -0.07091074
000020 e9 61 13 3f 5c 53 e3 bc 6f b4 20 be b2 4e 16 3f
       0.57571274 -0.02774971 -0.1569383 0.5871383
000030 7d b4 80 bd 6e 3f 51 bd f5 c9 8e be 06 a4 62 bd
       -0.062844254 -0.051085882 -0.27888456 -0.055332206
000040 50 ff a2 be 71 47 25 3f d8 e3 d2 bd 09 b5 dd bc
       -0.31835413 0.64562136 -0.10297364 -0.027063863
000050 50 3c 07 3f e2 89 e2 be 62 e5 93 be b0 65 f2 3e
       0.52826405 -0.4424582 -0.28885943 0.47343206
000060 8e 65 94 bd 70 dd 89 bd a5 f6 db bd 9d 0d 0b be
       -0.072459325 -0.06731689 -0.10740403 -0.13579412
000070 22 1c 27 be 1b 72 c3 be 13 d3 e4 bd 00 9f 87 bd
       -0.16319326 -0.38172993 -0.11173072 -0.06622124
000080 fa 66 f0 bd fa ca 80 bd 81 d8 d5 bd 9a cd b1 bd
       -0.11738391 -0.06288715 -0.104416855 -0.086817935
000090 13 6f a1 bd b0 1b 3d 3f 44 ea 28 3f 2a 91 25 3f
       -0.07882514 0.7387037 0.6598246 0.6467463
0000a0 e4 4d 12 bf 30 6a 2a 3f 98 74 af be 19 5a 85 be
       -0.571501 0.6656828 -0.3426864 -0.26045302
0000b0 fd 4a 09 bd 86 ca 26 be cf 60 9b bd 99 a4 fd be
       -0.03351878 -0.16288194 -0.07586824 -0.4953964
0000c0 33 09 a7 bd 73 51 1a bd b5 3d af be 1d d9 34 bd
       -0.081560515 -0.037675332 -0.34226766 -0.044152368
0000d0 b9 75 e3 bc c5 32 78 bd 78 1d 9a be aa 59 18 be
       -0.027766095 -0.060595293 -0.30100608 -0.14877954
0000e0 95 1b 7c bd 9d 4f f8 bd 10 53 ea bd 64 fb 43 bd
       -0.06154974 -0.1212456 -0.11441624 -0.047847167
0000f0 d9 d4 44 bd 58 e5 f4 bd 4e fd 95 bd aa 51 e4 bc
       -0.04805455 -0.11957806 -0.07323705 -0.027870972
000100 c5 07 99 bd 15 52 a4 bd a6 fe 9f be 74 ba 20 3f
       -0.07472185 -0.080234684 -0.3124897 0.62784505
000110 83 42 b2 be 3e 90 bf bd 77 ee 5b bd 08 3f 8f be
       -0.3481637 -0.09353684 -0.053694215 -0.27977777
000120 b6 34 ac bd 40 e7 b8 bd 2a ef 9a bd 0a 02 3d 3f
       -0.08408491 -0.090284824 -0.07565148 0.73831236
000130 dc d8 bc bd 2b 6c 01 bf 60 2a f0 be d8 cb a0 bd
       -0.0922105 -0.50555676 -0.4690733 -0.0785138
000140 83 cf 93 bd 2b b7 c9 be 77 01 f4 bd a9 e0 b2 bd
       -0.07217314 -0.3939756 -0.11914342 -0.08734257
000150 8a a3 ec be e3 42 9e bd 8c d6 af bd 9f 48 5c bd
       -0.4621852 -0.077276014 -0.085858434 -0.053780194
000160 12 44 b3 be 54 bd f2 be 24 cb c8 bc 24 2c cc bc
       -0.3501287 -0.4741007 -0.024510927 -0.024923392
000170 7f 3b eb bc a6 d2 30 bd 1a 42 06 3f 0c f1 1b 3f
       -0.028714893 -0.04316964 0.5244461 0.60914683
000180 af 4d 66 be 37 cd c3 bd 0d d6 6f bd b1 dc 80 bd
       -0.22490571 -0.09560626 -0.058553744 -0.062920935
000190 62 c0 83 be e4 15 9c be 3c dd a2 bc c9 1c 9c be
       -0.25732714 -0.3048545 -0.019880883 -0.3049071
0001a0 b9 ba 45 bd af 1b 39 bd a8 48 65 bf d3 8f af bd
       -0.048273776 -0.045192417 -0.8956399 -0.08572354
0001b0 5d 22 4d bd 93 ad d1 bd 22 64 ab be 37 14 92 be
       -0.0500816 -0.10238185 -0.33474833 -0.28531048
0001c0 68 ab 91 bd c8 e2 dd bc fa 3f d1 bd 22 1d 9d bd
       -0.07112771 -0.027085677 -0.10217281 -0.07671572
0001d0 bb b1 92 be 41 8c 4a bd b5 38 4f bd be 46 8a bd
       -0.28651223 -0.049450163 -0.05059119 -0.06751774
0001e0 11 a2 f4 bd 39 cb 12 bd d3 ce 69 be 10 5b e3 bd
       -0.11944974 -0.03583834 -0.22832803 -0.11101353
0001f0 f1 09 8d be ab 3a 85 be cb b1 60 be d0 e4 bd bd
       -0.27546647 -0.26021323 -0.21942823 -0.09272158
000200 09 fc 09 bf 2d 08 ba bd 04 f7 81 3d 22 bf 3c bd
       -0.539002 -0.09083591 0.063459426 -0.046080716
000210 9f 97 aa be aa 47 7f bd 54 25 ea be ac ac 90 bd
       -0.33318803 -0.062324204 -0.45731604 -0.070641845
000220 07 ed 8b bd f1 dd 19 3f 09 51 28 bf 46 d7 b0 bd
       -0.06832319 0.6010428 -0.6574865 -0.0863481
000230 f4 9a 93 be 53 c5 37 3f d1 d3 8f bd 4a 9c 58 be
       -0.28829157 0.7178547 -0.07022823 -0.2115337
000240 b0 7e 46 bd 15 99 a2 be bb 02 9c bc 1f cb 9c bc
       -0.048460662 -0.31757417 -0.01904427 -0.019139824
000250 34 86 28 bd 84 53 11 3f 80 ab 5f bd 37 b9 ca bd
       -0.04114361 0.5676806 -0.054606915 -0.09898608
000260 ac 90 81 bd 5c db 93 be c5 5c bc be 36 fa b3 bd
       -0.06326422 -0.28878295 -0.36789528 -0.08787958
000270 db 82 3b be da b2 4d bd b8 97 14 3f 2d b6 50 3f
       -0.18311636 -0.050219394 0.58044004 0.8152798
000280 de 07 b3 be f8 7a d1 bd d5 95 2a bd 25 f4 95 bd
       -0.3496694 -0.102285326 -0.041646797 -0.073219575
000290 0d fb 60 bd da d3 6a bd 93 c2 a1 bd 3e 89 d2 bd
       -0.05492692 -0.057330944 -0.0789844 -0.10280083
0002a0 5f 82 b1 bd dd 0c 3c be a8 3c 2b be 65 23 9e bd
       -0.086674444 -0.18364282 -0.16722357 -0.07721595
0002b0 4f 25 9f bd ce dc 8f bd c7 15 08 bf f2 d1 49 be
       -0.07770788 -0.07024537 -0.5315823 -0.19708994
0002c0 fe 5c 88 be a8 85 86 bd a7 68 bf bc 63 ce 3d bd
       -0.26633447 -0.06568462 -0.023365332 -0.046339404
0002d0 db dc aa bd 67 da 24 be 1c 13 00 bf f6 bf d8 be
       -0.08342906 -0.16098939 -0.5002916 -0.42333955
0002e0 1d 57 d8 bd 37 70 a4 be 4b 02 8b be 3e 9d 83 bd
       -0.105634905 -0.32116863 -0.27150187 -0.06426476
0002f0 96 87 62 bd 57 eb ad bd c5 9c f3 be 5a 44 43 bd
       -0.055305086 -0.08492153 -0.47580543 -0.047672607
000300 f4 bf de bd 80 d1 84 bd 58 bb 62 bd 73 b5 b2 be
       -0.10876456 -0.064852715 -0.055354446 -0.3490406
000310 db a0 b6 be c1 e3 21 3f 10 c9 46 bd ac ba d4 bd
       -0.35669598 0.6323815 -0.048531592 -0.10387167
000320 80 45 a6 bc 4b 08 c3 bd 42 e2 9c be 58 dd a7 be
       -0.020296812 -0.09523066 -0.3064137 -0.3278606
000330 09 92 37 bd d1 01 9d be 30 2c a5 be d0 d9 8a bd
       -0.044817004 -0.30665448 -0.32260275 -0.06779826
000340 96 12 98 bd 44 f6 2c 3f 74 1d cf bd 26 c3 5c bd
       -0.0742542 0.6756327 -0.101130396 -0.053897046
000350 af 88 46 bd b3 15 86 bd 78 39 05 bd 8f a1 c8 bd
       -0.048470195 -0.065471075 -0.03252551 -0.0979644
000360 6a f4 35 be d4 e2 a5 be b5 b4 b4 bd da 08 25 3f
       -0.17769018 -0.3239962 -0.0882353 0.6446663
000370 15 c3 e0 bd 46 7a 94 bd da ab 98 be af 33 72 bd
       -0.10974709 -0.07249884 -0.29818612 -0.05913132
000380 46 9c ac be e2 67 b7 bd 4d d5 94 bd 8d 34 19 bf
       -0.33712977 -0.08955361 -0.072672464 -0.5984581
000390 5f 3d b7 bd b7 95 24 bd 5a 09 04 bf f6 98 db bd
       -0.089472525 -0.04018184 -0.5157677 -0.10722534
0003a0 2a 1a 21 3f 58 6d a5 be 9b bb b3 3e 35 d9 1e bd
       0.6293055 -0.32309985 0.3510407 -0.038781364
0003b0 4e 6e ce bd 8e 7d 6b bd 38 6c b3 bd 21 1e 33 3f
       -0.10079633 -0.057492785 -0.087608755 0.6996785
0003c0 e5 a7 ed bd 0c e8 ed be 04 f5 81 be 8f b5 b1 be
       -0.11604289 -0.464661 -0.25382245 -0.3470883
0003d0 b4 a2 c4 bd f8 a3 33 bd 7a d8 98 bd a6 f3 65 be
       -0.09601346 -0.043857545 -0.07463165 -0.22456226
0003e0 9c 00 5a bd e3 4e d8 bd 05 f7 a5 be 3d f3 9d bd
       -0.053223237 -0.105619214 -0.32415023 -0.0771241
0003f0 55 52 13 be a2 80 9e bd 6c 21 26 3f 2a 64 44 be
       -0.14386876 -0.077393785 0.6489475 -0.19178835

fc3.weight f4 [2, 400]
000000 58 9a 41 be 46 62 49 3d da df b4 3c 0c 5a f0 3c
       -0.18906534 0.049165986 0.022079397 0.029339813
000010 67 b1 98 3d 1b 86 d5 3c 79 87 39 be 21 33 1f 3d
       0.07455712 0.026064923 -0.18118085 0.03886712
000020 5c ed 4f 3f 4e e1 5c 3d df fe 6b bb 15 a1 48 3f
       0.81221557 0.053925805 -0.003601007 0.7837079
000030 a6 6f d7 3d 9a bc e8 3c 4b 1f 27 bd 69 4b 6c 3d
       0.10519342 0.028410245 -0.040801328 0.057689104
000040 e7 9a 74 3c c4 de 78 3f f3 d7 5d bd 6a 23 af 3c
       0.01492951 0.97214913 -0.054161023 0.021379191
000050 e1 74 3a 3f 53 59 d8 be 09 ac cb be 21 3b 0f 3f
       0.72834593 -0.4225565 -0.3977969 0.559496
000060 a7 bf 8a 3c ae ea e5 bc 40 f8 11 3d 4b e9 e1 3c
       0.01693709 -0.028066006 0.03563714 0.027577063
000070 40 22 0e 3d 60 3c 83 be 00 e9 ba bd 40 1d ac bc
       0.034700632 -0.25632 -0.091264725 -0.021010041
000080 27 8e 2b bd a5 49 13 bd ca c8 83 3d 9a 5b 38 3d
       -0.041883614 -0.035958905 0.06434782 0.045009233
000090 b9 c3 13 3d 74 dc 8d 3f 76 46 82 3f af f9 5d 3f
       0.036075328 1.1082902 1.0177753 0.8670911
0000a0 c9 af 95 3d a3 4a 6e 3f 30 d6 68 bd 07 77 b5 bc
       0.07308919 0.93082637 -0.05684489 -0.022151483
0000b0 fb fd 20 3d 0f c2 0b bd 61 c4 60 bd 36 66 4d be
       0.039304715 -0.034120616 -0.05487478 -0.20058522
0000c0 d3 cb 54 3d aa ba 40 3d 90 aa ea 3e 54 ac 8e 3c
       0.051952194 0.047053017 0.45833254 0.017416157
0000d0 2d 91 c0 3c 1d 45 6f 3d c5 71 f7 bc 33 9b 4c 3c
       0.023506725 0.05841552 -0.030205617 0.012488174
0000e0 71 fe 25 bd 1a 3e 4c bb 07 8e 72 3c b0 5d 2f 3c
       -0.040525857 -0.0031164945 0.01480437 0.010703489
0000f0 2c fb 7b bd aa 3d 77 3d ce 21 a7 3c 9c ac 2b bd
       -0.061518833 0.06036154 0.020401862 -0.04191266
000100 a5 45 05 3d 8d a5 56 3d 15 2b 44 3d e0 22 7a 3f
       0.03253712 0.052403975 0.04789265 0.97709465
000110 89 2a 8e be 95 d5 81 3d cc c8 89 3c 4d 0a 0c 3b
       -0.27766827 0.06339566 0.01681938 0.0021368444
000120 fd fd a0 3c ca e7 01 bd e4 59 c9 3c 2c 9d 8b 3f
       0.019652361 -0.031715192 0.024578996 1.090734
000130 ce 0e 09 bd 53 38 a5 3d 75 44 c1 be 93 de 12 ba
       -0.033461384 0.080673836 -0.3774754 -0.0005602624
000140 da 48 43 3d 9d b6 9e 3f 1d 95 a3 3d cb 5d d1 3d
       0.0476769 1.2399479 0.079874255 0.10222968
000150 f2 bb bf 3c e1 3d 23 bc 28 e5 9c bd 6d 6a f6 bb
       0.023405049 -0.009963484 -0.076608956 -0.007520011
000160 87 4e 1b 3d fa 1a e6 3c a0 6e 16 3d 65 1a 0f 3d
       0.037916686 0.028089035 0.036726594 0.03493728
000170 fb 26 d2 3d 4c 61 2e 3c 1f 28 36 3f 41 fc 46 3f
       0.10261341 0.010643315 0.7115497 0.7772866
000180 ef 1e 31 3d 1a 60 11 bc 57 d4 c9 3c c7 8c ef bc
       0.04324239 -0.00887301 0.024637384 -0.029241933
000190 ff 70 92 bc ea 49 8d 3e 85 17 f7 bc 81 ae 97 3e
       -0.017876146 0.27595454 -0.030162582 0.29625323
0001a0 eb 7f 5f bc ec 46 ad bc 78 11 ed bc e6 d8 e9 3c
       -0.013641338 -0.021151982 -0.028938994 0.028545808
0001b0 21 7b 27 3c 5e e6 1d bd bc eb 5f 3b 99 7d 60 3e
       0.010222227 -0.038549773 0.0034167608 0.21922912
0001c0 dd ad 8d 3c d1 f9 5f 3d 2c 0c 36 3d 52 ea 17 bc
       0.017294819 0.054681603 0.0444452 -0.009272175
0001d0 b5 13 ab be 48 d7 81 3c 9a 79 4f 3c 14 b7 2f 3c
       -0.33413473 0.015849724 0.012663269 0.010724802
0001e0 c8 94 c7 bd c2 dc d4 bc 42 2a 11 bd 04 e3 c8 3c
       -0.09745175 -0.025984172 -0.03544069 0.024522312
0001f0 bf 15 41 3e d2 85 9c 3e 12 f1 6b 3e 23 1d c1 bb
       0.18855952 0.30570847 0.2304118 -0.005893366
000200 0b 46 fb bc 53 ef 99 3c c7 89 a3 be df 56 2f bd
       -0.030673048 0.018790876 -0.31941053 -0.042807456
000210 bf 12 b7 bc 5f b6 2e bd d7 ed 10 be 77 90 ee 3c
       -0.022347806 -0.04265439 -0.14153229 0.02912162
000220 9d 33 43 bd 25 d2 f7 3e e5 b6 6f 3e 13 c5 c9 bc
       -0.047656644 0.48402515 0.23409612 -0.024630105
000230 a0 40 e2 bc 5b 36 80 3f 64 a0 6a bc 5d 4c e7 3c
       -0.027618706 1.0016588 -0.014320467 0.028234655
000240 2d 28 9e 3d 73 4c 3b bc c8 60 f1 3c 91 75 84 3c
       0.07722507 -0.011431801 0.029465094 0.016169341
000250 ee d9 1b 3d 33 eb 2d 3f a7 da 61 3d 95 4e 80 3c
       0.03804963 0.6793701 0.055140164 0.01566247
000260 bb af 24 bd 2b f8 88 3e 2d 75 9f 3e d7 a2 28 bf
       -0.040206652 0.26751837 0.31144086 -0.65873474
000270 2a a8 2d 3e 55 f2 78 3c 31 c8 2d 3f 9d 50 12 3f
       0.16958681 0.015194495 0.6788359 0.57154256
000280 20 84 69 3e a5 0c 68 3c 5c e5 5a bc 80 98 a7 3b
       0.22804308 0.014163171 -0.013360348 0.005114615
000290 3f 87 56 3d 45 11 66 3d 6b 95 32 3d e7 77 1d 3d
       0.052375074 0.056168813 0.043599527 0.038444426
0002a0 c7 ac 02 3d 5b 0b 1c 3e 3b c9 22 bd 42 95 a5 3c
       0.031903055 0.15238707 -0.03974269 0.020212773
0002b0 bc 3f 38 3d f5 f5 58 3d cb 39 c1 bd 05 91 d3 3c
       0.044982657 0.052968938 -0.09434851 0.025825987
0002c0 40 0d 28 3e c8 7f 01 bd f0 ab b2 3c a3 6b 8d 3d
       0.16411304 -0.031616002 0.021810502 0.06905296
0002d0 ca 90 69 3c c6 94 be bc a0 b3 74 3e d5 b8 b5 bd
       0.014255712 -0.0232643 0.23896646 -0.088731445
0002e0 db 2c d7 3c be 01 79 bd c6 16 4e be 43 cf c3 bb
       0.026266506 -0.060792677 -0.20125875 -0.0059756353
0002f0 9e 39 52 3d 7a 12 f5 3c 74 80 9c 3e c7 7a 35 3d
       0.05132448 0.029916037 0.30566752 0.044306543
000300 c5 01 1f 3d e2 59 66 3c c2 a6 08 bd e3 07 a6 3d
       0.038820047 0.014059516 -0.033362158 0.08106973
000310 a4 66 02 bf de 32 7d 3f 91 ee 71 3d 25 4b 59 3d
       -0.5093787 0.9890574 0.059065405 0.05305018
000320 ef b2 5f 3d f8 14 32 3c 30 69 37 bd 37 14 94 3e
       0.054614004 0.010869257 -0.04477805 0.28921673
000330 24 45 76 3d a8 78 b0 bc c7 b7 9b 3e cd 45 36 bc
       0.06012453 -0.021541908 0.30413648 -0.01112504
000340 6a 87 4c 3d ed 02 72 3f 6c 44 d4 3c 20 23 15 3d
       0.04993383 0.94535714 0.025911532 0.03641045
000350 d3 0f 40 3d 48 e1 21 bd 2a d0 d5 3c 22 22 46 3d
       0.04689009 -0.039521486 0.026100237 0.048372395
000360 4a 02 b7 bd 3f c8 50 be 57 b4 ba 3d 2d 1a 7f 3f
       -0.089359835 -0.20388888 0.09116428 0.99649316
000370 d1 0c de 3d bf 63 38 bd 7b 95 07 3f 77 7c 4a 3d
       0.10842288 -0.045017 0.52962464 0.049435105
000380 73 4d 8e bb c9 c2 5c 3d 72 04 6a 3d 46 6f fb be
       -0.0043427288 0.0538967 0.057133146 -0.49108332
000390 26 82 a3 3d da be 1b bd 48 44 68 3e a5 8f 4b 3d
       0.07983808 -0.038023807 0.22682297 0.049697537
0003a0 79 ec 72 3f fd 96 4d bc 7d 44 a0 3e e5 9c 01 3d
       0.9489208 -0.012548205 0.31302252 0.031643767
0003b0 bb c8 24 3c e8 62 2a 3d b7 fa bf 3c f2 cc 8a 3f
       0.0100576235 0.04159823 0.02343498 1.0843794
0003c0 2a 05 a1 bc 43 a3 c8 3d f6 ff 8e 3c 6f fa 6d 3d
       -0.019655783 0.09796765 0.017456036 0.05810016
0003d0 49 ad 6d 3d af be 8a bc c5 fa 7c 3c 48 e1 ae bb
       0.058026586 -0.016936628 0.0154406475 -0.005336914
0003e0 7f 1d e3 3c 85 d3 bf bd 4f 3a b9 3d 47 03 8d bc
       0.027724026 -0.09366516 0.090443246 -0.017213477
0003f0 2b 85 07 3d ee f5 5e 3d 10 3b 83 3f a3 26 87 bc
       0.033085983 0.054433756 1.02524 -0.016497916

fc3.bias f4 [2]
000000 b4 ae a1 3f 6d 13 8a 3f
       1.263144 1.0787178
