reinforcement_learning/models_cartpole/cartpole_ne2000_lr0.0001_ep0.2best_ddqn_agent.pt (torch, 654679 bytes, 6 tensors)

fc1.weight f4 [400, 4]
000000 84 99 9e 3e 48 75 90 bd f2 2f 4f be 57 48 98 be
       0.30976498 -0.070536196 -0.20233133 -0.2974269
000010 6a 62 80 3e fa 92 ca be 67 a3 46 bf 50 ed 31 3e
       0.25075084 -0.3956526 -0.7759308 0.17375684
000020 f4 fd b5 bd a2 13 a8 3e 7c c0 dd 3e 64 de 06 bf
       -0.08886328 0.3282748 0.43310916 -0.5268309
000030 49 0f 90 3c 23 06 15 3e 6b 42 92 be f0 f6 c2 3e
       0.017585414 0.14553122 -0.28566298 0.38079023
000040 06 16 17 bf 08 cb 5e be 42 58 0e 3f 85 b2 3f 3e
       -0.5901798 -0.21757138 0.5560342 0.18720444
000050 a8 5d a5 bd c4 79 83 be ab 01 60 bf 13 4d f0 3d
       -0.08074504 -0.25678837 -0.87502545 0.11733451
000060 68 af be 3e aa 6f b1 be a9 a1 cd be 06 fc c0 3e
       0.372432 -0.34655505 -0.401624 0.3769228
000070 04 0b de 3e 34 17 78 3d 4b 9a 66 be 39 41 8b bd
       0.4336778 0.060569003 -0.22519796 -0.067995496
000080 ed 05 0f 3e ec 5e ab bd 9c 10 5b bf a3 d3 89 be
       0.13967104 -0.08367714 -0.8557222 -0.26919279
000090 e5 13 be be 62 c3 c9 3e 19 26 43 bf ab 4d a5 bd
       -0.37124553 0.39406878 -0.7623001 -0.080714546
0000a0 1a a0 a7 be 7b 0f e5 bc 43 c9 5a 3f 4f e3 da 3d
       -0.32739335 -0.027961483 0.8546335 0.10687887
0000b0 c1 bb 18 3e a8 3e 25 be 8c 33 7c 3f 24 c3 b3 3e
       0.14915372 -0.16137183 0.98516154 0.35109818
0000c0 8b f6 5e be c5 a0 cd 3e 1b 12 1f bf ef 02 4f 3d
       -0.21773736 0.4016172 -0.62137 0.050539907
0000d0 53 88 e4 3e 1a 60 a7 be 09 25 51 bf 2c 8d cf be
       0.44635257 -0.32690507 -0.81697136 -0.40537393
0000e0 ea 9a e5 be 09 bf 50 3e c4 db 64 3f a2 7e 92 3e
       -0.44844753 0.20385374 0.89397836 0.28612238
0000f0 9c ec 26 3e f8 3c c8 3e 03 37 fd be 32 4a b0 be
       0.16301197 0.39109015 -0.49456033 -0.34431607
000100 5b f8 7c 3e fa b2 34 bd 81 9d 46 3f 93 58 8e 3e
       0.24704115 -0.044115998 0.7758408 0.27801952
000110 41 56 ca 3e 8d 58 52 bd 59 09 77 3e 0b 11 eb 3e
       0.39518932 -0.05135398 0.2412466 0.4591144
000120 b5 63 a6 be 74 04 0a bf c1 09 37 bf 66 64 e2 be
       -0.32497945 -0.53913045 -0.7149926 -0.44217223
000130 5d 2f d7 3e 1c 39 b0 be 20 d3 b2 3e e1 7e e6 be
       0.42028323 -0.3441857 0.349267 -0.45018676
000140 5d f5 9f 3e 6d 60 54 be d4 a8 f1 be d1 04 a2 be
       0.31241885 -0.20739909 -0.47199118 -0.316443
000150 ef c7 3b be 5a 5c b4 be eb bc 2e 3f b8 64 a5 3e
       -0.18337987 -0.3522671 0.68257016 0.32303405
000160 c5 c4 ba be 4f 60 a6 3e 98 15 46 3f 89 e4 e7 be
       -0.36478248 0.32495353 0.773767 -0.45291546
000170 f0 6f 8a 3d 65 25 a8 3e b3 ed e7 be fc 33 84 be
       0.06759632 0.3284103 -0.45298538 -0.2582091
000180 1b e0 fb bd 6c 15 c9 be 35 5a 2a bf 5a 13 82 be
       -0.12298604 -0.39274156 -0.66543895 -0.2540539
000190 c0 f6 32 3d 13 e3 85 bd 00 07 3e bf 9a 87 2c be
       0.04369235 -0.065374516 -0.7422943 -0.16848603
0001a0 11 58 da be 89 6e 65 3e 53 87 41 bd 27 59 aa 3e
       -0.42645314 0.22405447 -0.047248196 0.33271143
0001b0 11 dc 03 bf ff be 9c 3e 2c fd 6e 3f c2 60 db 3e
       -0.5150767 0.30614468 0.9335506 0.42847258
0001c0 94 c0 09 3f 06 fc 29 3d ce 0b ee 3d 54 6a 98 be
       0.53809476 0.041500114 0.11623345 -0.29768622
0001d0 c5 a5 55 3c 52 00 6e be 7a 61 74 ba 93 4c dc be
       0.013040011 -0.2324231 -0.00093223865 -0.43027171
0001e0 cb ae 4f 3e e9 60 04 3f 82 23 6b 3e 11 4d 74 be
       0.20281522 0.51710373 0.22962764 -0.23857524
0001f0 2f 57 bd 3d 1c ae a9 3d 04 4b 5b 3e ea e9 6c 3e
       0.092451446 0.08285162 0.21415335 0.23136106
000200 6f 2d 5a 3e 43 1d 6d be fc cc 9a 3e c0 51 38 3d
       0.21306394 -0.23155694 0.30234516 0.044999838
000210 9a 35 a0 3e 26 02 9c be 43 ea 14 bf f9 c9 8f 3e
       0.31290895 -0.3047039 -0.58169955 0.2808378
000220 e3 d8 73 3e fc 3b f1 3d 40 46 43 3f ac 27 bd 3e
       0.23813204 0.11779019 0.7627907 0.3694433
000230 04 56 a2 3d b7 f4 66 3d 6c a9 07 3f 85 35 af 3d
       0.079265624 0.056385722 0.5299289 0.0855513
000240 05 7b 81 bd d2 42 00 bd 9b a8 fb bd 22 42 5e bd
       -0.06322292 -0.031313725 -0.12288018 -0.054262288
000250 de 09 b6 be 3b cc 54 be 1f bc b4 be 9c ce e6 3e
       -0.35554403 -0.20781033 -0.35299775 0.45079505
000260 81 3e eb 3e f1 1c b5 bd 19 82 e0 3e 12 f8 dd 3e
       0.45946124 -0.08843411 0.43849257 0.43353325
000270 f3 1a 38 3d 6e 7f 06 bf 1a 64 6a 3e d8 26 a7 3e
       0.044947576 -0.5253819 0.22889748 0.32646823
000280 c4 68 bc 3d d1 3b 7b be 0a f8 e6 3e a7 ad a1 3e
       0.0919967 -0.24534537 0.45111114 0.315778
000290 a3 b9 b2 be aa a1 86 be 9b 2d 5b be d9 de ba bd
       -0.34907255 -0.26295215 -0.21404116 -0.09124536
0002a0 a3 dc b6 3d cc f7 f4 3d f0 75 17 3f 0d a2 54 3e
       0.08928802 0.11961326 0.59164333 0.20764942
0002b0 ad 86 8b 3c 1e d2 85 3d 43 0e 60 3f fd 01 5c 3e
       0.017031992 0.06534217 0.8752176 0.21485133
0002c0 93 0d 90 be f0 d4 31 3d 28 5a 9e 3d ce 21 21 3e
       -0.28135356 0.043415964 0.0773204 0.15735552
0002d0 54 18 b1 be 42 87 e0 be e4 15 79 3f 7a 90 91 3e
       -0.34588873 -0.43853194 0.9729903 0.2843054
0002e0 db 6a 89 be a1 4b 6f be c8 21 aa be 01 d4 bb 3e
       -0.26839337 -0.23368694 -0.33228898 0.36685184
0002f0 05 02 f1 3b bf 8c 83 bd 29 0a f3 be ce e0 40 be
       0.007354977 -0.064233296 -0.4746869 -0.18835756
000300 ad c0 1b be 35 fe 02 3e a1 74 49 3f 5a 55 7f 3c
       -0.15210219 0.12792285 0.78693587 0.015584314
000310 0f fb 15 3e 68 53 21 3e 42 f7 19 bf f7 71 cc 3e
       0.14646553 0.15754473 -0.6014291 0.39930698
000320 3b 03 c6 be bf 51 03 3d a6 76 ff be 76 ce f2 be
       -0.3867434 0.03206038 -0.4989521 -0.47423142
000330 45 36 d9 be 06 29 1f bd e9 e3 08 bf d4 e2 69 3d
       -0.42424217 -0.038857482 -0.53472763 0.057101086
000340 7d 54 b3 be eb df 5d 3e 05 77 d2 be 83 39 94 3d
       -0.35025397 0.21667449 -0.4110643 0.07237532
000350 ac d4 bd 3c 4e a0 4e 3e 4b c4 e1 3e 57 6d c8 3e
       0.023172699 0.20178339 0.44095072 0.3914592
000360 b2 1f 18 3e 02 79 27 be 63 0c 6e 3f b5 f7 f7 3d
       0.14855841 -0.16354755 0.9298765 0.12107793
000370 fc b9 75 be 05 ad f6 3e 66 3d 01 3f ea f6 36 bc
       -0.23996729 0.48178878 0.5048431 -0.011167267
000380 73 b9 59 3e 6c e2 aa 3d 83 04 14 bf bd cc 9f 3d
       0.2126215 0.08343968 -0.57819384 0.078027226
000390 5f 95 02 3d a5 d6 7d bc c2 1d 48 be 78 ee ce 3e
       0.031880733 -0.01549307 -0.19542602 0.40416312
0003a0 65 33 84 be 39 0c 92 3e a5 74 5f 3f 14 12 d5 bd
       -0.2582046 0.2852495 0.8728736 -0.10403839
0003b0 41 f7 9b be 05 ac 98 be b2 41 0d 3f ae 0c 8d 3e
       -0.30462077 -0.2981874 0.5517837 0.27548736
0003c0 19 60 1b be 70 b6 b7 bc 55 d1 a7 3e 86 ff 52 be
       -0.15173377 -0.02242586 0.32776895 -0.20605287
0003d0 60 c5 79 3d e0 7c 0a be 1e ee c2 bf e5 6c cb be
       0.060979247 -0.13524199 -1.5228918 -0.39731517
0003e0 2d 8a aa bd 5d f9 14 3e 39 70 89 3e cd bd f0 be
       -0.08327136 0.1454825 0.26843432 -0.47019807
0003f0 6c dd 26 be ec 86 e1 3d ec e3 41 3e 05 c7 d9 3e
       -0.16295403 0.110120624 0.18934602 0.42534652

fc1.bias f4 [400]
000000 dc 44 e5 be e9 dc e5 3e b9 fa 9d 3e 32 33 04 3f
       -0.44779098 0.44895104 0.3085535 0.5164062
000010 ad 4e 3b bd 33 85 1d 3e 21 8c 53 3d f2 e5 94 3c
       -0.045729328 0.15382843 0.05164731 0.018176053
000020 5c c6 e3 3e a6 cc 19 bf 0c 82 b7 3e c4 dd 25 be
       0.44487274 -0.60077894 0.35841405 -0.16197878
000030 fc 30 f2 3e 89 d6 a8 be cf 8e cb 3e 5e cd 03 3f
       0.47302997 -0.32976177 0.39757392 0.5148524
000040 0f ba a4 be b1 95 94 be d0 aa 18 3e 8c 8e 38 3e
       -0.321732 -0.29020455 0.1490891 0.18023127
000050 d1 10 60 be a4 2c 35 be 08 84 23 3e 2e 1e c8 3e
       -0.21881415 -0.1769281 0.15968335 0.39085525
000060 79 dc 09 3f 97 3f 95 3e c9 0b d5 be a9 30 9d be
       0.5385204 0.29150078 -0.41610554 -0.30701187
000070 3e 21 a4 be 63 2c 8d 3e 8f 50 c1 be 66 a9 01 3f
       -0.32056612 0.27572927 -0.37756774 0.50649107
000080 1f bc da 3e f6 82 b9 3d e2 79 c7 be 3c 51 a9 3e
       0.4272165 0.09058182 -0.38960177 0.3306979
000090 fd d4 75 3e b5 63 8e 3e f0 88 17 be 2b 1c f7 bd
       0.2400703 0.27810445 -0.14798331 -0.120659195
0000a0 03 8a 5c be 57 95 2d be 20 96 68 3e eb 40 d5 3e
       -0.21537022 -0.169515 0.22713518 0.4165109
0000b0 dc 4f 8d 3e 84 cf 62 3e a6 f9 80 be f0 b7 90 3e
       0.2759999 0.22149473 -0.25190467 0.28265333
0000c0 72 de 80 3e 2f 3b b8 3e 8d 42 72 bd 50 63 6d be
       0.25169712 0.35982653 -0.0591455 -0.23182416
0000d0 6a 45 b8 be d1 31 11 3f ee 72 9e bd 13 e8 c6 be
       -0.3599046 0.5671664 -0.07736765 -0.38848934
0000e0 80 1d 14 bf c3 f8 5e 3e ab d4 1c 3e 28 d5 5d be
       -0.57857513 0.21774583 0.15315501 -0.21663344
0000f0 5f 18 b2 be 75 bc a2 be c5 16 30 3e 74 31 af 3e
       -0.3478422 -0.31784406 0.17196186 0.34217417
000100 74 02 0c 3e 4c ee 9e be 26 49 65 3e af fe 08 bd
       0.13672811 -0.3104118 0.22391185 -0.03344601
000110 50 bf ae 3e 70 61 a0 be c4 34 d6 3d 7f 1d 44 3e
       0.34130335 -0.3132434 0.10459283 0.19151877
000120 c7 56 b2 be 57 61 b1 be d2 b7 d1 3e 30 22 a7 be
       -0.3483183 -0.34644577 0.40960556 -0.3264327
000130 c4 8c 81 be c1 25 aa 3e e1 f2 9d 3d 70 c5 98 3d
       -0.25302708 0.3323193 0.07712341 0.07459533
000140 c7 90 4e 3e 5c 20 5b 3e ce 33 c7 3e c0 2a 0d be
       0.20172416 0.21399063 0.3890671 -0.13785839
000150 9f c7 c3 be 9d f8 cd bd 75 b6 0e 3d 79 4d 6d be
       -0.38238236 -0.10057185 0.034841973 -0.23174085
000160 78 2c 0c bd 6d d3 e4 3e 10 6b 6b be 45 49 c8 3e
       -0.034222096 0.44692555 -0.2299006 0.391184
000170 ab 55 ec 3e 64 64 9c be dc 10 10 3e 0d 1b d9 3e
       0.4615911 -0.30545342 0.14068931 0.4240345
000180 00 48 86 be 0b 3f 61 3e 26 b5 9a 3e 00 37 bc be
       -0.26226807 0.21996705 0.3021633 -0.36760712
000190 1c d3 ea 3e ac be 36 3e 58 21 fd 3e d1 e5 6f 3e
       0.4586419 0.17846173 0.49439502 0.23427512
0001a0 48 6f 6b bd fb 30 73 3d 1c ab 9f be eb ae 0f 3f
       -0.057479173 0.059372883 -0.31185234 0.5612628
0001b0 37 9b 93 3e 9c 7a 3e bc b7 2d f9 be 9c 1b 4e 3e
       0.28829357 -0.011625912 -0.4866769 0.2012772
0001c0 14 5a 6d be 04 03 98 be 63 48 3c 3e c2 7c d0 bd
       -0.23178893 -0.296898 0.18386988 -0.10180046
0001d0 3b bd 8f 3e 79 92 ef be 52 78 23 3d 12 c5 f6 bc
       0.2807406 -0.46791437 0.03990967 -0.030123267
0001e0 2a 2d 09 be 4b 66 d0 be 8a c6 33 3e cf be c2 bd
       -0.13396135 -0.40703043 0.17556205 -0.0950905
0001f0 bb 46 8e 3e 4e 89 a6 3e 92 4e b0 be ea 38 bd 3e
       0.27788338 0.3252663 -0.34434944 0.36957484
000200 18 b2 90 bd 2f 17 7f 3e 9e 84 37 bd 98 66 90 3d
       -0.07065219 0.24911188 -0.044804208 0.07050818
000210 73 cc ac 3b b8 fa 01 3f 17 49 ac 3e c3 1f ee 3e
       0.0052733957 0.5077319 0.33649513 0.46508607
000220 79 fc 15 3e 22 d2 22 be 65 ab ab be 2f 10 c3 3e
       0.14647092 -0.15900472 -0.335292 0.38098285
000230 bd fa 97 3e 7a 89 f9 be c5 69 e0 3d ae c7 7f be
       0.29683486 -0.487377 0.10957674 -0.24978516
000240 96 4c ed 3e a3 e0 89 bc 1a 91 00 bf a6 48 4b 3e
       0.46347493 -0.016830748 -0.5022141 0.19851932
000250 a9 95 c3 3e dd 16 a0 be 47 1c f6 be a2 d8 ea be
       0.3820012 -0.31267443 -0.4806845 -0.45868403
000260 b4 ed 86 be 77 6a 52 3d 9e aa 4f be 64 02 fc 3e
       -0.26353228 0.051371064 -0.20279929 0.49220574
000270 ef 7e 9a 3e 9d 1d ab be 24 07 c1 3e 46 ab d2 be
       0.30174968 -0.3342103 0.3770076 -0.41146296
000280 e5 3c 8c be 93 2c e2 3d 1e a4 93 be ee cd f3 be
       -0.2739021 0.11043658 -0.2883615 -0.4761805
000290 17 20 18 be 7e 5e 38 3e 3b f4 cd 3e a3 77 a7 3e
       -0.14855991 0.18004796 0.40225396 0.32708463
0002a0 35 5e b0 3e 0b d9 9f 3e 4d df ab 3e e8 5c 9e be
       0.34446874 0.31220278 0.33568802 -0.30930257
0002b0 bb 32 bc be 34 46 ce 3e eb 96 a8 3e 33 39 d2 be
       -0.36757454 0.40287936 0.3292764 -0.41059265
0002c0 a3 f8 5a 3e a1 68 40 be 1a 96 dc 3e 09 93 06 bf
       0.2138391 -0.18789913 0.43083268 -0.5256811
0002d0 99 a2 da be 17 73 bc 3e 73 82 fe bd 9f b4 78 3e
       -0.42702177 0.36806557 -0.12427225 0.24287651
0002e0 0c 3c 87 3e 3c 9f fd 3d be 03 29 bf 8b dc 45 3e
       0.26413 0.12383887 -0.66021335 0.19322412
0002f0 f4 74 09 3e 8a 64 88 3e 37 34 8e 3e 1b a7 da 3e
       0.1342352 0.26639205 0.27774212 0.42705616
000300 64 e8 8e 3e 1a 7b 33 be 0a 45 a6 be 77 df 08 3e
       0.27911675 -0.17527428 -0.32474548 0.13366495
000310 fd af 27 be 9b c1 27 be f4 b2 3d be 3a 78 d3 3b
       -0.16375728 -0.16382448 -0.18525296 0.006453541
000320 d5 a2 31 be 19 d8 ec 3e 5f 03 14 be 5e bd ab be
       -0.17347272 0.4625862 -0.14454411 -0.33542913
000330 72 d1 5d be 26 36 85 be 04 20 0b 3c b4 1b 47 bd
       -0.21661928 -0.26017874 0.00849152 -0.048610404
000340 e4 da c2 bd 2f 0d 01 3f 6a 0e 03 3f 73 9e a2 be
       -0.09514406 0.5041074 0.5119387 -0.31761512
000350 5b 0f 57 3e 31 31 12 bd 67 29 b1 be ea be 1d be
       0.21001951 -0.035691444 -0.346019 -0.15404859
000360 7b 4b c5 3e df bb d1 3e a1 e5 3f 3e de b4 ba be
       0.3853415 0.40963647 0.1873994 -0.36466116
000370 f9 a0 2b 3e 00 35 c9 bd 2a 86 a5 be 01 5a 0d bf
       0.16760625 -0.09824562 -0.32328922 -0.5521546
000380 db 37 b5 be 06 e5 b3 3d ce 7b d7 3e 86 5f 0e be
       -0.35394177 0.08783917 0.42086643 -0.13903627
000390 51 aa f1 3e dd 7b bd 3e c7 d3 4b be 7f 65 e0 be
       0.47200254 0.37008563 -0.19905005 -0.43827435
0003a0 8b fa c9 3d 7c 84 cf 3e b3 2a b1 be aa 6d c1 be
       0.098622404 0.40530765 -0.3460289 -0.3777898
0003b0 04 66 33 be 95 25 d5 3a d4 15 9f 3e f2 89 2d be
       -0.17519385 0.0016261811 0.3107134 -0.16947153
0003c0 db 37 ad bd 6f 0a 89 3e 92 4c 59 be 00 c7 d1 be
       -0.08457919 0.26765773 -0.21220616 -0.40972137
0003d0 e4 3c 05 3f 94 26 a6 3e 6f 1a ae be f3 02 f6 3e
       0.52046037 0.32451308 -0.34004542 0.48049125
0003e0 c1 e2 4c 3e f3 82 e1 bc e4 15 18 bf 2c 02 26 bd
       0.20008375 -0.027528262 -0.594084 -0.040529415
0003f0 69 b6 c7 be 95 be eb be 89 f0 f5 be 8f cb ff 3e
       -0.39006355 -0.4604384 -0.48035076 0.4995999

fc2.weight f4 [400, 400]
000000 f3 98 e9 3c e3 f9 dc 3c de 06 31 bb db f4 39 bd
       0.028515315 0.026974624 -0.002701215 -0.045399528
000010 cd 4b 88 3b aa cb ed 3c 72 4a 1e bd 17 bb fd 3c
       0.004159427 0.029027779 -0.038645215 0.030973
000020 89 48 32 3d 70 d8 cc bc 73 a0 4b bc cb 64 01 3d
       0.043526206 -0.02500555 -0.012428391 0.031590264
000030 e4 b8 07 bd 73 7a 6f 3c 72 04 5e 3c 54 e6 0a 3d
       -0.03313531 0.0146165965 0.0135508645 0.033911064
000040 4b e8 45 3d 2a b8 c0 bc 22 18 26 bd b3 39 db 3b
       0.048317235 -0.023525316 -0.04055036 0.006690228
000050 4d 3a 99 3c d0 14 43 bd 85 28 bd bc 3c da 48 bd
       0.018704558 -0.04762727 -0.02309061 -0.04903625
000060 fd 06 51 bd e7 d0 06 3d 10 0a 4c bd ba 5f 11 3d
       -0.051032055 0.03291407 -0.049814284 0.035491683
000070 4a a3 b5 bc 5f 03 19 bd ff 79 15 bd 70 49 bc bc
       -0.022172589 -0.03735673 -0.036493298 -0.022984236
000080 d6 03 39 bd cd 4c 3d 3c 27 1a f2 3c 5d 38 32 3c
       -0.045169674 0.011553955 0.029553486 0.010877696
000090 c2 44 3e bc db 13 4b 3c d7 39 81 3c 88 41 45 bd
       -0.011613073 0.012394871 0.01577465 -0.0481582
0000a0 8d e3 f3 3b 7d b0 cc 3c 5c 5a 1a 3d e6 58 f9 bc
       0.0074428977 0.0249865 0.03768383 -0.030437898
0000b0 97 f4 13 3d 91 0d 4a bd 30 c4 f3 bc 99 42 45 3c
       0.03612193 -0.049329344 -0.029756635 0.012039804
0000c0 95 f4 d1 3c f1 75 1f bd 48 09 25 3d 0a 76 0b 3d
       0.025629321 -0.038930837 0.040292054 0.034048118
0000d0 f3 9d cd 3c 77 00 ae 3c 95 dc a6 bc 73 af 89 bc
       0.02509973 0.021240456 -0.020368854 -0.016807294
0000e0 87 fe b5 3c b5 4a 03 3d 19 f0 8c 3c b7 84 af 3c
       0.022216095 0.032053668 0.017204331 0.021425588
0000f0 d3 13 5c bc 57 a5 8a 3c 55 fe d8 3c 26 fd f9 bc
       -0.013432461 0.016924543 0.026488462 -0.030516218
000100 f4 c9 b9 bc a0 1d 41 3d 81 18 d6 bc 69 4b de 3c
       -0.022679307 0.047147393 -0.026134731 0.027135568
000110 0a 8d 86 bc 5d 26 ef bc 53 79 87 3c 95 24 ad 3c
       -0.016424675 -0.029193098 0.016537344 0.021135608
000120 80 a7 e3 3b 4a 3f b4 3c 7f 68 a2 bb ea d2 0c 3d
       0.006947458 0.022002835 -0.0049563046 0.03438083
000130 8a 75 9d 3c 42 7c 05 3d dd 88 2b bd 0e 62 07 3d
       0.019221086 0.032589205 -0.04187857 0.033052497
000140 b8 1f 39 3d 4b 5a 36 bc 4f 2d 27 bd d4 19 27 bd
       0.045196265 -0.011129926 -0.040814694 -0.040796116
000150 cd d4 8b ba 26 00 0f bd da 1a c5 bb 93 87 fb bc
       -0.0010668278 -0.03491225 -0.006015164 -0.030704295
000160 ed 95 2f bc 09 f7 85 bc 80 bd 15 3b e9 fd 7a bc
       -0.010716897 -0.016353147 0.0022848547 -0.015319326
000170 e7 a7 cb bb 2d 48 1a 3c 07 99 2e 3d ad 41 62 b9
       -0.006215084 0.009416622 0.042626407 -0.00021577506
000180 b3 55 c3 bc b1 59 ac 3b 9e c9 05 bd 9a 9b b9 3c
       -0.023844576 0.0052597155 -0.03266298 0.022657204
000190 74 b3 12 bd c9 d0 4c bc 71 3f cc bc a3 31 85 bc
       -0.03581567 -0.01250095 -0.024932595 -0.01625902
0001a0 9a eb 32 3a 35 53 20 bd 33 82 75 3b 1b c6 02 bd
       0.00068252685 -0.039141852 0.0037461638 -0.03192721
0001b0 51 57 41 3d 40 34 2d 3d dd d8 db 3c 3b 67 36 bd
       0.047202412 0.042286158 0.026836807 -0.044532042
0001c0 a3 ed db bc 6d 22 71 bc 44 a8 b6 3c 57 81 ae bc
       -0.026846712 -0.01471768 0.022297032 -0.021301908
0001d0 bf a7 35 bb d8 2a 4b bd cd ad 55 bd 96 89 09 3d
       -0.0027718393 -0.049601406 -0.052167702 0.033578478
0001e0 e7 07 1a bb 2f 55 42 3d f5 37 71 3b 4a be b7 3c
       -0.0023503245 0.04744452 0.0036807035 0.022429604
0001f0 76 59 03 bd f6 80 d4 3c f3 13 03 bc dd d6 1c bd
       -0.03206774 0.0259404 -0.008000362 -0.038290847
000200 c3 ec ee bc 92 86 dd 3c c7 f1 28 3c bf d4 04 3d
       -0.029165631 0.027041707 0.01031155 0.032429453
000210 63 11 17 3d c2 07 76 bb 6d d5 87 b8 a5 14 fe bc
       0.036881816 -0.0037541245 -6.477055e-05 -0.031015703
000220 06 21 88 3c e7 15 08 bc f7 30 a0 bc 51 e8 db bb
       0.01661731 -0.008306003 -0.019554598 -0.006711044
000230 23 dd 15 3d 93 d7 31 3d d8 54 38 bd e8 a6 1b bd
       0.036587846 0.04341848 -0.04500279 -0.03800097
000240 4e ab 8d bc 40 5c 6a bc c0 bd a9 bb 74 9d 87 3c
       -0.017293599 -0.014304221 -0.0051800907 0.016554572
000250 97 4b ec 3c fa c0 e9 bc 6a 52 4b bd 60 85 4a bd
       0.028844638 -0.028534401 -0.049639143 -0.049443603
000260 72 fa 33 3d 53 bc 48 bc ea 95 48 bd bd 10 0d 3d
       0.043940015 -0.012251931 -0.048971094 0.03443979
000270 b1 4f 67 bc 00 9e e4 ba 41 c5 31 bd 23 52 aa 3c
       -0.014118121 -0.0017442107 -0.043401007 0.020791119
000280 43 8d b9 bc cd 87 57 bc 0d dd 08 bd 1a de 66 bc
       -0.022650367 -0.013154936 -0.033413935 -0.014091039
000290 13 ef 78 3c dc 21 3a bd b7 af d6 bc 69 8a 01 bd
       0.0151937185 -0.045442447 -0.026206834 -0.03162614
0002a0 db 28 92 3c 43 09 de 3c f8 58 30 bd 2a 30 2c 3d
       0.017841747 0.027104026 -0.043053597 0.04203812
0002b0 2b db 15 3d f6 f4 d1 bc 0e 2d be 3c 2b aa 04 3d
       0.036585968 -0.025629502 0.023214843 0.032388847
0002c0 a2 df 25 bd fb cb 1b bd e0 f3 bf bc 0a 99 39 3d
       -0.040496476 -0.038036328 -0.023431718 0.045311965
0002d0 e5 30 17 3d 4a a2 f5 3c 6b 4d b6 bc 2a 8d 02 bd
       0.036911864 0.029984612 -0.022253713 -0.031872906
0002e0 1f 01 e2 bc 56 e4 f4 bc cd 10 da bb 6e a6 23 bd
       -0.027588425 -0.029894035 -0.006654835 -0.03995364
0002f0 aa a8 38 3c 9a e5 bf bc 30 2a b1 ba 49 b3 b9 bc
       0.011270681 -0.023424912 -0.0013516601 -0.022668498
000300 c3 e5 e4 3b da ec 55 3c b0 dd ca bc 80 6d f7 3c
       0.0069853975 0.013056958 -0.024763912 0.03020358
000310 58 c7 14 3d 38 e5 0d bd 37 f3 a6 3c 68 59 34 bd
       0.03632292 -0.03464243 0.020379646 -0.044030577
000320 1a cf 22 bb 9b 1f 41 bc 83 7b 3b bd 93 4a 32 bc
       -0.002484268 -0.0117873205 -0.045772087 -0.010882038
000330 3b ae 23 bd cd 8f fd 3c bd 5a d6 3c 2d 30 e4 ba
       -0.03996108 0.030952359 0.026166314 -0.0017409377
000340 c3 b5 88 bc 91 8f 20 bc 14 50 84 3c 32 51 1b bd
       -0.016688233 -0.009799854 0.016151465 -0.03791923
000350 8e ef 16 3d 95 0a ad ba 73 db 98 bb 9a d5 87 3c
       0.03684955 -0.0013202006 -0.0046648323 0.016581345
000360 84 bf 54 bc d0 7a f1 3c b4 bb a3 bb 4d ae 88 3b
       -0.012985114 0.029477507 -0.004996741 0.004171169
000370 e9 a5 ca bc 42 36 05 bd 40 58 02 3d a8 c6 33 bd
       -0.024737315 -0.032522447 0.031822443 -0.043890625
000380 67 89 03 3d ce 1f 40 3d e8 9c c2 bc 13 3d f4 3c
       0.03211346 0.04690533 -0.02375646 0.029814279
000390 f5 af 3f bd 0d 1b 27 3c 83 b3 e0 bc b7 76 0b bd
       -0.046798665 0.0101993205 -0.027429348 -0.034048762
0003a0 00 f5 dc 3b 6f 19 1c 3d 35 07 2b 3d 3a e9 b6 bc
       0.0067430735 0.038110193 0.04175492 -0.022328008
0003b0 87 72 d1 bc 68 95 b7 bc 93 26 1f bc d0 92 9b bc
       -0.025567306 -0.02241011 -0.009713787 -0.018990904
0003c0 07 19 49 bd c1 be 7a 3c b7 e1 0d 3d 78 89 35 bd
       -0.049096134 0.015304268 0.034639087 -0.044320554
0003d0 d6 da f6 3c 34 be 30 bd 4d 21 ab 3c a5 29 3f bd
       0.030133646 -0.04315014 0.020889902 -0.046670575
0003e0 fa a0 ae 3c 8d 1a fb bb e3 19 32 bd 23 c0 4d bd
       0.021316994 -0.007663077 -0.04348172 -0.050232064
0003f0 38 c6 18 bd 87 4b f5 bc 67 97 c4 bb cd ce ed 3c
       -0.03729841 -0.02994324 -0.005999494 0.029029274

fc2.bias f4 [400]
000000 3f 7e 06 3d 5b 95 85 bc 07 ee e1 bb 78 6a 0a bd
       0.03283524 -0.01630657 -0.00689483 -0.033792943
000010 cb ee 4f 3c 91 71 3d 3d 99 3a 41 3d 96 d1 0f bd
       0.01269121 0.046250883 0.047175024 -0.035111986
000020 72 49 73 bd 95 86 13 bd 6d 84 9d 3d 7b e0 c0 bc
       -0.059396215 -0.03601702 0.07691274 -0.02354454
000030 f7 ad 59 3d a6 c2 98 3d 6d f7 1a 3d 6d 08 41 3d
       0.05314442 0.07459001 0.03783362 0.047127176
000040 11 ee 49 3d 1f 4a c8 3c f6 ff a4 3d 20 87 5a 3c
       0.049299303 0.024449406 0.08056633 0.01333788
000050 5e 3d 82 3c 55 e9 fe 3c 87 71 46 3c c7 29 e5 3c
       0.015898403 0.03111712 0.012112028 0.027974023
000060 38 8c 93 3d e2 1b 57 3d fd 1b 7f 3d 6f 07 a6 bc
       0.07204479 0.052516825 0.06228255 -0.020267216
000070 5d d7 43 bc f3 26 fe bc af de 35 3d b8 5f c9 3b
       -0.011953202 -0.031024432 0.04440182 0.006145444
000080 bc 04 0b bd 83 40 90 3d 9c 1f 51 bd 32 50 5b 3d
       -0.033940062 0.07043555 -0.051055536 0.053543277
000090 41 6f 17 bd b4 74 c1 3c d4 cb e8 3a 9f 5a 1e bd
       -0.036971334 0.023615219 0.0017760941 -0.03866064
0000a0 7f 27 df 3c d9 dd 79 3d cb 46 a4 bc b0 f1 3d 3d
       0.027240513 0.061002586 -0.020053288 0.04637307
0000b0 d0 bf 53 39 94 1f db bb 2b 7f 2c bc 5d 19 95 bc
       0.00020193984 -0.006687114 -0.010528366 -0.01820057
0000c0 43 c4 ce 3c ca 99 4c bd c5 00 b6 bc 0d 88 08 3d
       0.02524007 -0.049951352 -0.022217164 0.033332873
0000d0 6a 00 7b 3d cf 6c 69 bc aa b4 51 3d 9b de cc 3b
       0.06127969 -0.014247133 0.051197685 0.0062521226
0000e0 6c 70 79 bc 08 7f 74 3c 71 3b b4 bc ac 40 a5 3d
       -0.015224557 0.014922865 -0.022001 0.08068976
0000f0 d0 75 c2 bc 76 84 6c 3d bb 90 56 bd 14 4e 96 bd
       -0.023737818 0.057743512 -0.05238412 -0.07339111
000100 91 f9 06 3b 39 39 21 bd 55 76 74 bc 8d d2 35 bd
       0.002059553 -0.039361212 -0.014920791 -0.04439025
000110 a3 36 c4 bc b7 b6 9b 3d d0 b2 19 bd 14 98 8b bc
       -0.023951834 0.076032095 -0.037524045 -0.01704029
000120 73 b6 00 bd bf 14 d2 3c a2 a0 e5 3c 04 ab 9d 3d
       -0.031423997 0.025644658 0.028030697 0.07698634
000130 1a f0 48 bb 63 37 54 3d 95 dd 3c bd 43 de 90 3d
       -0.003066069 0.051810633 -0.046109755 0.07073643
000140 15 32 15 bd 8d 10 b2 3d b9 0e 56 bd b6 c7 51 bc
       -0.036424715 0.08694563 -0.052260134 -0.012803962
000150 5a 75 22 bd 37 16 cb bc 62 2c 2a 3d 3d 7a 99 3b
       -0.039662696 -0.024790866 0.041546233 0.0046837614
000160 2a 90 00 3c 6a b1 cb 3c 78 77 e6 bc 70 97 73 3d
       0.007846871 0.024864871 -0.028133139 0.059470594
000170 37 ec 6f bd 78 fc ad 3c 06 ab a1 3a ca 61 04 3c
       -0.05857488 0.02123855 0.0012334294 0.008079955
000180 c7 86 b8 3b b3 57 24 3d 7d 15 b6 3b e7 35 ad 3c
       0.005631301 0.0401227 0.005556761 0.021143867
000190 d0 fd 8a 3d d6 fc a4 3c 33 e4 79 3d 41 ee bf 3d
       0.06786692 0.020140093 0.061008643 0.09371615
0001a0 e4 b0 17 3d 92 43 38 3d ae 8b be 3b 37 65 c9 bc
       0.03703393 0.044986315 0.005814991 -0.024584396
0001b0 3e b0 94 3d 8d 62 b6 bc e2 ab bd 3c 92 5e ef bc
       0.07260178 -0.02226379 0.02315325 -0.0292199
0001c0 cb b1 96 bb 96 f5 48 bc a8 5d ab 3d 77 a6 d3 3c
       -0.0045988313 -0.0122655835 0.08367473 0.025836213
0001d0 1b 7a b3 3c 77 46 b5 3d 8b 7d 24 3d e1 d5 16 bd
       0.02190881 0.08851331 0.04015879 -0.036825065
0001e0 9d 7f 07 bd 02 a1 a9 bc e9 77 b4 3d 3a 27 73 3d
       -0.033080686 -0.020706657 0.088119335 0.05936358
0001f0 b8 d7 21 3d 84 29 70 b9 ad a5 0d 3d ce e8 d2 bd
       0.039512366 -0.0002290365 0.03458183 -0.1029831
000200 0e 6c cf 3c 74 c4 8b bd 1e 38 c3 3c a6 60 91 bc
       0.02532008 -0.0682458 0.02383047 -0.01774628
000210 8e 71 36 3d 6b 39 90 3d 58 91 e7 3b 38 6b 6a 3d
       0.044541888 0.070422016 0.007066887 0.057231158
000220 f0 55 db bc 5c 90 e0 3c 06 ca 19 bd 48 15 f8 bc
       -0.026774377 0.027412586 -0.03754618 -0.030283585
000230 99 0d 53 bc 3b 83 bc 3c 9e a7 a8 3b ac 4c 5f 3d
       -0.01288166 0.023011794 0.0051469347 0.05451648
000240 ed ff d9 bc 8f 34 6a bd 63 6f 1f 3d 1f b2 63 bd
       -0.026611293 -0.05717903 0.038924586 -0.05558979
000250 01 2f 4c ba 94 7f e4 3c 6b 52 31 3d ef 4e 4c 3d
       -0.00077889865 0.027892865 0.04329149 0.049879964
000260 b1 61 bf 3d d1 29 65 3d 87 45 20 bd dd 30 52 3d
       0.09344805 0.055948082 -0.039128806 0.05131613
000270 ad b2 19 3b 83 19 88 3d 7a 0d fd bc 53 b0 2e bd
       0.0023452446 0.06645491 -0.030890215 -0.042648625
000280 57 f3 f7 3c c2 86 a9 3d 0f 4f 1e 3d 11 08 34 bd
       0.0302674 0.08277656 0.038649615 -0.043953005
000290 58 3c 40 bb 41 0a 7a bb 17 03 03 bd 23 eb 8e 3c
       -0.0029332843 -0.0038153084 -0.03198537 0.017446106
0002a0 14 97 0a bd 60 6e 68 bb bd 7f 74 bb a7 aa 7b 3c
       -0.033835486 -0.003546618 -0.0037307583 0.015360511
0002b0 5e f9 91 3d f5 d8 eb 3c 4e d3 b2 ba ff 4f 14 3d
       0.07127641 0.028789977 -0.0013643296 0.036209103
0002c0 8b f0 7c bd 33 72 89 3d 25 72 0a 3d 12 8c 3b 3d
       -0.061752837 0.06711235 0.033800263 0.04578788
0002d0 36 ed 32 bd ee b4 02 3c d7 bb ae 3d 65 2b b5 b9
       -0.043683253 0.007977707 0.08531921 -0.00034555342
0002e0 e9 25 f0 b9 74 f4 58 bd 5a 77 f0 3c 15 35 76 3d
       -0.00045804612 -0.052967504 0.029353786 0.060109217
0002f0 a8 e2 fe 39 14 26 b1 3c 8a 58 97 bc 6b d3 d9 3c
       0.00048615527 0.021624602 -0.018474836 0.02659007
000300 b8 33 6b bc 40 20 05 bd c0 b2 06 3d 41 e3 54 3d
       -0.014355592 -0.03250146 0.032885313 0.05197454
000310 2a 42 10 3b 47 a5 2f bd eb 39 81 3d 9e db 5b 3d
       0.0022012093 -0.04288223 0.06309875 0.05367624
000320 6d 1e ca bc eb e8 75 3c cd cf 36 3b e3 23 6e 3d
       -0.024672711 0.015009145 0.0027894855 0.058139693
000330 6a 99 a1 bc 85 eb 1a bd 56 7e 7b 3d 60 70 aa bc
       -0.019726474 -0.037822265 0.06139978 -0.020805538
000340 c7 30 0f bc 13 34 3e 3d 33 ab d7 3a 6a 94 18 bd
       -0.008739657 0.04643638 0.001645422 -0.037250914
000350 51 21 9b bd 88 22 07 bd 4e 39 85 3d 38 cc 31 3c
       -0.07574714 -0.032991916 0.065050706 0.010851912
000360 86 2f 5a 3d 2c 5a b9 bb 66 f5 0e 3d 08 8a 46 bd
       0.053267978 -0.0056565013 0.034902 -0.04847148
000370 a8 a3 f4 3c 55 2b 7f bd eb 97 04 bd 58 ce d6 3c
       0.029863194 -0.062297184 -0.032371443 0.02622144
000380 00 62 9a 3c 74 3e eb bb eb 65 85 bc 12 c8 4a 3d
       0.018845558 -0.007179076 -0.01628395 0.04950721
000390 06 98 84 3d 96 a1 b1 3d 41 47 2a bc 0d 1f 4c bc
       0.06474309 0.08673398 -0.010392965 -0.012458575
0003a0 09 e8 1e 3d 99 f9 40 3b 6b fd 39 bd 03 15 c2 3c
       0.038795505 0.0029445647 -0.045407694 0.02369166
0003b0 08 58 a1 3d 0a 42 71 3d ce b9 f8 3c 6c 42 4b 3d
       0.07878119 0.05890087 0.030362036 0.04962389
0003c0 30 f1 ba 3d e8 08 ea bc 30 e3 b6 bb 3e c0 20 bd
       0.09128034 -0.0285687 -0.005581282 -0.039245836
0003d0 10 a2 a9 bc ab 08 b9 3c eb 20 03 3c 35 fb 09 bb
       -0.02070716 0.022587141 0.008003454 -0.0021054272
0003e0 c1 bb af 3c 4c 6a 96 bd 07 b8 8d 3d 61 d4 21 bd
       0.021451833 -0.07344493 0.06919866 -0.03950918
0003f0 35 dd bc 3c 5e 4c 17 bd 13 84 82 bd 29 92 73 bc
       0.023054698 -0.036938064 -0.063728474 -0.01486639

fc3.weight f4 [2, 400]
000000 e7 7b 33 bc 93 62 24 bd c2 ad 16 be 73 3c af bb
       -0.010954834 -0.04013307 -0.14714721 -0.0053477823
000010 0b 6b e1 3d f4 2a b1 3d 2f 87 79 3d c6 9e 2b bd
       0.11006745 0.08650771 0.060919937 -0.041899465
000020 cd c0 a8 bd 73 8e d6 bb e3 97 02 3e 46 dc 33 3d
       -0.08239899 -0.006547743 0.12753253 0.04391124
000030 af 08 cc 3d 10 f1 d5 3d 87 b1 13 bb c7 93 cb 3d
       0.09962594 0.1044637 -0.0022536234 0.09940296
000040 67 59 01 be ca a0 7a bf 54 2f d7 3d 61 04 07 3e
       -0.1263176 -0.97901595 0.10507074 0.13185264
000050 24 3a 6e 3c f1 8e 76 3c 79 49 8b 3d 37 46 70 3d
       0.014540229 0.015048728 0.06801123 0.058660712
000060 c5 14 34 3e 9d ab 18 3e 83 85 33 3d fc de de 3d
       0.17586048 0.14909215 0.0438285 0.10882375
000070 6d 31 b0 bc 9a 43 cc 3c 4c ff a1 3d e8 8e 20 be
       -0.021507943 0.024934579 0.07910022 -0.15679514
000080 47 4c eb 3c ab ce 1b 3e 5e 4d 63 bb 83 c1 1d bd
       0.028722895 0.15215556 -0.0034683566 -0.038514625
000090 b6 4b 3d 3c ee bb 2f be b6 0c ed be ba bc 67 bc
       0.011553695 -0.17161533 -0.4629876 -0.014144117
0000a0 8d c7 09 3e 3e 9a b9 3d 05 bc 10 bd cb ee 1c 3e
       0.13455029 0.090626225 -0.03533556 0.15325467
0000b0 a7 bf 08 be 41 9d 31 3e 08 fa 19 3e 9b 9d 0c bd
       -0.1335436 0.17345144 0.15036786 -0.03432999
0000c0 e2 9d c1 3b 57 d7 3d bd e2 e5 c1 be 69 db 05 3e
       0.0059087137 -0.046347942 -0.378707 0.1307198
0000d0 2f 83 b9 3d a9 89 5d be 67 63 2c 3d 39 d4 bc 3c
       0.090582244 -0.21634544 0.042086985 0.023050414
0000e0 4c a1 04 bf 34 29 a9 bd b8 d4 29 bd 5c 31 92 3d
       -0.5180862 -0.08259812 -0.04146263 0.07138321
0000f0 d4 5c f2 3d 97 11 21 3e 7e 3c 07 bd cd 7e 8a be
       0.11834112 0.15729366 -0.033016674 -0.27049866
000100 f2 10 b9 bd e4 26 32 3d 60 a1 a9 3c 58 6b 08 bd
       -0.09036435 0.04349412 0.020706832 -0.033305496
000110 ba 75 37 3d 13 8a e8 3d 80 73 29 3c bc e2 27 bf
       0.044790007 0.113544606 0.010342479 -0.65580344
000120 61 0e c7 ba 87 bd e4 3c 2d 3b c1 3d a4 2a 0c 3e
       -0.001518678 0.027922405 0.09435115 0.13688141
000130 97 a8 e7 bc b1 cd f1 3d 8e 0d 05 bf 4d ad f2 3d
       -0.028278632 0.11806811 -0.5197381 0.11849461
000140 fa 85 c8 bc f4 94 e1 3d a5 3f ca bc 91 89 76 3c
       -0.024477948 0.11014739 -0.024688551 0.015047447
000150 4a ab 31 3c 49 d3 1f 3d 58 58 ce bb c2 1f 92 3c
       0.010844061 0.039019857 -0.0062971525 0.017837409
000160 88 97 74 3e 7d 46 ae bc cb 94 12 3d 74 40 06 3e
       0.2388593 -0.021273846 0.03578643 0.13110524
000170 a5 b5 c5 3e e1 3e 3d bc 01 90 0d 3e cb 5b a0 be
       0.38615146 -0.011550636 0.13824464 -0.31320032
000180 1a 77 12 be c6 c1 9f bd c1 6b e5 3d c3 df cd bc
       -0.14303246 -0.07800631 0.11202193 -0.025131112
000190 33 91 ae 3d 10 c3 11 3d f1 bf 02 3e da bd 24 3e
       0.08523788 0.035586417 0.12768532 0.16088048
0001a0 2b 96 b7 3c 22 20 3b 3d 8f a9 1e be 03 b8 cf bc
       0.022410473 0.04568494 -0.15494369 -0.025356298
0001b0 ef 12 97 3d 3b 4b 77 be db 92 4a bc 5c 42 99 be
       0.07376658 -0.24149792 -0.012364115 -0.2993344
0001c0 57 f3 08 be 15 09 28 bd 75 d7 8d 3d 0d 40 14 3e
       -0.13374077 -0.041024286 0.06925861 0.14477558
0001d0 f7 cc d3 3d b6 3a 9b 3d 8c af 2c bf c7 d6 1e be
       0.10341828 0.075795576 -0.67455363 -0.15511619
0001e0 ac 14 54 3c 88 43 6a 3d 3b 52 c5 3d 68 24 a9 3d
       0.012944382 0.05719331 0.09634825 0.08258897
0001f0 a7 d4 7f 3c 65 b8 21 bf ab 0d 49 3d 0b 6f 4e 3d
       0.015614665 -0.6317199 0.0490853 0.050398868
000200 5a 1a 09 bd 0b da 86 be ff fb 18 3e 33 d0 27 be
       -0.033472396 -0.2633823 0.14939879 -0.16388015
000210 6d 8c 67 bd cf fd e0 3d 69 4a 22 3d 90 50 18 bf
       -0.056530405 0.1098591 0.039621744 -0.5949793
000220 f9 10 62 3c e7 6e 06 3e 54 04 ad be 62 2e c1 be
       0.013797992 0.13128243 -0.33792365 -0.377307
000230 9f 82 a5 bd bf 26 82 3d 0e 69 35 bf e7 51 29 3e
       -0.080815546 0.063550465 -0.70863426 0.1653515
000240 a8 5e 44 bd 79 db 0d be 29 2c 17 3e 6f 13 83 be
       -0.047941834 -0.13853253 0.1476294 -0.25600764
000250 e9 e3 4d bb db 39 51 3d 8a 8d 38 be 4b f6 a0 3c
       -0.0031416363 0.051080566 -0.18022743 0.019648692
000260 d3 1f ff 3d 87 c4 49 bb a7 51 01 bf 12 1d 35 be
       0.12457242 -0.0030787305 -0.50515217 -0.1768687
000270 66 27 f5 bd ba 5a ac 3d 6f de 1b 3e 32 d3 18 bf
       -0.11970405 0.08415742 0.1522157 -0.5969726
000280 57 a0 9d 3c 69 67 d1 3d ec 2e 4a 3e 00 aa 7f be
       0.019241495 0.10224802 0.19744462 -0.24967194
000290 2d da 90 bc 75 ca 03 3d c4 36 ee bd 42 36 bf 3d
       -0.01768216 0.0321755 -0.116315395 0.09336521
0002a0 bc 84 4e 3e 45 56 60 3c de 86 05 bf c0 8e c9 bb
       0.20167822 0.013692443 -0.52158916 -0.0061510503
0002b0 3b 12 4b 3d 81 2c 15 3e cd 24 d2 bd 00 0d d9 3c
       0.049577933 0.14567758 -0.102609254 0.026495457
0002c0 63 a5 8a bd 12 b5 05 3e 5e bb ea 3c 38 9b 07 3d
       -0.06769826 0.13057354 0.028653797 0.033107013
0002d0 a2 8f 85 be e0 33 a2 3d 0a 3c d4 bd 7c 6c ca 3d
       -0.26086146 0.079200506 -0.10363014 0.09883973
0002e0 21 9d d8 3c fb 98 e8 3e 1a 61 ae 3d d6 b9 14 bd
       0.026442112 0.45429215 0.085146144 -0.03631004
0002f0 d8 34 a5 be 38 52 17 bc 00 f6 56 bc e4 03 1b 3e
       -0.3226688 -0.009235911 -0.013120174 0.15138203
000300 4b 53 a1 be ce 1e c5 be 94 ca 65 3c 1e a8 b0 3d
       -0.3150886 -0.38500065 0.014025349 0.08625816
000310 e2 fd 48 bc 33 f3 50 bb e3 c3 d3 3d 2a cf ae 3d
       -0.012267562 -0.003188324 0.10340097 0.08535607
000320 b2 0d ac 3a bf 7d 01 be 6f 10 2f 3d 43 62 8d 3c
       0.001312664 -0.12645625 0.04274028 0.017258769
000330 db 48 c2 3d 12 f2 15 3d 8f 86 bb 3d 9a d3 46 3b
       0.09486552 0.03660781 0.091565244 0.0030338527
000340 d7 6b a0 3d 7e f1 d8 3d 8f 6c f1 be 33 70 eb 3a
       0.07833069 0.10592936 -0.47153136 0.0017962515
000350 66 23 8c be db 8f 29 3e 5b 16 01 3e db 90 f1 3c
       -0.27370757 0.16558783 0.12606184 0.029488018
000360 56 32 32 3e 4a 30 cf be 47 bd 7f be 88 42 43 bd
       0.17402014 -0.4046653 -0.24974547 -0.04767087
000370 64 18 a3 3d e5 6f 14 3e 7c f3 ab 3e b4 91 35 bf
       0.079636365 0.1449581 0.335842 -0.7092545
000380 8a 2a e6 3c 68 7a 55 3c 9c 56 2d bf 13 84 17 3e
       0.028096456 0.013029672 -0.6771028 0.14796476
000390 c9 c6 04 3e 5e 82 c2 3d 75 e7 50 3d 1a 8c de 3b
       0.12966456 0.09497522 0.051001985 0.0067916038
0003a0 5a c6 01 3e 61 a9 09 3e f8 5b 66 bc 67 52 6d 3d
       0.12673321 0.13443519 -0.014060013 0.057939913
0003b0 70 2d 09 3e d9 dc 9f 3d f5 aa 31 bf 12 07 b8 3d
       0.1339624 0.07805795 -0.69401485 0.089857236
0003c0 4a f6 1a 3e ff 32 bf be 31 3d 0e 3d 11 4e 58 3c
       0.15133014 -0.37343594 0.034726325 0.013202206
0003d0 9f 39 a5 3a af b0 23 bf 56 3e eb bc c7 37 aa bb
       0.0012605673 -0.6394147 -0.028716248 -0.0051946375
0003e0 5c c1 dc bc d1 5e b3 3e b6 73 24 bc a2 ef ba 3c
       -0.02694767 0.35033277 -0.010037353 0.022819344
0003f0 62 30 ea 3d 90 11 7d 3e 08 d4 aa 3e 69 9f 36 bf
       0.114350095 0.24713731 0.33364892 -0.7133699

fc3.bias f4 [2]
000000 7f 1c 81 3d 7c 20 4d 3d
       0.06304263 0.050079808
