reinforcement_learning/models_cartpole/cartpole_ne1000_lr0.001_ep0.9dqn_agent.pt (torch, 654679 bytes, 6 tensors)

fc1.weight f4 [400, 4]
-0.0877805 0.045979142 1.2966352 0.04376156 0.28382933 0.05421353 0.109038636 -0.08740621
-0.21157685 -0.04278346 -0.45050302 0.026534505 -0.473598 0.31172317 0.9821164 0.2517139
-0.36222854 -0.3014825 -0.6036782 -0.31304514 0.2109332 0.19980316 0.35656312 -0.3455944
0.13822287 -0.28287575 -0.023352126 -0.23795477 0.39675465 0.05642207 -0.72104806 0.051954716
0.016947735 -0.19124155 0.25404435 0.0006831253 0.054431845 0.20213693 0.10858417 0.025202975
0.23672754 -0.27257106 0.044711005 -0.087658815 0.55502427 -0.3069276 0.05390228 -0.18163295
-0.1395625 -0.17718153 1.0463241 0.23170292 0.10773512 -0.060374543 -1.4030923 -0.050130308
-0.48061416 -0.0029915748 -0.39159676 0.005714729 0.1361789 0.24544774 -0.91767794 -0.008422391
-0.1770758 0.26396334 1.0310628 0.24743074 0.469245 0.42960802 0.13373655 0.30217454
-0.09951259 0.06298368 -0.17998922 0.020463731 0.44657996 -0.30382276 -0.87237924 -0.2604989
-0.23050594 -0.035163328 0.31410512 -0.21657065 0.3263593 -0.33651513 -1.2823269 -0.2491906
0.1925573 -0.14187972 -0.2752714 -0.0749934 0.17512164 -0.3336702 0.7256782 -0.1119057
-0.41775578 0.14897448 0.5225894 -0.16962077 -0.05899016 -0.03447949 0.5278953 -0.11270295
-0.37345293 0.05295958 0.3257806 -0.3142969 0.20266163 0.06441728 -0.5744657 0.27141875
-0.17663549 0.3254175 -0.056470927 0.192488 -0.15935044 0.38089028 -0.24048737 0.19221681
0.2973079 0.32960248 -0.45215935 0.3756201 0.015366494 0.2178491 -0.93111944 -0.052141026
-0.042011783 0.33411333 0.04403137 0.3573267 -0.2126267 0.17490792 0.94273126 0.13842751
0.30900472 -0.3710952 -0.63686347 -0.27139738 0.096108705 -0.087818965 0.7136726 -0.14693582
0.62146646 -0.41453037 -0.19368199 -0.44195494 0.30729246 -0.050598536 0.7549325 -0.29154864
0.0017961564 0.52789843 -0.15973517 0.4405059 -0.12360388 0.1892306 -1.0356288 0.05341052
-0.40935743 0.42417815 1.1029534 0.3069564 0.02633356 0.46063402 0.00011105955 0.3225112
-0.07619489 -0.27021497 0.66645026 -0.11040098 -0.31572476 0.27127537 -0.7726077 0.23126426
0.16079381 -0.5002884 0.8860511 0.00558649 -0.06605612 0.28283486 0.49086767 0.34601074
-0.26074082 0.108319156 -0.4751008 -0.22366813 0.3238541 -0.24236818 -0.5374587 0.19467218
-0.33491832 -0.2517879 0.24821547 -0.15267415 -0.048567448 0.10444425 -0.44420853 0.26600286
-0.20241085 -0.08261526 1.2627107 0.04449448 -0.24507186 -0.16624679 -0.567628 0.16727622
0.4874451 -0.14719066 -1.0984713 -0.1179989 -0.5693196 0.32774416 0.52341187 -0.023112133
0.6651632 -0.11157633 0.119212106 0.23170815 0.032121446 0.2861213 -0.7823281 -0.20515427
0.0007477218 -0.121647604 0.22767739 -0.08351031 0.08847609 0.32668984 -0.6473236 0.36570224
-0.30239022 0.3260486 0.528777 0.010152897 -0.4496601 -0.21913469 -0.30630738 -0.13141248
-0.03570611 0.019124852 -1.3308642 0.014599566 0.65135145 -0.43359825 -0.26361462 -0.19322778
-0.68302035 -0.18698718 0.007940489 -0.22126015 -0.29898214 0.4201287 0.23469377 0.03034481
00000000: 43c6 b3bd a054 3c3d 24f8 a53f 523f 333d
00000010: 1452 913e 020f 5e3d a64f df3d 0702 b3bd
00000020: 9aa7 58be b63d 2fbd 55a8 e6be e45e d93c
00000030: 707b f2be 2e9a 9f3e fb6b 7b3f a5e0 803e
00000040: 0576 b9be ea5b 9abe a88a 1abf 7447 a0be
00000050: dffe 573e 3399 4c3e 718f b63e c0f1 b0be
00000060: 4c8a 0d3e 17d5 90be f54c bfbc 6aaa 73be
00000070: 6d23 cb3e d41a 673d 9b96 38bf 78ce 543d
00000080: fad5 8a3c d3d4 43be 1a12 823e c313 333a
00000090: edf3 5e3d fcfc 4e3e 6161 de3d 7876 ce3c
000000a0: b468 723e 6f8e 8bbe e322 373d 7786 b3bd
000000b0: 1216 0e3f 9d25 9dbe a3c8 5c3d fdfd 39be
000000c0: 79e9 0ebe 136f 35be f3ed 853f 8843 6d3e
000000d0: 3ba4 dc3d 4c4b 77bd 8798 b3bf 7055 4dbd
000000e0: 0f13 f6be 4c0e 44bb 5f7f c8be 9f42 bb3b
000000f0: 7b72 0b3e a756 7b3e f1ec 6abf 11fe 09bc
00000100: 5c53 35be 3426 873e def9 833f 7c5e 7d3e
00000110: e140 f03e 95f5 db3e 3cf2 083e 9fb6 9a3e
00000120: 42cd cbbd 96fd 803d 184f 38be 8ea3 a73c
00000130: 21a6 e43e a88e 9bbe 3f54 5fbf 1d60 85be
00000140: c009 6cbe 6c07 10bd 63d2 a03e b2c4 5dbe
00000150: 9118 a73e b64b acbe 4a23 a4bf d22b 7fbe
00000160: be2d 453e eb48 11be 5ff0 8cbe 2496 99bd
00000170: 1653 333e d2d6 aabe 0cc6 393f d12e e5bd
00000180: 16e4 d5be c48c 183e 6bc8 053f 11b1 2dbe
00000190: aa9f 71bd 5e3a 0dbd 2524 073f ced0 e6bd
000001a0: 3935 bfbe 25ec 583d b7cc a63e 86eb a0be
000001b0: 8886 4f3e 35ed 833d 2f10 13bf 66f7 8a3e
000001c0: efdf 34be 1f9d a63e 0f4e 67bd 931b 453e
000001d0: c32c 23be 0d04 c33e 5242 76be 7cd4 443e
000001e0: be38 983e a8c1 a83e 6e81 e7be 4751 c03e
000001f0: bfc3 7b3c d613 5f3e d85d 6ebf d491 55bd
00000200: 8c14 2cbd e710 ab3e 3d5a 343d 86f3 b63e
00000210: d0ba 59be 101b 333e d656 713f f1bf 0d3e
00000220: de35 9e3e 3100 bebe 7c09 23bf 99f4 8abe
00000230: a4d4 c43d 6eda b3bd 3fb3 363f 5876 16be
00000240: 6d18 1f3f 533d d4be 9254 46be eb47 e2be
00000250: 7055 9d3e 6940 4fbd 4243 413f dd45 95be
00000260: 026d eb3a 5a24 073f 9e91 23be fd89 e13e
00000270: 0824 fdbd abc5 413e 7c8f 84bf fdc4 5a3d
00000280: 4c97 d1be e12d d93e 942d 8d3f 6429 9d3e
00000290: 7ab9 d73c 39d8 eb3e a4e8 e838 3020 a53e
000002a0: 110c 9cbd 9e59 8abe 7c9c 2a3f e919 e2bd
000002b0: ada6 a1be 9be4 8a3e 9ec9 45bf 8ad0 6c3e
000002c0: 22a7 243e e712 00bf 3fd4 623f e00e b73b
000002d0: 6e48 87bd bbcf 903e 0253 fb3e 5228 b13e
000002e0: d27f 85be 6fd6 dd3d 6940 f3be 4209 65be
000002f0: 34d0 a53e 5d2f 78be e596 09bf 2558 473e
00000300: 6a7a abbe 58ea 80be 322c 7e3e 9d56 1cbe
00000310: a9ee 46bd dee6 d53d 4d6f e3be 8731 883e
00000320: ca44 4fbe 3032 a9bd 81a0 a13f d83f 363d
00000330: 1ef4 7abe 993c 2abe 1250 11bf 754a 2b3e
00000340: 6792 f93e 26b9 16be b59a 8cbf 68a9 f1bd
00000350: eebe 11bf 15ce a73e 52fe 053f a855 bdbc
00000360: 2348 2a3f 2282 e4bd 7a25 f43d e744 6d3e
00000370: c791 033d 7e7e 923e a846 48bf f613 52be
00000380: c302 443a 6122 f9bd 4324 693e 7407 abbd
00000390: f432 b53d e443 a73e 00b7 25bf 533d bb3e
000003a0: e4d2 9abe d8ef a63e ee5d 073f 5658 263c
000003b0: d939 e6be d864 60be 52d4 9cbe fe90 06be
000003c0: 9240 12bd b9ab 9c3c c259 aabf 0533 6f3c
000003d0: f8be 263f 9700 debe 7ff8 86be 81dd 45be
000003e0: 6cda 2ebf 9179 3fbe d318 023c 0592 62be
000003f0: 3014 99be 1c1b d73e 9053 703e ae95 f83c

fc1.bias f4 [400]
-0.27361336 0.14478703 -0.0059311255 -0.32092834 -0.2219677 -0.250998 -0.506956 -0.13375822
0.16650702 -0.6220174 0.061220184 0.057159632 -0.5312703 -0.30102327 -0.096635014 -0.33373222
-0.29557195 -0.49949607 0.2902238 -0.34814537 0.25905746 -0.35122266 -0.1440092 -0.35338402
-0.39273474 -0.07428357 0.08983812 0.26713663 -0.13978623 -0.21796292 -0.36557195 -0.25856677
0.40231314 -0.25276655 -0.39343962 0.32472065 -0.31898814 -0.4450798 -0.13825664 -0.244547
-0.33598122 -0.156218 -0.014178548 0.02847666 -0.36979932 -0.497587 -0.4301065 0.2983396
-0.4894939 -0.16881841 -0.3680085 0.027028216 -0.29012072 -0.0059743407 -0.5198715 -0.26529375
-0.4073837 -0.03475193 -0.20650963 -0.40258268 -0.24414228 -0.07508744 -0.19394775 -0.3396347
0.24874279 -0.1996588 -0.13242374 -0.29213503 -0.54689956 -0.4885811 -0.44501546 0.30695114
-0.35772902 -0.108339034 -0.028956626 0.051253058 0.07154072 0.13571179 0.34139785 -0.56443834
-0.24533641 -0.14512531 -0.11127643 -0.31340894 0.12665598 -0.11764798 -0.55304235 0.20393993
-0.48059934 -0.5061868 -0.16268624 0.13596892 -0.12026056 0.31524944 -0.40037143 -0.10538185
0.03867045 -0.008664652 -0.41606086 0.26811802 -0.16710542 -0.5292428 -0.3395169 -0.15587044
-0.059859186 0.009439588 0.17551076 -0.26602483 0.025739271 0.111304514 -0.12579724 -0.3010021
0.31956768 -0.46938142 -0.10121696 -0.08965798 -0.51187885 -0.41579694 -0.5113464 -0.16125293
0.31245247 -0.08415191 -0.14966679 -0.6998239 0.21180293 -0.15129548 0.019794377 -0.36113787
-0.009681928 -0.2706325 -0.39270398 0.040404104 0.35217804 0.3031946 -0.1826898 0.1933583
-0.35078412 -0.30121273 -0.23265061 -0.091499865 -0.30921105 0.2351413 0.20366247 0.19700867
0.1487641 -0.39088368 0.2846597 0.044345666 -0.00063365785 -0.054080177 0.2362964 0.34374586
-0.60050863 -0.28534666 -0.39224032 0.080299474 -0.06453138 -0.22819027 0.10460536 0.018936671
-0.10023054 0.21949427 -0.33024716 -0.2589344 -0.30367565 -0.12216746 0.36363629 -0.31687132
0.3365668 -0.17878982 -0.04091931 -0.48485228 0.00059690623 0.18080328 -0.45906693 -0.1503499
-0.39718822 -0.3112163 -0.15833494 0.24812667 -0.322922 0.20950142 -0.42087826 -0.01917228
0.31105152 -0.39431483 0.30481046 0.040179674 0.24474838 0.1352873 -0.63036084 0.045751825
0.029822301 0.27834156 0.37668717 -0.37219068 0.14619589 -0.2735898 -0.2421875 -0.45561296
-0.17298242 -0.28672844 -0.0905125 0.22271024 0.20041068 -0.15575624 -0.2478958 0.14700396
0.15315792 -0.10382546 -0.291505 -0.38684046 0.15808393 -0.5307741 -0.41622773 -0.29852456
-0.14856704 0.17705058 -0.30985904 0.13196075 -0.07838674 -0.15714008 -0.2497032 -0.23663537
-0.50309914 0.33168894 -0.4044083 -0.20110251 -0.31795913 -0.05339985 -0.3093782 0.40432084
-0.19582555 -0.12064844 0.09000337 -0.040006876 -0.27402052 -0.32987255 0.26069632 -0.113975495
0.28413424 0.20753488 -0.6806631 -0.17960049 0.067857176 -0.39021122 -0.01682725 -0.024273241
-0.3722849 0.13726598 -0.18557034 0.29240376 -0.19338004 -0.05111986 -0.014852864 -0.19188605
00000000: 0d17 8cbe 0d43 143e e359 c2bb b850 a4be
00000010: 804b 63be cf82 80be dec7 01bf eaf7 08be
00000020: d180 2a3e 883c 1fbf 04c2 7a3d 3820 6a3d
00000030: 5501 08bf b91f 9abe 94e8 c5bd f3de aabe
00000040: 3555 97be f3bd ffbe 3798 943e 1c40 b2be
00000050: 2ea3 843e 75d3 b3be 2677 13be c0ee b4be
00000060: 8714 c9be fc21 98bd 0cfd b73d 22c6 883e
00000070: 1f24 0fbe ac31 5fbe 3f2c bbbe dd62 84be
00000080: fdfb cd3e 9e6a 81be eb70 c9be c941 a63e
00000090: 6a52 a3be 80e1 e3be 2693 0dbe 876a 7abe
000000a0: bb05 acbe 9df7 1fbe 244d 68bc e247 e93c
000000b0: 5656 bdbe b9c3 febe eb36 dcbe f8bf 983e
000000c0: f29e fabe bcde 2cbe 9c6b bcbe 476a dd3c
000000d0: b48a 94be 67c4 c3bb 4c16 05bf 95d4 87be
000000e0: 9994 d0be 0a58 0ebd 4377 53be 511f cebe
000000f0: 6f00 7abe 72c7 99bd 3d9a 46be 99e4 adbe
00000100: 6eb6 7e3e 5b73 4cbe 179a 07be b992 95be
00000110: 9c01 0cbf 4d27 fabe 11d9 e3be b328 9d3e
00000120: 4228 b7be dbe0 ddbd 7236 edbc baee 513d
00000130: f183 923d 08f8 0a3e b3cb ae3e 087f 10bf
00000140: 7839 7bbe bb9b 14be e6e4 e3bd 2377 a0be
00000150: 1bb2 013e 6df1 f0bd 2f94 0dbf a1d5 503e
00000160: 1e11 f6be 7595 01bf 3997 26be 703b 0b3e
00000170: 2b4b f6bd 6068 a13e 7cfd ccbe 70d2 d7bd
00000180: e864 1e3d 2ff6 0dbc ee05 d5be c446 893e
00000190: af1d 2bbe 757c 07bf 29d5 adbe 809c 1fbe
000001a0: e82e 75bd 80a8 1a3c 18b9 333e 6834 88be
000001b0: 2adb d23c 9ff3 e33d fed0 00be f21c 9abe
000001c0: 609e a33e c352 f0be d64a cfbd 9a9e b7bd
000001d0: 7e0a 03bf 56e3 d4be 99e7 02bf 7d1f 25be
000001e0: c5f9 9f3e d657 acbd 4042 19be a927 33bf
000001f0: dee2 583e 34ed 1abe d127 a23c 10e7 b8be
00000200: f3a0 1ebc 5890 8abe 7f10 c9be c67e 253d
00000210: ae50 b43e 533c 9b3e 0913 3bbe b8ff 453e
00000220: fa99 b3be 8e38 9abe f63b 6ebe 4864 bbbd
00000230: e950 9ebe e2c8 703e e58c 503e a4bc 493e
00000240: 9e55 183e e821 c8be ebbe 913e cda3 353d
00000250: 0f1c 26ba 2d83 5dbd aff7 713e 75ff af3e
00000260: efba 19bf f518 92be b9d3 c8be 0d74 a43d
00000270: 0729 84bd b6aa 69be 563b d63d 1421 9b3c
00000280: ab45 cdbd 1bc3 603e 2816 a9be 0d93 84be
00000290: 607b 9bbe ef32 fabd 892e ba3e f53c a2be
000002a0: 7c52 ac3e ae14 37be 029b 27bd 8f3e f8be
000002b0: b379 1c3a 7f24 393e d20a ebbe 53f5 19be
000002c0: 415c cbbe be57 9fbe 8e22 22be eb14 7e3e
000002d0: 0856 a5be 8a87 563e 5b7d d7be 2f0f 9dbc
000002e0: 2542 9f3e a2e3 c9be 1e10 9c3e 7193 243d
000002f0: 529f 7a3e c188 0a3e 545f 21bf 4466 3b3d
00000300: e64d f43c c982 8e3e 24dd c03e c78f bebe
00000310: 60b4 153e f613 8cbe 0000 78be 1a46 e9be
00000320: 4e22 31be 12ce 92be 9e5e b9bd 270e 643e
00000330: 7538 4d3e 907e 1fbe 66d8 7dbe 3588 163e
00000340: 6ed5 1c3e 71a2 d4bd 2540 95be f40f c6be
00000350: c1e0 213e d0e0 07bf cd1b d5be 36d8 98be
00000360: f521 18be bf4c 353e d8a5 9ebe b820 073e
00000370: 3a89 a0bd 54e9 20be 32b2 7fbe 8b50 72be
00000380: 1bcb 00bf 22d3 a93e 9b0e cfbe d1ed 4dbe
00000390: 8acb a2be cdb9 5abd d266 9ebe 2403 cf3e
000003a0: 7e86 48be 8816 f7bd b053 b83d 40de 23bd
000003b0: 6b4c 8cbe 0ee5 a8be fd79 853e fc6b e9bd
000003c0: 0b7a 913e 0684 543e f03f 2ebf 31e9 37be
000003d0: b4f8 8a3d c4c9 c7be 4dd9 89bc add8 c6bc
000003e0: 209c bebe 748f 0c3e 2706 3ebe f2b5 953e
000003f0: 6b05 46be 0f63 51bd 6d59 73bc c77d 44be

fc2.weight f4 [400, 400]
-0.94442445 0.044984855 0.06323541 0.027086427 0.11520544 0.05043162 -0.028298618 -0.68914706
-0.14934538 -0.027655778 -0.04941813 -0.10493961 -0.015770873 -1.4553205 0.16075249 -0.0045287632
0.10340371 -0.33761066 0.04573433 -0.21879447 0.063977346 -0.30210102 0.010698667 -0.08001054
-0.54297787 -0.19942543 0.04068778 0.02336672 0.0074919476 -0.0792754 0.5015331 -0.188951
0.019724188 0.043762844 -0.077881284 -0.08515696 0.009948979 -0.07623044 0.22514245 -0.08659949
-0.10688973 -0.034440447 -0.26750964 0.11828907 -0.0072673643 0.03061038 -0.08541761 -0.03811922
0.30290958 0.009097137 -0.054428075 -0.024056628 -1.1240479 -0.31751627 0.037527006 -0.15646645
0.018868936 0.034578018 -0.27138218 0.3779491 -1.8299338 0.023903374 -0.14202206 0.1162538
0.024111714 -0.00029517198 -0.017464807 0.17088895 -0.14016987 -0.07703831 0.01046213 -0.061111413
-0.051782526 -0.0072535602 -0.12728658 -0.0992283 -0.011141666 0.25021833 -0.02140035 -0.06262287
-0.21293876 -0.041593652 0.19414228 -0.38658744 -0.051607363 0.13526925 -0.2639485 0.08667777
0.08647696 0.02108673 -0.11795353 0.030440053 0.031494938 -0.059598077 -0.047662087 0.20371081
-0.39294863 -0.15498786 -0.19398747 0.06830099 -0.17816179 -0.03153899 -0.10808093 -0.74995965
-0.19634852 0.06337652 0.12799436 -0.51464057 0.31222698 -0.12996438 -0.23375197 -0.07257816
0.01674235 0.19679604 0.048786633 0.12369209 0.080729514 0.09265812 -0.001229764 0.062952325
0.049350284 0.040511295 0.05353788 -0.038855743 0.026727282 -0.25974768 0.105441816 -0.7496532
-0.19317672 -0.08156219 -0.48060963 0.24300657 -0.12059795 -0.00800311 0.02678873 -0.06494093
-0.35474676 0.03776297 -1.3317894 -0.25703523 0.007923514 -0.07063034 0.02307116 -0.075086154
0.060509626 0.0044196965 -0.04197806 0.053882595 -0.24099529 0.032489557 0.0008237189 0.040553432
-0.1686518 -0.18245547 -0.124534465 -0.20766753 -0.10637874 -0.35958105 0.010546975 0.055764724
-0.23674265 0.0025318488 0.50259376 0.2088901 -0.106688894 -0.12307335 0.056144394 0.19894144
-0.022789951 -0.23452687 -0.17299278 -0.04185144 -0.19956933 0.08366368 0.08129713 -0.096436195
-0.07476634 -0.4925791 -0.14621142 -0.007215327 -0.20611963 -0.11190966 -0.0044009187 -0.04356409
-0.026664672 -0.44472918 0.059844002 -0.023000574 -0.047949128 -0.010332689 0.048185352 -0.010944626
-0.35873678 -0.04772899 -0.006690335 0.07475371 0.0708308 0.425753 0.2609888 0.076884195
0.12711084 0.035392307 -0.0033056017 -0.05177255 -0.035180602 -0.10050419 -0.1145621 -0.056902744
-0.05550176 0.019462181 0.074792795 0.03046507 0.04027713 0.01615603 -0.16227728 -0.14422582
-0.08346219 -0.056032494 0.013746626 0.12912548 -0.15318401 -0.06589665 -0.5029198 0.08069188
-0.016441429 -0.07022623 -0.051778812 0.06448794 -0.5124899 -0.20468353 -0.0066857175 0.110292934
-0.34690046 -0.11711596 -0.10483143 -0.016699882 -0.14878424 -0.069569975 0.009264944 0.1328852
-0.06811938 -0.06362163 -0.074014634 -1.1182201 0.19556876 0.043852128 0.076160826 -0.3675042
-0.009323257 -0.14030607 -0.057856977 -0.041090846 -0.235022 -0.2424734 -0.21898244 -0.1163196
00000000: cdc5 71bf 0a42 383d 9181 813d 5be4 dd3c
00000010: d4f0 eb3d 6391 4e3d 81d2 e7bc f16b 30bf
00000020: ffed 18be 5f8e e2bc aa6a 4abd 94ea d6bd
00000030: eb31 81bc f147 babf 4d9c 243e 0566 94bb
00000040: 53c5 d33d 4edb acbe ec53 3b3d a80b 60be
00000050: 8e06 833d fcac 9abe 7649 2f3c 91dc a3bd
00000060: 9900 0bbf 2e36 4cbe 3ba8 263d 906b bf3c
00000070: 037f f53b 245b a2bd 7964 003f 5f7c 41be
00000080: 9f94 a13c ab40 333d 3980 9fbd c666 aebd
00000090: 0b01 233c b41e 9cbd be8b 663e 135b b1bd
000000a0: 01e9 dabd 6d11 0dbd 06f7 88be 8a41 f23d
000000b0: 1223 eebb 9fc2 fa3c 6eef aebd e622 1cbd
000000c0: f716 9b3e 280c 153c f9ef 5ebd 6812 c5bc
000000d0: cde0 8fbf 7e91 a2be ebb5 193d be38 20be
000000e0: 0793 9a3c aea1 0d3d 9bf2 8abe 8b82 c13e
000000f0: 453b eabf 02d1 c33c 3b6e 11be 7916 ee3d
00000100: ee85 c53c 50c1 9ab9 5b12 8fbc 83fd 2e3e
00000110: b188 0fbe 43c6 9dbd 5b69 2b3c f64f 7abd
00000120: ea19 54bd 46af edbb 6a57 02be 3538 cbbd
00000130: 898b 36bc 9e1c 803e c94f afbc 6b40 80bd
00000140: 9e0c 5abe 1b5e 2abd 3ccd 463e caee c5be
00000150: 3e62 53bd 0684 0a3e 4224 87be 1d84 b13d
00000160: d51a b13d 14be ac3c 9f91 f1bd 6b5d f93c
00000170: d600 013d 1d1d 74bd 5239 43bd 9199 503e
00000180: 9030 c9be 23b5 1ebe a7a4 46be 64e1 8b3d
00000190: 0b70 36be 072f 01bd 8959 ddbd 5bfd 3fbf
000001a0: 960f 49be 8dcb 813d f410 033e 7cbf 03bf
000001b0: 37dc 9f3e 6215 05be ad5c 6fbe dca3 94bd
000001c0: 4127 893c e784 493e 7ed4 473d 4752 fd3d
000001d0: 8455 a53d 8ac3 bd3d 0830 a1ba 26ed 803d
000001e0: 8623 4a3d 2cef 253d 894a 5b3d 3327 1fbd
000001f0: 2cf3 da3c a6fd 84be e1f1 d73d 46e9 3fbf
00000200: 1ed0 45be 140a a7bd 7712 f6be b7d6 783e
00000210: 0ffc f6bd 7a1f 03bc 0a74 db3c c0ff 84bd
00000220: 5ea1 b5be 58ad 1a3d 1378 aabf 1f9a 83be
00000230: a0d1 013c a4a6 90bd bbff bc3c c5c6 99bd
00000240: f1d8 773d 1ad3 903b 30f1 2bbd ffb3 5c3d
00000250: 78c7 76be c513 053d d7ee 573a 5b1b 263d
00000260: 0fb3 2cbe 9bd5 3abe ed0b ffbd cca6 54be
00000270: 19dd d9bd 021b b8be 38cd 2c3c 8d69 643d
00000280: aa6c 72be 60ed 253b fca9 003f 49e7 553e
00000290: b57f dabd e10d fcbd aaf7 653d 4eb7 4b3e
000002a0: feb1 babc d027 70be 0525 31be 6a6c 2bbd
000002b0: e75b 4cbe dd57 ab3d 1c7f a63d 5780 c5bd
000002c0: 181f 99bd 5433 fcbe 72b8 15be 8d6e ecbb
000002d0: 0611 53be e430 e5bd 9535 90bb 4270 32bd
000002e0: df6f dabc 8bb3 e3be fc1e 753d b36b bcbc
000002f0: 4e66 44bd 704a 29bc 015e 453d 1751 33bc
00000300: 59ac b7be 797f 43bd 993a dbbb 7918 993d
00000310: bd0f 913d 4cfc d93e 53a0 853e 7675 9d3d
00000320: 5829 023e 86f7 103d cba2 58bb 740f 54bd
00000330: 8919 10bd 24d5 cdbd 899f eabd da12 69bd
00000340: d055 63bd 276f 9f3c f72c 993d e291 f93c
00000350: a2f9 243d a759 843c 042c 26be efaf 13be
00000360: 3aee aabd 5482 65bd 8739 613c 7839 043e
00000370: 45dc 1cbe d3f4 86bd 5abf 00bf c941 a53d
00000380: 2db0 86bc c5d2 8fbd 0516 54bd 4112 843d
00000390: 8a32 03bf 8f98 51be dd13 dbbb 43e1 e13d
000003a0: f09c b1be 7eda efbd dcb1 d6bd 31ce 88bc
000003b0: e55a 18be b47a 8ebd fecb 173c 0f13 083e
000003c0: 2c82 8bbd 0f4c 82bd fc94 97bd d621 8fbf
000003d0: 2d43 483e 4a9e 333d 35fa 9b3d 8329 bcbe
000003e0: 93c0 18bc 65ac 0fbe 70fb 6cbd e04e 28bd
000003f0: 9ba9 70be f24a 78be ef3c 60be f838 eebd

fc2.bias f4 [400]
0.017676687 -0.006809416 0.042669732 -0.025181886 -0.020343663 0.01379741 0.0125444075 -0.010802397
0.052901145 0.013733425 -0.04047455 -0.01261459 0.1167129 -0.11111714 -0.045099188 0.10837393
0.017632345 0.035602152 -0.040579326 -0.083121054 -0.0046351952 -0.01077611 0.020986993 -0.016327107
-0.07147608 0.0069281077 -0.023976827 0.040904667 0.104732424 0.07585607 -0.018180972 -0.042238206
0.03489912 -0.05252294 0.048613347 0.039968163 0.010327921 -0.05455277 -0.009997324 0.038430005
0.10018588 0.0050946944 0.026304811 -0.06900446 0.076778546 0.013086848 -0.0367285 -0.009978435
0.00402746 0.08718181 -0.051444992 0.006905527 0.10404871 -0.02161454 0.017139852 0.001283138
-0.055270582 -0.05393164 -0.04641926 -0.037550826 -0.02924797 -0.064950794 -0.032368887 -0.052599255
0.0030438004 0.00021561341 -0.019555107 -0.01861802 -0.0453786 0.06961032 0.040814392 -0.059409603
0.021434352 -0.041298784 0.0343817 0.029647661 -0.018296935 0.111500286 0.079057015 0.057825893
-0.024882378 -0.019200517 -0.02451319 -0.06359579 -0.04650837 -0.011620904 0.030315593 0.007916048
-0.018445157 0.036391933 0.0822368 0.06226159 0.013179311 0.10734427 -0.03245059 -0.04388425
-0.022040132 0.083415344 -0.010429307 0.026293742 -0.009924935 -0.034023818 0.03151331 0.020654377
-0.01239001 0.013737749 -0.019875724 -0.0339806 0.09291805 0.10615155 -0.018946428 0.014551812
0.0551643 0.028863393 0.09071996 0.10194957 -0.015797557 0.01707662 -0.0515697 -0.022692082
-0.027541254 0.045452993 0.02330855 -0.01052218 0.046263676 0.0031059715 -0.038037494 -0.055092175
0.04212897 -0.05007726 0.0010280544 0.012645734 0.03806144 0.028833129 0.023566639 0.025230901
0.08218478 0.030015813 -0.0912152 0.042100757 0.016545054 -0.042612478 -0.053646117 0.037977625
-0.07584484 -0.07112662 0.077501014 -0.092460975 0.048992142 -0.019956073 0.07117886 0.011210809
0.02719003 0.108105525 0.0069981394 -0.008524999 0.020382531 -0.05239331 -0.036386654 -0.03648082
0.032658085 0.031106174 0.000120280114 0.054592803 -0.003553685 0.08540364 0.08101166 -0.02440624
0.023961559 -0.048115883 -0.020001443 -0.021348167 0.02581753 -0.005794152 0.110608384 -0.04531884
0.02128374 -0.038503777 -0.007493692 0.0227914 0.089435175 0.058661368 -0.06616754 -0.026148198
-0.0063462234 0.08156773 0.103369266 -0.014791854 -0.041782342 0.009497495 0.01972936 0.07146649
-0.023373839 -0.030396057 0.07039218 -0.03835344 0.0023687298 0.009767633 0.020454269 -0.011101998
-0.014663702 0.044501394 -0.045501895 -0.0417971 0.0067928075 -0.004919904 0.017271582 -0.024953736
0.0031451078 0.10927238 0.012178537 0.075624436 0.016594732 0.04279979 0.03960444 0.023319246
0.02309049 0.11536951 0.032505672 0.09371381 -0.040429026 0.05898692 -0.052066505 -0.025386063
-0.043811087 0.103622876 -0.040666375 -0.0326738 -0.013873946 0.076845296 0.004294915 -0.011038546
-0.036530558 -0.057644535 0.027526123 -0.042992428 -0.07350722 -0.021704 0.03917748 -0.03108886
-0.023414342 -0.019262614 -0.05816774 -0.046006937 0.0016504859 0.122846864 0.081133254 -0.04182752
0.025105419 -0.02428966 0.062696144 -0.024697587 0.11553103 0.0011451535 -0.007468271 -0.031847127
00000000: b3ce 903c 8621 dfbb 75c6 2e3d 3e4a cebc
00000010: c1a7 a6bc 880e 623c 0f87 4d3c 89fc 30bc
00000020: dfae 583d 2902 613c a4c8 25bd 6dad 4ebc
00000030: 2c07 ef3d 6291 e3bd edb9 38bd 27f3 dd3d
00000040: b571 903c 90d3 113d 8236 26bd 5f3b aabd
00000050: d6e2 97bb 488e 30bc eaec ab3c 6dc0 85bc
00000060: 0d62 92bd 2e05 e33b 0d6b c4bc a78b 273d
00000070: f47d d63d 6d5a 9b3d 43f0 94bc f801 2dbd
00000080: 61f2 0e3d 4b22 57bd ca1e 473d a8b5 233d
00000090: 7136 293c ba72 5fbd d1cb 23bc c868 1d3d
000000a0: 412e cd3d 65f1 a63b 307d d73c 3652 8dbd
000000b0: 123e 9d3d 386a 563c a070 16bd 977c 23bc
000000c0: c8f8 833b 608c b23d fcb7 52bd c247 e23b
000000d0: 7d17 d53d fa10 b1bc e068 8c3c f72e a83a
000000e0: 6863 62bd 6ce7 5cbd 1f22 3ebd e5ce 19bd
000000f0: 7099 efbc ec04 85bd 3d95 04bd 5172 57bd
00000100: 7f7a 473b 4916 6239 0832 a0bc d184 98bc
00000110: e9de 39bd db8f 8e3d fe2c 273d 7c57 73bd
00000120: 1897 af3c ea28 29bd d3d3 0c3d a7df f23c
00000130: 74e3 95bc 435a e43d a5e8 a13d d8da 6c3d
00000140: 21d6 cbbc 674a 9dbc e3cf c8bc 823e 82bd
00000150: 907f 3ebd 9b65 3ebc 6858 f83c 50b2 013c
00000160: 4c1a 97bc b50f 153d c46b a83d 0206 7f3d
00000170: 09ee 573c 50d7 db3d e9ea 04bd f9bf 33bd
00000180: 828d b4bc aad5 aa3d afdf 2abc f965 d73c
00000190: 329c 22bc 8f5c 0bbd 1a14 013d 5e33 a93c
000001a0: 78ff 4abc 4c14 613c 6ad2 a2bc 3e2f 0bbd
000001b0: d24b be3d fc65 d93d 8a35 9bbc b96a 6e3c
000001c0: f6f3 613d ec72 ec3c 63cb b93d f0ca d03d
000001d0: e169 81bc 45e4 8b3c c03a 53bd bfe4 b9bc
000001e0: 329e e1bc eb2c 3a3d 92f1 be3c 3965 2cbc
000001f0: fb7e 3d3d 8e8d 4b3b 34cd 1bbd 55a8 61bd
00000200: 6d8f 2c3d d01d 4dbd c8bf 863a 0d30 4f3c
00000210: 50e6 1b3d 7433 ec3c d30e c13c 09b1 ce3c
00000220: 7e50 a83d b9e3 f53c 09cf babd d871 2c3d
00000230: 7e89 873c 6c8a 2ebd 08bc 5bbd 6d8e 1b3d
00000240: 8a54 9bbd d5aa 91bd dab8 9e3d 2e5c bdbd
00000250: fcab 483d eb7a a3bc 39c6 913d 8bad 373c
00000260: a0bd de3c 6e66 dd3d a650 e53b 70ac 0bbc
00000270: 44f9 a63c 5e9a 56bd 2c0a 15bd ea6c 15bd
00000280: 7cc4 053d 60d2 fe3c e53e fc38 b49c 5f3d
00000290: f1e4 68bb 1be8 ae3d 71e9 a53d 98ef c7bc
000002a0: 084b c43c 2915 45bd 11da a3bc 5ae2 aebc
000002b0: 497f d33c dfdc bdbb a686 e23d 3fa0 39bd
000002c0: 3d5b ae3c 23b6 1dbd a58d f5bb 08b5 ba3c
000002d0: ca29 b73d e746 703d d982 87bd bf34 d6bc
000002e0: fbf3 cfbb fb0c a73d 44b3 d33d 8859 72bc
000002f0: f623 2bbd 629b 1b3c 779f a13c 065d 923d
00000300: 7e7a bfbc 2701 f9bc c629 903d 7f18 1dbd
00000310: b13c 1b3b 6c08 203c b68f a73c 28e5 35bc
00000320: 0640 70bc 1847 363d 3260 3abd 7033 2bbd
00000330: 3396 de3b 2537 a1bb 227d 8d3c c76b ccbc
00000340: 271e 4e3b 33ca df3d 7d88 473c fce0 9a3d
00000350: adf1 873c d54e 2f3d 4438 223d 0108 bf3c
00000360: 4428 bd3c da46 ec3d ab24 053d 07ed bf3d
00000370: e898 25bd 459c 713d b043 55bd 6ff6 cfbc
00000380: 4173 33bd 3b38 d43d c991 26bd f6d4 05bd
00000390: 8c4f 63bc 1161 9d3d 5cbc 8c3b 05db 34bc
000003a0: 11a1 15bd ad1c 6cbd 777e e13c d418 30bd
000003b0: f48a 96bd 96cc b1bc 9178 203d 11ae febc
000003c0: 6fcf bfbc a1cc 9dbc 4c41 6ebd c571 3cbd
000003d0: 1e55 d83a 2397 fb3d 3129 a63d 5553 2bbd
000003e0: e1a9 cd3c 1cfb c6bc d666 803d 9852 cabc
000003f0: 889b ec3d fa18 963a 66b8 f4bb 2272 02bd

fc3.weight f4 [2, 400]
0.09481862 -0.7381463 0.13865891 -0.017350255 -0.03497963 0.016500665 -0.016312333 0.040130183
0.17750677 -0.018319251 -0.84174377 0.0054373746 0.18500596 -0.38523373 0.0093094045 0.12743795
-0.012796819 0.0111329155 -0.00013057666 0.05517054 0.023012737 0.054311115 -0.018855596 0.02305249
-0.038647484 -0.01609031 0.001120171 -0.01957122 0.45675725 0.46883905 0.025782824 0.039696086
0.038270146 -0.03939803 0.038145997 0.42182928 -0.0149845835 -0.007212025 -0.0025854832 0.018718155
0.21140328 -0.023847722 -0.028365942 -0.008218434 0.45787758 -0.036649752 -0.3474912 0.0025081239
0.020527853 0.14356259 -0.041387986 -0.04444286 0.11588155 0.027553542 0.034521576 -0.009142336
-0.019915022 -0.0037755417 0.027457356 -0.4782491 0.0032966095 0.040622104 -0.039080057 -0.03519243
-0.040425252 0.029667653 9.236747e-05 0.034686357 -0.0028679015 0.115305886 0.00871135 0.033949845
0.033059545 -0.024392754 0.11879788 -0.020954434 0.008191332 0.43598485 0.46501625 0.38819364
0.013598794 0.032201108 0.036160138 -0.023558477 0.013019373 0.024009746 0.011727213 0.023285015
-0.02255972 0.17497696 0.40087113 0.4588294 -0.0017112255 0.18929477 -0.01684714 -0.02021865
-0.09764707 0.1434391 0.026527226 -0.031362608 -0.036417753 0.017631253 0.003473997 -0.0010792632
0.02746279 -0.021266397 0.016914595 0.9784889 0.1848274 0.45239222 0.033343285 -0.00047315832
0.18346512 -0.0028949627 0.4563172 0.4415751 -0.022826323 -0.029845241 0.04532075 -0.014293054
0.014483936 0.45110655 -0.0116843935 0.008610456 0.4665705 0.041615617 0.03084055 0.008055853
0.013954466 0.02300233 -0.047514196 -0.018247837 0.2020992 0.024086483 0.0059381905 0.004614948
0.45883602 0.00091239036 -0.10817966 -0.02228867 0.0129570365 0.0017929473 0.042000867 -0.024562573
-0.029940596 -0.07534799 0.45038438 -0.7750583 0.38722333 -0.40672392 0.08456251 0.003705104
-0.0013263107 0.4381693 -0.52139276 0.017178262 0.010582203 0.006680906 0.001972833 0.037744544
0.007574141 0.20065752 0.03403175 0.3848946 -0.306516 0.13002935 0.08184961 -0.0051725283
-0.031758755 -0.040292457 0.02577057 -0.047854003 0.1217358 0.0056528435 0.1915224 0.035505753
-0.018730382 0.012022219 0.017002048 -0.038110055 0.34021834 0.003214856 0.030105257 -0.021598889
-0.1994107 0.446215 0.40144056 0.005025721 0.014904435 0.004462053 0.004725667 0.112138316
-0.0122890305 0.000117975476 0.14966577 0.0271227 -0.0008569615 -0.023921808 -0.005841969 4.5716253e-05
-0.027584173 0.11494521 0.04208116 0.013577121 0.045391466 0.021180827 -0.0060320785 -0.016241318
-0.027644167 0.1530436 0.0030487294 0.13692188 0.007027678 -0.03036224 0.024687346 -0.022442281
1.1817968 0.20934676 0.010056532 0.13949692 -0.0029799258 0.15996793 -0.030608242 -0.011286415
0.029032433 0.43972307 -0.104582526 0.040090498 -0.020100296 0.094802566 -0.0007165059 1.4737293e-05
-0.025990307 -0.006593603 -0.039883602 -0.03490595 0.00721519 0.0391048 0.4220566 -0.026408818
-0.015302338 0.009828096 0.020528499 -0.02870172 0.016116407 0.111155376 0.44381154 -0.02399788
0.022050137 -0.019718923 0.0035499788 -0.027273629 0.17843981 -0.003986201 0.035559885 0.010105123
00000000: 4430 c23d 28f7 3cbf 9afc 0d3e 1f22 8ebc
00000010: cd46 0fbd 672c 873c 71a1 85bc 8c5f 243d
00000020: 56c4 353e 4112 96bc 857c 57bf 012c b23b
00000030: 3472 3d3e 5b3d c5be 7986 183c 187f 023e
00000040: c0a9 51bc d566 363c 68eb 08b9 81fa 613d
00000050: 3585 bc3c 5575 5e3d 0d77 9abc 93d8 bc3c
00000060: d34c 1ebd d3cf 83bc b4d2 923a d353 a0bc
00000070: 16dc e93e ac0b f03e 8036 d33c 5d98 223d
00000080: 28c1 1c3d d45f 21bd fa3e 1c3d 02fa d73e
00000090: e681 75bc da52 ecbb 3671 29bb d156 993c
000000a0: 1a7a 583e 4c5c c3bc b15f e8bc 9ca6 06bc
000000b0: ee6e ea3e 0d1e 16bd 5eea b1be 565f 243b
000000c0: 072a a83c 1202 133e 7386 29bd b709 36bd
000000d0: 4e53 ed3d f7b7 e13c 7f66 0d3d bdc9 15bc
000000e0: d424 a3bc 146f 77bb 40ee e03c 11dd f4be
000000f0: ee0b 583b 5d63 263d 6912 20bd f025 10bd
00000100: f394 25bd 9409 f33c 68b5 c138 4813 0e3d
00000110: 67f3 3bbb 7e25 ec3d 0dba 0e3c fe0e 0b3d
00000120: 7269 073d 50d3 c7bc 4e4c f33d a2a8 abbc
00000130: f034 063c 6839 df3e 9c16 ee3e 51c1 c63e
00000140: 7acd 5e3c 4fe5 033d a71c 143d b5fd c0bc
00000150: 354f 553c 16b0 c43c 7f23 403c 37c0 be3c
00000160: 29cf b8bc 292d 333e fb3e cd3e b0eb ea3e
00000170: 334b e0ba 7dd6 413e 0303 8abc 95a1 a5bc
00000180: 30fb c7bd b3e1 123e a04f d93c 1476 00bd
00000190: c82a 15bd 6b6f 903c 00ac 633b 1076 8dba
000001a0: a5f9 e03c de36 aebc 7a90 8a3c 407e 7a3f
000001b0: 6543 3d3e f49f e73e f892 083d 3c12 f8b9
000001c0: 48de 3b3e 6ab9 3dbb 68a2 e93e 2216 e23e
000001d0: 45fe babc 027e f4bc 40a2 393d 6a2d 6abc
000001e0: 084e 6d3c 70f7 e63e e66f 3fbc df12 0d3c
000001f0: 54e2 ee3e 2375 2a3d 52a5 fc3c b2fc 033c
00000200: 46a1 643c 626f bc3c 3f9e 42bd 7d7c 95bc
00000210: 18f3 4e3e 0451 c53c 2795 c23b fd38 973b
00000220: 8eec ea3e 7b2d 6f3a 4c8d ddbd bb96 b6bc
00000230: c049 543c 5401 eb3a 1a09 2c3d 7337 c9bc
00000240: fb45 f5bc 0c50 9abd c898 e63e 396a 46bf
00000250: 2342 c63e 1e3e d0be 1c2f ad3d 55d1 723b
00000260: 9ad7 adba ba57 e03e ff79 05bf 6db9 8c3c
00000270: fa60 2d3c 80eb da3b a54a 013b 069a 1a3d
00000280: 8030 f83b 2a79 4d3e e064 0b3d e810 c53e
00000290: aaef 9cbe 6a26 053e c5a0 a73d 507e a9bb
000002a0: 7815 02bd b409 25bd cd1c d33c 8f02 44bd
000002b0: 9e50 f93d 7d3b b93b 731e 443e 7b6e 113d
000002c0: 7570 99bc d7f8 443c e147 8b3c 4a19 1cbd
000002d0: 1931 ae3e 55b0 523b 4d9f f63c 27f0 b0bc
000002e0: 5232 4cbe 4b76 e43e 9e89 cd3e ceae a43b
000002f0: bb31 743c 6a36 923b c5d9 9a3b c6a8 e53d
00000300: ee57 49bc 9a69 f738 fc41 193e 6d30 de3c
00000310: b6a5 60ba abf7 c3bc fd6d bfbb 74bf 3f38
00000320: 34f8 e1bc 6568 eb3d 4b5d 2c3d 9372 5e3c
00000330: 67ec 393d 6a83 ad3c bea8 c5bb 830c 85bc
00000340: 0576 e2bc 76b7 1c3e 31cd 473b 4035 0c3e
00000350: 7048 e63b 3bba f8bc 1e3d ca3c e0d8 b7bc
00000360: 1e45 973f ff5e 563e 27c4 243c 48d8 0e3e
00000370: dc4a 43bb a2ce 233e 23be fabc a8ea 38bc
00000380: 6dd5 ed3c 6223 e13e 5d2f d6bd ef35 243d
00000390: 60a9 a4bc d927 c23d e6d3 3bba 3140 7737
000003a0: a0e9 d4bc 270f d8bb fd5c 23bd 8bf9 0ebd
000003b0: 676d ec3b 5b2c 203d cd17 d83e 4e57 d8bc
000003c0: a8b6 7abc 0606 213c 622b a83c df1f ebbc
000003d0: 8e06 843c 6ea5 e33d 443b e33e 3497 c4bc
000003e0: 7da2 b43c 9489 a1bc c3a6 683b f26c dfbc
000003f0: edb8 363e ad9e 82bb 3ea7 113d f58f 253c

fc3.bias f4 [2]
0.10475365 0.04622054
00000000: 1589 d63d c051 3d3d
