reinforcement_learning/models_cartpole/cartpole_ne500_lr0.0001_ep0.9linearbest_dqn_agent.pt (torch, 654679 bytes, 6 tensors)

fc1.weight f4 [400, 4]
000000 50 7a 13 3e 6b 95 0a 3f 2b 98 09 be e9 d7 d9 3e
       0.14402127 0.54134244 -0.13436954 0.4254754
000010 1d 8a d4 3d ca 16 81 bc 19 b8 fe 3e 17 3b 4e 3e
       0.103779055 -0.015757937 0.4974983 0.20139728
000020 93 e4 a9 bd 47 4d 79 3e f0 59 bf 3e 07 b2 4d be
       -0.0829555 0.24345885 0.37373304 -0.20087443
000030 a4 cf 21 3e d3 3f ea be c8 bc f3 3e 85 47 ff 3e
       0.15801865 -0.4575182 0.47604966 0.49859253
000040 94 d6 a7 be 35 97 ca 3d 37 01 3b 3f 28 82 18 3e
       -0.32780898 0.09892122 0.7304873 0.148934
000050 12 b9 d7 3e a6 4d 9b be 2b 91 19 3e ef 00 a9 bd
       0.42133385 -0.3033268 0.14996783 -0.08252131
000060 c4 c9 df be a9 71 78 3e 73 0f c0 3e e3 0e 05 be
       -0.43708622 0.24262108 0.37511787 -0.1299396
000070 19 68 35 be e3 9a 9b 3e 73 02 c1 3e a1 c4 cd 3e
       -0.17715491 0.30391607 0.3769718 0.40189078
000080 cf 3c 4c 3e 44 79 9f be f3 12 d1 be 90 3d 4f 3e
       0.19945072 -0.31147206 -0.4083477 0.20238328
000090 d7 e8 f7 be 1e e0 71 be a0 79 84 be 8a 0f 17 3e
       -0.4841983 -0.2362065 -0.25874043 0.14752021
0000a0 ff a0 28 bd 2b 49 bc 3e 4d 0c 12 3f e5 0d 08 3d
       -0.041169163 0.36774573 0.5705002 0.033216376
0000b0 dc 5e 5e be f4 95 a0 3e 49 05 07 3f a2 7c 92 be
       -0.21715873 0.31364405 0.5274244 -0.28610712
0000c0 50 ab d2 3b f4 98 46 bc c8 4b 3f 3f c6 40 85 3d
       0.0064291134 -0.012121428 0.7472501 0.06506495
0000d0 bc 38 6b 3e 14 50 2a be 18 cf 1f 3e 5f aa 20 bf
       0.22970861 -0.1663211 0.15606344 -0.62759966
0000e0 7b 16 dc 3e f9 08 4a be 70 5e cc 3d f7 c7 d1 bd
       0.429859 -0.19729985 0.0997895 -0.102432184
0000f0 f3 76 4a be d1 23 83 3e c2 0a e8 3e b7 28 f4 3e
       -0.19771938 0.25613263 0.45320708 0.47687313
000100 86 0c 65 be 08 bd c9 3d 1d ef 1d bf c4 36 81 3d
       -0.22368059 0.09850508 -0.6169298 0.06309274
000110 08 24 ed be b6 2b 8a bd a6 e1 a6 3e 98 87 ae 3d
       -0.46316552 -0.067466184 0.3259403 0.08521956
000120 d0 05 20 3d e3 87 94 be 1f 1f 05 3f 85 9f fa 3e
       0.039068043 -0.29009923 0.5200061 0.4894983
000130 18 ba 00 bf 65 7c c0 3e a4 8c 0b 3f 4e 8c b7 be
       -0.50283957 0.37594905 0.54511476 -0.3584923
000140 fe b8 01 bf 69 d4 ca 3b af 5c da be 70 82 26 3d
       -0.506729 0.006189872 -0.42648837 0.04065174
000150 ba f4 d5 be 6a 12 1f 3e ef b1 44 3f f1 90 83 3e
       -0.41788274 0.15534368 0.76834005 0.2569652
000160 6c 46 6e 3e 8a 4b cc be 71 fa 79 bf 88 e6 c4 be
       0.23269051 -0.39901382 -0.9764777 -0.3845713
000170 43 ee ab 3e cd 4a d0 3e 41 b2 c8 3e bc 44 23 3e
       0.33580217 0.40682068 0.39198497 0.15944189
000180 9b 8c 87 be ae da 2f 3e 05 32 51 3f 0c 0d 75 3e
       -0.2647446 0.17173263 0.8171695 0.23930758
000190 88 f3 fe 3e 9c 31 86 3e 48 68 4e bf 7b 71 e0 be
       0.49795175 0.26209724 -0.8062787 -0.4383658
0001a0 45 62 f8 bd 1e a1 92 3e 37 22 70 bf bf 57 11 be
       -0.121281184 0.28638548 -0.9380221 -0.14193629
0001b0 c5 8d 05 3f 95 df a7 bd cd 92 c7 be 89 8c 96 3e
       0.5216945 -0.08196942 -0.38979188 0.29404095
0001c0 83 cf ca be 4b db e5 3d a3 d3 09 3f a6 61 3a 3e
       -0.39611444 0.112234674 0.53838557 0.18201312
0001d0 03 03 12 bd af 02 2f be 69 88 90 bd 10 08 6c be
       -0.035647403 -0.17090867 -0.07057268 -0.2304995
0001e0 c2 e9 d9 3e 13 ef eb bd d4 52 04 3f c2 8d aa 3e
       0.42561156 -0.11520209 0.51688886 0.33311278
0001f0 82 39 50 3e 58 dd 9b bd f6 8a 59 bf 7d 20 67 be
       0.20334437 -0.07610577 -0.8497766 -0.22570987
000200 94 5e 90 bd 39 da 10 bf 09 5f 1f 3d 36 c8 c6 be
       -0.07049289 -0.5658298 0.038908992 -0.38824624
000210 82 43 44 be b5 56 3b be ee 26 27 bf 61 12 be be
       -0.19166377 -0.18294795 -0.65293777 -0.37123397
000220 45 36 56 3d 55 18 31 3e 16 f5 5e bf cf cf 39 be
       0.05229785 0.17294438 -0.8709272 -0.18145679
000230 68 5a de 3d cf d6 f4 bd ef e9 68 bf db 80 83 be
       0.108570874 -0.11955034 -0.90981954 -0.25684246
000240 05 e0 8e be b3 34 4e 3e af 3a 52 bf 2c c4 c3 be
       -0.27905288 0.2013729 -0.82120794 -0.38235605
000250 09 b8 c7 3e c1 65 50 3d 3c dc d6 3e f2 7f b0 be
       0.39007595 0.05087829 0.419649 -0.34472615
000260 dd ef c6 be 86 12 b3 3d ae 75 50 bf ff ab a4 be
       -0.38854876 0.087437674 -0.81429565 -0.32162473
000270 7a ce b6 3e 9b 9f c6 be 16 83 79 bf da b0 9a be
       0.35704404 -0.38793644 -0.97465646 -0.30213052
000280 a1 c7 84 bb 2d 27 d3 3d ef d0 2b bf 12 c2 77 be
       -0.004052118 0.103102066 -0.6711568 -0.24195126
000290 13 ac fd be 02 2c f5 3e b3 fd aa be 71 69 1f be
       -0.49545345 0.47885138 -0.33396682 -0.15567566
0002a0 e5 d2 6a be cc 59 10 be 71 e9 21 3f 32 53 20 3e
       -0.22932012 -0.14096755 0.6324683 0.15656736
0002b0 43 9b bc 3e 5d 84 31 be 2e fc ad be 84 a7 be be
       0.36837205 -0.17335649 -0.3398146 -0.3723718
0002c0 37 b6 18 be 6b 65 7d be f1 04 cc be 55 42 f9 3e
       -0.1491326 -0.24745719 -0.3984752 0.4868342
0002d0 cd a6 8a 3e a6 e5 7d be a3 ca 0e bf e5 01 bb be
       0.27080384 -0.24794635 -0.5577795 -0.36524883
0002e0 b6 80 d2 3e ad 53 85 be 43 53 20 bf 91 84 ee be
       0.41113824 -0.26040402 -0.6262705 -0.46585515
0002f0 8a 3f 74 3e 5e c2 4c 3d e7 5f 12 3f 64 88 ff 3d
       0.23852363 0.04999005 0.57177585 0.12477186
000300 e7 37 8f be 6d 83 a4 3e cc 9e e2 3e 2e 42 02 b9
       -0.27972338 0.3213152 0.44261777 -0.0001242242
000310 b4 c6 6e 3e 2f 5b 5e 3d 46 0a 39 bf ac d8 7a be
       0.23317987 0.05428618 -0.722813 -0.24496716
000320 88 0d 64 bd 08 c0 19 3d 7e 6a 1e 3f f3 28 86 be
       -0.055676967 0.03753665 0.61881244 -0.26203117
000330 bf 52 b4 bd 8c 55 c9 3e 76 33 54 3e b6 b7 07 3e
       -0.08804845 0.3932308 0.20722756 0.13253674
000340 6c 0b e9 bc a9 d2 08 3f 11 62 31 3c 1c 63 22 3e
       -0.02844783 0.5344644 0.0108266035 0.1585812
000350 30 6b 28 3e be 0d 8d bd ba 08 c2 3d 9b d3 90 3e
       0.16447139 -0.06887387 0.09474321 0.28286442
000360 a3 af d1 be 1c ef 9f 3c 4c 93 3f 3d 80 8a de 3d
       -0.40954313 0.019523196 0.046771333 0.108662605
000370 f4 4a b6 be 95 7e ea be df d3 05 3f 71 8f 4e 3e
       -0.3560406 -0.457997 0.52276415 0.20171906
000380 68 40 ca bd 22 81 5e 3e 61 4c d6 be 23 82 cb 3d
       -0.09875566 0.21728948 -0.41855147 0.09936931
000390 c8 ee fb be 7f 4a c2 be bd e3 c2 3e 56 60 ab bd
       -0.49205613 -0.3794746 0.38064376 -0.08367984
0003a0 0d 4f e2 bd 91 51 ad be 96 e6 37 bf 77 bb f7 3e
       -0.11050234 -0.33851293 -0.7183622 0.48385212
0003b0 1e 79 83 3e 00 b5 97 be b9 67 e2 3e 39 e5 bf be
       0.25678343 -0.2963028 0.4421976 -0.3747957
0003c0 82 fa ef 3e 8d b4 0a be c7 7d 4c be 0d cf 58 3d
       0.4687081 -0.13545437 -0.19969855 0.052931834
0003d0 38 7d 30 3e 7a a9 b4 bc 5a 30 d1 be b5 10 c1 3e
       0.17235267 -0.022053469 -0.40857202 0.3770806
0003e0 eb f5 83 3e 9a c0 29 be 0d 27 ae be 28 44 d7 3e
       0.25773558 -0.16577378 -0.34014168 0.42044187
0003f0 b0 39 2a 3e 21 99 f6 be 5b be db be ac 00 ab bd
       0.16623569 -0.48163703 -0.42918667 -0.083497375

fc1.bias f4 [400]
000000 8e 7f 70 3c 20 05 b1 3e 4d 39 0d 3f 71 32 93 be
       0.014678849 0.34574223 0.5516556 -0.2874942
000010 71 bb 16 be 1a 00 04 bf 39 7f 80 be 18 96 97 be
       -0.1471994 -0.51562655 -0.25097063 -0.296067
000020 93 95 6a bd 85 ce 19 be 51 dc 6b 3e e7 ee 6c 3c
       -0.05727155 -0.15020187 0.23033263 0.014461256
000030 db d6 56 3e 95 d5 be be 4c 5b 1a 3e 08 0b af be
       0.20980398 -0.37272325 0.1507389 -0.34188104
000040 61 1f 01 3f f6 77 94 be 10 b2 cb be 55 b0 68 3d
       0.50438505 -0.28997773 -0.39784288 0.05680879
000050 b7 00 e7 3e b4 db 4d be a2 ba d3 bd 89 81 e1 3d
       0.45117733 -0.20103341 -0.10338332 0.11011035
000060 1d 7d 40 3e 8d 04 33 bd 63 4c 8b be e7 70 83 bc
       0.18797727 -0.04370551 -0.27206716 -0.016045047
000070 67 95 87 be b2 57 7b be aa 16 5b 3e 1f 24 c7 3e
       -0.26481172 -0.24545172 0.21395364 0.38894746
000080 61 c3 97 be 55 bd 91 be 3f 6e f3 bd 1c 6d 3b be
       -0.2964125 -0.2846476 -0.11886262 -0.1830334
000090 4a 54 cc be ef 62 37 3e cd f4 51 bb 61 98 03 be
       -0.39908057 0.17908834 -0.0032036782 -0.12851097
0000a0 f5 1d e5 3e 1d 52 b7 be 31 70 9d bc c8 aa d4 be
       0.44749418 -0.35804835 -0.019218536 -0.41536546
0000b0 74 43 95 3e 9f 01 d2 3e 92 28 b8 be c5 69 48 3e
       0.29153025 0.41016862 -0.35968453 0.19571598
0000c0 4f 47 77 be 7e 46 48 3e b0 2c 36 3d 0e c0 c3 be
       -0.24148296 0.1955814 0.04447621 -0.38232464
0000d0 4e ab 83 bb 90 8e 01 bf 5d 9c 01 bf d5 39 d5 3e
       -0.004018224 -0.5060816 -0.50629216 0.41645685
0000e0 3e 51 04 3f 59 3b 30 be 9d 53 af bd 71 20 d9 3e
       0.51686466 -0.1721014 -0.0856087 0.42407563
0000f0 e5 09 f7 3c c1 01 c8 be 57 4d 90 be 63 79 a6 3e
       0.030156085 -0.39063838 -0.28184006 0.32514486
000100 d7 f3 0e bf e2 ac bf be b3 df bb 3e 31 dc 28 be
       -0.5584082 -0.37436587 0.36694106 -0.16490246
000110 1c 02 8a 3e 1c 92 d4 3e 9a c6 d5 3c cb 37 bc be
       0.26954734 0.41517723 0.026095677 -0.36761317
000120 14 90 6a 3e d4 f4 09 3f d3 d1 e6 3e a5 bf 26 be
       0.22906524 0.53889203 0.45081958 -0.16284044
000130 ee c9 d3 be da 0b cd bc de 69 c1 3e 88 61 01 3f
       -0.41364998 -0.025030065 0.37776083 0.50539446
000140 ee f6 91 3e 04 19 a1 3e 48 7d e9 be f7 76 10 be
       0.28508705 0.31464398 -0.45603395 -0.14107881
000150 1e f4 9f 3e 72 96 67 be 6a 21 db be a1 4e 44 be
       0.31240934 -0.22615984 -0.4279893 -0.1917062
000160 2f bf d5 3e fc e1 4c be 32 12 7a 3e 4e 65 91 3e
       0.41747424 -0.20008081 0.24421003 0.28397602
000170 d2 9b f2 be a2 10 01 bf eb 8c 73 be c7 6b e1 bc
       -0.47384506 -0.50416005 -0.23784225 -0.027517213
000180 1d 3d ab bd 85 d8 a3 be 1d 81 d2 3e 9f 88 10 be
       -0.08361266 -0.3200113 0.4111413 -0.14114617
000190 1c c6 cc 3e 66 6d a9 be a6 22 ac be 4c 3b f7 3e
       0.39994895 -0.33091277 -0.33620185 0.48287427
0001a0 cc 59 8c bc d3 43 39 3d 75 e4 28 3e 0b 4f ad be
       -0.017132662 0.045230698 0.164934 -0.33849367
0001b0 0b 22 af 3e 6b f8 a3 3e 48 98 ba be 20 c4 ae be
       0.3420566 0.32025465 -0.36444306 -0.34134007
0001c0 dd e7 52 3e 43 b4 e0 3e 7d f6 4d 3e f3 ee f0 bd
       0.20596261 0.4388753 0.20113559 -0.11764326
0001d0 c8 c8 e7 3e bd 74 90 3e 3f de c8 3e f5 12 fd 3e
       0.4527037 0.28214064 0.3923206 0.49428526
0001e0 1c 71 2c bd 85 58 8a 3e 49 d0 15 3e 34 64 e7 3e
       -0.042100057 0.2702066 0.14630236 0.45193636
0001f0 fc 5e c4 3e 60 55 dd be 2b c8 ff bd 40 83 ab 3d
       0.38353717 -0.43229198 -0.12489351 0.08374643
000200 0b 38 a2 3e dd 32 e9 be a6 d6 b3 bd e1 1a fc be
       0.31683382 -0.45546618 -0.08781175 -0.49239257
000210 ac 8e 09 be f0 29 de 3e c3 53 c7 bd 6a ad e1 3c
       -0.13433331 0.4339137 -0.09732773 0.02754851
000220 ae a0 c6 3e e2 b6 10 be 94 c0 06 be b0 92 68 be
       0.38794464 -0.14132264 -0.131594 -0.22712207
000230 d9 99 db 3e e1 a9 27 be 76 bd 22 be 7f 2e ed 3e
       0.42890814 -0.16373397 -0.15892586 0.46324536
000240 a8 63 72 3e 99 31 f9 3e c4 c3 b3 be 4b db 70 be
       0.23670828 0.48670653 -0.35110295 -0.23521154
000250 32 fd eb 3e d0 4d e4 be 0f 64 b8 bd ec 98 a1 be
       0.4609161 -0.44590616 -0.0900346 -0.31561983
000260 ea c0 9b be 30 bd 69 3e 9e 66 9a bc d6 3b 02 bc
       -0.3042062 0.22826076 -0.01884776 -0.007948836
000270 59 1b 66 3e 91 cc fb 3e 7a 38 bf be d2 15 bb 3e
       0.2247137 0.4917951 -0.37347776 0.36540085
000280 d2 19 eb be 42 a7 4b be 5b 0c b7 bd 8a be e2 be
       -0.45918137 -0.19888023 -0.089379035 -0.44285995
000290 6d 29 5f 3e 12 f6 6c 3e f2 62 51 bd 09 e7 00 bf
       0.21793146 0.23140743 -0.051119752 -0.5035253
0002a0 fd cb b0 3d 7e 82 f3 3d 94 2c ff 3d 69 91 e7 be
       0.08632658 0.11890124 0.124596745 -0.45228127
0002b0 cd 80 cd be d4 df ba 3e 34 71 03 3f 75 1b a5 3e
       -0.4013733 0.36498892 0.5134461 0.3224751
0002c0 cf ec 44 3e 8e 55 ab be be db 82 3e d2 7b 6f 3e
       0.1923096 -0.3346371 0.25558275 0.23387077
0002d0 9c 34 9d 3e f1 24 f9 be 83 37 e0 bc 5f 64 e5 be
       0.307042 -0.48660997 -0.02737022 -0.4480314
0002e0 ab 51 d5 be cf 30 10 3c 83 5b 99 3d 22 8b fe be
       -0.4166387 0.008800699 0.074881576 -0.49715525
0002f0 16 ee f4 3e ea 68 db 3e 09 00 b8 3e 1a 0e ab be
       0.47837895 0.4285348 0.35937527 -0.33409196
000300 77 fd 96 3e 39 09 69 bd 19 da b7 be 86 32 44 be
       0.29490253 -0.05689356 -0.35908583 -0.19159898
000310 76 d8 51 be 63 cb db be 18 b1 49 3e 00 fa 49 3e
       -0.2049273 -0.4292861 0.19696462 0.19724274
000320 bf 35 6d bd 84 5e 41 3e d8 d4 c0 bd 34 3a 9d 3e
       -0.057912584 0.18883711 -0.09415597 0.30708468
000330 8d 36 67 3e 5b f5 dd 3d 96 08 ee be af 29 92 be
       0.22579403 0.108378135 -0.46490926 -0.28547427
000340 11 2f 03 3f 4e cd 85 be 16 02 b1 3e af 9e b1 3e
       0.5124369 -0.26133198 0.34571904 0.34691378
000350 61 a6 bb be 00 ae 12 3f da 31 d8 be a9 0b ad bd
       -0.36650375 0.5729675 -0.42225534 -0.084494896
000360 08 d5 77 be fc 29 cf be c6 2a 75 be 44 20 f7 3e
       -0.24202359 -0.4046172 -0.23942098 0.48266804
000370 61 b3 bd be a6 7c 47 be a1 7b c8 be e9 f3 07 3e
       -0.37050918 -0.19481143 -0.3915682 0.13276638
000380 74 1e de bd 25 34 84 3e a5 9a 41 be ad 2a fd 3e
       -0.10845652 0.25821033 -0.18906648 0.49446622
000390 6b 1a 3a be e6 fa 4f be b9 e2 94 3e c0 8b 31 3e
       -0.1817414 -0.20310554 0.29079226 0.17338467
0003a0 f3 6d 54 be f1 22 c3 bd 25 fa 92 be 27 ca 54 3e
       -0.20745067 -0.09528149 -0.2870647 0.2078024
0003b0 ce cc 27 3e db 54 39 3e db 69 0b bf 1a 72 36 be
       0.1638672 0.18098776 -0.544584 -0.17816964
0003c0 8c 7b c9 be 71 10 d5 be af 03 a7 3e 97 a0 99 be
       -0.3935207 -0.41614106 0.32619998 -0.30005333
0003d0 89 70 a0 be dc b1 9a be dd 46 77 bd 95 03 36 be
       -0.31335858 -0.3021382 -0.060370315 -0.17774804
0003e0 ee 65 cf 3e b4 a7 76 3e ba 9b e3 3e d4 af d8 3e
       0.40507454 0.24087411 0.44454747 0.42321646
0003f0 78 05 d0 bd ab fa 07 bf fa d9 99 be 32 e7 0a 3f
       -0.10157293 -0.53116864 -0.30049115 0.54259026

fc2.weight f4 [400, 400]
000000 20 26 40 3c 12 7f 53 bd be 1b 25 bd e0 75 1e bd
       0.01172784 -0.051634856 -0.04030966 -0.038686633
000010 e3 ae 3e bd 8d bf 9d bb 00 29 84 bc 6b 2b 2f 3d
       -0.046553504 -0.0048140944 -0.016132832 0.042766016
000020 ac 7f d4 bc e3 b4 eb bc dd d2 0b 3d 0e 36 fc 3c
       -0.025939785 -0.028772777 0.03413664 0.030787494
000030 59 b0 5a bc f7 65 ff bb 1a f3 a5 bc 4f 15 28 bd
       -0.013347709 -0.0077941376 -0.020257521 -0.041035946
000040 35 21 8f bc 00 04 40 3b 9a da af 3c aa 23 23 3c
       -0.017471889 0.002929926 0.021466542 0.009957233
000050 ea ae 42 bd 20 1c 2e bd d9 7a 97 3c 53 95 34 3d
       -0.047530092 -0.04250729 0.018491196 0.04408772
000060 81 37 11 3d 08 59 08 bd 28 17 95 3c fe 89 08 bc
       0.035453323 -0.03328803 0.018199518 -0.008333681
000070 80 6a 44 bd 1d 40 c4 bc 9b 47 c0 bc d4 96 27 3c
       -0.04795313 -0.023956353 -0.023471644 0.010228831
000080 f3 1c 23 3c 83 a3 99 bc 4a de ae 3c 0c 89 11 bd
       0.0099556325 -0.018754726 0.02134623 -0.03553109
000090 3d 97 ec bc 88 02 b6 bc 14 10 ba 3c 54 93 85 3c
       -0.02888071 -0.022218004 0.022712745 0.016305603
0000a0 66 10 94 ba f3 78 32 bc 40 8a c1 3c cd c7 48 3b
       -0.0011296391 -0.010893094 0.023625493 0.0030636669
0000b0 ec 7c 81 bc d1 bf 1d 3c 10 1d bb 3c 31 fb 88 bb
       -0.015806638 0.009628252 0.022841007 -0.004180335
0000c0 d3 a6 d9 bc 4a 70 86 3c 5d 67 44 3d 00 4b 46 bc
       -0.026568806 0.016410965 0.047950137 -0.012102842
0000d0 bc dd 11 bd 27 2d 82 bb 1d 5b 3c bd ce 21 11 bc
       -0.035611853 -0.0039726677 -0.04598533 -0.008858157
0000e0 42 23 ef bc 4a 20 87 3c 46 b2 2e bd 26 0e 45 bd
       -0.029191617 0.016494889 -0.042650484 -0.048109196
0000f0 41 a3 53 3b c0 51 df bb d3 4b 78 3c 7a 03 e4 3c
       0.0032293352 -0.0068151653 0.015154797 0.027833689
000100 0d 0a 25 3c 33 a7 bd 3a be 5c 23 3b 13 78 ae bc
       0.010073197 0.0014469385 0.0024927105 -0.02129749
000110 57 ee 6d ba 0e 23 2a 3d 4d 00 89 3c b3 76 61 3c
       -0.0009076348 0.041537337 0.016723776 0.01376121
000120 36 94 47 bd a6 e9 fb bc 2b 48 32 bd 05 46 19 bd
       -0.04872533 -0.03075106 -0.043525856 -0.03742029
000130 32 a8 2b bd 3e 1e 16 3d b3 55 77 bc f1 f2 1d 3d
       -0.04190845 0.036649935 -0.015096116 0.038561765
000140 f1 cb 2c bd f0 6b c9 3c a3 d9 9c 3c a7 b9 09 bc
       -0.04218668 0.024587601 0.019146746 -0.008406079
000150 33 68 31 3d a9 04 f4 bc 32 aa 07 bd 9d b4 c5 bb
       0.043312263 -0.029787378 -0.033121295 -0.0060334937
000160 43 95 c3 bc 95 4f 79 bb d8 f0 c3 bc 54 af cf bc
       -0.023874884 -0.003804182 -0.023918554 -0.025352158
000170 17 d1 81 bc 73 ac 10 bd 9a 32 53 3b d9 d1 35 3b
       -0.015846772 -0.03532071 0.0032226206 0.0027743487
000180 cb 61 01 bd 33 2e 29 3b cc cd b5 3c 7e 1b 40 3d
       -0.031587403 0.002581489 0.022192858 0.04690122
000190 df ef 2f 3b c0 d4 09 bc ad a1 97 3c c4 d3 3d 3d
       0.0026845855 -0.00841254 0.01850971 0.046344534
0001a0 39 b8 61 3c 24 43 29 bd ce 63 e3 3c 00 77 da 3a
       0.013776832 -0.041323796 0.027757552 0.0016667545
0001b0 18 bb 2a 3d 07 cd 95 bc 5a 7f 8b 3c 13 91 48 3c
       0.041682333 -0.018286241 0.0170285 0.01224162
0001c0 9a ab 09 bc 4d ed 35 bc 1a 8e a3 3c 57 6c 50 bd
       -0.008402729 -0.01110394 0.01996522 -0.05088457
0001d0 3f d4 90 bb 7a a3 c2 bc 1d 02 60 3c db da 22 3b
       -0.004419833 -0.023759592 0.013672379 0.0024849686
0001e0 5e 02 2f bd 86 a4 2d bd 6e 51 dc bc ed e3 54 bd
       -0.042726867 -0.04239323 -0.026894297 -0.05197518
0001f0 a4 dc 3c 3c 2d 92 9a bc d1 11 56 3c c5 6f 97 3c
       0.011527214 -0.01886853 0.013065771 0.018485913
000200 29 e8 2e 3d 60 2b 45 3d bd bf 38 bd 72 6a 64 bc
       0.042701874 0.04813707 -0.04510473 -0.013941394
000210 9a 12 b7 3a f5 34 0a bc f9 79 07 bd 19 28 ac bc
       0.0013967336 -0.0084354775 -0.033075307 -0.021015214
000220 f1 bb 9c 3a f5 f1 01 bd e8 91 e8 bb 75 1c 28 3d
       0.0011957866 -0.03172489 -0.0070974715 0.041042764
000230 fb 87 7a 3c d7 38 09 bd 9f 2b 36 bc 6a 3a 28 bd
       0.015291209 -0.033501472 -0.0111187985 -0.041071333
000240 dc 8c 73 3c 63 68 ce 3b b5 44 40 bd 17 32 09 bd
       0.014865126 0.006299065 -0.046940524 -0.033495035
000250 f6 00 fb bb 87 d4 34 bc 21 69 41 bc 87 5c 53 3c
       -0.0076600267 -0.011036999 -0.01180485 0.012900478
000260 9a 91 d4 bb 27 0e 4b bd 73 d8 d3 bc 30 47 bc bc
       -0.0064870836 -0.049574044 -0.025860047 -0.022983164
000270 e4 ef 2a 3d a6 c7 04 3c 5d ca 0e bd c7 97 de 3a
       0.041732684 0.0081042405 -0.034860957 0.0016982489
000280 24 d0 ac bb cc 0b cb 3c c0 21 af bc dd 1e fe 3c
       -0.0052738357 0.024785899 -0.021378398 0.031020576
000290 0d 83 a8 bc 8d c6 56 bd 9a 52 ac bb 54 91 d3 bc
       -0.020570302 -0.052435447 -0.0052588703 -0.025826134
0002a0 e6 1f 14 3d b1 9d 16 3c cf c3 c7 3c d2 0f 37 bd
       0.036163233 0.00919287 0.024385361 -0.04469282
0002b0 9a ed 87 ba aa 90 04 bd 17 ec 11 3d 2b 5a 14 bc
       -0.0010370493 -0.032364525 0.035625543 -0.009054701
0002c0 9a 39 af bc 9d a9 8c 3c 6e 9c 07 bd 67 81 a9 3c
       -0.021389771 0.017170722 -0.033108167 0.020691587
0002d0 a7 e0 23 3d aa 79 d6 3c a1 c2 0a bd 0b e5 29 3d
       0.040009167 0.02618106 -0.03387702 0.041478198
0002e0 9d 28 0b bd 81 a4 82 3c 7e 78 29 bd 0c 20 c3 3b
       -0.03397428 0.015947582 -0.041374676 0.005954748
0002f0 a7 be d0 3b cc 31 90 3a c7 75 fe bc a0 0c 46 bd
       0.006370384 0.0011001169 -0.03106202 -0.048351884
000300 f2 0b 1e 3c bc d5 7e 3c c9 3c 7e bc 6f 73 37 bc
       0.009646403 0.015553888 -0.015517422 -0.011196955
000310 4c bc 93 3c 7a de 6b bc 9e aa 1f 3c e0 b9 07 3c
       0.018034123 -0.014396304 0.009745268 0.008284062
000320 ad c4 a7 3c 3b 52 18 3d d7 ec 97 bc 55 18 cb 3c
       0.020479525 0.037187796 -0.018545551 0.024791876
000330 7e 74 32 bd b3 a8 09 bd 9a 1f b4 3b 6e e1 c2 bc
       -0.043568127 -0.03360815 0.0054969313 -0.023789134
000340 f8 eb 02 bd 07 ea 70 bc 19 38 e0 3c 05 8d 28 bd
       -0.03196332 -0.014704234 0.0273705 -0.04115011
000350 16 53 2c bc 4b b8 06 3d 5d cc ad 3c 80 da d4 3c
       -0.010517856 0.0328906 0.021215612 0.025983095
000360 b7 b7 b5 bc 8d 94 28 bc e4 32 1a 3d 5d 79 93 ba
       -0.022182329 -0.0102893235 0.03764619 -0.0011251379
000370 6e e5 57 3d f1 02 46 bd c0 2e b7 bc 74 c9 7f bc
       0.052709036 -0.04834265 -0.02236116 -0.015611995
000380 44 67 76 3c ca 4b 38 3c 3f 3b 22 3d 28 eb fb bc
       0.015039269 0.011248538 0.039607283 -0.03075178
000390 47 57 2f bc d9 c9 09 3d d2 3c b7 3c 60 41 96 3c
       -0.010701961 0.033639763 0.022367869 0.01834172
0003a0 88 4c 46 3d 49 75 19 bc 9d 0c ce bc f2 0e 45 bd
       0.04841283 -0.009366342 -0.025152499 -0.048109956
0003b0 79 5a aa 3c 49 fc bb 3c 27 08 e9 bb f2 80 3d 3c
       0.020795094 0.022947447 -0.0071115675 0.0115663875
0003c0 f0 52 57 bb fb 73 44 bd 4b 11 8f 3b 0d 93 f7 3b
       -0.003285583 -0.04796217 0.004366075 0.0075553716
0003d0 e0 1a ed bc a0 39 40 bc e4 3d a2 bc eb 61 46 bd
       -0.028943479 -0.011732489 -0.019804902 -0.048433226
0003e0 c7 b8 37 3c 65 ad af 3c 60 58 d0 bc d5 bf a1 3c
       0.011213488 0.021444986 -0.025432765 0.019744793
0003f0 27 54 38 3c 13 50 27 bd 4a 45 1d bd ff 61 cc 3c
       0.011250532 -0.04084785 -0.038396157 0.024949072

fc2.bias f4 [400]
000000 c0 d5 57 bc 81 0f 4f ba cf 95 88 3d 1f 3c f9 bc
       -0.013173521 -0.00078987336 0.06669199 -0.030424176
000010 c0 87 9c 3b 42 17 b3 bc 57 ce 67 3c 19 9e 7a 3d
       0.004776925 -0.021861676 0.014148316 0.06118593
000020 be 7d 8d 3d 2a 61 a1 3d 2c 4e 0e 3d 4c 42 17 3c
       0.06908749 0.07879861 0.03474252 0.009232115
000030 0d 97 78 3d 10 5e 76 bc ff 36 68 3c 31 68 3c bb
       0.06069093 -0.015037075 0.014173268 -0.0028748626
000040 3e b6 c3 3c 43 af 1a bd 5b c5 a1 3d 89 92 a2 3d
       0.02389061 -0.0377648 0.07898971 0.079381056
000050 9a b9 f5 bc 57 47 36 bc 1c e9 ac bb 8a 19 a7 bb
       -0.029995728 -0.011125407 -0.0052768122 -0.00509948
000060 00 cd 2b 3d 8d a0 17 bd 3e c7 48 bd 2a 5f ac 3d
       0.04194355 -0.037018348 -0.049018137 0.084165886
000070 1f 6e 62 bd 50 09 f0 bc 6a ff 88 bc 9b d4 9e 3d
       -0.0552808 -0.029301316 -0.016723353 0.07755395
000080 e3 56 00 bd 5e e0 0a 3d fb 01 00 3d 6b 0d 94 3d
       -0.03133286 0.03390538 0.03125189 0.07229122
000090 07 b0 91 bc 5f 92 e3 bc 6e 65 bb bc 73 ea a1 3d
       -0.017784132 -0.027779756 -0.022875514 0.07906046
0000a0 ef cc 1d bc c3 00 27 3c 0e af fa bb 7d 32 88 3d
       -0.0096313795 0.010193053 -0.0076502627 0.06650255
0000b0 bc 65 b8 3d 1d 5b 60 bc 4c 23 68 3d 38 2e 78 3c
       0.09003779 -0.013693598 0.056674287 0.015147738
0000c0 64 6c 65 3d 0d 72 92 3d 2d f9 96 3c af 43 91 3d
       0.056011572 0.0715066 0.018429363 0.07092988
0000d0 0e 54 23 3c d1 bb f0 3c 4e ed 07 3d fa 15 46 bd
       0.009968771 0.029386433 0.033185296 -0.048360802
0000e0 a4 14 62 3d f3 a1 12 3d 4b b3 31 3d d7 8b f1 3b
       0.055195466 0.035798978 0.043383878 0.0073714065
0000f0 8a 2c 57 bd a5 d0 69 bd 5b 71 97 3b aa 3f ce 3c
       -0.05253271 -0.057083745 0.0046216673 0.025176842
000100 05 02 8e 3c d4 b2 f7 bc 5a df 00 bb 5b 50 39 bd
       0.017334947 -0.03023664 -0.0019664378 -0.04524265
000110 3a 8e 59 3d 9e ea bb 3c 7e c6 fe 3c 64 a1 3a 3d
       0.053114153 0.022939023 0.031100508 0.04556407
000120 09 be d1 3c 51 98 09 3d ad 0b cb bc 29 fb c9 3b
       0.025603311 0.033592526 -0.02478584 0.006163974
000130 2d 2b f5 3c 53 fc 98 3c 18 32 14 3d 10 12 9c 3d
       0.029927814 0.018675005 0.036180586 0.07620633
000140 f7 aa 0b 3d 0b ca 75 bc ea 0d 05 3d c1 80 1b bd
       0.03409859 -0.015001784 0.032483973 -0.037964586
000150 fd 54 f3 bb 76 e2 b9 bc e0 7e 44 bc be 0c 9c 3d
       -0.007425903 -0.022690993 -0.01199314 0.07619618
000160 9d 8c 44 bc 36 90 ac 3c 9c 06 43 bd cd 36 d2 3b
       -0.011996415 0.021064859 -0.047613725 0.006415224
000170 56 a9 03 bd 89 60 44 bd 6c 02 43 3d a7 2a a6 bb
       -0.032143913 -0.047943626 0.04760973 -0.0050710025
000180 f8 78 8c 3d c9 ad 68 3c c4 40 48 3d 41 75 97 3c
       0.068590105 0.01420159 0.04888989 0.018488528
000190 28 a0 4c 3d ac 16 0a 3d 24 b9 74 3c f7 54 94 3c
       0.049957424 0.033713028 0.014936719 0.01810692
0001a0 27 62 0e 3d 65 db 8b 3d d8 df 53 3c 9b 68 1a 3d
       0.034761574 0.068289556 0.0129317865 0.037697416
0001b0 a2 11 be bc 14 52 4b 3d 9e 72 bb bc 37 ed d9 bc
       -0.023201767 0.049638823 -0.022881802 -0.02660237
0001c0 83 48 81 bc 38 c4 67 bd f1 fc 9f 3b 43 c8 c2 3c
       -0.015781647 -0.056583613 0.004882448 0.023777133
0001d0 c1 20 0e 3c 8b 12 b2 bc d5 8a 00 3d 47 a4 c2 bc
       0.008674801 -0.021737358 0.0313824 -0.023759974
0001e0 23 cd 40 3d ae a7 bd 3c 3a 74 e5 3c 64 36 78 3d
       0.047070634 0.023151245 0.028009523 0.060598746
0001f0 f4 8d da bb f8 7c 09 3d 0e bd f9 3a f3 c9 75 bd
       -0.006669754 0.033566445 0.0019053535 -0.060007047
000200 2e 0d 51 bd c7 cb 74 3c d6 b2 87 3d 19 2a 57 bd
       -0.05103796 0.014941162 0.06625907 -0.05253038
000210 66 28 40 3c 2e ae 66 3d 23 c4 f9 3c 70 e6 d9 bb
       0.011728382 0.056318454 0.030489033 -0.0066497847
000220 60 ea 55 3d 14 35 f9 3c a8 19 03 bd 3e be d1 bc
       0.05222547 0.030420817 -0.03200689 -0.02560341
000230 3e 64 58 bb b3 d9 87 3d fc 09 0e bc 5d f4 4e 3d
       -0.0033018733 0.0663332 -0.008669373 0.05052601
000240 9d 8b 58 3d fe 9d 6e 3d d3 6a 3e bc 8d 30 73 bb
       0.05286752 0.05825614 -0.011622149 -0.0037107796
000250 59 50 42 3c 25 12 76 bd c5 eb 22 bd 1a 7b 1a 3d
       0.011859977 -0.060075898 -0.03977563 0.037715055
000260 f2 35 ed bc 96 f4 72 3c 35 23 e9 3c 6d 9f 94 3c
       -0.028956387 0.014828822 0.02845917 0.018142426
000270 31 13 79 3d e5 9d 36 3d 9c 69 82 3c e0 05 3b bd
       0.060809318 0.044584174 0.0159195 -0.0456599
000280 d5 0b 54 3c bf 34 36 bd ea b7 93 3d 83 6a be bc
       0.012942274 -0.044483896 0.07212813 -0.023244148
000290 d8 cd 05 3d 40 3f cf bb 0e 0c 24 bd db 8e 07 3d
       0.03266701 -0.0063246787 -0.04005056 0.033095222
0002a0 9a d1 66 bd 6b 8e 89 3d be f8 94 bc e5 e0 89 3d
       -0.056352235 0.06716617 -0.018185016 0.06732348
0002b0 67 ca 6b 3b 75 7c 99 3c ec 01 1a 3d 71 24 44 3c
       0.0035978795 0.018736104 0.03759949 0.011971579
0002c0 29 5d 9c 3d 8d d5 63 3d de 69 5d 3d c3 0f 60 3c
       0.076349564 0.05562358 0.05405604 0.013675633
0002d0 9d 41 4b bd 02 75 c1 ba f4 22 df bc d8 7f 43 3c
       -0.04962312 -0.0014759602 -0.027238347 0.011932336
0002e0 f2 f6 0b bd 45 2b a6 3d 8c ce bc 3d 68 2d 1c bd
       -0.034171052 0.08113722 0.09219083 -0.03812924
0002f0 b0 c7 aa 3d b5 cf 86 bc 3c ed 3a 3d 3f 4b a4 3d
       0.083388686 -0.016456464 0.0456364 0.080221646
000300 d6 1a 47 bd c1 e4 e4 3c 86 81 45 bd c0 e1 22 3d
       -0.048609577 0.02794111 -0.048219226 0.039766073
000310 9c a7 74 ba af 48 54 3d 0c c9 35 bd 4e 1d f6 bc
       -0.0009332837 0.05182713 -0.044381186 -0.03004327
000320 57 f4 76 3d ed ed 65 3d b2 5c 14 bc 32 a4 44 3d
       0.060291614 0.056135107 -0.009055303 0.04800815
000330 c3 60 d9 3c c1 e0 99 3d c1 23 18 bd f5 96 a9 3c
       0.026535397 0.075135715 -0.037143473 0.020701865
000340 d0 cd f6 ba 2f 97 de 3c 1e b6 4a 3d 77 da 9d 3d
       -0.0018829647 0.0271717 0.049490087 0.077076845
000350 2d 9c 6c 3d c9 d3 84 bb 4f 72 59 3c a6 7d 95 3d
       0.05776613 -0.004053567 0.013271882 0.07299356
000360 3e fa 1f 3d 02 45 0e ba 59 9f 81 3b 20 22 80 39
       0.03905701 -0.0005427153 0.0039557633 0.00024439488
000370 1d af 5f bd 98 20 84 3d 2b de ff 3b 10 b0 9b 3c
       -0.05461036 0.06451529 0.007808467 0.019004852
000380 d6 ac d1 3b 5b 24 49 3d 7f 50 5b 3d c0 4a df bc
       0.0063987775 0.049106937 0.053543564 -0.027257323
000390 4b e2 66 3c 8d 45 57 3d a9 4d ae 3d 48 d4 20 bd
       0.014092038 0.052556563 0.08510906 -0.039264947
0003a0 45 94 9f bd 4a c4 a0 bc 5a 4b b8 bc d2 43 a5 3c
       -0.07791952 -0.019624848 -0.022496868 0.02017394
0003b0 0d a8 ae 39 b9 54 32 bd 34 f9 a2 bc ae db 47 3d
       0.00033313074 -0.04353783 -0.01989422 0.048793487
0003c0 01 0f 38 3d 03 b4 44 3d ac 57 28 3b 07 5b 26 bd
       0.044936184 0.048023235 0.0025687022 -0.040614154
0003d0 00 9c 6f 3a 51 4e 2b 3d 58 07 68 bc ca 04 62 3d
       0.0009140372 0.041822735 -0.014161907 0.05518035
0003e0 d9 50 78 3d a8 09 33 bd 0d 07 3a 3c dc 2b 05 3d
       0.060623977 -0.04371038 0.01135422 0.03251253
0003f0 c0 68 cd 3c 61 52 01 bd 2a 47 98 bc 1f b2 ae 3d
       0.025074363 -0.031572703 -0.018588621 0.08530068

fc3.weight f4 [2, 400]
000000 0c 42 44 bb 72 dc c8 3c dc 6a 13 be dd 1c ba 3c
       -0.0029946594 0.024519179 -0.14396232 0.022718841
000010 75 05 32 bf 02 1b 3a bd b3 b7 2b 3e 7d 6b 9d bd
       -0.69539577 -0.045435913 0.16769294 -0.076865174
000020 61 e4 0e 3e 7b ac 37 3e d5 aa a8 be 4c 07 ae b9
       0.13954307 0.1793689 -0.32942834 -0.00033193303
000030 e6 bf 26 3e f1 7d 89 be c3 bc 1d 3e c6 fb 2b be
       0.16284141 -0.26853898 0.15404038 -0.16795263
000040 cf 2b 17 3e 95 09 0f bd 95 5b b5 3d b6 7d 0e 3e
       0.14762805 -0.034921248 0.088553585 0.13915142
000050 03 62 16 be 7f 1b 26 3e a3 03 32 3e 39 6e 0d 3e
       -0.14685826 0.16221426 0.173842 0.13811578
000060 61 bb c8 3d 09 09 01 be 21 34 30 bc f9 d4 38 3e
       0.09801365 -0.12601103 -0.010754616 0.18049993
000070 1f 3e 28 be ed 6e d3 be 37 4f 71 3c fd 9e 24 3e
       -0.16429947 -0.41295567 0.014728359 0.16076274
000080 7f 2b 06 bd a1 ef 12 bd 0a 50 94 bc a4 0e 65 3e
       -0.032756325 -0.03587306 -0.018104572 0.22368866
000090 2a 74 2a be 6d 2e 48 bc 58 3f 9e 3c 37 58 05 3e
       -0.16645876 -0.0122181 0.019317314 0.13021933
0000a0 7f f4 e4 bd 4f b8 1d be b9 3e 27 bf 9a ab f7 3d
       -0.111794464 -0.1540234 -0.6533008 0.12093277
0000b0 24 f1 b3 3d 76 54 96 be 9e 2d 6e 3d 68 e0 42 be
       0.08786228 -0.29361314 0.058148973 -0.19030917
0000c0 46 17 f4 3d 36 72 fe 3d 98 82 c2 ba 34 6a 0a 3e
       0.119185016 0.12424128 -0.0014839945 0.13517076
0000d0 27 b1 00 3e fd 3f eb be 80 cc 69 be ad a8 dc bc
       0.12567578 -0.45947257 -0.22831917 -0.0269359
0000e0 66 48 c0 bd 2f 9f dd 3d 2e 24 8a bb e6 92 49 bf
       -0.09388809 0.108213775 -0.0042157387 -0.78739774
0000f0 a9 21 15 ba ed 25 b2 3d de 2c 34 be 98 4b 06 3e
       -0.00056889147 0.0869864 -0.1759524 0.13114774
000100 e1 49 84 be 33 fa ea 3b 53 f0 4d 3e 71 33 a2 bd
       -0.25837615 0.0071709394 0.20111208 -0.07919968
000110 e5 6b 02 3e e8 6d 02 3e 34 c1 bd 3d 5d df 8d be
       0.12736471 0.12737238 0.09265366 -0.27709475
000120 0f 6b 52 3e 69 db c1 3d ba b1 b9 3c 7a 39 3d bf
       0.20548652 0.09465677 0.022667754 -0.7391583
000130 27 c8 0c 3c c4 b5 be be 77 12 1e 3d 1d ab d7 3e
       0.008592642 -0.3724805 0.03859183 0.42122737
000140 27 07 1a 3e 14 38 76 be bd 57 8e bb 32 26 d6 bb
       0.15041791 -0.2404483 -0.0043439553 -0.006535315
000150 d6 89 80 3e 91 4e 4a 3e be 49 26 bd d9 1b 19 3e
       0.2510516 0.19756533 -0.04059767 0.1495203
000160 c1 fd 24 3e 22 80 1d 3e d8 88 e4 3e ae fe dd 3d
       0.16112424 0.1538091 0.44635653 0.10839592
000170 ab 83 1f bd 4d 2f 21 bd 29 f5 4e 3e 8b 94 6d be
       -0.038943928 -0.03935175 0.20210709 -0.23201196
000180 cf d7 25 3e fd 76 65 bc ef 1b ea 3d 15 a3 17 3e
       0.16195606 -0.01400542 0.11431109 0.14808305
000190 28 76 3e bd ea 9e 26 bf d5 20 30 3e 16 84 30 3e
       -0.0464994 -0.65086234 0.17200024 0.17237887
0001a0 3f 1b 7f bd 57 de f6 3d 7c 05 42 3e ec 22 9c bb
       -0.062281843 0.12054127 0.18947405 -0.004764905
0001b0 fc 58 04 bd 7c 98 80 3d cb 4e 5a bd 47 0f 5f 3c
       -0.032311425 0.06279084 -0.0532978 0.013614482
0001c0 8f a1 b7 be c0 44 4e be ac 56 26 3c 08 f4 47 bd
       -0.35865447 -0.20143414 0.0101525 -0.04881671
0001d0 3c 4b f2 be 14 7c c6 bc 58 2b 6b 3e d0 bf e1 be
       -0.47323024 -0.024229087 0.22965753 -0.44091654
0001e0 16 eb 20 3e c8 f7 f4 3d e9 14 0e bf 4a cf 19 3e
       0.15714678 0.11961323 -0.55500656 0.15020481
0001f0 f3 26 28 3e 9f ca 51 3a 8b ed 22 3e 9a 4c 41 3e
       0.16421108 0.000800291 0.15910928 0.18876877
000200 47 a3 dc be 01 59 0f bd 2a 57 0b 3d 00 50 60 3b
       -0.4309332 -0.03499699 0.034018673 0.0034227371
000210 ee 45 94 be 0c 27 13 3e bb b6 e9 3d b8 4e 10 3e
       -0.28959602 0.14370364 0.11411806 0.14092529
000220 be 74 ab bd 3f 60 e0 3d ef 21 26 bd 10 e5 53 be
       -0.08371876 0.109558575 -0.040559705 -0.20692849
000230 14 88 44 3c 53 6c 87 3d 1f 40 04 bd 83 a1 90 be
       0.011995334 0.06612458 -0.032287713 -0.28248224
000240 3c 69 3a 3e 76 5e 7a be 33 39 45 3c af 2b 41 3e
       0.18204206 -0.24450096 0.012037563 0.1886432
000250 f8 cb c6 3d 75 e4 a9 be 99 75 35 bd 91 1e 15 be
       0.09706873 -0.3318211 -0.044301603 -0.14562441
000260 ee 8b 0b be 9e 89 05 3e 6b bb 25 3e 61 f7 01 bd
       -0.13627598 0.13040778 0.16184776 -0.03173006
000270 14 ca 06 3e 3d 40 0f 3e af 3e 18 3d 09 43 e0 bc
       0.13163024 0.13989349 0.037169155 -0.027375715
000280 20 6e 0a bf 0a a4 ea be c8 bb d0 3d 64 6e 59 be
       -0.5407429 -0.45828277 0.101920664 -0.21233517
000290 d5 7c 42 bd 72 ab 48 3d 4f 6c e6 bc 68 cc 1e 3c
       -0.04748233 0.048991628 -0.028127817 0.009692289
0002a0 be 95 08 3e 50 11 30 3e 54 96 5b be f7 76 39 3e
       0.13338372 0.17194104 -0.21444064 0.18111788
0002b0 df 76 02 bd 75 c7 e3 be 74 48 e7 3e a5 eb 2b 3e
       -0.031851646 -0.4448811 0.45172465 0.1678911
0002c0 3c d7 ae be 9d 0a 01 3e ef d2 27 3e 54 79 11 bf
       -0.34148586 0.12601705 0.16389059 -0.5682576
0002d0 be a6 94 bc 64 cb 4c bc 07 54 19 bf 1a 55 7a 3d
       -0.018145915 -0.012499664 -0.5989384 0.061116315
0002e0 c4 02 e5 bd a3 1a 07 3e 22 3f aa 3d 50 7d 0f 3d
       -0.11182168 0.13193755 0.08312823 0.035031617
0002f0 b1 2b 21 3e 9d 54 45 3e f1 8d 09 3e 5b 43 40 3e
       0.15739323 0.19270559 0.13433053 0.18775694
000300 ba 74 27 bd a8 c5 b4 3d fc 69 04 bd 7f b4 31 be
       -0.040882803 0.088267624 -0.032327637 -0.1735401
000310 7e e0 0b bf b0 51 55 3e d8 3f 93 bc 70 bd ff be
       -0.5463942 0.20831943 -0.017974779 -0.49949217
000320 8f 3d 2e 3e 98 c5 fc bd 98 a3 19 3d c8 98 27 3e
       0.1701567 -0.123423755 0.03750953 0.16366875
000330 a3 d8 15 be 4a 74 41 3e 5f 7e 3d bd b2 47 33 3e
       -0.14633422 0.18892017 -0.046263095 0.17507818
000340 99 0d 16 bd 25 b5 ef bc 58 15 ef 3d 20 39 47 3e
       -0.03663406 -0.029261181 0.11673993 0.19455385
000350 c7 a2 22 3e 60 e5 e0 bb b1 e9 6b bc 04 45 d9 3d
       0.15882407 -0.006863281 -0.014398978 0.10608867
000360 5f 67 74 3e 36 68 14 3e 68 03 19 3e 3f ab a3 bb
       0.23867558 0.14492878 0.14942706 -0.0049947794
000370 9b 5d d5 be 4f ba ea 3d bf 22 10 3d 7e 94 71 3e
       -0.41672978 0.11461317 0.035189386 0.23591802
000380 38 80 2f bc 61 6f 22 3e 2a 2e 5c 3c 65 28 e2 3c
       -0.010711722 0.158628 0.013438741 0.027607152
000390 83 fe 06 3e 1e 86 3b 3e ba fe f7 3d 0f 24 2b be
       0.13183026 0.1831288 0.12109132 -0.16712974
0003a0 a2 c7 9f be 17 d4 dc 3c 5c 65 3d bd f1 27 12 3d
       -0.31206995 0.026956601 -0.046239242 0.035682622
0003b0 4c 49 3f bf a0 5b fe bd 07 7d e8 3d dc 35 09 3e
       -0.7472122 -0.1241982 0.11351972 0.13399452
0003c0 a5 7e 3f 3e 57 69 14 3e 31 5d 84 be 10 1b 24 bf
       0.18700655 0.14493309 -0.2585235 -0.64103794
0003d0 24 9a 0c 3e 39 96 df 3d c2 15 05 3e ae bd dd 3d
       0.13730675 0.109173246 0.12996581 0.10827194
0003e0 3d a0 51 bd 30 56 c6 bc ea 11 38 bd 33 ad 86 3e
       -0.051178206 -0.02421102 -0.04493896 0.26304016
0003f0 f4 78 2c 3e 00 b0 1f ba 8b df 24 be ad 6b d4 3d
       0.16843015 -0.00060915947 -0.161009 0.103721

fc3.bias f4 [2]
000000 b6 08 95 3c 68 75 a2 3c
       0.01819263 0.019831374
