reinforcement_learning/models_cartpole/cartpole_ne1000_lr0.001dqn_agent.pt (torch, 654679 bytes, 6 tensors)

fc1.weight f4 [400, 4]
00000000: 526e 1c3e d442 2d3e c930 0c3f f9d9 a3be
00000010: 92e3 c93d cfe3 393e e5d9 a23e ea00 ac3d
00000020: 575a 143f 6ba5 adbe 8ca7 0dbd efce 44be
00000030: ca08 e8be dff5 7cbd 908a 8d3e 4246 c0bd
00000040: 340d d0be fb55 7fbe 1adc e9be 19ae 8ebe
00000050: 9337 653e d819 80bd bec5 8dbf a352 d4bd
00000060: 2d86 a8be d5d9 aebe 78fb 36bd 9d59 02be
00000070: fdb9 02bf 7b03 c13e e91a e33d 7854 593e
00000080: 343a d43e ccec 14bd 2ab9 d73e aa6a 90bc
00000090: 35e6 853e ea4a 2f3e 77da df3e 1d10 1ebe
000000a0: 7042 bfbe 8f38 3f3e e343 1b3f abc7 4d3e
000000b0: 1c02 7c3d 8757 f4bd 6fe6 0c3f 483a cabd
000000c0: 6b3c 2dbf ecbf fabe 2ab0 5b3e 5ebd b8be
000000d0: 1296 c7bd 4dac 48be ae4e 47be 23a5 75be
000000e0: 467a be3e a6fe d838 c9f0 4ebf e92c 783e
000000f0: be3c d3be c6d2 2e3e 1872 c93e 5a87 613e
00000100: 5bf4 883c 9479 39be ae80 293f 5cc8 e83c
00000110: dccb f0be 4285 433e bd49 3cbc a733 413e
00000120: 8a55 80bf 13bc 6fbb a27b 2bbe b164 143e
00000130: 4261 a0bd 6939 17bd ebfb a93d 61f2 c73d
00000140: eb8e fb3e 7f8a 06bd 0832 2f3f 8575 d1bd
00000150: f7c3 a13c 8190 a5be 43d9 46be 7cd8 edbd
00000160: 3471 c03d 512f 86be 6992 23bf 761d 5fbd
00000170: 827b a4bd fcbc b03e 2d76 193f 87d8 56bd
00000180: ddfd 9abe c08e d3bd 413e 3cbf 5209 f9bd
00000190: 2a92 e4be c944 66be f645 12bf ad19 b1be
000001a0: f0cd 413e 89df 333e c577 0bbf efa5 2e3e
000001b0: 5b78 7ebe 9b21 be3e 0f9c 8e3f b026 813e
000001c0: 2b03 2c3e ec9f 4b3c ed88 3bbd 216c 273e
000001d0: 1795 c93e f846 26be 15db 7cbf 1e98 7c3e
000001e0: f45e 25be e025 c3bc fe6d ce3e 8090 44bd
000001f0: db35 49be a6c7 8dbe 86bc 67bf c12e 4cbe
00000200: fd85 52bf c034 4cbe 97f9 bf3e 5a6a 5cbe
00000210: 2c00 32be 0636 f3be 8545 46bf 3723 d7be
00000220: 34ac fe3d 7230 993d 20ee 373f 8d3a 42bd
00000230: 262d f73d 2bf2 4abe b21b cb3e 4a9f f7bd
00000240: a077 083e 0278 fabe 4d01 5d3e 713b b5be
00000250: 9803 bfbe 72de 3bbd 93e2 60bf 57b1 b3bd
00000260: 7438 743e 2515 a83e 4010 fabe 9977 933e
00000270: 39a4 ccbe 4791 453e 4aaa 5d3f 71c6 313e
00000280: b67b cb3d 0c7a 853b b0c2 fcbe fe24 19bc
00000290: 3e67 fcbe db5e 8c3e e88a 84be f33f 4e3e
000002a0: e4ec a2be a4af b63e 00c6 c4be a7cf 513e
000002b0: 4eef b2be 2b57 68be 2e18 54be aeb9 f9bd
000002c0: a22b b43c 42b5 0dbd f029 80bf d71a cdbc
000002d0: 6dce af3e fc9a 32bd a8cc aa3d a858 37be
000002e0: 8208 883e 6f1e 69be a050 443e 3f10 61bd
000002f0: 8e58 b5be f276 e03d d291 fcbe a543 8abd
00000300: e2ad 863e b15a f8bd 3607 29bf 17cb 5f3e
00000310: 2824 03bf b06d b43e 5601 023f 34e1 e63d
00000320: 1eba 193e 1a76 4c3e e922 07bf 00b8 e93e
00000330: f5f5 5bbe 90d8 513d 9dbd b93e 19c6 a13d
00000340: c017 573e f3b1 7dbd 8308 2b3e 1d4c 76be
00000350: e66e acbe bed6 18be 62c1 f5be 38e4 ed3c
00000360: 1bc3 50be 61e8 febe 37b4 6dbf 5324 52be
00000370: d867 ac3d 4c8d abbe 603b 51bd 30cf 4fbe
00000380: 3b6c 9d3e 0984 143f b1b8 763e 7c66 723e
00000390: 2efa 2b3d b0dc 14bf 953b 75bf 2711 bebe
000003a0: 638c 23be d4f4 1d3e 2e7c 7cbf 5966 89bb
000003b0: 6156 ec3d dbaa cebd 6079 cebe 3b38 4bbd
000003c0: 611a 983d f422 97be d68e c83e 6e81 083e
000003d0: a23e 853e 92c2 893e bce5 b2be e807 3e3e
000003e0: 874b 77be 8cd1 91be 6e53 c9be 63d2 3bbe
000003f0: 24d9 0f3f 4421 1a3f 059e b8be 11b3 ec3e
0.15276459 0.16920024 0.5476194 -0.32002237 0.09857859 0.18153308 0.31806865 0.08398612
0.5795035 -0.33915266 -0.034583613 -0.19219564 -0.45319206 -0.06175792 0.27644777 -0.093884006
-0.40635073 -0.24935143 -0.45675737 -0.278672 0.22384481 -0.06254929 -1.1075971 -0.10367324
-0.32914868 -0.34150568 -0.044673413 -0.12729497 -0.51065046 0.37697968 0.11089117 0.21223629
0.41450655 -0.03635864 0.42133456 -0.017628986 0.26152197 0.17118421 0.43721363 -0.15435834
-0.37355375 0.18673919 0.6065046 0.20095699 0.06152545 -0.11930757 0.55039114 -0.098743975
-0.67670316 -0.4897455 0.2145392 -0.36081976 -0.097454205 -0.19596978 -0.19463608 -0.23988776
0.37202662 0.000103471146 -0.8083616 0.24235882 -0.4125728 0.17072591 0.3934486 0.22024289
0.01671808 -0.18112785 0.66211975 0.028415851 -0.47030532 0.19093803 -0.01149219 0.1886736
-1.0026104 -0.0036580607 -0.16746381 0.14491536 -0.078310505 -0.036919985 0.08300003 0.09763027
0.49132475 -0.032846924 0.68435717 -0.10227493 0.019746764 -0.3233681 -0.19418816 -0.11613557
0.09396592 -0.26207975 -0.6389528 -0.054471456 -0.0803137 0.34519184 0.59945947 -0.05245259
-0.30271807 -0.10329962 -0.7353249 -0.12159981 -0.44642764 -0.22487177 -0.57138 -0.34589902
0.18926215 0.1756574 -0.5447963 0.17055486 -0.248506 0.37135014 1.1141375 0.2522483
0.16798083 0.012428265 -0.04578488 0.16349842 0.3937156 -0.1623801 -0.9877179 0.24667403
-0.16149503 -0.023821771 0.40318292 -0.04798937 -0.1964945 -0.27691382 -0.9052204 -0.1993971
-0.822357 -0.19941998 0.3749511 -0.21524945 -0.17382878 -0.47502154 -0.7744983 -0.42019054
0.12435189 0.07479943 0.71847725 -0.04741912 0.12069158 -0.19818942 0.39669567 -0.12090929
0.13326883 -0.48919684 0.21582527 -0.35396913 -0.3730743 -0.045866437 -0.87845725 -0.08774059
0.2384966 0.32828632 -0.48840523 0.28802183 -0.39969042 0.192937 0.86587965 0.17360856
0.09935705 0.004073387 -0.49367285 -0.0093471985 -0.49297518 0.2741612 -0.25887227 0.20141582
-0.31821358 0.35680878 -0.38432312 0.2048937 -0.349482 -0.22689502 -0.20712349 -0.12193619
0.021993462 -0.03459669 -1.0012798 -0.025037212 0.34337178 -0.043604836 0.08339816 -0.17904913
0.2656899 -0.22765516 0.19171381 -0.054947134 -0.35419124 0.10960187 -0.49330002 -0.067511834
0.26304537 -0.12126673 -0.6602663 0.21854816 -0.51227045 0.35239935 0.5078329 0.11273423
0.15012404 0.19966927 -0.52787644 0.45648193 -0.21480544 0.05123192 0.36277476 0.07899112
0.21005154 -0.061937284 0.16702466 -0.24052472 -0.3367836 -0.14925668 -0.47999102 0.029039487
-0.20386927 -0.49786666 -0.9285311 -0.20521669 0.08418244 -0.33506238 -0.051082015 -0.2029388
0.30746636 0.5801397 0.24093892 0.23671907 0.041986637 -0.5814924 -0.9579404 -0.3712246
-0.15971522 0.15425426 -0.98626983 -0.004193109 0.11539913 -0.10091182 -0.40326977 -0.049614172
0.074269064 -0.29518855 0.39171475 0.13330624 0.26024348 0.26906258 -0.34940898 0.18557703
-0.24149905 -0.28480184 -0.39321464 -0.18341975 0.56190705 0.6020701 -0.3605806 0.46230367

fc1.bias f4 [400]
00000000: 3555 8c3e 1662 84bd bf5a 8cbd faa3 28be
00000010: 94eb e3be 48c0 dfbe 9c8b 9cbe 8578 b7bd
00000020: ccf5 8c3d bda3 573e 326e ccbe 17ef ae3e
00000030: 6193 08bd c6d7 d4be 1938 5f3e 2acc f9be
00000040: 20aa 6cbe a0a3 423e ba96 4abe 19a5 07bf
00000050: efc1 8cbe 62bd 75be 8ffd 3cbe 18c8 783d
00000060: f415 403e e51e 91be 22cb 8f3e 83da 99be
00000070: dbb1 aa3e e2aa 83be 942a 6ebe 47e1 51be
00000080: aae6 76be 8ce5 20bf 392a 7cbe c19b 6ebe
00000090: dcfa 84bd 23e4 8dbe ad31 dbbe 90f8 99be
000000a0: bd37 50be c4e9 4dbe 536f 4d3e f1ad 3fbb
000000b0: b6b5 4bbe fe10 21bf 33cd a33e 536b dcbe
000000c0: 68e8 24be 6f91 b7bd c079 a7be fa2b a7be
000000d0: e4c4 33bf 8302 9f3e 82cd bd3d 662c ffbe
000000e0: 4cd5 9bbe 177a 98be 4472 f0be 5c22 523e
000000f0: 9601 5cbe 2629 f4be 56e5 e8bd 2538 82be
00000100: a3bd 56be 62aa 57be 2f8f d5be 3020 dfbd
00000110: 9c67 9abe 72ea afbe 37db bebe 535c 67be
00000120: 2d06 ecbe c0c2 973e 528f 6c3e a64e ffbe
00000130: 7f4b 9dbe f932 b43d 8666 d23e 755a 5e3e
00000140: a3e4 0a3e 8220 0abf 25f7 60be a64a adbe
00000150: 9278 dcbe b049 f7be 3087 67be a876 10bf
00000160: 8092 eebd 6e0b 0fbf 6c7b 1dbf ef61 93bc
00000170: 605a 15bf 3199 b0be cd06 bb3e b6f0 39be
00000180: ca7a b23e d403 b5be c16e 933e 46a4 b2be
00000190: 2700 f3bd 901d dfbd 0fcd 893e eb17 553e
000001a0: 6760 d33d 5212 053e 96b3 303e 67dc 15be
000001b0: c32d a8be a645 08be 1ef6 953e 68ff bcbe
000001c0: 4366 89be 4048 c2bd a811 f0bb 7b2f 873d
000001d0: 478c 01bf 5832 aebe 2542 d4bd 3851 b03e
000001e0: 7cf7 8fbe 14eb cf3e 359d 2a3d ae22 2abe
000001f0: 9e79 b5be 6365 8a3e 7d30 85be fcf6 de3e
00000200: e021 b23d 869f 533e 48fe 82be 2bbb cb3e
00000210: 3aed cbbe 5073 7fbe f90a 0ebe 5549 a0be
00000220: da54 1bbf 4386 a6be 0925 b4be 15ad 2cbf
00000230: 8b86 943e 8e04 2bbe 2d71 6cbe 14ab ecbe
00000240: d12d 11bf 883c 9f3d c094 dabe 83ca f5bd
00000250: 9441 6abe 2f15 8cbe f138 3f3e b5e0 95be
00000260: 99d9 fb3d e0a3 35be 25c6 82be 1463 15be
00000270: 6517 f9be e041 523e 7111 c93d f9f7 9c3e
00000280: eeb1 1e3d eb79 adbe e011 a2be 2c05 03bf
00000290: e26d 36be 2a01 22be 5043 ad3e 0b3d 82bb
000002a0: 138e a63e 38c8 36bd fa0c e4be 0556 55be
000002b0: 0856 c7be a944 093e 8231 f2bd 2d55 91be
000002c0: e95b 523e afa8 ab3e 3990 bfbe 2fbb 30be
000002d0: dd4e 453e cf05 71be 39d7 99be 19df 08bf
000002e0: 101c abbe 2e87 82be 7426 66be e7d4 ba3e
000002f0: 645e 3abd 652a 28bf 5e7c 2ebe 2f54 c6be
00000300: 303d 9c3e f2ba fdbe 5399 c13d c13d 57be
00000310: 677f 11be fe2d f23e 7630 e6be d57b 993e
00000320: 4f0c e23d ec30 0dbf 0a4f 24be 1afa 26be
00000330: 5bc2 42be f09c 613d aac5 b43e 4ff0 9cbe
00000340: 5d23 06bf 1e93 f6bc 753e 06bd 0176 65be
00000350: 8e1f f43d 8c9c 803e 535a 343e 3272 f1bd
00000360: e031 acbe d5d6 cebe 9cce d4bd ad1c d3be
00000370: 947a 853e 43a8 c0bb 64ea de3d 97a6 ccbd
00000380: 192c 82be 16c7 19bf 7188 20be 9c51 debe
00000390: 6319 b23e 09de efbe ce93 a63e ea73 fabe
000003a0: 6bdf 02bf ccc7 bbbe c470 c1be 7041 de3e
000003b0: 3967 d5be 1ea8 50be 0e1b e1bc e6a9 003e
000003c0: d482 31be 1215 973e 0ad0 1dbc d593 16bf
000003d0: 82f0 82be e082 72bc e037 bebe 4e26 00be
000003e0: 2461 8cbe b72a fabe ce46 e3bd e8d5 633e
000003f0: 4c5a e83d fa58 cabd a170 1e3e 1232 cbbe
0.27408758 -0.06464021 -0.06853246 -0.16468802 -0.4451567 -0.43701386 -0.30575264 -0.08958534
0.068828195 0.21058555 -0.39927822 0.34166786 -0.033343676 -0.41570872 0.21798743 -0.48788577
-0.23111773 0.1900773 -0.1978406 -0.52986294 -0.2749171 -0.23998025 -0.184561 0.0607377
0.18758374 -0.28343883 0.28084666 -0.30049524 0.33338818 -0.2571631 -0.2325843 -0.20496093
-0.24111429 -0.6285026 -0.24625482 -0.23301603 -0.0649316 -0.27713117 -0.42811337 -0.3007245
-0.20333762 -0.20108706 0.20061998 -0.0029247964 -0.19893536 -0.62916553 0.31992492 -0.43050632
-0.16104281 -0.08963286 -0.32710075 -0.3265074 -0.70222306 0.31056604 0.09267713 -0.4983856
-0.3043617 -0.29780647 -0.46962178 0.2052092 -0.2148498 -0.47687644 -0.11371867 -0.2543346
-0.20970778 -0.2106109 -0.41710803 -0.10894811 -0.30157173 -0.34358555 -0.37276623 -0.22593813
-0.46098462 0.2964077 0.23101547 -0.49864691 -0.3072166 0.08798785 0.41093844 0.21714194
0.1356378 -0.53955853 -0.21969278 -0.33846015 -0.43060738 -0.48298407 -0.22610164 -0.56431055
-0.116490364 -0.55876815 -0.6151645 -0.017991034 -0.58341026 -0.34491876 0.36528626 -0.1815823
0.34859306 -0.35354483 0.28795436 -0.34890956 -0.118652634 -0.108943105 0.2691426 0.20809905
0.10321122 0.1299527 0.17256007 -0.14634858 -0.32847413 -0.13307819 0.29289335 -0.3691361
-0.26835832 -0.09486437 -0.0073263235 0.06600853 -0.5060467 -0.34022784 -0.103641786 0.34436965
-0.28118503 0.40609038 0.04165383 -0.16614792 -0.3544435 0.27030477 -0.26013556 0.4354781
0.086978674 0.20666322 -0.25584626 0.39791235 -0.39829427 -0.24946332 -0.13871373 -0.31305948
-0.6067635 -0.3252431 -0.35184506 -0.674516 0.29008898 -0.16700956 -0.23090048 -0.46224272
-0.56710535 0.07775217 -0.42691612 -0.12001517 -0.22876579 -0.27359912 0.18674065 -0.29273
0.12297363 -0.17738295 -0.25541797 -0.14588577 -0.4865066 0.20532942 0.0981778 0.30657938
0.038743906 -0.3388208 -0.31654263 -0.51179767 -0.17815354 -0.15820757 0.33840418 -0.003974562
0.3253027 -0.044624537 -0.4454115 -0.20833595 -0.38932824 0.13405098 -0.11825849 -0.28385296
0.20542873 0.33527133 -0.3741472 -0.17258905 0.19268365 -0.23537372 -0.30047014 -0.5346542
-0.33419847 -0.2549376 -0.22475606 0.36490557 -0.045500174 -0.6568969 -0.1703963 -0.38736102
0.30515432 -0.4955669 0.094530724 -0.21019651 -0.14208756 0.47300714 -0.44958848 0.2997729
0.11037504 -0.55152774 -0.16045776 -0.16306344 -0.19019453 0.055081308 0.35307056 -0.3065209
-0.5239771 -0.030099448 -0.032774407 -0.22408296 0.11920081 0.25119436 0.17612581 -0.11789359
-0.33631802 -0.4039828 -0.1039097 -0.41232815 0.26070082 -0.0058794334 0.1088455 -0.09992712
-0.2542427 -0.60069406 -0.15677048 -0.43421638 0.34784994 -0.46849087 0.3253464 -0.4891656
-0.5112216 -0.3667587 -0.37781346 0.434093 -0.41680315 -0.20376632 -0.027478721 0.12564811
-0.17335063 0.29508263 -0.00963212 -0.58819324 -0.25574118 -0.014801711 -0.37152004 -0.12514612
-0.27417862 -0.48860714 -0.11097489 0.22249568 0.11345348 -0.09880252 0.15472652 -0.39686638

fc2.weight f4 [400, 400]
00000000: a097 8ebd 1951 75bd 4dee 72bc 00b0 33bc
00000010: 3b00 263d c3c3 28bd cb35 433d da2e f3bc
00000020: 4ae3 063c 1ecc 4cbd 001b b03c eb5c a2bd
00000030: f619 6e3c b3b4 19bc 0085 6d3b 0d71 5fbc
00000040: 4006 1fbc 5f31 19bd 67a1 69bb b007 e1bc
00000050: ffbe 2a3d 00dc a8bc 1a0c 273b d5ca 8abd
00000060: bea5 8dbd 402e 81bd 5ff2 98bd 970f d4bc
00000070: 334a c4bc 40a4 433c 2f65 3d3d 5ca7 85bd
00000080: 73f5 e8bb 2701 febc ed06 b43c a7c1 183d
00000090: a892 ac3b e0a7 ecbc 80c1 e6bb 9a0d 71bc
000000a0: 472e e03c 10b8 cb3c 8930 85bc 5df4 84bd
000000b0: 7358 a9bc b3ca 133c 099e 9dbd 689c 1fbd
000000c0: 8d00 41bd 60ba 8f3c ad52 de3c 2032 75bc
000000d0: bba4 caba 70dc 1cbd 7436 61bb 9a23 123b
000000e0: 0a4e 253d f476 a03c a790 25bc 54b1 853b
000000f0: 3071 e73c 1378 1cbc 96ff f2bc 1ac5 c73c
00000100: cf35 d63a d083 1c3d 8219 6bbb 178f 0ebd
00000110: 7781 c23c 5a08 cb3b fd64 0abd f343 b8bb
00000120: 1a7d 173c 7048 273c 8682 4f3c 4dc5 4abc
00000130: 3556 2ebd 91f2 3ebd d651 92bd ffb3 34bd
00000140: f3e1 10bc 4a6d 043d cd1c 6c3b 9a26 fbbb
00000150: 72e5 28bd 080d 0abd a71d 9ebc 6dcd 41bc
00000160: 9a0e d93b a7a6 633c 65bf 2d3d 60dd 1bbc
00000170: bf7f 41bd 335b fd39 8627 98bc 53c0 313d
00000180: c6de f9bc 136d f3bc ee1d 2f3c d078 f8bc
00000190: 4340 a03c 0093 8d3a 0227 93bd 0fda 04bd
000001a0: fc4d 29bc 5995 e2bc 5551 8ebd d8be 403c
000001b0: ddac ffbc 6761 54bc 27ae 87bb c7f3 13bd
000001c0: 98e4 083d 2cba 603b 89d9 a1bc 2e1a 89bd
000001d0: f3f4 8ebd f0e2 a0bc 6858 39bd 870d 3fbd
000001e0: 8bc9 39bc baa2 1dbc 22e8 6abc ad5c 10bd
000001f0: cd7a f93a de12 5f3c dbbd 3b3d 3f28 8a3c
00000200: eb49 81bd e0d4 45bd 8759 87bd 7546 75bd
00000210: 9727 8c3c 7374 d8bb 6d3c 383c 8204 8a3b
00000220: ad38 19bc c727 72bc cf59 69bb 1039 273d
00000230: 1387 523c 3edb 75bd 6a87 a2bd 6784 3c3d
00000240: d37b 6c3c 4d46 cdbc 3a0b 27bc 3af9 693c
00000250: 15a2 18bd 33ee bd3b 36ab 1c3b eaf6 46bd
00000260: 3b0a 12bd 0788 d33c 6337 05bc e7c5 c7bb
00000270: ff75 4c3d ba0f 19bd 9602 a1bc c071 a3bd
00000280: 4b93 33bc 735c 4dbc 8854 4fbb 6a33 f9bc
00000290: f788 a43c 1427 803c 2983 05bd f332 0fbc
000002a0: d491 00bd 33a7 05bc 7343 bf3b 7d93 1cbd
000002b0: 8079 cebc 89ad 763c 9ac3 a1bb fd03 833c
000002c0: 4f96 e5bc a6e1 973b 3301 ac3a 5b77 083d
000002d0: f500 0bbd e361 ed3c cd58 06bc 3f05 2c3d
000002e0: 07df 123c c8cd 14bd 2deb 193d 9562 6d3c
000002f0: 334f 6ebc 47a5 493c 5b11 f8bc 98bf 313d
00000300: 7fe0 7dbc 6a8f 25bd 937e 73bb 0ae9 9c3c
00000310: 9da5 9ebd 0b6e 4abd 1043 1f3d 1e9a bbbc
00000320: e257 e5bc 4313 043d 639d 8f3c f3a4 fdbc
00000330: 0575 4a3d 3817 e3bc 02b6 19bd 2df2 0c3d
00000340: a07a af3c 5916 5d3c d6eb 96bd e316 42bd
00000350: 61d9 7ebd e280 86bc f30e 51bc 805e 59bc
00000360: f0be edbc e04d 9bbd bd3d 26bd d3c3 483c
00000370: f28c 76bd 8c98 c43b a705 63bd fd08 86bd
00000380: 1a60 cdbb 8b98 0dbd 135b 253c 2d22 d43c
00000390: 06ab c7bb 9a26 89ba 782d 04bd 537f 99bc
000003a0: 4d18 dc3c c7ae 843c 8f90 1a3d 25f8 1dbd
000003b0: 703d 29bd db50 0cbd b368 42bc 8178 8ebd
000003c0: a080 1fbc 361a a0bd 7bc3 4fbd 7732 44bd
000003d0: 72e8 57bd a8e5 2bbd 1a56 93bc 0d5a 29bc
000003e0: d038 923c 1069 2cbd 37d9 d1bc 9489 a6bd
000003f0: 5e04 42bd 4c0b 5cbd e60a 61bd 2a0c 8ebc
-0.06962514 -0.059891794 -0.014827323 -0.010967255 0.040527564 -0.041202318 0.047658723 -0.029685427
0.008232901 -0.04999935 0.02149725 -0.07927879 0.014532557 -0.009381461 0.0036242604 -0.013637793
-0.00970608 -0.0374006 -0.0035649182 -0.027469486 0.041686054 -0.020612717 0.002548939 -0.067769684
-0.069163784 -0.063076496 -0.074681036 -0.02588634 -0.023961162 0.011941016 0.046239074 -0.06526062
-0.007109338 -0.031006409 0.021975959 0.037294056 0.005266506 -0.028888643 -0.00704211 -0.0147127155
0.027365817 0.024868041 -0.016258495 -0.06491921 -0.020672059 0.009020495 -0.076961584 -0.03896752
-0.047119666 0.017544925 0.027139032 -0.014965564 -0.001546047 -0.038296163 -0.0034364732 0.0022299052
0.040357627 0.019587971 -0.010105289 0.004079977 0.028252214 -0.009550112 -0.029662888 0.024385978
0.001634294 0.038211644 -0.0035873358 -0.03480443 0.023743374 0.006196064 -0.033787716 -0.0056233346
0.009246135 0.010210142 0.012665397 -0.012376142 -0.042562682 -0.046618048 -0.07144515 -0.04411697
-0.008842933 0.03233079 0.0036027909 -0.007664514 -0.04123444 -0.033703834 -0.019301249 -0.0118287625
0.006624055 0.0138947135 0.042418856 -0.009513229 -0.04724097 0.0004832387 -0.018573534 0.043396305
-0.030501734 -0.029715097 0.010688288 -0.030331045 0.019561892 0.0010801256 -0.071851745 -0.03243452
-0.010333534 -0.027659105 -0.069491066 0.011764251 -0.031210357 -0.012962676 -0.0041406336 -0.036121156
0.03342113 0.0034290655 -0.01975705 -0.066944465 -0.06980314 -0.019639462 -0.045250326 -0.04664376
-0.0113395555 -0.009621317 -0.014337571 -0.035244633 0.001903379 0.013615338 0.045835357 0.016864894
-0.06312927 -0.048298717 -0.06608873 -0.059881646 0.017108722 -0.0066056787 0.011244875 0.004211963
-0.009351891 -0.0147799915 -0.0035606509 0.040825903 0.012849587 -0.06002354 -0.079359844 0.046024706
0.014433819 -0.025057936 -0.010195548 0.014280612 -0.03726395 0.005796218 0.002390576 -0.04857532
-0.035654288 0.025821699 -0.008130881 -0.00609659 0.049917217 -0.037368514 -0.019654553 -0.079806805
-0.01096041 -0.012534249 -0.0031636078 -0.030420024 0.020084841 0.015643634 -0.032595787 -0.008740175
-0.031389073 -0.008157539 0.005836898 -0.038226593 -0.02520442 0.015056022 -0.0049366476 0.015993113
-0.028025774 0.0046350537 0.0013122916 0.03331695 -0.03393646 0.02897734 -0.008199883 0.04199719
0.008964307 -0.03632906 0.037577797 0.014488836 -0.01454525 0.012307472 -0.030281713 0.04339561
-0.015495419 -0.040419973 -0.0037154302 0.01915409 -0.07746432 -0.04942135 0.038882315 -0.022900637
-0.027996007 0.032244932 0.017531103 -0.030962443 0.049428005 -0.027721033 -0.03752709 0.034410644
0.021420777 0.013494098 -0.07369201 -0.047385108 -0.062219027 -0.016418878 -0.012759912 -0.013267159
-0.02902171 -0.07583213 -0.040586222 0.012253719 -0.06019301 0.0059996303 -0.055425312 -0.06544683
-0.0062675597 -0.034569304 0.010092515 0.025895203 -0.0060933856 -0.0010463775 -0.032269925 -0.01873747
0.026867056 0.016196622 0.037735518 -0.038566727 -0.041318357 -0.034256797 -0.011865783 -0.06956578
-0.009735256 -0.07817499 -0.050723534 -0.04789969 -0.05271191 -0.041967064 -0.017985392 -0.010336411
0.017849356 -0.042092383 -0.025616271 -0.0813171 -0.047367446 -0.05372171 -0.054942034 -0.017339785

fc2.bias f4 [400]
00000000: f529 35bc ddcd cd3d ee9b ca3c dda6 4abb
00000010: 5d06 343d 67c5 173d f007 8339 0825 2d3c
00000020: c5c4 e0bd b3f9 4fbc 286b 6cbd ebad 37bc
00000030: 305e a43c 0101 15bd 335c 633b 5500 283c
00000040: 4aa2 35bd 66b5 59bd 4263 853d 4c55 aa3c
00000050: 5d87 7b3c 1dad 2abc 1727 863d c34b 31bd
00000060: 120f 29bd ee64 b13c e685 6d3d b9d2 1bbc
00000070: 2bea 983c d777 963b 995b 663c 1bb7 c23c
00000080: dcdd ddbc 0551 b33c fc1d bfb9 bc85 693d
00000090: 7b61 2abc bf46 cb3d dbd9 fbbc 4ebc 1f3d
000000a0: 92b4 58bb 9cf3 1f3c c81c 4cbd f902 35bd
000000b0: 39a7 bdbc a7f0 103d 29e4 bc3c e07f 16bd
000000c0: a4ae e53d 2874 433c 27d4 643d 6ff1 fc3c
000000d0: f70d 97bc 4d65 4b3d 2b77 d0bc e824 123d
000000e0: b667 b33c a1b0 81bc 9d07 163d 5bac a73d
000000f0: de79 44bd daaf cebb 1da9 823c 8c13 3cbc
00000100: 06bc 0bbd 80aa 39bb c7c3 f0bc b326 363d
00000110: c3db 9bbc e567 ec3b c379 313c 7fc2 c9bc
00000120: bf57 1e3d acde 8a3c 3e7d e7bc ed71 dcbc
00000130: e7df 143d 01b5 b8bc 597e 5ebc d807 343d
00000140: e48d 763c 85e2 823d d7f0 ed3d 6f36 023c
00000150: f36e ecbc 8381 39bd eea1 133d 6a8d 4bbd
00000160: 281a d23d 2de2 ccbc c9af 9ebc d0e0 843d
00000170: 7386 e4bb 91fc 3bbc 322f 0abd 270f 4abc
00000180: 8029 863c 0fdb c63b e0af 1c3c 583a bb3d
00000190: d99f b1bc c54a b83d 3bbb af3d e371 0539
000001a0: 15b6 16bd 7f34 2abd d121 df3c cd1a 223d
000001b0: 59db 4dbd 494b 4abd 4546 1fbd f2e4 343d
000001c0: 5db4 803c 832c a8bb e0dc cd3c 1974 01bd
000001d0: e714 ddbb ddf1 433d 57e2 1fbc 40cc 3dbd
000001e0: 706d 6fbd db57 73bd 5a72 b53d f05e 013d
000001f0: 389c cabd f094 1abd 25ad 253b 57c4 e53c
00000200: 4527 d63d f217 f4bb 7bf7 81bd b0af 8a3c
00000210: d67d 61bc afe9 65bc f756 95bb 1962 35bb
00000220: 4bb9 f4bc c99e 64bc 9f1b c43c d740 873c
00000230: d656 92bc f5ff 83bd f92a 2f3d 4e62 b83d
00000240: a4e6 423d b5d9 22bd 356c 0fbd cc86 603d
00000250: 115c a73d ee4f 3d3c b80f bb3d fb92 a13d
00000260: 882b b03d 5e62 323c b052 9c3d d81b 033d
00000270: 870d c33c 1640 343d c3cb 7f3d 3d35 b03c
00000280: 957b a73d 51a6 113c fc01 9e3d 39ed 55bd
00000290: fd9c 2a3d f30f 42bc 6b99 2cbd 9928 093d
000002a0: 0a1e 4a3c d920 91bc f5ce 13bd 82d3 c8bc
000002b0: f9c9 babc cfab 75bc 6996 08bd f84a 51bd
000002c0: 35b2 4bbd 6dce 2e3d a289 cc3c 50fc 643a
000002d0: addb 3bbd 8201 4a3d 469f 293d d371 1fbd
000002e0: 8b90 16bd f9d5 103d 743f 5fba b30b dfbc
000002f0: 5308 1d3d 36de 463d b588 cb3c 539c adbd
00000300: 7bda c03c 7c58 ef3c 6155 3fbd 1a26 773c
00000310: 69e0 863b d25c 22bd a73c 06bd e6f8 203d
00000320: 509a 0a3d ac63 453d 6691 643c bd0e f53c
00000330: 90b0 42bd 2ba5 013d fe6b 5fbd 0255 aa3b
00000340: 0372 9a3c 2ef3 283b 76d8 12bd 8ace 18bd
00000350: bf29 b23d 2152 12bc 6840 2ebb 9183 9ebc
00000360: 3fe6 0bbd e1a9 1a3d f01a 30bd a65a fd3c
00000370: eaf8 113d c28c 41bd 34bf 1b3c eb31 58bd
00000380: a5c6 27bc af08 c0bc 0c79 8cbb a094 dd3d
00000390: 7634 873c ab4f 633d 4978 dbbc c1d6 203c
000003a0: acfb 833d 7be0 80bc fa23 363d 0206 1b3c
000003b0: 8ab3 a03b 6992 d1bb 83cb b33d 765a 30bd
000003c0: 71a1 a4bd c057 aa3d 52f8 22bd d57e 57bd
000003d0: 45be 853d a1c6 9bbd c6db 7fbc 1d82 f43c
000003e0: 0f87 ca3d 1f23 b13c 6d0d 0c3d 262c b73d
000003f0: 4460 c03d bfc8 8c3d 8405 b8bc 925a 8fbc
-0.011057367 0.10049031 0.024732556 -0.0030922212 0.04395138 0.037053492 0.0002499218 0.010567911
-0.10975031 -0.01269381 -0.05771938 -0.011210899 0.020064443 -0.03637791 0.0034692406 0.010253985
-0.044344224 -0.05315151 0.065130726 0.020792626 0.015352097 -0.01041725 0.065504245 -0.043285143
-0.041274138 0.021654572 0.057989024 -0.009510689 0.018666347 0.0045919227 0.0140599245 0.023768952
-0.02708333 0.021889219 -0.000364527 0.057012305 -0.010399218 0.09925603 -0.03074353 0.03899794
-0.0033066613 0.009762671 -0.049832135 -0.044192288 -0.023151027 0.035385754 0.023058014 -0.036743045
0.11214951 0.011929549 0.055866387 0.030876843 -0.018439276 0.049657155 -0.025447449 0.035679728
0.02190004 -0.015831294 0.036628354 0.08187171 -0.047967784 -0.0063075842 0.01594978 -0.01147927
-0.03411486 -0.0028330386 -0.029390229 0.0444705 -0.019025689 0.0072145336 0.010832253 -0.024628876
0.0386579 0.016951881 -0.028257962 -0.026909793 0.036346342 -0.022547247 -0.013579928 0.043952793
0.015048478 0.063908614 0.11618202 0.007947548 -0.028861498 -0.045289528 0.0360431 -0.04969541
0.10258895 -0.025010193 -0.01937093 0.06488192 -0.0069740354 -0.011473791 -0.033736415 -0.012332714
0.01637721 0.0060685943 0.009563416 0.091419876 -0.021682667 0.08998636 0.08580633 0.00012726295
-0.03679474 -0.04155397 0.027237805 0.03957634 -0.050258014 -0.049388204 -0.038885374 0.04416365
0.015711004 -0.0051322593 0.025129735 -0.03160486 -0.0067468765 0.04783808 -0.0097585535 -0.046337366
-0.058453977 -0.059409957 0.088597015 0.03158468 -0.098930776 -0.037739694 0.0025280204 0.028047724
0.10456709 -0.0074491436 -0.06346031 0.016929477 -0.013762912 -0.014032765 -0.004557486 -0.002767688
-0.02987351 -0.013953873 0.023938952 0.01651041 -0.017863672 -0.06445304 0.04276559 0.09003125
0.047583237 -0.039758403 -0.035015304 0.054816052 0.08171857 0.011554701 0.091338575 0.078893624
0.08602053 0.01088771 0.07632959 0.032008976 0.023810161 0.04400643 0.06245018 0.021509761
0.08177868 0.008889751 0.07715222 -0.052228186 0.041653622 -0.011844623 -0.0421385 0.033485983
0.012336263 -0.017715858 -0.03608604 -0.024514917 -0.022801386 -0.014994576 -0.033346567 -0.051096886
-0.0497305 0.04267733 0.024967972 0.0008735107 -0.045863796 0.049317844 0.04141166 -0.03892691
-0.03675894 0.03536031 -0.000851623 -0.027227258 0.038338017 0.04855176 0.02484546 -0.08477082
0.02354168 0.029216997 -0.046712283 0.015084768 0.0041161072 -0.0396393 -0.032772686 0.039299868
0.03383857 0.048190758 0.013950681 0.029914254 -0.047531664 0.031651657 -0.05454635 0.005198122
0.018853193 0.0025779712 -0.035850964 -0.037306346 0.08699369 -0.008930714 -0.0026588682 -0.019349845
-0.034155127 0.037759665 -0.04299444 0.030927014 0.035637774 -0.047253378 0.009506036 -0.05278198
-0.010240232 -0.02344164 -0.004286891 0.108193636 0.016504508 0.0554959 -0.026790755 0.009816826
0.06444487 -0.01573204 0.044467904 0.009461882 0.004904215 -0.0063956273 0.08779051 -0.04305502
-0.08038605 0.08317518 -0.039787598 -0.05261119 0.06530432 -0.07606245 -0.015616363 0.0298472
0.09889042 0.021623192 0.03419249 0.089439675 0.09393361 0.06874227 -0.022463568 -0.017499242

fc3.weight f4 [2, 400]
00000000: e7a2 7cbc c972 053f 0098 57bb 14cf a1ba
00000010: cdc4 0939 a2c1 763e 5082 193c b05e b13c
00000020: 16bd a93e f0d6 80bc 69f9 083f 5a5d 283c
00000030: e13d da3e d21f a4ba 2af7 c03b e731 9f3c
00000040: 7866 b7bb 13f1 2d3b cd70 5b3d 1138 343c
00000050: cdb5 b03c 0068 71b9 fe25 513e 9772 d2bc
00000060: 8b97 27bc ea8f c9bb cf50 193e 0d2d 453c
00000070: face 753d b311 353b 3343 94b8 7e63 cf3e
00000080: 3398 bb3c 0dc7 3c3d 156c baba 8af7 b93e
00000090: e829 353d e753 df3e 8712 ea3c 370d 583e
000000a0: ed97 e33c 2213 aabe 4d39 3c3d 8178 80ba
000000b0: 6e3d 963c 9b6c be3e 6fdf 8f3b 1aa8 0b3c
000000c0: 9467 d13e d6a9 0a3c 1fde d93e e44d 333e
000000d0: 36ce 013d 0fc1 d53e 6df0 b53c 1f8f 443d
000000e0: 77f5 0cbd c8fd 133d 1cf5 3abd e9a4 143e
000000f0: 4fde 90bc 233f 243d 0b84 74bf 0714 e53c
00000100: a661 803f 4695 32bd 3f62 0a3d 8262 b23e
00000110: 33c3 1e3b 4d2a 303c d7ed 9abc e338 b0bc
00000120: cb1a 833e 9801 c33d 6f4f a6bb d7d1 39bd
00000130: b690 263c 65d2 0a3c 84cb 00bc b3f5 863c
00000140: 0e83 ce3e 3eb6 213e e3e7 4b3e 8569 75bb
00000150: bd2d 2c3d 8d9e 4f3c 37b3 15bd 1dda 913d
00000160: 0359 2c3e 5a3e 18bd 3fcf 14bd 3809 c23c
00000170: 725b 3dbd 4527 d43c cd2c 0c3c 055a fbbc
00000180: 061c 4c3e 65e8 0fbd 7d36 cfbc a9e5 df3e
00000190: 2cda 10bd a1aa 133e 5a25 db3e eab9 debc
000001a0: 08ce b9bb 05ac dcbc 9d51 20bd a39c 173d
000001b0: 2a07 a8bc 3cc8 c1bb fa7b b5bc 187c 3a3e
000001c0: 5635 cb3e 68e8 993c 8931 723e 4520 bfbe
000001d0: 0b3b 443d aa52 403e c34d 29bd 2334 a6bc
000001e0: 4fa3 a33b 7d96 8cbc f26f 4d3e e722 973c
000001f0: 6440 b73e 534f 13bd a03e 063b 0ea1 3b3e
00000200: 1601 303e b322 353b 828c e93a 07a5 d43c
00000210: 40f5 033f eac8 32be 6fac 42bd dd59 db3c
00000220: 6756 6a3a d394 4abc d57d 1a3c 35cf 3b3e
00000230: b8c6 d7bc 9b67 0cbe ac25 513e 23a4 483e
00000240: e3ca c43e f1d9 4fbb 6785 dabb 6ad2 5c3e
00000250: e699 173e 23cd 2ebd 4423 303e de7a 5a3e
00000260: d255 383e 5f06 31bf acf3 683e 6afa 0fbd
00000270: 4998 463e c942 453e 7fa1 cc3e af24 3f3d
00000280: 3ceb c63e ad6a e8bc 8d59 ca3e 5366 5f3c
00000290: 4241 503e e372 3bbd 3af6 15bc a05e 44bc
000002a0: 8025 b93b 0a4d 2d3b dab9 3f3c 18c3 363d
000002b0: 2d6b 2a3d a29f 47bd e352 c8b9 fdc6 233d
000002c0: 6a7d 883c 570f b6bc c3e6 f73c 7356 9dbb
000002d0: 87c9 2bbf b9a9 b83e b7fe 6e3e aab7 393d
000002e0: 9de2 853c 3034 8abc fd98 10bd cd56 e83c
000002f0: 9aa2 a9bc e0d3 1a3e 2d85 eebc 7005 13bc
00000300: 30fd 2fbc e21e 1e3c 9b53 173d d384 a43d
00000310: 6a12 febc da56 72bc 06c6 92bc c1e6 433e
00000320: c07a 42bc 897f 463e 1a9d e63b 6500 4c3d
00000330: e795 ddbb b341 1d3d 07ad 7abc b3ce 0a3d
00000340: cb7c aebb cef2 24bc e8be 30bd c037 023c
00000350: 974b 453e 637e 8a3c ff72 44bc 333b db3b
00000360: 4074 77bc 1a3e 1b3b 0011 1f3c 3a3d 23bd
00000370: e74a c03b 4d3a 0bbc 6c5c 8dbc 53bd 9abc
00000380: bad8 973c 99cb 21bf c04d 133f 4ebb d53e
00000390: f33b 233d d4a4 6a3e bab3 1c3d b094 153d
000003a0: c772 523e 31f1 8abc e5a6 dd3e 4edb a0bc
000003b0: 8017 cd3c f038 2cbd 4b8e c33d 67b2 2ebf
000003c0: 6950 063f 5c47 483e f6b5 06bd 1413 0f3d
000003d0: 2e5d 553e bd44 d8bb 3b1a 19bd c021 3c3e
000003e0: cc74 b13e e37b 92bc e5a1 c63e 33ed 433e
000003f0: 7b9a 633e b9df d53d 9f49 06bd ea78 203d
-0.015419698 0.52128273 -0.0032896996 -0.0012345039 0.00013138652 0.24097303 0.009369448 0.021651596
0.33152074 -0.01572749 0.5350557 0.010276163 0.42625335 -0.001252169 0.0058888393 0.019432975
-0.005596932 0.0026541397 0.053574372 0.010999695 0.021571064 -0.00023022294 0.20424649 -0.025689406
-0.010229002 -0.006151189 0.14972232 0.012034667 0.06001184 0.0027628958 -7.069707e-05 0.40505594
0.022899723 0.046088267 -0.0014222885 0.3632167 0.044229418 0.436187 0.028573288 0.21098791
0.027782405 -0.33217722 0.045953084 -0.0009801538 0.018339839 0.37192234 0.004390649 0.008523965
0.40899336 0.008463344 0.42552277 0.17510182 0.0316908 0.41748855 0.02220937 0.047988053
-0.03441378 0.036130697 -0.04564391 0.14516033 -0.01768413 0.040099274 -0.9551398 0.027963651
1.00298 -0.04359939 0.0337851 0.3484078 0.0024225235 0.010752273 -0.018912239 -0.0215115
0.2560638 0.09521788 -0.005075387 -0.045366134 0.010166338 0.0084730135 -0.007861022 0.01647458
0.40334362 0.15792176 0.19912677 -0.0037446928 0.042035807 0.012672079 -0.036547866 0.0712168
0.1683083 -0.037168838 -0.036330458 0.023686036 -0.046229787 0.025897631 0.008555603 -0.030682573
0.19932565 -0.035133738 -0.025294537 0.43729904 -0.035364315 0.14420559 0.42801934 -0.02718826
-0.005670313 -0.026937494 -0.039140332 0.037014615 -0.020511229 -0.0059137624 -0.022153843 0.182114
0.3968913 0.018787578 0.23651709 -0.37329307 0.04790787 0.18781534 -0.041333925 -0.020288533
0.004993833 -0.017161602 0.20062235 0.01844926 0.35791314 -0.03596432 0.0020484105 0.18323156
0.17187914 0.002763909 0.0017818364 0.025957597 0.51546097 -0.17459455 -0.047527727 0.026776249
0.00089392666 -0.012364584 0.009429415 0.18340762 -0.026339874 -0.13711397 0.20424527 0.19593863
0.3843604 -0.0031715597 -0.006668735 0.21564642 0.14804801 -0.042676102 0.17200953 0.21335933
0.18001488 -0.69150347 0.22749203 -0.035150923 0.1939403 0.19263758 0.39966962 0.046665844
0.38851345 -0.02837118 0.39521447 0.013635236 0.20337394 -0.04576386 -0.009152943 -0.011985451
0.0056502223 0.0026443624 0.011702025 0.04461965 0.041606117 -0.048736222 -0.00038208728 0.039984692
0.016661365 -0.022224111 0.030261403 -0.0048015653 -0.6710438 0.36066988 0.23339354 0.04534117
0.01634341 -0.016870588 -0.03530215 0.028361702 -0.020707417 0.15119886 -0.029116238 -0.008973464
-0.010741517 0.009650918 0.036944967 0.08033147 -0.03101464 -0.014791215 -0.01791669 0.19130994
-0.011870086 0.19384588 0.007037771 0.049805064 -0.0067622545 0.038392734 -0.015300042 0.03388853
-0.005324935 -0.010067655 -0.043150812 0.007947862 0.19267116 0.016905969 -0.011990308 0.0066904067
-0.0151034 0.0023688138 0.009708643 -0.039853312 0.005868304 -0.008497787 -0.017255984 -0.018889105
0.01853596 -0.6320129 0.5754051 0.41744465 0.039852094 0.2291444 0.038257338 0.036518753
0.20551597 -0.016960712 0.43291393 -0.019635823 0.02503562 -0.042046487 0.095486246 -0.6824097
0.52466446 0.19558471 -0.032888375 0.034930304 0.20836326 -0.006599991 -0.03737853 0.1837225
0.3465942 -0.01788134 0.3879539 0.19133453 0.22226898 0.10443062 -0.032785054 0.039177813

fc3.bias f4 [2]
00000000: c989 4c3d df53 4d3d
0.04993609 0.050128814
