reinforcement_learning/models_cartpole/cartpole_ne500_lr0.0001_ep0.2dqn_agent.pt (torch, 654679 bytes, 6 tensors)

fc1.weight f4 [400, 4]
0.24371403 0.35280684 0.24851783 -0.3390692 0.010406097 0.0091672195 0.2349151 -0.41106445
0.30295286 0.4431106 -0.015207833 0.13976423 0.029075682 0.17986268 -0.12092734 0.08421222
-0.4741991 -0.01037303 -0.020442042 -0.23865107 0.46135643 0.39176518 -0.08255302 -0.14944378
-0.20783633 0.3839064 0.50452864 0.5303861 -0.23896575 -0.30884916 0.27399793 -0.36095285
0.16793904 -0.15437624 -0.18308924 0.23629962 -0.23619212 0.3898047 0.13517803 -0.3821372
0.25688472 0.28434587 -0.10535737 0.15368785 -0.11083583 0.5186237 -0.37671342 -0.029142
-0.17908943 0.5073382 -0.14320207 0.2960034 0.2637568 -0.18268901 0.03711353 -0.3628482
0.5491698 -0.49992374 0.40521672 -0.20166044 0.120785706 -0.50088173 -0.037957355 0.31099954
-0.28451848 -0.13189365 -0.80012584 -0.22245103 -0.25549278 -0.42201322 -0.008370842 0.09292601
0.18186748 0.43620598 0.73376477 0.29217827 -0.07510203 0.15990338 0.59269094 0.525588
-0.2597023 -0.42149496 0.044812508 -0.01196362 0.24780665 -0.16516681 0.093020126 -0.156353
-0.39157876 -0.33233696 -0.43151513 -0.2954493 -0.24084252 0.020231808 0.54370564 0.29925168
-0.41037217 0.43072236 -0.51945573 0.20396115 -0.5597981 0.45091677 -0.27792674 0.101555325
-0.21212395 0.019558772 -0.5620817 -0.40582415 -0.22476691 0.3829032 0.06345126 0.25941825
0.2227508 -0.48678222 -0.060124155 -0.065988906 -0.16463828 -0.17096071 -0.23954885 -0.52379245
-0.5353416 0.36303583 -0.0153197525 0.49031204 0.2765023 -0.3516051 -0.31975004 0.06391073
0.13969232 0.38603762 0.10601256 0.3807653 0.36595678 0.20708229 0.75926507 0.08570404
-0.31829104 -0.22168984 -0.59889424 0.116006434 0.3837724 0.4782532 0.24108055 -0.43658757
-0.049776766 0.102155186 -0.5107685 0.3364488 0.25805098 -0.08674095 0.40971273 -0.026992578
-0.25002608 0.22610673 -0.051407 -0.41689548 0.33689398 -0.40478274 -0.1758754 0.14789857
0.054941252 0.1879377 0.43528363 -0.16113873 -0.22000614 -0.38629246 -0.8336054 -0.6052795
0.4594066 -0.4321567 -0.019790454 -0.14330891 0.41533846 -0.57889396 -0.4857904 -0.07538157
-0.21966279 -0.24514244 0.5206592 0.031211145 -0.457245 -0.2412002 -0.09258054 0.4119968
-0.54006577 0.27549088 0.27548918 -0.0059655244 0.25691283 0.20965025 -0.7346807 0.13379857
0.003069455 0.33799317 -0.47425994 -0.1056562 0.095929466 -0.12126405 -0.10044739 -0.052419562
0.5557076 -0.46625316 0.11461935 -0.117790684 0.3520777 0.20547523 0.048479795 0.45258963
0.31909102 0.017298087 0.37682542 0.50268954 -0.14068833 -0.0957023 0.16197585 -0.514086
-0.14489844 -0.24507742 -0.2413677 0.18190452 -0.36047637 0.4671056 0.2875406 -0.00046896545
-0.2297134 0.4546499 -0.079772905 0.4520048 -0.09029063 -0.2903887 0.490211 0.17633767
-0.29049045 -0.3164071 0.7801485 0.08277834 0.4020052 -0.41422787 -0.35881555 0.26776057
-0.47391146 0.14561872 -0.07963989 -0.07930057 -0.45934257 0.034521703 0.6864857 0.24817859
0.106265455 -0.09648369 -0.5544729 0.13751052 0.06361311 0.22625062 -0.10201827 -0.37279782
00000000: 2c90 793e 19a3 b43e 757b 7e3e 7a9a adbe
00000010: 567e 2a3c 1b32 163c 958d 703e 0a77 d2be
00000020: a31c 9b3e 64df e23e 462a 79bc 5b1e 0f3e
00000030: 2030 ee3c ec2d 383e c1a8 f7bd 7577 ac3d
00000040: 39ca f2be a4f3 29bc 1276 a7bc f260 74be
00000050: e936 ec3e 7295 c83e 8f11 a9bd ca07 19be
00000060: 0cd3 54be 618f c43e ca28 013f 62c7 073f
00000070: 70b3 74be 7a21 9ebe 7549 8c3e d0ce b8be
00000080: 36f8 2b3e ce14 1ebe bf7b 3bbe 87f8 713e
00000090: 59dc 71be 7b94 c73e 1c6c 0a3e 7da7 c3be
000000a0: 6586 833e c895 913e 9bc5 d7bd 5960 1d3e
000000b0: e5fd e2bd 86c4 043f 95e0 c0be 34bb eebc
000000c0: 3863 37be ebe0 013f 90a3 12be c28d 973e
000000d0: 220b 873e d412 3bbe 5b04 183d 3dc7 b9be
000000e0: 6496 0c3f 01f6 ffbe 9178 cf3e 1380 4ebe
000000f0: 7f5e f73d c939 00bf 2c79 1bbd 553b 9f3e
00000100: 68ac 91be 210f 07be 0cd5 4cbf 34ca 63be
00000110: f3cf 82be 1e12 d8be db25 09bc fe4f be3d
00000120: 783b 3a3e 6456 df3e 02d8 3b3f 6498 953e
00000130: 18cf 99bd b6bd 233e 98ba 173f ef8c 063f
00000140: b3f7 84be 30ce d7be 528d 373d 0f03 44bc
00000150: 07c1 7d3e 7d21 29be 5681 be3d 001b 20be
00000160: 037d c8be 1228 aabe 8def dcbe 2145 97be
00000170: 6c9f 76be 2dbd a53c 4b30 0b3f 8437 993e
00000180: 4d1c d2be a487 dc3e 0dfb 04bf 31db 503e
00000190: ee4e 0fbf 90de e63e 6a4c 8ebe 3dfc cf3d
000001a0: 0537 59be b839 a03c 96e4 0fbf 2fc8 cfbe
000001b0: 4c29 66be e30b c43e bcf2 813d 78d2 843e
000001c0: c918 643e 853b f9be bf44 76bd 3125 87bd
000001d0: f096 28be 5310 2fbe 4b4c 75be 4317 06bf
000001e0: 260c 09bf d5df b93e b3ff 7abc 2e0a fb3e
000001f0: b691 8d3e 9505 b4be 47b6 a3be a1e3 823d
00000200: 810b 0f3e b9a6 c53e 1d1d d93d abf3 c23e
00000210: b05e bb3e 610d 543e 325f 423f 9a85 af3d
00000220: 0bf7 a2be a902 63be 2251 19bf c894 ed3d
00000230: d17d c43e 9add f43e d2dd 763e 6888 dfbe
00000240: b9e2 4bbd bd36 d13d b9c1 02bf 0443 ac3e
00000250: 421f 843e 3da5 b1bd dec5 d13e 8a1f ddbc
00000260: 6b03 80be 8688 673e 2590 52bd 5373 d5be
00000270: 5e7d ac3e af3f cfbe ae18 34be b972 173e
00000280: 140a 613d be72 403e 7fdd de3e 8d01 25be
00000290: 4a49 61be 20c8 c5be 2a67 55bf 99f3 1abf
000002a0: 5837 eb3e a543 ddbe 971f a2bc 92bf 12be
000002b0: 3ea7 d43e 6532 14bf 85b9 f8be a761 9abd
000002c0: 48ef 60be 9f06 7bbe ec49 053f 84ae ff3c
000002d0: 041c eabe 2ffd 76be de9a bdbd 3ff1 d23e
000002e0: c041 0abf 240d 8d3e eb0c 8d3e 727a c3bb
000002f0: 148a 833e 8eae 563e 0914 3cbf 7e02 093e
00000300: e928 493b 710d ad3e 33d2 f2be 4762 d8bd
00000310: ab76 c43d 4959 f8bd 5cb7 cdbd e5b5 56bd
00000320: da42 0e3f bcb8 eebe 8dbd ea3d 3e3c f1bd
00000330: 8743 b43e 1968 523e c092 463d d4b9 e73e
00000340: e65f a33e b8b4 8d3c 43ef c03e 43b0 003f
00000350: 9a10 10be 91ff c3bd ffdc 253e 249b 03bf
00000360: 4260 14be 93f5 7abe 1829 77be 2e45 3a3e
00000370: 5c90 b8be 7728 ef3e 8638 933e 7adf f5b9
00000380: fd39 6bbe dfc7 e83e fa5f a3bd 2c6d e73e
00000390: 4bea b8bd d4ad 94be f0fc fa3e dd91 343e
000003a0: 2abb 94be 1d00 a2be d0b7 473f b187 a93d
000003b0: a0d3 cd3e ad15 d4be acb6 b7be ea17 893e
000003c0: 86a4 f2be 131d 153e 3d1a a3bd 5668 a2bd
000003d0: f32e ebbe a166 0d3d 87bd 2f3f 8722 7e3e
000003e0: b4a1 d93d 3e99 c5bd f0f1 0dbf 8fcf 0c3e
000003f0: 9747 823d 3eae 673e f4ee d0bd 5bdf bebe

fc1.bias f4 [400]
0.37779123 0.3089372 -0.2680372 0.5090172 0.30865705 -0.4328877 -0.12734552 -0.40301183
0.50037295 -0.1268857 0.31911156 -0.019654758 -0.035339974 0.5640853 -0.09521786 -0.22893818
-0.13850813 0.007999087 -0.054719746 -0.3444801 -0.42404047 0.55129254 0.24370718 0.16459133
-0.09287339 0.2539418 -0.078123525 0.3512597 0.20741828 -0.32322487 -0.26249433 0.4003602
0.35025358 -0.12652546 0.08008553 -0.25555205 0.19841006 -0.42749578 -0.17627746 0.5899047
0.061992154 -0.44542715 0.001915502 -0.15988563 -0.41576675 -0.15452845 0.20650776 0.47174942
0.23632224 0.13561438 -0.1893104 -0.36368603 -0.045674674 -0.067869194 0.4176653 0.36727038
-0.26733145 -0.34346673 -0.41643524 0.13342878 0.1944886 -0.28566656 0.24141923 -0.3508497
-0.08802363 0.102186404 0.42721465 -0.040512893 0.38766533 0.49366188 0.28916448 0.075816296
-0.501242 0.50397956 -0.36331338 0.15514736 -0.40640312 0.11952677 0.38405547 -0.4997987
-0.26778394 -0.45613012 0.5591301 -0.4561809 -0.20816061 -0.0459246 0.06186676 0.21579637
0.43257397 0.26820987 -0.3804386 0.50151324 0.31919116 -0.52056116 -0.18050352 0.14272167
-0.4369952 0.04241784 -0.4318895 -0.27374128 -0.41121635 0.34106675 -0.25784725 0.57243395
-0.5291868 0.34285715 0.5115329 -0.08188408 -0.093461126 0.4692854 -0.09370774 0.3726995
-0.20429838 -0.39970136 0.52959335 0.076353215 -0.36637962 -0.12857603 0.43205282 -0.33041003
0.20313488 -0.1122754 0.35406485 0.3970264 -0.24410215 0.19967632 -0.0314926 -0.34592408
-0.1102774 0.53213 0.37061408 0.45452642 -0.08336717 -0.07318305 0.4418821 -0.28031516
-0.17021312 -0.3238426 -0.20837656 0.36087242 0.37863827 -0.09441861 -0.37137964 0.11711139
0.22024873 0.3598766 0.30891135 -0.49154106 0.08779373 -0.42139018 0.18139991 0.42778876
0.37729132 -0.2535359 -0.31744096 -0.21246028 -0.36651227 0.067522466 -0.41580644 0.0015526487
-0.4315987 0.2084736 -0.5681573 0.5292232 -0.47315723 -0.36462778 0.322108 -0.35070145
-0.5481082 0.22523777 -0.41527975 0.30233178 0.4739221 0.41810998 0.255956 -0.46314773
-0.2917984 -0.104283035 -0.33983013 0.42219278 0.14288488 0.6216041 0.277816 0.112756215
0.3262381 0.21948214 0.4473189 -0.16862974 -0.30444315 -0.25400153 0.2033515 -0.30458462
0.28242916 -0.36233664 -0.35988575 -0.086420484 -0.42932692 -0.1452484 -0.2593055 0.29458776
-0.16102183 -0.14669123 0.52314055 0.45842674 -0.30420834 -0.020651296 0.4423957 -0.23196757
0.052495882 -0.09712941 -0.24055743 -0.5533748 -0.4910727 -0.11275272 -0.34016407 0.41013032
0.23825434 0.2578439 -0.23657785 -0.20804925 -0.27315614 0.5742439 0.024385821 0.5191137
0.05732237 -0.2847609 0.40563956 0.16502728 0.4755454 -0.40140462 0.20402983 -0.36959755
0.48582855 0.13572875 -0.19640155 0.48582697 0.39887783 0.34328297 0.080038875 0.3359109
0.1299431 -0.15322906 -0.12042173 0.016835058 -0.40037733 0.49384016 -0.03414801 0.4479105
0.02288443 0.5029625 0.51804006 0.27490985 0.019014241 -0.012119263 -0.5027826 0.17353392
00000000: da6d c13e 042d 9e3e 2c3c 89be f44e 023f
00000010: 4c08 9e3e 75a3 ddbe dd66 02be 9157 cebe
00000020: 7118 003f 53ee 01be 9762 a33e 0403 a1bc
00000030: a6c0 10bd e567 103f 9501 c3bd c56e 6abe
00000040: 13d5 0dbe 9a0e 033c d021 60bd b25f b0be
00000050: d51b d9be 8221 0d3f 608e 793e a18a 283e
00000060: 6734 bebd a904 823e 3aff 9fbd 50d8 b33e
00000070: 7565 543e bb7d a5be a865 86be 03fc cc3e
00000080: 7054 b33e e48f 01be e203 a43d b8d7 82be
00000090: 022c 4b3e bae0 dabe 1482 34be ff03 173f
000000a0: 7ceb 7d3d 070f e4be 9511 fb3a 0fb9 23be
000000b0: 61df d4be b53c 1ebe c576 533e 2489 f13e
000000c0: 75fe 713e 7fde 0a3e 96da 41be 0e35 babe
000000d0: 5e15 3bbd 01ff 8abd 3ad8 d53e dd0a bc3e
000000e0: abdf 88be dfda afbe 0037 d5be 8ea1 083e
000000f0: 0528 473e e342 92be 9a36 773e 92a2 b3be
00000100: bc45 b4bd 1b47 d13d e1bb da3e d9f0 25bd
00000110: 127c c63e 40c1 fc3e 5e0d 943e 9345 9b3d
00000120: 6551 00bf ce04 013f 3604 babe f3de 1e3e
00000130: 1214 d0be 74ca f43d eba2 c43e 9de5 ffbe
00000140: fa1a 89be e389 e9be 2623 0f3f 8b90 e9be
00000150: 0e28 55be 6f1b 3cbd 0068 7d3d b9f9 5c3e
00000160: 567a dd3e ce52 893e d9c8 c2be 2c63 003f
00000170: 066d a33e 7f43 05bf ead5 38be a125 123e
00000180: d6bd dfbe 54be 2d3d 9f20 ddbe d127 8cbe
00000190: f38a d2be 4da0 ae3e 8e04 84be 088b 123f
000001a0: c978 07bf f98a af3e d2f3 023f d7b2 a7bd
000001b0: 8c68 bfbd 2d46 f03e d8e9 bfbd 78d2 be3e
000001c0: 9833 51be a8a5 ccbe 6e93 073f 135f 9c3d
000001d0: 1c96 bbbe 6fa9 03be 0736 dd3e 812b a9be
000001e0: 9702 503e a5f0 e5bd fd47 b53e 0b47 cb3e
000001f0: eaf5 79be f377 4c3e 62fe 00bd f61c b1be
00000200: 1ed9 e1bd ac39 083f 21c1 bd3e b0b7 e83e
00000210: 68bc aabd ffe0 95bd 5f3e e23e 7885 8fbe
00000220: 594c 2ebe b3ce a5be aa60 55be 45c4 b83e
00000230: e0dc c13e 8b5e c1bd 7925 bebe 19d8 ef3d
00000240: e288 613e bf41 b83e a129 9e3e 45ab fbbe
00000250: 33cd b33d 74c0 d7be e6c0 393e 2107 db3e
00000260: 542c c13e 75cf 81be 9f87 a2be 308f 59be
00000270: 7fa7 bbbe 3849 8a3d 95e4 d4be 3f82 cb3a
00000280: 81fa dcbe 1a7a 553e c272 11bf 2c7b 073f
00000290: aa41 f2be 7eb0 babe 57eb a43e 248f b3be
000002a0: d250 0cbf bba4 663e 8c9f d4be 3bcb 9a3e
000002b0: eba5 f23e 8312 d63e aa0c 833e b321 edbe
000002c0: 9a66 95be 5892 d5bd 37fe adbe a729 d83e
000002d0: 6a50 123e 7221 1f3f e63d 8e3e bbec e63d
000002e0: ae08 a73e edbf 603e fc06 e53e 46ad 2cbe
000002f0: f9df 9bbe 7d0c 82be 603b 503e 84f2 9bbe
00000300: 8e9a 903e 3084 b9be f242 b8be 39fd b0bd
00000310: bdd0 dbbe ffbb 14be b1c3 84be 35d4 963e
00000320: e8e2 24be 3a36 16be 8aec 053f e9b6 ea3e
00000330: 32c1 9bbe e82c a9bc b081 e23e e888 6dbe
00000340: ec05 573d c9eb c6bd b054 76be f9a9 0dbf
00000350: e26d fbbe e6ea e6bd fc29 aebe 9afc d13e
00000360: f2f8 733e 1e04 843e 7741 72be dd0a 55be
00000370: 1fdb 8bbe a601 133f c6c4 c73c a3e4 043f
00000380: ddca 6a3d 2ecc 91be fdaf cf3e e9fc 283e
00000390: b07a f33e e884 cdbe 32ed 503e e43b bdbe
000003a0: 85be f83e 7afc 0a3e 7d1d 49be 50be f83e
000003b0: b739 cc3e c9c2 af3e 6ceb a33d 83fc ab3e
000003c0: ce0f 053e 14e8 1cbe ab9f f6bd ade9 893c
000003d0: 42fe ccbe 9ed8 fc3e c9de 0bbd 8654 e53e
000003e0: 2178 bb3c 27c2 003f 469e 043f fcc0 8c3e
000003f0: c1c3 9b3c e08f 46bc 5cb6 00bf e0b2 313e

fc2.weight f4 [400, 400]
0.008784538 -0.006350831 -0.053915408 0.059695 0.06865132 -0.020397915 -0.28857076 -0.043819103
0.019273091 0.07876855 0.047296654 0.00037454895 0.020737879 0.03284139 0.041553 -0.09279834
-0.52919513 -0.098417126 -0.013031807 -0.18092759 0.16030715 0.055802744 -0.06048858 -0.2807569
-0.049288183 -0.028691547 -0.11738085 0.06328837 0.020779908 -0.0035631584 0.0004990372 0.0034028604
0.07212053 -0.024389127 -0.06619114 -0.028186306 0.060100425 0.30077657 0.022641381 -0.021735437
0.035723403 -0.038044304 0.0040614624 -0.080981664 -0.03496255 0.031528674 0.01034657 0.051721428
0.064793155 0.05827684 -0.052691054 -0.033811964 -0.019599538 -0.004260424 -0.003926495 0.0005229165
-0.3651395 -0.55989283 0.084470466 0.08059699 0.022261765 -0.619119 0.03904806 0.033273708
-0.5813431 -0.29309464 0.039073564 -0.6906194 0.0073682484 -0.009359148 -0.011322852 0.024982205
-0.0340492 0.02368543 0.063528806 0.017131422 0.008757151 0.069059916 0.07825836 1.5470865e-06
0.0130372355 -0.277431 0.002403928 0.04564854 -0.14857107 -0.19208083 0.06064829 0.023203477
0.066883795 0.07049935 -0.20472334 0.025514534 0.079952896 -0.050926995 -0.66860694 -0.025262158
-0.10793695 -0.20649587 0.101930805 -0.2223469 0.15003486 0.12411759 -0.070641786 0.070600234
0.18853332 0.06446374 0.057236586 -0.32372716 -0.5003699 0.034297373 -0.19812503 0.0063451547
-0.989176 -0.056749023 0.04495929 -0.07458884 -0.14720616 0.027666822 0.096661516 -0.5273801
-0.009435892 -0.004891759 0.015853997 0.025910988 -0.096209385 -0.06195286 -0.10025576 0.11382355
-0.14524166 0.02699416 0.016929464 0.041789625 -0.020433776 0.075614706 0.08248117 -0.009347811
-0.09386089 -0.17958227 0.035152867 0.04066534 0.021631174 -0.36700258 -0.33196887 -0.00745559
0.05133735 0.04411105 0.07788491 0.021103498 0.001539591 0.04899292 -0.1386124 -0.0008451203
-0.04519273 -0.073421665 0.094265476 -0.66175413 -0.42730695 0.02697255 -0.008557571 -0.035031587
-0.07609424 -0.11858935 0.04523189 0.0010016647 0.2686523 -0.4852663 -0.006390637 -0.41190597
0.0711646 -0.032567378 -0.036190044 0.049885124 0.03265815 0.041978717 -0.12630923 -0.102782324
-0.47570628 -0.44357225 -0.060881842 -0.01685638 0.046831697 0.045388952 0.010680105 0.025311489
0.0783485 0.01087722 0.03490176 0.056765642 -0.5020923 -0.12656526 -0.02082236 0.06541749
0.031826347 -0.11430753 -0.53611684 -0.10640777 -0.027585236 0.074078314 -0.064646736 -0.01216918
-0.20611496 -0.010340723 -0.013147643 0.014248389 0.0075357384 -0.19966272 0.055107586 0.007622385
0.051667325 0.013893205 -0.113063805 0.052850112 0.4270118 -0.056402467 -0.37845466 -0.017200597
0.023205275 0.028091343 -0.014464349 -0.029590838 -0.020457484 -0.003185179 0.020042703 0.004302547
0.04288925 -0.2963316 0.08670443 -0.04350953 0.06057754 -0.294002 -0.0022825862 0.14969458
-0.028616117 0.063140824 -0.61821204 0.049462732 0.06101087 -0.008138146 -0.14738959 0.05192636
0.10646491 -0.18359515 -0.055996854 0.009454422 0.021619953 0.07126776 -0.17089829 -0.009102671
0.038953952 0.06597021 0.06262929 0.07255786 -0.62853104 0.015798742 -0.12466486 -0.029286414
00000000: 06ed 0f3c a21a d0bb 67d6 5cbd bf82 743d
00000010: 1099 8c3d 8719 a7bc 8cbf 93be a97b 33bd
00000020: 9ae2 9d3c 6851 a13d 23ba 413d 1c5f c439
00000030: 7ce2 a93c b284 063d 7b33 2a3d 0e0d bebd
00000040: 5579 07bf eb8e c9bd 5c83 55bc 1545 39be
00000050: 8f27 243e 6b91 643d e0c2 77bd 5ebf 8fbe
00000060: 68e2 49bd 890a ebbc 5f65 f0bd 559d 813d
00000070: a03a aa3c e183 69bb d2d1 023a 8602 5f3b
00000080: eeb3 933d b5cb c7bc 388f 87bd f8e6 e6bc
00000090: dd2b 763d 63ff 993e 6b7a b93c 840e b2bc
000000a0: b452 123d 58d4 1bbd 0416 853b b7d9 a5bd
000000b0: e434 0fbd 3624 013d a984 293c d9d9 533d
000000c0: 46b2 843d b2b3 6e3d 93d2 57bd 6a7e 0abd
000000d0: 368f a0bc 079b 8bbb d4a9 80bb 5514 093a
000000e0: 91f3 babe 2355 0fbf dafe ac3d 0910 a53d
000000f0: 4e5e b63c 957e 1ebf dcf0 1f3d 034a 083d
00000100: e7d2 14bf 8010 96be 9a0b 203d 6fcc 30bf
00000110: 5971 f13b 1d57 19bc 7c83 39bc 7ba7 cc3c
00000120: 2d77 0bbd f207 c23c 641b 823d 3257 8c3c
00000130: 277a 0f3c 496f 8d3d eb45 a03d 7da5 cf35
00000140: 219a 553c 700b 8ebe 388b 1d3b f7f9 3a3d
00000150: 0423 18be d6b0 44be 576a 783d 3815 be3c
00000160: 5ffa 883d f761 903d ffa2 51be db03 d13c
00000170: 58be a33d d398 50bd d329 2bbf 96f2 cebc
00000180: 0c0e ddbd a773 53be 19c1 d03d e8ae 63be
00000190: bda2 193e 5d31 fe3d a4ac 90bd db96 903d
000001a0: e10e 413e 9105 843d e970 6a3d 91bf a5be
000001b0: 3e18 00bf 677b 0c3d 4ae1 4abe 04eb cf3b
000001c0: a33a 7dbf aa71 68bd 3c27 383d 09c2 98bd
000001d0: 36bd 16be 88a5 e23c 79f6 c53d 6202 07bf
000001e0: 0099 1abc 0c4b a0bb 3ee0 813c 4843 d43c
000001f0: 6d09 c5bd 48c2 7dbd e452 cdbd 521c e93d
00000200: 3bba 14be db22 dd3c a9af 8a3c 992b 2b3d
00000210: bc64 a7bc e2db 9a3d e3eb a83d 9027 19bc
00000220: 233a c0bd 6ae4 37be 74fc 0f3d b390 263d
00000230: dc33 b13c c3e7 bbbe d3f7 a9be 064e f4bb
00000240: 1d47 523d caad 343d 2082 9f3d 3ee1 ac3c
00000250: 1acc c93a cdac 483d 69f0 0dbe 108b 5dba
00000260: 031c 39bd 195e 96bd 420e c13d b868 29bf
00000270: fac7 dabe 8af5 dc3c 0e35 0cbc 487d 0fbd
00000280: 4cd7 9bbd f9de f2bd 1345 393d 4a4a 833a
00000290: cb8c 893e d374 f8be 8c68 d1bb 57e5 d2be
000002a0: bfbe 913d 5f65 05bd 033c 14bd 5854 4c3d
000002b0: 8dc4 053d e0f1 2b3d 3557 01be 8a7f d2bd
000002c0: c68f f3be e71b e3be 3d5f 79bd 6416 8abc
000002d0: 98d2 3f3d c4e9 393d 9bfb 2e3c 0a5a cf3c
000002e0: 2e75 a03d 5e36 323c 26f5 0e3d 1783 683d
000002f0: 1f89 00bf 539a 01be a793 aabc 9bf9 853d
00000300: 585c 023d 111a eabd f43e 09bf 51ec d9bd
00000310: 6ffa e1bc 5fb6 973d 8265 84bd 3e61 47bc
00000320: cd0f 53be 236c 29bc 3669 57bc 1372 693c
00000330: 5bee f63b 6274 4cbe 7eb8 613d 33c5 f93b
00000340: 1ea1 533d 53a0 633c ff8d e7bd 5c79 583d
00000350: 4aa1 da3e 4606 67bd cfc4 c1be 44e8 8cbc
00000360: fd18 be3c d11f e63c e0fb 6cbc 7c68 f2bc
00000370: 7496 a7bc 70be 50bb 9830 a43c 61fc 8c3b
00000380: a3ac 2f3d c7b8 97be 1892 b13d 0d37 32bd
00000390: 2820 783d 6e87 96be 7197 15bb 8949 193e
000003a0: 596c eabc fa4f 813d 2543 1ebf 6f99 4a3d
000003b0: 89e6 793d dc55 05bc 4ced 16be bcb0 543d
000003c0: 460a da3d 5e00 3cbe f55c 65bd b8e6 1a3c
000003d0: 541c b13c d5f4 913d f6ff 2ebe 5f23 15bc
000003e0: 2e8e 1f3d 641b 873d c943 803d 3799 943d
000003f0: 69e7 20bf 5d6c 813c 4a50 ffbd 10ea efbc

fc2.bias f4 [400]
-0.0131405685 -0.009526098 -0.005768019 0.00047277636 -0.016742492 0.00077567477 0.049420666 0.012223579
-0.037804164 0.014388446 0.04808575 0.07453995 -0.008471704 0.03908283 0.091161974 -0.032304484
0.017797695 0.011096138 0.046168562 0.11309752 0.0018215302 -0.05068565 0.028053464 0.02776259
-0.01932212 0.0075690253 0.044455953 0.11769001 -0.13037123 0.036434177 -0.01716567 -0.049889
0.018219857 -0.01472147 0.027106684 0.074720725 0.051621627 -0.10167622 -0.0060421545 0.021549294
0.044929978 0.028350648 0.062096518 0.063934326 -0.015152212 0.08097278 -0.01569667 -0.025899023
0.0047597205 -0.011643381 0.003404943 -0.11035599 0.013458986 0.0023923747 -0.039525714 0.004750523
0.0032352062 0.008323038 0.067005396 -0.02873132 -0.012341714 0.049767304 0.009949865 0.010153423
0.07827748 0.026266564 0.006763578 -0.0022507305 -0.08994868 -0.002345378 0.0050638625 0.058705892
0.060439546 0.099500164 0.007076423 0.020009175 0.08489788 0.049008828 -0.029483635 0.045836043
0.00039227543 0.032705933 -0.011752805 0.03344936 0.0119499555 0.09115457 0.03985178 0.035280216
0.09410176 0.007091857 0.06662328 -0.04999543 0.084642954 -0.0010165728 0.030778663 0.07037648
0.012352286 0.040850744 0.021985777 -0.027237449 0.0012518903 -0.009908773 -0.075438075 0.0966245
0.05281834 0.009612655 0.08633608 0.06939023 -0.013643477 0.025056541 0.094193414 0.02349513
-0.045378234 0.017411556 -0.0058674333 -0.04491569 0.037662443 0.026619382 0.040978365 0.004151965
0.091960095 0.056934625 0.087363064 0.028582131 0.024376947 0.022793313 0.042941168 -0.0038795737
0.065816455 0.01803465 0.102416106 0.049773484 -0.06394232 -0.02691641 -0.05628728 0.027902646
-0.013679547 0.008707907 -0.0023248622 0.08491199 0.01789078 0.025665112 0.020880627 0.009593646
0.085048385 -0.022156341 0.073924854 0.024314461 0.04535503 0.049337737 0.026031101 0.0394356
0.009227133 -0.050408117 -0.010099779 0.05215677 0.04067871 0.020701759 -0.0034388474 0.04004628
0.018324172 -0.0067932787 0.053211894 -0.019762043 -0.014738792 0.019990228 0.0129113095 0.07502933
-0.05462167 0.105733216 0.021999741 0.04023368 0.06892689 0.08236139 0.0443045 0.038773473
0.043763075 0.015453554 0.018646741 0.0558217 0.07837374 0.056111112 -0.06942679 0.033841517
0.0046848357 0.0038869996 0.047973014 0.044324484 0.03887469 -0.0025752862 0.03393011 0.042975962
0.033559054 0.021327905 0.026663745 0.02020215 0.028505044 -0.021421429 0.019122679 -0.043265767
0.017334254 0.00394651 0.06322357 -0.000116671516 0.002315551 0.047654588 -0.009266888 -0.019634513
0.035240095 0.023871634 0.06951223 0.07145593 0.11465657 0.069773026 0.07614031 2.7297501e-05
0.011499448 0.07118993 0.081209034 0.0050019235 0.018049281 0.06849669 0.07321036 0.016227731
0.020971356 0.03323473 0.08020391 0.00012627462 0.09881937 -8.9761874e-05 -0.00796967 -0.044487298
0.01066777 0.021452283 -0.03892941 0.078696035 -0.015865166 -0.07878332 0.05523567 0.04721677
-0.010587423 0.035249516 -0.046921726 -0.03693402 -0.046342578 0.08262639 -0.06159059 -0.023980768
0.056176648 -0.05087646 0.029762348 -0.01153475 0.0796369 0.041798558 0.023397814 0.0009947566
00000000: 8a4b 57bc 5a13 1cbc a601 bdbb f8de f739
00000010: 8d27 89bc a756 4b3a 536d 4a3d 6845 483c
00000020: 8ad8 1abd 84bd 6b3c 90f5 443d 67a8 983d
00000030: e7cc 0abc 5115 203d 21b3 ba3d b551 04bd
00000040: 79cc 913c 93cc 353c 3f1b 3d3d ac9f e73d
00000050: 69c0 ee3a c29b 4fbd 61d0 e53c 5f6e e33c
00000060: 6c49 9ebc 9605 f83b 7217 363d 7607 f13d
00000070: 0980 05be 013c 153d 059f 8cbc 6858 4cbd
00000080: cf41 953c 5232 71bc d60e de3c 2e07 993d
00000090: 3371 533d 9f3b d0bd 44fd c5bb 2588 b03c
000000a0: 7f08 383d 9e3f e83c eb58 7e3d 00f0 823d
000000b0: fc40 78bc 0fd5 a53d 4e96 80bc 302a d4bc
000000c0: 6ef7 9b3b e1c3 3ebc 7725 5f3b 5202 e2bd
000000d0: 1483 5c3c 63c9 1c3b b7e5 21bd 46aa 9b3b
000000e0: c105 543b 5a5d 083c 203a 893d f25d ebbc
000000f0: e734 4abc cdd8 4b3d c204 233c 8b5a 263c
00000100: f24f a03d fa2c d73c 01a1 dd3b fe80 13bb
00000110: 0337 b8bd eab4 19bb c2ee a53b 9775 703d
00000120: 758f 773d bec6 cb3d 57e1 e73b 48ea a33c
00000130: f1de ad3d 7bbd 483d aa87 f1bc 93be 3b3d
00000140: 51aa cd39 a8f6 053d d68e 40bc 3202 093d
00000150: bfc9 433c 3faf ba3d 9f3b 233d fd81 103d
00000160: 6cb8 c03d cf62 e83b c971 883d 02c8 4cbd
00000170: 4959 ad3d 863e 85ba 8923 fc3c 8b21 903d
00000180: 3e61 4a3c 1c53 273d 841b b43c 1221 dfbc
00000190: 7816 a43a 6858 22bc 477f 9abd 11e3 c53d
000001a0: 0b58 583d 667e 1d3c f9d0 b03d 771c 8e3d
000001b0: e488 5fbc 6043 cd3c 7ae8 c03d dc78 c03c
000001c0: 87de 39bd aea2 8e3c 9943 c0bb 84f9 37bd
000001d0: ef43 1a3d e410 da3c eed8 273d 350d 883b
000001e0: 9355 bc3d 4834 693d 68eb b23d 1325 ea3c
000001f0: 2ab2 c73c 0bb9 ba3c 14e3 2f3d 7240 7ebb
00000200: c7ca 863d 67bd 933c 89bf d13d 48df 4b3d
00000210: 31f4 82bd ce7f dcbc 7e8d 66bd 1794 e43c
00000220: 2e20 60bc 9cab 0e3c b75c 18bb 56e6 ad3d
00000230: af8f 923c a43f d23c d90d ab3c ab2e 1d3c
00000240: d92d ae3d 3781 b5bc ea65 973d 1f2f c73c
00000250: 32c6 393d 5e16 4a3d 2d3f d53c 3987 213d
00000260: 672d 173c be78 4ebd 8b79 25bc 56a2 553d
00000270: b89e 263d bc96 a93c 495e 61bb 9107 243d
00000280: 931c 963c 279a debb b7f4 593d 02e4 a1bc
00000290: f97a 71bc 8cc2 a33c f589 533c faa8 993d
000002a0: f9ba 5fbd a88a d83d cd38 b43c 12cc 243d
000002b0: 8b29 8d3d 17ad a83d a378 353d efd0 1e3d
000002c0: e940 333d e730 7d3c 0dc1 983c 4ba5 643d
000002d0: 6982 a03d c4d4 653d a22f 8ebd 679d 0a3d
000002e0: 4083 993b 08bd 7e3b 5a7f 443d 978d 353d
000002f0: 113b 1f3d 22c6 28bb 4dfa 0a3d 9007 303d
00000300: 3875 093d dcb7 ae3c ed6d da3c fb7e a53c
00000310: 6983 e93c fe7b afbc 2aa7 9c3c 7237 31bd
00000320: 9100 8e3c ba51 813b 5c7b 813d 8bad f4b8
00000330: 80c0 173b 7531 433d 25d4 17bc 8fd8 a0bc
00000340: eb57 103d 728e c33c 6e5c 8e3d 7d57 923d
00000350: 10d1 ea3d 29e5 8e3d 73ef 9b3d f0fc e437
00000360: 2e68 3c3c 07cc 913d ec50 a63d 2de7 a33b
00000370: 16dc 933c fe47 8c3d 50ef 953d 05f0 843c
00000380: 1fcc ab3c 2421 083d f341 a43d 9668 0439
00000390: cf61 ca3d 8a3e bcb8 3893 02bc 5038 36bd
000003a0: dfc7 2e3c b3bc af3c 7274 1fbd 632b a13d
000003b0: aaf7 81bc 2659 a1bd cc3e 623d 5f66 413d
000003c0: df76 2dbc cc61 103d ff30 40bd 2148 17bd
000003d0: b7d1 3dbd 0638 a93d 6a46 7cbd 5173 c4bc
000003e0: 7c19 663d d663 50bd 2bd0 f33c 40fc 3cbc
000003f0: ac18 a33d f734 2b3d c6ac bf3c 7e62 823a

fc3.weight f4 [2, 400]
-0.08150847 -0.04808394 -0.17501348 -0.24868484 -0.0019319158 0.04175537 -0.19522598 0.028926352
-0.004076755 0.07862108 0.10130558 -0.24236344 0.012659887 0.04912526 0.1089226 -0.19405203
-0.13509576 -0.013680965 0.066108815 -0.1924109 -0.10528091 0.029450126 -0.028026186 0.105139755
0.106846675 0.13347374 0.12263141 -0.014815369 -0.49366912 0.054738026 -0.11293344 0.010809419
0.0433187 -0.045795463 -0.03719807 -0.1187189 0.061590016 -0.20914118 -0.04920636 0.12108462
-0.01909761 0.006290857 0.099969655 0.095522106 -0.044063248 0.13175945 -0.1832571 -0.046852686
0.03335778 -0.04587082 0.04301707 -0.3397809 0.07841599 0.09117535 0.014845306 0.040035654
-0.212559 0.11298021 0.051112812 -0.19751568 0.041905206 0.13527651 0.087776326 0.09952585
0.10527132 0.13385098 0.087052405 -0.0012648404 -0.28106418 -0.16525874 0.08175861 0.13689528
-0.15525867 0.15289393 0.07680147 0.005679441 -0.28604662 -0.3127311 -0.18945134 -0.042527977
-0.14259581 0.057953097 0.11865245 -0.0070535718 0.12672634 0.10045076 0.102846764 0.13685557
0.089661956 0.07043257 0.081195086 0.015527785 -0.19587812 -0.27251965 0.08673069 0.11994275
-0.0004561365 -0.20707585 0.021156872 0.35266075 0.0042586266 -0.17042424 -0.272073 0.10796787
0.05990444 -0.021516433 0.115846574 0.10468268 -0.1985709 -0.14478171 0.12698936 0.105596356
0.003639418 -0.1634857 -0.023835585 -0.027946817 -0.03800698 -0.0007848513 0.20316839 0.048682965
0.10643291 0.07763471 -0.1944614 0.15782386 0.011006819 0.108253516 -0.21843617 -0.0708822
0.1153171 0.2383804 0.11727341 -0.12069889 -0.15842596 -0.25463098 -0.17204823 -0.0107620545
-0.20867153 -0.038550373 -0.09970941 -0.24384625 -0.04262208 0.098987 -0.03139214 -0.15483208
-0.20273398 0.34057263 0.11212918 -0.26892874 0.01537606 0.05994379 0.05466045 0.13910112
0.12965314 -0.032268167 -0.13144638 0.10269731 -0.09424613 0.0964539 0.1132518 0.0584968
-0.03623542 0.03130871 -0.19267514 0.0756889 -0.031951003 0.008488983 -0.07572283 0.1946867
-0.18157385 0.15648158 -0.047807254 0.1533761 0.12844048 -0.2206044 0.20256339 -0.20226434
-0.012296768 0.06708339 -0.13271056 0.11610068 0.07537307 0.07238064 -0.102400124 0.07669204
0.046112716 -0.045003712 0.08136942 -0.17933658 0.05967493 -0.034068868 -0.027101215 0.15503158
-0.17445512 -0.1936091 0.124400705 0.47048408 0.10104649 0.03870627 -0.19041964 0.047495108
0.08325203 0.057227455 0.14615516 -0.037017252 0.0346767 0.13601044 0.008097998 -0.24031834
-0.20780618 -0.031776283 0.09634458 0.1029223 -0.4182163 0.097105615 -0.170057 0.114764996
0.037078988 0.13608293 0.1842757 0.06993386 -0.17611697 0.098670185 0.13442577 -0.0012164216
0.12907058 -0.0508331 0.101403706 0.14451596 0.18303953 -0.07350377 0.024176802 -0.20435546
-0.029688798 -0.011574728 -0.1993678 0.115754955 -0.03635201 -0.18611056 0.1416036 0.087342344
-0.03443509 0.109064266 0.027350271 -0.033932477 -0.028480321 0.11379814 0.031976055 0.11453604
-0.21333596 0.02900213 0.03836915 0.019543022 -0.20936035 0.11463599 0.0038542482 0.014665735
00000000: eaed a6bd aaf3 44bd bc36 33be 3da7 7ebe
00000010: 5638 fdba ae07 2b3d 52e9 47be f5f6 ec3c
00000020: 4d96 85bb 1704 a13d 4d79 cf3d 1f2e 78be
00000030: 6a6b 4f3c 9237 493d d012 df3d 93b5 46be
00000040: 8b56 0abe 2026 60bc 0f64 873d 5d07 45be
00000050: 859d d7bd 6441 f13c 2c97 e5bc 8353 d73d
00000060: 6ed2 da3d 57ad 083e 2d26 fb3d 29bc 72bc
00000070: 33c2 fcbe fb34 603d a649 e7bd fd19 313c
00000080: f36e 313d 0694 3bbd 015d 18bd e522 f3bd
00000090: d045 7c3d 1b29 56be 9c8c 49bd 37fb f73d
000000a0: 9772 9cbc 8923 ce3b e4bc cc3d 18a1 c33d
000000b0: aa7b 34bd f3eb 063e c0a7 3bbe 9ae8 3fbd
000000c0: 2ba2 083d 0ae3 3bbd ab32 303d c3f7 adbe
000000d0: 9098 a03d 24ba ba3d ba39 733c 6dfc 233d
000000e0: 11a9 59be 2b62 e73d ab5b 513d 8d41 4abe
000000f0: cba4 2b3d ed85 0a3e 13c4 b33d 35d4 cb3d
00000100: 7d98 d73d 3b10 093e 8848 b23d 00c9 a5ba
00000110: a5e7 8fbe 9639 29be 0f71 a73d 472e 0c3e
00000120: 21fc 1ebe 3a90 1c3e 174a 9d3d 9b1a ba3b
00000130: b474 92be 4a1e a0be 88ff 41be d131 2ebd
00000140: a304 12be 3a60 6d3d 0e00 f33d a621 e7bb
00000150: 8dc4 013e 21b9 cd3d 53a1 d23d de23 0c3e
00000160: b0a0 b73d f43e 903d 9c49 a63d 4068 7e3c
00000170: 4694 48be b287 8bbe dc9f b13d 8ba4 f53d
00000180: 9b25 efb9 b10b 54be 2d51 ad3c f38f b43e
00000190: f38b 8b3b b183 2ebe 274d 8bbe 421e dd3d
000001a0: 5c5e 753d 3b43 b0bc f840 ed3d df63 d63d
000001b0: 2c56 4bbe a841 14be 8009 023e e742 d83d
000001c0: 4d83 6e3b cc68 27be d842 c3bc b9f0 e4bc
000001d0: 35ad 1bbd 7bbe 4dba 600b 503e ca67 473d
000001e0: 7ff9 d93d f2fe 9e3d e420 47be 949c 213e
000001f0: f255 343c 05b4 dd3d bbad 5fbe b02a 91bd
00000200: 5f2b ec3d fe19 743e 0b2d f03d fb30 f7bd
00000210: 6a3a 22be fe5e 82be 692d 30be 5453 30bc
00000220: fdad 55be ffe6 1dbd 7234 ccbd d5b2 79be
00000230: 7d94 2ebd b2b9 ca3d 0b95 00bd 4d8c 1ebe
00000240: 7f99 4fbe 895f ae3e fca3 e53d 07b1 89be
00000250: dfeb 7b3c 9f87 753d a3e3 5f3d 8670 0e3e
00000260: cbc3 043e a02b 04bd e199 06be f852 d23d
00000270: 1d04 c1bd 9f89 c53d 8ff0 e73d 579a 6f3d
00000280: 976b 14bd 903d 003d a24c 45be c802 9b3d
00000290: 0edf 02bd 6015 0b3c 9214 9bbd f35b 473e
000002a0: 7fee 39be b53c 203e 8ad1 43bd a00e 1d3e
000002b0: e785 033e 1fe6 61be c76c 4f3e 621e 4fbe
000002c0: 6278 49bc 0463 893d 47e5 07be 31c6 ed3d
000002d0: 325d 9a3d 4d3c 943d 28b7 d1bd b710 9d3d
000002e0: b0e0 3c3d d055 38bd 03a5 a63d 02a4 37be
000002f0: b36d 743d cc8b 0bbd 5e03 debc 99c0 1e3e
00000300: 5da4 32be 7741 46be ccc5 fe3d 4ae3 f03e
00000310: 76f1 ce3d 778a 1e3d 5efd 42be 3b8a 423d
00000320: 0a80 aa3d 5667 6a3d b3a9 153e 679f 17bd
00000330: 2809 0e3d 5246 0b3e 77ad 043c 0316 76be
00000340: 25cb 54be d927 02bd 4f50 c53d edc8 d23d
00000350: 7220 d6be 4fdf c63d 6c23 2ebe e909 eb3d
00000360: 23e0 173d 5359 0b3e c5b2 3c3e 7c39 8f3d
00000370: 0258 34be 9813 ca3d e9a6 093e 5670 9fba
00000380: 142b 043e 5e36 50bd bfac cf3d fefb 133e
00000390: b76e 3b3e 2589 96bd 6e0e c63c 8f42 51be
000003a0: ec35 f3bc eea3 3dbc 1327 4cbe ef10 ed3d
000003b0: d8e5 14bd c493 3ebe 8900 113e 8be0 b23d
000003c0: cf0b 0dbd 165d df3d ad0d e03c c8fc 0abd
000003d0: 904f e9bc 000f e93d 53f9 023d df91 ea3d
000003e0: be74 5abe e095 ed3c f828 1d3d b018 a03c
000003f0: 8f62 56be 46c6 ea3d 8e97 7c3b 8d48 703c

fc3.bias f4 [2]
0.056450155 0.011073349
00000000: 4738 673d fe6c 353c
