reinforcement_learning/models_cartpole/cartpole_ne500_lr0.0001_ep0.2nonebest_dqn_agent.pt (torch, 654679 bytes, 6 tensors)

fc1.weight f4 [400, 4]
0	0xbe7e59c5	-0.24838932
1	0x3d32e3b9	0.043674204
2	0xbee3c558	-0.444865
3	0xbeb73b1c	-0.35787284
4	0x3dea8e76	0.114529535
5	0x3db77955	0.08958689
6	0x3f50fc62	0.81635106
7	0x3eefd2bb	0.46840462
8	0xbea47ab7	-0.32124874
9	0xbec50f17	-0.38488075
10	0xbda7b70a	-0.08189209
11	0xbd1f68b2	-0.038918205
12	0xbeb26120	-0.34839725
13	0x3e666e55	0.22503026
14	0x3df35d9a	0.118830875
15	0x3ee88b4e	0.4541878
16	0xbec36e4d	-0.3817009
17	0xbea9baa3	-0.33150205
18	0x3e2b334c	0.16718787
19	0xbed135ae	-0.40861267
20	0xbdef7a56	-0.116932556
21	0x3ecc363b	0.39885125
22	0xbed55208	-0.41664147
23	0x3def1dd3	0.116756104
24	0xbf09fafd	-0.538986
25	0xbe92f5db	-0.28703198
26	0x3d087ea4	0.0333239
27	0x3e3f8cd6	0.18706068
28	0xbe9b46ef	-0.30327556
29	0x3ec10630	0.37700033
30	0x3d6cdab8	0.057825774
31	0xbc815ab2	-0.015790317
32	0x3d82c774	0.06385699
33	0x3e38497b	0.1799678
34	0xbe7a2772	-0.2442911
35	0x3d2bfcbe	0.04198908
36	0x3de3fb50	0.111319184
37	0x3e914a2c	0.283769
38	0x3f3ce4bc	0.7378652
39	0x3eccb414	0.3998114
40	0xbef155ba	-0.47135717
41	0xbe47ce51	-0.19512297
42	0xbdb5f6c9	-0.08884961
43	0xbf045cf2	-0.51704323
44	0xbced5a60	-0.028973758
45	0xbccc1700	-0.024913311
46	0x3eda9c66	0.42697448
47	0xbd942958	-0.07234448
48	0xbeebea06	-0.46076983
49	0xbef54fc9	-0.47912434
50	0xbe50be4c	-0.20385092
51	0xbdf5dd1b	-0.12005063
52	0x3eda9703	0.42693338
53	0x3ec69646	0.38786525
54	0xbf0310ba	-0.511974
55	0x3e0d38ad	0.13791151
56	0x3e88b25a	0.2669857
57	0x3e848e59	0.25889853
58	0x3e7a0a19	0.24417914
59	0x3eda8611	0.4268041
60	0x3eb36021	0.35034278
61	0x3ea061cb	0.3132461
62	0xbeb2c7aa	-0.34917957
63	0xbee223e2	-0.44168
64	0x3d2d78dc	0.04235159
65	0x3dc4904b	0.09597834
66	0xbefb0a43	-0.49031267
67	0x3e32092c	0.17386311
68	0x3ebb238b	0.36550555
69	0x3dad2e02	0.08456041
70	0xbe3ee90b	-0.18643586
71	0x3c1fd841	0.009756149
72	0x3d6df717	0.05809697
73	0x3ef3d5bd	0.47624007
74	0xbeeef21e	-0.46669096
75	0xbcb0ff14	-0.021606006
76	0xbe88a6c4	-0.26689732
77	0x3e97a8d6	0.29621
78	0xbe93ecc4	-0.28891575
79	0x3e8a7fca	0.2705062
80	0xbd8ae3ad	-0.06781707
81	0x3e691e4c	0.22765464
82	0x3ea4d77a	0.32195646
83	0x3ec8abbc	0.39193523
84	0x3ee47e78	0.44627738
85	0x3edbc671	0.42924836
86	0xbdb3344f	-0.087502114
87	0x3ed64fcf	0.41857764
88	0xbd8882de	-0.06665586
89	0x3f10edf3	0.5661308
90	0xbd810f40	-0.06301737
91	0x3edcfbd6	0.43160886
92	0xbf090d9e	-0.53536403
93	0x3e05553b	0.13020794
94	0x3ec0ae1a	0.3763283
95	0xbe6a5101	-0.22882463
96	0x3ea8efd1	0.32995465
97	0xbed02608	-0.40654016
98	0xbf0e9474	-0.5569527
99	0x3dc5ed4c	0.096644014
100	0xbf0a62ac	-0.5405681
101	0xbe27e588	-0.16396153
102	0x3d78c733	0.060736846
103	0xbcd9e71a	-0.026599456
104	0x3ead787a	0.3388098
105	0xbe954eaa	-0.29161578
106	0xbf2d7a1e	-0.6776446
107	0x3ebf3ab3	0.3734947
108	0x3eee56fb	0.46550736
109	0xbeda4bf2	-0.42636067
110	0xbee73787	-0.45159552
111	0xbe7b1683	-0.24520306
112	0xbf067145	-0.52516586
113	0x3eb6cb23	0.35701856
114	0x3f3e7080	0.7439041
115	0x3eecd0f9	0.46253183
116	0x3eac20cd	0.33618775
117	0xbefd11a5	-0.49427524
118	0x3e33780c	0.17526263
119	0x3ec3c509	0.38236263
120	0x3ea81aa5	0.32832828
121	0x3ebfd6fb	0.37468705
122	0x3ed17f3e	0.4091739
123	0xbe23ca6c	-0.15995187
124	0x3e01a5c0	0.12660885
125	0x3e628271	0.22120072
126	0xbec4df72	-0.38451725
127	0xbeb5960c	-0.3546604
128	0xbe34088a	-0.17581382
129	0x3d0c2300	0.034213066
130	0xbf25bad5	-0.6473821
131	0x3ec40d7c	0.38291538
132	0x3e956e98	0.2918594
133	0x3e7ea20a	0.248665
134	0x3db473b8	0.08811134
135	0x3ebfacbf	0.37436482
136	0x3edef90e	0.4354939
137	0xbd0d7b18	-0.03454122
138	0x3ef06082	0.4694863
139	0x3c8b419d	0.01699906
140	0xbd06d038	-0.032913417
141	0x3c8f00dd	0.017456466
142	0xbf166e3b	-0.5876195
143	0xbe63aab3	-0.22233085
144	0xbebd7c5a	-0.37008935
145	0x3eaf5faf	0.34252688
146	0xbf280f18	-0.6564803
147	0xbea0f818	-0.3143928
148	0x3f050357	0.5195822
149	0xbecb81ed	-0.39747563
150	0xbe0644c2	-0.13112167
151	0x3e3d5057	0.18487678
152	0x3d1b70c0	0.037949324
153	0xbccb136c	-0.024789535
154	0xbf4ea2c2	-0.807171
155	0x3eff7200	0.49891663
156	0xbd7371bf	-0.05943465
157	0x3ea75e6f	0.32689235
158	0x3eeb4239	0.4594896
159	0xbe989c33	-0.2980667
160	0x3d7db0dc	0.061936244
161	0x3ec1d337	0.37856457
162	0xbe1502fd	-0.14551921
163	0x3eeab120	0.4583826
164	0xbe12286e	-0.14273235
165	0xbd56c67a	-0.052435376
166	0xbe90a7b8	-0.2825296
167	0xbec7b590	-0.3900571
168	0xbeb4c76a	-0.3530839
169	0x3eb9d210	0.36293077
170	0xbf0a9817	-0.5413832
171	0x3ee7082a	0.45123416
172	0xbeb0b770	-0.34514952
173	0x3ea3aa70	0.3196597
174	0xbeaee53c	-0.34159267
175	0x3ea93fb2	0.33056408
176	0x3e87a1ec	0.26490724
177	0x3d20e823	0.039283883
178	0x3f1e1e4c	0.6176498
179	0x3e01d18e	0.12677595
180	0xbed073bc	-0.40713298
181	0x3bd38d2b	0.0064560375
182	0x3cfc0a2e	0.030766573
183	0x3ea85869	0.32879952
184	0x3e0b41ec	0.13599366
185	0xbd2ba6ba	-0.04190705
186	0xbec2d809	-0.38055447
187	0x3e9a46f9	0.30132273
188	0xbdabd495	-0.08390156
189	0x3ee416f9	0.44548777
190	0xbda39249	-0.07986886
191	0xbeab180c	-0.33416784
192	0xbdf91d2b	-0.121637665
193	0xbea83ea6	-0.32860297
194	0xbdf8b228	-0.121433556
195	0xbe6fcf01	-0.2341881
196	0x3deb2be8	0.11482984
197	0xbe3d7388	-0.18501103
198	0xbeef023b	-0.4668139
199	0xbe96c067	-0.29443666
200	0xbe03d56c	-0.12874383
201	0xbe501b6b	-0.20322959
202	0xbe808ae8	-0.25105977
203	0xbde1ce37	-0.110256605
204	0xbef6f0f7	-0.48230717
205	0xbec562c7	-0.38551924
206	0x3de04306	0.10950284
207	0x3e1527d4	0.14565974
208	0xbe8bc0fd	-0.27295676
209	0xbe6e5a4f	-0.23276637
210	0xbe96e645	-0.29472557
211	0xbe09ab29	-0.13444199
212	0x3b6143c2	0.0034372662
213	0xbea06502	-0.31327063
214	0xbe733a59	-0.23752727
215	0xbdcca3e6	-0.09992199
216	0x3eb3d0b9	0.3512018
217	0xbf093898	-0.5360198
218	0x3eece718	0.4627006
219	0xbd2232f2	-0.039599366
220	0xbe4b0f69	-0.19830097
221	0x3e371844	0.1788035
222	0x3f2304ae	0.63679016
223	0xbdcb12ae	-0.09915672
224	0x3e1bfce0	0.15233183
225	0xbe0f2523	-0.1397901
226	0x3f1bed97	0.6090941
227	0xbed242cd	-0.4106659
228	0xbd557dad	-0.052121807
229	0x3e5d4505	0.2160836
230	0x3de58502	0.1120701
231	0xbe66bfdf	-0.2253413
232	0xbf24df8e	-0.6440362
233	0x3e85b6ce	0.2611603
234	0x3db900c6	0.09033351
235	0xbef67ea7	-0.48143503
236	0xbe3073a1	-0.17231609
237	0x3ea9ac9a	0.33139497
238	0xbed55ce4	-0.41672432
239	0xbf011279	-0.5041881
240	0x3ecc6f3f	0.39928624
241	0xbed55c1f	-0.41671845
242	0xbe74b1b7	-0.23895918
243	0xbeee2559	-0.4651287
244	0xbe43387d	-0.19064517
245	0x3e6f1856	0.23349127
246	0x3f6f8a26	0.9357017
247	0x3eb7f808	0.3593142
248	0xbed66e28	-0.41880918
249	0x3ef83f1b	0.48485646
250	0x3e7c0ba6	0.24613819
251	0x3ea697b0	0.32537603
252	0xbe11548d	-0.1419241
253	0xbe00d258	-0.1258024
254	0xbf0ade0e	-0.5424508
255	0x3e8673b4	0.2626015

fc1.bias f4 [400]
0	0xbe6f6572	-0.23378542
1	0xbe87c70a	-0.26519042
2	0xbea851df	-0.32874963
3	0xbeaeae84	-0.3411752
4	0x3d8c5c55	0.068535484
5	0x3e97a89b	0.29620823
6	0xbe669a02	-0.22519687
7	0x3ef8bf26	0.48583335
8	0x3ef2a51b	0.4739159
9	0xbea43790	-0.3207364
10	0xbe2fb132	-0.17157438
11	0xbed4567c	-0.41472232
12	0xbea56f5d	-0.32311526
13	0xbdcbe4d5	-0.099557556
14	0xbeb49e41	-0.35276988
15	0x3e78ee52	0.24309662
16	0x3ed05a19	0.4069374
17	0x3e0fc9d3	0.14041834
18	0xbe1bd603	-0.15218358
19	0xbeed1cea	-0.46311122
20	0x3e96a5a0	0.29423237
21	0xbedca2bf	-0.43092915
22	0xbef4645c	-0.47732818
23	0x3e2ab39c	0.16670078
24	0x3eb727a4	0.3577243
25	0x3eba56ed	0.36394444
26	0x3ed40d3e	0.41416353
27	0x3ea8118a	0.3282588
28	0xbeaa3396	-0.33242482
29	0x3eabf438	0.33584762
30	0xbe86f296	-0.26356953
31	0xbeca5a2c	-0.3952192
32	0x3cdac3ed	0.026704753
33	0x3eb35b7f	0.35030743
34	0x3ee56d37	0.44809887
35	0x3ee3b195	0.44471422
36	0x3f0e6f54	0.55638623
37	0x3e1dfdad	0.15428801
38	0xbc200a76	-0.009768119
39	0x3e7a30b5	0.24432643
40	0xbedd18ab	-0.43182883
41	0xbdbd07b9	-0.092299886
42	0x3d9ee2da	0.07758112
43	0x3ef6685d	0.48126498
44	0x3e803f6c	0.25048387
45	0xbf29aea2	-0.66282094
46	0x3eba6499	0.36404875
47	0xbeb4f28c	-0.353413
48	0xbefa7288	-0.48915505
49	0xbe219546	-0.157796
50	0xbed18712	-0.40923363
51	0xbf0a0c98	-0.53925467
52	0x3e90bc54	0.28268683
53	0x3f07e273	0.5307991
54	0x3e34b031	0.17645337
55	0x3efa678e	0.4890713
56	0x3e3f3102	0.18671039
57	0x3ed8f7e5	0.4237663
58	0xbc1d4f08	-0.009601362
59	0xbe5a0c01	-0.21293642
60	0xbe7a576d	-0.24447413
61	0xbe814cde	-0.25253958
62	0x3ed7663b	0.42070183
63	0x3e97f27a	0.29677182
64	0x3f0e5d90	0.55611515
65	0xbeac0681	-0.33598712
66	0xbe75607c	-0.23962587
67	0xbe4633cf	-0.19355701
68	0x3e17065d	0.14748521
69	0xbee92a47	-0.45540068
70	0x3e196c7f	0.14982794
71	0x3e584e02	0.21123508
72	0x3e9b9493	0.3038679
73	0x3de2cb87	0.11073976
74	0xbc43dd04	-0.01195455
75	0x3e7827ed	0.2423398
76	0xbed0b9fe	-0.407669
77	0x3e2e3d36	0.17015538
78	0x3ed82352	0.42214447
79	0xbe360290	-0.17774415
80	0xbede9ee7	-0.43480608
81	0xbdc921dd	-0.09820912
82	0xbe574279	-0.21021451
83	0x3e8046e9	0.250541
84	0x3eaa81be	0.3330211
85	0x3e7747fa	0.2414855
86	0x3d9c5781	0.076338775
87	0x3f03cc6b	0.5148379
88	0x3efceeae	0.49400848
89	0x3eff629d	0.49879923
90	0x3eabf9ba	0.33588964
91	0x3e8cacd1	0.27475598
92	0x3ededa17	0.43525764
93	0xbe78a9b0	-0.2428348
94	0xbefe5c78	-0.49679923
95	0xbdd26b34	-0.102743536
96	0x3e51b64a	0.20479694
97	0xbea75b5d	-0.32686892
98	0x3efb0921	0.49030402
99	0xbe439606	-0.19100198
100	0x3e4cd181	0.20001794
101	0x3eb97c81	0.362278
102	0x3efc54ff	0.49283597
103	0xbe5d4b56	-0.2161077
104	0x3f090540	0.53523636
105	0xbe04e60f	-0.12978385
106	0xbe239b6d	-0.15977259
107	0xbdfbf2a2	-0.12302138
108	0x3f03adba	0.5143696
109	0x3ec47d31	0.38376763
110	0x3e1baf72	0.15203646
111	0xbe264a5e	-0.16239306
112	0x3e99ebfb	0.3006285
113	0xbe1ea0c8	-0.1549102
114	0xbd0f209e	-0.034943216
115	0x3e66e504	0.225483
116	0x3eee9c6f	0.46603724
117	0xbf0fc0e2	-0.5615369
118	0xbf0025fc	-0.5005796
119	0x3e30e60d	0.17275257
120	0xbf1ec5c0	-0.6202049
121	0xbe9265eb	-0.28593382
122	0xbe9f1af2	-0.31075245
123	0x3d6989bc	0.05701612
124	0x3f05f889	0.5233236
125	0xbf05fb80	-0.52336884
126	0xbe931d2d	-0.28733197
127	0xbe8c61c1	-0.2741833
128	0xbf24a0b9	-0.64307743
129	0xbece33e1	-0.40273955
130	0x3e74fe2e	0.23925087
131	0x3ec74e47	0.38926908
132	0xbf164b5e	-0.5870875
133	0xbefef5a6	-0.4979679
134	0x3d834a8e	0.064107046
135	0xbe900b1a	-0.2813347
136	0xbe354211	-0.17700984
137	0x3e8a4f5a	0.27013665
138	0xbe7d21ab	-0.24719875
139	0x3ee2d9ae	0.443067
140	0x3f0175d0	0.5057039
141	0x3ec39099	0.38196257
142	0x3de1e024	0.110290796
143	0xbf05ad25	-0.5221732
144	0xbed3c557	-0.41361496
145	0x3ee60e9b	0.44933018
146	0xbe944ce6	-0.2896492
147	0x3ef90cb8	0.48642516
148	0xbea1231c	-0.314721
149	0x3eeb8c67	0.46005556
150	0x3e4f744d	0.20259209
151	0x3f010ea3	0.5041296
152	0xbebc65e9	-0.367965
153	0xbd7b8eca	-0.06141547
154	0xbe9e4bcf	-0.30917212
155	0x3e20b22d	0.15692969
156	0x3dd11520	0.102091074
157	0xbe43e93c	-0.1913194
158	0x3ef8d794	0.48601973
159	0x3e0504a5	0.12990053
160	0xbe1c3d71	-0.15257813
161	0x3e32c38e	0.1745741
162	0xbe62cac3	-0.2214766
163	0xbebef377	-0.37295124
164	0x3e9e859f	0.3096132
165	0xbefbc058	-0.49170184
166	0x3e0d6f85	0.13812073
167	0xbe8d518c	-0.27601278
168	0xbe3b911f	-0.18317078
169	0x3edea484	0.4348489
170	0x3e907c13	0.2821966
171	0x3ea1296e	0.3147692
172	0xbe986d5a	-0.2977093
173	0x3d962006	0.07330327
174	0xbe6d6327	-0.23182355
175	0xbe5c9a23	-0.21543173
176	0x3db20113	0.08691611
177	0x3de275df	0.110576384
178	0x3e91b03a	0.28454763
179	0x3da67d51	0.08129371
180	0x3f013e35	0.50485545
181	0xbc46300a	-0.012096414
182	0x3e650fa9	0.22369255
183	0xbe4f80ff	-0.20264052
184	0xbe1daf22	-0.15398839
185	0x3e9c1553	0.3048502
186	0x3f0ee7b8	0.55822325
187	0x3ef3245c	0.47488678
188	0xbdee5ab1	-0.11638392
189	0xbeb3bd02	-0.3510514
190	0xbe88441f	-0.26614472
191	0xbe08b15d	-0.13348909
192	0xbedb8a14	-0.42878783
193	0x3f035071	0.5129462
194	0xbecf40f5	-0.40479246
195	0x3e9a06c1	0.30083278
196	0x3e9db037	0.30798504
197	0x3ee6907f	0.45032117
198	0xbea69130	-0.32532644
199	0x3eca37a6	0.3949558
200	0xbf0e9b06	-0.55705297
201	0x3ba0880b	0.00489903
202	0xbe73841a	-0.23780861
203	0xbe7cd856	-0.246919
204	0xbef9ac22	-0.4876414
205	0x3e4a757b	0.19771378
206	0xbd71c336	-0.05902406
207	0xbf0d773e	-0.55260074
208	0x3ca877f6	0.020565014
209	0xbea721f0	-0.3264308
210	0xbe0539d8	-0.13010347
211	0x3e710c9e	0.2353997
212	0x3eafbd92	0.34324318
213	0xbd204c4f	-0.039135274
214	0xbec9ecaa	-0.39438373
215	0xbdd12256	-0.10211627
216	0xbe355600	-0.17708588
217	0x3da1b6af	0.07896172
218	0x3ec4c138	0.38428664
219	0xbe90d0ee	-0.282844
220	0xbeb9c749	-0.36284855
221	0xbeb70ee7	-0.35753557
222	0x3e37edeb	0.17961852
223	0x3e6bdd46	0.23033628
224	0xbd36254d	-0.044469167
225	0xbe281a8f	-0.16416381
226	0x3f0696ee	0.5257405
227	0xbeb4a86c	-0.35284746
228	0x3d941a0d	0.07231531
229	0xbf007f25	-0.5019401
230	0xbf01d8f1	-0.5072165
231	0x3d4623bf	0.048373934
232	0x3e58c610	0.21169305
233	0x3e39f39c	0.18159336
234	0x3dbd8f76	0.092558786
235	0xbe7374a5	-0.23774965
236	0x3ea04e33	0.3130966
237	0xbef2dfc6	-0.4743635
238	0xbef02df2	-0.46910053
239	0x3d91af18	0.071134746
240	0x3f016483	0.50543994
241	0x3e0fa223	0.14026694
242	0x3e491cac	0.19639844
243	0x3ef110a8	0.4708302
244	0x3e268dfe	0.16265103
245	0x3ec6f2b7	0.38857052
246	0x3b9bf393	0.004759261
247	0x3efa7f40	0.4892521
248	0xbe95a5b0	-0.29227972
249	0xbe1089cc	-0.14115065
250	0x3ebbd3aa	0.36684924
251	0x3ec34d54	0.38144934
252	0x3e8766fe	0.26445764
253	0xbe80e9d5	-0.251784
254	0x3efa4faf	0.4888892
255	0x3c4c0f11	0.012454764

fc2.weight f4 [400, 400]
0	0x3cd080ba	0.025452007
1	0x3d0f8c6f	0.035046037
2	0x3d18d681	0.037313942
3	0xbce6f17f	-0.028191326
4	0x3af71a33	0.0018852412
5	0xbce07554	-0.027399696
6	0xbd2e38d3	-0.04253466
7	0x3c9bbb11	0.019010099
8	0xbd27e481	-0.040989403
9	0x3d256310	0.040377676
10	0xbc127d7a	-0.008941049
11	0xbd3abbba	-0.045589186
12	0xbc8b48e9	-0.01700254
13	0x3d334343	0.043765318
14	0x3ce90165	0.028443048
15	0xbc38aab3	-0.011271167
16	0xbce3c443	-0.027803546
17	0x3d249a32	0.040186115
18	0xbd1dd610	-0.038534224
19	0x3be0c900	0.0068598986
20	0xbcd33cd9	-0.02578585
21	0x3cede04d	0.029037619
22	0xbd252caa	-0.040325798
23	0x3a842833	0.0010082781
24	0x3cf60bca	0.030034918
25	0xbc18d665	-0.009328459
26	0xbabd4bef	-0.0014442186
27	0x3cf75110	0.03019002
28	0x3cb16ce6	0.021658372
29	0xbc6beed0	-0.014400199
30	0xbd3fb17a	-0.046800114
31	0x3d41c2f2	0.047305055
32	0x3c1a9709	0.009435424
33	0x3c0670ff	0.008205651
34	0x3ceed31b	0.029153397
35	0x3c2eb130	0.010662362
36	0x3d41268d	0.047155906
37	0xbc073661	-0.008252711
38	0xbd24eb5f	-0.04026353
39	0x3baeb6f3	0.005331868
40	0x3c81cf21	0.015845837
41	0x3cbb7013	0.02288059
42	0xbbf26a08	-0.007397894
43	0xbcc6c867	-0.024265481
44	0xbc677265	-0.014126395
45	0x3c2f13fb	0.010685916
46	0x3cfa3502	0.030542854
47	0xbbede45a	-0.0072598876
48	0x3d41e927	0.047341492
49	0x3d40a233	0.047029685
50	0xbc94835d	-0.018129045
51	0xbcad1f19	-0.021132993
52	0x3c337570	0.010953292
53	0x3cb8707a	0.02251457
54	0xbd1285b2	-0.035772033
55	0x3d366086	0.044525646
56	0x3ced8690	0.028994828
57	0x3d303524	0.04301943
58	0xbd2650df	-0.04060447
59	0xbce56830	-0.028003782
60	0xbcfb056a	-0.03064223
61	0x3c713755	0.014722665
62	0xbcb375bb	-0.021906724
63	0x3bdfb5a0	0.0068270713
64	0x3c64242e	0.013924642
65	0xbd465937	-0.048424926
66	0x3cf1d247	0.029519213
67	0xbb9882e4	-0.0046542753
68	0x3c845987	0.016155971
69	0x3c10aa93	0.008829731
70	0x3c27bcdb	0.010237898
71	0x3d3b322b	0.04570214
72	0xbc2eb22e	-0.010662599
73	0xbc1ef133	-0.009701061
74	0xbcf62f35	-0.030051807
75	0xbd1fc9ee	-0.039010935
76	0xbbfe0a8d	-0.0077527226
77	0xbc2921f1	-0.010323034
78	0xbcfeb084	-0.031090029
79	0xbbfdc150	-0.007743992
80	0x3d2edae7	0.04268923
81	0xbd33a504	-0.043858543
82	0xbd26a003	-0.040679943
83	0xbc0efd52	-0.008727388
84	0x3c256ac7	0.0100962585
85	0xbd4615e3	-0.048360717
86	0xbcee4a7d	-0.029088253
87	0x3cdd3453	0.02700249
88	0xbcb0ef85	-0.021598587
89	0xbcc80b93	-0.024419582
90	0xbbfcab36	-0.0077108396
91	0xbd36f718	-0.04466924
92	0xbd48758c	-0.048940226
93	0x3c6c7c8d	0.014433992
94	0xbc0d056d	-0.008607251
95	0x3ccb7553	0.024836218
96	0x3bf4f1c4	0.00747511
97	0x3d12dc77	0.035854783
98	0x3c870b36	0.016484838
99	0xbd393258	-0.045214027
100	0xbd4ede51	-0.050504986
101	0x3cadb999	0.021206664
102	0x3b80f406	0.00393534
103	0x3c37d2bd	0.0112196775
104	0x3d25605a	0.04037509
105	0x3cec35ae	0.02883419
106	0x3cbc56f3	0.02299068
107	0x3c82f684	0.015986688
108	0x3d050bae	0.03248184
109	0xbd0142b7	-0.031557765
110	0xbd1ae8ef	-0.0378198
111	0x3cb167f7	0.02165602
112	0x3c4402bc	0.011963543
113	0x3bd159da	0.006388885
114	0xbd1b030a	-0.037844695
115	0xbd3738d7	-0.04473194
116	0xbcbb1493	-0.022836959
117	0xbd3c8dbf	-0.046033617
118	0x3b299900	0.0025878549
119	0x3cf4ed66	0.029898357
120	0xbccba77b	-0.024860134
121	0x3b078632	0.0020679352
122	0x3d49767f	0.049185272
123	0xbbb074b3	-0.0053850054
124	0x3cf3d438	0.02976428
125	0xbd2a650e	-0.04160028
126	0x3ca52a70	0.020161837
127	0x3b3c8c55	0.0028770168
128	0x3d15f2a8	0.03660837
129	0xbca920aa	-0.020645458
130	0x3c89c553	0.016817724
131	0x3d0ade41	0.033903364
132	0x3cda548d	0.026651645
133	0xbb2205e7	-0.0024722756
134	0xbc5b3063	-0.0133782355
135	0x3c68729a	0.014187479
136	0xbd539f5e	-0.051665656
137	0xbcbd0c2e	-0.023077097
138	0xbd368b5d	-0.0445665
139	0xbcb4eaf4	-0.02208469
140	0xbd464ab2	-0.04841108
141	0x3cf33117	0.029686494
142	0xbd41c1e3	-0.047304045
143	0xbc812b87	-0.015767826
144	0x3bd89a9a	0.006610227
145	0xbd0f37f2	-0.034965463
146	0xbd1b589d	-0.037926305
147	0xbd16cd1b	-0.036816698
148	0x3b8e05a3	0.004334168
149	0xbd1cff22	-0.03832925
150	0x3cebf341	0.028802516
151	0xbd2fbed2	-0.04290659
152	0x3b19849a	0.0023424984
153	0xbcceb0a0	-0.025230706
154	0x3cd5a860	0.026081264
155	0xbca61c6d	-0.020277226
156	0xbcafbcf7	-0.02145241
157	0xbcb6e147	-0.022324217
158	0x3d33cd87	0.043897178
159	0x3c94458a	0.018099565
160	0x3d395eee	0.045256548
161	0x3b860469	0.004089881
162	0x3d45a0cd	0.048249055
163	0x3d45a133	0.048249435
164	0x3d0df659	0.034658764
165	0x3d1f37a2	0.038871415
166	0x3cda5fd4	0.026657023
167	0xbc4438ad	-0.011976403
168	0x3bbfbca2	0.005851344
169	0xbab4804a	-0.0013771143
170	0xbbbfd0e7	-0.0058537605
171	0xbd03e0e5	-0.032196898
172	0x3ce8e32d	0.028428638
173	0x3d1fac04	0.038982406
174	0xbd0771cd	-0.033067513
175	0x3c378d7b	0.011203165
176	0xbc568a66	-0.01309452
177	0x3d2e19de	0.042505138
178	0x3c781f1f	0.015144139
179	0x3cc9da98	0.024640366
180	0xbd1b6245	-0.037935514
181	0x3c3a1956	0.01135858
182	0xbcb486ee	-0.022036996
183	0x3c3d04ad	0.011536759
184	0xbd5ccf0b	-0.05390839
185	0xbcea5bbc	-0.028608195
186	0x3d082a57	0.033243503
187	0x3c57f178	0.013180129
188	0xbd4d9de3	-0.0501994
189	0x3c27f97e	0.010252355
190	0xbcb4e050	-0.022079617
191	0x3d2e5047	0.042557027
192	0x3c1b5180	0.00947988
193	0xbd123309	-0.035693202
194	0xbccc1798	-0.024913594
195	0xbd1a2413	-0.03763206
196	0xbd4c36a6	-0.049856804
197	0x3d1ee190	0.038789332
198	0xbc3cfab3	-0.011534381
199	0x3c4c5442	0.0124712605
200	0x3c36c538	0.011155419
201	0x3cb97c9a	0.022642422
202	0xbd328357	-0.043582287
203	0x399a5ede	0.0002944385
204	0xbc3fe908	-0.011713274
205	0xbc2ba225	-0.01047567
206	0xbd1dfae3	-0.038569342
207	0x3d133273	0.035936784
208	0xbbfcc5da	-0.0077140154
209	0x3d0e2792	0.034705706
210	0x3d2d683a	0.042335726
211	0xbcc14033	-0.023590183
212	0x3d202029	0.03909317
213	0x3d27022f	0.040773567
214	0xbd432357	-0.047641125
215	0x3c60ed27	0.0137284165
216	0x3d07b6a7	0.033133175
217	0x3c7a63b5	0.015282561
218	0x3d2e28a9	0.042519245
219	0xbca7e643	-0.02049554
220	0xbb6e9ee7	-0.003641063
221	0xbd4bcc6d	-0.049755502
222	0xbc977133	-0.018486595
223	0x3c46d482	0.012135627
224	0x3d36653d	0.044530142
225	0x3c832d77	0.01601289
226	0xba1a9505	-0.00058968394
227	0x3cb83967	0.02248831
228	0x3d368252	0.044557877
229	0xbcb6fe67	-0.022338105
230	0x3bc4bd76	0.006004031
231	0xbcd552cc	-0.026040457
232	0xbbe3b1b1	-0.0069486727
233	0x3b0b5c23	0.0021264635
234	0x3cf4cd01	0.02988291
235	0xbc386340	-0.011254132
236	0xbd124597	-0.035710897
237	0x3ae64067	0.0017566801
238	0xbd1a750b	-0.037709277
239	0x3c05e2a7	0.008171714
240	0xbd368b31	-0.044566337
241	0x3cd1ec9a	0.025625516
242	0xbc4552c7	-0.012043661
243	0xbd0e9a82	-0.03481532
244	0xbcd4bb33	-0.02596817
245	0x3cc865a7	0.024462534
246	0x3c338fe0	0.010959595
247	0x3d33eb1e	0.043925397
248	0xbd109030	-0.035293758
249	0x3c3a8f13	0.011386651
250	0xbd34108f	-0.043961104
251	0x3b206674	0.002447513
252	0xb9de381e	-0.0004238495
253	0x3cf846de	0.03030723
254	0xbd386518	-0.045018286
255	0x3ca1413d	0.019684428

fc2.bias f4 [400]
0	0x3d124b63	0.035716426
1	0xbd8676a3	-0.06565597
2	0xbd483934	-0.04888268
3	0x3c1957e8	0.009359337
4	0x3d2f12ec	0.042742655
5	0x3d8db458	0.069191635
6	0x3cf25d01	0.029585363
7	0xbc960afb	-0.018315783
8	0x3c1eff20	0.009704381
9	0x3cc21898	0.023693368
10	0x3d8845b5	0.066539206
11	0x3ce2ee28	0.027701452
12	0xbc70c2ae	-0.014694853
13	0xbce7a9f6	-0.028279286
14	0xbd575d37	-0.05257913
15	0x3ca6c2ea	0.020356614
16	0x3cb1612e	0.021652784
17	0x3d22ee0b	0.039777797
18	0x3d1298c3	0.035790216
19	0x3bd4ce0a	0.0064942883
20	0x3b987cf0	0.0046535656
21	0xbc8f89a2	-0.017521683
22	0x3c2600c4	0.0101320185
23	0x3d7173c7	0.058948305
24	0x3c2940f3	0.0103304265
25	0xbc0de7aa	-0.00866119
26	0xbc7b3365	-0.015332078
27	0x3d0aec56	0.033916794
28	0xbc87c700	-0.016574383
29	0xbd4b4924	-0.0496303
30	0x3ca556f9	0.020183073
31	0xbcf38eb3	-0.02973113
32	0xbd1c8772	-0.03821511
33	0x3ba3562e	0.0049846387
34	0x3c41da33	0.011831808
35	0x3cbd60e5	0.023117492
36	0x3d84dcbe	0.06487416
37	0x3d439752	0.047751732
38	0x3bdfe116	0.0068322523
39	0xbd0e2cea	-0.034710802
40	0xbcb68e21	-0.02228457
41	0xbd18e19b	-0.03732453
42	0xbc8cd0de	-0.01718944
43	0x3cbb31c3	0.022850877
44	0x3b5c25b6	0.0033591813
45	0x3cd13347	0.025537146
46	0x3d9cc3a7	0.07654505
47	0x3ce274b3	0.027643537
48	0x3c200e49	0.009769031
49	0x3ca60dbc	0.020270221
50	0x3d21acd3	0.03947146
51	0xbbb6fbf3	-0.005584234
52	0x3caeb5a1	0.021326842
53	0x3d42688c	0.047462985
54	0xba06ea88	-0.0005146642
55	0x3cc50ed9	0.024054931
56	0xbb9ff51f	-0.0048815156
57	0x3db334bd	0.087502934
58	0x3ca1cc62	0.019750778
59	0x3c835f5e	0.016036686
60	0x3d20b6c9	0.039236818
61	0xbd12497d	-0.035714615
62	0x3d4a0c81	0.04932833
63	0x3d00cacc	0.031443402
64	0x3cfee726	0.03111608
65	0xbc04d7db	-0.008108105
66	0x3da9a186	0.08282761
67	0x3d61f3f6	0.0551643
68	0xbb212f3c	-0.0024594804
69	0x3d821cde	0.06353162
70	0x3aed3644	0.0018097837
71	0x3cbf5df2	0.023360226
72	0xbd01c3d6	-0.031680904
73	0xbd4620e0	-0.048371196
74	0xbcf09260	-0.029366672
75	0xbd02abce	-0.031902127
76	0x3c345c03	0.011008265
77	0x3c9d19c8	0.019177333
78	0x3d882bfe	0.06649016
79	0x3d79fbca	0.06103114
80	0x3d0ff89f	0.035149213
81	0xb975ee41	-0.00023453777
82	0xbb68bbb4	-0.003551227
83	0xbd29d59f	-0.04146349
84	0x3baed934	0.005335951
85	0xbc3e608e	-0.0116197
86	0xbddbe1b7	-0.10736411
87	0xbd37562e	-0.04475992
88	0x3d895c7e	0.067070946
89	0x3c736a32	0.014856862
90	0x3dc15598	0.09440154
91	0x3d04f93f	0.032464262
92	0x3c282cf3	0.010264623
93	0x3cfd6b84	0.030935057
94	0x3d4b4832	0.049629398
95	0xbd45b84a	-0.048271455
96	0xbc19acb7	-0.009379557
97	0x3d8cc49b	0.06873437
98	0xbccaf725	-0.02477605
99	0x3dac6bb7	0.084189825
100	0x3ce43d51	0.02786127
101	0xbcb0aef5	-0.021567801
102	0xbc3aeb1f	-0.011408596
103	0x3bc194bd	0.0059076236
104	0xbd0f64bf	-0.03500819
105	0x3d2ae60b	0.041723292
106	0xbccca155	-0.024979273
107	0x3d8a4622	0.06751658
108	0x3cbb4018	0.02285771
109	0x3daca95a	0.08430739
110	0xbb32a3ef	-0.0027258357
111	0x3bda98f1	0.006671064
112	0x3cce27de	0.025165495
113	0x3d3806e2	0.04492844
114	0x3c7c4034	0.015396167
115	0xbd41c032	-0.047302432
116	0x3d8334f4	0.064065844
117	0x3cfebfbb	0.031097284
118	0x3cc2270a	0.023700256
119	0xbb8cac5a	-0.004293007
120	0x3c534906	0.012895828
121	0x3d83e645	0.06440405
122	0x3d6e1590	0.058126032
123	0xbc10d390	-0.008839503
124	0xbd088632	-0.033331104
125	0x3d94a5d8	0.07258195
126	0xbd6b077d	-0.05738019
127	0x3ce0cd3e	0.027441617
128	0xbc3a7d93	-0.011382478
129	0x3b81b7a7	0.0039586606
130	0x3d0a7034	0.03379841
131	0xbc87491d	-0.016514355
132	0xbcac1f63	-0.02101106
133	0x3d960deb	0.073268734
134	0x3b5c110f	0.0033579504
135	0xba5a7699	-0.00083337125
136	0x3d604a9c	0.054758653
137	0xbc830f35	-0.015998462
138	0xbbc5b36d	-0.006033352
139	0xbb20128c	-0.0024425117
140	0xbccd5a9b	-0.025067618
141	0x3d8c11ee	0.06839357
142	0x3c9d950b	0.019236108
143	0x3d7814ca	0.0605667
144	0x3d507600	0.050893784
145	0x3d43a16d	0.04776137
146	0x3cc17272	0.023614142
147	0x3d8d5c03	0.069023155
148	0xbb8a1a5e	-0.004214569
149	0x3c112b9a	0.008860493
150	0x3cec0095	0.028808871
151	0xbcff02a1	-0.031129183
152	0x3ca03c8c	0.019560121
153	0x3b0184f6	0.0019763089
154	0x3c887b58	0.016660377
155	0x3c73b962	0.014875742
156	0xbd6a72d4	-0.057238415
157	0x3d0a5a8d	0.033777762
158	0x3cc25f5d	0.023727113
159	0x3cac847b	0.021059265
160	0xbc98c359	-0.018647837
161	0x3bcb6ccc	0.006208038
162	0x3d04eccc	0.03245239
163	0xbd313453	-0.04326279
164	0x3d8b4590	0.06800377
165	0xbd2f9c17	-0.04287347
166	0xbc984641	-0.018588187
167	0xbce4330b	-0.02785637
168	0xbce6c96f	-0.028172223
169	0xbc92a215	-0.017899552
170	0x3b68c608	0.0035518426
171	0xbc163205	-0.009167199
172	0x3c506919	0.01272037
173	0xbb5ec499	-0.0033991693
174	0x3d851f11	0.06500066
175	0x3bd3f801	0.0064687734
176	0x3c4d30ec	0.012523871
177	0x3d180d38	0.03712198
178	0x3cc70fe7	0.024299575
179	0x3cc291be	0.023751136
180	0x3d16d1eb	0.036821287
181	0x3ce8280e	0.028339412
182	0xbd0656dc	-0.03279768
183	0x3cc4d471	0.024027081
184	0x3d7e8a68	0.062143713
185	0xbd071348	-0.032977372
186	0x3d4fc34d	0.050723363
187	0xbb1e8315	-0.0024187018
188	0xbd8e5631	-0.069500335
189	0x3da23824	0.07920864
190	0xbcdbe7d6	-0.026843946
191	0xbd0c0be4	-0.034191027
192	0x3d8d530e	0.06900607
193	0xbc64776c	-0.013944488
194	0x3d66de14	0.056364134
195	0x3dc2d026	0.095123574
196	0xbcdf5ec9	-0.027266877
197	0x3d24b1fd	0.040208805
198	0x3b408dd3	0.0029381409
199	0x3d3debb0	0.046367347
200	0xbd2519db	-0.04030786
201	0xbadd407b	-0.0016880179
202	0x3d0dfeab	0.0346667
203	0x3d26d0dd	0.04072653
204	0x3bb76a54	0.005597392
205	0xbcdba7ba	-0.026813377
206	0xbb60d721	-0.0034307914
207	0x3d86321c	0.06552526
208	0xbcd23e30	-0.025664419
209	0xbd5d2b51	-0.053996388
210	0x3ce2ecc2	0.027700786
211	0x3d41f6a1	0.047354344
212	0x3d21b75b	0.039481502
213	0xbd381e95	-0.04495104
214	0xbcb6ab1f	-0.022298394
215	0x3c7f4f60	0.015582889
216	0x3d8ed99f	0.06975102
217	0x3d15d5ae	0.036580734
218	0x3cf231d2	0.029564772
219	0xbcfe87a1	-0.031070532
220	0xbce17265	-0.027520368
221	0xbb9e2851	-0.0048265834
222	0x3ceee26d	0.029160703
223	0xbb169ad3	-0.0022980466
224	0xbda954df	-0.08268141
225	0xbc3c941e	-0.011509923
226	0x3d2d8b6d	0.042369295
227	0x3bc950d4	0.0061436687
228	0x3d9a5597	0.07535856
229	0x3d0f8273	0.035036515
230	0x3d94e32e	0.072698936
231	0x3cb39448	0.021921292
232	0xbc6be185	-0.01439703
233	0x3d10c10f	0.035340365
234	0xbccf5f22	-0.025313918
235	0x3d7e69bf	0.062112566
236	0x3ce4019d	0.0278328
237	0x3acbccbd	0.0015548688
238	0x3cd9454d	0.026522303
239	0x3d07d12c	0.033158466
240	0x3ba4fc40	0.0050349534
241	0x3c00a91c	0.007852819
242	0x3dc2fdc1	0.09521056
243	0xbcefc89d	-0.029270465
244	0x3d34b3b5	0.044116694
245	0x3d1a7bab	0.037715595
246	0xbd7ec821	-0.062202577
247	0xbcf92e9f	-0.030417738
248	0x3cab8fe1	0.02094263
249	0xbd3e4bf9	-0.046459172
250	0x3c0205f3	0.007935989
251	0x3d15f1a9	0.03660742
252	0xbd4d75f1	-0.050161306
253	0x3d2d3b84	0.042293087
254	0x3c3afe9c	0.011413243
255	0xbc35f743	-0.011106315

fc3.weight f4 [2, 400]
0	0xbcc0bb81	-0.023526909
1	0x3ee1f0e4	0.44129097
2	0x3c3279d0	0.0108933
3	0x3d79895d	0.060922015
4	0x3d8ae85f	0.067826025
5	0x3d0c00d5	0.03418048
6	0x3daeeba8	0.085410416
7	0xbe7c84d9	-0.24660052
8	0x3d838f97	0.06423872
9	0xbc81704d	-0.01580062
10	0x3de0d23e	0.109776005
11	0x3db3304c	0.08749446
12	0x3c033f7a	0.008010739
13	0x3d390a74	0.045175985
14	0x3d1c7b40	0.038203478
15	0x3e0d80b1	0.13818623
16	0x3db09f37	0.08624118
17	0xbe2e98d4	-0.17050487
18	0x3dae033b	0.0849671
19	0xbe84d3ea	-0.25942928
20	0x3d9b06bd	0.075696446
21	0x3db6b565	0.08921317
22	0x3dfcb1b3	0.12338581
23	0x3e1023fe	0.1407623
24	0x3cf45908	0.02982761
25	0x3d949537	0.07255023
26	0xbe397bee	-0.18113682
27	0x3d61aad6	0.055094562
28	0xbe3c1e71	-0.18370987
29	0x3c0f4a4e	0.008745743
30	0x3da6cd3f	0.08144616
31	0x3d0ea6e8	0.034827143
32	0xbd0119b6	-0.03151866
33	0x3d3cf11b	0.046128374
34	0xbe046801	-0.129303
35	0xbd167f50	-0.03674251
36	0x3de17177	0.1100797
37	0x3e2e23b4	0.17005807
38	0x3dff52f8	0.12466997
39	0xbc245a23	-0.010031256
40	0xbe4f4df3	-0.20244579
41	0xbc46ce2c	-0.012134116
42	0x3bbfbd06	0.005851391
43	0x3da92079	0.08258147
44	0x3e08ca75	0.13358481
45	0xbe702af5	-0.23453887
46	0x3e32309b	0.17401354
47	0x3d98cc14	0.074608
48	0x3da1db1c	0.0790312
49	0x3db7b3a7	0.08969813
50	0x3d82a3fd	0.063789345
51	0x3e6876a8	0.22701514
52	0x3dd1093f	0.10206842
53	0xbe35897b	-0.17728226
54	0xbea8ce38	-0.32969832
55	0xbc995d4c	-0.018721245
56	0x3d8155d6	0.063152
57	0x3e04f568	0.1298424
58	0xbc6cb651	-0.0144477645
59	0x3dddbde8	0.10827237
60	0x3d9c0ae6	0.07619266
61	0xbd0f5acf	-0.03499871
62	0x3e1a6fa3	0.15081649
63	0x3dbe7a08	0.09300619
64	0xbd2048af	-0.039131816
65	0xbe338d11	-0.17534281
66	0x3e19ab30	0.15006709
67	0x3e044293	0.12916021
68	0xbe7e82a1	-0.24854518
69	0x3d70192e	0.058617763
70	0x3da1c72d	0.07899318
71	0xbc77a770	-0.015115604
72	0x3d301360	0.042987227
73	0xbd05cd81	-0.032666687
74	0x3d127b8e	0.035762362
75	0xbef6b895	-0.481877
76	0xbda51bf1	-0.0806197
77	0x3d14f3c9	0.036365304
78	0x3d4a152f	0.04933661
79	0xbdcb192d	-0.09916911
80	0x3e25832b	0.16163318
81	0x3e0c33e7	0.13691674
82	0x3c7a7652	0.015286999
83	0x3d0ef9bb	0.03490613
84	0x3e30da93	0.1727088
85	0xbe4e699d	-0.20157476
86	0xbef655e8	-0.48112416
87	0x3c42e334	0.01189499
88	0x3d8342fe	0.06409262
89	0x3dd99964	0.1062496
90	0x3e02bdd5	0.12767728
91	0x3cd0d5e8	0.025492623
92	0xbc4b4bf3	-0.012408244
93	0x3dabc841	0.08387805
94	0x3d260d0c	0.040539786
95	0xbecd11ee	-0.40052742
96	0x3e01c26e	0.12671825
97	0x3de2d2b8	0.11075348
98	0xbd0df25c	-0.03465496
99	0x3d76493f	0.060128447
100	0x3c0e4fc6	0.008686012
101	0x3ea89379	0.32925013
102	0x3dbd4b4c	0.09242877
103	0x3d3c7864	0.04601325
104	0xbb7596cd	-0.0037473917
105	0xbdfd6006	-0.12371831
106	0x3c99a34e	0.018754628
107	0x3d36191c	0.04445754
108	0xbd24eacb	-0.04026298
109	0x3e26808c	0.16259974
110	0xbeb2468b	-0.34819445
111	0xbedf7b13	-0.43648586
112	0x3dd22a28	0.10261947
113	0xbcaf33a3	-0.021386927
114	0xbe38850d	-0.18019505
115	0x3d4950c7	0.0491493
116	0x3dfda38a	0.12384708
117	0xbe170c3b	-0.1475076
118	0x3e134461	0.14381553
119	0x3c3f56e0	0.011678427
120	0x3c6441cd	0.013931704
121	0x3dae9cb7	0.08525985
122	0x3dd3d4b8	0.10343307
123	0x3e3b5123	0.1829267
124	0xbd92ed9d	-0.071742274
125	0xbd91535c	-0.07095978
126	0xbf1e777e	-0.6190108
127	0x3e01f522	0.12691167
128	0x3d33e4aa	0.043919243
129	0x3d03e523	0.032200944
130	0x3e02f55d	0.12788911
131	0xbe8d0783	-0.27544793
132	0xbf124998	-0.57143545
133	0x3d2b3f56	0.04180845
134	0x3bea8cbf	0.0071578915
135	0xbca30485	-0.019899616
136	0x3d660a20	0.056162
137	0x3dcca71b	0.0999281
138	0xbc97dff0	-0.018539399
139	0x3d1badc2	0.038007505
140	0x3d0ea163	0.03482188
141	0x3de848cb	0.11342009
142	0x3dca0cce	0.098657236
143	0x3d6f822f	0.058473762
144	0xbecb40cb	-0.3969787
145	0x3d98b876	0.07457058
146	0x3df607ba	0.120131925
147	0x3dca5c78	0.09880918
148	0x3aba95a5	0.0014235271
149	0x3d488818	0.048957914
150	0x3d166aeb	0.03672306
151	0xbe357d80	-0.17723656
152	0xbea5c497	-0.3237655
153	0xbbd11852	-0.006381073
154	0x3da281bd	0.07934902
155	0x3be7b460	0.007071063
156	0x3c249dba	0.010047371
157	0x3da568ca	0.080766276
158	0x3d6b8b85	0.057506103
159	0x3e9b8d54	0.30381262
160	0xbd11fb9b	-0.03564034
161	0xbbb70af8	-0.0055860244
162	0x3cbd5a15	0.023114244
163	0xbe94708a	-0.2899211
164	0xbe01462b	-0.12624423
165	0xbd401e98	-0.046904176
166	0xbc4c1267	-0.012455559
167	0xbb4b1e2e	-0.003099333
168	0x3c8d0683	0.01721502
169	0xbe0dc013	-0.13842802
170	0x3d099da5	0.033597607
171	0x3ea2e189	0.31812695
172	0xbc1c8f3f	-0.009555637
173	0xbe0942cf	-0.13404392
174	0x3dcd1894	0.100144535
175	0x3d5b8465	0.05359306
176	0x3de1e615	0.11030213
177	0xbe844b5c	-0.25838745
178	0x3dc073ac	0.09397063
179	0xbe24534a	-0.16047397
180	0x3f3a8077	0.7285227
181	0x3d7f3132	0.062302776
182	0x3d94b56c	0.07261166
183	0x3e3e2930	0.185704
184	0x3dcaaedc	0.09896633
185	0xbe312b6f	-0.17301725
186	0x3da44660	0.080212355
187	0x3df19e3b	0.11797758
188	0xbe91a8b6	-0.2844903
189	0x3d725cb7	0.05917045
190	0xbc104bc3	-0.0088071255
191	0xbd1799e9	-0.037012015
192	0x3d8c9c15	0.06865708
193	0xbc9bcde8	-0.019019082
194	0x3d875aa9	0.06609089
195	0x3d58c238	0.052919596
196	0x3cfa22ae	0.030534115
197	0x3dc03cc9	0.09386594
198	0x3bbccaf1	0.005761497
199	0x3bf76f70	0.007551126
200	0xbd20c49c	-0.03925
201	0xbe31ae53	-0.17351656
202	0x3d2525b6	0.040319167
203	0xbe0a951e	-0.13533446
204	0x3df31a9f	0.11870312
205	0x3c0f845a	0.008759582
206	0x3d1a8693	0.037725996
207	0x3dcbcfbd	0.09951732
208	0xbd2bd220	-0.041948438
209	0x3ac79560	0.0015227012
210	0xbdb4823c	-0.08813903
211	0x3db1c412	0.086799756
212	0xbcc9ba7c	-0.024625055
213	0x3bd7526a	0.006571104
214	0x3dc74f55	0.09731928
215	0xbe42a0d8	-0.1900667
216	0x3d8c1dae	0.068415985
217	0x3dbb6b6a	0.09151347
218	0x3d5a863e	0.05335068
219	0x3d6f4039	0.058410857
220	0x3bd2d215	0.006433735
221	0x3da71dc6	0.08159976
222	0xbbb86f14	-0.005628476
223	0x3c10bb0d	0.008833659
224	0xbe2ed899	-0.17074813
225	0x3c8eec50	0.017446667
226	0x3d74be98	0.059752077
227	0x3e25d5b8	0.16194808
228	0x3dc57e01	0.09643174
229	0xbcbd7a63	-0.023129648
230	0x3dc5de62	0.09661557
231	0x3e777679	0.24166287
232	0x3cae5e84	0.021285303
233	0x3c5bbb43	0.013411346
234	0xbe87b2a1	-0.2650347
235	0x3ddbb1a2	0.1072724
236	0xbec2cd72	-0.38047367
237	0x3df3df2b	0.119078
238	0xbc8b0d39	-0.016974078
239	0x3dd522ca	0.10407026
240	0x3ca2e350	0.019883782
241	0x3dea7be8	0.114494145
242	0x3e07603f	0.13220309
243	0x3e77d84a	0.24203601
244	0x3d5220e9	0.051300917
245	0x3d1ea3af	0.03873032
246	0x3ebf924a	0.37416297
247	0x3d297635	0.041372497
248	0xbeb55501	-0.35416415
249	0xbcbd9723	-0.023143357
250	0x3c7fc3ad	0.015610618
251	0x3c8655d9	0.016398357
252	0x3ee6df87	0.45092413
253	0x3ce36b34	0.02776108
254	0xbe9e63c0	-0.30935478
255	0x3d22d66d	0.039755274

fc3.bias f4 [2]
0	0x3c714bc6	0.014727538
1	0x3da63a15	0.08116547
