reinforcement_learning/models_cartpole/cartpole_ne500_lr0.0001_ep0.2exponentialbest_ddqn_agent.pt (torch, 654679 bytes, 6 tensors)

fc1.weight f4 [400, 4]
000000 22 99 04 3f 0a 17 9b be 80 b1 4f be 49 11 9b be
       0.5179616 -0.30291015 -0.20282555 -0.30286625
000010 69 40 15 3f 0a 3a 66 3e 31 41 e9 be 17 32 00 3e
       0.5830141 0.22483078 -0.4555755 0.12519108
000020 33 93 c4 be a9 44 10 3c 98 17 0d bf a0 9a 16 be
       -0.38393554 0.008805432 -0.55114126 -0.14707422
000030 01 5f cb 3e f7 e4 64 3e f9 56 12 bf e2 4a af 3d
       0.3972092 0.22352968 -0.5716396 0.08559205
000040 be b5 49 3e 24 e4 a5 3c 7f 6a 36 3e 53 6e a9 3e
       0.19698235 0.020250387 0.17814063 0.33091983
000050 3c e7 5d bc fa 44 ce 3e 37 75 ce 3e 9e 48 7a bd
       -0.0135439 0.40287 0.40323803 -0.06110441
000060 9e 74 83 3c 29 02 c1 be a9 37 33 3f 36 ce b2 3e
       0.016046818 -0.3769696 0.70006806 0.3492295
000070 f5 78 ed bc 2e d6 6b be 55 b0 85 be 88 6d d1 3e
       -0.02898834 -0.23030922 -0.26111093 0.40903878
000080 9d cc f3 3d dc 7b f1 3e 5f 6c 0c bf 4c 4f c8 3e
       0.11904261 0.4716481 -0.5485286 0.39123
000090 23 76 4a be 14 b9 cb be b5 20 ec 3e 41 eb 38 bd
       -0.19771628 -0.3978964 0.46118703 -0.04514623
0000a0 c1 a4 5f 3d 6e 82 65 3e 1b 51 0c be 79 2f f0 3e
       0.05460048 0.22413036 -0.13702814 0.4691122
0000b0 75 77 72 be 0a a0 b3 3e d2 ab 3a 3e 70 1a b3 be
       -0.23678382 0.35083038 0.18229607 -0.34981108
0000c0 be f7 c8 be 6a 05 8c be b1 d7 eb be e5 1d d5 3d
       -0.39251512 -0.2734788 -0.46062997 0.104060926
0000d0 aa 59 e2 3d 20 bf 94 3e e2 6f 16 bf 93 9f d4 be
       0.11052258 0.29052067 -0.5876447 -0.41527995
0000e0 72 62 3a 3e 0d 95 e6 bc d8 1c b6 3e 2a 5a 93 be
       0.18201616 -0.028147245 0.3556888 -0.28779727
0000f0 76 e1 f3 3c 71 69 df 3d dd 3b 31 3e 8b b0 a4 3e
       0.029770594 0.10908783 0.17307992 0.32165942
000100 07 dc a0 3d 60 4c fe 3e b7 29 34 3f 92 0f 45 3e
       0.07854467 0.49667645 0.7037615 0.19244221
000110 ae 6b ce 3e 7c fb 02 be f1 23 00 be 61 58 c5 3e
       0.40316528 -0.12791246 -0.1251371 0.3854399
000120 f2 e6 5f be 9d 2a ba be 06 02 0f be 76 2b 95 3d
       -0.21865442 -0.36360636 -0.13965616 0.0728368
000130 1d c5 b3 be ca ab df be ca 4e e0 3e 67 8c 11 3c
       -0.35111323 -0.43685752 0.4381011 0.008883572
000140 38 51 1f be 09 10 97 3c 23 d1 60 bd af 4a ac 3e
       -0.15558326 0.018440263 -0.05488695 0.3365073
000150 da c9 0e 3e 58 17 02 3f 24 e4 0d bd 04 c6 43 be
       0.13944188 0.5081687 -0.0346414 -0.19118506
000160 18 3f 45 bd 35 6a 02 bf 9e 4f ff bd fe 09 97 3d
       -0.048155874 -0.5094331 -0.12466358 0.07374953
000170 d8 27 0c bf ad a3 1a 3e 89 bb 48 3f 1b e5 9d bd
       -0.54748297 0.151015 0.78411156 -0.07709714
000180 f6 fe 46 be 4a 72 45 3e 02 6e 05 bd f4 98 f2 3e
       -0.19433197 0.19281879 -0.032575615 0.4738232
000190 86 b9 c0 bd ee de 07 3c a6 03 eb 3e 86 1b 97 3e
       -0.09410386 0.008292897 0.4590122 0.29513186
0001a0 c3 95 f3 bd 9a 3d dd 3d d6 bc 98 3e 12 4f e1 3e
       -0.11893799 0.10802765 0.2983157 0.44005638
0001b0 fd e8 a5 3e 17 2f d1 3e 3b 8f 32 bf 0c 80 41 3e
       0.32404318 0.4085624 -0.697498 0.18896502
0001c0 77 87 11 3f af a1 38 3d 25 b7 0c 3e f5 22 fc be
       0.5684733 0.04507607 0.13741739 -0.4924542
0001d0 2d e6 5a bc 9e 25 15 3e eb 14 9e 3e b1 c3 c3 3e
       -0.013360542 0.14565131 0.30875334 0.38235238
0001e0 6b 00 8a be 3c da 0c bf ec 06 d0 3e 4b 7d a3 be
       -0.26953444 -0.550205 0.4063028 -0.31931528
0001f0 e8 09 ae be ff a1 9a bd 65 1e fb 3d ba 33 b4 be
       -0.33991933 -0.075504296 0.12261657 -0.35195714
000200 ea 8e 0a be 87 1c d6 3d 0b 19 11 bf 43 b3 bf 3e
       -0.1353108 0.1045466 -0.5667884 0.37441453
000210 71 d6 10 bf 5f 91 cd bd 25 a7 d5 be ef 11 0e 3e
       -0.5657721 -0.10037493 -0.41729084 0.13874029
000220 8c d9 6f be 68 eb a2 3e f2 d9 f2 3e 4c 21 7f 3e
       -0.23422831 0.31820226 0.47431904 0.24915045
000230 08 c1 02 3f 6d 37 99 3e d0 f6 9b 3e de fb 87 be
       0.5107579 0.299251 0.3046174 -0.26559347
000240 ae 1f 36 be df cb d9 3e 0a 3a 12 3f 71 d3 4c bd
       -0.17785522 0.42538354 0.5711981 -0.050006334
000250 ec 9e aa 3e 4c db b2 be 25 1e ee be 18 84 e7 be
       0.33324373 -0.34932935 -0.46507373 -0.45217967
000260 f4 44 ed 3e 8a 03 51 be e8 2f c5 be 4d 95 86 3e
       0.4634167 -0.20411506 -0.38513112 0.26285782
000270 c0 b7 ba be 85 11 d1 be 6f ef 82 be 04 8c 8e 3e
       -0.36468315 -0.4083368 -0.25573298 0.27841198
000280 53 16 82 be 71 8e 9f 3e 9a cf 22 be 49 54 d2 3e
       -0.25407657 0.31163362 -0.15899506 0.4107993
000290 2c c0 06 bf 6f 67 4f be c8 9a a5 3e c0 7d 80 3e
       -0.5263698 -0.202543 0.3234465 0.2509594
0002a0 d9 50 38 bc 1b 1b 24 bf 19 6b 1e bf e1 fc e1 be
       -0.011249744 -0.6410386 -0.6188217 -0.44138244
0002b0 da cc b4 bd ea 0d 5f be 28 1b c7 be e7 78 82 be
       -0.08828135 -0.21782652 -0.38887906 -0.25482866
0002c0 ea 30 9d 3d 28 8b d7 3e 6b 77 01 3e 62 35 48 3e
       0.07675345 0.42098355 0.1264321 0.19551614
0002d0 2a ea a6 be 8d 76 65 3e 5c 46 49 3f cd b2 2e bb
       -0.32600528 0.22408505 0.78622985 -0.0026656867
0002e0 20 16 c8 bd 20 2d f5 3d 58 9a ac 3e f0 9e 60 3d
       -0.09769845 0.119714975 0.33711505 0.054839075
0002f0 ad d5 b8 3e 8b b3 f0 3e 52 78 39 3d 7c 68 b6 3e
       0.36100522 0.4701198 0.045280762 0.3562659
000300 4b a5 0a bf 41 86 c9 be f8 1e 1a 3f b1 1c 90 3e
       -0.5415847 -0.3936024 0.60203505 0.2814689
000310 2f af 4f be df 4e d1 be 3f 13 39 bf 27 62 e1 be
       -0.20281671 -0.40880486 -0.7229499 -0.44020197
000320 61 49 2e 3e 1d c3 2b 3e bf 2c 2c bf 65 24 c5 be
       0.1702018 0.16773649 -0.6725578 -0.3850433
000330 49 98 88 be b8 0c c3 3e d7 9d 3f 3f fa 1c 61 bc
       -0.26678684 0.3809564 0.7485022 -0.013739819
000340 10 43 bf be e7 cb d9 be 94 62 f1 3e bf e2 07 3c
       -0.37355852 -0.42538378 0.47145522 0.008293807
000350 0a 12 9b 3e db b7 bb be 0e 35 a0 be 82 eb 05 3e
       0.302872 -0.36663708 -0.31290478 0.1307812
000360 5e 8f 52 bd 2b 76 99 3e e7 de d3 be 0f 5d eb 3e
       -0.051406257 0.29972968 -0.41380998 0.45969436
000370 32 e0 4b 3e d9 51 f2 3e f3 d9 ce bc d0 8e 7a 3e
       0.19909742 0.4732807 -0.02525041 0.24468541
000380 6d da e4 3e 6c 20 06 bf 57 bd 44 be 58 41 c5 3e
       0.44697896 -0.5239322 -0.19212852 0.38526416
000390 5f ac 5e be 11 c9 ae 3e d0 84 98 3c 77 bf f9 3c
       -0.21745442 0.34137776 0.018618017 0.030486805
0003a0 0f 45 e4 3e 83 e7 b0 be 18 3e e8 be f5 9f c8 be
       0.44583938 -0.3455163 -0.45359874 -0.39184538
0003b0 db a7 ce bc 2a 09 6d 3e 8f 13 26 bf 5b f0 c6 be
       -0.025226524 0.23148027 -0.64873594 -0.38855252
0003c0 2f 6c 1f bf 24 56 ed bd ef 36 5b 3e 42 c8 a1 3e
       -0.6227445 -0.11588696 0.21407674 0.31598097
0003d0 e1 a0 83 be 48 cb 70 3e 5b f2 12 3f 95 53 a6 bd
       -0.25708678 0.23515046 0.57401055 -0.08121411
0003e0 79 f2 03 be 6d d1 54 be ca 08 cc 3e 6c 41 13 3e
       -0.12885465 -0.20783015 0.39850456 0.14380425
0003f0 0b a2 6d 3e 6a f4 5f bd 98 64 1c 3e 9c 86 c0 bd
       0.23206346 -0.05467645 0.15272748 -0.09400675

fc1.bias f4 [400]
000000 4d ab 95 3e ce b4 be be 10 7b b6 3e d0 0f 3d bd
       0.29232255 -0.37247318 0.35640764 -0.046157658
000010 0f af b4 bd 73 75 08 be fa 8a a7 be cb fe c8 3e
       -0.08822452 -0.13326053 -0.32723218 0.39256892
000020 88 96 92 3d 78 57 b8 be 94 12 a6 be 1d ae 88 bd
       0.07157618 -0.36004233 -0.3243605 -0.066738345
000030 01 4a 6a be a1 41 95 3d ad 74 f6 3e 78 d4 be 3e
       -0.22879793 0.07287908 0.48135892 0.37271476
000040 df 66 bc 3e b0 6b 81 3e 6a 51 77 bd 6c 6e e3 be
       0.36797234 0.25277472 -0.060380377 -0.44420183
000050 07 11 84 be 92 bb 8a 3e 0d dc 96 bd 97 99 46 3e
       -0.2579424 0.2709623 -0.0736619 0.19394527
000060 98 bf 68 be 1c cf 1a bd 64 c1 7a be 79 7c fb bd
       -0.22729337 -0.03779517 -0.24487835 -0.12279601
000070 1b 95 09 bf e1 bd 92 be fa e3 24 bd 8f 7b 01 bf
       -0.5374314 -0.2866049 -0.040256478 -0.5057916
000080 b2 7d 6c 3e 35 26 bd be 0c cd e4 be 85 9b f9 be
       0.23094824 -0.36943212 -0.44687688 -0.48751464
000090 c1 8a 01 3f 0d 94 08 3f 5e a1 c2 3e 58 ef b5 3e
       0.50602347 0.5335091 0.38013738 0.35534167
0000a0 bf c4 a0 3e ef 30 23 be 65 54 de 3d 4d 7a e1 bd
       0.31400105 -0.15936635 0.10855941 -0.11009655
0000b0 c9 d6 71 3e d9 05 93 3e 2e 8b b7 be ca 49 d8 be
       0.2361709 0.287154 -0.35848373 -0.42243797
0000c0 eb b6 8c bd 1d 4a 3d bc c3 6f a0 be b9 5f 8c 3e
       -0.06870826 -0.0115533145 -0.31335267 0.2741678
0000d0 02 0f d6 be 98 1b 1d 3e 0e 58 f6 3e 69 00 84 3e
       -0.41808325 0.15342557 0.48114055 0.25781563
0000e0 49 a3 7a 3d 9e 31 06 3f 8c 71 52 be ca ab 2a be
       0.061190877 0.5241946 -0.20551127 -0.16667095
0000f0 de 80 fd bd 01 97 d2 3e d7 eb d3 be 8f ed 06 3f
       -0.12378095 0.41130832 -0.4139087 0.52706236
000100 65 cc 4b 3e 1b 2e bc be ce 3f d5 3d 27 93 c5 3e
       0.19902189 -0.36753926 0.104125604 0.3858883
000110 ae e1 5d be 95 73 cf 3e 75 04 d2 3e 05 4c 2c be
       -0.21668121 0.4051787 0.41019025 -0.16825874
000120 15 d9 8c 3e 60 5e e1 3e 74 f4 f7 3d 5f 86 41 be
       0.2750937 0.44017315 0.121071726 -0.18898915
000130 6e 4c 46 be c2 45 67 3e 3d 7e 0d be ed 91 de 3e
       -0.19365093 0.22585204 -0.13817687 0.43470708
000140 40 e6 43 3d f0 01 cc be c9 dc b1 3e a4 ad 9e 3e
       0.047827005 -0.39845228 0.34738758 0.30991852
000150 d6 64 90 be 47 52 fd 3e 91 dc 8e be 01 f0 45 3e
       -0.28201932 0.49476835 -0.27902654 0.19329835
000160 b0 09 19 be c3 3b 3a be 0f cf ea 3e fd 5d db be
       -0.14945102 -0.1818686 0.45861098 -0.42845145
000170 19 0d c8 be 15 a1 b4 be 37 33 73 be 8f 3a d5 3e
       -0.39072493 -0.35279146 -0.23750006 0.4164624
000180 73 ae 92 be f5 19 3d bd dc 04 6e 3e 6b c6 2b be
       -0.2864872 -0.046167333 0.23244041 -0.16774909
000190 68 6c 89 3e e8 0a 93 3e 55 b6 c2 3e fb 6a e1 3e
       0.2684052 0.28719258 0.38029733 0.44026932
0001a0 2d 4f 43 3e 9d e0 40 3e 09 75 ba 3e 16 cd 26 3d
       0.19073172 0.18835683 0.36417416 0.04072293
0001b0 48 55 b0 be c4 25 37 3d 8e c5 8b 3e 5e e1 b9 be
       -0.34440064 0.04471375 0.2729916 -0.36304754
0001c0 a2 30 f6 3e 31 87 a1 be fd 3c ff 3e 01 6c a6 3e
       0.4808398 -0.31548455 0.49851218 0.32504275
0001d0 e3 d1 9a 3e 15 ec 94 bd 64 94 01 3c 02 ef e4 bd
       0.30238256 -0.072715916 0.007908914 -0.111783996
0001e0 c3 52 97 be cc 4e 26 be 79 45 2d be 37 4e c5 bc
       -0.2955533 -0.16240996 -0.16921033 -0.024085147
0001f0 b6 78 d1 3e 25 3b e9 3e 91 9e b9 3e 5c a1 46 bc
       0.40912408 0.45552936 0.3625379 -0.012123432
000200 25 84 10 be 30 a7 0e bf f7 2f 54 3e 74 6f 9d 3e
       -0.14112909 -0.5572386 0.20721422 0.30749094
000210 fb 84 05 3e 2a 6b cf be ea 43 64 bd a9 fa 37 be
       0.1303901 -0.40511447 -0.05572883 -0.17966713
000220 9a 5c eb bd e5 e2 31 be 8c bc 8f 3e ad 11 b2 3e
       -0.11492272 -0.1737171 0.28073537 0.3477911
000230 36 73 0b bf bc bf 83 be 9e 22 08 3e 8e 1c 98 be
       -0.5447267 -0.2573222 0.13294455 -0.29709285
000240 f0 01 c9 3e 10 5d a9 bd c2 53 90 bc ea 84 d0 be
       0.3925929 -0.082697034 -0.017618064 -0.40726405
000250 63 d2 00 be c7 94 b2 3e 75 f6 c1 be 73 fe 94 3e
       -0.12580256 0.34879133 -0.37883344 0.2910038
000260 d4 83 9e be be 81 46 3e cb f4 7e be 3c b2 02 bd
       -0.30959952 0.1938543 -0.24898069 -0.03190826
000270 20 36 b3 3e 05 d6 bf 3e ce 61 94 3d fc f9 37 3e
       0.35002232 0.3746797 0.07245217 0.17966455
000280 89 56 b8 be 07 d1 98 3d 3d c2 f3 bd d8 32 be bd
       -0.3600352 0.07461744 -0.119022824 -0.092870414
000290 0a a5 8b be 65 cc 08 3f 1a ca 99 be be 88 7e be
       -0.27274352 0.5343688 -0.30037004 -0.2485685
0002a0 ff d3 e0 3e 20 cf 11 3e e2 22 bd 3e 26 01 af bc
       0.4391174 0.14239168 0.36940676 -0.021362852
0002b0 db 8a fc 3e 55 4e 9e 3d 08 ce 03 3f 1e 58 e0 be
       0.49324688 0.077297844 0.51486254 -0.43817228
0002c0 1d bb ea 3e 7d a5 02 3f db 27 b2 3e 29 e9 7f be
       0.4584588 0.51033765 0.34796032 -0.24991287
0002d0 35 02 37 3e 57 41 00 3f 6b 05 a0 be 94 9d 07 3f
       0.17871936 0.500997 -0.31254134 0.5297482
0002e0 3c e9 0e be c6 cb 76 be f2 6f a6 3e ff 4a 3d 3e
       -0.1395616 -0.24101171 0.32507282 0.1848564
0002f0 ad 97 c8 3e a8 9a a0 3b 99 f3 96 be e9 d6 94 3e
       0.3917822 0.004901249 -0.29482725 0.29070213
000300 88 7d 9e be 22 20 97 be 07 b2 aa bd 73 41 05 be
       -0.30955148 -0.29516703 -0.08334737 -0.13013248
000310 63 29 af be e1 ef 8c be a0 af 1a 3e 0e 66 60 3d
       -0.34211263 -0.27526763 0.15106058 0.054784827
000320 49 e5 d0 be 84 4b 8f 3e 62 31 38 be be 87 df bd
       -0.4079993 0.279873 -0.17987588 -0.10914563
000330 e4 f4 78 3e d2 ed e1 3e 72 04 08 be 61 ce c4 be
       0.24312168 0.44126755 -0.13282946 -0.38438705
000340 5b 19 89 3e 8b d4 7e 3e 93 7a a0 be 97 2c 54 be
       0.26777157 0.24885766 -0.31343517 -0.20720135
000350 87 bc 84 be 52 e5 fa 3e 33 80 d4 3e a7 a1 ef 3e
       -0.25925085 0.49003083 0.41504058 0.46803018
000360 17 78 44 3e 4b f8 a2 bd f4 e2 99 3d 50 fe 50 3e
       0.19186436 -0.079575144 0.07513991 0.20409513
000370 dc d9 11 3d b8 3a 4a be df c8 a1 3e 5a 48 fd 3d
       0.035608158 -0.19748962 0.31598565 0.123673156
000380 fa 3a 60 3c a8 8b 12 be cc 9b 6c 3e 56 c4 a3 bd
       0.013685936 -0.14311087 0.23106307 -0.079964325
000390 84 ed a6 3d d2 b2 04 3f 2b 83 44 be 70 01 91 3d
       0.08150771 0.5183536 -0.19190662 0.07080352
0003a0 8e 41 d5 3e 5d 0b e8 be 22 2a 36 be 42 5d f1 3e
       0.41651577 -0.4532117 -0.1778951 0.47141463
0003b0 9e f0 9a 3e fa 01 dd be aa 73 70 be 7c 84 c1 3e
       0.302617 -0.4316557 -0.23481622 0.3779639
0003c0 be 54 05 3f 91 6e a1 3d 23 2f a2 3e 06 11 94 3e
       0.5208243 0.07882417 0.31676587 0.28919238
0003d0 41 03 f5 3e f0 7f 31 3d 6e 2c ba 3e cf 0f 3e bd
       0.47854045 0.0433349 0.36362022 -0.046401795
0003e0 7d 79 99 be 55 90 04 3f aa 98 e3 3e 2f c2 c8 bd
       -0.299755 0.51782733 0.4445241 -0.098026626
0003f0 9f 3f 8e 3e ae 05 e9 3e de c0 b5 3d da 19 bf bc
       0.27782914 0.45512146 0.08874677 -0.023327757

fc2.weight f4 [400, 400]
000000 6c 60 98 3d f8 c9 b1 3d e3 6c 10 3d 13 77 22 3e
       0.07440266 0.086811006 0.035260092 0.15865736
000010 0f e4 ac 3d b8 75 c7 bd 5d 94 18 3d 82 f6 84 bd
       0.08441936 -0.0973925 0.037250865 -0.0649233
000020 ae e9 7e 3d 6c 54 fa bd 68 cf 1f 3e 0d 6e 2d 3c
       0.062234573 -0.122231334 0.15606463 0.01058532
000030 25 86 12 3e 10 7d 92 3d 78 5f 01 bd 8a c8 5f be
       0.14308985 0.0715276 -0.031585187 -0.21853843
000040 2c c3 00 be 92 86 0b be f0 4a bd bc f2 e4 73 3d
       -0.12574452 -0.13625553 -0.023107022 0.05954451
000050 a9 b6 58 3d 9d 0f 7f bc df d5 70 bd 69 0b d6 bb
       0.052908573 -0.015567687 -0.058797713 -0.006532122
000060 23 34 f5 3c c1 88 a6 3d b0 6b ab bd 36 e8 3a 3e
       0.029932087 0.081315525 -0.08370149 0.18252644
000070 e0 7c 2b 3c d3 81 7c 3e 12 46 84 bd fa e9 21 3e
       0.010466784 0.24658899 -0.06458677 0.15811911
000080 63 1a 7d bb 5c c1 06 3e e0 86 0d bc d6 6e 9a bd
       -0.0038620464 0.13159698 -0.008638114 -0.075406715
000090 98 7f 90 bd 87 70 94 3d da aa b3 3d ee 58 34 bd
       -0.070555866 0.072480254 0.08772822 -0.044030122
0000a0 21 e0 0e be ea ec bc 3d 21 db 23 3e 7f 27 ae 3d
       -0.13952686 0.09224875 0.1600156 0.08503627
0000b0 b1 8c b8 bc cc 0e 09 be 0a dd 07 bd 28 e0 20 3b
       -0.022528024 -0.13384551 -0.033169784 0.002454767
0000c0 82 13 5b bd 0c b6 ec 3d 41 fa b3 3d 7d d9 f6 bd
       -0.0534854 0.1155816 0.087879665 -0.12053201
0000d0 1d fc c0 ba 02 b8 a8 bd c8 a5 22 3d 43 16 9b bc
       -0.0014723573 -0.08238222 0.039708883 -0.018931514
0000e0 70 c0 9b 3c eb c6 5d 3c 45 f1 15 3e 7f a7 c3 3d
       0.01901266 0.013536195 0.14642818 0.09553432
0000f0 82 6b 83 3c 22 e0 37 bd 2a 6b 9c 3d 43 a6 12 bd
       0.016042475 -0.044891484 0.076376274 -0.03580309
000100 3f 29 91 3d 1e 33 ac bb 43 cc ab 3e c2 05 7e be
       0.07087945 -0.005255117 0.33554277 -0.24806884
000110 6c 84 df 3d 0b 5d 44 bd f0 da 9a bc 42 11 56 3e
       0.10913929 -0.047940295 -0.018903226 0.20905021
000120 eb 8c aa 3d 4d f3 dc 3d 85 e0 fd 3c be ad 05 3e
       0.08327659 0.107885934 0.030990848 0.13054559
000130 71 f8 25 bd 88 5e 92 bc 5c 73 c8 3d 80 98 91 bb
       -0.040520135 -0.017867342 0.09787628 -0.0044432282
000140 c1 c4 ec bc 9a 1a 1a bd 4e 73 97 bc 5e aa 0a bd
       -0.028902413 -0.037623025 -0.018487599 -0.03385388
000150 a7 d2 a0 3d 31 4e 99 3b bb 58 f2 bc 41 98 5d 3e
       0.07852679 0.0046785106 -0.029583326 0.21640112
000160 37 cb 46 bb 53 23 7c 3d f0 39 b1 bc a0 33 1d 3e
       -0.0030333528 0.061557125 -0.021634072 0.15351725
000170 c1 22 9f 3e 46 07 3f 3e 21 26 fa 3d 4f 74 54 bd
       0.31081203 0.18655118 0.12214304 -0.051868733
000180 bf 9d fa bc e2 70 11 bc 17 cc ac bd f2 62 d6 3d
       -0.030592797 -0.008877011 -0.084373645 0.10468091
000190 f8 74 51 3d 9e e4 e2 bd eb 10 bc 3d 14 4e aa bd
       0.05113694 -0.110787615 0.09182914 -0.083156735
0001a0 1f e0 28 be e0 ed d8 3c db 49 87 3d 22 a1 1b be
       -0.16491745 0.026480615 0.06605884 -0.15198186
0001b0 41 c1 2c 3d 58 32 c4 3d e9 e2 d8 3c f1 53 b8 bd
       0.04217649 0.09579915 0.026475387 -0.090003856
0001c0 ba 8e 12 bd 5a 95 33 bd 2a a9 8b bd 78 fc 16 be
       -0.035780646 -0.043843605 -0.06819375 -0.14744747
0001d0 63 fc c2 bd 46 d9 a7 3d 10 c1 c7 3d ea 19 d2 bd
       -0.09520795 0.081957385 0.097536206 -0.10258849
0001e0 6c be 25 3d cd 0b cb 3c db a3 c4 3d c9 c3 5d 3b
       0.040464804 0.0247859 0.096015655 0.003383862
0001f0 07 e1 66 3d 1b 5d b1 3c 58 59 0b 3c c7 b3 a4 bb
       0.056366947 0.021650841 0.008505188 -0.005026314
000200 7f 7c 1c 3e 82 a1 81 3d 69 44 7f be b0 8e 83 bd
       0.15281866 0.06329633 -0.2492844 -0.064237
000210 2c 33 2c be 34 6a a0 3d db 9f 7b 3b 7d 03 a3 3e
       -0.16816396 0.07832757 0.0038394842 0.318386
000220 06 d7 2e 3e bc 92 fe bb e3 d3 bc bd 32 65 3a 3d
       0.17074212 -0.007768957 -0.09220102 0.045506664
000230 80 a8 10 3d e2 2b b8 3c 0f 74 a6 bd 31 86 e2 3d
       0.035316944 0.022481862 -0.08127605 0.11060751
000240 50 25 33 be 36 fd e1 3c 22 ba cb 3d 12 54 41 3e
       -0.17494702 0.02758656 0.099476114 0.18879727
000250 26 69 9f 3c fe 06 9d 3c b7 6d ab 3c 94 e0 df bc
       0.019459318 0.019168373 0.02092634 -0.027328767
000260 73 a5 cb 3e f7 48 b4 bd a9 69 28 3e f5 79 36 bb
       0.39774665 -0.088029794 0.16446556 -0.0027843688
000270 53 a1 c2 bc 96 43 0a 3c 95 62 53 3e dc 1f 2f 3d
       -0.023758566 0.008438965 0.20643075 0.042754993
000280 7d 8d ea 3d 05 f7 98 bd d9 ef 46 3a c8 47 86 3e
       0.11452768 -0.0746899 0.00075888407 0.2622664
000290 cd ad fe 3c bf 77 9a bb e5 06 b3 3e bb 27 02 3e
       0.031088734 -0.004713982 0.34966198 0.12710468
0002a0 0d 6a 6f bd 5c 72 61 3d 40 b8 d1 bc d9 a8 da 3d
       -0.058450747 0.055040702 -0.025600553 0.106767364
0002b0 4f a5 11 be dc 36 38 bd 26 52 b4 bd 90 84 5f 3d
       -0.14223216 -0.044974193 -0.08804731 0.05456978
0002c0 0d 77 df 3c ec 8b 17 be 75 66 94 bb 20 c8 07 3e
       0.027278448 -0.1479947 -0.0045288154 0.13259935
0002d0 76 d1 7e bd b2 36 68 3c 30 f5 f1 3c 95 b6 a3 bd
       -0.062211476 0.014173197 0.02953586 -0.07993809
0002e0 6e 9e 7b 3d 43 7e c1 3d 10 b5 79 bd 8c 7e 9b 3d
       0.061430387 0.09447911 -0.06096369 0.07592496
0002f0 e0 55 30 3d 93 13 24 3d b4 66 22 3d 5b 55 d1 bd
       0.043050647 0.04005773 0.039648727 -0.102213584
000300 ea 0a eb bd 90 11 16 3d a5 0d 2a 3e d1 0a 94 3d
       -0.11476691 0.036637843 0.16606767 0.072286256
000310 d0 30 e2 3c 4f 81 10 3a 39 f5 62 3c 33 18 b2 bd
       0.027611166 0.00055124325 0.013852411 -0.08696022
000320 e7 42 47 3e 74 bb 32 bc 56 ea 15 be a1 74 33 be
       0.19459115 -0.01090895 -0.14640173 -0.17524959
000330 63 cd 73 be 67 a7 6c be 25 71 59 3e 3b b3 8d 3d
       -0.23808818 -0.23110734 0.21234567 0.06918951
000340 62 d7 86 bc 0a 30 67 3d c3 2e b6 3d db 1a 32 3d
       -0.016460124 0.056442298 0.08895638 0.043482643
000350 b2 e6 7d 3d ae 49 36 3d 1b 5d 09 bd 30 de 85 3d
       0.061987586 0.04450386 -0.033536058 0.065365195
000360 45 66 08 be 0e 55 e1 bd 3b 7b da bd f4 81 eb bd
       -0.13320263 -0.11002551 -0.106680356 -0.11499396
000370 c4 e1 ed 3d 7b 30 a6 3c 34 12 c9 3d 50 dd c6 3d
       0.11615327 0.02028679 0.09817925 0.09710181
000380 4b b4 c9 3b 7e 36 9c 3b f5 b7 b5 be 26 4f d0 3d
       0.006155526 0.004767238 -0.3549191 0.10171346
000390 20 2c 9d bd fd 43 e2 bc d0 74 09 3d 3b f8 fe 3c
       -0.07674432 -0.02762031 0.033558667 0.031124225
0003a0 ff 07 03 3c 8d ec 12 3d 84 76 10 3e 6f f7 0f bd
       0.007997512 0.035870124 0.1410771 -0.03514808
0003b0 68 f5 2c 3d 7c 76 d0 3d 45 f3 4e 3e 05 cd f9 3d
       0.042226225 0.10178849 0.20209987 0.121973075
0003c0 b6 4b 34 be 99 e1 57 bd 73 a5 9b 3c fa 5c 1c be
       -0.17607006 -0.05270538 0.01899979 -0.15269843
0003d0 4c 03 84 3c 5b 90 7d bb 8f 52 96 3d 5f fe 83 bd
       0.016114853 -0.003869078 0.073399656 -0.06445002
0003e0 7d 75 c4 3d 69 8d 8b bc b7 97 3a bc 2b b5 11 3e
       0.095927216 -0.017035203 -0.011388711 0.14229266
0003f0 44 31 87 3d 12 dc b3 bd 49 7b 05 3d 5e d6 ba 3d
       0.066011935 -0.087822095 0.032588277 0.091229185

fc2.bias f4 [400]
000000 81 61 82 bd b3 61 a4 3d 8b ae 18 3d 3e df f8 bb
       -0.06366254 0.08026447 0.037275832 -0.007594972
000010 66 2e 68 3d 9a da 90 3c ca 85 35 3d 31 ce 5f bd
       0.056684874 0.017682362 0.044317044 -0.05464
000020 ae 7b ba 3c 66 83 0f 3d 80 3c 18 3d ac 6e 46 3c
       0.022764053 0.03503742 0.037167072 0.012111347
000030 23 0c 98 3c d8 76 3e 3d 53 88 80 3d fe 6b 3c bd
       0.018560475 0.046500057 0.06276002 -0.046001427
000040 c5 b9 23 bc 60 94 e1 3c 32 c2 7a bc ec 32 ab bb
       -0.009993021 0.027536571 -0.015305089 -0.005224576
000050 76 6c 23 3d 11 25 dc bc fd 9c f5 3c d4 8d 1d 3d
       0.03989836 -0.026873143 0.029982084 0.038465336
000060 22 29 42 bd b5 b2 82 3d b1 79 9b 3c 77 69 2f 3a
       -0.04740251 0.06381742 0.018978925 0.00066914357
000070 b5 69 02 bb f6 b1 b6 ba e5 92 e3 3c e4 90 5a 3c
       -0.0019899432 -0.0013938535 0.027780006 0.013340209
000080 b8 3b 10 3d f9 24 91 3d 58 8d 34 3d c7 2c ce 3d
       0.035213202 0.0708713 0.04408011 0.10067134
000090 bb 2c 14 bd 60 9f 00 3d 2c a4 08 bd b6 b9 14 bd
       -0.03617547 0.03140199 -0.03335969 -0.03630992
0000a0 9a 6d b3 3c 1d 2e 97 3d 13 93 33 bd 86 8f 5d 3d
       0.021902848 0.07381842 -0.043841433 0.054091953
0000b0 0d 16 8b 3c ae 6a 6c bd e2 52 0d bb d7 c1 a6 bc
       0.016978288 -0.057718925 -0.0021564295 -0.020356102
0000c0 3e e6 0c 3d a8 39 f3 3c 05 87 a6 3c 8a 44 ab 3a
       0.034399264 0.029690579 0.020328054 0.0013066691
0000d0 7b bd 8c 3c d8 7a 04 bd 0b bd f8 bc c8 f6 80 3d
       0.017180195 -0.032343715 -0.03036358 0.0629707
0000e0 dc 3e d2 bb c3 76 6d 3d 56 cb 3b bb 9d 97 8f 3d
       -0.006416185 0.057974588 -0.0028655133 0.0701134
0000f0 70 11 7b 3d 8a 45 06 bc c6 5f 3b 3d 9d d3 1a bd
       0.061295927 -0.00819529 0.045745634 -0.037799466
000100 d4 85 e4 3b 09 a2 d6 bb d7 94 37 3d 4f b1 72 bc
       0.0069739614 -0.006550078 0.04481968 -0.0148127815
000110 fc d8 08 bd db 70 06 3d ea 50 65 3b 91 a6 8d 3d
       -0.033410057 0.03282247 0.0034990855 0.06916536
000120 e7 23 38 3d 8c 94 f5 bc 5a 5d 13 3d ad 38 3e bd
       0.044956114 -0.02997806 0.0359777 -0.04644077
000130 cb 72 f5 bc 01 1c 96 3d 6d d2 d5 bc 25 89 2d 3c
       -0.029961964 0.0732956 -0.026101315 0.01059178
000140 0c 2b 34 bc 50 9a e3 bc 38 bd 64 3d 5d 23 26 bd
       -0.010996591 -0.027783543 0.055844516 -0.04056107
000150 d8 a8 ff bb 56 6a 22 bc 57 4c 9d 3d 46 c5 05 bd
       -0.00780211 -0.009913048 0.07680576 -0.032658838
000160 51 49 3c 3d c7 a2 51 bb cd ae 85 3d d1 44 29 3d
       0.045968357 -0.0031987892 0.06527481 0.041325394
000170 39 d5 34 bd d9 9c 1a 3c bc c2 bd 3c 4b 8f 8b bc
       -0.044148657 0.009436809 0.023164146 -0.0170361
000180 16 ce 31 3d 1f 5e 32 bd 4c 00 0e 3b 3d 83 73 3d
       0.04340943 -0.043546792 0.0021667657 0.05945133
000190 56 b2 c0 3c 67 93 91 ba 44 27 1f 3d 7a a4 35 3d
       0.023522537 -0.0011106551 0.038855806 0.04434631
0001a0 18 9c ff bc 31 1a e4 bc 3e bd 6e 3c 9d 61 8b bb
       -0.031202361 -0.02784452 0.014571486 -0.00425358
0001b0 ee a1 fc 3c 42 69 4e 3c 88 b7 ec 3c 1d 06 af 3c
       0.030838933 0.012598338 0.028896108 0.02136522
0001c0 fe 2e b3 3c 2d 99 f7 bc 41 e4 04 3d 17 c2 a7 bc
       0.021872994 -0.030224407 0.032444242 -0.020478291
0001d0 f3 1a 5a 3c 65 c0 21 3c 5b 03 84 3d 43 43 8a 3c
       0.013312089 0.009872531 0.064459525 0.016877776
0001e0 86 59 a0 3c 60 93 79 3d c1 f1 10 3d 6a e4 e5 bb
       0.019573938 0.060931563 0.035386804 -0.0070157545
0001f0 d2 92 6e bd d2 5d bf 3c 82 48 f3 3b a4 2a d5 3c
       -0.058245488 0.023360167 0.007424415 0.02602131
000200 dc fe 13 3d fc db c2 3c 1a db 2e 3b 52 53 0e bb
       0.036131725 0.023786537 0.0026680888 -0.0021717143
000210 c5 bd 63 3d 7d 68 d4 bc 45 25 f6 3c 6a b3 ac bc
       0.0556009 -0.02592873 0.030047068 -0.021081645
000220 5c b4 87 3d ca dc 00 3d b5 fe 1b bd 4e 16 72 3c
       0.06626198 0.03146056 -0.038084704 0.014775826
000230 de d1 34 bd 4d 3d a6 bc 5b 02 64 3d 2a e1 e8 3c
       -0.044145457 -0.020292902 0.05566631 0.02842768
000240 0a 97 68 3c b6 6a be bc da 58 32 bd 3c 63 e2 3c
       0.014196167 -0.023244243 -0.043541767 0.02763521
000250 73 0f 59 3d 6f 84 c4 3c b3 18 be bc d6 0e 2f bc
       0.05299325 0.02398893 -0.023205137 -0.0106846895
000260 f9 96 8a bc 6e 55 f0 3b d8 46 17 bd 0c fa 8a 3d
       -0.016917692 0.0073344028 -0.036932796 0.06785974
000270 65 c9 b6 3c ff 16 00 3d e9 ee 42 3a cd 61 d2 bb
       0.02231283 0.03127193 0.0007436113 -0.00642035
000280 da a3 71 bc f0 8a 3d bc da c9 de bb 38 b8 48 3d
       -0.014748538 -0.01156877 -0.006798965 0.04900381
000290 ec 81 61 3d be a1 8f 3b 62 fd 52 bc 5e f6 22 bb
       0.055055544 0.004383295 -0.012877794 -0.0024866085
0002a0 10 68 0d 3d 51 be b2 3c 64 c3 89 3d 57 2b b5 3c
       0.03452307 0.021819266 0.06726721 0.022115393
0002b0 6c 0d ac 3c 2d bb 91 bd 92 50 43 bd 38 f7 18 3d
       0.021002494 -0.07115779 -0.04768426 0.03734514
0002c0 18 8d 53 3c 54 b0 16 3d cd bd 44 bc 45 b6 3d bd
       0.012912057 0.036789253 -0.012008143 -0.046316404
0002d0 f2 31 2f 3d 07 ff 7d bc 88 e6 97 3c e6 65 37 bd
       0.04277224 -0.015502698 0.018542543 -0.044774912
0002e0 5d 2a 41 3d 17 78 27 3d 3a 50 91 3d 89 07 ac bc
       0.04715954 0.04088601 0.0709538 -0.020999687
0002f0 b0 ba a1 bc 94 e3 5f 3d af 39 ee 3c 08 41 fa 3a
       -0.01974234 0.054660395 0.02908024 0.0019092867
000300 48 5e 9f 3d 1d 14 7f 3d 09 e6 1f 3d 96 2f 41 3d
       0.077816546 0.06227504 0.039037738 0.047164522
000310 8d 40 88 3d 7e a4 db 3c 82 67 63 bc c5 98 84 3c
       0.06652937 0.026811834 -0.013879659 0.016186127
000320 87 f8 36 3d cf 9a 49 bd 51 8d 0c 3d fb ad 35 bd
       0.044670608 -0.049219903 0.034314457 -0.044355374
000330 35 cd 58 bc d2 26 4a bd d3 82 64 3b b6 e8 5a 3c
       -0.013232519 -0.04935343 0.0034868016 0.013361147
000340 15 b1 44 3d 4e fb 18 3c d2 fa 86 bc 0c 61 dd ba
       0.04802044 0.009337259 -0.016477022 -0.0016889884
000350 3a 89 f1 bb f7 f4 3f bd ce 0e 04 3d 33 c9 4c ba
       -0.007371095 -0.046864476 0.03224068 -0.00078119634
000360 2e 02 53 bd d2 08 ca 3c 17 00 1f bd a0 1f 43 3d
       -0.05151575 0.024662409 -0.038818445 0.04763758
000370 8c bf 01 3c f9 1e 57 3d 85 41 44 bd 2c 69 8c 3d
       0.0079192035 0.052519772 -0.047914047 0.068559974
000380 41 00 9f bc b6 92 85 bc 24 a7 fc 3c f6 a0 46 bc
       -0.0194093 -0.016305309 0.030841418 -0.012123337
000390 8e ae 6f 3d fa 26 28 bd e3 00 dd 3d 76 0a 95 3d
       0.058516078 -0.041052796 0.10791185 0.07277386
0003a0 29 44 cb 3c b9 a9 2d bd 5f 97 f7 bc 6d b2 df bc
       0.024812775 -0.04239819 -0.030223547 -0.02730676
0003b0 a0 24 56 3d 27 98 7e 3d 31 24 02 bd 28 c8 99 3c
       0.052281022 0.062156823 -0.031772796 0.0187722
0003c0 58 12 14 3c 41 7b 5f 3d f7 3a 3b bd 2a 72 17 3d
       0.009037577 0.054560903 -0.04571053 0.03697411
0003d0 47 7c 3d 3c a7 8a 80 bb 9d e4 35 bd f6 04 8d bc
       0.011565275 -0.0039227786 -0.044407476 -0.01721428
0003e0 63 91 f5 3b 60 29 55 bd ec 82 19 3b e5 f3 9f bd
       0.007494138 -0.05204141 0.0023423983 -0.07810191
0003f0 ed 52 61 3c 87 64 71 3c 89 70 c4 bb a0 50 ef bc
       0.013752681 0.01473344 -0.0059948605 -0.02921325

fc3.weight f4 [2, 400]
000000 aa ad 77 be ef 55 d7 3d 60 72 11 3c bd 6c c9 3d
       -0.24187341 0.105144374 0.008877367 0.09835193
000010 1d d1 9a 3e 64 4d 45 be a2 91 23 3e 32 69 6f 3b
       0.30237666 -0.19267803 0.15973523 0.0036531207
000020 54 b1 8d be 7e fb 50 3b ee 19 89 3d 4e 55 e1 be
       -0.27674353 0.0031888182 0.06694399 -0.44010395
000030 b9 03 2b be 00 e3 1a 3e f0 ff be 3d ec 7e 22 be
       -0.16700639 0.15125656 0.0932616 -0.1586873
000040 4a ca da 3b e0 dc 36 bd c8 2b 98 3d 59 2e 0f 3e
       0.0066769468 -0.044644237 0.074302256 0.13982524
000050 47 a5 81 be d3 41 cc 3c eb 14 25 bd 66 11 73 bc
       -0.2532141 0.024933731 -0.040303152 -0.014835691
000060 33 08 3c 3e 01 e1 03 3e 53 45 4d bd aa b9 20 3e
       0.18362503 0.12878801 -0.05011494 0.15695825
000070 61 ea 62 3e b1 b2 db 3d b8 fd a9 bc 0f 46 9c 3e
       0.22159721 0.10727442 -0.020750865 0.305222
000080 5c 1d c3 3d 8d b4 fe 3d 15 73 15 3e 0b bf 71 be
       0.09527084 0.12436781 0.14594682 -0.23608033
000090 51 64 2a bd 42 1d 8f be 18 1c 9e bc f1 a3 f4 bc
       -0.041599575 -0.2795201 -0.019300506 -0.02986333
0000a0 d6 0e 51 be 3c 6c 8c 3e 5d 30 a7 be 9e ee 1e be
       -0.20415816 0.27426326 -0.32654086 -0.15520713
0000b0 2c ed 15 3e 0b a7 ae be 0c f9 1c 3e a1 2b 09 be
       0.14641255 -0.3411182 0.15329379 -0.1339555
0000c0 e9 f6 98 bd f6 c6 19 be b5 ac bd be bc 9f ff 3d
       -0.074689694 -0.15017304 -0.37045828 0.12481639
0000d0 c8 fa d1 3d fd af 9e 3c 74 3a 3f 3d 49 48 51 3e
       0.10252911 0.019371027 0.046686605 0.20437731
0000e0 f1 2d bd 3c ba 14 27 be 13 44 49 3e 31 b2 20 3e
       0.023093196 -0.163165 0.19654875 0.15692975
0000f0 56 2b 04 3e 6e 94 e8 bb 8d f6 d1 3d 9b 96 62 be
       0.12907156 -0.0070977723 0.10252104 -0.22127764
000100 3d 4b 29 3c 3b aa 43 3e 1a 1c ad 3d 11 93 b4 3b
       0.01033288 0.19107907 0.084526256 0.0055106957
000110 b8 54 0b be e4 a4 c0 3d d0 8f 43 be 83 21 7c 3d
       -0.13606536 0.094064504 -0.19097829 0.061555397
000120 a7 85 a4 3c ff 81 a2 be 51 3e 06 3e 3d b4 84 be
       0.020083262 -0.31739804 0.1310971 -0.2591876
000130 13 59 8a bc 59 c1 5c 3e 44 1a 96 3e bb 43 13 bd
       -0.016888177 0.21558131 0.29316914 -0.035953265
000140 84 7e 54 3d cf 2c 46 be 5c 3f 02 be 5e 1b fb bd
       0.051878467 -0.1935303 -0.12719482 -0.12261079
000150 69 5e 91 bc ed ce 69 bd 06 59 a4 3d 97 57 13 3d
       -0.017745214 -0.057082105 0.080247924 0.035972204
000160 3a 26 15 bd 36 d1 fd 3d 75 83 09 3e 8e 76 04 3e
       -0.03641341 0.123934194 0.13429053 0.1293585
000170 5b c4 a5 be f6 d2 81 3d 6e a0 ee 3d 73 51 93 3c
       -0.3237637 0.06339066 0.11651693 0.017983174
000180 87 aa cc 3d 2b 11 47 3d f5 c6 5b 3e 65 01 30 3e
       0.09993463 0.048600357 0.21462615 0.17188032
000190 51 ee f3 3d 80 dd d3 bb b7 a8 4a 3c 00 3d ef 3d
       0.119106896 -0.006465614 0.012369326 0.11681557
0001a0 d7 fa 4b 3a cf ed c3 3b be 5b ac bd 62 73 2e bd
       0.00077812135 0.0059792767 -0.08415936 -0.042590506
0001b0 3a da 2a 3b e0 ab 08 be 9a 3f ac 3d cd cb b8 3d
       0.0026070015 -0.13346815 0.084105685 0.09023247
0001c0 1c 5f 17 bb 3d 83 1b 3d 88 68 1f 3e f7 e2 25 3d
       -0.002309746 0.037966955 0.1556722 0.040499654
0001d0 34 6d df 3a 49 86 4b bd 1d f6 ba 3e 52 13 25 3d
       0.0017046095 -0.04968861 0.36515895 0.04030163
0001e0 6c 02 64 bc 91 5e 2a 3e 06 e1 26 be bb 6c 2a 3e
       -0.013916593 0.16637637 -0.16296777 0.1664304
0001f0 98 b5 a4 be 8e d0 95 3d f2 a9 b8 bc ab f5 63 3d
       -0.32169795 0.07315169 -0.022541974 0.05565421
000200 dc 75 7a 3e 68 90 90 3d 23 c6 42 bd a8 8c 17 3e
       0.24459022 0.07058793 -0.04755224 0.1479975
000210 0c cf 6e 3e 3b a2 72 3e f8 e0 1c bc 85 5e f3 bd
       0.2332117 0.23694699 -0.009575121 -0.118832625
000220 5f 88 0b 3e 82 e6 f2 3d 15 c1 04 3d cf 84 98 3c
       0.1362624 0.11860372 0.0324107 0.018618016
000230 24 0e b6 ba 5b 0c a7 3d 69 c9 1d be 41 6c 72 3c
       -0.0013889712 0.081566535 -0.15408863 0.014796318
000240 da 6e 2b 3e 64 5c 47 3b ee dd 22 3d 3a a1 e9 bc
       0.16741505 0.003042006 0.03976243 -0.028519262
000250 e4 10 0d 3e fb 19 95 3c 37 d2 dc 3d b9 44 96 3e
       0.13775975 0.018200865 0.10782283 0.29349306
000260 ff 96 c2 be 4b 78 31 3e 95 ec bc be 0f 06 18 3e
       -0.38005826 0.17331044 -0.36899248 0.14846061
000270 a8 22 5c 3e f3 e9 8e bb 3e 9d 91 3d 4a 86 71 3d
       0.21497595 -0.004361385 0.0711007 0.05896596
000280 8b 4c 0b 3d 2c 4f 8e be a7 9d 17 be c4 10 2b 3d
       0.034008544 -0.27794778 -0.14806233 0.041764036
000290 45 b3 2b 3e b0 0f 01 3e 8f 96 01 3d f3 41 05 3d
       0.16767605 0.1260364 0.031637724 0.032533597
0002a0 ed 39 bd 3d 98 f7 76 3d 53 21 4d 3e 34 4a bb be
       0.09239564 0.060294718 0.20032243 -0.3658005
0002b0 61 f0 1a 3e 42 bb c8 be db a7 3b 3d 37 ff 10 3c
       0.1513076 -0.39205366 0.045814376 0.00884991
0002c0 9b 74 da bd ee f1 8b bd e7 d4 9d bc 70 44 24 3d
       -0.10666772 -0.06833254 -0.019266559 0.04010433
0002d0 4a d7 1e be d3 71 ef bc 8d 36 cc be 88 1f ca bd
       -0.15511814 -0.02922908 -0.3988537 -0.09869295
0002e0 0c 3f 53 be 0c 42 21 be a7 d6 ef 3d 08 a0 2f be
       -0.20629519 -0.15747851 0.117108636 -0.17150891
0002f0 2d 9f 67 3c 78 09 55 3e 4d a6 18 bd 76 50 85 3d
       0.014137072 0.20804393 -0.03726797 0.06509487
000300 e0 df d3 3d 02 d2 79 3e 28 c6 16 3d 31 a7 0c 3e
       0.10345435 0.24396518 0.03681007 0.13735653
000310 8b 22 ce 3d f8 44 7d 3c ef ee 77 3e fd f9 06 bd
       0.10065182 0.015458338 0.2421224 -0.03295325
000320 4d 04 b0 3c c2 ed 21 bd 46 f6 37 3d 9e a2 9f be
       0.021486426 -0.039533384 0.0449126 -0.31178755
000330 44 c9 81 3d 27 74 5d bc 13 e4 0e 3d 0c e5 86 be
       0.063372165 -0.013516462 0.034885477 -0.26346624
000340 80 9e 12 3e f6 72 29 3e ce 0d 74 3e ec 68 18 3c
       0.14318275 0.1654776 0.23833391 0.009302359
000350 90 87 b0 36 08 c9 14 3d 50 19 45 3d 28 d9 07 3d
       5.2609903e-06 0.03632453 0.048119843 0.03316608
000360 6d 7e 12 bc 68 7c 26 3e eb be 02 bd 4d 55 1e 3e
       -0.008941275 0.16258395 -0.031920355 0.15462227
000370 47 d9 0e bd 2b a8 06 3e aa d9 01 bd ba 9e 1e 3e
       -0.03487518 0.13150088 -0.03170172 0.15490237
000380 af 1f 1d 3d 52 46 16 3d 19 e1 fd bc ab 93 19 3e
       0.038360294 0.036688156 -0.030991124 0.14997737
000390 ff 32 87 3d 2a 6a e3 bc 4d 35 5c be 3f f3 2b be
       0.066015236 -0.027760584 -0.21504708 -0.1679201
0003a0 0c fb 13 3d 4a 79 35 bd 20 d1 18 bd 56 02 11 be
       0.03612809 -0.044305123 -0.037308812 -0.14161047
0003b0 74 8f 2b be 22 37 17 3e e3 06 4b be 4a 50 3f be
       -0.16753942 0.14767125 -0.19826846 -0.18682972
0003c0 c2 b1 77 3e 5e 75 dd 3d 20 7c b7 bc 18 36 86 bd
       0.24188903 0.10813402 -0.022398055 -0.06553286
0003d0 4a 4d b8 be 80 cf 80 bc a0 f1 9d be 60 1c cd 3c
       -0.35996467 -0.015723944 -0.30848408 0.025037944
0003e0 95 44 4a 3d 3e d5 6f bc 3e e5 f1 3d e8 3c 9e 3e
       0.04938181 -0.014638243 0.118113026 0.30905843
0003f0 eb 97 12 3c 9a 28 82 bd 04 4b 23 3d c8 d0 95 3e
       0.008947353 -0.063554004 0.039866462 0.2926085

fc3.bias f4 [2]
000000 0a f8 3d 3d 64 c0 12 3d
       0.046379127 0.03582801
