reinforcement_learning/models_cartpole/dqn_agent.pt (torch, 654679 bytes, 6 tensors)

fc1.weight f4 [400, 4]
0.58273673 0.3265564 -0.37127402 -0.1897037 0.3950573 -0.48724025 -0.19034852 0.30826753
-0.29354757 0.17128916 -0.043190297 0.27691415 -0.56336236 0.50634027 -0.012741415 0.037179794
-0.18938571 0.38225257 -0.47144195 0.26546064 -0.36885402 0.020693805 -0.25509942 0.3515997
-0.059801586 -0.023048785 -0.45956656 0.34786233 -0.39307564 -0.5218964 0.32236698 -0.25359324
-0.14737317 0.39523628 0.47588226 0.4540657 0.020786405 -0.0632779 -0.3583845 0.018773377
0.028507527 -0.3544337 -0.50755787 -0.25068203 0.24101079 -0.4679164 -0.7322301 0.25761497
-0.3932 -0.45127133 -0.036342986 0.08347907 -0.42383853 -0.0064050653 0.55268055 0.18862641
-0.13842854 -0.09777022 0.60130197 0.36275527 -0.298665 0.5043513 0.5694557 0.11244658
-0.020653509 -0.33586478 0.5267456 0.1556906 0.4388391 -0.29634827 -0.40165615 -0.25504154
0.022516113 0.39894393 0.6270591 0.40192768 0.32218117 0.4747433 0.35869303 0.29997024
0.43117166 0.38473552 -0.18065508 0.44780555 -0.09157432 -0.12683752 -0.0033348917 -0.48107773
0.36775324 0.35704255 0.74147534 0.48139518 -0.18724936 -0.4877745 -0.38394785 -0.29827023
0.3599589 0.42317346 -0.39560187 -0.025198927 -0.184186 0.25425553 0.46758872 -0.08515253
0.4753728 -0.40348935 0.17765705 0.061132997 0.13833845 0.32608196 0.64626646 -0.06291162
-0.47390443 -0.011107323 0.19881377 -0.019616688 -0.3257176 -0.2727929 -0.558678 0.062232688
-0.15199897 0.5051257 -0.0043735253 -0.16998063 0.42724872 0.17420349 -0.4662582 -0.06920227
0.23873593 -0.46183315 -0.15219356 -0.390743 -0.21249296 0.3701561 -0.585429 -0.21329
0.30068356 -0.077744305 -0.076432586 -0.12256497 -0.15368497 0.4709754 0.41750032 0.20901933
0.12704132 0.23343495 -0.00486429 -0.013215349 0.3059915 -0.1652634 -0.18842983 0.2782154
-0.32527444 -0.28696278 0.1158292 -0.3555187 0.22054867 0.3655509 0.023738453 -0.40816104
-0.24260159 0.07096406 0.34504864 -0.027202107 0.26618358 0.2709141 0.30954883 -0.06770995
0.11735765 -0.21976581 -0.042198464 -0.34328508 0.13463408 -0.40447992 0.1289795 -0.31792194
-0.029614054 0.13848163 0.44397405 -0.20933306 0.103684746 -0.16306965 0.07673742 -0.30566958
0.21126649 -0.39145622 -0.0954943 0.015299885 0.16000938 -0.44634947 -0.033309486 0.06815967
-0.35981554 0.01700034 0.57820004 0.3978892 -0.31820142 0.41885063 -0.3520517 -0.23271412
-0.5414191 0.19834617 0.75371104 0.26754695 -0.3653228 -0.4225003 0.30768982 -0.1051809
0.19909954 -0.12782352 0.48172697 -0.29510665 0.4086834 -0.37818027 -0.16885383 -0.12880899
-0.15304959 0.41769552 -0.09915916 -0.24511297 -0.32647514 0.19812027 -0.4325142 0.09178032
-0.101843044 -0.0809728 0.37019205 -0.28497127 -0.46169746 0.50464433 0.56336874 0.25355482
-0.22793539 0.46816534 0.18556102 -0.31618518 0.1284624 -0.004756837 0.32659274 0.05839202
0.024394548 0.2221003 0.31967297 -0.4839696 0.40214834 0.32310385 0.3544437 0.23844098
-0.13518715 -0.31983837 -0.69320625 0.05069607 0.52077836 -0.22327201 -0.7125796 -0.23519668
00000000: 3c2e 153f 6732 a73e a117 bebe b041 42be
00000010: f344 ca3e 8e77 f9be b9ea 42be 3ed5 9d3e
00000020: de4b 96be 6d66 2f3e 4fe8 30bd b1c7 8d3e
00000030: 8438 10bf 849f 013f 5ec1 50bc d749 183d
00000040: 54ee 41be 9cb6 c33e d760 f1be 75ea 873e
00000050: 6fda bcbe 0e86 a93c 649c 82be e004 b43e
00000060: 82f2 74bd ced0 bcbc 4f4c ebbe 031b b23e
00000070: 3641 c9be 019b 05bf 490d a53e f9d6 81be
00000080: fee8 16be 695c ca3e d7a6 f33e 4d7b e83e
00000090: 4048 aa3c d897 81bd 2c7e b7be a0ca 993c
000000a0: 9e88 e93c 5578 b5be 50ef 01bf 6559 80be
000000b0: 88cb 763e bd92 efbe 6f73 3bbf 1ce6 833e
000000c0: 8351 c9be 090d e7be 62dc 14bd 13f7 aa3d
000000d0: 5d01 d9be 95e1 d1bb 797c 0d3f 4827 413e
000000e0: 36c0 0dbe c13b c8bd edee 193f 0fbb b93e
000000f0: 9eea 98be 2b1d 013f d9c7 113f 644a e63d
00000100: 8c31 a9bc 78f6 abbe cdd8 063f 5b6d 1f3e
00000110: 85af e03e f6ba 97be e0a5 cdbe ce94 82be
00000120: b673 b83c 6142 cc3e f286 203f 77c9 cd3e
00000130: eef4 a43e 8e11 f33e 9da6 b73e b395 993e
00000140: 88c2 dc3e 0efc c43e a5fd 38be c546 e53e
00000150: 518b bbbd b2e1 01be 338e 5abb d24f f6be
00000160: 274a bc3e 48ce b63e 54d1 3d3f 6e79 f63e
00000170: 4cbe 3fbe 94bd f9be d094 c4be e0b6 98be
00000180: 884c b83e 31aa d83e 548c cabe fb6d cebc
00000190: 419b 3cbe c82d 823e ca67 ef3e 7364 aebd
000001a0: 1064 f33e 2896 cebe bbeb 353e 9866 7a3d
000001b0: 98a8 0d3e 37f4 a63e b871 253f cfd7 80bd
000001c0: 9aa3 f2be 7dfb 35bc d695 4b3e 2db3 a0bc
000001d0: 75c4 a6be 83ab 8bbe 8505 0fbf b4e7 7e3d
000001e0: 9ea5 1bbe eb4f 013f ca4f 8fbb 670f 2ebe
000001f0: 58c0 da3e 6662 323e 65b9 eebe ebb9 8dbd
00000200: 3177 743e 6575 ecbe a1d8 1bbe 770f c8be
00000210: c197 59be 1a85 bd3e adde 15bf b268 5abe
00000220: 32f3 993e 6838 9fbd b088 9cbd 5803 fbbd
00000230: 985f 1dbe b023 f13e 9ac2 d53e 2a09 563e
00000240: 1f17 023e 9209 6f3e 9f64 9fbb 3185 58bc
00000250: ebaa 9c3e cf3a 29be c0f3 40be 4072 8e3e
00000260: 5f8a a6be c9ec 92be dc37 ed3d 8c06 b6be
00000270: 83d7 613e 7d29 bb3e 2577 c23c 7cfa d0be
00000280: 8d6c 78be 9b55 913d 37aa b03e f4d6 debc
00000290: 3749 883e 41b5 8a3e 2f7d 9e3e 84ab 8abd
000002a0: 3559 f03d 4a0a 61be 4cd8 2cbd 10c3 afbe
000002b0: 84dd 093e fe17 cfbe 3413 043e aac6 a2be
000002c0: 2c99 f2bc 21ce 0d3e 9150 e33e 685b 56be
000002d0: ab58 d43d bbfb 26be 8228 9d3d b980 9cbe
000002e0: 3e56 583e f36c c8be 8492 c3bd 5eac 7a3c
000002f0: 80d9 233e eb87 e4be 876f 08bd 4c97 8b3d
00000300: be39 b8be 4c44 8b3c eb04 143f 22b8 cb3e
00000310: 4ceb a2be 9773 d63e 1f40 b4be 9c4c 6ebe
00000320: 719a 0abf 421b 4b3e 35f3 403f eafb 883e
00000330: 970b bbbe f651 d8be 8589 9d3e 1569 d7bd
00000340: c0e0 4b3e 2be4 02be eba4 f63e 3818 97be
00000350: f33e d13e d8a0 c1be 05e8 2cbe 81e6 03be
00000360: 08b9 1cbe 30dc d53e f513 cbbd e5fe 7abe
00000370: c027 a7be 0ae0 4a3e 8072 ddbe 52f7 bb3d
00000380: 1693 d0bd 11d5 a5bd d089 bd3e c1e7 91be
00000390: 9c63 ecbe 5f30 013f ef38 103f f0d1 813e
000003a0: e567 69be 5eb3 ef3e b503 3e3e 06e3 a1be
000003b0: a68b 033e 3edf 9bbb 2a37 a73e 792c 6f3d
000003c0: 13d7 c73c 436e 633e 2dac a33e ddca f7be
000003d0: 63e6 cd3e de6d a53e a579 b53e df29 743e
000003e0: 806e 0abe dbc1 a3be f775 31bf afa6 4f3d
000003f0: bb51 053f 6ba1 64be 9e6b 36bf 66d7 70be

fc1.bias f4 [400]
-0.45498714 -0.15540951 0.44937617 0.09220333 0.3548522 -0.31791872 -0.1212143 -0.32765326
-0.2169823 -0.38059056 0.18970418 0.3573683 0.3411878 -0.07547448 0.0780025 0.42580107
-0.1804595 0.32564026 -0.36301386 0.14327712 0.44178817 -0.1538203 -0.2841474 -0.33011347
0.2455821 0.22475605 0.19591697 0.25562042 0.44164917 0.16109104 0.19596446 -0.37099463
0.3277303 -0.47313955 -0.36001068 0.32213163 -0.35488176 0.19481915 -0.25056034 0.43389058
0.25267935 -0.27882773 -0.26246202 -0.38960397 -0.30200085 0.16782503 -0.29103777 0.43571192
0.013201285 -0.39886338 -0.38188007 0.5120425 0.3695487 0.49476087 0.4892339 0.41456977
0.4948852 0.20237763 0.046715394 0.2716566 0.29856482 0.14615874 0.14724007 0.033361554
-0.33742929 0.34526494 -0.50652075 0.3907884 -0.32286906 -0.33636883 -0.517615 -0.18641828
0.36964527 0.45543158 0.44430098 0.24273206 0.06420763 0.4946822 -0.32445443 -0.20080516
-0.12535441 0.0060037374 0.090091646 0.40803966 -0.3668124 0.048848204 0.12672687 -0.11896494
-0.018253218 -0.13661087 0.11131798 0.41280025 -0.23706596 0.3662727 0.086284555 0.42382878
0.4952732 0.35715234 0.22115856 -0.11928463 -0.15485092 -0.19871591 0.21307981 -0.28313726
-0.26529238 -0.41593075 -0.3487549 0.07366738 0.54144305 -0.078704536 0.44029275 -0.08463523
-0.26550743 0.43931085 0.49133813 -0.116438575 -0.04606186 0.12945022 0.25979227 -0.1305068
0.27998975 -0.15957738 -0.4687711 0.40718293 -0.03405306 -0.3846795 -0.050448008 0.21562126
0.22959846 -0.4263883 -0.35418525 -0.1750522 -0.3035947 -0.4561407 -0.082646176 0.32942823
0.3081922 -0.44104987 0.15594527 -0.21006823 0.106758706 0.4454061 -0.2744821 0.059590027
0.016268304 0.06958052 0.2915955 0.009629072 0.4300381 0.48181108 -0.42251602 0.3922134
-0.32159695 -0.4584702 0.21469773 0.1313601 -0.35285667 -0.132915 -0.19444643 0.2985709
-0.5274403 -0.23414269 0.07396062 -0.18204841 0.1475302 -0.49252087 -0.3794006 0.23723353
-0.30539984 0.11802586 -0.5202124 -0.19648373 0.35766485 -0.47887248 -0.3373953 -0.41257235
-0.25900865 -0.029598437 -0.3335873 0.42783928 0.006248887 -0.33549288 0.25283968 -0.524775
0.08377073 -0.22621833 -0.23009099 -0.052150853 -0.47102794 -0.407665 -0.09529825 -0.09163149
-0.05389193 0.40165958 -0.09267581 0.10308487 0.21884398 0.13959377 0.0404191 -0.15273196
0.019031923 -0.15064697 -0.15290715 0.15191312 0.05394573 0.39041835 -0.049701262 0.16566867
-0.37070978 -0.26571798 -0.4868409 -0.15509273 0.2238972 -0.110670954 -0.12860559 -0.26114026
0.06033425 0.40691727 -0.1832552 -0.14804478 0.42854366 -0.06019083 -0.30742013 0.44877663
0.39063236 0.34171805 -0.069486156 -0.073951036 0.254957 0.52841616 -0.32687736 -0.15390761
-0.4552442 0.42511624 -0.15151669 0.062908545 0.4532401 -0.118760474 -0.0829777 -0.19697595
-0.054333195 0.30461287 -0.49258125 -0.27869466 -0.059945907 -0.057704583 0.36480734 -0.027849099
0.4927199 0.39667508 -0.062956095 -0.0035104456 0.36912197 -0.16624646 -0.0053888257 -0.12722024
00000000: 13f4 e8be ac23 1fbe a214 e63e 19d5 bc3d
00000010: 30af b53e 3ec6 a2be 343f f8bd 2bc2 a7be
00000020: 9c30 5ebe c4dc c2be d041 423e faf8 b63e
00000030: 2bb0 ae3e 5d92 9abd c6bf 9f3d 9902 da3e
00000040: 60ca 38be 52ba a63e f4dc b9be 3db7 123e
00000050: 0f32 e23e 1283 1dbe c57b 91be a204 a9be
00000060: e079 7b3e 7326 663e 759e 483e aee0 823e
00000070: d71f e23e 0df5 243e e8aa 483e 02f3 bdbe
00000080: 44cc a73e 593f f2be 5253 b8be 70ee a43e
00000090: 10b3 b5be ac7e 473e 7249 80be e826 de3e
000000a0: 305f 813e 82c2 8ebe 6c61 86be 2c7a c7be
000000b0: db9f 9abe 53da 2b3e e702 95be a215 df3e
000000c0: 344a 583c d237 ccbe c985 c3be 3815 033f
000000d0: 7d35 bd3e 4c51 fd3e de7c fa3e 7d42 d43e
000000e0: 9861 fd3e 153c 4f3e a458 3f3d 9316 8b3e
000000f0: 7ddd 983e a3aa 153e 1ac6 163e 20a6 083d
00000100: 88c3 acbe 91c6 b03e 58ab 01bf 6b15 c83e
00000110: 184f a5be 8938 acbe 6b82 04bf 6fe4 3ebe
00000120: 2542 bd3e 542e e93e 6b7b e33e c18e 783e
00000130: 4a7f 833d fc46 fd3e e41e a6be de9f 4dbe
00000140: e85c 00be 00bb c43b f881 b83d 93ea d03e
00000150: d6ce bbbe 0e15 483d b0c4 013e e4a3 f3bd
00000160: c687 95bc b8e3 0bbe aefa e33d 8e5a d33e
00000170: 6bc1 72be 1888 bb3e f5b5 b03d 1600 d93e
00000180: 7394 fd3e acdc b63e 6477 623e 804b f4bd
00000190: 3d91 1ebe 2f7c 4bbe 9831 5a3e 5ef7 90be
000001a0: 67d4 87be e0f4 d4be 0190 b2be ecde 963d
000001b0: 039c 0a3f d82f a1bd 0d6e e13e 3c55 adbd
000001c0: 97f0 87be 5aed e03e ac90 fb3e 5977 eebd
000001d0: 5cab 3cbd 998e 043e 7e03 853e 93a3 05be
000001e0: d15a 8f3e 4168 23be c402 f0be 487a d03e
000001f0: 397b 0bbd b6f4 c4be 92a2 4ebd d2cb 5c3e
00000200: dc1b 6b3e 914f dabe c557 b5be e240 33be
00000210: c470 9bbe 468b e9be 6642 a9bd d1aa a83e
00000220: 5ecb 9d3e 4ad1 e1be 1eb0 1f3e 201c 57be
00000230: 4fa4 da3d 450c e43e eb88 8cbe ac14 743d
00000240: 1b45 853c 3b80 8e3d 014c 953e 41c3 1d3c
00000250: f42d dc3e f1af f63e 0554 d8be 32d0 c83e
00000260: 5ba8 a4be 9bbc eabe b9d9 5b3e 4383 063e
00000270: a1a9 b4be df1a 08be f71c 47be 49de 983e
00000280: 5406 07bf 1ac3 6fbe aa78 973d e66a 3abe
00000290: 2812 173e b22b fcbe cc40 c2be 59ed 723e
000002a0: 5e5d 9cbe 8bb7 f13d a42c 05bf 0833 49be
000002b0: d91f b73e c62e f5be 14bf acbe af3c d3be
000002c0: c89c 84be 6c78 f2bc f4cb aabe c00d db3e
000002d0: 77c3 cc3b b9c5 abbe 3474 813e a857 06bf
000002e0: fd8f ab3d c7a5 67be f99c 6bbe 229c 55bd
000002f0: 932a f1be 78b9 d0be bb2b c3bd 4aa9 bbbd
00000300: c9bd 5cbd 53a6 cd3e d1cc bdbd 291e d33d
00000310: a318 603e abf1 0e3e 808e 253d c465 1cbe
00000320: d6e8 9b3c 3343 1abe b193 1cbe 1d8f 1b3e
00000330: 33f6 5c3d eae4 c73e 8d93 4bbd 0ca5 293e
00000340: accd bdbe 300c 88be 3643 f9be a1d0 1ebe
00000350: 4f45 653e 74a7 e2bd 2fb1 03be 2db4 85be
00000360: 0c21 773d 7657 d03e 40a7 3bbe 0d99 17be
00000370: 136a db3e a98a 76bd 2c66 9dbe 0dc6 e53e
00000380: f700 c83e abf5 ae3e c24e 8ebd a473 97bd
00000390: b989 823e 4846 073f 785c a7be f599 1dbe
000003a0: c515 e9be d6a8 d93e 3127 1bbe 32d6 803d
000003b0: 160f e83e b138 f3bd 36f0 a9bd 10b4 49be
000003c0: 7c8c 5ebd 38f6 9b3e 9c33 fcbe 11b1 8ebe
000003d0: d789 75bd a45b 6cbd 07c8 ba3e cb23 e4bc
000003e0: c845 fc3e ff18 cb3e 20ef 80bd 810f 66bb
000003f0: 8efd bc3e 833c 2abe bf94 b0bb 0646 02be

fc2.weight f4 [400, 400]
-0.012189383 0.017192377 -0.017102607 0.03045381 0.011120394 0.007928722 -0.029457366 -0.01730572
0.04286533 -0.02435416 -0.020391824 -0.04661394 -0.0025042305 0.021153735 0.0058690743 -0.0014983533
0.022377102 -0.0005450334 0.012479235 -0.043152865 0.043547314 -0.0360561 -0.042226348 0.043439556
-0.03987104 -0.015327937 0.043061752 0.011242478 0.03970296 -0.042708974 0.015011575 -0.048529427
-0.022652432 -0.03646683 -0.032231923 0.010812872 0.04275445 0.032577153 -0.03731832 0.044934712
0.042464267 0.036990765 -0.0296371 -0.03270195 0.002347403 -0.011434361 -0.018947244 -0.034711935
-0.02296446 -0.009561802 0.035883527 0.028174287 0.01042667 -0.022994567 0.031621363 -0.039006606
-0.018069252 -0.044792112 -0.020337889 0.022186045 0.021637872 -0.012723453 0.023342852 -0.005247337
0.016909791 -0.016744083 -0.007499583 -0.029269196 -0.038651712 -0.01829275 0.008188039 0.03334183
-0.04567368 -0.04830494 -0.01286342 -0.040162127 0.0131189935 -0.01790571 0.010130745 0.0012213471
0.039896864 0.040911894 -0.041810293 -0.013672566 0.016252233 -0.04471795 -0.003641245 -0.025738629
-0.05329167 -0.004611969 -0.0082182 0.02333984 -0.0036149807 0.019060317 -0.01732372 -0.050372127
-0.041978475 -0.011569109 0.007595084 -0.02672068 0.036273178 0.045171317 0.020158876 -0.0033598484
0.016133929 -0.032239217 -0.03708469 0.022169841 -0.036971718 0.038579367 -0.007165364 0.030292755
0.014071131 -0.04381004 0.022860002 0.038410623 0.041591562 -0.004884263 -0.050448347 0.012625043
-0.04632156 -0.04457375 0.01571755 0.041714773 -0.021510126 -0.018842088 0.012802219 0.040059417
0.015788171 0.0049769217 -0.04676617 0.025309345 0.005106785 0.00038481952 0.0012534618 -0.047785915
0.040017232 -0.011665177 -0.044441946 -0.049643494 0.014136249 -0.011438323 -0.02644622 -0.001260451
0.029407786 -0.011259152 -0.04946244 -0.050087914 0.019683577 0.036424506 -0.02295824 0.04068825
-0.050838344 -0.0026008463 -0.016875599 -0.046370793 0.039095763 -0.014941901 0.045575794 0.038257312
-0.0038896382 -0.03779836 -0.035766624 -0.042101238 -0.050273567 -0.004754293 0.045216713 0.009414072
0.0394015 0.0073719667 -0.039157595 -0.030172398 0.011835971 -0.017730678 0.020224981 0.003918257
-0.034182522 -0.04541117 -0.001578559 0.033869546 0.008272193 0.021855706 0.032398913 -0.027275354
0.017218996 0.021087004 0.020727064 -0.033821713 0.046238072 0.04574164 0.022957161 0.004887849
-0.020423558 0.030823186 0.0052468 -0.022790195 -0.021781499 -0.008176861 -0.011951685 0.02794506
-0.009083955 -0.031743925 0.019428639 0.02896346 0.031297922 -0.015524031 0.024833614 0.019141903
-0.01972733 -0.036649194 -0.024769068 0.0059417975 -0.032190043 0.015819116 -0.021346597 0.0026797296
-0.04778806 -0.03233916 0.033122387 0.00024040938 0.009629804 -0.0017718499 -0.03265887 -0.035847865
-0.029220149 -0.028335275 0.044669766 -0.033702932 -0.024472598 -0.03523403 0.002735204 0.0031888722
0.005666326 -0.04377772 -0.024157247 -0.0015177419 0.01591822 0.042101108 -0.014574047 0.04867695
0.034863733 0.038911887 0.029975336 -0.005943102 0.026903285 0.0012115774 0.016467672 0.04412622
0.01091697 0.032200668 -0.03544663 -0.044781435 0.001014864 0.0042478004 0.011129327 -0.008788938
00000000: fab5 47bc 07d7 8c3c c41a 8cbc 457a f93c
00000010: 5032 363c 78e7 013c 9350 f1bc bac4 8dbc
00000020: 8e93 2f3d 6082 c7bc c10c a7bc 42ee 3ebd
00000030: 041e 24bb 994a ad3c 5d51 c03b 6564 c4ba
00000040: 2f50 b73c 93e0 0eba b575 4c3c 0fc1 30bd
00000050: ab5e 323d 90af 13bd 89f5 2cbd aded 313d
00000060: d14f 23bd 0722 7bbc 8561 303d 5f32 383c
00000070: 929f 223d 9bef 2ebd 1cf3 753c cbc6 46bd
00000080: 9891 b9bc 3e5e 15bd 9f05 04bd 7928 313c
00000090: 4a1f 2f3d 9f6f 053d 18db 18bd 760d 383d
000000a0: 03ef 2d3d a183 173d 81c9 f2bc 7bf2 05bd
000000b0: e3d6 193b 3057 3bbc 4037 9bbc 1a2e 0ebd
000000c0: f71f bcbc 1ba9 1cbc 9bfa 123d c3cd e63c
000000d0: a0d4 2a3c 1a5f bcbc 6785 013d 64c5 1fbd
000000e0: f805 94bc ef77 37bd a59b a6bc 82bf b53c
000000f0: e841 b13c 0876 50bc 8239 bf3c daf1 abbb
00000100: 6786 8a3c e32a 89bc 10bf f5bb f4c5 efbc
00000110: 4251 1ebd adda 95bc 2027 063c 7191 083d
00000120: 5314 3bbd 67db 45bd 18c1 52bc 0b81 24bd
00000130: 0cf1 563c ffae 92bc 6dfb 253c 9c15 a03a
00000140: e56a 233d 3b93 273d 4541 2bbd e602 60bc
00000150: 6723 853c 2b2a 37bd f4a1 6ebb d1d9 d2bc
00000160: 5e48 5abd 0020 97bb a1a5 06bc 3133 bf3c
00000170: 50e9 6cbb 6224 9c3c 79ea 8dbc 0153 4ebd
00000180: 9ff1 2bbd 5c8c 3dbc 2fe0 f83b 54e5 dabc
00000190: 2f93 143d 8f05 393d 3a24 a53c e730 5cbb
000001a0: 4d2b 843c 450d 04bd 1ee6 17bd 879d b53c
000001b0: a86f 17bd 6605 1e3d 6ecb eabb 8328 f83c
000001c0: 9a8a 663c 2872 33bd e644 bb3c 7554 1d3d
000001d0: ea5b 2a3d 2b0c a0bb eda2 4ebd 45d9 4e3c
000001e0: adbb 3dbd f792 36bd 17c2 803c 1cdd 2a3d
000001f0: 0136 b0bc b95a 9abc 66c0 513c 5815 243d
00000200: 3256 813c 7215 a33b e28d 3fbd 8b55 cf3c
00000210: d156 a73b 9ac1 c939 334b a43a 2abb 43bd
00000220: 1ce9 233d 4c1f 3fbc c208 36bd fa56 4bbd
00000230: ba9b 673c ce67 3bbc bea5 d8bc b835 a5ba
00000240: 99e8 f03c 4e78 38bc 2199 4abd fc28 4dbd
00000250: 743f a13c dd31 153d eb12 bcbc b9a8 263d
00000260: de3b 50bd f672 2abb b23e 8abc 4def 3dbd
00000270: e122 203d e0ce 74bc afad 3a3d b3b3 1c3d
00000280: 4de9 7ebb 74d2 1abd 0680 12bd 5972 2cbd
00000290: a8eb 4dbd e6c9 9bbb 2935 393d 7b3d 1a3c
000002a0: 7863 213d 8a90 f13b b763 20bd 1b2c f7bc
000002b0: a9eb 413c ed3f 91bc dcae a53c b964 803b
000002c0: f902 0cbd 1001 3abd a7e7 ceba cbba 0a3d
000002d0: 1888 073c bd0a b33c b9b4 043d 9070 dfbc
000002e0: da0e 8d3c a7be ac3c cecb a93c a388 0abd
000002f0: 2264 3d3d 965b 3b3d a810 bc3c 402a a03b
00000300: 4e4f a7bc e880 fc3c 59ed ab3b 81b2 babc
00000310: 1d6f b2bc 3ef8 05bc 00d1 43bc 0aed e43c
00000320: ded4 14bc eb05 02bd cf28 9f3c c744 ed3c
00000330: 4032 003d 8158 7ebc dd6f cb3c 7bcf 9c3c
00000340: 369b a1bc 771d 16bd 80e8 cabc 69b3 c23b
00000350: b5d9 03bd 1797 813c 0fdf aebc 679e 2f3b
00000360: 6abd 43bd 1176 04bd 57ab 073d 6716 7c39
00000370: 53c6 1d3c 6b3d e8ba 4fc5 05bd 36d5 12bd
00000380: 185f efbc 611f e8bc a5f7 363d 160c 0abd
00000390: c27a c8bc 8f51 10bd 1c41 333b 66fc 503b
000003a0: 96ac b93b 4450 33bd 6be5 c5bc f8ee c6ba
000003b0: ed66 823c 3672 2c3d fcc7 6ebc 7b61 473d
000003c0: 46cd 0e3d 1262 1f3d d68e f53c 5abe c2bb
000003d0: 4764 dc3c cbcd 9e3a 36e7 863c b2bd 343d
000003e0: 17dd 323c d9e4 033d 7c30 11bd bd6c 37bd
000003f0: 2f05 853a 2231 8b3b c857 363c 7aff 0fbc

fc2.bias f4 [400]
0.027856138 0.062538564 0.0021666586 -0.042016692 0.02983579 0.026821757 -0.0136373155 -0.026245002
-0.012777749 0.036927443 -0.040635817 -0.024698403 -0.043520458 0.047218263 -0.03130509 -0.047708947
0.009280027 -0.021476744 -0.052828785 0.0051923404 0.010250926 -0.05034212 -0.01660939 -0.0079739755
-0.02361308 0.015652498 0.05070908 0.004525667 0.0023181124 -0.009647683 0.02803417 0.010794105
-0.03242327 0.037155464 0.013312902 0.009167761 0.054439392 0.06032851 0.05942339 -0.0119214
-0.0055948426 -0.018483784 -0.041224696 0.014868755 -0.06031882 -0.041938275 -0.04091537 -0.049255267
0.00015060294 0.010263518 -0.017903749 0.015614838 0.029832678 0.016548228 -0.022995537 0.0006431622
-0.030130867 -0.051376164 0.009523537 -0.006937872 -0.004389521 0.050821416 -0.028671741 -0.025407314
0.067632236 -0.004477051 -0.017015276 0.020573353 0.05467333 -0.04665825 0.053550582 0.036793586
-0.043656684 0.041958123 0.01641271 0.055147048 -0.012094005 0.029974071 0.018142655 0.011184501
0.045925677 0.02056855 -0.014938665 -0.04923396 -0.042529296 0.0021112585 -0.05795015 0.04697226
-0.043249827 0.034688316 -0.052095305 -0.04409872 0.023721201 0.045886766 -0.00670554 0.008809424
0.0032600716 0.038449332 -0.043399304 -0.019670885 0.015363808 0.07483121 -0.048762254 -0.024154704
-0.05492489 -0.015942395 0.072654046 -0.022388808 0.030829597 -0.047058985 0.04119944 -0.03308508
0.0075610816 0.024681646 0.039262544 -0.0027796687 0.014589078 0.03279122 0.075557485 -0.046365913
-0.0076807374 0.0065127015 0.008503315 0.018067488 -0.0056541935 0.007830842 -0.008826899 0.02569968
-0.031971503 -0.022631055 -0.0074863797 0.019911045 -0.04520518 0.03381281 0.04893673 0.035230566
0.051806916 0.010283308 0.030706106 0.015909404 -0.0016586971 -0.05022467 -0.055706646 0.034940224
0.06592397 0.07352553 0.03037052 -0.04070151 0.07306087 0.027311932 0.009496489 -0.041921064
-0.006346387 -0.011327404 0.02090231 -0.03964514 0.002451986 -0.025311662 0.04255784 -0.025150286
0.013413424 0.05867401 -0.0007305841 0.009576211 0.008162781 -0.057687506 -0.025196487 0.00033795834
0.009030582 0.00020937661 0.017873239 0.032392867 -0.020223103 0.013983229 0.04905673 0.011615794
0.034761846 0.017815603 -0.040221807 0.03211671 -0.050163966 -0.027394855 0.01274282 0.035217274
0.0022351835 0.020384872 -0.036903735 0.058411784 0.003843459 -0.03369691 0.004634178 -0.027360667
-0.0008588523 -0.036900636 0.06841399 0.030054325 -0.047336016 0.026557883 -0.037442863 -0.050404586
0.06721096 -0.05522133 -0.003029306 -0.059308298 0.0026422315 -0.033203214 0.014552041 0.05507638
-0.04713999 0.019997071 -0.05018089 0.015951894 0.038051967 0.036675584 0.014102119 0.06951825
0.026688825 -0.01979857 0.024292858 0.017909242 0.0071712956 -0.03532015 0.035257716 0.023285361
0.014020634 0.03330044 0.00434111 0.027034678 0.039949033 -0.056643985 0.041012928 0.060963262
0.001576962 0.016684368 -0.023279516 -3.4545366e-05 -0.022999555 -0.026787985 0.016244197 -0.032207917
0.032897945 0.014458287 0.050820492 0.043850552 0.008170528 -0.017276024 -0.0072105513 -0.02279481
-0.060347196 -0.04997938 -0.05360052 0.07155183 -0.035566952 -0.010027538 0.035930395 0.026284147
00000000: 8e32 e43c 3814 803d 80fe 0d3b b219 2cbd
00000010: 306a f43c 4db9 db3c 0c6f 5fbc c2ff d6bc
00000020: c459 51bc 3b41 173d be71 26bd 4e54 cabc
00000030: 8242 32bd f067 413d c439 00bd 756a 43bd
00000040: 410b 183c ffef afbc ff62 58bd 8224 aa3b
00000050: 80f3 273c 8a33 4ebd 6a10 88bc 47a5 02bc
00000060: 3870 c1bc ab39 803c 53b4 4f3d 0c4c 943b
00000070: 79eb 173b 5111 1ebc eaa7 e53c c2d9 303c
00000080: 43ce 04bd 5430 183d 5c1e 5a3c 6034 163c
00000090: d7fb 5e3d 071b 773d f165 733d fa51 43bc
000000a0: f154 b7bb 4e6b 97bc 3adb 28bd 149c 733c
000000b0: de10 77bd 78c7 2bbd e096 27bd e4bf 49bd
000000c0: 2beb 1d39 5128 283c e2aa 92bc 61d5 7f3c
000000d0: a963 f43c 2690 873c 2361 bcbc e299 283a
000000e0: 02d5 f6bc d06f 52bd 9c08 1c3c 1757 e3bb
000000f0: f9d5 8fbb 1e2a 503d 00e1 eabc 0023 d0bc
00000100: c582 8a3d 3ab4 92bb 9f63 8bbc 7389 a83c
00000110: 24f1 5f3d b91c 3fbd db57 5b3d dfb4 163d
00000120: 5ad1 32bd 48dc 2b3d f373 863c dfe1 613d
00000130: ef25 46bc 2f8c f53c e89f 943c 333f 373c
00000140: 901c 3c3d 607f a83c 4dc1 74bc 8da9 49bd
00000150: 3333 2ebd 0a5d 0a3b 235d 6dbd fc65 403d
00000160: bb26 31bd 5615 0e3d e361 55bd dca0 34bd
00000170: f752 c23c c3f3 3b3d 26ba dbbb 6755 103c
00000180: eda6 553b 0c7d 1d3d 78c3 31bd d624 a1bc
00000190: 7bb8 7b3c 1b41 993d eeba 47bd 16e0 c5bc
000001a0: ecf8 60bd a099 82bc a5cb 943d bc68 b7bc
000001b0: 5a8e fc3c ecc0 40bd bec0 283d 3984 07bd
000001c0: f3c2 f73b 2a31 ca3c c3d1 203d 1a2b 36bb
000001d0: 0707 6f3c 1650 063d e2bd 9a3d 2fea 3dbd
000001e0: b2ae fbbb 8068 d53b 7d51 0b3c 4502 943c
000001f0: d046 b9bb ef4c 003c b39e 10bc 2388 d23c
00000200: 8df4 02bd c364 b9bc 4e50 f5bb 7d1c a33c
00000210: 1129 39bd 4d7f 0a3d e171 483d ed4d 103d
00000220: 7d33 543d 527b 283c 5f8b fb3c 7054 823c
00000230: a468 d9ba 62b8 4dbd a72c 64bd 7b1d 0f3d
00000240: 2503 873d 8e94 963d 99cb f83c a0b6 26bd
00000250: f0a0 953d 46bd df3c 2997 1b3c 6cb5 2bbd
00000260: 5af5 cfbb 9396 39bc 523b ab3c f162 22bd
00000270: 80b1 203b 675a cfbc 2151 2e3d f907 cebc
00000280: fac3 5b3c 2954 703d ab84 3fba 8ae5 1c3c
00000290: 2fbd 053c bc49 6cbd dd68 cebc 0030 b139
000002a0: 02f5 133c 1b8c 5b39 e66a 923c 62ae 043d
000002b0: ecaa a5bc ea19 653c b6ef 483d 2c50 3e3c
000002c0: 7062 0e3d 07f2 913c 9fbf 24bd d08c 033d
000002d0: bb78 4dbd 2d6b e0bc 43c7 503c fd3f 103d
000002e0: 287c 123b 2dfe a63c 5f28 17bd 3241 6f3d
000002f0: 8be2 7b3b c505 0abd 4dda 973b 7a23 e0bc
00000300: 9a24 61ba 1f25 17bd a21c 8c3d 7d34 f63c
00000310: 69e3 41bd eb8f d93c b05d 19bd 0a75 4ebd
00000320: e6a5 893d c32f 62bd 5287 46bb 42ed 72bd
00000330: 4a29 2d3b 1800 08bd af6b 6e3c c597 613d
00000340: dd15 41bd e6d0 a33c 7a8a 4dbd 8cad 823c
00000350: 61dc 1b3d 2339 163d 930c 673c 965f 8e3d
00000360: 86a2 da3c 9c30 a2bc d101 c73c 67b6 923c
00000370: 30fd ea3b ddab 10bd 656a 103d f1c0 be3c
00000380: cdb6 653c 0b66 083d df3f 8e3b d477 dd3c
00000390: 99a1 233d 8603 68bd 2cfd 273d 9db4 793d
000003a0: 10b2 ce3a a8ad 883c afb4 bebc cee4 10b8
000003b0: 9069 bcbc 7a72 dbbc 8d12 853c 73ec 03bd
000003c0: ffbf 063d 73e2 6c3c 2629 503d a39c 333d
000003d0: aedd 053c 7386 8dbc 7d46 ecbb 2ebc babc
000003e0: 9f2e 77bd 2eb7 4cbd 388c 5bbd c489 923d
000003f0: a7ae 11bd 8b4a 24bc c02b 133d da51 d73c

fc3.weight f4 [2, 400]
0.021709736 0.11152105 -0.016804153 -0.06494552 0.119105496 0.13787733 0.11532066 -0.22125119
0.07447482 0.028290732 -0.19017015 -0.21461411 0.032929 0.14276505 -0.14085323 -0.15946788
0.07602887 0.116518706 -0.20110863 0.17958763 -0.046899926 0.040253878 0.011026025 0.14221773
-0.022548849 0.14321968 0.063135445 0.11242487 0.018816233 -0.21723291 0.07525468 0.08806008
-0.03563525 -0.037264712 0.059886847 -0.034519125 0.05039554 0.11652607 0.16536528 0.00089796784
0.025922224 0.0764007 -0.20031594 0.07952873 -0.053396378 0.029124308 -0.21499509 -0.0019045202
-0.31295565 0.017569268 -0.034709614 0.025499143 -0.1738469 0.14262247 -0.0499667 -0.17865546
0.034862943 -0.17777152 -0.21318229 0.035059668 0.03037072 0.13270847 0.13979653 0.036765732
0.13809903 0.29923955 0.13856679 -0.20401986 0.09630847 -0.098934956 0.14691918 -0.1795379
-0.18100972 -0.026334545 0.029911535 0.051222935 0.124378264 -0.02025322 -0.18736476 0.016932786
-0.022184312 0.038260154 -0.0058830203 -0.02040474 -0.18903987 0.127942 -0.18189153 0.069463946
-0.08665164 -0.035800308 0.029706256 -0.20271896 -0.18834409 0.0660242 0.06743197 0.07900234
0.0764917 -0.1727229 -0.16357723 -0.14358997 -0.06685313 0.086390644 -0.19305249 -0.16566984
-0.1624131 0.024220591 0.12269314 0.14270225 -0.018249884 -0.17310822 0.115830354 -0.12014581
0.120599166 0.038571317 0.0866269 0.10111856 0.036638528 0.021669334 -0.18341349 -0.16178979
-0.19205049 -0.030813295 0.05587199 0.11146049 -0.009217457 0.030398285 -0.0164659 0.15980446
0.027613496 0.10952792 -0.096044004 -0.21883608 -0.15640137 -0.0152705135 0.117110476 0.021473235
-0.036527477 0.08519298 0.18206413 0.04899481 0.078785405 0.037842568 -0.19341516 0.10197024
0.089760825 0.07571365 -0.2079139 0.027732624 0.082996815 0.012586269 -0.2086489 -0.08877172
-0.04551372 -0.13359824 0.10337614 -0.18419804 0.014837611 -0.07467122 -0.11540296 0.21480787
-0.034698017 0.16730174 -0.15092912 0.007427857 0.06816866 -0.18887591 -0.20155534 -0.04613721
-0.1714255 -0.016729744 0.041718643 0.054173235 -0.20353557 -0.07366799 0.07584862 0.045478623
-0.10517018 -0.073638886 -0.033395566 -0.013586873 0.01564318 -0.15856843 0.119375855 -0.16281489
0.080627345 0.12284521 0.029288972 0.14810634 0.108667925 -0.07244391 0.043923836 -0.007870341
-0.019557415 -0.1230207 0.11639994 0.098033465 -0.17541915 0.12322372 -0.033448815 0.019190231
0.06870706 -0.001144692 0.026385063 -0.217167 -0.07985797 0.045458175 -0.16814724 0.071215644
-0.060805082 0.1366091 -0.1796779 -0.046689447 -0.14421344 -0.19571602 -0.008456582 0.19605437
-0.16658835 -0.028693527 0.14820127 0.1300541 0.007801219 -0.117417924 -0.17924927 0.092758976
0.04629096 -0.011544401 0.092109784 0.09069016 0.010189047 -0.18419664 -0.15946281 0.14314874
0.02515444 -0.17556894 -0.005770806 0.13959347 0.07251201 -0.008343965 0.096476175 -0.16480492
-0.03161048 -0.031056834 0.10721047 0.018153584 -0.14311233 -0.1275714 0.021274863 0.07278883
0.08855262 -0.16353197 -0.09086624 0.1367207 0.054155253 0.031634223 0.041358367 -0.22106248
00000000: 9ed8 b13c 2665 e43d dda8 89bc 2802 85bd
00000010: 95ed f33d b72f 0d3e 3d2d ec3d ac8f 62be
00000020: 4186 983d f7c1 e73c f7bb 42be cdc3 5bbe
00000030: 8fe0 063d 0031 123e d43b 10be 8c4b 23be
00000040: 06b5 9b3d 5ca1 ee3d 6cef 4dbe d2e5 373e
00000050: 231a 40bd 40e1 243d 80a6 343c 86a1 113e
00000060: 5db8 b8bc 2ea8 123e 284d 813d 033f e63d
00000070: 8024 9a3c 4e72 5ebe 201f 9a3d d858 b43d
00000080: 45f6 11bd e2a2 18bd e94b 753d ed63 0dbd
00000090: 8e6b 4e3d 38a5 ee3d 8455 293e 9a65 6b3a
000000a0: d85a d43c f877 9c3d 9f1f 4dbe f5df a23d
000000b0: 29b6 5abd 1a96 ee3c ac27 5cbe 18a1 f9ba
000000c0: b93b a0be 6ded 8f3c ab2b 0ebd 94e3 d03c
000000d0: ec04 32be a00b 123e e2a9 4cbd 75f1 36be
000000e0: 72cc 0e3d bd09 36be 754c 5abe ba9a 0f3d
000000f0: 04cc f83c bbe4 073e d226 0f3e aa97 163d
00000100: d569 0d3e ed35 993e 74e4 0d3e 95ea 50be
00000110: 603d c53d 699e cabd fb71 163e c9d8 37be
00000120: 9d5a 39be 8bbb d7bc 0909 f53c 24cf 513d
00000130: 08ba fe3d 15ea a5bc 8cdc 3fbe a0b6 8a3c
00000140: e0bb b5bc aeb6 1c3d 5ac6 c0bb d727 a7bc
00000150: ab93 41be 3a03 033e c641 3abe 1d43 8e3d
00000160: 6a76 b1bd 58a3 12bd 895a f33c 8f95 4fbe
00000170: 46dd 40be b237 873d c619 8a3d fbcb a13d
00000180: aea7 9c3d 46de 30be ca80 27be 4009 13be
00000190: 4bea 88bd 94ed b03d 8daf 45be 5ba5 29be
000001a0: 9f4f 26be 436a c63c 8a46 fb3d 8a20 123e
000001b0: c880 95bc 4843 31be 7738 ed3d 020f f6bd
000001c0: b2fc f63d f5fc 1d3d 7269 b13d 3f17 cf3d
000001d0: 4812 163d e383 b13c bfd0 3bbe 39ac 25be
000001e0: e2a8 44be 2a6c fcbc 07da 643d 6645 e43d
000001f0: d104 17bc d305 f93c 7fe3 86bc c8a3 233e
00000200: b335 e23c 2d50 e03d b8b2 c4bd 9116 60be
00000210: ae27 20be 2d31 7abc 9ed7 ef3d a3e8 af3c
00000220: d69d 15bd a879 ae3d 056f 3a3e c8ae 483d
00000230: 3e5a a13d cf00 1b3d a00e 46be c6d5 d03d
00000240: 86d4 b73d c20f 9b3d 62e7 54be 872f e33c
00000250: 3cfa a93d a336 4e3c 0fa8 55be f3cd b5bd
00000260: 986c 3abd facd 08be dfb6 d33d 699e 3cbe
00000270: 7319 733c 39ed 98bd 6358 ecbd 98f6 5b3e
00000280: 821f 0ebd 2651 2b3e 2a8d 1abe 6165 f33b
00000290: 039c 8b3d b068 41be 8664 4ebe 5ffa 3cbd
000002a0: 2b8a 2fbe d10c 89bc 2be1 2a3d c1e4 5d3d
000002b0: a16b 50be 3edf 96bd 8556 9b3d cb47 3a3d
000002c0: 7763 d7bd fccf 96bd cac9 08bd 7a9b 5ebc
000002d0: 2026 803c c35f 22be 547b f43d f2b8 26be
000002e0: f31f a53d 4596 fb3d 6def ef3c 30a9 173e
000002f0: 4a8d de3d 795d 94bd 7be9 333d 9af2 00bc
00000300: df36 a0bc 47f2 fbbd 1763 ee3d c5c5 c83d
00000310: 14a1 33be b85c fc3d a001 09bd d534 9d3c
00000320: 49b6 8c3d 7d09 96ba 7d25 d83c 0761 5ebe
00000330: 938c a3bd 5a32 3a3d ca2e 2cbe 82d9 913d
00000340: c00e 79bd 42e3 0b3e 7cfd 37be 6f3d 3fbd
00000350: b0ac 13be c869 48be 7a8d 0abc 7ac2 483e
00000360: 2396 2abe b00e ebbc 13c2 173e e72c 053e
00000370: 5ea1 ff3b cf78 f0bd 1f8d 37be 6bf8 bd3d
00000380: 979b 3d3d ba24 3dbc 0ea4 bc3d c3bb b93d
00000390: f6ef 263c 0b9e 3cbe 384a 23be 9595 123e
000003a0: af10 ce3c 58c8 33be 0819 bdbb 97f1 0e3e
000003b0: 2d81 943d 20b5 08bc 4d95 c53d 9fc2 28be
000003c0: fe79 01bd e76a febc 2a91 db3d d3b6 943c
000003d0: 0a8c 12be 14a2 02be 9f48 ae3c 4f12 953d
000003e0: 135b b53d ed74 27be 1418 babd 8300 0c3e
000003f0: e6d1 5d3d e392 013d 6467 293d 345e 62be

fc3.bias f4 [2]
0.0230335 0.060422294
00000000: c0b0 bc3c 5e7d 773d
