imitation_learning/models/h1-agent.pt (torch, 959856 bytes, 34 tensors)

model.0.weight f4 [16, 1, 7, 7]
-0.12841825 0.06785102 -0.12284927 -0.114108995 0.035281572 0.13313343 0.05505742 -0.097194344
0.05046968 -0.09034938 -0.12196748 0.12614924 -0.12965536 -0.083998665 -0.08098599 0.10371839
-0.056962065 0.021815956 0.051323667 -0.00747883 -0.04491649 -0.03055809 -0.11969145 -0.12402016
0.048633058 -0.040774375 0.027879115 0.06475079 0.04850162 -0.09421001 -0.029961567 -0.039017204
0.077777855 -0.06155597 -0.12858011 0.04962024 -0.108899884 -0.09159553 -0.009073614 -0.009750422
-0.13924056 -0.0024184966 0.08934617 0.07743069 0.089450106 -0.08888029 0.03221152 -0.11706649
0.09435411 0.14462554 -0.018089682 0.119545795 -0.073285386 -0.13889918 -0.069825865 0.07113658
0.11109379 0.030671885 -0.121651135 0.048046228 0.13079995 -0.017990107 -0.07548553 -0.101470195
-0.12741974 0.13819906 -0.112701476 0.013761641 -0.11031893 0.07957377 -0.053154886 0.068871565
-0.12053517 -0.08882861 0.047388416 -0.009245352 0.009750152 0.12778679 -0.10163121 0.04999476
0.021441506 0.03617718 -0.11637974 0.048996344 -0.09261432 -0.047924817 0.11480876 -0.13185027
0.09183801 0.12531194 -0.090360664 -0.0033605779 -0.11188757 0.13844374 0.036533833 -0.11182384
0.079704635 0.08609985 -0.0009254208 -0.0788069 0.056902576 -0.058106206 -0.09507655 -0.14384784
0.0012106108 0.0604919 0.0076269284 -0.07233618 -0.058539446 0.008951129 0.068272755 -0.040393714
0.07374868 0.1385012 -0.06072298 -0.043080073 0.0021800972 0.09071367 0.10655771 0.00012289063
0.13013458 0.0113885095 0.04077851 0.04819048 0.011170905 -0.03586145 0.013840896 -0.10825632
0.071176805 0.04569123 -0.08468264 0.044075795 0.070513904 -0.09078859 -0.13122042 -0.016274922
-0.05980543 -0.05137231 0.07392647 0.027777415 0.12973684 -0.051914908 0.091538005 0.10555555
0.0600797 0.044443894 -0.12507503 -0.04617386 0.08265957 -0.031434007 -0.012666063 -0.111490555
0.050638203 0.104314744 0.007304945 0.035145953 -0.11171495 0.04687936 -0.022813275 -0.011565665
-0.024381168 0.10913101 0.055990506 -0.061869808 0.021483105 -0.03007462 0.13388039 -0.005800089
-0.06634105 0.12058866 0.11279847 -0.1429903 0.121416636 -0.103857346 0.13595845 -0.054749966
-0.10417915 -0.010551015 -0.095764264 0.08938479 -0.11262301 -0.13554536 0.13778964 -0.10523219
-0.06382473 -0.12776503 0.010949404 0.016080704 0.060458843 0.14040299 0.086212434 0.14337261
-0.10028779 -0.0090247905 0.112562604 -0.11041031 -0.023781992 0.08884211 -0.06612584 0.036899373
-0.04930998 -0.084862836 -0.12793943 0.06771937 -0.05124661 0.036998015 0.07280742 0.1352594
-0.032265797 -0.1235786 0.0007295265 0.054937214 -0.12899688 0.07100673 0.12745889 0.07455409
0.07950906 0.09696289 -0.12754682 0.07647386 -0.04814056 0.01067057 -0.016808344 -0.07839536
-0.10720564 0.08088449 -0.12812191 0.089105465 0.0734509 -0.107531354 0.049614526 -0.100376554
-0.12440115 0.06951123 0.053185724 -0.032150164 0.10887827 0.055105414 0.047600247 0.030994521
-0.12854804 -0.06748883 0.038282864 0.045896348 0.032563522 0.00678753 -0.121780194 0.12191636
-0.0760254 0.09143896 -0.019366274 0.1277871 0.0488294 -0.08136052 -0.012262647 -0.13225177
00000000: 1380 03be 7af5 8a3d 6698 fbbd fab1 e9bd
00000010: 6983 103d 2154 083e e483 613d d40d c7bd
00000020: 4cb9 4e3d 1909 b9bd 16ca f9bd 442d 013e
00000030: 60c4 04be 7e07 acbd fcdb a5bd 4f6a d43d
00000040: 0e51 69bd 60b7 b23c c438 523d f910 f5bb
00000050: 5afa 37bd f654 fabc ca20 f5bd 48fe fdbd
00000060: 7533 473d 0803 27bd be62 e43c 109c 843d
00000070: a2a9 463d 2df1 c0bd f671 f5bc 81d0 1fbd
00000080: ff49 9f3d 1d22 7cbd 81aa 03be 983e 4b3d
00000090: e706 dfbd 7096 bbbd 7fa9 14bc 3cc0 1fbc
000000a0: 1495 0ebe a47f 1ebb 20fb b63d fb93 9e3d
000000b0: 9e31 b73d df06 b6bd 3af0 033d 8ec0 efbd
000000c0: ba3c c13d b818 143e d030 94bc 6dd4 f43d
000000d0: a616 96bd 963b 0ebe dd00 8fbd 0eb0 913d
000000e0: 2485 e33d 9b43 fb3c 3b24 f9bd 1fcc 443d
000000f0: 6cf0 053e fd5f 93bc 2898 9abd 9bcf cfbd
00000100: 527a 02be 0e84 0d3e 08d0 e6bd 8278 613c
00000110: e4ee e1bd 93f7 a23d f0b8 59bd 890c 8d3d
00000120: 25db f6bd c6eb b5bd 5b1a 423d d179 17bc
00000130: 1abf 1f3c 8ada 023e 0624 d0bd 4ec7 4c3d
00000140: 19a6 af3c 862e 143d 8058 eebd 64b0 483d
00000150: 94ac bdbd d04c 44bd db20 eb3d c203 07be
00000160: 9115 bc3d c651 003e 030f b9bd 243d 5cbb
00000170: 4f25 e5bd 32c4 0d3e 80a4 153d e603 e5bd
00000180: 2f3c a33d 1e55 b03d f097 72ba 8365 a1bd
00000190: ad12 693d c600 6ebd 7fb7 c2bd d94c 13be
000001a0: 5cad 9e3a 5bc6 773d 50eb f93b fe24 94bd
000001b0: 0fc7 6fbd c2a7 123c 96d2 8b3d e173 25bd
000001c0: 8c09 973d 42d3 0d3e a9b8 78bd bb74 30bd
000001d0: f6df 0e3b 17c8 b93d ee3a da3d 34dc 0039
000001e0: 0042 053e df96 3a3c 5e07 273d 6163 453d
000001f0: 2c06 373c 75e3 12bd edc4 623c 7db5 ddbd
00000200: 25c5 913d ba26 3b3d 186e adbd d288 343d
00000210: 9869 903d 5eef b9bd a55e 06be fc52 85bc
00000220: 8af6 74bd c56b 52bd c366 973d 768d e33c
00000230: bcd9 043e baa4 54bd 4778 bb3d 822d d83d
00000240: 2216 763d cd0a 363d ab13 00be cd20 3dbd
00000250: 6c49 a93d f2c0 00bd 5285 4fbc 2955 e4bd
00000260: 016a 4f3d f8a2 d53d 525e ef3b 34f5 0f3d
00000270: cfca e4bd 9204 403d e8e2 babc ea7d 3dbc
00000280: 04bb c7bc 1480 df3d 4d56 653d 326b 7dbd
00000290: 56fd af3c 0d5f f6bc f117 093e ac0e bebb
000002a0: d1dd 87bd 30f7 f63d e202 e73d 0d6c 12be
000002b0: 49a9 f83d 29b3 d4bd b138 0b3e 8041 60bd
000002c0: e15b d5bd 2ade 2cbc 0e20 c4bd 5f0f b73d
000002d0: e5a6 e6bd 67cc 0abe ba18 0d3e f983 d7bd
000002e0: 8ab6 82bd d6d4 02be 2165 333c aebb 833c
000002f0: b1a3 773d cdc5 0f3e 2590 b03d 45d0 123e
00000300: af63 cdbd b7dc 13bc 3987 e63d cd1e e2bd
00000310: 74d2 c2bc daf2 b53d fc6c 87bd cc23 173d
00000320: 43f9 49bd 91cc adbd 8e02 03be 74b0 8a3d
00000330: f7e7 51bd 3b8b 173d 0e1c 953d 7181 0a3e
00000340: 2429 04bd c716 fdbd b23d 3f3a d805 613d
00000350: c217 04be fa6b 913d 9584 023e d1af 983d
00000360: a5d5 a23d 7b94 c63d a29b 02be 549e 9c3d
00000370: 092f 45bd 9dd3 2e3c a7b1 89bc bf8d a0bd
00000380: a18e dbbd c4a6 a53d 6432 03be ed7c b63d
00000390: 6d6d 963d 6639 dcbd 9a38 4b3d 3992 cdbd
000003a0: 08c6 febd e75b 8e3d 46d9 593d e4af 03bd
000003b0: 92fb de3d 37b6 613d 7af8 423d 39e8 fd3c
000003c0: 19a2 03be 9537 8abd 7ece 1c3d cffd 3b3d
000003d0: 5461 053d ee69 de3b e567 f9bd 49af f93d
000003e0: 34b3 9bbd 5944 bb3d 05a6 9ebc 9fda 023e
000003f0: 5601 483d 58a0 a6bd 45e9 48bc 026d 07be

model.0.bias f4 [16]
-0.10235341 0.05464824 0.053473152 0.1226418 -0.04614647 -0.11129624 -0.12574568 -0.009508843
0.046765286 -0.04407405 -0.120227195 -0.03254028 -0.047332488 0.061065692 0.0334357 0.12269514
00000000: aa9e d1bd d5d6 5f3d aa06 5b3d a02b fb3d
00000010: 1504 3dbd 48ef e3bd 7ac3 00be faca 1bbc
00000020: f58c 3f3d fe86 34bd ad39 f6bd f548 05bd
00000030: b6df 41bd 0520 7a3d dff3 083d 9747 fb3d

model.1.weight f4 [16]
0.99902517 1.0067756 0.9906111 0.99869114 1.0058666 0.99937683 1.0017207 1.0017008
0.9974076 0.9966264 1.0017874 1.0002555 1.0002861 0.98965436 1.0014693 0.99967825
00000000: 1dc0 7f3f 06de 803f b098 7d3f 39aa 7f3f
00000010: 3dc0 803f 29d7 7f3f 6238 803f bb37 803f
00000020: 1b56 7f3f e822 7f3f 923a 803f 5f08 803f
00000030: 6009 803f fd59 7d3f 2530 803f eaea 7f3f

model.1.bias f4 [16]
-0.00102596 0.0033438383 -0.00574225 -0.0014033058 -0.00750086 -0.008254604 -0.001915944 -0.0027010436
-0.0066799396 0.0015806009 0.0003371454 -0.0012841861 -0.0034339686 -0.0076622963 -0.0026174625 -0.004133094
00000000: 8179 86ba 4c24 5b3b 7c29 bcbb 21ef b7ba
00000010: c6c9 f5bb 523e 07bc 6a20 fbba fe03 31bb
00000020: 65e3 dabb 2a2c cf3a e4c2 b039 2352 a8ba
00000030: 6f0c 61bb 0014 fbbb bc89 2bbb e86e 87bb

model.1.running_mean f4 [16]
-140.04024 -13.249187 30.876455 16.829123 8.179275 -19.642221 -15.050021 138.9583
66.75712 3.56063 -91.10333 -23.591206 28.551594 128.60625 61.77658 29.250832
00000000: 4d0a 0cc3 acfc 53c1 fb02 f741 0ba2 8641
00000010: 4fde 0241 4523 9dc1 e3cc 70c1 53f5 0a43
00000020: a583 8542 5de1 6340 e834 b6c2 caba bcc1
00000030: aa69 e441 339b 0043 381b 7742 b401 ea41

model.1.running_var f4 [16]
2751.5774 133.77875 409.90976 189.8046 150.3725 270.44046 275.0691 2654.2708
718.36646 200.1762 1459.569 170.5581 328.16165 3121.1372 911.91516 803.9383
00000000: 3df9 2b45 5cc7 0543 73f4 cc43 facd 3d43
00000010: 5c5f 1643 6138 8743 d888 8943 55e4 2545
00000020: 7497 3344 1b2d 4843 3572 b644 e08e 2a43
00000030: b114 a443 3212 4345 92fa 6344 0dfc 4844

model.4.weight f4 [32, 16, 3, 3]
-0.033265203 0.021705197 0.021969479 -0.025448438 0.06993969 -0.0061461027 -0.08233657 0.041857097
-0.065641046 0.07738911 -0.07971073 0.024881175 -0.02406919 0.08081744 0.016799143 0.04611375
-0.039748475 -0.07673207 -0.07011035 -0.01761912 0.022193251 0.07003282 -0.040809114 -0.0544292
-0.045523655 0.0067747706 0.052395828 -0.059546478 0.020203175 0.052245297 -0.07164001 -0.035108425
-0.007539118 0.0371575 0.045085646 -0.026319327 0.012085051 -0.073285125 0.07384263 -0.006360631
0.019054083 0.07531873 -0.0461474 0.0028636577 0.043887023 -0.047072057 0.057938203 -0.00192343
-0.059309635 0.06377798 -0.010574382 -0.0033225715 0.07550657 0.06907423 0.029167673 -0.06906193
-0.08124613 0.029773131 -0.01831337 -0.0015635116 -0.068919584 -0.07674135 -0.026690163 0.051909275
-0.0760758 -0.0026736695 0.021102 -0.06170745 0.062120136 -0.0069790995 0.0065714796 0.018272314
0.04022124 0.018325092 -0.06911141 -0.057634104 -0.019455796 -0.0743978 0.044517756 0.08361939
0.012652871 -0.021822192 0.01104661 0.038821183 -0.0073664254 0.045796722 0.058043927 -0.036038976
-0.05408969 -0.049946755 -0.018421968 0.003601981 -0.06478632 0.061597716 0.016187433 -0.027244346
0.06953412 0.016726654 0.037790842 -0.026434127 -0.051852494 -0.051966902 -0.0741021 0.026442163
-0.02764103 -0.011135209 0.055587955 0.07163761 0.04750163 -0.065516375 -0.07356236 0.03470523
0.023184784 -0.037052054 -0.04829423 -0.089485414 0.04252747 -0.028529128 0.041440126 -0.02978164
-0.020983038 -0.046810944 0.005031573 0.007280551 -0.04145835 0.07658329 -0.079256274 -0.034648094
0.06328127 0.014091508 0.065565735 -0.040453028 -0.013462056 0.0023905155 0.035023373 -0.04890895
-0.022918433 -0.03379968 -0.024022954 -0.067927256 -0.06581983 -0.020944666 -0.046703722 0.0069543025
0.04777397 -0.06991872 0.0027285554 -0.04976597 -0.031318672 0.024517393 0.07798577 0.02392895
0.021731673 -0.06556989 0.013574387 0.020557981 0.028989904 -0.014511879 0.05688624 0.07100404
-0.009310453 0.0038454994 -0.038563788 0.038700048 -0.036335304 0.023154061 0.06843556 0.043362036
-0.01968013 -0.02474891 -0.014870886 -0.04430235 0.0818523 0.07473815 0.003894318 -0.0031891915
0.06910052 -0.021355463 0.025635567 0.005503067 -0.040663812 -0.07938769 0.011219678 0.067079104
0.077599466 -0.041194685 -0.008539827 0.019237868 -0.079258576 -0.012608621 -0.038592648 0.06486341
0.04472474 0.041975692 -0.039799463 -0.06456613 -0.081049904 0.036197416 -0.07969324 0.043918796
0.06540634 -0.039258238 0.017011352 0.085650824 0.06354185 0.028099155 -0.07416617 0.007863802
0.011668121 -0.029120825 0.058930583 -0.0627149 -0.07742732 0.026101382 -0.07461232 -0.07941016
-0.044560317 -0.07623011 -0.017988293 -0.006939653 0.035202824 -0.016758198 -0.006576562 -0.043932762
0.012201164 -0.06369242 -0.04072672 -0.06564315 0.0030592266 -0.060298946 -0.003540911 -0.06681581
-0.07916197 -0.078964494 -0.04685112 -0.0073976014 0.025915254 0.0120713385 0.018004121 -0.0143003445
0.06541566 -0.011331898 0.075022504 -0.07548823 -0.009202808 -0.07174628 -0.081701405 0.019102558
-0.04267335 0.080005646 0.02812814 0.0529376 0.04009882 0.005806491 0.026453413 -0.049947314
00000000: 1841 08bd 19cf b13c 56f9 b33c 3e79 d0bc
00000010: 8a3c 8f3d 3f65 c9bb 13a0 a8bd 5972 2b3d
00000020: d06e 86bd 2f7e 9e3d 613f a3bd 9bd3 cb3c
00000030: c02c c5bc 9d83 a53d 5b9e 893c c6e1 3c3d
00000040: 4ccf 22bd b425 9dbd 0496 8fbd f955 90bc
00000050: 9fce b53c 5e6d 8f3d 7527 27bd 27f1 5ebd
00000060: 0377 3abd e5fe dd3b 029d 563d 02e7 73bd
00000070: 2181 a53c 2aff 553d ffb7 92bd dacd 0fbd
00000080: b50a f7bb 7632 183d baab 383d a19b d7bc
00000090: 6100 463c 8316 96bd ce3a 973d d76c d0bb
000000a0: 4f17 9c3c b540 9a3d 0e05 3dbd 34ac 3b3b
000000b0: e1c2 333d a1ce 40bd 9c50 6d3d 9a1b fcba
000000c0: a9ee 72bd 089e 823d 2c40 2dbc 80bf 59bb
000000d0: 30a3 9a3d ca76 8d3d 0bf1 ee3c 5770 8dbd
000000e0: 5f64 a6bd c8e6 f33c ec05 96bc beee ccba
000000f0: b625 8dbd 922a 9dbd 54a5 dabc d29e 543d
00000100: a1cd 9bbd bb38 2fbb 1ade ac3c f3c0 7cbd
00000110: af71 7e3d eeb0 e4bb 9155 d73b d2af 953c
00000120: 07bf 243d 811e 963c 488a 8dbd bd11 6cbd
00000130: c361 9fbc e05d 98bd 4058 363d a540 ab3d
00000140: fd4d 4f3c 74c4 b2bc d7fc 343c f602 1f3d
00000150: 0e62 f1bb 5895 3b3d 78bf 6d3d 9b9d 13bd
00000160: 278d 5dbd f894 4cbd abe9 96bc 370f 6c3b
00000170: b1ae 84bd e34d 7c3d 829b 843c 892f dfbc
00000180: e867 8e3d 5606 893c 92ca 1a3d 628c d8bc
00000190: 4863 54bd 3fdb 54bd d8c2 97bd 3c9d d83c
000001a0: 716f e2bc 7470 36bc 32b0 633d bdb6 923d
000001b0: 1291 423d 732d 86bd dda7 96bd 1227 0e3d
000001c0: 04ee bd3c e5c3 17bd 2cd0 45bd 2144 b7bd
000001d0: 4931 2e3d ebb5 e9bc 1fbd 293d a0f8 f3bc
000001e0: 9fe4 abbc d5bc 3fbd e5df a43b b091 ee3b
000001f0: 3bd0 29bd b3d7 9c3d 1d51 a2bd 29eb 0dbd
00000200: 9c99 813d 12e0 663c 5447 863d 13b2 25bd
00000210: f58f 5cbc 32aa 1c3b ab74 0f3d c054 48bd
00000220: 70bf bbbc 8971 0abd c9cb c4bc 721d 8bbd
00000230: 8ccc 86bd 2694 abbc 674c 3fbd ebe0 e33b
00000240: a3ae 433d 8c31 8fbd 90d1 323b 67d7 4bbd
00000250: 0248 00bd b3d8 c83c 01b7 9f3d a506 c43c
00000260: 9f06 b23c 8249 86bd 1b67 5e3c 3669 a83c
00000270: 3c7c ed3c 3bc3 6dbc 8c01 693d 916a 913d
00000280: df8a 18bc c604 7c3b 10f5 1dbd f183 1e3d
00000290: 54d4 14bd 96ad bd3c f127 8c3d 649c 313d
000002a0: 3938 a1bc 3abe cabc 04a5 73bc 6276 35bd
000002b0: 2ea2 a73d 5110 993d d037 7f3b c101 51bb
000002c0: 9384 8d3d a7f1 aebc ae01 d23c 1253 b43b
000002d0: 198f 26bd 0396 a2bd bed2 373c c560 893d
000002e0: 78ec 9e3d c2bb 28bd a1ea 0bbc bc98 9d3c
000002f0: 5252 a2bd 6494 4ebc 5313 1ebd 1cd7 843d
00000300: 4a31 373d b4ee 2b3d c304 23bd 3f3b 84bd
00000310: 7efd a5bd be43 143d 3636 a3bd 32e4 333d
00000320: c2f3 853d 3fcd 20bd 645b 8b3c b369 af3d
00000330: 3b22 823d 3330 e63c 6fe4 97bd 2dd7 003c
00000340: a62b 3f3c cc8e eebc 3261 713d ab70 80bd
00000350: 3792 9ebd 91d2 d53c 58ce 98bd cba1 a2bd
00000360: e184 36bd 881e 9cbd 2f5c 93bc 0766 e3bb
00000370: d630 103d 7d48 89bc 3380 d7bb d7f2 33bd
00000380: 64e7 473c 2c71 82bd 10d1 26bd ea6f 86bd
00000390: 4e7d 483b 07fc 76bd a10e 68bb bad6 88bd
000003a0: ac1f a2bd 23b8 a1bd f6e6 3fbd 9467 f2bb
000003b0: 3a4c d43c ddc6 453c 617d 933c fe4b 6abc
000003c0: a5f8 853d 6da9 39bc 66a5 993d 9399 9abd
000003d0: 60c7 16bc b7ef 92bd 1153 a7bd f87c 9c3c
000003e0: 40ca 2ebd 00da a33d fc6c e63c 19d5 583d
000003f0: a93e 243d 6044 be3b d4b4 d83c 8e95 4cbd

model.4.bias f4 [32]
0.079321794 0.08139986 -0.05805431 0.022730656 -0.0028353294 -0.007090478 -0.03456163 0.043689884
0.012211971 -0.03667311 0.051085413 -0.078162834 -0.0451015 0.0788257 -0.04183438 0.010640015
0.022273393 0.0053054276 0.06522997 -0.0030899458 0.0465354 -0.007234089 -0.04946064 0.016554518
0.060551163 0.0682862 0.08365889 0.041119844 0.038335856 0.07841614 0.017129717 -0.023722025
00000000: 7773 a23d f8b4 a63d 5bca 6dbd a435 ba3c
00000010: efd0 39bb 3e57 e8bb 7f90 0dbd 2af4 323d
00000020: b814 483c 8b36 16bd f03e 513d d613 a0bd
00000030: 5abc 38bd 5e6f a13d 875a 2bbd 7553 2e3c
00000040: b176 b63c 27d9 ad3b 4a97 853d b080 4abb
00000050: e79b 3e3d f00b edbb 3d97 4abd 579d 873c
00000060: 7f04 783d a3d9 8b3d 5a55 ab3d 486d 283d
00000070: 0f06 1d3d a498 a03d 9f53 8c3c b154 c2bc

model.5.weight f4 [32]
0.9999696 1.005856 1.001359 1.0019429 0.9961501 0.99902123 0.99796325 1.0031307
0.99659485 0.99425924 0.99574155 0.9976571 0.9988509 1.0031712 1.0002038 1.0000008
1.0016824 1.0072093 1.0024458 1.0014147 1.0013838 0.9984686 1.0022041 0.99502456
1.0057675 1.0028965 0.993273 1.0001965 1.0015124 1.0010139 1.0013272 0.99679047
00000000: 02fe 7f3f e4bf 803f 882c 803f aa3f 803f
00000010: b103 7f3f dbbf 7f3f 857a 7f3f 9666 803f
00000020: d720 7f3f c687 7e3f ebe8 7e3f 7566 7f3f
00000030: b1b4 7f3f ea67 803f ae06 803f 0700 803f
00000040: 2137 803f 3cec 803f 2550 803f 5b2e 803f
00000050: 582d 803f a39b 7f3f 3948 803f eeb9 7e3f
00000060: fdbc 803f ea5e 803f 2447 7e3f 7006 803f
00000070: 8f31 803f 3921 803f 7d2b 803f a92d 7f3f

model.5.bias f4 [32]
-0.0042047496 -0.009835581 -0.0017404227 -0.0026044978 -0.006783505 -0.0025047974 -0.00382074 -0.0075089363
-0.00034491505 -0.008468135 -0.003107835 0.0013650643 0.0034413412 0.004429119 -0.0039541703 0.0007705127
0.00256838 0.00022894639 -0.004820582 -0.0006788767 0.00016421279 -0.003139448 -0.0060774116 0.0017102545
0.004455058 -0.009716535 -0.0073540444 -0.00031963715 -0.0038553043 -0.0026850738 -0.0036228704 -0.0071143997
00000000: ffc7 89bb 6b25 21bc e51e e4ba 39b0 2abb
00000010: 2a48 debb 8727 24bb 6165 7abb 860d f6bb
00000020: b7d5 b4b9 efbd 0abc d2ac 4bbb f5eb b23a
00000030: 2088 613b 2522 913b fc91 81bb 3bfc 493a
00000040: 4452 283b 5411 7039 f9f5 9dbb a5f6 31ba
00000050: 8930 2c39 32bf 4dbb 0625 c7bb 9e2a e03a
00000060: bcfb 913b 1a32 1fbc 32fa f0bb f994 a7b9
00000070: 46a9 7cbb 10f8 2fbb ae6d 6dbb e91f e9bb

model.5.running_mean f4 [32]
-0.15824643 0.14793143 -0.22778168 0.5173927 0.41927487 -0.040626187 -0.011946156 0.04474497
-0.08779166 0.2338797 -0.08450438 -0.2600584 -0.22044569 -0.20437166 -0.028559735 -0.036131628
-0.3490723 -0.4019892 0.14943728 0.16976655 -0.18352413 0.15962787 0.10513218 -0.08984326
-0.09102063 0.27478412 0.16063939 -0.067925684 -0.3216844 0.1569652 -0.13953069 -0.38809204
00000000: 5a0b 22be 567b 173e 9a3f 69be d973 043f
00000010: 32ab d63e a567 26bd cfb9 43bc 8046 373d
00000020: 1dcc b3bd 297e 6f3e a210 adbd 6026 85be
00000030: 84bc 61be ce46 51be 1bf6 e9bc c2fe 13bd
00000040: 9bb9 b2be 87d1 cdbe 1606 193e 48d7 2d3e
00000050: c0ed 3bbe 7d75 233e 8a4f d73d beff b7bd
00000060: 0669 babd 81b0 8c3e a77e 243e 9f1c 8bbd
00000070: d1b3 a4be 7cbb 203e 22e1 0ebe 00b4 c6be

model.5.running_var f4 [32]
0.056754466 0.029707566 0.120725326 0.2689982 0.052936472 0.20938401 0.03634262 0.061774544
0.041480996 0.053623177 0.054846115 0.114579715 0.080681324 0.037109483 0.10170256 0.048127733
0.116253555 0.036207322 0.030585844 0.063687325 0.12461613 0.05188336 0.020985251 0.18698753
0.052329034 0.06817406 0.03490288 0.12516153 0.09017949 0.047360074 0.10006586 0.057448752
00000000: 5f77 683d 485d f33c d73e f73d 22ba 893e
00000010: ead3 583d c368 563e 00dc 143d 4e07 7d3d
00000020: fae7 293d faa3 5b3d 52a6 603d c5a8 ea3d
00000030: 403c a53d 1d00 183d 6f49 d03d 9621 453d
00000040: 5816 ee3d 214e 143d 2a8f fa3c 806e 823d
00000050: be36 ff3d a583 543d 43e9 ab3c a979 3f3e
00000060: f856 563d d79e 8b3d 53f6 0e3d 582a 003e
00000070: 06b0 b83d a3fc 413d 54ef cc3d 624f 6b3d

model.7.weight f4 [32, 32, 3, 3]
0.046246372 0.030208247 -0.031539027 -0.0035902623 -0.044165704 0.03804949 0.013541057 -0.03788183
-0.016219266 -0.039666407 -0.042313512 -0.04233159 -0.0067473385 0.016260998 -0.033668805 0.012253132
0.01342326 -0.029059345 -0.0033705968 0.024787309 0.030491674 0.057327237 -0.040001623 0.03601579
-0.02079628 -0.016929617 -0.04112004 -0.04100638 -0.022311958 0.009494694 -0.035239127 -0.024094569
0.035481554 0.027071703 -0.0518037 0.0084080165 -0.05594761 0.032204635 -0.010680279 0.053048015
-0.030112827 -0.008950463 0.04851193 -0.052160647 -0.01307911 -0.025648376 0.044952437 -0.04655558
0.0016608065 0.038524736 -0.04156724 0.003451341 0.006871246 0.011943598 -0.0045332746 0.035759874
-0.05423868 -0.0056927376 -0.011103468 -0.0044221156 0.03700257 -0.01931898 0.042445622 -0.013183985
0.0081718005 0.04449134 0.04710336 0.042000078 0.02922268 0.055037357 -0.0074984403 0.034465935
-0.047785316 0.049428605 0.0538573 -0.0028519223 0.04820449 -0.02269228 0.044314735 0.039602246
-0.012346662 0.00012229088 -0.0051123924 0.03170412 -0.02414917 -0.021153536 -0.017020918 -0.026116513
0.0028149597 -0.06282334 -0.054140083 -0.047313087 0.0040508565 -0.008889264 -0.0066623646 0.00027674076
-0.048608568 0.0002972483 -0.0066996124 -0.02154548 0.003812924 -0.027643524 -0.0013771161 0.05401299
0.05336113 -0.009735894 0.018667592 -0.028320834 -0.055775363 -0.01621783 -0.0045848205 -0.021672545
-0.049936254 -0.05386792 0.025283828 -0.008376439 0.03451855 0.012600137 0.062347695 -0.006766828
-0.03906453 -0.027495353 -0.03460645 0.011085193 0.043087646 0.05006673 -0.050995406 -0.006050529
-0.033690672 0.001074907 -0.057112135 -0.01782533 -0.0062068203 -0.022123642 -0.007303367 -0.036450762
0.014475311 0.02196257 0.04187036 -0.0007782956 -0.0026666808 -0.010276048 0.002628268 0.033031218
0.027907846 0.04794897 -0.048517667 0.039359454 0.056406964 -0.0064052837 -0.055033404 0.040396817
-0.027650043 0.0024809919 0.030882558 -0.020392762 0.045543592 -0.048128 0.021822814 0.03264239
0.044282217 -0.03133347 0.039143752 -0.008024169 -0.054589853 -0.019745493 -0.040040098 0.0328928
-0.03978205 0.023873094 0.05030789 -0.031942036 0.011083802 0.016236925 -0.03737196 -0.06073003
0.0048741777 -0.02697559 -0.0060034534 -0.050209995 -0.03081408 0.013532874 -0.030902868 0.007901936
0.02144382 -0.04007394 -0.014772137 0.025502654 -0.028980345 -0.05792718 -0.050275337 0.0571001
0.039108884 0.0071163517 0.042985804 -0.008574641 -0.043526363 -0.026973525 -0.028745422 -0.044223733
-0.0014762543 -0.019048236 0.027095128 -0.050197847 0.009452264 -0.00037808082 0.044567965 -0.05790793
0.039764553 0.02924511 -0.05812006 -0.032659523 0.052236013 -0.014463083 0.012095474 0.03186174
-0.020594873 0.027229626 0.03294327 0.032923136 -0.03892208 0.017174846 0.05221616 0.013660244
-0.034587804 -0.011242548 -0.03565003 0.0020530699 -0.050915465 -0.05573582 -0.05570592 -0.0072289933
0.018376648 -0.057972185 -0.05621489 0.057930853 -0.018200478 0.03638771 0.04247193 -0.010789739
0.04620861 0.013497377 -0.0457908 -0.0034477515 -0.05380695 0.05280772 0.05130164 -0.011760791
-0.007610094 0.054444633 0.0025427106 -0.058799252 0.006090794 0.05555502 0.014111503 0.006373707
00000000: d66c 3d3d 4977 f73c 112f 01bd 9b4a 6bbb
00000010: 19e7 34bd c8d9 1b3d 4fdb 5d3c fa29 1bbd
00000020: 44de 84bc 3e79 22bd ef50 2dbd e463 2dbd
00000030: c718 ddbb c935 853c 4de8 09bd 5cc1 483c
00000040: 3ced 5b3c dd0d eebc 3be5 5cbb c10e cb3c
00000050: adc9 f93c f7cf 6a3d bed8 23bd 4b85 133d
00000060: f65c aabc fbaf 8abc 7d6d 28bd 4ef6 27bd
00000070: 91c7 b6bc a28f 1b3c e756 10bd f961 c5bc
00000080: 1b55 113d 7ac5 dd3c 1e30 54bd c7c1 093c
00000090: 5229 65bd 02e9 033d 56fc 2ebc e048 593d
000000a0: 2daf f6bc f6a4 12bc 72b4 463d 67a6 55bd
000000b0: c349 56bc 8b1c d2bc 0c20 383d 10b1 3ebd
000000c0: 6baf d93a 1dcc 1d3d 6942 2abd e52f 623b
000000d0: 3028 e13b 15af 433c dd8b 94bb f278 123d
000000e0: 6129 5ebd 258a babb 52eb 35bc 65e7 90bb
000000f0: 0290 173d d642 9ebc 76db 2d3d a401 58bc
00000100: 04e3 053c 8d3c 363d 74ef 403d 4608 2c3d
00000110: 6764 ef3c da6e 613d 7ab5 f5bb 272c 0d3d
00000120: 89ba 43bd a675 4a3d 7999 5c3d 51e7 3abb
00000130: 1272 453d 29e5 b9bc 5e83 353d f735 223d
00000140: a749 4abc 353b 0039 db85 a7bb 2edc 013d
00000150: 7bd4 c5bc 2e4a adbc 746f 8bbc 4cf2 d5bc
00000160: 307b 383b 86a9 80bd fec1 5dbd 5ecb 41bd
00000170: 0cbd 843b 47a4 11bc f74f dabb 8417 9139
00000180: c719 47bd fed7 9b39 6c88 dbbb 2580 b0bc
00000190: 40e2 793b ac74 e2bc 5980 b4ba ba3c 5d3d
000001a0: 3391 5a3d 4d83 1fbc c7ec 983c 1801 e8bc
000001b0: b574 64bd 41db 84bc 433c 96bb 9f8a b1bc
000001c0: f589 4cbd 9ca4 5cbd 0820 cf3c 553d 09bc
000001d0: 5363 0d3d ce70 4e3c 4c60 7f3d 44bc ddbb
000001e0: 2102 20bd ef3d e1bc 7ebf 0dbd ab9e 353c
000001f0: ac7c 303d c512 4d3d 8fe0 50bd 8443 c6bb
00000200: 3bff 09bd e5e3 8c3a 6aee 69bd 6d06 92bc
00000210: 9562 cbbb a43c b5bc 1551 efbb 654d 15bd
00000220: db29 6d3c d9ea b33c 4180 2b3d 8906 4cba
00000230: 7bc3 2ebb df5c 28bc 053f 2c3b be4b 073d
00000240: ff9e e43c 2466 443d 76ba 46bd 6137 213d
00000250: fd0a 673d 6ae3 d1bb b56a 61bd 2277 253d
00000260: 5882 e2bc 2398 223b 6bfd fc3c b90e a7bc
00000270: eb8b 3a3d de21 45bd c2c5 b23c 07b4 053d
00000280: 4561 353d 8657 00bd 3355 203d ce77 03bc
00000290: 9c99 5fbd 4dc1 a1bc 1601 24bd 9aba 063d
000002a0: 81f2 22bd 8291 c33c a50f 4e3d a7d5 02bd
000002b0: d698 353c 4d03 853c 5713 19bd 0dc0 78bd
000002c0: 91b7 9f3b eafb dcbc 9eb8 c4bb ffa8 4dbd
000002d0: cf6d fcbc fdb8 5d3c 0328 fdbc 1f77 013c
000002e0: f3aa af3c 9224 24bd d506 72bc f1ea d03c
000002f0: 3068 edbc 0d45 6dbd 83ed 4dbd cbe1 693d
00000300: a330 203d 4930 e93b e211 303d a77c 0cbc
00000310: b348 32bd 95f7 dcbc 857b ebbc f223 35bd
00000320: e07e c1ba 0c0b 9cbc 9af6 dd3c 429c 4dbd
00000330: abdd 1a3c 2639 c6b9 e68c 363d de30 6dbd
00000340: 28e0 223d 7193 ef3c 4d0f 6ebd fec5 05bd
00000350: 6ef5 553d 91f6 6cbc 182c 463c 7581 023d
00000360: 94b6 a8bc aa10 df3c 86ef 063d 69da 063d
00000370: c26c 1fbd 43b2 8c3c 9de0 553d 37cf 5f3c
00000380: f1ab 0dbd aa32 38bc c405 12bd cc8c 063b
00000390: bc8c 50bd 3e4b 64bd e42b 64bd 31e1 ecbb
000003a0: a08a 963c 3e74 6dbd 9641 66bd e748 6d3d
000003b0: 2b19 95bc 480b 153d 0cf7 2d3d 72c7 30bc
000003c0: 3d45 3d3d 1a24 5d3c 228f 3bbd acf3 61bb
000003d0: ad64 5cbd e84c 583d ab21 523d 55b0 40bc
000003e0: 185e f9bb 5601 5f3d 9ba3 263b 7cd7 70bd
000003f0: 4995 c73b a98d 633d ef33 673c 88da d03b

model.7.bias f4 [32]
0.043042 -0.053628687 -0.0021410638 0.017139556 -0.03195431 -0.018402373 0.008126238 0.043798078
-0.034414522 -0.0144827245 0.04097539 -0.053077742 -0.031120306 0.019162053 0.053183496 -0.0318135
-0.0578423 0.032848693 -0.03953728 0.04920347 -0.032528955 0.05838411 -0.027497265 -0.033174355
0.051505763 -0.03551419 -0.0016973354 -0.03736199 -0.027274465 0.00533219 0.013775434 0.020637944
00000000: cf4c 303d c1a9 5bbd 1751 0cbb 4168 8c3c
00000010: 86e2 02bd 93c0 96bc ea23 053c 9d65 333d
00000020: 3ef6 0cbd f348 6dbc cfd5 273d 0c68 59bd
00000030: 03f0 febc bdf9 9c3c f0d6 593d df4e 02bd
00000040: 0cec 6cbd 5a8c 063d d8f1 21bd 9489 493d
00000050: 153d 05bd 2d24 6f3d f241 e1bc d5e1 07bd
00000060: b5f7 523d 5477 11bd 2079 deba e308 19bd
00000070: b36e dfbc a7b9 ae3b 5cb2 613c e810 a93c

model.8.weight f4 [32]
0.9980759 1.0013121 1.0080353 1.0023485 1.0087966 1.0020937 0.9962786 1.0063794
1.0084226 1.0007464 0.9977085 1.0043018 0.99040496 0.98925215 0.9996953 1.0025822
1.0029991 1.0012577 1.0011339 0.99920106 0.99293405 0.9980552 0.9991937 1.0003749
1.0014569 0.99494517 0.9919318 0.99645984 0.9988688 1.0075843 1.0001945 0.99767095
00000000: e781 7f3f ff2a 803f 4d07 813f f54c 803f
00000010: 3f20 813f 9b44 803f 1d0c 7f3f 0ad1 803f
00000020: fe13 813f 7518 803f d369 7f3f f68c 803f
00000030: 2e8b 7d3f a13f 7d3f 08ec 7f3f 9d54 803f
00000040: 4662 803f 3629 803f 2825 803f a4cb 7f3f
00000050: ed30 7e3f 8c80 7f3f 29cb 7f3f 490c 803f
00000060: bd2f 803f bab4 7e3f 3eef 7d3f fe17 7f3f
00000070: deb5 7f3f 86f8 803f 6006 803f 5d67 7f3f

model.8.bias f4 [32]
0.004050855 -0.0041069984 -0.009847524 -0.0069680763 -6.294599e-05 -0.0024974095 -0.0012399402 0.0020520384
-0.0021276101 0.0023813648 -0.0016717016 0.0045661535 -0.006559829 -0.011250752 0.0017094032 -0.00064369047
0.004152865 -0.014229407 0.0077032335 -0.0018060333 -0.0052534435 -0.0057532256 -0.0070255343 0.0049337833
-0.001660578 0.0017275114 -0.0017741848 -0.004497571 -0.008784358 0.0058537326 -0.002705372 -0.0050490177
00000000: 09bd 843b 0094 86bb 8257 21bc 7654 e4bb
00000010: df01 84b8 94ab 23bb 7d85 a2ba 7e7b 063b
00000020: 606f 0bbb ac10 1c3b ff1c dbba ac9f 953b
00000030: d6f3 d6bb 1355 38bc 0e0e e03a 56bd 28ba
00000040: c214 883b 7522 69bc 686b fc3b 6cb8 ecba
00000050: 1425 acbb 8e85 bcbb 7436 e6bb 93ab a13b
00000060: c0a7 d9ba aa6d e23a c38b e8ba 5c60 93bb
00000070: 45ec 0fbc abd0 bf3b 9c4c 31bb 3b72 a5bb

model.8.running_mean f4 [32]
-0.17952092 -0.11275012 -0.0467759 0.079188876 0.16476357 0.15078782 -0.27165863 0.1438352
-0.0015101712 0.05678521 0.17197183 -0.49293903 0.045262072 0.03998121 0.4705282 0.17260696
0.018783264 -0.18570007 -0.1383628 -0.058138292 -0.039713588 0.15231137 0.048888568 -0.12876944
0.22268479 -0.07411423 0.21744972 0.025365572 -0.11317328 0.01902589 0.1665812 0.029475605
00000000: 55d4 37be 89e9 e6bd 1698 3fbd c72d a23d
00000010: c8b7 283e 1f68 1a3e d716 8bbe 8949 133e
00000020: f0f0 c5ba 9c97 683d 6219 303e 8162 fcbe
00000030: b964 393d 56c3 233d 12e9 f03e e1bf 303e
00000040: 5cdf 993c 2928 3ebe faae 0dbe 6b22 6ebd
00000050: b7aa 22bd 83f7 1b3e 613f 483d 23dc 03be
00000060: 7b07 643e 34c9 97bd 24ab 5e3e 76cb cf3c
00000070: 65c7 e7bd 2fdc 9b3c 4394 2a3e d376 f13c

model.8.running_var f4 [32]
0.204642 0.096815154 0.041032497 0.08051084 0.037732575 0.08151767 0.09217596 0.15416145
0.06717966 0.16031829 0.17774352 0.3397456 0.13916555 0.15813074 0.12701996 0.1693402
0.059871353 0.05488891 0.055665538 0.11142239 0.060684662 0.0798788 0.058221042 0.21631297
0.104381725 0.06339116 0.21000823 0.04649417 0.08464966 0.07751636 0.19690646 0.10135428
00000000: ac8d 513e 0647 c63d b111 283d dee2 a43d
00000010: 798d 1a3d bcf2 a63d c0c6 bc3d 80dc 1d3e
00000020: 7d95 893d 7a2a 243e 6602 363e 23f3 ad3e
00000030: 6a81 0e3e 06ed 213e 8511 023e 8467 2d3e
00000040: aa3b 753d 32d3 603d 8c01 643d 6c31 e43d
00000050: 7b90 783d 7f97 a33d 3079 6e3d 2681 5d3e
00000060: 16c6 d53d 39d3 813d 660c 573e ac70 3e3d
00000070: cd5c ad3d e6c0 9e3d d9a1 493e d592 cf3d

model.10.weight f4 [64, 32, 3, 3]
-0.045012675 -0.0009090933 -0.048572462 0.002130517 -0.008830908 0.026055658 0.030354945 -0.047527235
0.042186495 -0.019472992 -0.0034272107 0.019380681 -0.03174924 -0.031050812 0.025441395 -0.004320603
0.010199467 0.0040312945 -0.019122666 0.035597254 0.03389403 -0.0029837699 -0.01461294 -0.04807862
0.022125721 0.0150545705 -0.02443462 0.057682425 0.054235913 0.006904333 0.016956454 -0.032553017
0.03019938 -0.034062162 0.037208036 0.0428356 0.04683034 0.025773888 0.040918265 -0.0074036084
0.05095811 0.053209294 0.033480138 0.033094317 -0.0047097583 -0.023900345 -0.009398009 0.0482668
-0.0019861779 -0.015929006 -0.0397047 0.031751305 0.010459389 0.0490076 0.03869162 -0.027851932
-0.005524035 -0.055851392 -0.05424402 0.037210725 -0.011137374 -0.046429217 0.02150133 0.009808232
-0.044030793 -0.00061758567 -0.044728924 -0.015778508 0.037103508 0.037535727 -0.018985203 -0.013378835
-0.017141214 0.05050565 -0.04880849 0.0019606517 0.02088152 0.04194623 0.019576333 0.008072826
-0.025349798 -0.04334878 -0.037340388 0.0358093 -0.06013028 0.027992642 -0.04243805 0.035291616
0.05218932 0.007064412 -0.04893404 0.04897294 0.00067271176 0.00015929899 -0.009416555 0.0022680408
-0.025761059 0.028358415 -0.05685123 -0.056578618 0.03348026 -0.0124173565 0.0051484853 -0.044327993
-0.014697763 -0.026881652 0.05401176 0.017218625 0.04526242 0.010699246 -0.03903907 0.0314997
-0.0421861 -0.0552902 0.0072281873 -0.028524712 -0.0039762594 -0.0041304044 0.018361887 -0.021051507
0.0050098263 -0.0505559 -0.027026867 0.03729929 0.005051743 -0.01526475 0.047806676 0.023475371
-0.029624093 -0.054552965 0.0013709712 0.030595243 -0.049015045 0.026602345 -0.037040085 0.04865877
-0.06546109 -0.03896862 -0.047316674 0.025449539 -0.022304725 0.021121139 0.017907226 0.039189123
-0.062130064 -0.017183205 -0.033817966 -0.0145024955 -0.03701333 0.024660254 -0.04873488 0.032413933
0.014941505 -0.032013416 -0.018600369 -0.03855707 -0.035578206 0.050981242 -0.016965747 0.034157887
0.02152024 -0.014060466 -0.013260062 -0.05981164 -0.010015356 -0.015108646 -0.0013663889 0.013005758
0.01928195 -0.0027719878 0.0052685435 0.04974122 -0.023780834 -0.023686659 0.048800826 -0.03725662
0.064384535 -0.042875826 0.040581655 0.04274657 0.013426751 0.056888472 -0.013671094 -0.024877114
-0.02202371 0.044288423 -0.050243538 -0.003636236 0.011563602 -0.033442248 -0.034161076 -0.0048126187
-0.0017317918 0.037385296 0.019143218 -0.05218689 0.023979085 0.05113613 0.044693224 -0.005108709
-0.033449475 0.007546809 0.038073555 -0.04234498 -0.04513658 -0.00398071 0.019315502 0.004302736
-0.046782557 -0.003202887 -0.017365545 0.0064021386 0.047259305 0.006302705 0.05280797 0.04164561
0.0559411 -0.0046354877 0.03199728 0.03658424 0.004552433 -0.052545756 -0.020473996 0.049775742
-0.008380242 -0.047177777 0.0190836 0.022990724 0.008857302 0.030640809 -0.0069693034 -0.0049392274
-0.034048695 0.008623122 0.05155278 -0.01238714 -0.012956596 0.047088627 0.061078835 -0.046177924
-0.044061508 0.011843619 0.010130492 0.016584864 0.0006583355 -0.05607433 -0.03945196 -0.014924127
0.029205656 0.0007824974 0.02727853 0.030833386 -0.048754722 -0.045257915 -0.04148139 -0.028647091
00000000: 365f 38bd 3850 6eba ebf3 46bd 25a0 0b3b
00000010: 83af 10bc ad72 d53c efaa f83c ebab 42bd
00000020: bfcb 2c3d d385 9fbc 0e9b 60bb 3cc4 9e3c
00000030: 7e0b 02bd 465e febc 796a d03c d893 8dbb
00000040: aa1b 273c f318 843b 23a7 9cbc 6dce 113d
00000050: 77d4 0a3d 5a8b 43bb 1d6b 6fbc 16ee 44bd
00000060: 0041 b53c 72a7 763c 1d2b c8bc 6844 6c3d
00000070: 7a26 5e3d be3d e23b 43e8 8a3c 5056 05bd
00000080: b164 f73c c484 0bbd 7467 183d 6274 2f3d
00000090: 2cd1 3f3d c323 d33c e999 273d f899 f2bb
000000a0: 73b9 503d fdf1 593d 7822 093d e88d 073d
000000b0: 5154 9abb a8ca c3bc 1bfa 19bc 68b3 453d
000000c0: 892a 02bb 8c7d 82bc 65a1 22bd a80d 023d
000000d0: db5d 2b3c 31bc 483d 1b7b 1e3d bc29 e4bc
000000e0: f702 b5bb 6ec4 64bd fa2e 5ebd 466a 183d
000000f0: 8879 36bc 902c 3ebd 8f23 b03c b5b2 203c
00000100: a259 34bd 79e5 21ba ad35 37bd ee41 81bc
00000110: d9f9 173d 10bf 193d db86 9bbc e732 5bbc
00000120: bb6b 8cbc 03df 4e3d 69eb 47bd 477e 003b
00000130: b90f ab3c cfcf 2b3d 8c5e a03c e343 043c
00000140: 61aa cfbc 7e8e 31bd 3cf2 18bd c6ac 123d
00000150: 2b4b 76bd d350 e53c 85d3 2dbd f18d 103d
00000160: 78c4 553d 957c e73b 0f6f 48bd d997 483d
00000170: ec58 303a 7f09 2739 e547 1abc 69a3 143b
00000180: db08 d3bc e84f e83c d6dc 68bd fbbe 67bd
00000190: 9922 093d 2b72 4bbc a0b4 a83b 4591 35bd
000001a0: e3ce 70bc e936 dcbc 6f3b 5d3d 130e 8d3c
000001b0: 1665 393d e44b 2f3c 6fe7 1fbd d405 013d
000001c0: 55cb 2cbd fa77 62bd 6eda ec3b a8ac e9bc
000001d0: 484b 82bb 5858 87bb ab6b 963c 3674 acbc
000001e0: 7829 a43b b413 4fbd 7367 ddbc 24c7 183d
000001f0: 1789 a53b 0119 7abc efd0 433d 6c4f c03c
00000200: 3aae f2bc ee72 5fbd 29b2 b33a e0a2 fa3c
00000210: 00c4 48bd 29ed d93c 58b7 17bd 6b4e 473d
00000220: 7710 86bd 8f9d 1fbd 21cf 41bd 8d7b d03c
00000230: 66b8 b6bc 3d06 ad3c 2db2 923c c684 203d
00000240: 187c 7ebd cbc3 8cbc b584 0abd e09b 6dbc
00000250: 4a9b 17bd 4d04 ca3c 3a9e 47bd 79c4 043d
00000260: 37cd 743c 8020 03bd cd5f 98bc 05ee 1dbd
00000270: 74ba 11bd b5d1 503d c0fb 8abc 24e9 0b3d
00000280: 374b b03c de5d 66bc bb40 59bc 0dfd 74bd
00000290: 7317 24bc 418a 77bc 6718 b3ba 1a16 553c
000002a0: 2ef5 9d3c 3daa 35bb bfa3 ac3b 73bd 4b3d
000002b0: 06d0 c2bc 860a c2bc 60e3 473d 669a 18bd
000002c0: 0adc 833d 909e 2fbd f338 263d 0717 2f3d
000002d0: e0fb 5b3c e303 693d b9fc 5fbc 17cb cbbc
000002e0: 116b b4bc c767 353d 2bcc 4dbd eb4d 6ebb
000002f0: 4375 3d3c bdfa 08bd 7cec 0bbd 2cb3 9dbb
00000300: 4afd e2ba 5321 193d 3dd2 9c3c ecc1 55bd
00000310: c96f c43c 1e74 513d 3e10 373d f566 a7bb
00000320: 5102 09bd 394b f73b 04f3 1b3d ee71 2dbd
00000330: 22e1 38bd 9e70 82bb 8b3b 9e3c f7fd 8c3b
00000340: 119f 3fbd 87e7 51bb 3042 8ebc 08c9 d13b
00000350: f992 413d ec86 ce3b 2c4d 583d 9694 2a3d
00000360: 7f22 653d 4ae5 97bb 940f 033d 5bd9 153d
00000370: 932c 953b 383a 57bd 15b9 a7bc a6e1 4b3d
00000380: 484d 09bc 7c3d 41bd 3655 9c3c 0b57 bc3c
00000390: 381e 113c 6f02 fb3c c15e e4bb 3ed9 a1bb
000003a0: a576 0bbd ff47 0d3c 0229 533d 6ef3 4abc
000003b0: e747 54bc 01e0 403d cd2d 7a3d 1025 3dbd
000003c0: d779 34bd bd0b 423c 5dfa 253c fbdc 873c
000003d0: 2694 2c3a 32ae 65bd 6198 21bd 5384 74bc
000003e0: b340 ef3c 8320 4d3a 3977 df3c 4c96 fc3c
000003f0: 08b3 47bd 5d60 39bd 64e8 29bd 4ead eabc

model.10.bias f4 [64]
0.021728957 0.008776452 0.0544313 0.038122978 -0.0018694266 -0.052924667 0.049520142 -0.049783763
0.047623277 -0.03340551 0.045880374 0.032856014 0.03814227 -0.045947883 -0.04983054 -0.039991125
-0.058730382 -0.038992275 0.053890027 -0.03531704 0.040290896 -0.0058561577 -0.016623454 -0.0018616673
-0.044636644 -0.011249828 -0.039556973 0.041411217 0.03302839 0.056642026 -0.05208129 0.042893987
0.030296354 -0.05144403 0.0013498729 0.019519145 -0.017187731 0.037925802 -0.009955812 -0.022012388
-0.03432461 0.017805854 0.053428147 0.032706376 0.04235845 -0.058955707 -0.019284159 -0.004054138
-0.029270506 -0.008376992 0.009886766 0.013333637 0.04757394 -0.041003708 0.043241955 -0.0120049715
0.012967693 -0.0038956397 0.01348078 -0.002732128 -0.023708712 -0.031995084 0.037890337 0.04104563
00000000: ed00 b23c 1ccb 0f3c 5bf3 5e3d d726 1c3d
00000010: 8c07 f5ba 89c7 58bd a2d5 4a3d 0fea 4bbd
00000020: a010 433d 37d4 08bd 0fed 3b3d 0794 063d
00000030: 123b 1c3d d933 3cbd 1c1b 4cbd bccd 23bd
00000040: 458f 70bd 5db6 1fbd cabb 5c3d 9aa8 10bd
00000050: 1108 253d 03e5 bfbb e92d 88bc 3003 f4ba
00000060: ead4 36bd 3351 38bc 7e06 22bd cf9e 293d
00000070: c748 073d 7801 683d 3153 55bd 9bb1 2f3d
00000080: 0f30 f83c fab6 52bd 38ee b03a 9de6 9f3c
00000090: 49cd 8cbc 1658 1b3d b41d 23bc 5353 b4bc
000000a0: f697 0cbd 95dd 913c 79d7 5a3d 1ff7 053d
000000b0: 0e80 2d3d 8a7b 71bd d0f9 9dbc 93d8 84bb
000000c0: b3c8 efbc a73f 09bc 1afc 213c 5475 5a3c
000000d0: e4dc 423d 81f3 27bd 7a1e 313d 80b0 44bc
000000e0: 7276 543c fd4d 7fbb 7dde 5c3c 800d 33bb
000000f0: c638 c2bc 470d 03bd e632 1b3d 761f 283d

model.11.weight f4 [64]
0.9968682 0.99948967 0.99530476 1.012363 0.99569315 1.0204315 1.0165823 1.000361
0.988629 0.99898994 0.990558 1.0059974 1.0050064 0.9888538 1.0056499 0.99127066
1.0018938 1.0035943 1.0046246 1.0012779 1.0075828 0.9867564 0.99833775 0.9909578
0.99072266 0.9918422 0.99400467 1.004232 0.9970992 1.0034155 0.99833524 1.0035814
1.0123172 1.0100156 1.0039191 0.9931594 0.99844074 1.0013413 1.0037309 0.99231654
1.0031058 0.99374807 0.9901067 1.0028944 1.0014982 1.0026808 0.9906853 1.0045911
1.0016212 1.0057603 1.0065336 0.99701095 0.9900691 1.0180658 0.9970478 0.9996192
1.0084031 1.0124341 1.0065981 1.0045102 0.99130934 0.9954237 1.0004661 0.9891147
00000000: c132 7f3f 8ede 7f3f 4bcc 7e3f 1c95 813f
00000010: bfe5 7e3f 809d 823f 5e1f 823f d40b 803f
00000020: ca16 7d3f cebd 7f3f 3695 7d3f 86c4 803f
00000030: 0da4 803f 8625 7d3f 23b9 803f eac3 7d3f
00000040: 0e3e 803f c775 803f 8a97 803f e029 803f
00000050: 79f8 803f 119c 7c3f 1093 7f3f 69af 7d3f
00000060: 00a0 7d3f 5fe9 7d3f 1777 7e3f ad8a 803f
00000070: e541 7f3f eb6f 803f e692 7f3f 5b75 803f
00000080: 9c93 813f 3148 813f 6c80 803f b23f 7e3f
00000090: d099 7f3f f42b 803f 417a 803f 7508 7e3f
000000a0: c565 803f 4666 7e3f a277 7d3f d85e 803f
000000b0: 1831 803f d857 803f 8d9d 7d3f 7196 803f
000000c0: 2035 803f c1bc 803f 18d6 803f 1c3c 7f3f
000000d0: 2b75 7d3f fb4f 823f 863e 7f3f 0be7 7f3f
000000e0: 5a13 813f 7197 813f 35d8 803f ca93 803f
000000f0: 73c6 7d3f 16d4 7e3f 460f 803f 9f36 7d3f

model.11.bias f4 [64]
0.002669523 -0.0009757981 -0.008144654 0.0031295503 -0.0007958736 -0.0053374707 -0.00082446303 -0.0064030634
-0.017822836 -0.0019472879 -0.012380169 0.002975827 0.0064244 -0.00025520232 0.00032684844 -0.0066507626
-0.0031085357 -0.004682202 -0.006199058 -0.014682672 -0.0030960608 -0.007527048 -0.012957218 -0.005606619
-0.0048742653 -0.006866738 0.00016281754 -0.006606291 -0.0071138255 -0.007036556 -0.00464263 -0.0153496275
-0.0017866445 0.002768206 -0.007022883 -0.008153533 -0.0072246795 -0.0020276182 -0.0021162264 -0.010287236
-0.0050225044 -0.0011750294 -0.009245425 -0.002773259 -0.0039001731 0.0023170186 0.0027184365 -0.0025632286
-0.00508696 0.0028354437 0.007212434 -0.002588483 -0.01711367 -0.0035649887 -0.001991138 -0.0010276953
-0.0035131306 -0.0008723818 0.0044747787 -0.0017955981 -0.0024825148 -0.0014329626 0.0035303074 -0.013206068
00000000: 2af3 2e3b b4cc 7fba 2871 05bc 2419 4d3b
00000010: 2ca2 50ba f3e5 aebb c720 58ba cad0 d1bb
00000020: 3201 92bc 243c ffba 31d6 4abc 1806 433b
00000030: c683 d23b adcc 85b9 db5c ab39 a4ee d9bb
00000040: 93b8 4bbb 286d 99bb 7821 cbbb 978f 70bc
00000050: 48e7 4abb 74a5 f6bb 834a 54bc bbb7 b7bb
00000060: 4db8 9fbb 6002 e1bb 00ba 2a39 9679 d8bb
00000070: 181b e9bb e992 e6bb 3421 98bb 017d 7bbc
00000080: d72d eaba ca6a 353b 3620 e6bb 6596 05bc
00000090: 01bd ecbb cae1 04bb 63b0 0abb cc8b 28bc
000000a0: d293 a4bb 7203 9aba 207a 17bc 91bf 35bb
000000b0: 0c9a 7fbb 1fd9 173b cc27 323b d7fb 27bb
000000c0: 83b0 a6bb dad2 393b 4856 ec3b 8aa3 29bb
000000d0: f831 8cbc 96a2 69bb c17d 02bb bbb3 86ba
000000e0: 8d3c 66bb 8db0 64ba 2aa1 923b 465a ebba
000000f0: b0b1 22bb 3fd2 bbba bb5c 673b 445e 58bc

model.11.running_mean f4 [64]
0.028768165 0.07362683 0.209577 0.07858223 0.3233082 -0.26546302 0.1016022 -0.33443078
0.14063303 0.0328349 0.069552466 0.06177904 -0.10341 -0.06871337 -0.17378397 -0.4521675
-0.17368145 -0.3104055 0.09817411 0.32979694 -0.19894527 0.20650062 0.13712415 0.1661179
-0.35274976 0.081283584 -0.09845089 -0.13080761 0.20763463 0.08174542 -0.1258154 0.10522017
0.08328705 0.079372175 0.07264126 -0.15400408 0.10288389 0.25350308 -0.047669124 -0.16933541
0.21917847 -0.28586748 0.13055298 -0.2519536 0.0012439042 -0.18233453 -0.12116793 -0.18991505
-0.20636691 0.019833552 -0.23262526 -0.027094599 0.43633404 0.2742464 0.2654022 -0.119047925
-0.10648491 -0.18796203 0.10508095 0.2181946 -0.05966687 0.071790814 -0.16010198 0.17432386
00000000: 37ab eb3c aac9 963d 5a9b 563e b8ef a03d
00000010: a788 a53e c5ea 87be d014 d03d 833a abbe
00000020: 1b02 103e e37d 063d 8671 8e3d 050c 7d3d
00000030: 9fc8 d3bd 98b9 8cbd 6df4 31be 8082 e7be
00000040: 8dd9 31be 78ed 9ebe 820f c93d 25db a83e
00000050: 4fb8 4bbe e674 533e 466a 0c3e d01a 2a3e
00000060: 9e9b b4be 0278 a63d 9fa0 c9bd 6ef2 05be
00000070: 2c9e 543e 256a a73d c1d5 00be ac7d d73d
00000080: 6792 aa3d e18d a23d f1c4 943d 3fb3 1dbe
00000090: cab4 d23d 28cb 813e b340 43bd 4366 2dbe
000000a0: 5270 603e 395d 92be aeaf 053e 1000 81be
000000b0: 800a a33a e7b5 3abe e426 f8bd 1779 42be
000000c0: d951 53be f979 a23c 5135 6ebe 7ef5 ddbc
000000d0: 2d67 df3e 066a 8c3e cce2 873e 66cf f3bd
000000e0: c314 dabd 1e79 40be ae34 d73d 686e 5f3e
000000f0: 3f65 74bd 1007 933d c6f1 23be f481 323e

model.11.running_var f4 [64]
0.05331659 0.07350162 0.07604305 0.05600613 0.12713698 0.058211926 0.067870654 0.09578039
0.110071786 0.07711959 0.09379941 0.063806064 0.10281476 0.09803939 0.05342816 0.08467369
0.08974836 0.104460485 0.06448854 0.053779442 0.08606419 0.057280574 0.07290504 0.16451448
0.086142644 0.06293336 0.17084008 0.09890311 0.10382123 0.099631995 0.08611776 0.08525376
0.0687038 0.05027235 0.051828586 0.2572105 0.07209316 0.05725011 0.05233643 0.08279551
0.059507746 0.09895627 0.079500504 0.066809215 0.08220655 0.060096134 0.16079918 0.06940288
0.08619318 0.21670736 0.07780516 0.06701535 0.09155437 0.05416236 0.122624606 0.17272814
0.06455411 0.06287961 0.062417414 0.09108176 0.12873371 0.05811995 0.14820507 0.08273483
00000000: 7f62 5a3d 0488 963d 75bc 9b3d af66 653d
00000010: 3230 023e a16f 6e3d c5ff 8a3d 8228 c43d
00000020: 516d e13d e0f0 9d3d e819 c03d c1ac 823d
00000030: 8b90 d23d e0c8 c83d 7cd7 5a3d 6669 ad3d
00000040: fdcd b73d 61ef d53d 9112 843d d547 5c3d
00000050: 6c42 b03d 099f 6a3d 3d4f 953d 7c76 283e
00000060: 8e6b b03d 35e3 803d b4f0 2e3e b78d ca3d
00000070: 3aa0 d43d dc0b cc3d 825e b03d 8699 ae3d
00000080: 94b4 8c3d 61ea 4d3d 364a 543d 18b1 833e
00000090: 94a5 933d 177f 6a3d b95e 563d b190 a93d
000000a0: 65be 733d 96a9 ca3d 29d1 a23d 45d3 883d
000000b0: e85b a83d 5d27 763d 8aa8 243e 1923 8e3d
000000c0: 0d86 b03d 89e8 5d3e 5058 9f3d 583f 893d
000000d0: dc80 bb3d 5ad9 5d3d 9c22 fb3d a5df 303e
000000e0: f234 843d 06c7 803d 67a9 7f3d 1389 ba3d
000000f0: c5d2 033e 2f0f 6e3d 12c3 173e e170 a93d

model.13.weight f4 [64, 64, 3, 3]
0.01361278 -0.020094264 0.038599603 0.041792113 0.0470594 0.03936442 0.007651104 -0.010790556
-0.0232426 0.014387239 0.042018052 -0.017813044 -0.0042932318 0.03280735 0.024275813 -0.0046528853
0.0138823185 0.044265177 0.039711524 0.030384945 -0.041463062 0.0049806032 -0.0049019926 0.0006246385
-0.03327653 0.007478462 -0.006386264 -0.023175847 -0.021673614 -0.042972397 -0.003141566 0.027660195
0.010797475 0.033260804 -0.020831505 0.036774326 -0.0069249426 0.033957824 0.031886417 0.028322387
0.015549494 -0.03207348 -0.0009142123 0.034683097 -0.035443243 -0.016460862 0.008158197 -0.034908947
0.036323845 -0.0100087505 0.031289235 -0.0074056163 -0.011087125 -0.018275939 0.006851 -0.031996477
-0.007734661 0.0048466274 -0.02003389 0.017567642 0.039723556 -0.03589277 -0.037823495 -0.023628132
-0.024313027 -0.023952493 -0.028611757 0.019504413 0.01749164 -0.012233273 -0.033400886 -0.028677607
-0.021719348 0.016507003 0.017789066 -0.04847234 0.013844994 0.030495629 0.016929634 0.00042779534
0.041555 -0.034022577 -0.026657103 -0.01710323 0.031286698 -0.031463474 0.0026238635 -0.0057011675
-0.018555162 -0.028055634 -0.013990869 -0.036476776 0.017177097 0.031460162 -0.03453378 0.018141331
0.010381229 0.0069450918 0.0020964553 -0.010946384 -0.023656297 -0.044999946 -0.046892036 0.00025976758
0.005451806 -0.008815464 -0.010994363 -0.0012402768 -0.027623309 0.030930463 -0.03161347 0.020550458
0.0069089704 0.009699648 -0.023582345 -0.03414816 0.02695402 0.0111045465 -0.023375591 0.039526124
-0.004511061 0.016381435 -0.034275997 -0.0053195637 -0.027422288 0.012417798 0.03728385 0.017036378
-0.01855948 0.028139241 0.040361613 0.009245951 0.042891145 0.03486678 0.03176759 -0.013145103
0.0040054084 0.0018108302 0.017049707 0.024644122 -0.04485029 0.0063234135 0.03895484 0.009261453
-0.017847005 -0.017831367 0.022219475 -0.023311285 0.011823486 0.0337531 -0.002412262 0.019076236
0.027168462 -0.020539753 0.004064589 0.041352753 -0.030708734 -0.016541671 -0.029293602 -0.030980937
0.028775275 0.029494131 0.01600274 -0.0047152364 -0.032236163 -0.022708714 0.008981077 0.030956397
-0.024713231 -0.036133207 0.023929125 0.002231361 0.015734497 0.03474513 -0.017278692 -0.0006817868
-0.016835557 0.019330231 0.025913114 0.0029012566 0.010029659 0.00074394024 -0.024960652 0.017556656
-0.014526437 0.050863195 0.036549773 -0.017878015 0.036574077 -0.011298132 -0.03178706 0.037328288
0.011138245 -0.010777333 -0.0069625415 0.005147607 0.019551462 -0.0014352798 0.026872173 -0.010647252
0.021296294 0.045045946 -0.033113927 0.02202179 0.00092804653 0.021626418 0.026945243 0.0018641155
0.013700629 -0.026917713 0.002713831 -0.0071611796 -0.024308853 -0.018630605 0.0033945872 -0.02426314
-0.014963328 0.031286113 0.0072691794 -0.011390794 -0.015116057 -0.03359012 -0.014300452 -0.021432402
-0.022358939 0.020509792 0.034943815 0.010732468 -0.015647952 0.032389086 0.037549578 -0.016577695
0.032011498 0.0137783205 0.040911414 -0.03785512 -0.03666727 -0.012858046 -0.011584658 -0.029461611
0.008172762 0.0018020766 0.00036741645 0.03840769 0.040855575 -0.02410578 -0.01872836 -0.028786799
0.02660305 -0.001957768 0.031017695 0.022148943 0.020914212 0.010163203 0.04425344 -0.035886783
00000000: 2308 5f3c ba9c a4bc 9e1a 1e3d 352e 2b3d
00000010: 5bc1 403d 963c 213d 1db6 fa3b dfca 30bc
00000020: 4467 bebc 74b8 6b3c 1f1b 2c3d a9ec 91bc
00000030: 3dae 8cbb 0061 063d 12de c63c 3b77 98bb
00000040: aa72 633c 674f 353d 8da8 223d d9e9 f83c
00000050: 2cd5 29bd 5434 a33b e5a0 a0bb c8be 233a
00000060: f94c 08bd e30d f53b de43 d1bb 46db bdbc
00000070: dd8c b1bc d303 30bd bbe2 4dbb a297 e23c
00000080: e5e7 303c 7b3c 083d d5a6 aabc ada0 163d
00000090: a1ea e2bb 5c17 0b3d 559b 023d 5a04 e83c
000000a0: 4ec3 7e3c 7b5f 03bd c0a7 6fba dd0f 0e3d
000000b0: ef2c 11bd eed8 86bc f5a9 053c affc 0ebd
000000c0: 50c8 143d befb 23bc 2429 003d d0aa f2bb
000000d0: c6a6 35bc 6cb7 95bc 5a7e e03b bd0e 03bd
000000e0: 0a73 fdbb 75d0 9e3b 1d1e a4bc 04ea 8f3c
000000f0: 2bb5 223d 4c04 13bd cfec 1abd c98f c1bc
00000100: 1d2c c7bc 0538 c4bc 3463 eabc b8c7 9f3c
00000110: a14a 8f3c 116e 48bc 5ecf 08bd 4ded eabc
00000120: c6ec b1bc b239 873c 60ba 913c ef8a 46bd
00000130: 1dd6 623c f8d1 f93c 04b0 8a3c b849 e039
00000140: 9335 2a3d 425b 0bbd ff5f dabc 131c 8cbc
00000150: 7b26 003d d8df 00bd 20f5 2b3b dcd0 babb
00000160: ff00 98bc eed4 e5bc f539 65bc ac68 15bd
00000170: fcb6 8c3c 5fdc 003d 4b73 0dbd 219d 943c
00000180: 0816 2a3c a793 e33b af64 093b 7658 33bc
00000190: daca c1bc dd51 38bd dd11 40bd 6a31 8839
000001a0: 10a5 b23b bc6e 10bc b321 34bc c990 a2ba
000001b0: 474a e2bc e261 fd3c 207d 01bd 6f59 a83c
000001c0: a564 e23b 46eb 1e3c c32f c1bc f1de 0bbd
000001d0: adce dc3c d8ef 353c 2b7e bfbc 25e6 213d
000001e0: 86d1 93bb 5c32 863c fd64 0cbd bc4f aebb
000001f0: b5a4 e0bc 0574 4b3c f3b6 183d e08f 8b3c
00000200: 0d0a 98bc 4484 e63c 3852 253d 547c 173c
00000210: a0ae 2f3d 78d0 0e3d bc1e 023d 8f5e 57bc
00000220: cd3f 833b 6159 ed3a d4ab 8b3c 78e2 c93c
00000230: f0b4 37bd a334 cf3b 1c8f 1f3d 59bd 173c
00000240: e233 92bc 1613 92bc 9e05 b63c 4ff7 bebc
00000250: 4bb7 413c b140 0a3d 0a17 1ebb c445 9c3c
00000260: 6590 de3c fc42 a8bc 3e30 853b 8161 293d
00000270: e290 fbbc 6682 87bc 23f9 efbc bccb fdbc
00000280: 20ba eb3c ad9d f13c 2e18 833c 4582 9abb
00000290: 110a 04bd a007 babc 5e25 133c 4598 fd3c
000002a0: 6773 cabc 6a00 14bd 0307 c43c 073c 123b
000002b0: a2e5 803c e950 0e3d 0b8c 8dbc f0b9 32ba
000002c0: b9ea 89bc 6f5a 9e3c bd47 d43c 0223 3e3b
000002d0: 7053 243c fc04 433a 487a ccbc fad2 8f3c
000002e0: 4b00 6ebc ed55 503d 37b5 153d ea74 92bc
000002f0: b3ce 153d cd1b 39bc 2633 02bd 8ce5 183d
00000300: 307d 363c 6993 30bc 0826 e4bb 42ad a83b
00000310: 632a a03c 0020 bcba 0823 dc3c d071 2ebc
00000320: 9175 ae3c 1982 383d 78a2 07bd 0a67 b43c
00000330: 2648 733a e329 b13c 45bc dc3c 5655 f43a
00000340: 9a78 603c 8982 dcbc 87da 313b 54a8 eabb
00000350: 5c23 c7bc 369f 98bc b977 5e3b 7ec3 c6bc
00000360: bf28 75bc de25 003d 4c32 ee3b 74a0 3abc
00000370: 57a9 77bc cb95 09bd 714c 6abc 0193 afbc
00000380: 182a b7bc 2704 a83c 3f21 0f3d 3cd7 2f3c
00000390: 2230 80bc 6baa 043d 96cd 193d f2cd 87bc
000003a0: 7d1e 033d 77be 613c ba92 273d f80d 1bbd
000003b0: 6b30 16bd 8eaa 52bc 94cd 3dbc 7a59 f1bc
000003c0: 0ce7 053c a833 ec3a cda1 c039 6251 1d3d
000003d0: 2d58 273d 7c79 c5bc 386c 99bc 4bd2 ebbc
000003e0: a4ee d93c e64d 00bb d218 fe3c b371 b53c
000003f0: 4854 ab3c 9083 263c 1843 353d 05fe 12bd
