imitation_learning/models/h1-lr0.01-agent.pt (torch, 959856 bytes, 34 tensors)

model.0.weight f4 [16, 1, 7, 7]
00000000: 3da5 dcbc 4d43 5b3d 08af 01bc 93fa 09bd
00000010: 0008 8dbe 3ab8 f2bd 84bc 413d f51f c0bd
00000020: 0866 d2bd 9f57 2dbd fa8a 3fbe d946 43be
00000030: 6079 3abe 2191 033d a048 e9bc 6fd1 eabc
00000040: d7e4 f9bd 0f46 1cbe a5fa 23be 7bc6 8ebd
00000050: 997f 913d 49c2 b93d 27e3 78bd 752c e9bd
00000060: d0c5 b23c 562f c8bc d6cc c5bd a467 7e3d
00000070: 394b b4ba f9f1 193d 1518 ac3e ee46 b63e
00000080: 45f0 ba3d 6f63 543c 35b6 4b3d 2528 04bc
00000090: a654 753e 02d4 ad3e 872f 9d3e 1a87 f13d
000000a0: fd48 623e 5567 d7bd 1d82 cebc d06a a33e
000000b0: 0906 a43e 7b3a 023f 68d4 b53e 04b6 eb3e
000000c0: e9eb 3a3e ab06 65bd 0086 c93c e741 9ebd
000000d0: 182b 22be f045 81be 093e bfbe 148f 56be
000000e0: 24c7 b93d 7cde 39bd 8a5b 17be 4017 c7bc
000000f0: fe5a 9abe 81c7 b6be 862f a2be 4a15 ea3c
00000100: fe4d 933d 3e2d fabd a065 dbbd 37d2 0dbd
00000110: 3e54 28be 8023 40be ce25 a23d 6168 7fbd
00000120: a916 c4bd 370b b73c 4b17 b6bd d688 19be
00000130: 5fc4 ae3c de30 1f3d bf4f 23be 3ace 953b
00000140: 134e 893e de71 4a3e 3a57 243d c681 b53d
00000150: f11b a6bd a952 17be 7a2e 553d 23a1 b43d
00000160: 289a 213e fd61 a7bd 21ae 6bbd 6628 42be
00000170: 7614 f0bc 96b6 a5bc 3bd5 b93c 84dc 843e
00000180: eb21 913d 7079 33be 9bf6 db3d 29cc 3b3e
00000190: c1e1 20bc da18 79bd 81a7 2fbd 6ed3 c1bd
000001a0: 0802 61bd 7033 d03d 2948 95bd 77eb cabe
000001b0: dc57 823d 1aff 3bbe a134 7bbe 04e5 01bd
000001c0: d31e c73d b7c3 bfbe faa6 e8be 979a c1be
000001d0: 8e2d b1be 26e8 d4be 616d 0b3d bc33 7fbe
000001e0: fe4c e3be cb7c e9be 259b 94be d02d 71be
000001f0: fc36 94be 49de febc c1b5 2bbe 0ec9 4e3d
00000200: 12c0 583d 17a9 533d 5a2e 6bbb ca45 47bd
00000210: faf7 f8ba 96dd eabd c9c1 823e 38c2 303e
00000220: e9e7 bf3e d78b b83e 5d63 c03e 6b53 973c
00000230: 0a99 323d 46a9 443e 206b 7e3e b8a8 d53e
00000240: fd3a fc3e b5e6 f63e 1f56 1f3e c745 fd3d
00000250: 0327 903d 31c6 b6bc 2f43 153e 682a fcbc
00000260: 5057 89bd 8aaa 3bbe e27a b63d f90d d63c
00000270: 7d79 e13d bcb6 c23c 836b 3fbd 51b6 3bbe
00000280: 3046 7f3c a9fe 0a3e 80be bbbc e30c 7c3e
00000290: 9f5c 903d ba3f 493e 0a08 563d 38e1 013e
000002a0: 462b a53d 5369 0b3e 8735 3f3e 6430 da3d
000002b0: 5a1a 533e a633 0c3d 3845 8abd 0f7a 813d
000002c0: bb20 57bd d0b3 35bd 75a4 5e3e e203 063d
000002d0: 4d6f 2c3e ac7e 4a3e 3623 19bd 4dd7 803b
000002e0: 6bb1 ca3d 9759 31bd dbc7 87bd e17e 0b3e
000002f0: 6745 81bd e49d 60bc 41e6 3c3e c406 f33d
00000300: 9387 1d3e 5b98 2bbb e952 0e3e e090 cc3d
00000310: cf39 5938 2a32 363c f45d 383e 18f9 51bd
00000320: 0cdb dd3d 54a0 24bd a156 df3d 24d3 b33c
00000330: 6a50 6e3e 5f57 293e e5d6 5fbd 9932 003e
00000340: b40e d43d 2c74 9037 dcfa 3f3e 899b 8b3e
00000350: 55a6 823e f8ce 98bc de53 2bbd 03d5 2dbc
00000360: 28df b7bd 2909 1f3e 875a 863d d7dd a13e
00000370: eb4e 803e 81c9 643e 6a76 873d 5e4c 753e
00000380: 9c50 08bd 5810 693e bcda 02bc 205a 7e3e
00000390: ea08 353d 866b d23c f0ea 563e 48ed 043e
000003a0: d7c3 6f3d b63a d83c 927c 793d e84a 493e
000003b0: 8a85 363e 35b5 473d 7374 adbd 64b1 2abb
000003c0: d7ed 3c3e 5729 333c f89d 923c 6621 b9bb
000003d0: 6c05 1f3e cce0 dd3d cc37 2a3e 8b9b 1abe
000003e0: 3c49 66be 424e 81bd 5718 06bd 6213 7e3d
000003f0: 6399 043e d8b3 9bbb aa5e 043d e2f9 64be
-0.02693426 0.05353098 -0.007915266 -0.03368623 -0.27545166 -0.11851545 0.047298923 -0.09381095
-0.10273367 -0.04231989 -0.18705359 -0.19069995 -0.18210363 0.032120828 -0.028477013 -0.028664319
-0.12201851 -0.152611 -0.16013582 -0.06971451 0.071044154 0.0907026 -0.060763504 -0.11385433
0.02182284 -0.024436634 -0.0965821 0.06211056 -0.0013755328 0.03758428 0.33612123 0.3560099
0.09127859 0.01296316 0.049734313 -0.008066212 0.23958072 0.33950812 0.30700323 0.11793347
0.22098155 -0.10517756 -0.025208527 0.3191743 0.32035854 0.50870484 0.35513616 0.46037304
0.18254055 -0.055914562 0.024600029 -0.077274136 -0.15836751 -0.2524867 -0.37352017 -0.20953017
0.09071186 -0.045378193 -0.14781013 -0.024303079 -0.30147547 -0.35699084 -0.31676883 0.028574605
0.0719261 -0.122156605 -0.10712743 -0.034624305 -0.16438386 -0.18763542 0.07917367 -0.062355403
-0.095746346 0.022344215 -0.088911615 -0.14993605 0.021333871 0.038864963 -0.1594839 0.0045717033
0.26817378 0.1977 0.04012225 0.08862643 -0.08110798 -0.14777626 0.052046277 0.08819797
0.15781462 -0.08172987 -0.05753911 -0.18960723 -0.029306632 -0.020228665 0.022684684 0.2594949
0.070865475 -0.17526793 0.10740396 0.183396 -0.009819449 -0.060814716 -0.042884354 -0.09464155
-0.054933578 0.10166061 -0.07289154 -0.3963277 0.06364414 -0.18359032 -0.24531795 -0.031712547
0.09722676 -0.37454006 -0.45439893 -0.37813255 -0.34605068 -0.41583365 0.03403986 -0.24922079
-0.44394678 -0.45603022 -0.29024616 -0.23552632 -0.289482 -0.031111853 -0.16768552 0.05048471
0.052917548 0.05167493 -0.0035885782 -0.04865054 -0.0018994801 -0.114680454 0.2553847 0.17261589
0.3748162 0.3604419 0.37575808 0.018472394 0.04360298 0.19205198 0.24845552 0.41730285
0.49263754 0.4822289 0.15560196 0.123668246 0.07038691 -0.022311302 0.1457641 -0.03078194
-0.06706107 -0.18326774 0.08910157 0.02612971 0.110095 0.023768775 -0.04673339 -0.18331267
0.015580699 0.13573708 -0.022917986 0.24614291 0.07048916 0.19653216 0.05225376 0.1268357
0.080648944 0.13614397 0.18672763 0.10653761 0.20615521 0.034228943 -0.06751484 0.06322109
-0.05252145 -0.044360936 0.21742423 0.032718547 0.16839333 0.19774884 -0.037387095 0.003931916
0.09897121 -0.04329833 -0.06629916 0.13622619 -0.063120656 -0.013709519 0.1844721 0.11866525
0.15383749 -0.002618334 0.13898815 0.0998857 5.179067e-05 0.0111203585 0.1800459 -0.051262945
0.108327955 -0.040191963 0.10905195 0.021951266 0.23272863 0.16537236 -0.0546483 0.12519301
0.10354367 1.7220234e-05 0.18748039 0.272671 0.25517526 -0.018653378 -0.04182803 -0.010609868
-0.089781106 0.15530838 0.065602355 0.31614563 0.2506021 0.22342493 0.066143826 0.23954913
-0.03328 0.22760141 -0.007986721 0.24839067 0.044197954 0.025686037 0.20988059 0.1298114
0.058536377 0.026395183 0.060909815 0.1965748 0.17824379 0.048756797 -0.084694766 -0.0026045674
0.18450104 0.010935149 0.017897591 -0.0056497334 0.15529412 0.10833892 0.16622847 -0.15098397
-0.22488874 -0.063137546 -0.032738056 0.062030204 0.12949137 -0.0047516637 0.03231684 -0.22360948

model.0.bias f4 [16]
00000000: f791 f4bd 6669 293d 693f 073e 3d51 22bd
00000010: 85c2 f8bd 975f be3d 4d32 453d be1f 12bd
00000020: ebc6 06be d344 873d f6f0 15be f746 8fbd
00000030: 9583 67bc 7501 3c3c 6d79 923c 66bb 13be
-0.11941903 0.04136028 0.13207783 -0.039628256 -0.12146477 0.09295576 0.048143674 -0.035674803
-0.13161819 0.06604924 -0.146427 -0.06995957 -0.014130493 0.011474957 0.017880166 -0.14426956

model.1.weight f4 [16]
00000000: 0aa4 a63f 2947 803f be33 cc3f 2ca0 5f3f
00000010: 31cc 6a3f a8c9 873f b16a 133f 52be 5e3f
00000020: 24f5 a33f 884f 753f 1a0a 833f 8057 293f
00000030: 9f7a 6f3f 99d3 aa3f de62 5f3f 017c 7e3f
1.3018811 1.0021716 1.595329 0.8735378 0.9171782 1.0608416 0.57584673 0.87009156
1.2809186 0.9582448 1.0237458 0.6614914 0.9354648 1.3345824 0.87260234 0.99407965

model.1.bias f4 [16]
00000000: d0bf 4cbe 12ea d93d e4b0 283d 49c4 5bbe
00000010: 221b 68be 8284 b1be d8e3 b9be 25c7 cabe
00000020: bd21 20bd 5bf5 32be df69 063d 4119 f2be
00000030: 238a c83d 2687 14be 1bd4 34bd f3e4 7ebe
-0.19995046 0.106403485 0.04118432 -0.21461596 -0.226666 -0.34671408 -0.36306643 -0.3960506
-0.039094675 -0.17476408 0.03281581 -0.47284892 0.097919725 -0.1450468 -0.044147592 -0.24892025

model.1.running_mean f4 [16]
00000000: 8f2b a143 7773 c3c3 4ab9 62c3 387d c543
00000010: 09b5 1d44 8aff 0043 c3ad bfc3 bffa 0542
00000020: 14f2 0e43 bca6 f343 cad0 bfc3 ef6b d6c3
00000030: 995c eac3 8f57 3fc3 9692 87c3 5317 8744
322.3403 -390.90207 -226.72379 394.97827 630.8287 128.9982 -383.3575 33.49487
142.94562 487.3026 -383.63116 -428.84323 -468.72342 -191.34203 -271.1452 1080.7289

model.1.running_var f4 [16]
00000000: 3963 f746 f732 9b46 dd77 8c46 c2dd bb46
00000010: 7a95 6147 3b43 db45 c61d b546 77a8 0645
00000020: 861b 9a46 2c00 0547 0578 9446 a736 ca46
00000030: a945 0047 eada 2746 d853 1546 f000 1948
31665.611 19865.482 17979.932 24046.879 57749.477 7016.404 23182.887 2154.529
19725.762 34048.17 19004.01 25883.326 32837.66 10742.729 9556.961 156675.75

model.4.weight f4 [32, 16, 3, 3]
00000000: 0a21 22bd e18f 57be 4565 9fbe eb70 153d
00000010: 6553 f0bd 3f39 bcbd 1bc6 4bb9 e8e0 dbbd
00000020: 2c94 afbd a4af 49bd 5b09 fabd 69e4 d0bd
00000030: 618a e6bc 359c a7be a9e1 39be 12c4 31be
00000040: 3f22 f4be 7812 d0bd 9d9b cd3c c921 03bb
00000050: f330 30be 7043 6dbc 6192 6abd cde9 8dbe
00000060: 6177 e53c 2c9b 293d 1499 0dbe 90c0 c8bd
00000070: 61fc e7bd d886 86be 8573 84bd c0be 84bd
00000080: 4b32 a6be d863 40be 74f6 11be 2bc3 6abe
00000090: 2c28 f2bc 793e d5bd bcac 96be b076 80bd
000000a0: 69f7 31be e74a 6dbe 6870 eabd d536 68be
000000b0: 359b b9be a95b acbe 7cef 3cbf a7ea 3bbf
000000c0: 1c00 71be da98 08bf 187c f8be b230 a8be
000000d0: deca 9fbe ecfd 60be 48b2 ab3d 8b6d 873c
000000e0: 14ac b93c b453 68bd 1a62 ff3d 3835 b4bd
000000f0: 76f7 773c 937e e53d 3ba1 9bbd 099e 42be
00000100: 88e7 fabd a7b2 00bf 7b56 49be 5b4d 22bd
00000110: 5726 5fbe 1db3 873b 6276 e83c 5cd9 3fbd
00000120: e33a 7bbd bc31 58be 305d c9bd 723d 283d
00000130: db51 cfbd 17cb 1bbe 74b9 843d 3fed 81bc
00000140: 5e64 d5bd e442 f7bd 10d1 52be b7cf b1be
00000150: 07c5 d9bd 7ac9 18be 9cb2 bcbe f996 15be
00000160: 956b 3fbe 2f51 96be 3c66 e6bc 2322 3cbe
00000170: a4eb 6fbe 16b8 e9bc 11b0 86be 84f5 66be
00000180: a00a e73c d76a 75be eae1 9abe fbe2 64bc
00000190: 55d7 f2bd d1d5 1fbe 88fc 82bd c286 1fbe
000001a0: 19fa 94be 8dd7 4e3d c1f7 abbd 75c2 a1bc
000001b0: 5f9f 143c 76aa b2be 413f 0fbe 5462 bebd
000001c0: 26fe a6be 386e e2bc 2a48 9cbd a623 93be
000001d0: 7347 01bd 1ec6 54be f09e 7ebe 9b97 c4be
000001e0: 39ff cabc 5c55 0fbe 77e8 bcbe 1327 1bbe
000001f0: f96b 30be c957 47be 1e1c 3a3b 3f9e a93b
00000200: 9b63 95be d21d b8bc a165 01bc 6780 fabe
00000210: db58 a9bd 7613 35bd 8e44 cfbe 8eed afbd
00000220: a9d1 41be 751f a4be d90d b7bd 8de9 52be
00000230: 6412 abbe 11c9 4bbd 5831 7dbd 604b 7ebe
00000240: d00c 33be 181c 753d 0366 903d 8d09 afbb
00000250: e7a8 a03e 22a6 723e c1ab 46bd eae0 a23d
00000260: 95f8 0e3d 6388 a43d 6e13 8f3d 0602 ff3d
00000270: f912 143e 46cb c33d d516 363e 6336 533e
00000280: 6caa 843e c20b 233e 807e 253d b63b fcba
00000290: 9089 f03d dacd 433e 1c1b 1d3e 1599 063e
000002a0: d6f1 f13d 25d0 1d3d 270d ddbb aac6 b7bd
000002b0: 762f 59bc 5402 0abe 2cb4 fabd 2204 65bd
000002c0: 90e8 1abe ee6a 9fbc b628 a3bd 3138 37be
000002d0: de91 2abc bb71 a9bd 0a3f ecbd ccd5 d2bd
000002e0: 58ea 22be 9eca 01be 2a8f 04be 81c9 41bd
000002f0: dcf8 1ebd 8ae5 a7ba d06e 2cbc 71c8 3a3e
00000300: ab58 2b3b c08c 6f3e f85f 123e 65b4 c6bd
00000310: 76c4 6d3d b7b4 d13c 320f 8e3d a223 b83c
00000320: 3964 e2bc 72b4 b8bd a866 13be af0c 49be
00000330: 00ca 3dbd ce85 99bd f76e 5abe c593 acbd
00000340: 5f8f 253d f20b f4b8 7480 dcbd 0a9f b1bd
00000350: e82e 4cbe 4e1c 95bc 4985 ff3b 1ae6 543d
00000360: 9bcd 9abc df20 0e3e 9d2b 203e 5d67 a13d
00000370: 63d6 4c3e aad0 823e 19f8 693c 9506 a63d
00000380: 013e 383d 1476 893d a642 b9bd ea36 5dbc
00000390: 0939 e0bd 41a4 cc3c d016 d4bb 15a1 70bd
000003a0: 98af c5bd a546 76bc 1c9f a03d 61f6 323d
000003b0: 613f 473d f80d eb3d 166c 043e 5dff 503e
000003c0: f0ca 6e3e 8067 213e 0cb2 bc3d 8e24 80bd
000003d0: 2635 0e3d 721c 18bd 0431 d4bd 7541 25bd
000003e0: dac6 c7bd 007f e2bb b8fe 2cbe 2b37 bf3b
000003f0: 7bfd 1ebc 18c2 2a3e be2f 223e 6c81 34bd
-0.03958229 -0.21050979 -0.3113195 0.03648464 -0.11734656 -0.09190606 -0.00019433389 -0.10736257
-0.085731834 -0.04923977 -0.12208816 -0.10199816 -0.028142156 -0.32736364 -0.18152489 -0.17359951
-0.47682378 -0.10159773 0.025098616 -0.0020009151 -0.17206173 -0.01448141 -0.057268504 -0.27717438
0.028011026 0.04140775 -0.13827926 -0.098023534 -0.11327434 -0.26274753 -0.06467346 -0.06481695
-0.32460245 -0.18788087 -0.1425417 -0.22926013 -0.029560171 -0.10412306 -0.2942866 -0.06272638
-0.17379536 -0.23173104 -0.11447221 -0.22677167 -0.36251226 -0.3366368 -0.73802924 -0.73404926
-0.23535198 -0.5335823 -0.48532176 -0.32849652 -0.31209463 -0.21971864 0.08383614 0.016531726
0.022665061 -0.05672045 0.12469883 -0.08799213 0.015134683 0.11205783 -0.07599112 -0.19005598
-0.12251192 -0.502726 -0.19661896 -0.039624553 -0.21791969 0.004141225 0.028376762 -0.04683815
-0.061335456 -0.21112722 -0.09832227 0.041074224 -0.101230346 -0.15214191 0.06480685 -0.015860198
-0.10419534 -0.12073305 -0.20587564 -0.34728786 -0.10633283 -0.14920607 -0.36855018 -0.14608373
-0.18693383 -0.29358813 -0.028124921 -0.18372397 -0.23429734 -0.028530162 -0.26306203 -0.22554594
0.028203309 -0.23966537 -0.30250484 -0.013970132 -0.118574776 -0.15608908 -0.06395823 -0.1557875
-0.2909706 0.050498534 -0.08396865 -0.019746045 0.0090712 -0.34895676 -0.13988973 -0.09296098
-0.32615775 -0.027640447 -0.07630952 -0.28738135 -0.03156228 -0.207787 -0.24865317 -0.38396916
-0.024779903 -0.13997406 -0.36896107 -0.15151624 -0.17228688 -0.19467081 0.0028398107 0.005176335
-0.29177555 -0.022475157 -0.007897765 -0.48926088 -0.08268901 -0.044208013 -0.4048199 -0.08590232
-0.18927635 -0.3205525 -0.08938188 -0.20596905 -0.33412468 -0.0497523 -0.061814636 -0.24833441
-0.17485356 0.059841245 0.07050707 -0.0053417147 0.31378862 0.23696187 -0.04850364 0.07953055
0.034905035 0.08033826 0.06986128 0.12451558 0.14460362 0.09560256 0.17782147 0.20626216
0.25911272 0.15922454 0.040403843 -0.001924387 0.11744988 0.19121495 0.15342373 0.13144334
0.11813705 0.03852858 -0.0067459526 -0.08973439 -0.0132559445 -0.1347745 -0.12241396 -0.055912144
-0.15127778 -0.019460168 -0.07966749 -0.17892529 -0.010410754 -0.082736455 -0.11535461 -0.10294685
-0.15909708 -0.12674949 -0.12945238 -0.04731131 -0.03881155 -0.0012809497 -0.010524467 0.18240525
0.002614538 0.23393536 0.14294422 -0.09702376 0.058048688 0.025598867 0.06936492 0.022477929
-0.02763568 -0.09018792 -0.14394629 -0.19633745 -0.04633522 -0.07496224 -0.21331392 -0.08426622
0.040419932 -0.00011637052 -0.10766688 -0.086729124 -0.19939768 -0.018201973 0.0077978713 0.051977254
-0.018896868 0.13879727 0.15641637 0.07881043 0.20003657 0.25549823 0.0142803425 0.08106724
0.044981007 0.06711975 -0.09045915 -0.013501862 -0.109483786 0.024980666 -0.006472446 -0.05874737
-0.096526325 -0.015031491 0.07842848 0.043691996 0.048644427 0.11477274 0.12931857 0.20409913
0.23319602 0.15762138 0.09213647 -0.06256972 0.034718655 -0.037136503 -0.103609115 -0.040345628
-0.09754725 -0.0069121122 -0.16894042 0.005835434 -0.009703989 0.16675603 0.15838525 -0.04406874

model.4.bias f4 [32]
00000000: 3e67 39bd cc4d a9bb b3a4 08bd 1fcf 043d
00000010: 6fcc 6e3d 4101 713c d9e3 e1bb 2593 d5bd
00000020: c192 22bb d48b 9fbd 5206 61bd 41b2 46bd
00000030: b15a 8a3c 7cb4 e0bd 71f1 5b3d d35a dcbd
00000040: fb08 61bd 6591 c0bc f8e7 95bd 3126 703d
00000050: 0bb0 84bd 3cd4 723d 15ce c03c 2526 103e
00000060: 5181 f23d 7df2 0cbd c0a1 383c 3a07 b5ba
00000070: 9273 203d 3df9 4d3e ea5e a8bd 8677 03bb
-0.045264475 -0.005166745 -0.033360194 0.03242409 0.05830043 0.014709772 -0.0068936166 -0.10428456
-0.002480671 -0.07790342 -0.05493767 -0.04850984 0.016888948 -0.10971925 0.053697053 -0.10759511
-0.054940205 -0.02350683 -0.07319635 0.058630172 -0.0647889 0.059284434 0.023535768 0.14077051
0.118410714 -0.034410942 0.011269033 -0.0013811358 0.039172716 0.20114608 -0.082212284 -0.0020060255

model.5.weight f4 [32]
00000000: 9eed 9c3f c6dc 473f b534 913f 9183 373f
00000010: e9d4 693f 43c9 7c3f f8a2 823f da4c 5a3f
00000020: e154 743f fb55 5c3f ed4f 713f cd9f 6e3f
00000030: 27f2 693f a3a0 b13f 172d 683f a5c4 5d3f
00000040: 4552 6b3f 9be3 8f3f 39f7 7a3f 4ccd 843f
00000050: 95e3 7f3f 45de 663f 5be3 633f 2673 433f
00000060: 6241 533f 221f 8b3f 2ef4 843f ed3f 963f
00000070: 3282 563f 7a59 903f 3a68 bf3f dddb 933f
1.2260015 0.7807125 1.134421 0.7168513 0.913405 0.987446 1.0205984 0.85273516
0.95442015 0.86068696 0.9426258 0.93212587 0.9138512 1.3877147 0.906938 0.8662818
0.9192241 1.1241335 0.9803348 1.0375152 0.9995664 0.90182906 0.8901879 0.7634758
0.8252164 1.0868876 1.0387018 1.1738259 0.8379241 1.1277306 1.4953682 1.1551472

model.5.bias f4 [32]
00000000: 5bcc 3abd f572 033e a860 d23d c31c 56ba
00000010: ee76 8fbd 2a79 2ebc 9ea0 c33d d3db 783e
00000020: f566 86bd c233 9c3d ac52 0a3d 8a0d 453e
00000030: 7a4f 443e ea08 453d b3ad 093e 3c9c 4cbc
00000040: df08 d4bd 2a53 6c3e d65b 1d3d 9a62 203d
00000050: ff75 4f3d fe20 dabd f148 cbbd a835 7f3d
00000060: dd66 7e3e 1d10 153c c1ae 0e3c a0e9 97bc
00000070: 422c f13c 02c2 eb3c 7bd2 82bd 5f17 b73d
-0.045605045 0.12836821 0.10272342 -0.0008167738 -0.07005106 -0.010649005 0.0955212 0.24302606
-0.06562606 0.076270595 0.03377025 0.19243446 0.19170943 0.048104204 0.13445167 -0.012488421
-0.103532545 0.230786 0.03841766 0.039156534 0.05064964 -0.10650824 -0.09926022 0.06230703
0.24843927 0.00909808 0.008708657 -0.018544018 0.02944005 0.028779034 -0.06387802 0.089400046

model.5.running_mean f4 [32]
00000000: fe16 c4c0 f596 f63f b871 cfc0 f7fd f53f
00000010: eacb 9ebf 2b0c d83f 28a2 0dc0 0e0f ca3f
00000020: cf13 48be 294f 313e 3ea4 133d 6c30 893f
00000030: 036d 723f 9868 78be e614 743f d31d a63f
00000040: d0f8 c0bf 81d8 b53f 0acb be3e 47f0 13c0
00000050: f93b 85bf 3ceb 3240 b148 d23f 3ec3 b33f
00000060: a54e d53f ad9e 4ec0 4325 3f3f 5fb3 74bc
00000070: 48ec dc3f 251b da3e d41c 56bf d12d 12bf
-6.1278067 1.9264818 -6.4826317 1.9218129 -1.240598 1.6878713 -2.2130222 1.5785844
-0.19538806 0.17315353 0.036045305 1.0717902 0.9469759 -0.2425865 0.9534439 1.2977852
-1.5075932 1.4206697 0.37264282 -2.3115404 -1.0408927 2.7956076 1.6428434 1.4043958
1.6664625 -3.2284348 0.7466623 -0.0149353435 1.7259607 0.42598835 -0.8363774 -0.5710116

model.5.running_var f4 [32]
00000000: f078 8941 188c 4441 7a09 1c42 f832 9f40
00000010: fbcb 7640 2bf6 b640 338b c940 f6ec e640
00000020: f4a7 8d40 bcef b840 b426 bf40 5c47 1f41
00000030: db3a e740 a7c9 f940 198e e740 2885 df40
00000040: f39b 7340 0111 c340 3188 7e40 5d0e 0041
00000050: cd84 4f40 f574 e540 ba3f 5840 4059 f140
00000060: f2d4 6041 3071 8041 2e26 6040 3850 4240
00000070: 4053 a840 5ff7 bf40 1ec7 1b41 06be 7b40
17.184052 12.284203 39.009254 4.974972 3.8562 5.71755 6.298242 7.216426
4.426752 5.7792645 5.9734745 9.954922 7.2259345 7.805866 7.236096 6.9850044
3.8063934 6.0958257 3.9770625 8.003507 3.2424805 7.170527 3.3788896 7.542145
14.051989 16.055267 3.5023303 3.0361462 5.2601624 5.9989467 9.736113 3.933473

model.7.weight f4 [32, 32, 3, 3]
00000000: b8f9 163e 7e8c 3d3e a36a 743e 7d64 213e
00000010: 88a6 053e 7094 593e 4b98 133e 72f3 433e
00000020: 6f36 823e 4492 d8bd 25ce d8bd 44d8 18be
00000030: 6928 16be c86b 8dbd 5e3c d6bd 68e3 dabd
00000040: 4fcf e7bd e1fd 4fbe b896 c53d 7dc9 a63d
00000050: 2384 a43d 7fdf 113e 5b35 573e f98f a93d
00000060: 3cc5 163d fa7f 303e a295 203e 7924 1abe
00000070: f884 c7bd 9f1f 5abc 0898 7cbd 25e5 c5bd
00000080: 4a18 cfbd e371 b3bd 3220 16be 8a5c 09be
00000090: 660e a73d b657 d23d ddac fabc 96d8 493d
000000a0: c63a d13d 863f 513d bd4f 773d 411f 713d
000000b0: 9b21 373d d4ee 9ebd 29eb a8bd 3611 22bd
000000c0: b90b 2dbe 3e2b 10be e9f9 11be 5948 d3bc
000000d0: 44f1 00be af8f 75bd 8e06 65bc 9d64 64bd
000000e0: df7e 2abd 9933 1dbd de74 943c 0b8e cb3c
000000f0: 2c9c bcbd 3796 0f3d 875d 773d 96fb 23be
00000100: 9d27 06be fcb5 7abd 4d52 1dbe 2432 29bd
00000110: ec92 393b fe34 dbbd 680b 38bd 7a17 dabd
00000120: f6f7 c0bc dfbb 123d dfdd e93c 2286 89bc
00000130: a932 23bd a576 1b3d 0016 55bd 1c14 c5bc
00000140: e0e5 943c b9c1 b1bd 2aca c8bd 1a83 8dbd
00000150: 5842 2fbe 7705 10be 6418 d1bd 8e3b 0fbe
00000160: e449 22be f8d8 15be 92f7 b7bc b380 c6bd
00000170: dfdc a6bd 051e a2bd 0020 f4bd 9ad5 01be
00000180: 255a a4bd f66d b0bc 47f6 36be 9805 71bd
00000190: 5c65 b7bb 5b6e a33c ed24 b0bd db4c 6bbd
000001a0: 7428 05bd 369b 10be d075 0ebe 67a0 b7bd
000001b0: 73c4 d6bd 3fc9 c0bd 3045 bebd a126 3fbe
000001c0: eac2 b9bd 088e 82bd b583 cbbd 8cee 34be
000001d0: 68b0 42be 46b0 46bd c830 8bbd 2f1c ccbc
000001e0: 29fd 17bc a29e bebd cd6e 14bc 157e 2f3c
000001f0: 7ff1 14bd 51f7 50bd 4805 f6bc 1269 02bd
00000200: 5e02 8ebc 05dd 75bd d2ff 67bd 9566 8dbd
00000210: 4e6f d6bc b5cc 2ebd 8e41 c7bc a93e b9bd
00000220: 4a7d 21bd 783b aabd 4400 a63c 350b f4bc
00000230: fc39 59bd 1af1 823b 26e5 7e3b be73 ad3a
00000240: 5a32 a43d c57c 253d 4b45 ce3c 3c86 373d
00000250: 8a5f c83d 1fe4 303d 166f 7f3d f203 313d
00000260: 679c 1c3c ba9d 0a3c f9fd 91bc 4883 d8bc
00000270: a8f2 a8bd 3cee 9dbc d30a dbbd 7e0e 92bc
00000280: 1635 6cbd fa23 19bd 05f7 dabd a51e 0bbc
00000290: 50f6 8abc 4195 bcbd 2899 adbd 3293 d2bd
000002a0: 7375 2dbe 2cb1 adbc 8457 c9bd 83c0 57bd
000002b0: 19ca 38bb 4e71 c6bc 159a 2b3c 3625 c83d
000002c0: bee2 5c3d 5e4f e23c 05f9 c33d 756e a4bc
000002d0: dfe0 fdbb ae97 153d d35e 833d 35d2 403c
000002e0: 96b3 9f3d 8c86 f13d 9903 eb3c 3af3 c73d
000002f0: 9ead 0f3c d421 dbbd 3c5b 3bbd f0e7 b7bc
00000300: 52f9 f1bd 203d 1a3d 9576 eaba 00be e7bd
00000310: 491e c8bd 51f3 a1bd a075 b9bd 2d07 34bd
00000320: 702d 87bc 0dda 5abd 278b 74bd ef5f 10bd
00000330: 96b6 bfbd 323b 2c3d 2890 a03c 24b1 bcbd
00000340: 942e 0bbd b98e efbd 6a81 d9bd 9e96 3fbd
00000350: 352e 1abe 111a 2dbe d563 71bd dc9d 42be
00000360: bebd 38be 33ee 6bbd b991 c0bd 7e05 1fbe
00000370: ad6a cdbd 6e91 94bc a428 13be e897 b3bd
00000380: 3e12 3fbd c0c2 473d 90ab ff3d b51c 993d
00000390: 0403 a23d 5e65 d73d 75fa b53d ebad 913d
000003a0: 460d a53d 8537 773d a299 bdbb b534 b03c
000003b0: 52b4 143d 937b 5cbc 0e3a 3f3d ded0 e93c
000003c0: 577e 2d3d 9366 2f3d aa21 2cbd f346 99bd
000003d0: 8ffa 0ebe 1b68 fbbc 120b e1bd 5927 1bbe
000003e0: 908c c3bd d077 26be 8a21 18be 03c6 1fbe
000003f0: 9bcf f73b 64bc c6bc ef6c 81bc 9efd 31bd
0.14743698 0.18510625 0.23868804 0.1576099 0.13051808 0.2124803 0.14413564 0.19135836
0.25432155 -0.10574773 -0.10586194 -0.14926249 -0.14663853 -0.06905323 -0.10460733 -0.106879056
-0.11318838 -0.20311691 0.09647888 0.081438996 0.080330156 0.14245413 0.21016447 0.08279414
0.03680919 0.17236319 0.1568208 -0.15052976 -0.09742159 -0.013313203 -0.061668426 -0.096628465
-0.10112055 -0.087619565 -0.14660719 -0.13414207 0.08157043 0.10270636 -0.030600006 0.049278818
0.10216288 0.05108597 0.06037878 0.058867697 0.044709783 -0.077603966 -0.08247978 -0.039567195
-0.16899003 -0.14078996 -0.1425549 -0.025791334 -0.12592036 -0.05995148 -0.013978614 -0.055760015
-0.0416249 -0.038379285 0.018122133 0.024848005 -0.09209475 0.035055365 0.06039193 -0.16013941
-0.13101049 -0.06120871 -0.15363427 -0.041307583 0.0028316332 -0.10703467 -0.044932753 -0.10649009
-0.023555737 0.0358237 0.02854818 -0.016787592 -0.039843235 0.037954945 -0.052022934 -0.02405744
0.01817602 -0.08679528 -0.09804185 -0.06909771 -0.17115152 -0.14064585 -0.1020973 -0.13987562
-0.158485 -0.14633548 -0.022456918 -0.09692516 -0.081475966 -0.07915882 -0.11920166 -0.12679139
-0.08025006 -0.021536808 -0.17867385 -0.058843225 -0.0055968 0.019950083 -0.08600793 -0.057446342
-0.032509282 -0.14121708 -0.1391213 -0.08966141 -0.104866885 -0.09413385 -0.0929054 -0.1866708
-0.0907038 -0.063747466 -0.099372305 -0.17669123 -0.19012606 -0.04850795 -0.06796414 -0.024915783
-0.009276667 -0.093076006 -0.00905962 0.010711213 -0.03636312 -0.05101711 -0.030031815 -0.031838484
-0.017335113 -0.060025234 -0.056640454 -0.069043316 -0.026176121 -0.042675693 -0.024323251 -0.090451546
-0.039426126 -0.08312124 0.020263799 -0.0297905 -0.053033814 0.0039960267 0.0038893907 0.0013233346
0.08017416 0.040402193 0.025179526 0.04480575 0.09783848 0.043186303 0.0623618 0.043216653
0.009558774 0.0084604565 -0.017821299 -0.026429787 -0.08249408 -0.019278638 -0.10695424 -0.017829176
-0.057667814 -0.037387826 -0.106916465 -0.008491193 -0.016963154 -0.092081554 -0.08476478 -0.102819815
-0.16939335 -0.021202646 -0.098311454 -0.052673828 -0.0028196631 -0.02422395 0.010473748 0.097727224
0.053927176 0.027625736 0.09568981 -0.020072201 -0.007747754 0.036521606 0.06414571 0.011768867
0.07797925 0.11793241 0.028688239 0.09763189 0.008769421 -0.106998116 -0.045741305 -0.022449464
-0.11815132 0.03765595 -0.0017888123 -0.113155365 -0.097714014 -0.07907737 -0.09055638 -0.043952156
-0.016501158 -0.053430606 -0.05970302 -0.03524774 -0.093609974 0.04204864 0.019599989 -0.092134744
-0.033979967 -0.11697144 -0.10620387 -0.0467745 -0.15056689 -0.16904475 -0.058933098 -0.19005531
-0.18041131 -0.05760021 -0.094027944 -0.15529439 -0.100301124 -0.018135753 -0.14370972 -0.08769208
-0.046648256 0.048769712 0.12483895 0.074761786 0.079107314 0.10517381 0.088856615 0.0711325
0.08059172 0.060355682 -0.0057861367 0.021509508 0.03630478 -0.013457197 0.046686225 0.028541978
0.042356815 0.04282243 -0.042024292 -0.074842356 -0.13962768 -0.03068929 -0.109884396 -0.15151729
-0.095482945 -0.16256642 -0.14856544 -0.15602879 0.0075625903 -0.024259754 -0.015799014 -0.04345476

model.7.bias f4 [32]
00000000: f233 d539 f747 afbd 7c9a f8bc af4d 5b3c
00000010: ea12 75bd f779 a9bd c82c 323d 2b28 793d
00000020: 5e95 543b 2dc7 13bc 2f8c 353d 2c1d 21bd
00000030: 76bb 85bd 4af3 8e3c 4106 62bd a598 983d
00000040: 6658 aebb 5c95 aebc 1985 9bbd 210d a6bc
00000050: deba cf3c 99e2 673d 654a 90bd 17a6 a5bd
00000060: 3a61 46bd b9e3 813c 876a fabc 35d7 9f3d
00000070: 9a54 213d fd0d 0e3d 78cf d6bd 5ea9 2ebd
0.00040665228 -0.08558648 -0.030347101 0.01338522 -0.05983249 -0.08275216 0.043499738 0.060829323
0.0032437663 -0.009019655 0.044323143 -0.03933446 -0.06529896 0.017449994 -0.055181745 0.0745099
-0.0053205965 -0.021311454 -0.07593746 -0.020269932 0.02535766 0.056612585 -0.0704544 -0.0808832
-0.048432566 0.015855657 -0.030568374 0.07804719 0.039387323 0.03468131 -0.1048879 -0.04264199

model.8.weight f4 [32]
00000000: 9089 873f 88b6 7a3f 2560 8a3f 4cdd 8b3f
00000010: d09c 743f 80fe 823f c037 303f 112b 6a3f
00000020: 7305 903f 5b85 813f 2209 5b3f 50b4 633f
00000030: 0689 973f 3826 813f 7f1c 733f 84d4 3a3f
00000040: 0c3d 7f3f 94bb 903f ece4 8b3f d366 7f3f
00000050: b50b 8f3f 13d4 813f 3edc 773f adfc 753f
00000060: 9194 773f be50 a23f 97f2 753f 8a61 8a3f
00000070: bbbb 883f 11f4 7b3f 0114 923f 4295 693f
1.0588856 0.9793477 1.0810591 1.092691 0.95551777 1.0233917 0.6883507 0.91471964
1.1251663 1.0118822 0.8556081 0.8894701 1.1838691 1.0089788 0.94965357 0.72980523
0.99702525 1.1307244 1.0929236 0.9976627 1.1175448 1.0142845 0.9682044 0.9608868
0.9671107 1.268089 0.9607329 1.0811017 1.0682291 0.9841929 1.1412355 0.91243374

model.8.bias f4 [32]
00000000: bec5 da3c c589 25bd 13a9 c73c d498 bfbc
00000010: 4bbb 433e 4773 be3d f6fd b33d a6f8 973d
00000020: 3af6 9c3d 536a abbd 0b23 833d 83e5 89bc
00000030: e875 923e c0cb 4d3d 9f0a 98bd 75ab 71bc
00000040: 484c 09be 27dc 74bd 9d4b 17bd 2a1c 99bc
00000050: e697 3bbd 37e9 14bd 7f2a c0be feba 0f3e
00000060: 69f1 7d3e 2506 493e af7c aabd 4372 fe3c
00000070: 5638 a23e 4eff 813e 3604 1abd 4ba8 073e
0.026705619 -0.04041459 0.024372613 -0.023388304 0.19114415 0.09299331 0.087886736 0.07420473
0.076641515 -0.08369889 0.06403168 -0.016833073 0.2860558 0.05024314 -0.07423901 -0.014750351
-0.13408005 -0.059780266 -0.036937345 -0.018690187 -0.04579916 -0.036355224 -0.37532422 0.14036176
0.24799122 0.1963125 -0.08324563 0.031060344 0.31683606 0.25390095 -0.037601672 0.13247792

model.8.running_mean f4 [32]
00000000: a528 ebbf 48d9 75bf e96b 85c0 3ea6 abc0
00000010: d635 4a3f 56b4 3d40 391f 2540 a90e 90bf
00000020: 9de8 a2c0 0446 11c0 a653 193f 9074 b43d
00000030: 9e88 e2bf b5d7 2340 4f51 73c0 e12c 903f
00000040: 4537 e83e 5d18 d13e 5e5b 74c0 a9f9 8ebf
00000050: 2bdb cc3e bfdd d1bf b6c3 d640 1cba 6cbf
00000060: 4f6a a53f c615 e8bf 8e64 1040 88ad 4bc0
00000070: dc2f 623e 9492 42c0 a7a5 0abf 47c2 b53d
-1.8371779 -0.9603467 -4.1694226 -5.364043 0.789884 2.9641318 2.5800307 -1.1254474
-5.090895 -2.2698984 0.5989326 0.08811295 -1.7697942 2.5600407 -3.8018377 1.1263696
0.45354667 0.408389 -3.8180766 -1.116994 0.40010962 -1.6395797 6.7113905 -0.9247148
1.2923068 -1.8131645 2.2561374 -3.1824665 0.2208857 -3.0401964 -0.54159015 0.08874946

model.8.running_var f4 [32]
00000000: 2d21 4e42 c306 2841 711a a342 bfc1 ab42
00000010: b1a7 db41 6ad8 c441 8c27 db41 2f20 6740
00000020: b633 9342 3986 3242 cdae 1d42 d2c7 7041
00000030: 8f69 c541 4bfd 3842 dbff 3642 af83 a141
00000040: 60f2 5241 a463 6b41 3f07 6942 d145 1841
00000050: e148 8441 9a10 1342 b67f ed41 df6d 0f41
00000060: e665 9041 7721 3642 f8df 0d42 3e7c 3642
00000070: e63e 2942 a7d0 8241 cf00 4a41 da7d 3742
51.5324 10.501651 81.55164 85.87841 27.45688 24.60567 27.39431 3.6113393
73.601 44.631077 39.420704 15.048784 24.676542 46.247356 45.74986 20.189299
13.184174 14.711826 58.257076 9.517045 16.535585 36.766212 29.687359 8.964324
18.049755 45.53268 35.46872 45.62133 42.311424 16.351881 12.625197 45.872902

model.10.weight f4 [64, 32, 3, 3]
00000000: d435 73bd c9db 06be d3fa dcbd 3046 b6bd
00000010: 1b4b dcbd 86ea 85bd f211 d7bc de8b 5a3d
00000020: fdb7 a7bb cb79 80be 0c3f 09be 9aee 28be
00000030: f608 1cbe 51ed e2bc aae4 c8bd 5ec3 9abc
00000040: 3f5e f63c e131 d2bc 119d 98bd 39a9 acbc
00000050: d63b 9bbd 5001 f7bb 4312 aabd 4966 91bd
00000060: c1cd 913d baec a1bc 1701 133d 8e06 f5bc
00000070: 5c34 edbc 8b0a 0fbe 6d10 17be 8503 2abd
00000080: ed98 f0bd ae9d 263d 7f7d a83d 9adc 7cbd
00000090: 9957 653d 5f4d 933d 4c3e cf3d fd6c aa3d
000000a0: dc75 1d3e 3a09 0f3e 7775 c83c 3fcd db3c
000000b0: 5100 a43c 633a edba 3c5a 11bc e632 e53c
000000c0: 4140 bfbc 675b 063e d84e 323c 15cb e03c
000000d0: 286b c73d 4c7b 24bd a13a 703c 3c60 b33d
000000e0: b901 9d3d 2068 f03d e8ee e83d 8a5f da3d
000000f0: b0de 943d f9bd c63b b2bc 8dbc 5c80 833c
00000100: 717b a8ba 86a6 c63d 3b65 ccbc 530b 80bd
00000110: eb61 f63c d853 55bd c9bf aa3d 0d04 093e
00000120: c20d ccbd 9912 c6bd 3526 52be 9d10 99bd
00000130: 1d57 bbbd 2083 fcbd 9a75 b3bd 3868 6c3c
00000140: 93ed f1bc 4253 46bd e585 08be 4076 c6bd
00000150: 05b7 04bd c78a b2bc f3e4 08bd 0eea acbc
00000160: 7967 0bbc 15b6 6b3c ec53 65bc c333 393e
00000170: dfdb b83d 6bf6 b73d cd2b 103e 286d ad3d
00000180: 719f 903d 117c 423d 2bf2 953c 1cf0 a83d
00000190: a114 943d 7d8c a33d cd58 c13d 3461 553e
000001a0: 89dc 2a3e ced3 943d b4e5 c13d 6261 0a3e
000001b0: 6132 113d 4f8c 843d a46e dc3d cf72 cd3c
000001c0: 2997 673d 3eee ff3c 4ca9 49bc 5917 123d
000001d0: 2457 2e3c 6b6f a93d c730 1f3e 21c4 9a3d
000001e0: a42d 563d 5a88 5c3e f974 2b3e 3175 903d
000001f0: 7629 d03d 94f9 193a e234 b3bd d9de c0bd
00000200: d389 83bd 2e39 d1bd bfdf bcbb dbf7 cebd
00000210: 0675 40bd 0ef7 abbd 1eab ddbd 3daf c93d
00000220: e0bd e83d 923f f33d 4be2 db3d fa32 033e
00000230: 2ca3 243d 3817 8c3d 1f6d 3b3c 2b29 d03b
00000240: 3524 243d 87c3 75bd faf2 37bd 3867 0b3d
00000250: 9ef0 50bd 8964 cf3b ab8b 5a3d c627 563d
00000260: 4f83 e33d 6028 a13c 3b99 1b3d 91d3 86bb
00000270: 6e0a 9d3d bcba 213e 8aac 0d3e 6742 33bc
00000280: 9d11 ffbc e4ae 5d3c bf37 22bd e65e 31be
00000290: ab82 bbbd b916 3ebd e41c f8bc bd85 cebd
000002a0: 1c55 823d 4ce5 5fbc 714c f7bd 5c68 a03d
000002b0: 76e2 843d 9922 233e 130e b83d 2909 6e3d
000002c0: 9ae8 c03c 9a01 2fbd 239b 7dbc 88d3 7b3b
000002d0: 902b ffbd b42d 6abd 5c6b c7bd 8407 39bd
000002e0: 8501 87bd 4bec d0bd 48f5 c1bd a13c d3bc
000002f0: 69d7 883d fba3 26be 286a 16be 3e01 22be
00000300: 8caf 02bd 5709 a3bd 4bcb 37bd 4e54 15be
00000310: 774b a8bd 676f d0bd ac8d 35be 29c4 d1bd
00000320: 2475 25be cab1 38be 950d 0cbe 712a 85be
00000330: 4122 0bbe 15ad 8dbc d8ca 96bd f8b1 bc3c
00000340: f326 de3a 04da 023d b3cf 19bc 6504 ca3c
00000350: cd0e 913d d7e2 903d b99a 3b3d 86cc be3d
00000360: 12bf 693b 3d54 b93d 5b9b a53c 61bf 66bc
00000370: 430e c53d b5e1 d43d e441 853d d2ba d33d
00000380: 179d 9b3d 5ea7 173c ce9d 793d 1ae2 713e
00000390: 0823 293d 8875 2b3e ba02 d23d 457b 243d
000003a0: d1b4 143d 52ba 03bd d925 b7bd b5ce e43b
000003b0: b66e a13c 4a82 98bc 4ecb f73c ff1a 9bbc
000003c0: 8ffa 38bc f916 043c 6123 713d f6a4 26be
000003d0: 9d1c 58be 950a 66be 31b8 2cbe c2f8 c4bd
000003e0: ad30 0cbe 11df 35bb 99b7 12bd 96d9 80bd
000003f0: 68ef 5d3c 4c8d bb3d 0fd1 fb3d f51f 953d
-0.059377506 -0.13169779 -0.107900284 -0.08900106 -0.10756513 -0.065388724 -0.026253674 0.053356044
-0.0051183687 -0.2509292 -0.13402957 -0.1649727 -0.15237793 -0.027701052 -0.09809239 -0.018891986
0.030074237 -0.02565855 -0.07451833 -0.021076785 -0.07579772 -0.0075379983 -0.083042644 -0.070995875
0.071193226 -0.0197662 0.03588971 -0.029910352 -0.028955631 -0.13968866 -0.1475236 -0.041507263
-0.11747918 0.04067772 0.082270615 -0.06173382 0.055991743 0.07192492 0.10119304 0.08321569
0.15376991 0.13968363 0.024470074 0.026831267 0.020019682 -0.0018099066 -0.008871611 0.027978372
-0.023346068 0.13120805 0.010883056 0.027440587 0.09737235 -0.040156648 0.014662416 0.087585896
0.07666344 0.1173861 0.11373693 0.10662754 0.07269037 0.006065127 -0.017301891 0.016052417
-0.0012854171 0.096997306 -0.024950614 -0.0625216 0.030075988 -0.052081913 0.08337361 0.13380452
-0.099635616 -0.09671516 -0.20522387 -0.07473872 -0.09147475 -0.123296976 -0.08762665 0.014429145
-0.02953223 -0.048419245 -0.13332327 -0.09690523 -0.032401104 -0.02179469 -0.033421468 -0.0211077
-0.0085085565 0.014386673 -0.013997059 0.18086152 0.09026312 0.089825474 0.14079209 0.084680855
0.07061661 0.0474816 0.018303951 0.08248922 0.07230497 0.079857804 0.094407655 0.20837861
0.1668569 0.07266961 0.094676405 0.13513711 0.035448436 0.06472074 0.107632905 0.025079159
0.056540642 0.031241532 -0.01230843 0.035666797 0.010640893 0.082732044 0.15545951 0.0755694
0.05228962 0.21536389 0.1674384 0.070536025 0.10164158 0.0005873677 -0.08750321 -0.09417505
-0.06422772 -0.10215984 -0.0057639773 -0.101058684 -0.046986602 -0.08396731 -0.10823654 0.09847877
0.11364341 0.118773594 0.10736521 0.12812415 0.040194675 0.06840366 0.011439591 0.006352564
0.040073592 -0.060000923 -0.044909455 0.034033984 -0.05101072 0.0063291234 0.053355854 0.052284025
0.111090295 0.019672573 0.03798793 -0.004114576 0.07668005 0.1579389 0.1383535 -0.0109411245
-0.031136328 0.013530467 -0.039603945 -0.17321357 -0.09155782 -0.04640839 -0.030287214 -0.10084102
0.063638896 -0.0136655085 -0.12075127 0.07832405 0.064885065 0.15931167 0.089870594 0.058114205
0.023548413 -0.042726137 -0.015478882 0.0038425643 -0.12459481 -0.057172492 -0.09737274 -0.045173183
-0.06592087 -0.10201319 -0.09470612 -0.025785746 0.06681711 -0.16273491 -0.14688933 -0.15820786
-0.031905696 -0.07960766 -0.04487161 -0.14582941 -0.08217519 -0.10177498 -0.17729825 -0.10242493
-0.16157967 -0.18036571 -0.13677056 -0.26008943 -0.13587286 -0.017294446 -0.07362908 0.02303408
0.0016948864 0.031946197 -0.009387898 0.024660299 0.07082901 0.07074516 0.045801852 0.093163535
0.0035666865 0.0904927 0.02021568 -0.014083714 0.09621861 0.10394613 0.06506708 0.103383675
0.07598322 0.009256212 0.06094151 0.23621407 0.041293174 0.16744053 0.10254426 0.04015662
0.036305252 -0.03216011 -0.08942766 0.006982649 0.019706111 -0.018616814 0.03024831 -0.018933771
-0.011290207 0.008062118 0.05887163 -0.16273865 -0.21104665 -0.22464974 -0.16867138 -0.09617759
-0.13690443 -0.0027751366 -0.035819624 -0.06291501 0.013545848 0.091578096 0.12295734 0.07281486

model.10.bias f4 [64]
00000000: 09fe 3d3c 76b7 fe3c 1f25 c6bb 54ec 3e3d
00000010: 7ff0 a03d 8b5d d83c 1367 92bd 341d 073d
00000020: 7536 113c 2d3a 1bbd 27d7 6cbd a27b 013d
00000030: d2f7 973c f3b3 ccba 9a83 47bc 082b 62bc
00000040: 55c2 00bb 7607 5a3d 3c81 4fbd d52a c73b
00000050: d963 c3bb 0bde 37bd 164d 653d 5cac 183d
00000060: 47a4 8dbd 39b8 42bd c67a 823d 4b6f 903c
00000070: 0a60 5fbd 21b0 20bc 1c59 213c 9571 29bd
00000080: 9b83 22bd b86a efbc bdf7 a4bd 4b0a 873c
00000090: a46a ae3c f737 1d3d a165 f43c 6d39 1cbc
000000a0: 8622 81bd 5306 eebc 0759 1dbd d21c a4bb
000000b0: 6b91 65bd a85f efbc a2d9 64bd 3378 883d
000000c0: aec2 8e3c b1c5 453d b9cf 63bc 3dd2 35bb
000000d0: 7d5f 5cbd 17d7 17bd 819a a8bc f9ad 3cbc
000000e0: e8b6 eabc 08a5 003d 3713 88bd 04e3 a03c
000000f0: 0f86 83bd 63dc 6cbd 3f59 6f3d fca7 633b
0.011596211 0.03109334 -0.0060469056 0.0466121 0.07858371 0.026411792 -0.07148566 0.032986835
0.008863081 -0.037897278 -0.057822373 0.031612046 0.018550787 -0.0015617594 -0.012177372 -0.013804205
-0.001964708 0.05322977 -0.050660357 0.006078104 -0.0059628305 -0.04488949 0.055981718 0.03727375
-0.06916099 -0.04753897 0.063710734 0.017631194 -0.05453495 -0.009807617 0.0098479055 -0.041368086
-0.03967629 -0.029225692 -0.08055065 0.0164844 0.021291085 0.03838345 0.029833617 -0.009535176
-0.06305413 -0.02905575 -0.03841498 -0.0050083185 -0.056046885 -0.029220417 -0.055871613 0.06663551
0.017426815 0.048284236 -0.013904505 -0.002774372 -0.053802002 -0.03707036 -0.020581486 -0.011516088
-0.02865167 0.031407386 -0.0664429 0.0196395 -0.06422054 -0.057827365 0.05843472 0.0034737578

model.11.weight f4 [64]
00000000: b33d 5a3f 16db 913f b351 943f 1739 783f
00000010: 39f5 6d3f e64e 2c3f f8bf 753f 24b1 a03f
00000020: 5c30 413f e9e1 353f 1f31 5f3f 92d5 8a3f
00000030: d5ba 603f 405c 8a3f 1364 c83f 3bfd 943f
00000040: c04c 403f 0c54 953f 77ed 953f c83e 693f
00000050: 3626 7f3f e294 8c3f 40e6 533f 4196 463f
00000060: d0f7 7b3f 78fc 5e3f f728 b53f a2a3 993f
00000070: 7967 5a3f 8f87 ca3f f04d 973f 877e 773f
00000080: b381 5c3f ac06 663f 7edf 6c3f ab28 9e3f
00000090: 3612 413f 9743 8f3f dc7f 973f cd98 683f
000000a0: 9fcb 5c3f 0f7f 563f 4c8c 5e3f e8b4 a83f
000000b0: 4cdc 553f 5e00 693f 7fbb 5c3f 1981 563f
000000c0: 083e 303f 7a90 713f 8314 573f b7d8 8c3f
000000d0: 8234 4e3f d5f0 c53f 5553 893f 2a2c 5f3f
000000e0: a60c 883f cf0a 963f 807b 8c3f e95c 623f
000000f0: 09cb 803f de1c a93f c274 693f d028 d13f
0.85250396 1.1394985 1.1587433 0.9696211 0.92952305 0.6730789 0.95996046 1.2554059
0.75464416 0.71047837 0.8718433 1.0846426 0.87785083 1.0809402 1.565554 1.163978
0.7511711 1.1666274 1.1713094 0.9111142 0.9966768 1.0982935 0.8277321 0.7757302
0.98425007 0.87103987 1.4153126 1.2003062 0.85314137 1.5822619 1.182066 0.9667744
0.86135405 0.8985393 0.9252852 1.2356161 0.7541841 1.1192502 1.1835895 0.90858155
0.862482 0.83787626 0.86932826 1.3180208 0.8353927 0.91016185 0.86223596 0.8379074
0.6884465 0.9436108 0.84015673 1.1003636 0.8054887 1.5464121 1.0728556 0.87176764
1.062886 1.1722049 1.0975189 0.8842302 1.0061961 1.3211935 0.91193783 1.634058

model.11.bias f4 [64]
00000000: 9523 1a3e 8712 1fbd 90f1 0f3d 76a3 77be
00000010: 45d4 9ebd 8299 71bd 166f 3cbe 0616 66be
00000020: 3520 73bd 7bda c7b9 44ca f43c 5fdf 49bc
00000030: 4ae2 253c e7d8 03be 3bf8 6a3e 120a 663e
00000040: d2a9 883c a0e3 0fbe 33da a3bd ac59 353c
00000050: 96e2 6dbc fda7 17be fbde 06be 7e57 41be
00000060: 36fc a3bd 14a4 5f3d d450 c8bd c0e9 4a3d
00000070: 392d 233e fb25 073e d62b 37be 80d3 813b
00000080: dbb6 c4bd 2e11 cbbd 1905 c93d d4df 943d
00000090: 87f8 76be 36d1 0bbe 4064 473e df84 d43d
000000a0: 95c6 17be 38c4 623e b8e3 aebc a246 1dbe
000000b0: 9306 f0bc bdf0 5f3b 0cae 98bc 1525 15bc
000000c0: 7b8f 75be f13c 763d 01bf 0fbe 7bdf e1bd
000000d0: b794 9c3d 50d5 d7bd 4731 f83d c73a f3bd
000000e0: 7ffe 8cbd f387 eabc 3614 23be 2cbf d73d
000000f0: d809 9c3c de1b 073d d847 74be 3332 193e
0.15052636 -0.03883603 0.03514248 -0.24183449 -0.07755331 -0.058984287 -0.18401751 -0.22469339
-0.059356887 -0.00038119018 0.029881604 -0.012321322 0.010124752 -0.1287571 0.22946255 0.22464779
0.01668254 -0.14051676 -0.080006026 0.011068743 -0.014519354 -0.14810176 -0.13170998 -0.18881032
-0.0800709 0.054599836 -0.09781042 0.049539328 0.1593522 0.13198082 -0.17887816 0.0039619803
-0.096051894 -0.09915386 0.098154254 0.07269254 -0.24118243 -0.13654026 0.19471836 0.10376906
-0.14821847 0.22145164 -0.02134882 -0.15358976 -0.02930001 0.003417059 -0.01863768 -0.009103079
-0.23980515 0.060116712 -0.14037706 -0.11028954 0.076455526 -0.10538733 0.12118774 -0.11876445
-0.06884479 -0.028629279 -0.15925679 0.1053451 0.019047663 0.03298556 -0.23855531 0.14960556

model.11.running_mean f4 [64]
00000000: 6868 223f c5bd 60c0 69a9 c9bf d591 8940
00000010: 20a6 823d f307 46bf 9f19 87bf 36ab 64c0
00000020: 6c1f 43c0 cd5f 13c0 d346 acbe 5236 bbc0
00000030: 47be 8bbe bee3 06c0 e5eb 093f 7a62 ebbe
00000040: b9c2 1940 78e5 8fbf e2ce 0b3f 8df8 4840
00000050: a9bd f93e dc7e 4ec0 4da5 8840 40ab ac40
00000060: 68f7 eebf 4db9 c43f 6a14 893f e709 0dc0
00000070: 382e 3540 916c 143f 76c9 a23f a4dc 943f
00000080: 7d85 a440 fa6c 1440 5850 69bf 4bea 9abe
00000090: 193f ca3f f2ee 9c3f 1a9e 0240 057c 463e
000000a0: ae4d 8d40 4d4e acbf 010b 8e40 117e 3e40
000000b0: 9850 81bd f51c f83f 199b 8f40 aaaa 683f
000000c0: afc7 893f c6ff 5240 4f2e c640 0d0b 07bf
000000d0: b3f8 e23f 95aa 3b3e 8044 10bf eb1c f6bf
000000e0: bee6 1d3f 7f20 60c0 4674 c0bf 4188 873e
000000f0: c28a 86bf 5938 62c0 bc2f 9540 d532 55c0
0.6344056 -3.5115826 -1.5754825 4.299052 0.06379342 -0.7735588 -1.0554694 -3.57295
-3.0487928 -2.3027222 -0.33647785 -5.850381 -0.27293608 -2.1076503 0.5387557 -0.4597357
2.40251 -1.1241903 0.54612553 3.1401703 0.48777512 -3.226493 4.2701783 5.3959045
-1.8669252 1.5369049 1.0709355 -2.2037294 2.830946 0.5797816 1.2717731 1.1629834
5.141295 2.3191514 -0.9113822 -0.30256876 1.5800506 1.226042 2.0408998 0.19383247
4.4157324 -1.3461396 4.4388433 2.9764445 -0.063142 1.9383837 4.487683 0.9088541
1.0764064 3.2968612 6.193153 -0.5275124 1.7732147 0.1832679 -0.5635452 -1.9227575
0.6168021 -3.5019834 -1.5035484 0.2647114 -1.0511096 -3.5346892 4.662077 -3.3312275

model.11.running_var f4 [64]
00000000: 2f4c 2342 46c2 3442 b47a 3442 e031 cd41
00000010: 074a 0841 21e3 9f41 7d50 1e41 2efb 9e41
00000020: 325d ea40 6e78 5441 0f37 b441 5c35 8141
00000030: 3c1c b241 4591 df40 c8b4 3b42 de6b f341
00000040: 40ad 3242 5f8d 1641 91ba 8340 7b5d f441
00000050: 1f98 9641 a0fe 8e41 e6f0 0942 567c f441
00000060: 8eec d441 eef8 bf41 7052 5941 f42a 0c42
00000070: badd 0342 64a1 d741 7ce2 4841 e0ab 1042
00000080: 5f46 8041 b51d ea41 8356 8a41 55c0 8d41
00000090: 6489 0a41 954c c440 74e4 6041 8610 cd41
000000a0: 4c47 2742 f4e2 2842 e593 f141 5af1 8c41
000000b0: b3df 1041 1b29 c841 a1bd b341 77ec d741
000000c0: 3c07 8241 43df a441 191f 2f42 ab7c e640
000000d0: 3320 9741 3f9b 9441 90f1 2442 f44b 8e41
000000e0: 7ac6 4241 31da 2142 588e 9341 59c2 8341
000000f0: 8641 ad41 90d9 8642 8b63 ac41 a611 8942
40.824398 45.18972 45.119827 25.649353 8.518073 19.985903 9.89465 19.872646
7.3238764 13.279402 22.526884 16.151054 22.263786 6.986483 46.926544 30.42767
44.66919 9.409514 4.116524 30.545645 18.824278 17.874329 34.485252 30.56071
26.615505 23.996548 13.582626 35.041946 32.96653 26.953804 12.555294 36.167847
16.03436 29.264505 17.292242 17.718912 8.658543 6.1343484 14.055775 25.633068
41.819626 42.221634 30.197214 17.617847 9.054614 25.020071 22.467592 26.990461
16.253532 20.609015 43.78037 7.2027183 18.890722 18.575804 41.2359 17.787086
12.173456 40.463078 18.444504 16.469896 21.656994 67.42493 21.548605 68.53447

model.13.weight f4 [64, 64, 3, 3]
00000000: 156c e93b 92dd 0d3d 2497 1e3d 1147 af3c
00000010: 93b9 143d a123 ae3d b457 e53b 0681 113e
00000020: 9c57 1f3e 3f03 1f3e 4ff5 f13d 8108 dc3d
00000030: e54a 9b3d a6d4 903d 5aaa 073e bdfd 8a3d
00000040: 56ae 633d 0bb3 ca3d 651f 3a3e 628f 5e3d
00000050: 0322 ce3d c52e 923d 58a8 ce3d 2602 873d
00000060: ee88 4a3d dc53 4c3d 6bd2 213c 9d19 d4bd
00000070: a97b 633d 4af6 133e 2e53 b1bd 6013 d93c
00000080: 8932 c53d 7260 9e3d e8c5 d33d 3bb5 783d
00000090: ac8f 9b3c e2a3 8dbb 2dec 34bc 5b80 52bd
000000a0: 7dfa 74bc bd5c 39bd d8d4 babd 9d5c 93bd
000000b0: 502b 31bd de7d c1bc 31f0 263d 5aa6 5b3d
000000c0: ce9b b2bd 9523 a83d 275e 2d3d 97c2 ccbd
000000d0: fa92 8e3d d5f5 593d ae9b 37bd d383 b43d
000000e0: c777 bd3d 0ef9 85bd 56e8 96bb 4522 4b3d
000000f0: d560 5e3d 625a c33d 2cbb 8c3d 6289 8ebd
00000100: d337 21be d229 8fbb 68eb c93c 1f36 c53c
00000110: 2207 eb3d a0e9 b0bc b9f7 d73d 55be bb3d
00000120: 89f6 073d 8d11 fd3c 3239 ab3d c4c7 64bd
00000130: a486 523c 018e 83bc 2b6a a73c 1f9a 223d
00000140: 27ec 0d3d 6820 30bd 6c3f e6bc b3d1 763d
00000150: 7e73 e8bc d78f 6bbc 3fc7 f43c 8804 333c
00000160: 357c 5e3b b85f 293d 195d 3ebd 48d7 1e3d
00000170: 1c0a 1b3d ade7 e9bb 10fb ad3d c15d a83d
00000180: 845f 93bc dec7 f1ba de0b 833d b7e0 21be
00000190: b48e 84be b87a 47be 1558 b73d 48e2 4e3d
000001a0: d622 5cbb 41c5 0f3d 3113 813d a7b6 7c3d
000001b0: 277f 34bd 07fd 9abc 8d3b c73c 034b 9e3d
000001c0: b313 833d 6ad3 aa3d 5ea7 983d f402 e93c
000001d0: 3bb0 9f3d 024b e4bd 887b ccbd 674c 4cbd
000001e0: a051 dcb9 f51e 24bc 92c1 b2bc 51de b2bd
000001f0: 3f3f e33b dd96 f53b e49b 003e f916 9d3d
00000200: a423 043e e97c 163e 7c5f 2e3e b015 283e
00000210: 9854 083e f8b0 483e 7c65 523e da86 de3c
00000220: ff89 be3c 214f 28bd e402 8c3c 44c9 fcbc
00000230: 406a 1a3d 7fba 6fbd de95 bdbc 8cb7 8ebd
00000240: 3a28 dbbd f01a b33c c1c4 b33d bffd 8fbd
00000250: 68aa 063e 34a3 243e 8d1a 4bbc 07ae c13d
00000260: e859 d33d d311 8abd f1a1 b1bb 5e5f 19bd
00000270: 2029 aebc 22a6 6e3d eda0 903e bbd5 e9bc
00000280: 8d0c 9c3d f941 983a c68a a83d fb63 4739
00000290: 70b0 8c3c e14c 91bc d366 04bd 57e0 033d
000002a0: b14f 82bd f8c7 213d c3c2 c4bd f86b bb3d
000002b0: 042d b33d 29b3 913d f29f ca3d 9ed2 e73d
000002c0: fbc0 9e3d 8c86 a73c 67ac f63d 6dd4 3f3e
000002d0: 7038 9ebc 620c 32bd 17f3 923c f091 123e
000002e0: 23a1 abbd a72d 553d 7331 883d 9449 153e
000002f0: 9bb5 453d 20e0 98bc 4b25 06bd 98e8 99bd
00000300: 932a a5bd 52a6 a2bd 1b0e 87bd 1af2 e4bd
00000310: fdd0 07be ada4 02be 681d 29be ee88 ee3c
00000320: a06d a63d a7a7 733c fca1 743c 086e 243e
00000330: d255 223d ca18 d73d 0bfd 8e3d 87fa 1a3d
00000340: b302 693d 9f62 933d bd6b 903d 22b1 493d
00000350: 5a0d 043e a0c8 153d 0c2d 333e a5d3 733e
00000360: 4796 f03d a61d bb3d c187 803d 96a6 f33d
00000370: 29a0 e13d be43 c13d 63f8 a13d 0208 8f3d
00000380: 2a76 4b3c d4a5 8d3c e515 1d3d 1e65 dc3d
00000390: bb8a b23c 7878 943d bad8 fd3d 0c76 003d
000003a0: 3630 c73d 3c4a 003e 3844 24bd 67fa 1fbc
000003b0: cd81 e93c ec9c 3d3d 3191 a43d b6fe 9d3d
000003c0: 0d9f 20be 987b c2bd dc9e 30bd 663f f23c
000003d0: 3d4e 8f3d 6620 953d 4e07 223d 473d 1e3c
000003e0: 19cd a53c 16bf 26bd 57b4 ca3c 6234 af3c
000003f0: 5662 063c 827c 0e3d bbff eb3c 364b bf3d
0.00712348 0.034635134 0.038718358 0.021396192 0.03630979 0.085028894 0.0069989804 0.14209375
0.15560764 0.15528582 0.11814367 0.107438095 0.075826444 0.070718095 0.13248578 0.06786678
0.05558618 0.09897431 0.18176039 0.05433596 0.10065081 0.07137827 0.10090703 0.06592207
0.049446993 0.049884662 0.009876828 -0.10356448 0.055537853 0.1444942 -0.086584434 0.026498497
0.096287794 0.07733239 0.10340482 0.06071971 0.018989407 -0.004322515 -0.011042637 -0.05139194
-0.014952299 -0.045254458 -0.09122628 -0.07195399 -0.043254197 -0.023619588 0.040756408 0.053625442
-0.08721124 0.08209912 0.04232612 -0.099980526 0.06961627 0.05321296 -0.044826202 0.08814206
0.09251361 -0.06541644 -0.0046053333 0.04959323 0.054291565 0.095387235 0.06871638 -0.069597974
-0.15743951 -0.004368999 0.024648383 0.024073659 0.1147597 -0.021595776 0.10545296 0.09167162
0.0331941 0.030892158 0.083605185 -0.055854574 0.012849484 -0.016058924 0.020436367 0.039697763
0.03464904 -0.042999655 -0.028106414 0.06025858 -0.028375383 -0.014377556 0.029880164 0.010926373
0.0033948545 0.04135105 -0.046475504 0.038779527 0.037851438 -0.0071382136 0.08495152 0.08221007
-0.017989881 -0.0018446406 0.06398748 -0.15808378 -0.25890124 -0.19480407 0.08952347 0.050508767
-0.00335901 0.035100225 0.063024886 0.06169763 -0.044066574 -0.018919481 0.024320388 0.07729151
0.06400242 0.08341105 0.07453798 0.028443791 0.07797285 -0.11147119 -0.09984499 -0.04987755
-0.00042022485 -0.010017146 -0.021820817 -0.0873381 0.0069350298 0.007494791 0.12559468 0.07670397
0.12904221 0.14696087 0.17028612 0.16414523 0.1331352 0.19598758 0.20546526 0.027163912
0.023259161 -0.04109109 0.017091222 -0.03085769 0.037698984 -0.058527466 -0.023142751 -0.069686025
-0.10701032 0.02186343 0.08777762 -0.0703082 0.13150942 0.16077882 -0.012396467 0.09457021
0.10319883 -0.06741681 -0.0054209162 -0.037444465 -0.021259844 0.058263905 0.28247777 -0.028544297
0.07619581 0.0011616341 0.08229594 0.00019015365 0.017173976 -0.017736854 -0.032324623 0.03219637
-0.06362856 0.039497346 -0.0960746 0.09151453 0.087488204 0.0711425 0.098937884 0.11319469
0.07751652 0.0204499 0.12044602 0.18733378 -0.01931402 -0.04346884 0.01793818 0.14313483
-0.08380344 0.05204549 0.06650057 0.14578849 0.048268896 -0.018661559 -0.03275041 -0.07515067
-0.08064761 -0.07941879 -0.06594487 -0.1117899 -0.13263316 -0.12758131 -0.16515124 0.029118028
0.08126378 0.014871514 0.014931198 0.16057599 0.039632626 0.10502775 0.06981858 0.037836578
0.05688734 0.07196545 0.070517994 0.049241193 0.12895718 0.036568284 0.17497653 0.23811205
0.11747413 0.09136514 0.06275893 0.11897008 0.11016876 0.09436749 0.07908704 0.06983949
0.012418309 0.017290987 0.03835096 0.10761474 0.021794667 0.0724954 0.12394853 0.03136258
0.097259924 0.12528318 -0.04010412 -0.00976429 0.028504277 0.04629223 0.080355056 0.07714598
-0.15685673 -0.0949623 -0.04312025 0.029571246 0.06997345 0.0728157 0.039557748 0.009658164
0.0202394 -0.040709578 0.024744196 0.021387283 0.008202156 0.03478671 0.028808465 0.09340517

model.13.bias f4 [64]
00000000: 1869 b63c 3b4d b63c 4f67 303d 6e4b 01bd
00000010: 818a 9b39 06ee 533c db77 8d3d a2b2 f8bb
00000020: 13eb c3bc 4e95 89bb 90e7 67bc b807 ae3c
00000030: f675 cebb 05ad b83c 1239 453c e9ec 8e3b
00000040: d357 89bc ca3d 2d3d 05f4 183d 231a 0a3d
00000050: 36cc 393d c203 19bd 0b7c 633c ef12 afbc
00000060: 6156 a0bb d23c e63c 4305 2e3c ea1b 1b3b
00000070: 8e3e 45bc 1422 623c 5232 f23c 94a4 ebbc
00000080: 887b 27bd ee4e 703d d381 b73b 5d1d 93bc
00000090: d474 d03c 9db5 013d c414 25bd c3fc 6e3d
000000a0: 1d85 833c 8493 a93c c91a c43c 9cf4 ff3c
000000b0: 598b 883c 01bf 013d 371b 183d 9af3 423d
000000c0: a71c 643d a693 8abc f3c1 6fbb 1d37 57bc
000000d0: 0890 1fbd 457e 70bc 95f9 093d fa90 43bb
000000e0: e98c 96bc 716d bfbb 4ef6 9fbc a895 273d
000000f0: 364a 5dbd ceec f93a 768b 48bb 3688 1dbd
0.02226691 0.022253623 0.043067273 -0.031566076 0.00029667097 0.012935167 0.06907626 -0.007589654
-0.023915803 -0.0041987067 -0.01415433 0.021243915 -0.006300683 0.02254344 0.012037532 0.004361738
-0.01676551 0.042295255 0.03734209 0.033716332 0.045360766 -0.0373571 0.013884555 -0.021371333
-0.0048931097 0.028105173 0.010621372 0.002366776 -0.01203884 0.01380207 0.02956501 -0.028765
-0.040889293 0.058669023 0.005600193 -0.017958337 0.025446333 0.03166734 -0.040303007 0.05834652
0.016054684 0.020700224 0.023938553 0.031244569 0.016668009 0.031676296 0.03713533 0.047595598
0.055691388 -0.016916107 -0.0036584109 -0.013135699 -0.03895572 -0.0146785425 0.033685286 -0.0029841051
-0.018377738 -0.005841904 -0.019526627 0.040914208 -0.05402585 0.0019067766 -0.0030600703 -0.03845998
