imitation_learning/models/h1-lr1e-05-agent.pt (torch, 959856 bytes, 34 tensors)

model.0.weight f4 [16, 1, 7, 7]
0.04570961 -0.03820813 0.058929775 0.0029166602 0.008348058 0.0032469213 -0.03769183 0.055570703
0.020680461 0.07424706 -0.026216337 -0.1271547 0.083679184 0.013521495 0.11836402 0.1352628
0.08108315 -0.13853334 -0.048454445 0.12683837 0.05439788 0.0045104036 -0.094834626 0.081323445
-0.0056832023 -0.053722594 0.012971117 -0.10059992 0.040407605 0.12248706 -0.10618355 -0.13984644
-0.07934385 0.14341113 0.054826416 0.042026304 0.06862495 -0.02540802 0.12063836 -0.026934816
-0.12963927 -0.08117787 -0.08057113 0.12787183 0.093059085 0.13289493 -0.07280267 -0.11725573
0.03410117 0.09932581 0.07636454 -0.00849901 -0.048372824 -0.10920402 -0.06644534 0.03206402
0.032157227 0.1211563 -0.06282465 0.06948104 -0.018722275 -0.06906159 0.028385747 -0.07428998
-0.10301173 0.009064583 -0.0916508 -0.10308347 -0.11123971 0.07122624 0.13228393 -0.10859293
-0.08259596 0.00038716506 0.13871667 -0.0016864206 0.053223193 0.08008818 0.007175028 0.0069896984
0.12230498 -0.020214653 0.06589102 -0.060305 0.084672555 0.032024406 -0.079056755 -0.09280867
0.088379085 0.1192537 -0.072197884 -0.026232071 0.084262036 -0.02629201 -0.087637044 -0.005063797
0.11522551 -0.08347663 -0.0502214 -0.06819403 0.04029411 0.13780221 -0.13367757 0.007965089
-0.058107752 -0.06382912 -0.087156035 0.05004206 -0.0007104487 -0.10789344 0.0067945863 0.043875206
0.12953497 -0.13207586 -0.08700222 -0.05060729 -0.0050205 -0.03333691 0.020432798 -0.0027850291
-0.0066819247 0.037906215 -0.0124655375 0.010548019 0.06570495 -0.020143252 -0.119803004 0.09587245
-0.06767653 -0.13007204 0.040085662 -0.015177235 0.024578674 0.14039111 -0.029530011 0.02450479
0.13662612 0.022992698 0.1382521 -0.09641609 0.12835322 -0.056131676 -0.07508299 -0.09207969
0.09763527 -0.13140006 0.030999653 0.040000938 -0.0639429 -0.09740228 -0.046185903 0.043290596
0.007112108 0.078407414 0.065689325 -0.020405881 0.020547396 -0.121617526 0.09381613 0.10219472
0.1200955 0.017667366 0.043534357 -0.12564977 0.134857 0.04413154 -0.103035286 0.14232971
0.03955548 -0.09430655 0.06635665 0.13755028 -0.11467464 -0.02481188 -0.042549077 -0.06081501
-0.046243448 0.113286465 0.0685199 -0.088918336 -0.10694968 0.0023755238 -0.0910014 0.068982564
0.138551 -0.040771637 0.024168542 -0.1022732 0.024150934 0.108392686 0.1370859 -0.11226012
-0.07141476 -0.112992905 -0.116395384 -0.098787576 -0.12978244 0.08532471 0.0955154 0.13194264
0.046028215 -0.048268046 -0.052618306 0.10681399 -0.021991879 -0.04523486 -0.025724512 0.012522815
-0.095152214 -0.030610388 -0.005126947 -0.10448679 -0.087343864 -0.029305458 0.0598358 0.12317181
0.008461554 -0.03923004 0.14120466 0.034575608 -0.010333451 -0.011282981 0.036021393 0.007854849
0.01440044 -0.116246715 -0.03047693 0.10934329 -0.06749832 -0.029793268 -0.11463197 0.138698
-0.006042033 0.10577265 0.117823616 0.09423954 -0.04269978 -0.041153476 -0.014875842 -0.00016559743
0.10182663 0.0071561183 -0.077709295 -0.047502484 -0.111548394 0.112576224 -0.106082946 -0.13311604
-0.11193889 -0.10813695 -0.063318 -0.053839635 -0.07100744 0.07123035 -0.015950056 -0.13944386
00000000: 003a 3b3d 2180 1cbd 5960 713d 7025 3f3b
00000010: 4bc6 083c 4dca 543b c062 1abd 1b9e 633d
00000020: 126a a93c d80e 983d a5c3 d6bc d734 02be
00000030: fe5f ab3d 4389 5d3c d668 f23d 5582 0a3e
00000040: ec0e a63d afdb 0dbe 2b78 46bd ebe1 013e
00000050: 50d0 5e3d 02cc 933b a838 c2bd e88c a63d
00000060: 283a babb 390c 5cbd cf84 543c 5507 cebd
00000070: 7282 253d 7fda fa3d c376 d9bd e833 0fbe
00000080: 077f a2bd 5eda 123e aa91 603d c623 2c3d
00000090: 3d8b 8c3d 7b24 d0bc 3f11 f73d 67a6 dcbc
000000a0: 28c0 04be 9540 a6bd 7a02 a5bd d5f0 023e
000000b0: c395 be3d 9c15 083e 9119 95bd c623 f0bd
000000c0: abad 0b3d 556b cb3d 0365 9c3d 6e3f 0bbc
000000d0: 9522 46bd 5ba6 dfbd 7f14 88bd 9055 033d
000000e0: 4cb7 033d cb20 f83d 36aa 80bd 134c 8e3d
000000f0: 755f 99bc 2a70 8dbd 3a89 e83c 5825 98bd
00000100: d0f7 d2bd 9e83 143c 6ab3 bbbd 6d1d d3bd
00000110: a5d1 e3bd 10df 913d 7075 073e f865 debd
00000120: 1228 a9bd 6afc ca39 be0b 0e3e e30a ddba
00000130: 9000 5a3d 4605 a43d 7f1c eb3b d709 e53b
00000140: 097b fa3d 3399 a5bc dff1 863d 6002 77bd
00000150: ce68 ad3d 062c 033d 82e8 a1bd 7912 bebd
00000160: 1800 b53d 493b f43d 7cdc 93bd a4e4 d6bc
00000170: 9391 ac3d 5762 d7bc 0d7b b3bd 35ee a5bb
00000180: 5afb eb3d ccf5 aabd f4b4 4dbd 50a9 8bbd
00000190: 700b 253d 061c 0d3e c6e2 08be 0180 023c
000001a0: 6502 6ebd d7b8 82bd dd7e b2bd e7f8 4c3d
000001b0: 683d 3aba 3cf7 dcbd 1fa5 de3b 7db6 333d
000001c0: d1a4 043e e53e 07be 382e b2bd 9749 4fbd
000001d0: 0283 a4bb 498c 08bd af62 a73c 0985 36bb
000001e0: 0cf4 dabb 8c43 1b3d 413c 4cbc 99d1 2c3c
000001f0: 5190 863d 7603 a5bc 475b f5bd c658 c43d
00000200: fe99 8abd 9b31 05be dd30 243d f0a9 78bc
00000210: 3759 c93c b0c2 0f3e ece8 f1bc 45be c83c
00000220: b8e7 0b3e 2f5b bc3c f591 0d3e cd75 c5bd
00000230: 076f 033e 54ea 65bd 1cc5 99bd 4794 bcbd
00000240: 00f5 c73d bd8d 06be fcf2 fd3c 06d8 233d
00000250: 7ff4 82bd d97a c7bd 6e2d 3dbd 7b51 313d
00000260: b00c e93b 1194 a03d 2088 863d 3c2a a7bc
00000270: 0353 a83c 9c12 f9bd ac22 c03d 774b d13d
00000280: a1f4 f53d 27bb 903c 1551 323d 55aa 00be
00000290: f417 0a3e 46c3 343d 2a04 d3bd e1be 113e
000002a0: ed04 223d cb23 c1bd ffe5 873d fbd9 0c3e
000002b0: 8ada eabd 4942 cbbc f147 2ebd 2919 79bd
000002c0: c569 3dbd bc02 e83d 2954 8c3d d11a b6bd
000002d0: 6f08 dbbd adae 1b3b f15e babd bb46 8d3d
000002e0: 50e0 0d3e 2900 27bd 1bfd c53c 9d74 d1bd
000002f0: 2ed8 c53c fcfc dd3d 3f60 0c3e a2e8 e5bd
00000300: e741 92bd d368 e7bd b460 eebd 2451 cabd
00000310: b0e5 04be b9be ae3d 949d c33d f91b 073e
00000320: 1588 3c3d b7b4 45bd 4b86 57bd 4bc1 da3d
00000330: 5028 b4bc 3048 39bd 36bc d2bc 7e2c 4d3c
00000340: 2adf c2bd a3c2 fabc f3ff a7bb 2cfd d5bd
00000350: 57e1 b2bd 0012 f0bc 6216 753d 8041 fc3d
00000360: 54a2 0a3c aeaf 20bd f497 103e 279f 0d3d
00000370: a34d 29bc 41dc 38bc 2b8b 133d a0b1 003c
00000380: d3ef 6b3c c212 eebd c1aa f9bc 60ef df3d
00000390: 8f3c 8abd 0311 f4bc 2bc4 eabd d906 0e3e
000003a0: 3ffc c5bb 559f d83d 824d f13d a900 c13d
000003b0: f7e5 2ebd 8c90 28bd ceb9 73bc 39a4 2db9
000003c0: 7b8a d03d df7d ea3b 0d26 9fbd f791 42bd
000003d0: 7c73 e4bd 5d8e e63d 0442 d9bd 924f 08be
000003e0: 3740 e5bd e876 ddbd deac 81bd f386 5cbd
000003f0: 596c 91bd 38e1 913d b1a9 82bc 5fca 0ebe

model.0.bias f4 [16]
-0.0886047 -0.052840985 -0.012436196 -0.021847598 -0.12597096 0.042571913 0.09672881 -0.09532634
-0.012168567 -0.04185904 0.11555931 -0.006116017 0.120792225 0.07978114 0.0678169 -0.06561547
00000000: 6276 b5bd ca6f 58bd 30c1 4bbc bcf9 b2bc
00000010: 88fe 00be e35f 2e3d c119 c63d 753a c3bd
00000020: ab5e 47bc 6274 2bbd 5caa ec3d de68 c8bb
00000030: ea61 f73d 4b64 a33d 96e3 8a3d 6761 86bd

model.1.weight f4 [16]
0.9971659 0.99689174 1.002103 1.0009651 0.9980798 0.9992241 0.99866664 1.0017273
1.0000477 0.9973989 0.9983674 1.0016803 0.99985045 1.001218 1.0024785 1.0008901
00000000: 4446 7f3f 4c34 7f3f e944 803f a01f 803f
00000010: 2882 7f3f 27cd 7f3f 9ea8 7f3f 9a38 803f
00000020: 9001 803f 8955 7f3f 0295 7f3f 0f37 803f
00000030: 33f6 7f3f e927 803f 3751 803f 2b1d 803f

model.1.bias f4 [16]
0.0012649051 0.0010657861 0.00072972453 0.0015188591 -4.4580545e-05 0.0017043297 -2.2232623e-05 0.00064620323
-0.00070282305 -0.0013945095 0.00075370126 0.0014203438 0.00023271388 0.0014289448 0.0020919042 0.0023393214
00000000: 2ccb a53a d9b1 8b3a fc4a 3f3a 7414 c73a
00000010: fffb 3ab8 d163 df3a 3280 bab7 f765 293a
00000020: a83d 38ba f9c7 b6ba 0994 453a d42a ba3a
00000030: a804 7439 6e4b bb3a 5418 093b 4d4f 193b

model.1.running_mean f4 [16]
62.074303 6.7832437 -45.22792 -1.0928854 20.472183 -172.38037 -106.50738 -64.77304
-0.749915 71.70365 69.24583 -71.907394 -58.42815 -122.00714 -6.041696 92.695045
00000000: 164c 7842 5510 d940 64e9 34c2 abe3 8bbf
00000010: 08c7 a341 6061 2cc3 c703 d5c2 cc8b 81c2
00000020: 6efa 3fbf 4568 8f42 dd7d 8a42 96d0 8fc2
00000030: 6db6 69c2 a803 f4c2 9355 c1c0 dd63 b942

model.1.running_var f4 [16]
682.54297 193.35388 353.53232 277.67905 231.74344 4166.5566 2011.3551 931.7306
252.78441 1012.6584 717.33856 841.9285 780.97485 2175.9272 145.99232 1855.8334
00000000: c0a2 2a44 985a 4143 23c4 b043 ebd6 8a43
00000010: 52be 6743 7434 8245 5d6b fb44 c2ee 6844
00000020: cfc8 7c43 232a 7d44 ab55 3344 6d7b 5244
00000030: 643e 4344 d6fe 0745 09fe 1143 abfa e744

model.4.weight f4 [32, 16, 3, 3]
0.018733423 -0.032364607 0.0071010264 -0.01375042 0.074040405 0.025745733 0.06519054 0.07336948
-0.050645426 0.04574322 -0.031264886 0.07001971 0.07716334 0.060175136 0.0026467291 -0.036879506
0.07966054 0.08148593 0.008501068 -0.05480919 0.045190662 -0.053435527 -0.04506454 -0.054591466
0.033823956 -0.004313256 0.015224284 -0.01568981 0.044350363 -0.008256496 0.04818919 0.054832313
-0.056782108 0.026334126 0.04177418 0.011852924 0.011436725 0.0794239 0.051219493 0.034194946
0.04595232 -0.02381989 -0.013326596 -0.058089327 -0.065079875 -0.056338497 0.07227557 -0.01515128
0.053433817 -0.056135204 0.07484978 0.008546071 0.005891291 0.038027797 -0.06915731 -0.0030017511
0.05200907 0.03114441 -0.061801307 -0.04244147 0.06692803 0.052366193 -0.07643838 -0.07168316
0.022826357 0.006181652 -0.027708698 0.056797124 0.009172141 -0.08137822 -0.08330238 -0.04649452
0.053280976 0.0796846 -0.07834814 -0.058212217 -0.08168821 0.065490976 -0.03972249 -0.027690975
-0.08265044 0.06909166 0.024873445 0.06336709 0.06785467 -7.2327835e-05 0.06871361 -0.069007166
-0.0065702917 -0.07799466 -0.061586075 0.040527727 -0.073288575 0.01647512 -0.060212217 -0.014407114
0.07295027 0.0026207517 -0.03896138 0.05972337 0.053023104 0.075470455 -0.064787626 0.04234644
-0.028960355 -0.015711188 -0.03512875 -0.0076365126 0.017121881 0.022550974 -0.029482013 -0.07609059
0.037305236 -0.06450672 0.015775908 0.014963247 -0.06627502 -0.078363396 -0.010659016 -0.005587192
-0.020196114 -0.045075756 -0.029793112 -0.03802493 -0.081564285 -0.06973141 -0.040794853 -0.01596348
-0.0030003963 -0.00962181 0.012329837 0.038191937 0.048271038 -0.07721571 -0.03783109 0.0028195085
0.015407392 0.004732705 0.010338274 0.019953428 -0.028826658 0.06589578 -0.05308128 0.008322005
-0.024254259 0.018423488 -0.02276818 0.019647792 -0.017185748 -0.016748292 0.052224886 0.039390244
0.07835082 0.012206314 0.08024585 0.07019814 -0.039717812 -0.036355987 -0.035594642 0.07024476
-0.05578459 -0.0692418 -0.07421065 -0.0004840665 -0.0036062675 -0.047331296 0.06640926 0.047975197
-0.034761783 -0.047067925 -0.072532326 0.0014664583 -0.06949841 0.018626472 0.010596703 -0.0628868
0.023877643 -0.08160069 0.033896927 0.04167236 -0.024983605 -0.07739262 -0.01918576 -0.029144045
-0.049997557 0.04231987 -0.050681613 0.045952573 -0.03908557 -0.0007601452 -0.0264189 -0.037170243
0.0034037842 -0.071334325 0.04300556 0.08272665 0.03237721 -0.027156506 -0.047050666 -0.06249364
0.07919549 0.076126024 -0.045448367 0.039986875 -0.017761657 0.057095204 0.030368464 -0.037581537
0.035534404 0.011702145 0.024629913 0.01849313 -0.04928658 0.054882556 -0.00033271094 0.035858296
-0.042907465 -0.008759354 -0.06786966 -0.065037146 0.0011043099 -0.06256245 -0.031093972 0.053184558
0.078269646 0.031454623 -0.057320185 -0.08164313 0.054884046 -0.0374054 -0.021441463 0.070159666
-0.0517234 -0.041189004 -0.0016876631 0.0254992 0.032180462 0.053958636 0.06636386 -0.015232728
0.045072433 0.020669274 0.068366416 0.03080414 -0.024483401 -0.029279094 -0.079626344 -0.07285068
0.064087994 0.029560013 0.0074064983 0.073277615 0.06203766 0.0543223 -0.076340474 -0.04015395
00000000: d676 993c c090 04bd baaf e83b 7149 61bc
00000010: 7fa2 973d b7e8 d23c 9e82 853d bd42 963d
00000020: 9471 4fbd 3e5d 3b3d 9c0f 00bd 7e66 8f3d
00000030: d007 9e3d 347a 763d bf74 2d3b f70e 17bd
00000040: 1125 a33d 18e2 a63d 1048 0b3c 9a7f 60bd
00000050: d819 393d 36df 5abd 9895 38bd 4d9b 5fbd
00000060: fd8a 0a3d 3756 8dbb 466f 793c eb87 80bc
00000070: baa8 353d 4146 07bc 0762 453d d997 603d
00000080: 5b94 68bd aaba d73c 671b 2b3d c432 423c
00000090: 1a61 3b3c ffa8 a23d 88cb 513d 0010 0c3d
000000a0: 8038 3c3d ee21 c3bc cb57 5abc 13ef 6dbd
000000b0: 9948 85bd 32c3 66bd 3705 943d 133d 78bc
000000c0: 6bdd 5a3d 07ee 65bd d74a 993d d204 0c3c
000000d0: bb0b c13b 09c3 1b3d 59a2 8dbd 07b9 44bb
000000e0: 7607 553d 9022 ff3c 5e23 7dbd 1bd7 2dbd
000000f0: 9011 893d ef7d 563d ba8b 9cbd 9fce 92bd
00000100: 57fe ba3c 758f ca3b 5afd e2bc 1aa4 683d
00000110: bf46 163c a0a9 a6bd 709a aabd 0a71 3ebd
00000120: 273d 5a3d ae31 a33d fd74 a0bd ef6f 6ebd
00000130: 264c a7bd 2220 863d 0db4 22bd 2fd8 e2bc
00000140: a244 a9bd ee7f 8d3d 65c3 cb3c 9bc6 813d
00000150: 64f7 8a3d b6ae 97b8 b9b9 8c3d a153 8dbd
00000160: 9a4b d7bb aabb 9fbd ae41 7cbd 6700 263d
00000170: 5218 96bd d5f6 863c 16a1 76bd d10b 6cbc
00000180: f366 953d ebc0 2b3b f895 1fbd 7ea0 743d
00000190: c12e 593d 4190 9a3d 60af 84bd 7673 2d3d
000001a0: 443e edbc c0b4 80bc 2ae3 0fbd b63b fabb
000001b0: 3043 8c3c d2bc b83c 4384 f1bc 62d5 9bbd
000001c0: 60cd 183d 191c 84bd 7a3c 813c 6828 753c
000001d0: 33bb 87bd fd7c a0bd 27a3 2ebc c314 b7bb
000001e0: 5272 a5bc 5ba1 38bd af10 f4bc 07c0 1bbd
000001f0: 2d0b a7bd 57cf 8ebd 8118 27bd d8c5 82bc
00000200: 4ca2 44bb cca4 1dbc 1603 4a3c 266f 1c3d
00000210: dab7 453d 4523 9ebd c6f4 1abd 81c7 383b
00000220: 496f 7c3c cf14 9b3b dd61 293c 5f75 a33c
00000230: e225 ecbc 5ef4 863d c26b 59bd 0559 083c
00000240: deb0 c6bc dbec 963c 5684 babc 68f4 a03c
00000250: 20c9 8cbc b733 89bc c3e9 553d aa57 213d
00000260: 6576 a03d fefc 473c f057 a43d 0bc4 8f3d
00000270: 25af 22bd 04ea 14bd b0cb 11bd 7cdc 8f3d
00000280: 627e 64bd a5ce 8dbd c1fb 97bd 4eca fdb9
00000290: 2157 6cbb 76de 41bd 9401 883d a481 443d
000002a0: 5f62 0ebd 4cca 40bd d48b 94bd 2d36 c03a
000002b0: 2f55 8ebd 8b96 983c cb9d 2d3c cbca 80bd
000002c0: 0c9b c33c 431e a7bd 81d7 0a3d a3b0 2a3d
000002d0: 6baa ccbc 0680 9ebd 742b 9dbc 7ebf eebc
000002e0: 3dca 4cbd 9a57 2d3d 8697 4fbd c438 3c3d
000002f0: 3118 20bd 7b44 47ba 736c d8bc d33f 18bd
00000300: 0612 5f3b bb17 92bd 9926 303d 976c a93d
00000310: f79d 043d 5277 debc 33b8 40bd 55f9 7fbd
00000320: 3f31 a23d f6e7 9b3d 1128 3abd 47c9 233d
00000330: e580 91bc a9dc 693d 49c7 f83c 19ef 19bd
00000340: 868c 113d 5bba 3f3c acc4 c93c e87e 973c
00000350: bae0 49bd 88cc 603d b56f aeb9 26e0 123d
00000360: bdbf 2fbd 6583 0fbc 40ff 8abd 3232 85bd
00000370: 7ebe 903a be20 80bd c9b8 febc 0dd8 593d
00000380: d64b a03d 90d6 003d 92c8 6abd 8334 a7bd
00000390: 18ce 603d 6836 19bd 02a6 afbc dfaf 8f3d
000003a0: eadb 53bd cdb5 28bd 9434 ddba b3e3 d03c
000003b0: a9cf 033d bb03 5d3d c7e9 873d b192 79bc
000003c0: df9d 383d 9c52 a93c b103 8c3d f758 fc3c
000003d0: 6a91 c8bc b6da efbc 2313 a3bd bd32 95bd
000003e0: 9140 833d d727 f23c 36b2 f23b 9312 963d
000003f0: 341b 7e3d 0f81 5e3d 6558 9cbd 7878 24bd

model.4.bias f4 [32]
0.009289714 0.039383773 0.01760694 -0.05088886 -0.018219026 -0.05784021 0.0288714 -0.07873703
0.053767856 -0.047622032 -0.011935674 -0.044410057 0.0677618 -0.039636713 0.07487378 -0.017534994
-0.0248682 0.009772785 -0.060317747 -0.037015125 -0.07506467 0.011521346 0.048267026 -0.0152565995
-0.042119116 -0.04592496 -0.082490884 -0.025480935 0.04539292 -0.029885055 -0.067396924 -0.05859047
00000000: e233 183c e150 213d 6e3c 903c d670 50bd
00000010: 1140 95bc dbe9 6cbd b783 ec3c e140 a1bd
00000020: af3b 5c3d 520f 43bd d88d 43bc 52e7 35bd
00000030: b3c6 8a3d 1b5a 22bd 6d57 993d 8ca5 8fbc
00000040: 65b8 cbbc 081e 203c be0f 77bd 2c9d 17bd
00000050: 81bb 99bd 07c4 3c3c a5b3 453d d1f6 79bc
00000060: 1885 2cbd d01b 3cbd fbf0 a8bd 65bd d0bc
00000070: eded 393d 81d1 f4bc 6607 8abd 90fc 6fbd

model.5.weight f4 [32]
1.000972 0.9959551 1.0005013 1.0015138 1.0027156 1.0001246 1.000991 1.0007169
1.0025655 0.9996523 1.0001723 0.999348 1.0007615 1.0004785 1.0021507 0.9997746
0.9989884 0.99898857 0.99730855 0.9985732 1.0022223 1.0007248 0.9980239 1.000067
0.99942017 1.0009322 0.9987789 0.99805826 1.0006781 1.0018979 1.0010318 0.9977729
00000000: da1f 803f eaf6 7e3f 6d10 803f 9b31 803f
00000010: fc58 803f 1504 803f 7920 803f 7e17 803f
00000020: 1154 803f 37e9 7f3f a505 803f 45d5 7f3f
00000030: f418 803f ae0f 803f 7946 803f 3af1 7f3f
00000040: b4bd 7f3f b7bd 7f3f 9d4f 7f3f 7ea2 7f3f
00000050: d248 803f c017 803f 7f7e 7f3f 3202 803f
00000060: 00da 7f3f 8c1e 803f f9af 7f3f bf80 7f3f
00000070: 3816 803f 313e 803f cf21 803f 0b6e 7f3f

model.5.bias f4 [32]
0.0004659608 -0.0028641515 0.00096680643 -0.0009027798 0.00044648757 -0.00018594095 -0.00074728247 -0.00030595245
0.0032024959 -0.00023985337 0.001306054 -0.0008214004 0.0032113055 0.00097344804 0.0014724911 0.0008538529
-0.0017791513 0.0008428255 -0.0007025912 0.00036892164 0.0020206985 0.0015660211 -0.000115378054 -0.00040039665
-0.0007903251 0.0010115118 -0.0018839996 -0.000837794 -0.0004196641 0.0004043637 0.0019320083 -0.0010313753
00000000: 334c f439 7db4 3bbb 4871 7d3a 87a8 6cba
00000010: 8c16 ea39 25f9 42b9 47e5 43ba 3e68 a0b9
00000020: f7e0 513b 2681 7bb9 e62f ab3a 3f53 57ba
00000030: c474 523b fe2e 7f3a 9a00 c13a 19d5 5f3a
00000040: 6932 e9ba 10f1 5c3a 192e 38ba d36b c139
00000050: b26d 043b f342 cd3a 1ff7 f1b8 54ec d1b9
00000060: d22d 4fba b494 843a 89f0 f6ba 679f 5bba
00000070: 5d06 dcb9 c700 d439 713b fd3a 362f 87ba

model.5.running_mean f4 [32]
-0.06572937 0.23287241 0.009407863 0.049099997 0.0031606269 -0.06771087 0.07762729 -0.14298537
-0.20490333 0.17449209 -0.40346956 0.2191801 0.0490447 -0.20477323 -0.2806357 0.04828658
0.16460545 -0.33560774 0.2237049 0.023563458 -0.32130623 -0.12568513 0.09784065 0.16009374
0.17080393 0.04500785 0.16922282 -0.0415584 0.44621408 -0.097185396 -0.41175115 -0.06537261
00000000: 1f9d 86bd 1b76 6e3e 7023 1a3c 141d 493d
00000010: 8522 4f3b ffab 8abd 0efb 9e3d c26a 12be
00000020: 2ed2 51be 0eae 323e 9093 cebe c070 603e
00000030: 18e3 483d 13b0 51be 7caf 8fbe 26c8 453d
00000040: 558e 283e c7d4 abbe e612 653e 2708 c13c
00000050: 4082 a4be 9ab3 00be ae60 c83d 9def 233e
00000060: 3ae7 2e3e 275a 383d bf48 2d3e 2439 2abd
00000070: 2c76 e43e 2309 c7bd 0cd1 d2be 13e2 85bd

model.5.running_var f4 [32]
0.2587272 0.029411582 0.05418319 0.028498584 0.026896866 0.14969786 0.023780039 0.13882004
0.060488325 0.13992824 0.12713404 0.106915 0.07096037 0.17310801 0.044176757 0.041879013
0.016478507 0.2686916 0.07907116 0.052693605 0.19789988 0.4252018 0.09200116 0.08056342
0.09824606 0.051423818 0.15177788 0.122700505 0.11052131 0.028161302 0.21298522 0.021121738
00000000: e477 843e 8ff0 f03c 31ef 5d3d dd75 e93c
00000010: d156 dc3c 654a 193e 5bce c23c d726 0e3e
00000020: 9bc2 773d 5949 0f3e 6d2f 023e 40f6 da3d
00000030: ac53 913d 3a43 313e b0f2 343d 5489 2b3d
00000040: effd 863c f291 893e 0ff0 a13d 40d5 573d
00000050: 44a6 4a3e 0db4 d93e 1b6b bc3d 6ffe a43d
00000060: 3b35 c93d c8a1 523d a96b 1b3e 674a fb3d
00000070: ff58 e23d 88b2 e63c cc18 5a3e 7f07 ad3c

model.7.weight f4 [32, 32, 3, 3]
0.051059544 0.037762515 -0.05313077 0.050185457 0.026828442 0.0014153526 -0.025125762 0.058332007
0.028134376 -0.0050150417 0.028847104 0.022211535 0.0052847303 -0.035114367 0.012951838 0.052315738
-0.008045552 -0.008752955 -0.02644792 -0.04870907 0.051654223 -0.041354243 -0.055791494 -0.050919276
0.04861349 0.012439506 -0.0023077845 -0.04804677 -0.0016199125 -0.028963175 0.008009943 -0.0047721737
-0.008382607 -0.043653 0.03117218 0.02222127 0.02672757 -0.00013759262 0.031062877 -0.0111383
0.001734849 -0.0008820416 0.023534747 0.035222124 -0.051273957 -0.024612088 -0.043820776 -0.038966164
-0.036766898 0.016703596 0.04950801 0.03637741 0.018425986 0.028757133 -0.05353024 0.027518231
0.057567894 0.054053858 0.0056479564 0.0023142432 -0.020058353 -0.0012269745 0.021350445 0.05057381
0.013036941 0.046643697 0.03662949 0.0013544486 0.04147761 0.04810208 0.014861881 0.0068559586
0.01627602 0.008979705 -0.050526965 0.04855611 0.00077803526 -0.02225462 0.056933712 0.030814476
-0.0020456098 -0.026834074 -0.035287037 0.023409452 -0.0064083696 -0.035960384 -0.0045929025 0.03783362
0.036980785 -0.046060715 -0.013367683 0.003979935 -0.018162077 -0.046535727 -0.05259234 -0.042456444
0.05450457 -0.04896715 0.017681366 0.0414678 -0.03772032 0.014956458 0.01209093 -0.053790532
0.026152797 -0.011037141 0.033377536 -0.011117761 -0.047792636 -0.035609316 -0.04151204 -0.029382044
-0.023691501 0.057254426 0.012250009 0.034624774 0.03444596 -0.02368973 0.046918783 -0.04532125
0.015613996 -0.025951086 0.056915056 -0.04426872 0.05607368 -0.04317738 0.03098978 0.043862574
-0.046417836 -0.009534664 0.03456255 0.012202131 0.046079397 -0.052931655 -0.015959244 0.0370399
0.05583937 0.0064309826 0.055109426 -0.018322775 -0.03492148 -0.03292935 -0.008879199 -0.022677109
-0.055675473 -0.0021809929 0.06041071 0.01683243 0.0040569073 -0.05214427 -0.013822815 -0.03428554
-0.0439536 -0.04309555 -0.055818766 0.048580777 0.058303975 -0.021128982 0.05122152 -0.046310812
-0.054662805 -0.057210375 0.030373871 0.0497368 -0.03521567 0.02359724 0.03970631 0.040651385
-0.04993899 -0.004222614 0.058183983 -0.010897195 0.040111914 -0.026928037 0.044759292 0.010455394
0.044678785 0.031604216 -0.05276036 0.048767347 -0.012327576 -0.05473597 -0.030661974 -0.02792859
0.039606556 -0.04026993 -0.017585179 0.037523642 0.004750602 -0.0073025054 0.018071484 0.05507275
0.026080746 0.051578846 0.017939568 -0.002105734 -0.025194485 -0.000586176 -0.020712784 0.0520906
-0.020627944 0.029692763 0.013580787 0.051957652 -0.046787154 0.016910998 -0.008444855 -0.005573684
0.002705659 0.054750506 0.05184492 0.05315169 0.023882117 0.012274513 0.017338943 -0.008896034
-0.032522928 -0.017525978 0.047535155 0.030120594 0.0037429656 -0.045751285 -0.0471508 -0.026302706
-0.03696109 -0.0024072737 0.043020733 -0.010595795 0.008361558 0.05782171 0.036963496 0.038175594
-0.01297104 -0.0059992173 -0.039321918 0.0042474475 -0.0016889083 -0.010007439 0.04362777 0.03558482
0.01807816 0.040144898 -0.045406677 -0.05350527 0.040012706 -0.018577931 0.0016697239 0.028546568
-0.0063291304 0.03114984 -0.013688238 -0.05968612 0.041622248 0.025998041 0.052620385 0.03029537
00000000: d023 513d deac 1a3d a69f 59bd 448f 4d3d
00000010: 52c7 db3c 5a83 b93a 8bd4 cdbc 8bed 6e3d
00000020: 107a e63c 3855 a4bb c350 ec3c f7f4 b53c
00000030: 882b ad3b 15d4 0fbd f233 543c 0749 563d
00000040: 7ed1 03bc 8e68 0fbc 4fa9 d8bc 2983 47bd
00000050: 6193 533d 1163 29bd 9f85 64bd bb90 50bd
00000060: f01e 473d 12cf 4b3c 333e 17bb b1cc 44bd
00000070: 3e53 d4ba 2e44 edbc 233c 033c e55f 9cbb
00000080: 3457 09bc 7dcd 32bd cd5c ff3c 6109 b63c
00000090: c7f3 da3c bd46 10b9 9377 fe3c 6b7d 36bc
000000a0: df63 e33a cf38 67ba f1cb c03c 1345 103d
000000b0: a404 52bd 4a9f c9bc 6a7d 33bd fc9a 1fbd
000000c0: e398 16bd fbd5 883c e9c8 4a3d 7b00 153d
000000d0: 18f2 963c 1494 eb3c 8642 5bbd ea6d e13c
000000e0: 50cc 6b3d 9467 5d3d 7e12 b93b 8faa 173b
000000f0: 6a51 a4bc 6fd2 a0ba 21e7 ae3c 7c26 4f3d
00000100: e598 553c 760d 3f3d ce08 163d c187 b13a
00000110: 6de4 293d b006 453d 3f7f 733c f3a7 e03b
00000120: 4a55 853c 9d1f 133c 5df5 4ebd c6e2 463d
00000130: 10f5 4b3a 524f b6bc 5333 693d a46e fc3c
00000140: a30f 06bb 22d3 dbbc 2489 10bd 2ec5 bf3c
00000150: 4dfd d1bb 324b 13bd 0f80 96bb 6df7 1a3d
00000160: 2a79 173d 29aa 3cbd 2004 5bbc 1d6a 823b
00000170: a3c8 94bc 3f9c 3ebd 116b 57bd cfe6 2dbd
00000180: 2f40 5f3d c791 48bd 83d8 903c 24da 293d
00000190: 9f80 1abd ee0b 753c 0919 463c 7653 5cbd
000001a0: 643e d63c 20d5 34bc e2b6 083d 4527 36bc
000001b0: 36c2 43bd 13db 11bd 8708 2abd 9db2 f0bc
000001c0: ae14 c2bc 9e83 6a3d 43b4 483c b5d2 0d3d
000001d0: 3517 0d3d f710 c2bc e92d 403d c6a2 39bd
000001e0: d9d1 7f3c 5f97 d4bc c31f 693d 1e53 35bd
000001f0: 84ad 653d c4da 30bd 47de fd3c 3ea9 333d
00000200: a120 3ebd 4837 1cbc 7691 0d3d 72eb 473c
00000210: c0bd 3c3d ddce 58bd f6bc 82bc 26b7 173d
00000220: d3b7 643d feba d23b 6cba 613d a519 96bc
00000230: d309 0fbd ede0 06bd 0f7a 11bc 58c5 b9bc
00000240: f70b 64bd fdee 0ebb 3871 773d 2ae4 893c
00000250: ceef 843b 3b95 55bd 1779 62bc ff6e 0cbd
00000260: b108 34bd f684 30bd 38a2 64bd a3fc 463d
00000270: 26d0 6e3d b016 adbc a8cd 513d 68b0 3dbd
00000280: 1be6 5fbd 6d55 6abd a0d2 f83c d1b8 4b3d
00000290: 4e3e 10bd 004f c13c 15a3 223d 1182 263d
000002a0: d48c 4cbd db5d 8abb 5452 6e3d 268a 32bc
000002b0: 644c 243d 3098 dcbc 8555 373d 1a4d 2b3c
000002c0: 1a01 373d 6c73 013d 3f1b 58bd 45c0 473d
000002d0: 9af9 49bc d332 60bd d22e fbbc 80ca e4bc
000002e0: 7c3a 223d 15f2 24bd cb0e 90bc 64b2 193d
000002f0: f0aa 9b3b db49 efbb a60a 943c f793 613d
00000300: 4aa7 d53c 5744 533d 00f6 923c 5b00 0abb
00000310: aa64 cebc 9ba9 19ba dbad a9bc f45c 553d
00000320: effb a8bc 3d3e f33c f381 5e3c 8cd1 543d
00000330: e3a3 3fbd ef88 8a3c 4a5c 0abc 73a3 b6bb
00000340: 6d51 313b 1142 603d 575b 543d 96b5 593d
00000350: 6ea4 c33c 0a1b 493c 660a 8e3c acc0 11bc
00000360: c336 05bd a492 8fbc 39b4 423d 77bf f63c
00000370: 8b4c 753b b365 3bbd 3221 41bd c678 d7bc
00000380: 8364 17bd 5ac3 1dbb 8236 303d fc99 2dbc
00000390: ebfe 083c 75d6 6c3d 0967 173d 035e 1c3d
000003a0: 7c84 54bc 1595 c4bb 0510 21bd 2c2e 8b3b
000003b0: 5c5e ddba 3ef6 23bc 08b3 323d 63c1 113d
000003c0: a618 943c fa6e 243d 5afc 39bd 5828 5bbd
000003d0: 5de4 233d bf30 98bc a3da da3a 7eda e93c
000003e0: 9864 cfbb f32d ff3c a244 60bc 6f79 74bd
000003f0: 177c 2a3d d8f9 d43c 7988 573d ff2d f83c

model.7.bias f4 [32]
-0.032224137 -0.0077506634 0.04402997 0.05577102 0.050654087 0.012765894 0.056453124 0.025659658
-0.028277492 -0.05685289 -0.020067306 -0.013649729 0.028065886 -0.011854631 -0.019771477 0.03441094
-0.04134203 0.04679175 0.037575565 -0.04814017 0.047905937 0.04261652 -0.0008422698 -0.0269225
-0.03318704 0.011833471 -0.018542364 0.002195944 0.046974868 -0.019478412 -0.032816403 0.0324538
00000000: 75fd 03bd 47f9 fdbb c558 343d 2770 643d
00000010: a97a 4f3d 0a28 513c 643b 673d 3434 d23c
00000020: 33a6 e7bc 93de 68bd 3164 a4bc 1da3 5fbc
00000030: 6eea e53c ed39 42bc cbf7 a1bc 7cf2 0c3d
00000040: 4356 29bd b5a8 3f3d d6e8 193d a02e 45bd
00000050: 0439 443d a98e 2e3d c5cb 5cba 938c dcbc
00000060: 22ef 07bd 2de1 413c 28e6 97bc d4e9 0f3b
00000070: b868 403d 3191 9fbc 7e6a 06bd 47ee 043d

model.8.weight f4 [32]
1.0006193 0.9996179 1.0005924 0.99904764 1.0037193 0.9977493 0.9990789 0.9985651
1.0020924 0.99876785 1.001083 1.0017761 1.0012453 1.0023897 1.0023558 0.9976215
0.99668366 0.99968207 0.9994307 0.9995984 0.9974503 1.0002925 1.0009321 1.002154
1.0007147 0.9973176 0.99881756 1.0002677 1.0000895 1.001591 1.0013206 1.0013512
00000000: 4b14 803f f5e6 7f3f 6913 803f 96c1 7f3f
00000010: e079 803f 806c 7f3f a3c3 7f3f f6a1 7f3f
00000020: 9044 803f 40af 7f3f 7d23 803f 333a 803f
00000030: ce28 803f 4e4e 803f 324d 803f 1f64 7f3f
00000040: a926 7f3f 2aeb 7f3f b1da 7f3f aee5 7f3f
00000050: e758 7f3f 9609 803f 8b1e 803f 9546 803f
00000060: 6b17 803f 3550 7f3f 82b2 7f3f c608 803f
00000070: ef02 803f 2234 803f 462b 803f 472c 803f

model.8.bias f4 [32]
0.0017645719 -0.0018374602 0.0012859721 0.00039254484 0.0025959946 -0.0025184099 0.00028104155 0.0011070129
0.0025200625 0.00010997881 0.001497603 0.002210923 0.00055883394 0.0025509459 0.00018855788 -0.0015983565
-0.003621492 -0.0024699122 -0.0023779657 0.0018615386 -0.0005812502 0.0005268282 -0.0005551397 0.002172653
0.001139334 -0.0026087372 0.001243162 0.0023794058 0.00024095434 -0.0017826246 0.0017550176 0.001066794
00000000: 3549 e73a efd6 f0ba 108e a83a 7ace cd39
00000010: 9021 2a3b e80b 25bb c258 9339 3019 913a
00000020: a227 253b 6da4 e638 384b c43a 22e5 103b
00000030: b67e 123a c52d 273b 9fb7 4539 f27f d1ba
00000040: 8e56 6dbb 40de 21bb a5d7 1bbb dffe f33a
00000050: 0a5f 18ba d81a 0a3a cb86 11ba 1263 0e3b
00000060: b555 953a 59f7 2abb 98f1 a23a ceef 1b3b
00000070: b0a8 7c39 f5a6 e9ba 9e08 e63a abd3 8b3a

model.8.running_mean f4 [32]
0.075631835 -0.13869101 -0.044646796 0.06166207 -0.2003054 0.021546679 -0.13175085 0.044046164
0.10167349 0.025842328 -0.034969643 -0.1992344 -0.08199084 0.047161434 0.16499414 0.13869435
-0.1585146 0.10493781 0.069843605 -0.05040095 0.4853637 -0.0012505344 -0.10188646 -0.08387353
-0.13068917 0.060181472 -0.16419084 0.14077964 -0.22283997 -0.087114245 -0.4985519 0.05413589
00000000: dde4 9a3d 0405 0ebe 8fdf 36bd 5e91 7c3d
00000010: dc1c 4dbe a982 b03c b2e9 06be c069 343d
00000020: 313a d03d 4ab3 d33c 543c 0fbd 1a04 4cbe
00000030: d0ea a7bd 592c 413d 39f4 283e e405 0e3e
00000040: a751 22be a2e9 d63d 2a0a 8f3d 3a71 4ebd
00000050: 9781 f83e f9e8 a3ba d9a9 d0bd e3c5 abbd
00000060: 62d3 05be d980 763d a521 28be 8a28 103e
00000070: 2930 64be f468 b2bd 3242 ffbe 98bd 5d3d

model.8.running_var f4 [32]
0.10077765 0.11801536 0.21670748 0.18074329 0.23859785 0.05725367 0.13912496 0.08018771
0.14212339 0.1376787 0.23313041 0.26137158 0.26201388 0.10354166 0.09456855 0.08572584
0.11276365 0.08158533 0.13988124 0.15790619 0.33703598 0.18245287 0.17295083 0.054144017
0.10380982 0.098493226 0.07563799 0.1765569 0.20966873 0.07462174 0.31050795 0.104685836
00000000: 8364 ce3d 09b2 f13d 91e8 5d3e c514 393e
00000010: ff52 743e d382 6a3d c676 0e3e 7439 a43d
00000020: cb88 113e a5fb 0c3e bdb9 6e3e 7fd2 853e
00000030: af26 863e a60d d43d 28ad c13d 0791 af3d
00000040: a1f0 e63d 3616 a73d 073d 0f3e 29b2 213e
00000050: fb8f ac3e edd4 3a3e 061a 313e 1ec6 5d3d
00000060: 3e9a d43d d1b6 c93d 17e8 9a3d 55cb 343e
00000070: 66b3 563e 48d3 983d e6fa 9e3e 8765 d63d

model.10.weight f4 [64, 32, 3, 3]
-0.047606144 0.01620047 -0.010372339 0.016478738 -0.04970009 -0.044285566 0.025546085 -0.053867783
0.04012945 -0.028099721 0.024208952 -0.04306788 0.040939543 0.044386193 0.042741854 -0.026455058
-0.023403674 -0.05562878 -0.013690829 0.012039208 -0.049523786 0.0033113447 -0.057272483 0.037193038
-0.024857292 -0.028440261 -0.0058051697 0.03593301 -0.039231095 0.013407874 -0.014075257 0.028689988
-6.361855e-05 0.03106778 0.03221413 0.011136836 0.0028601496 0.03192168 0.0038787366 -0.048117444
0.047953423 0.05982097 -0.03112407 -0.047877803 0.033956572 0.040214524 -0.043896586 0.020099258
-0.0006924703 0.04885305 -0.008721529 0.051893447 0.05345183 -0.03001381 0.029254025 -0.027842045
-0.0062664966 -0.026572987 -0.024465125 -0.02095683 -0.037057515 -0.010309127 -0.02938851 -0.0074603916
-0.05850154 -0.027712453 0.05144844 0.0050029606 0.010940653 -0.011612064 -0.008912087 -0.039543375
0.037288573 0.0058670817 0.0062557207 0.04754305 -0.031055735 -0.047712285 -0.01228028 -0.038437024
0.038469132 -0.04757069 -0.045289446 -0.014711988 0.040306248 0.039486624 -0.005453416 -0.0325759
0.01197839 0.04698186 -0.060985394 0.016821655 0.023707032 0.011810272 0.019529294 0.03596725
-0.026653182 -0.04209351 -0.03836117 0.04466525 0.015293639 -0.04729994 -0.022560451 -0.021746375
-0.03532542 0.04391252 -0.058156263 0.019553805 0.013784269 0.02672248 0.0005118726 0.0073763677
0.04531124 -0.048397925 -0.04193082 -0.014072984 0.0003458089 -0.048565894 0.042562526 0.011272734
-0.024188308 0.037486058 -0.043935418 0.0047947373 0.043426014 -0.007968163 0.021216579 0.056292467
-0.03637255 -0.04774571 0.056631133 0.02116956 -0.047291707 -0.0085275825 0.007837731 0.01542446
-0.015364562 0.006173143 -0.011041901 -0.012580645 -0.016171861 -0.010482183 -0.022475805 -0.023062896
0.057097174 0.033937372 -0.042875428 0.021504713 0.055107057 -0.045249052 0.05758727 0.010162524
0.026779022 0.00062047935 0.0135844415 -0.011299957 -0.04232981 0.0048513273 -0.042932983 0.0015189543
0.0057346416 -0.04912521 -0.0016097641 -0.0023737268 -0.05056397 -0.013532343 -0.010977632 0.0465713
0.039872494 0.019133423 0.0068898182 -0.02906396 0.007133047 -0.0534509 -0.007978843 0.029244496
-0.056758944 0.040968686 0.028229393 -0.015233995 0.035095546 0.015759816 -0.054222904 -0.039311465
-0.0365686 -0.015872374 0.04031131 0.034448054 -0.045390822 -0.035104077 -0.031040356 0.023624158
0.045490317 -0.0044902465 -0.0054541477 -2.5711905e-05 -0.038632732 0.060427215 0.05565704 -0.027286304
0.056808084 0.0070699845 0.05448766 0.051134285 -0.000334313 -0.022531413 0.03274179 0.017510578
-0.0065633166 0.053982306 0.0072702914 -0.015707409 -0.04769033 0.020904522 0.04094701 0.028628333
-0.03781139 0.031958133 0.02877175 -0.053727943 -0.025415825 0.05675442 -0.02488544 -0.01528147
0.015684666 -0.046241213 0.0013221079 -0.042538162 0.039501034 -0.0031350537 -0.03204601 -0.04856459
0.006197274 -0.014636992 0.043335166 -0.040150624 -0.058216244 0.0029900728 -0.031000018 0.001647564
-0.03216807 -0.055730604 -0.005270136 -0.049390137 0.012040406 0.0032385078 -0.028516304 -0.00951573
-0.03376735 0.012865505 0.040645942 -0.045043893 -0.057395414 0.050705694 -0.015363928 0.016558394
00000000: a9fe 42bd d9b6 843c bef0 29bc 6bfe 863c
00000010: 5292 4bbd c864 35bd 0646 d13c 77a4 5cbd
00000020: c75e 243d 6331 e6bc da51 c63c f267 30bd
00000030: 39b0 273d 4cce 353d 1512 2f3d 47b8 d8bc
00000040: 10b9 bfbc 01db 63bd 804f 60bc 1940 453c
00000050: 74d9 4abd 2503 593b 8d96 6abd ba57 183d
00000060: 85a1 cbbc 8dfb e8bc 4b39 bebb 7e2e 133d
00000070: c9b0 20bd b3ac 5b3c e89b 66bc 4407 eb3c
00000080: f36a 85b8 db81 fe3c f7f2 033d 4777 363c
00000090: 5971 3b3b 4fc0 023d 6732 7e3b cc16 45bd
000000a0: cf6a 443d d506 753d e8f7 febc 841b 44bd
000000b0: 0c16 0b3d fcb7 243d e8cc 33bd 33a7 a43c
000000c0: e586 35ba 231a 483d bee4 0ebc 398e 543d
000000d0: 4ef0 5a3d 86df f5bc 23a6 ef3c 0015 e4bc
000000e0: 2f57 cdbb 98af d9bc 166b c8bc a8ad abbc
000000f0: 9fc9 17bd 9de7 28bc 2cc0 f0bc 4d76 f4bb
00000100: 509f 6fbd 3a05 e3bc 99bb 523d e0ef a33b
00000110: 6d40 333c 8740 3ebc 0104 12bc 3cf8 21bd
00000120: e7bb 183d a640 c03b cafc cc3b 80bc 423d
00000130: 9968 febc f56d 43bd 3a33 49bc 2470 1dbd
00000140: cf91 1d3d 7cd9 42bd 6d81 39bd 8d0a 71bc
00000150: 2a18 253d babc 213d 92b2 b2bb 4f6e 05bd
00000160: 0241 443c 0d70 403d d2cb 79bd 91cd 893c
00000170: 4035 c23c df7f 413c e6fb 9f3c 6552 133d
00000180: c657 dabc 3f6a 2cbd 9a20 1dbd e9f2 363d
00000190: 2c92 7a3c 95bd 41bd b2d0 b8bc 7425 b2bc
000001a0: 63b1 10bd 9ddd 333d 4335 6ebd 4d2f a03c
000001b0: 6ad7 613c 1ae9 da3c 302f 063a 75b5 f13b
000001c0: 4798 393d e73c 46bd a7bf 2bbd 6092 66bc
000001d0: af4d b539 08ed 46bd 0b56 2e3d 46b1 383c
000001e0: 8f26 c6bc fb8a 193d a0f5 33bd 2c1d 9d3b
000001f0: 7adf 313d e68c 02bc 64ce ad3c ee92 663d
00000200: 62fb 14bd 0191 43bd 0cf6 673d c96b ad3c
00000210: f3b4 41bd 46b7 0bbc d469 003c e0b6 7c3c
00000220: a5bb 7bbc 1448 ca3b 17e9 34bc 0d1f 4ebc
00000230: da7a 84bc 76bd 2bbc 2e1f b8bc 66ee bcbc
00000240: bade 693d ea01 0b3d 259e 2fbd a72a b03c
00000250: f0b7 613d 1257 39bd a1e0 6b3d b780 263c
00000260: ae5f db3c aaa7 223a 4791 5e3c 7423 39bc
00000270: 0662 2dbd e2f7 9e3b 7fda 2fbd a617 c73a
00000280: a9e9 bb3b 8437 49bd b8fe d2ba 8790 1bbb
00000290: 2a1c 4fbd c3b6 5dbc 87db 33bc 8cc1 3e3d
000002a0: 5751 233d b2bd 9c3c fcc3 e13b 8b17 eebc
000002b0: 56bc e93b 55ef 5abd b1b9 02bc 2792 ef3c
000002c0: 117c 68bd c8ce 273d 5441 e73c 0298 79bc
000002d0: 59c0 0f3d bb1a 813c d618 5ebd 0f05 21bd
000002e0: f5c8 15bd c806 82bc 791d 253d 6719 0d3d
000002f0: baeb 39bd 4bc9 0fbd 5848 febc 7387 c13c
00000300: 0e54 3a3d eb22 93bb b5b8 b2bb e5af d7b7
00000310: 5b3d 1ebd 8782 773d a3f8 633d 8787 dfbc
00000320: 98af 683d 54ab e73b 742e 5f3d 2f72 513d
00000330: bb46 afb9 cc93 b8bc 411c 063d 5872 8f3c
00000340: 1711 d7bb 8d1c 5d3d a03b ee3b d3ac 80bc
00000350: ef56 43bd f63f ab3c 0db8 273d f785 ea3c
00000360: 1ee0 1abd 88e6 023d bcb2 eb3c d511 5cbd
00000370: d934 d0bc 5377 683d 8ddc cbbc 215f 7abc
00000380: 217d 803c 6d67 3dbd 944a ad3a 7f3c 2ebd
00000390: d6cb 213d 7975 4dbb ad42 03bd aaeb 46bd
000003a0: 8112 cb3b fecf 6fbc 3780 313d fb74 24bd
000003b0: 2874 6ebd 19f5 433b c0f3 fdbc 13f3 d73a
000003c0: abc2 03bd c645 64bd 1bb1 acbb 504d 4abd
000003d0: 2045 453c 253d 543b 069b e9bc dde7 1bbc
000003e0: a24f 0abd d7c9 523c 5c7c 263d f27f 38bd
000003f0: 7417 6bbd c6b0 4f3d fcb8 7bbc 78a5 873c

model.10.bias f4 [64]
-0.014213512 0.0289283 0.0019771855 -0.05261816 0.037710007 0.013036584 0.018567689 0.008551434
0.044716146 -0.010494387 0.007590901 0.04545195 -0.015530678 0.026807629 -0.029475246 0.047724016
-0.023596158 0.02478979 0.057970528 0.042818222 -0.026170408 0.010387591 0.009537381 0.0028775667
0.05623464 -0.009983747 0.022866001 -0.044967223 0.020732965 -0.016106337 -0.048431154 -0.026622605
-0.023298586 0.015669907 -0.031026602 0.046117015 -0.054743387 -0.031569682 -0.017776817 -0.017098144
0.053733632 0.050158642 -0.01590758 0.057877235 -0.05740748 0.058390718 0.041748714 0.047483563
-0.018062549 0.038367335 0.021094956 0.032940853 -0.04145589 -0.044991627 -0.043587595 0.005966057
0.0077041322 0.030726463 -0.0007630251 0.01676568 -0.015733028 0.042761553 -0.025170634 0.019670075
00000000: cadf 68bc 0bfb ec3c ab93 013b 2486 57bd
00000010: cf75 1a3d 6597 553c 441b 983c 501b 0c3c
00000020: 4728 373d a6f0 2bbc 18bd f83b d32b 3a3d
00000030: 6374 7ebc ac9b db3c 1276 f1bc 427a 433d
00000040: bb4c c1bc f513 cb3c 8172 6d3d 2962 2f3d
00000050: 5363 d6bc b730 2a3c ad42 1c3c 8f95 3c3b
00000060: 4b56 663d df92 23bc 7b51 bb3c 8d2f 38bd
00000070: 2ed8 a93c 70f1 83bc bf5f 46bd a617 dabc
00000080: addc bebc 2d5e 803c 802b febc 32e5 3c3d
00000090: 9a3a 60bd 364f 01bd b0a0 91bc 6811 8cbc
000000a0: cc17 5c3d 2673 4d3d 9d50 82bc ae10 6d3d
000000b0: 1b24 6bbd 1b2b 6f3d b300 2b3d 207e 423d
000000c0: e9f7 93bc 1127 1d3d 54cf ac3c fdec 063d
000000d0: a7cd 29bd 2449 38bd e888 32bd ea7e c33b
000000e0: f272 fc3b 10b6 fb3c bf05 48ba 2e58 893c
000000f0: 8de2 80bc bd26 2f3d a532 cebc 2323 a13c

model.11.weight f4 [64]
1.0023508 1.0027384 1.0019791 0.99990726 1.0008403 0.9968037 1.0003628 1.0006105
1.0009869 1.000933 0.99843204 1.0005472 0.9975994 1.0020065 0.9990919 0.99758935
0.9957104 1.0027323 1.0007236 1.0001123 1.000978 0.9961007 1.0014324 0.9993336
1.0017283 1.0010835 1.0018039 1.0007654 0.99870473 1.0004568 0.999648 1.0015986
0.99966854 1.0024934 0.99821496 0.9974325 1.0003946 0.9998463 1.0008298 0.9996754
0.9981143 1.0000851 1.0007006 1.0022215 1.000903 1.0033326 0.9998006 1.0002403
0.99564576 1.0008831 1.0033951 0.99705094 0.99820304 0.9993615 1.0014539 1.0020713
1.0027866 0.9986485 1.0017717 1.0027583 1.0004394 0.9975338 0.99937034 0.99864614
00000000: 084d 803f bb59 803f da40 803f ecf9 7f3f
00000010: 891b 803f 872e 7f3f e30b 803f 0114 803f
00000020: 5720 803f 931e 803f 3e99 7f3f ee11 803f
00000030: ad62 7f3f c041 803f 7dc4 7f3f 0462 7f3f
00000040: e0e6 7e3f 8859 803f b617 803f ae03 803f
00000050: 0c20 803f 7500 7f3f f02e 803f 54d4 7f3f
00000060: a238 803f 8123 803f 1c3b 803f 1519 803f
00000070: 1dab 7f3f f80e 803f eee8 7f3f 6234 803f
00000080: 47ea 7f3f b451 803f 048b 7f3f bc57 7f3f
00000090: ee0c 803f edf5 7f3f 311b 803f baea 7f3f
000000a0: 6b84 7f3f ca02 803f f516 803f cb48 803f
000000b0: 971d 803f 346d 803f eff2 7f3f e007 803f
000000c0: a4e2 7e3f f01c 803f 406f 803f bb3e 7f3f
000000d0: 3c8a 7f3f 28d6 7f3f a42f 803f df43 803f
000000e0: 505b 803f 6ea7 7f3f 0e3a 803f 625a 803f
000000f0: 660e 803f 605e 7f3f bcd6 7f3f 46a7 7f3f

model.11.bias f4 [64]
0.0013938365 0.002451376 0.0026942084 0.0008008678 -4.670136e-05 -0.003195863 -0.00015397335 0.001226938
0.001911719 0.0015883553 -0.0017284012 0.0003864312 0.00013271297 0.0011248662 0.0010647869 -0.0020496903
-0.0037109023 0.00080666965 0.0012059538 0.0022906363 0.00038567287 -0.0021499656 -0.0021623152 0.0006210685
0.0023145026 0.00037401047 0.0032374852 0.00060049025 0.0005547367 0.00081764156 -0.0011768971 0.0011425448
-0.0007394714 0.002065239 -0.0028420442 -0.0024375552 -0.0014204643 0.0015801362 -0.0014533956 0.0012099755
-0.0004938107 -0.00075842947 0.0022601774 0.00010428959 0.0004996876 0.0022796807 -0.0007896283 0.00078566093
-0.0011914183 0.0008669041 0.0020726954 0.0019279056 -0.0022669518 -0.002270425 0.0012061609 -0.0014402606
0.0021543298 -0.00030953833 0.0023394327 0.0010616863 -0.00027294352 -0.0007940601 0.0011641859 -0.0014943393
00000000: 64b1 b63a 44a7 203b 5191 303b 54f1 513a
00000010: 34e1 43b8 af71 51bb e873 21b9 35d1 a03a
00000020: a592 fa3a 5c30 d03a 858b e2ba eb99 ca39
00000030: de28 0b39 3f70 933a 5290 8b3a 1954 06bb
00000040: 9c32 73bb af76 533a 1811 9e3a 801e 163b
00000050: 2334 ca39 70e6 0cbb a1b5 0dbb 34cf 223a
00000060: e9ae 173b d616 c439 fd2b 543b 386a 1d3a
00000070: c06b 113a ff56 563a 1d42 9aba 71c1 953a
00000080: 16d9 41ba f658 073b 9741 3abb 64bf 1fbb
00000090: df2e baba 931c cf3a dd7f beba 0a98 9e3a
000000a0: 1373 01ba 57d1 46ba 7c1f 143b 0cb6 da38
000000b0: 78fd 023a b266 153b 0fff 4eba d0f4 4d3a
000000c0: 5d29 9cba f340 633a 0fd6 073b c7b1 fc3a
000000d0: 2491 14bb 69cb 14bb 0b18 9e3a 20c7 bcba
000000e0: a82f 0d3b 8849 a2b9 2b51 193b 4828 8b3a
000000f0: dc19 8fb9 7928 50ba 9997 983a b5dd c3ba

model.11.running_mean f4 [64]
-0.23999827 0.07119188 0.06902505 -0.441661 -0.41090634 0.27332664 -0.117511645 0.2723071
-0.42469686 0.068902336 -0.03681484 0.25600305 0.039572667 -0.21894842 0.06386473 0.3206765
0.34492242 -0.06929903 -0.036968384 0.0018638383 0.11242631 -0.020164466 -0.07110618 -0.17447795
-0.34094718 0.27660632 0.19198099 -0.3073544 -0.026732579 0.23337542 -0.08478475 0.024145227
-0.22577417 -0.12979153 -0.008696339 -0.15610409 0.19048531 0.005947139 -0.029939001 -0.043485448
-0.044670515 -0.046977315 -0.09770444 -0.2834301 0.00405412 0.07097462 0.22503056 -0.08328394
0.06675113 0.14978011 -0.13664441 0.17123647 -0.18896352 0.052575152 -0.1339312 -0.01602539
-0.116866626 0.292843 0.11637379 0.056794483 -0.24727897 0.23007776 0.055764623 -0.044889245
00000000: 1bc2 75be 0ccd 913d 015d 8d3d 6421 e2be
00000010: 5162 d2be 78f1 8b3e f2a9 f0bd d66b 8b3e
00000020: de71 d9be ab1c 8d3d 28cb 16bd d512 833e
00000030: f316 223d 0434 60be 83cb 823d b62f a43e
00000040: ac99 b03e a6ec 8dbd 296c 17bd 094c f43a
00000050: c43f e63d f32f a5bc 1ea0 91bd 59aa 32be
00000060: a190 aebe 589f 8d3e aa96 443e 8e5d 9dbe
00000070: 48fe dabc f7f9 6e3e a1a3 adbd 36cc c53c
00000080: 5831 67be 12e8 04be 177b 0ebc c0d9 1fbe
00000090: 950e 433e 38e0 c23b a342 f5bc cc1d 32bd
000000a0: 6ef8 36bd 496b 40bd 4419 c8bd c01d 91be
000000b0: 6cd8 843b 245b 913d 696e 663e c590 aabd
000000c0: d1b4 883d f55f 193e 83ec 0bbe 9d58 2f3e
000000d0: a77f 41be 0b59 573d 4325 09be ae47 83bc
000000e0: c557 efbd 85ef 953e 6255 ee3d 55a1 683d
000000f0: b336 7dbe 8199 6b3e 7269 643d c9dd 37bd

model.11.running_var f4 [64]
0.07022788 0.19740115 0.17228292 0.22367625 0.26972577 0.09042288 0.075096406 0.05228884
0.060828395 0.04428741 0.05789353 0.07653709 0.06329033 0.13313815 0.07654787 0.075288795
0.06015214 0.08121917 0.048238512 0.06429968 0.07439785 0.14524479 0.07823083 0.05069196
0.06635732 0.10619012 0.082065724 0.056806736 0.068790175 0.17248046 0.08282673 0.1883013
0.085636 0.07750664 0.045229565 0.21779244 0.07838332 0.0695563 0.04198591 0.06491823
0.07148321 0.042772606 0.092705734 0.07107333 0.06172855 0.112714656 0.07680397 0.043687455
0.10835977 0.075157836 0.03989844 0.05292161 0.059795637 0.08459418 0.105092995 0.08716102
0.06367709 0.09057671 0.07263131 0.07029163 0.106763184 0.057509735 0.058457535 0.06626326
00000000: a2d3 8f3d 8723 4a3e ef6a 303e 630b 653e
00000010: 7f19 8a3e a22f b93d 25cc 993d d32c 563d
00000020: 3227 793d b766 353d c421 6d3d 7abf 9c3d
00000030: 5c9e 813d 5e55 083e 21c5 9c3d 0331 9a3d
00000040: 1762 763d 3c56 a63d bf95 453d 8daf 833d
00000050: e65d 983d 0dbb 143e 7c37 a03d 5fa2 4f3d
00000060: 59e6 873d 357a d93d 1312 a83d 2eae 683d
00000070: dde1 8c3d b89e 303e 10a1 a93d 0ed2 403e
00000080: ed61 af3d cdbb 9e3d a342 393d fb04 5f3e
00000090: 6f87 a03d 8973 8e3d 6bf9 2b3d d9f3 843d
000000a0: ca65 923d 5432 2f3d 81dc bd3d e58e 913d
000000b0: 13d7 7c3d f1d6 e63d 664b 9d3d 9ef1 323d
000000c0: baeb dd3d 5aec 993d 8c6c 233d 55c4 583d
000000d0: 45ec 743d b73f ad3d ff3a d73d 7a81 b23d
000000e0: 2269 823d 4880 b93d b9bf 943d 0ff5 8f3d
000000f0: a8a6 da3d 548f 6b3d 2b71 6f3d 08b5 873d

model.13.weight f4 [64, 64, 3, 3]
0.02753545 -0.005902011 -0.017264534 0.0343664 0.0008347517 0.040854894 -0.027046828 -0.017320484
0.024415698 0.004725468 -0.011497176 0.008784252 0.031303454 -0.026451409 -0.028116634 -0.03216264
0.040764976 0.021103749 0.010276771 -0.020078998 0.004143731 -0.04118455 0.009050777 -0.02823762
0.023956776 -0.0169037 0.020169923 0.011409046 -0.024767732 0.0077553918 -0.041907553 -0.038316473
0.030812977 -0.022286579 -0.017375646 0.010189667 -0.01532917 0.010754921 0.0052937577 -0.029140027
0.034050785 0.024511844 -0.023178196 -0.040998567 0.023477731 0.026367305 0.010166118 -0.008121201
0.0016920575 -0.018208666 0.03234121 0.015748348 -0.02540714 -0.031008948 0.021130668 0.031146629
0.0052281986 0.031625554 0.020480048 -0.039771542 0.039991003 0.030505344 -0.020183427 -0.020170324
-0.0053270143 0.017103504 -0.018815232 -0.035180736 0.042572618 0.005700715 -0.0431187 0.028246295
-0.023725634 0.020593992 -0.028450223 0.025284056 0.031258095 -0.009240916 0.028240485 0.021681359
0.0414498 -0.035240747 -0.00014387714 0.003374227 0.029166784 0.03461802 0.016163725 -0.006126557
-0.016263936 -0.0011980577 -0.025768874 0.021261277 -0.033265233 0.029035898 0.035655748 0.026580317
0.02997867 0.024059206 -0.0023074362 -0.026829222 -0.012843485 0.004658984 0.042014416 -0.01177102
-0.03850387 -0.0035093504 0.034453742 0.041413933 -0.0020737196 0.037684176 -0.034773763 0.008139902
-0.029037403 -0.031884573 -0.011879621 -0.0054595293 0.03905255 -0.016080791 -0.031391386 -0.025900539
-0.006117542 -0.0023183774 0.039728727 -0.023383612 -0.0056857346 -0.008252129 -0.02394638 -0.0057439073
0.023402154 0.029492313 -0.0014293792 0.030639324 0.009503601 -0.027664088 0.034841657 0.020009136
-0.019240078 0.0022983525 0.03692906 -0.033611957 0.018350778 -0.02407134 0.013463403 -0.040938884
0.025313413 -0.023146423 -0.004536916 -0.020977417 -0.0118026575 0.024544818 -0.01975906 -0.02818519
-0.021785527 -0.02297732 -0.011178799 -0.0019877593 -0.02219347 0.040794924 -0.01046644 0.018019874
0.0181631 0.027989868 0.034200408 -0.014882446 -0.035505354 0.028770031 0.026079109 0.036687016
-0.023602517 -0.009167923 -0.015491535 0.02437056 -0.014759732 -0.0022012051 -0.029486885 0.035354245
-0.036195043 0.024408245 -0.03967866 0.019283872 -0.02059781 -0.029911797 -0.026592456 -0.04145764
-0.0038901872 -0.015028884 -0.017007807 0.024631063 0.032308433 -0.03592745 -0.0044452674 0.0077258185
-0.0033853392 0.0120454915 0.035021674 -0.024656994 -0.0010932267 -0.012519314 0.038068097 0.008118622
0.03482054 0.036354657 -0.014345918 0.009912953 0.036310088 0.03249219 0.037883792 0.032860663
-0.03280583 -0.03405559 -0.02421356 0.01975619 0.014001811 0.042989936 -0.029588243 0.035877723
-0.0014627562 -0.037521873 -0.02240745 -0.005672556 0.020824295 0.032965705 0.01375928 -0.02354039
0.030460909 0.0051242113 0.01674524 -0.016211625 -0.009320808 0.033626672 -0.027087703 -0.0059482874
0.009649913 -0.00064585655 0.0010869813 0.015704345 0.0147257885 -0.035092533 -0.0051390193 -0.017013233
0.0007159636 0.015417572 -0.012135142 -0.029248506 -0.03081867 -0.0044027795 0.010614537 0.02631683
0.015131719 0.00045264646 -0.0003962402 -0.01951614 0.032173384 3.457027e-06 -0.015292617 -0.011736212
00000000: 0692 e13c a865 c1bb 5a6e 8dbc c8c3 0c3d
00000010: 3dd3 5a3a 7657 273d 4f91 ddbc b0e3 8dbc
00000020: 6e03 c83c 19d8 9a3b a75e 3cbc d3eb 0f3c
00000030: 0d38 003d a0b0 d8bc db54 e6bc f9bc 03bd
00000040: 2df9 263d c5e1 ac3c e75f 283c b67c a4bc
00000050: 23c8 873b 21b1 28bd b649 143c 9552 e7bc
00000060: 0041 c43c a179 8abc 653b a53c 02ed 3a3c
00000070: b3e5 cabc f120 fe3b 41a7 2bbd bcf1 1cbd
00000080: 7f6b fc3c 5892 b6bc 5f57 8ebc 90f2 263c
00000090: 3327 7bbc 6835 303c 4277 ad3b 11b7 eebc
000000a0: d678 0b3d 10cd c83c 33e0 bdbc 1dee 27bd
000000b0: 5f54 c03c 3f00 d83c ca8f 263c c90e 05bc
000000c0: 07c8 dd3a 572a 95bc 3778 043d ae02 813c
000000d0: a222 d0bc 7a06 febc 391a ad3c 3727 ff3c
000000e0: 4f51 ab3b cc89 013d c6c5 a73c 7ce7 22bd
000000f0: 9bcd 233d 58e6 f93c b757 a5bc 3c3c a5bc
00000100: 3c8e aebb a61c 8c3c 6722 9abc ad19 10bd
00000110: a060 2e3d 10cd ba3b 3c9d 30bd c664 e73c
00000120: 435c c2bc bbb4 a83c 7110 e9bc 8220 cf3c
00000130: 7d08 003d 3667 17bc 9758 e73c 1b9d b13c
00000140: 44c7 293d 9a58 10bd badd 16b9 2322 5d3b
00000150: 2eef ee3c a0cb 0d3d ca69 843c 49c1 c8bb
00000160: f23b 85bc 2508 9dba 3f19 d3bc 212c ae3c
00000170: 2041 08bd b1dc ed3c c30b 123d f7be d93c
00000180: d495 f53c d017 c53c 5b38 17bb f5c8 dbbc
00000190: 7b6d 52bc 64aa 983b 4f17 2c3d 3cdb 40bc
000001a0: 3cb6 1dbd 21fd 65bb 5e1f 0d3d a8a1 293d
000001b0: 3ee7 07bb b95a 1a3d ef6e 0ebd 395d 053c
000001c0: d9df edbc 6699 02bd bea2 42bc dae5 b2bb
000001d0: 91f5 1f3d ddbb 83bc 4194 00bd 5e2d d4bc
000001e0: a975 c8bb ebef 17bb 97ba 223d fd8e bfbc
000001f0: 664f babb f033 07bc 332b c4bc 6337 bcbb
00000200: e0b5 bf3c dd99 f13c 025a bbba 52ff fa3c
00000210: feb4 1b3c cc9f e2bc 20b6 0e3d 33ea a33c
00000220: 5e9d 9dbc f59f 163b ed42 173d b1ac 09bd
00000230: 5f54 963c 4231 c5bc 9b95 5c3c 88af 27bd
00000240: 135e cf3c 919d bdbc 69aa 94bb d5d8 abbc
00000250: ef5f 41bc 3712 c93c c1dd a1bc a1e4 e6bc
00000260: 9077 b2bc ef3a bcbc 4827 37bc 1145 02bb
00000270: 14cf b5bc 9418 273d 6e7b 2bbc 6a9e 933c
00000280: c8ca 943c 024b e53c ba15 0c3d 81d5 73bc
00000290: 106e 11bd 21af eb3c dba3 d53c 2045 163d
000002a0: 115a c1bc 0e35 16bc 35d0 7dbc c5a4 c73c
000002b0: ced2 71bc 1842 10bb 7b8e f1bc 9dcf 103d
000002c0: 4141 14bd cdf3 c73c 1786 22bd 36f9 9d3c
000002d0: bdbc a8bc 9609 f5bc 6cd8 d9bc 7ccf 29bd
000002e0: 83f2 7ebb b53b 76bc f553 8bbc 15c7 c93c
000002f0: d955 043d a928 13bd 9ba9 91bb dd28 fd3b
00000300: 91dc 5dbb 745a 453c e372 0f3d 77fd c9bc
00000310: 9a4a 8fba cf1d 4dbc 4bed 1b3d f803 053c
00000320: fc9f 0e3d 9fe8 143d 240b 6bbc f069 223c
00000330: e3b9 143d 8816 053d 092c 1b3d e798 063d
00000340: 685f 06bd e07d 0bbd 845b c6bc bcd7 a13c
00000350: da67 653c 3716 303d 0b63 f2bc 85f4 123d
00000360: f4b9 bfba 89b0 19bd d48f b7bc d9e0 b9bb
00000370: b697 aa3c 0c07 073d 9a6e 613c c7d7 c0bc
00000380: 2889 f93c 00e9 a73b 502d 893c 3ece 84bc
00000390: 4db6 18bc 1fbc 093d 08e7 ddbc dae9 c2bb
000003a0: ab1a 1e3c b34e 29ba 0a79 8e3a 66a6 803c
000003b0: 6f44 713c 30bd 0fbd 3865 a8bb 565f 8bbc
000003c0: 81af 3b3a fc99 7c3c 7ad2 46bc 909a efbc
000003d0: 6f77 fcbc 3145 90bb 98e8 2d3c 6596 d73c
000003e0: 08eb 773c 2e51 ed39 76be cfb9 50e0 9fbc
000003f0: 3dc8 033d 46ff 6736 e28d 7abc 3e49 40bc
