imitation_learning/models/h1-lr0.0001-agent.pt (torch, 959856 bytes, 34 tensors)

model.0.weight f4 [16, 1, 7, 7]
000000 0c 93 91 3d 87 fe 05 3e ac 28 f5 3c 8a 11 94 bd
       0.07108125 0.13085376 0.02992662 -0.07229908
000010 79 86 9c 3c b0 38 fd 3d 8d 84 10 be 84 8b 46 3d
       0.01910709 0.12364328 -0.14113064 0.048472896
000020 58 70 12 bd 54 de 81 3d a6 83 d0 3d d5 1e 9c bd
       -0.03575167 0.06341234 0.1018136 -0.07623068
000030 6c ad 29 bd f3 8f 9d bd b8 5e 05 be ff bc a8 3c
       -0.041425154 -0.07693472 -0.13024414 0.020597933
000040 3f dc 4e bd d4 3d d9 3c ac 32 16 bd dd 12 06 3e
       -0.05050301 0.02651874 -0.03666942 0.13093133
000050 b9 79 b3 3d 69 ad a7 bd 46 b5 2e 3b 4c 38 94 3b
       0.08763451 -0.08187372 0.002665834 0.0045233127
000060 35 9a 01 be 37 81 90 3d d7 2f bc bd 96 14 10 be
       -0.12656482 0.07055896 -0.09188812 -0.14070353
000070 04 42 dc bd bf 6d 6e 3c 25 cf 48 bd 70 4d 8b 3d
       -0.10754779 0.014552533 -0.049025673 0.068018794
000080 c1 11 42 bd 0f 5e 31 3b 6c e9 af 3d c1 f2 c9 bd
       -0.047380213 0.002706412 0.085894436 -0.09860755
000090 d0 e1 61 3d d3 8b 85 bb 37 c6 a7 3d 66 6f f9 bd
       0.055146992 -0.0040755062 0.08192103 -0.12179451
0000a0 cb aa e6 bd f0 e1 9a 3c 0b cc 92 bd c1 34 05 bc
       -0.11263045 0.018906564 -0.07167824 -0.008130253
0000b0 4e fa 54 3d 89 38 d0 3d de 09 88 bc cd 94 c7 3d
       0.05199652 0.10167033 -0.016606268 0.09745178
0000c0 f2 a6 ee 3d fb db c3 bd 47 37 9f bd 20 7c d2 3c
       0.11652936 -0.09563442 -0.07774215 0.025693953
0000d0 db 92 03 3e 90 a0 04 be 17 95 8d bc eb 99 17 3d
       0.1284899 -0.12951875 -0.017283006 0.037012022
0000e0 a0 30 fa bd ff 52 83 bd e1 4f f6 3d 5f ef 40 3d
       -0.12216306 -0.064123146 0.120269544 0.047103282
0000f0 83 d3 a9 bd 61 13 d7 3d 15 90 fc bd 57 da db 3d
       -0.08292296 0.10501743 -0.12332169 0.107350044
000100 0a 37 07 3e f2 49 01 3e 7b 94 c9 bd 2a 59 62 bd
       0.1320459 0.12625864 -0.098427735 -0.055260815
000110 25 2d 95 bd fa 17 0d 3d 6b 12 5c bc 33 51 d5 3d
       -0.07284001 0.034446694 -0.013432126 0.10415878
000120 89 b4 94 3d 3e 5c cb 3d 56 92 8e bd e6 c3 62 bd
       0.07260997 0.09929703 -0.06961505 -0.055362605
000130 f2 4b 3f bd 52 ff ef bd 2c 1d 66 3d 89 37 a9 bd
       -0.046703286 -0.1171862 0.056180164 -0.082625456
000140 34 73 f3 bd e3 f4 94 3d 6d 12 da bd 49 9b 15 be
       -0.118872076 0.07273271 -0.10648046 -0.14610018
000150 bc 09 8a 3d 89 99 9f ba 84 27 9d bc 72 28 53 bd
       0.06740138 -0.0012176494 -0.019183882 -0.051552244
000160 3b 81 d9 bd db a2 78 bd 3b e0 ad 3b f6 91 96 3d
       -0.10620352 -0.060702186 0.0053062714 0.073520586
000170 b1 f0 b8 3c 6b 66 c2 bd a8 7b e5 bd 44 59 80 3d
       0.022575708 -0.09492191 -0.11205226 0.06267026
000180 4b ec a6 3d d6 d4 ec bd f3 a0 bc 3d aa 1f d3 bc
       0.08150538 -0.11564033 0.09210386 -0.025771935
000190 04 a3 6e bd 8b 79 d1 bd 88 bd ac bc 49 be a3 3c
       -0.058260933 -0.102282606 -0.02108647 0.019988196
0001a0 91 05 9f 3d 53 ad 91 3c 66 02 ae 3c d6 24 05 3e
       0.077647336 0.017782843 0.021241378 0.13002333
0001b0 09 75 a9 bd 61 3d 0f be 23 d0 e3 bd 68 e9 51 bd
       -0.08274276 -0.13988258 -0.11123683 -0.051247984
0001c0 40 24 f2 3d 6c 12 b7 3d 22 09 9d 3d 56 8f 0f bd
       0.118233204 0.089390606 0.076677576 -0.035048805
0001d0 64 9f 0a bb ff 31 03 3e ca c3 ba bd 6f 8c c4 bd
       -0.0021152133 0.12812041 -0.09119375 -0.09597098
0001e0 3e a7 e5 3d b7 2f 0c 3e a0 55 9e 3d 81 7b 5c bc
       0.112135395 0.13690077 0.077311754 -0.01345718
0001f0 d8 7c d1 3d ff 1a 03 bd 51 37 e5 3c 35 da a8 3d
       0.1022889 -0.032008167 0.027980478 0.08244745
000200 b6 50 5e 3d 7b 9d 6a 3d 1f f8 94 bd c1 28 f9 bd
       0.05427619 0.05727909 -0.07273888 -0.12165976
000210 65 a6 92 bd 6a b4 95 3c 21 0d 74 3c e5 d1 05 3e
       -0.071606435 0.018274505 0.014895708 0.1306835
000220 e5 8c aa 3b da 0d d0 bd f8 b0 d1 bd b4 92 0e 3e
       0.005204784 -0.10158892 -0.10238832 0.1392315
000230 76 ee f2 3d 7c 8c 53 3d ef c5 26 3d c7 7d 90 3d
       0.11861889 0.05164765 0.040716108 0.0705524
000240 88 75 80 3d 91 bc 74 b9 a2 1f 0c 3e bb 16 11 3d
       0.06272417 -0.000233399 0.13683942 0.035422068
000250 e2 17 09 be 1f 19 95 bc a6 80 a7 3c 04 20 9c bd
       -0.13388017 -0.018200455 0.020447087 -0.07623294
000260 0a 2e 1e 3d 47 e7 ae bc ad 6f 10 bc 40 fe c0 3d
       0.038618125 -0.021350516 -0.008815688 0.09423494
000270 0c 3e a3 bd e8 53 d4 bd 20 42 4e 3c 8b 2d fd 3d
       -0.07970819 -0.10367566 0.012589008 0.12362202
000280 18 6b aa 3d 2a 7f a1 3d 26 f6 70 3d fa 42 9d 3d
       0.08321208 0.07885583 0.058828495 0.076787904
000290 59 db ef bd 35 42 b5 3c 9a f9 4c 3d 44 ee 09 be
       -0.11711759 0.022126297 0.050042726 -0.13469797
0002a0 68 24 04 be 07 cc 08 3e 6a a9 43 bd b5 40 f3 bc
       -0.12904513 0.1335908 -0.047768988 -0.02969394
0002b0 c0 d2 ae 3c 2c c4 dc bd 44 90 c5 3d 8c e4 0a 3e
       0.021340728 -0.10779604 0.09646657 0.13563746
0002c0 eb 07 22 3d 0c 7b 0c bd e7 94 b8 bd 2f 3e a6 bc
       0.039558332 -0.034297034 -0.09012776 -0.020293323
0002d0 7b 20 88 3d c4 59 e9 3d ec 47 cd 3c 94 4f 0a 3e
       0.0664682 0.113940746 0.02505871 0.13506919
0002e0 fa 6a a0 3d 5b 8c 0c 3e 01 bb 6e bd 35 a1 db bd
       0.07832904 0.13725416 -0.05828381 -0.10724107
0002f0 6c a6 8e bd cd 88 0c 3d 83 61 ff bd ac 1b 01 3e
       -0.06965336 0.03431015 -0.12469771 0.12608212
000300 2b ea 3b bd 14 99 d8 3d e6 8c 73 3c 30 33 2d 3d
       -0.045877617 0.10576072 0.014865136 0.042285144
000310 a6 a0 0b 3e 52 1b 01 3e f4 54 f0 bd 64 22 1d bd
       0.13635501 0.12608078 -0.117349535 -0.038362876
000320 33 8b c8 bd e6 39 ba 3d 71 21 53 3d c5 40 71 3c
       -0.09792175 0.090930745 0.051545564 0.014724915
000330 c0 e0 f8 bc 37 8d b0 bc 71 0a 6f bd 7f cb 44 39
       -0.030380607 -0.021551711 -0.058359567 0.00018767825
000340 d1 72 05 bd 18 52 af bd bb 67 0b be 74 b7 c8 3d
       -0.0325802 -0.0856058 -0.13613789 0.09800616
000350 8c 28 ee 3c 0b c1 d7 3b 97 df bd 3b c3 97 df 3b
       0.029072069 0.006584292 0.0057944763 0.0068235113
000360 18 44 f2 bd 06 bf 19 3d 1c 3e 16 3d a5 6b f5 bd
       -0.11829394 0.03753569 0.036680326 -0.11983422
000370 08 f3 a4 bc 2d e8 43 3d aa f4 e7 bd f0 94 8c bd
       -0.020135418 0.047828842 -0.11325963 -0.06864345
000380 0b 73 07 be 62 64 f0 3c 00 83 ad bc 69 50 a8 3d
       -0.13227479 0.029344741 -0.02118063 0.08218462
000390 e9 99 76 bd af ee 87 3d b9 1f 98 bd 11 ec 93 3d
       -0.060205374 0.06637322 -0.074279256 0.072227605
0003a0 83 04 81 b9 65 7f e5 3d ef 84 d8 3d ab 02 fc bd
       -0.0002460816 0.11205939 0.1057223 -0.123051964
0003b0 aa df 7e bc 3f c3 e8 3d c0 6c 84 bd b0 37 0d 3d
       -0.015556255 0.11365365 -0.06466055 0.034476936
0003c0 e9 1f 33 3d 83 b3 ea bd 82 c3 ac 3c f7 88 09 3d
       0.043731604 -0.114600204 0.02108932 0.033577885
0003d0 d4 9c 11 3d d1 73 fe 3c d6 15 21 3d b5 28 ca 3c
       0.035549954 0.031061085 0.039327465 0.024677614
0003e0 5e 47 00 be b7 b8 25 bc e3 0f 9d 3d 8a dc b0 bc
       -0.12527224 -0.01011484 0.07669046 -0.021589536
0003f0 c8 bf 9d bc fe 36 1d bd a7 ba 0f 3d b3 09 17 bd
       -0.019256487 -0.038382523 0.035090115 -0.036874484

model.0.bias f4 [16]
000000 e3 d0 00 bd 64 b5 7c bd 0a bc 28 bd cf d0 05 3e
       -0.03144921 -0.061696425 -0.041194953 0.13067935
000010 f1 77 d3 3c c2 c8 a4 3c 6b 1a 27 3c 69 db fd 3d
       0.025814028 0.02011526 0.01019917 0.12395365
000020 6d 9b e8 3c 71 03 0b 3d 57 44 ab bd fe 4d 06 3e
       0.028394425 0.03393883 -0.08362644 0.13115689
000030 9a b7 e7 3b ee c2 f6 3d 7a 4d b3 3d b6 d8 54 bd
       0.0070714476 0.12048899 0.08755012 -0.051964484

model.1.weight f4 [16]
000000 9e 5c 80 3f 73 9a 7f 3f b6 25 7f 3f 78 0a 80 3f
       1.0028265 0.99845046 0.9966692 1.0003195
000010 8a d4 7f 3f d0 2c 7e 3f 25 56 80 3f 8d 76 7e 3f
       0.99933684 0.9928713 1.0026289 0.99399644
000020 92 de 80 3f 40 30 7f 3f 65 d9 7f 3f b7 82 80 3f
       1.0067923 0.99683 0.9994109 1.0039891
000030 8a c3 7f 3f e3 20 80 3f 6b fa 7f 3f 47 8c 80 3f
       0.99907744 1.0010036 0.9999148 1.0042809

model.1.bias f4 [16]
000000 3d b0 18 3b 40 b5 43 37 15 cf 1a bb 81 14 73 bb
       0.0023298406 1.1665106e-05 -0.0023621966 -0.0037091079
000010 ff c6 5e ba 94 d2 1f bc 1f 44 c9 3a 8b 11 d5 b9
       -0.00084982807 -0.009754796 0.0015355385 -0.00040639596
000020 15 97 c6 3b 28 79 df ba 10 82 e1 bb 42 45 b1 bb
       0.006060491 -0.0017049657 -0.0068819597 -0.0054098675
000030 ac 4f 84 38 04 5b 63 3b 84 fb 8d 3a b3 ba 7e bb
       6.3090905e-05 0.00346917 0.0010832404 -0.0038868606

model.1.running_mean f4 [16]
000000 8c c3 5d c1 19 7e bf c2 ce 56 f5 42 fb a1 77 42
       -13.860241 -95.746284 122.66954 61.908184
000010 52 ca 05 c2 68 b7 6d 42 ae 28 03 42 dc f3 13 c2
       -33.44758 59.429108 32.789726 -36.988144
000020 d3 22 40 c1 f6 52 2f 40 13 79 01 42 58 84 d4 c1
       -12.008502 2.7394385 32.368237 -26.564621
000030 11 a5 0f 42 1c 19 2a c2 f1 f6 f2 42 77 63 ad c1
       35.911198 -42.52452 121.48231 -21.673567

model.1.running_var f4 [16]
000000 3c 36 6c 43 38 08 c9 44 8b 8a 33 45 b7 9d 4d 44
       236.21185 1608.2568 2872.659 822.4643
000010 e3 d7 93 43 2c 00 17 44 85 b9 d5 43 a8 d5 1d 44
       295.6866 604.0027 427.44937 631.3384
000020 74 26 42 43 a6 22 8f 43 d3 85 56 43 b7 a4 8d 43
       194.1502 286.2707 214.52275 283.28683
000030 aa 5f 08 44 2c 97 58 44 f6 0d 24 45 d8 5f 21 43
       545.49475 866.36206 2624.8726 161.37439

model.4.weight f4 [32, 16, 3, 3]
000000 1e d2 0c 3d c2 f5 a0 bd 4b fc bf 3c 50 95 72 3b
       0.03438007 -0.078593746 0.023435732 0.0037015267
000010 c8 36 b3 bd 6d 8e a2 bd 5d 20 3d bd fc f7 16 bd
       -0.08750683 -0.07937322 -0.046173442 -0.03685759
000020 6c 1c 4b bd da ac 12 bd 2a ac 25 bc c3 58 44 3d
       -0.049587652 -0.035809375 -0.010111848 0.047936212
000030 69 9d 9d 3c 1c 3b b8 bc b1 06 92 bd cd 84 5b 3c
       0.019240098 -0.022489123 -0.071301825 0.013398361
000040 22 88 72 bd e6 5c 2d bb b8 bc 23 3d 4b 21 df 3b
       -0.059211858 -0.0026453077 0.039974898 0.0068093888
000050 9b df 97 3d 29 ec 4f bd 2b 05 4e bd 49 43 32 3d
       0.07415696 -0.05076233 -0.050297897 0.0435212
000060 32 27 86 3a 70 b0 0e 3d ba 3c 71 3d 8c 9e 89 3c
       0.001023507 0.034836233 0.058895804 0.016799234
000070 a5 f5 d7 bc 65 06 1b 3c 6a 9e fb bc 78 41 ac 3d
       -0.02636225 0.009461974 -0.030715186 0.08410925
000080 04 61 9d 3c 50 96 49 3d 9d 4d 21 bd ac 0e 2b bd
       0.0192113 0.049215615 -0.03938066 -0.04176204
000090 37 89 a7 3d a5 5e 95 3d 32 97 94 3b 29 76 2d 3d
       0.081804685 0.07293443 0.0045346254 0.042349014
0000a0 22 5e 1d 3d 30 7d 3c bd e9 8c 88 bd 9c a0 bf bb
       0.03841985 -0.046017826 -0.066675015 -0.0058480036
0000b0 f4 1a db bc c1 a9 8c 3d c7 19 8b bd f5 c2 5a bd
       -0.02674625 0.068683155 -0.06792026 -0.05340858
0000c0 52 ce f5 bb f5 d2 18 3d 63 ba 28 bd 7c dc 46 3a
       -0.007501402 0.03731056 -0.041193377 0.00075859553
0000d0 67 a6 7f bd 76 69 c2 3c 23 c5 ba bc 10 6e a0 3d
       -0.062414553 0.023731928 -0.02279908 0.07833493
0000e0 98 14 f6 3c 28 1d 85 3c 8c 6c 14 3d df 52 ee 3c
       0.030039117 0.016249254 0.03623633 0.02909225
0000f0 77 52 ae bc 99 d0 9c bc 85 cb c6 ba 46 01 58 3d
       -0.021279557 -0.019142436 -0.0015166855 0.05273559
000100 76 ef 04 3d db 10 39 3d 84 dc 92 3a 03 46 3f 3d
       0.03245493 0.04518209 0.0011204635 0.046697628
000110 90 c3 c7 bc 01 d1 9b 3c f9 53 8b 3d 25 b8 3b bd
       -0.024385244 0.01902056 0.06803126 -0.04582991
000120 d6 ce 93 3d ae 73 8f 3d 1f 14 91 3d f6 fd 8f 3d
       0.07217185 0.07004486 0.07083916 0.07030861
000130 dd 7a 7e bd 6a 17 c6 3b 25 4f 66 bb 1a 65 95 bd
       -0.06212889 0.0060452716 -0.0035142389 -0.07294674
000140 af 56 00 bd 84 ca 93 bd de ef 1b 3d 50 ac 69 bc
       -0.031332668 -0.07216361 0.038070552 -0.014262274
000150 97 3b 25 3d b6 11 54 bd a5 fb 19 bd c5 8b 1b bd
       0.040340032 -0.051774703 -0.037593503 -0.03797509
000160 a4 9b b8 3d f0 80 24 bd f6 d7 9e 3d b7 34 e6 bc
       0.09014061 -0.040162027 0.07756035 -0.028101308
000170 2b a7 08 3d d9 06 f4 3c 31 4d 9d 3d 85 cd 17 bc
       0.03336255 0.029788421 0.07680739 -0.009265308
000180 14 f5 8d bc fc b5 87 bd 9d e1 82 bd 2d 64 52 bd
       -0.017328776 -0.06626508 -0.063906886 -0.051365066
000190 55 6a 44 3d d3 b2 71 bc 03 e2 50 3b de 09 3b 3d
       0.04795297 -0.014752108 0.0031872995 0.045663707
0001a0 d2 2e 38 bd 46 04 ea bc 56 cb 4f bd 34 6e b1 3c
       -0.044966526 -0.02856649 -0.050731026 0.021658994
0001b0 72 1a ed bc 45 a8 04 bd 4c 14 e5 bc 1f ff 68 3d
       -0.028943274 -0.032387037 -0.02796378 0.056883927
0001c0 18 fe 75 bd da e6 a0 bd 57 d5 e7 bc 8c ad 07 bd
       -0.060056776 -0.078565314 -0.02829997 -0.03312449
0001d0 76 f2 10 bd 79 d2 70 3c 3b 5a 10 3d b3 89 a7 bd
       -0.03538748 0.014698618 0.0352423 -0.08180561
0001e0 bf c0 54 3d 7a 65 2c bd cc ee 08 3d 42 55 95 3d
       0.05194163 -0.042088963 0.03343086 0.07291652
0001f0 5f 5e dc bb 40 85 3b 3d 8f 25 72 3d bd 5a a4 bc
       -0.006725117 0.045781374 0.05911785 -0.020062799
000200 73 4b 3a 3c 89 22 89 bd 7a b1 c6 bc be 2b 0f 3c
       0.011370528 -0.0669604 -0.02425455 0.008738456
000210 83 d4 9f bd b6 4e 2d bd 97 87 a2 3c e7 df 92 bc
       -0.07804205 -0.042311393 0.019840045 -0.01792903
000220 d1 2b 58 bd f4 2e 52 3d 33 33 7d 3c 24 41 53 3c
       -0.05277616 0.05131431 0.015454101 0.012893949
000230 1f 32 74 3d 0d 80 87 bd d3 d8 75 3d 3c b6 5d 3d
       0.05961811 -0.066162206 0.060021233 0.05412887
000240 77 d2 a3 3d 9b db c1 3c 7f ba 28 bd 9e f5 18 3d
       0.07999127 0.023664286 -0.04119348 0.037343614
000250 43 a7 a0 bc e6 23 9a bd d3 ab 78 3d 44 6d eb 3c
       -0.019611007 -0.07526378 0.06071074 0.028738625
000260 a0 99 cc 3c 5b e1 8f 3d 02 8d 9e 3d 5f 30 9a 3d
       0.024975598 0.07025405 0.07741739 0.07528757
000270 0a 58 a5 3d ff 3e 5d bd c9 03 97 bd 75 69 8e 3d
       0.08073433 -0.054015156 -0.07373769 0.06953708
000280 a3 d3 7a 3d 67 7a 6b 3d 3a 4c 4a bd 76 88 52 bd
       0.06123699 0.05748978 -0.0493891 -0.05139967
000290 4f fb 12 bd 36 a5 9b bd c0 86 9c 3d 52 41 70 3d
       -0.035884198 -0.07599871 0.07642889 0.058656044
0002a0 b9 dd 3e bc 47 5a 34 3b 5c 26 ab 3d 8b 21 a4 3d
       -0.0116495425 0.002751963 0.08356926 0.0801421
0002b0 52 ef 99 bd 3b 0b 39 bd d6 e1 0f 3d cb db 1e 3c
       -0.0751635 -0.045176726 0.035127483 0.009695957
0002c0 3d a9 34 bd a4 fd 80 3b 2a 0a 60 bd c6 dc f5 bc
       -0.04410671 0.0039364863 -0.054697193 -0.0300125
0002d0 58 1e 90 bc 9f 68 0f bd 8b ce 3e bd ce 8e 1d 3d
       -0.017592594 -0.035011884 -0.046583693 0.038466267
0002e0 99 8d 32 bd ce df a8 bb 6b ac 91 3c 88 13 d1 3c
       -0.04359207 -0.0051536327 0.01778241 0.025522009
0002f0 f8 13 84 3d 04 1f 85 bd 90 e6 67 3d eb c8 3e bd
       0.06449121 -0.065000564 0.056616366 -0.04657833
000300 c0 63 a6 bc 9a 23 9d 3d 34 e7 a3 3c fc 52 60 bd
       -0.020311236 0.07672806 0.020007707 -0.05476664
000310 4e 5a 5d 3d c2 1e 16 3b 2f 10 b6 bc e4 b6 7a bd
       0.0540412 0.0022906517 -0.022224514 -0.061209574
000320 94 f5 cd 3a f6 d9 87 3d 9e 25 9c 3b bc fa 15 3d
       0.0015713447 0.066333696 0.0047652265 0.036616072
000330 d1 41 07 bd f0 14 89 3d 57 40 12 bd fc f6 b5 bc
       -0.03302175 0.06693447 -0.03570589 -0.022212498
000340 d6 a7 31 3d b2 20 a2 3d 08 4c 10 3d 37 6f 89 bd
       0.04337295 0.079163924 0.03522876 -0.06710666
000350 9f 18 8a bd a9 85 90 3d a3 f1 5d bd 83 1c b8 ba
       -0.06742977 0.07056744 -0.05418552 -0.0014046583
000360 ff e1 1c 3d 0d 61 1b 3c aa 21 93 bd 83 fb 91 3d
       0.038301464 0.009483588 -0.07184155 0.0712805
000370 96 9c de bc 7a 34 80 3d b4 c9 8f 3d b7 c3 1a bd
       -0.027174275 0.06260009 0.07020894 -0.037784304
000380 50 0d ac bd 92 e0 cc 3c 59 17 e9 bb 1f 5b 9f 3d
       -0.08400977 0.025009427 -0.007113379 0.07781052
000390 6a 35 26 bd 94 cf 89 3d 1e 8c 6e ba 81 9d 8d bd
       -0.040578283 0.067290455 -0.00090998586 -0.06914807
0003a0 6a dc 63 bd 23 97 53 ba ab fa 7e 3d cd b1 92 3d
       -0.055630125 -0.00080715324 0.062250774 0.07162819
0003b0 80 c3 b7 bc 49 2a d9 bc ae ea 1d bd 3b 31 72 3d
       -0.022432089 -0.026509421 -0.038553886 0.05912898
0003c0 16 04 ca bc 2d 62 aa bd dd 13 f3 3b 58 fb 87 3d
       -0.024660151 -0.08319507 0.0074181394 0.06639737
0003d0 bd 6b 13 bd 64 67 96 3b 70 4f a7 bd 04 53 90 bd
       -0.03599142 0.004589962 -0.081694484 -0.07047084
0003e0 c7 a9 91 bc c6 82 9e 3d e6 7d df bb a8 69 6e bd
       -0.017781151 0.07739787 -0.006820428 -0.05820623
0003f0 b7 65 94 3b 5d ea 5d 3d 97 a6 51 3d 16 e4 bd 3c
       0.004528727 0.054178584 0.051184263 0.023180049

model.4.bias f4 [32]
000000 7b 6c 41 bd 6e 34 d5 3c 43 eb 79 bd 08 83 82 3c
       -0.047222596 0.026025977 -0.06101538 0.015931621
000010 cb c4 94 3d 11 2f 16 bd 39 a0 55 bd 9e e2 34 3d
       0.07264098 -0.03666598 -0.052154753 0.04416143
000020 a2 6c ec bc 44 15 e4 bb ea 0f 95 bd 96 30 0b 3d
       -0.028860394 -0.006960543 -0.07278426 0.033981882
000030 20 44 58 3d 7c 53 3e bb 9b a7 4b bd 38 6c 1e bc
       0.052799344 -0.002904146 -0.049720388 -0.009669356
000040 e7 ee 35 3c 3e 82 94 3d b8 63 80 bd e2 65 05 3d
       0.011104322 0.07251404 -0.0626902 0.032567866
000050 23 89 9f bd 6d d8 0f bc f3 4c a3 3d 42 81 c0 bc
       -0.07789829 -0.008779627 0.07973661 -0.023499135
000060 26 a5 fa bc 13 6a 9e bc e0 4d 92 3c 44 d2 b7 bc
       -0.030596327 -0.01933769 0.0178594 -0.02243913
000070 55 5a 84 bd 37 09 15 bd 3e 48 04 bd 12 1e 7e 3d
       -0.06462542 -0.03638574 -0.032295458 0.062040396

model.5.weight f4 [32]
000000 d1 f9 7d 3f 45 98 80 3f 78 79 80 3f bf 0d 81 3f
       0.99209315 1.0046469 1.0037069 1.008232
000010 d9 f4 7e 3f b1 a4 7f 3f ad bc 7d 3f 2c 15 81 3f
       0.9959236 0.99860674 0.9911602 1.0084586
000020 2b 1c 80 3f fe 1c 7f 3f b5 ee 80 3f 66 78 7f 3f
       1.0008596 0.99653614 1.0072848 0.9979309
000030 f7 cb 7e 3f 5d a2 80 3f 65 65 80 3f 61 5d 80 3f
       0.99529976 1.0049549 1.0030943 1.0028497
000040 fb 0f 80 3f 85 43 80 3f a7 8b 80 3f 89 0b 7f 3f
       1.0004877 1.0020605 1.0042619 0.99626976
000050 1c e5 7e 3f 74 15 7f 3f d3 03 7f 3f fb a4 7f 3f
       0.99568343 0.9964211 0.9961521 0.99861115
000060 e8 47 80 3f d4 8d 7f 3f 33 5a 7e 3f 5f 79 7f 3f
       1.0021944 0.9982579 0.99356383 0.9979457
000070 e2 99 7f 3f c9 9d 80 3f 60 3f 80 3f 26 03 7f 3f
       0.9984418 1.0048152 1.001934 0.9961418

model.5.bias f4 [32]
000000 a5 24 b0 ba 25 01 ab 3b ac d3 d0 3b 80 66 82 bb
       -0.0013438655 0.0052186423 0.0063728895 -0.003979504
000010 3d ae 41 3a ed d2 59 3a 1f c7 90 bb 3b 18 14 3c
       0.0007388329 0.00083093235 -0.0044182683 0.00903898
000020 3b f4 df 3a 16 07 a2 bb 15 2c 1a 3b d5 a3 a3 3b
       0.0017086336 -0.0049446924 0.002352481 0.0049938955
000030 f8 11 dc bb 88 ab 34 bc 3e 2c aa 3b d2 be 0c 3c
       -0.006716009 -0.011027224 0.0051932624 0.008590417
000040 c0 dd 57 ba c3 29 4f bb 1f aa 15 b9 49 18 6c bb
       -0.00082346424 -0.0031610585 -0.00014273122 -0.0036025217
000050 75 7f 00 bb 0b 45 b9 39 4b e2 88 bb 3d 49 32 bc
       -0.001960722 0.0003533739 -0.004177367 -0.010881719
000060 b3 64 e8 3b c1 1c a2 b9 07 ed f5 3a 60 52 02 bc
       0.0070920824 -0.0003092047 0.0018762656 -0.00795421
000070 20 fc 96 bb 8b 1c 38 3b fa 5d c2 3a 85 45 ae bb
       -0.0046076924 0.0028093185 0.0014829033 -0.005318346

model.5.running_mean f4 [32]
000000 27 84 94 bd 99 bb 08 3e 2d c1 9c 3a a3 ad fb be
       -0.072517686 0.13352813 0.0011959426 -0.49155912
000010 cb 16 ec 3d 66 dd 2c bd 40 5a de bc ee 0e d5 3d
       0.11527785 -0.04220333 -0.027142644 0.10403238
000020 99 80 22 3e fe af a2 be a7 63 7b be 24 05 1b bd
       0.15869369 -0.31774896 -0.24549733 -0.0378467
000030 17 05 cc 3d 1a 78 1a 3e 59 a4 99 3d ac 12 a3 be
       0.09961908 0.15084878 0.0750205 -0.31850183
000040 2c 68 49 bd 46 9c 1f bf 52 8d 14 3e 97 0b 22 be
       -0.04917161 -0.6234783 0.14507034 -0.15824734
000050 94 39 54 3e ad 0e d3 3e d0 4d 43 3e 7d b8 44 3d
       0.2072509 0.41222134 0.19072652 0.048027504
000060 61 03 4e be 88 31 9c be ee 51 61 3e 5f 8d 4b 3e
       -0.20118476 -0.3050654 0.2200391 0.19878148
000070 12 78 a7 be 3f 6d e8 3d 81 6b 18 be 89 e5 77 3d
       -0.32708794 0.11348962 -0.1488476 0.060521636

model.5.running_var f4 [32]
000000 62 48 54 3d 60 16 ef 3c 10 f9 a3 3c 7d bd a5 3d
       0.051826842 0.029185474 0.020016223 0.08092783
000010 77 9e 4e 3d d2 d6 87 3d ec 4c d1 3c 79 39 c0 3c
       0.050444093 0.066327706 0.025549375 0.023464905
000020 f9 72 22 3d 14 e5 e0 3d 32 39 df 3d 01 1b 06 3e
       0.039660428 0.10981193 0.10899581 0.13096239
000030 92 00 ed 3d 60 ac 36 3d 37 4b 40 3d 38 61 17 3d
       0.115723744 0.044597983 0.04694673 0.03695795
000040 45 00 50 3d 9a 7f dc 3e 97 75 78 3d c8 9c 0d 3e
       0.050781507 0.43066102 0.060659017 0.13829339
000050 97 58 3f 3e df 40 24 3e 66 3f 25 3e e2 94 b1 3c
       0.18686138 0.16040371 0.16137466 0.021677438
000060 46 db 09 3e ba ef 08 3e 03 9b 08 3d 87 e1 5b 3e
       0.13462552 0.13372698 0.033350956 0.2147275
000070 62 83 0b 3e 45 30 a5 3d 1e df fe 3d 10 ca 35 3d
       0.13624337 0.08065847 0.124449 0.044382155

model.7.weight f4 [32, 32, 3, 3]
000000 2f 3c 18 3d d7 35 57 bd 1b 23 c0 bc 7f cc 34 bd
       0.03716677 -0.05254158 -0.02345424 -0.044140335
000010 ad aa 6a 3c 35 c8 ce 3b cd 1b 0a bd ff 14 26 3d
       0.014322919 0.0063104876 -0.03371792 0.040547367
000020 16 31 41 bd ec e2 e5 3c 0e 7a 69 bd 49 66 39 bd
       -0.047165953 0.028062306 -0.057001166 -0.045263562
000030 60 c3 89 bd 27 00 58 bd 22 0b f6 bc 57 7d ac bc
       -0.06726718 -0.05273452 -0.030034605 -0.02105586
000040 52 0c 2e 3d ef 43 8c bc b1 76 38 3d d4 39 d7 3c
       0.04249222 -0.017122237 0.045035068 0.026272692
000050 db 71 0d 3d b6 b0 33 3d d0 24 55 3c 7c 3a 49 3a
       0.03453241 0.043869697 0.013009265 0.00076762564
000060 2a 2f d1 3c 43 2b 4e 3d d1 fb 1c bd a4 37 68 bd
       0.025535185 0.050334226 -0.03832609 -0.056693688
000070 20 6c 52 3c 9b 7f f5 3c c1 cb a1 3c bd 9c 32 3c
       0.012843162 0.029968074 0.019750478 0.010901627
000080 26 29 fc bb 8a 21 9b bc 4b 8d a3 3c fe 2e 3b bd
       -0.007695335 -0.018936891 0.019964835 -0.045699112
000090 f4 37 fc 3c f9 0f 02 3d 84 9f 3e bd 8e a2 00 bd
       0.0307884 0.031753514 -0.046538845 -0.031405024
0000a0 2b 13 83 bc a5 7b 09 bc 53 0c 09 3c 47 d6 5f 3d
       -0.016000351 -0.008391296 0.008364755 0.05464771
0000b0 69 99 02 bd 3f fe 7e 3c 0e 37 c4 bc 1d a4 12 bd
       -0.031884585 0.015563547 -0.023952033 -0.035801042
0000c0 db 2b 12 bd 54 6f 18 bd ef 47 23 bc a6 7c f5 3c
       -0.035686355 -0.037215546 -0.009965881 0.029966664
0000d0 f6 7a 48 bd f7 e8 6b 3d a3 43 51 3c 48 e8 27 3d
       -0.04894539 0.05759522 0.0127724735 0.040993005
0000e0 af ca 86 bd 7c 08 68 3d 8a d1 7a bc e3 4d 58 bc
       -0.065816276 0.056648716 -0.015308747 -0.013202163
0000f0 07 36 eb bc 36 70 34 3c bc 0f 3b 3d 36 eb b7 3c
       -0.028712286 0.011013081 0.045669302 0.022451025
000100 64 81 21 bc a6 f9 1f 3c 99 88 f4 3c 28 21 26 3d
       -0.009857509 0.009764111 0.029850291 0.040558964
000110 d6 d6 39 3d d6 04 e1 3c e8 78 48 3d a5 c2 d2 3c
       0.0453709 0.027468126 0.04894343 0.02572758
000120 52 61 32 bd ea 9d 80 3c 0b 2e df 3c ff c1 b8 3c
       -0.043549843 0.0157003 0.027243635 0.022553442
000130 c3 39 77 bb 57 b8 07 bc 4a fa ba bc ab eb 2f 3d
       -0.0037723638 -0.008283696 -0.022824425 0.04294936
000140 ec 01 19 3d 80 68 60 3d c8 bf b8 3c ae d7 f3 bc
       0.03735535 0.05478716 0.022552386 -0.02976593
000150 0c c7 62 bd 29 93 fc bb 9e 51 de 3c 84 a9 f0 3c
       -0.055365607 -0.0077079725 0.027138527 0.029377706
000160 94 5c 67 bd c3 77 45 3d 90 2c 3d 3b c0 12 b9 bc
       -0.056484774 0.048209917 0.0028865673 -0.022591949
000170 12 57 ff 3c 01 c3 c7 bc e9 9b 4b 3d c5 4a f8 bc
       0.031169448 -0.024384977 0.049709234 -0.03030909
000180 da 26 4a bc 07 f0 37 bd 11 5f f8 3c 87 10 55 bd
       -0.0123383645 -0.044906642 0.030318769 -0.052017715
000190 5d 8a 95 bc bc 38 23 3d 0f ca 4c 3d 41 35 e5 3c
       -0.018254453 0.039849028 0.049997386 0.027979495
0001a0 c0 a6 1f bc ec 45 4f 3c d3 38 58 3d b5 61 86 3c
       -0.009744346 0.012650948 0.052788567 0.016404012
0001b0 76 7f 43 bd f6 1b 75 3c d1 3f 57 3c 4b 44 1c 3d
       -0.047728978 0.01496028 0.013137774 0.038151067
0001c0 3e 8e 82 bc a1 64 58 bd 4a 06 05 bd 2d ea 6b bc
       -0.015936967 -0.052830342 -0.0324767 -0.014399094
0001d0 ce d4 60 bd 28 d8 74 3d 12 5d dd bb 64 62 d9 bc
       -0.054890446 0.059776455 -0.0067554796 -0.026536174
0001e0 8f 98 80 bd 8b f7 18 3d c0 fa 39 bb 6c 09 81 3d
       -0.06279098 0.03734545 -0.0028378218 0.06300625
0001f0 2d 14 97 3c d3 96 91 3c a4 fc 66 3d 11 0d 89 ba
       0.018442238 0.017772114 0.05639328 -0.0010456165
000200 5b 90 08 3c 2d 5f 7c 3b 74 1c 19 bd e9 1b 0d 3d
       0.008335198 0.0038508878 -0.03738065 0.034450445
000210 b2 b4 21 bd bb 92 5a bc 48 45 62 bd 13 b8 4a bc
       -0.039478965 -0.013340647 -0.055241853 -0.012372988
000220 66 b9 74 bd df 5c 4c 3c 5c 30 03 bd e3 15 27 bc
       -0.059747122 0.012473314 -0.03202854 -0.010198089
000230 e3 a3 6d bd 22 a5 4f 3d 06 a8 6b bc 92 2d 68 bd
       -0.058017623 0.050694592 -0.014383322 -0.056684084
000240 21 b7 26 3c 32 9b 63 3d 18 a1 16 bd 64 ab 7d bd
       0.010175497 0.055567928 -0.036774725 -0.06193103
000250 f5 57 23 3a 3d 02 31 bd 57 9c 67 3d 15 e1 2c 3d
       0.0006231063 -0.043215025 0.05654558 0.042206842
000260 a3 c9 0f bd 9c 80 8e bb b9 43 66 3c 73 82 46 3c
       -0.035104405 -0.0043488275 0.014054232 0.012116062
000270 a7 32 46 3d 62 13 70 bd 13 f2 39 bd 8c aa 11 3d
       0.04838815 -0.058612235 -0.045396876 0.035563037
000280 ee 4b 9b b9 3f e0 38 bc 43 d0 13 3d fd 66 25 3d
       -0.00029620476 -0.011283933 0.036087286 0.04038142
000290 86 fb 48 bd ed 01 38 3d 7e 88 6f 3c c1 0a b1 3c
       -0.049067996 0.04492371 0.014619945 0.021611573
0002a0 66 f1 55 bc a0 1a 81 bd ab d1 eb bc 1b cf 71 3c
       -0.013058042 -0.063039064 -0.0287865 0.01475885
0002b0 e4 1f 42 bb 67 fe a7 3a 84 39 3c 3d 67 38 63 bd
       -0.002962106 0.0012816907 0.04595329 -0.05547371
0002c0 83 e4 5d 3d 5e c5 fb bc 48 b8 0e bb 81 c3 e7 3c
       0.054173004 -0.03073376 -0.002177732 0.028291466
0002d0 dd 42 43 3d 11 c1 39 bd 38 62 36 bd 8e c7 0b 3d
       0.047671188 -0.045350138 -0.044527262 0.034125857
0002e0 2e 2a a8 3b 43 8e 97 bc 05 b7 25 3d f1 61 7a bc
       0.0051319813 -0.018500453 0.040457744 -0.01528214
0002f0 0a 63 4e bd 00 d7 4c bb 9e 14 40 3d dc 28 3f 3d
       -0.05038742 -0.003125608 0.046894662 0.046669826
000300 9a d4 3c bd 63 d1 9f 3c 14 6c ac bb f0 74 43 3d
       -0.04610119 0.019509023 -0.0052619074 0.047718942
000310 be 19 6b bc 0a 85 3e 3b d6 31 64 3d 0e f2 3d 3d
       -0.014349399 0.0029070997 0.05571159 0.04637342
000320 93 5d 3a bd 92 77 3f bd b8 5e 36 bc 05 e2 07 bc
       -0.045499396 -0.04674489 -0.011130981 -0.008293633
000330 77 9d cd 3c e6 19 4a bc c7 fb c9 3c d9 84 2c 3d
       0.0250995 -0.012335276 0.02465619 0.04211888
000340 c9 29 14 3d cb c7 63 bd 84 c1 13 3c 7b a5 ea 3c
       0.036172662 -0.05561046 0.009018306 0.02864336
000350 cc e2 3d 3c b6 28 36 bd 54 e6 32 bd 23 e8 8e 3c
       0.011589717 -0.04447242 -0.04367669 0.017444676
000360 d5 aa 77 3d f2 5a 66 3d 6b b4 66 3d 3c 8b 1b bd
       0.060465652 0.056239076 0.056324404 -0.03797458
000370 38 ab 3f bd b4 11 b3 bb 0d 80 72 3d f6 b2 52 3b
       -0.046794146 -0.005464757 0.05920415 0.0032150126
000380 0c cb 70 3d 92 d0 db 3c 7b 59 3e 3d 84 96 4b bd
       0.05878739 0.026832853 0.046472054 -0.04970409
000390 b6 19 94 3c bf d8 ae bc 8e d6 25 3d 93 8d 40 3d
       0.018078666 -0.021343587 0.04048782 0.047010016
0003a0 5f 9c 37 bd 9a 48 e3 3c 7f ae f4 3c f5 4a 46 bd
       -0.04482686 0.02774458 0.029868362 -0.04841133
0003b0 f0 30 51 3d 3a d9 04 bd f6 08 29 bc 72 3b 03 3c
       0.05107206 -0.032433726 -0.010317078 0.008009778
0003c0 d5 42 40 3d 23 25 48 3d 2e 1e 5e 3d 03 e5 17 3c
       0.046938736 0.04886354 0.054228 0.009270909
0003d0 1a 42 49 bd 02 96 3f bd 67 63 c5 bc 86 05 5e bc
       -0.049135305 -0.046773918 -0.02409525 -0.013551122
0003e0 00 52 b3 bc 7f bd b1 3c b2 77 f3 3c b1 57 0e bd
       -0.021889687 0.021696804 0.029720161 -0.034751598
0003f0 d5 6d 0b bd 5a c0 dd bc 19 ca 30 3d 90 59 d1 bc
       -0.03404029 -0.02706926 0.043161485 -0.025555402

model.7.bias f4 [32]
000000 d0 af 49 3d a7 ca 0a bd c5 02 c2 3c 4c 4b 10 bc
       0.049239933 -0.03388467 0.023682961 -0.008807015
000010 9f 56 82 3c a7 a2 07 3d 9d 94 5e bd 2f 47 ec 3b
       0.015910445 0.0331141 -0.054340947 0.007210634
000020 d3 e3 36 bd 8a cb ae 3c 0e a7 e3 bc 8c 3b bb 3c
       -0.044650864 0.02133729 -0.027789619 0.022855543
000030 86 93 61 bd b8 b0 04 bd b7 02 90 bc c9 36 52 3d
       -0.05507233 -0.032395095 -0.01757942 0.05132178
000040 d7 35 40 bd 5b ae 70 bd 4d 77 7e bc 33 d9 4c 3d
       -0.046926346 -0.05876003 -0.015531373 0.050011825
000050 53 73 a7 bb 7d cf 0f bc dd 2a 11 bd 1d 19 55 3c
       -0.0051101833 -0.008777496 -0.03544127 0.013006476
000060 03 2b 3e 3d 25 d6 69 3d 70 cc a2 3c 0e 01 28 3d
       0.046427738 0.05708899 0.019872874 0.04101663
000070 52 66 ae bc a9 c2 bd bc e5 30 41 bd 1f 7b 22 3d
       -0.021289025 -0.02316411 -0.04716577 0.0396682

model.8.weight f4 [32]
000000 ad 29 80 3f 84 a2 7e 3f af 46 81 3f 69 b9 80 3f
       1.0012718 0.9946673 1.0099696 1.0056583
000010 97 6d 80 3f ed c7 7f 3f 0c 06 7f 3f 4b 42 7f 3f
       1.0033444 0.9991444 0.996186 0.9971053
000020 a4 08 80 3f b9 b1 7d 3f 29 39 7e 3f 31 62 80 3f
       1.0002637 0.9909931 0.9930597 1.0029966
000030 9c a0 7f 3f a8 09 80 3f 34 7b 80 3f 65 ac 7f 3f
       0.99854445 1.0002947 1.0037599 0.9987243
000040 d6 a0 7f 3f 2a 59 7f 3f 88 99 7f 3f 13 1e 81 3f
       0.9985479 0.9974543 0.99843645 1.0087303
000050 7c a3 7c 3f c0 0c 80 3f 14 98 80 3f 96 24 7f 3f
       0.9868696 1.0003891 1.004641 0.996652
000060 3e b6 7f 3f 23 82 7e 3f 3b da 7e 3f 4b ec 80 3f
       0.99887455 0.9941732 0.99551743 1.0072111
000070 f8 0a 80 3f b3 8b 80 3f 66 91 80 3f 88 0d 80 3f
       1.0003347 1.0042633 1.0044372 1.000413

model.8.bias f4 [32]
000000 b2 1b 6a bb a0 e3 bc bb a4 37 87 3a 8e 65 5b bb
       -0.0035722074 -0.0057644397 0.0010316265 -0.003347728
000010 c5 2f 96 3b 31 a7 91 ba e2 c5 fe bb 68 f4 e6 ba
       0.0045833313 -0.0011112449 -0.0077750543 -0.0017620446
000020 b5 b9 99 3a c2 d9 2d bc 0f dc 64 bb 1a fb 6e 3b
       0.0011728319 -0.010611 -0.0034921204 0.0036465586
000030 a3 14 0d bc d7 29 ed bb 1f 4f 5c 3a 73 61 bd 3a
       -0.008610877 -0.0072376537 0.0008404124 0.0014448598
000040 85 93 74 ba d5 30 34 3b 72 96 f7 bb a5 e6 b9 3b
       -0.00093298435 0.0027494926 -0.0075557763 0.005673247
000050 ee 5c 0c bc dc 77 ae bb 3c 60 b4 bb 75 2a 53 3a
       -0.008567078 -0.005324347 -0.005504636 0.0008055338
000060 8b b8 8b bb e8 92 4e bb 5b 48 17 bb 43 be b5 3b
       -0.0042639426 -0.0031520668 -0.0023083899 0.0055463626
000070 b6 f6 c7 ba b3 71 5c ba fc 2b a0 3b 80 a5 68 bb
       -0.0015256021 -0.00084092765 0.004888056 -0.0035499036

model.8.running_mean f4 [32]
000000 b8 23 07 3e 16 1c 1a 3d 31 c2 26 be e0 f0 80 be
       0.1319722 0.03762444 -0.16285016 -0.25183773
000010 c0 f5 ad be 8d f4 cb 3d 6f 66 11 bc 88 be 88 3d
       -0.33976555 0.09958754 -0.00887452 0.06676966
000020 f5 85 23 bd ec 2a a6 bd 9c 7a 35 be 80 3c d4 bc
       -0.039922673 -0.081136554 -0.17722553 -0.025907755
000030 81 36 9c 3e 70 89 2d be 56 53 89 3d dc ac 9c be
       0.30510333 -0.1694696 0.06705348 -0.3060063
000040 04 4d 69 3e ef d4 1b be d4 9c 49 3e 80 e3 a1 3e
       0.22783285 -0.15217946 0.19688731 0.3161888
000050 a8 a0 c0 3e 69 a8 78 3e b2 85 67 be 3f 72 23 3d
       0.3762257 0.24282993 -0.22609594 0.039903875
000060 9d c0 e2 3d 10 96 6e ba f2 bb a3 3e 08 1f 06 be
       0.11071894 -0.00091013405 0.31979328 -0.13097775
000070 ad 38 12 3e a7 f1 85 be ae 58 07 be c7 97 16 3e
       0.14279433 -0.2616093 -0.13217422 0.14706336

model.8.running_var f4 [32]
000000 cd f8 ca 3d 72 ef 06 3e 15 e1 fb 3c d4 7d 72 3d
       0.09910736 0.13177279 0.030746976 0.05920203
000010 0b 57 3d 3e 64 f9 ab 3d 67 ce a2 3d ed 11 4f 3d
       0.18490236 0.08397177 0.079495244 0.050554205
000020 f0 a6 ff 3c 77 fd 9f 3d ed e3 c7 3d 10 ce 7c 3d
       0.031207532 0.078120165 0.0976027 0.061719954
000030 94 1a 93 3d ba 93 f8 3d b9 81 da 3d cf c0 fc 3d
       0.07182804 0.121375516 0.10669274 0.12341463
000040 10 e6 1c 3e 34 44 b0 3d f5 93 d1 3d b2 1c 4c 3d
       0.15322137 0.08606759 0.10233299 0.049832053
000050 53 42 2f 3e 78 91 98 3d 6a e4 93 3d 64 cf 46 3e
       0.17115144 0.07449621 0.07221301 0.1941505
000060 24 b2 ab 3d f2 51 ca 3d 97 e5 86 3d 42 ee 95 3d
       0.08383587 0.09878911 0.065867595 0.07320835
000070 1c 65 9d 3d df ef d8 3d 2d 42 8a 3d 12 b9 db 3d
       0.07685301 0.10592627 0.06750903 0.10728659

model.10.weight f4 [64, 32, 3, 3]
000000 0c 28 11 bd 08 6a 4f bc c5 c5 59 3d 28 8a 14 bd
       -0.035438582 -0.012659557 0.053167123 -0.03626457
000010 91 cf 21 3d b0 a1 40 bd 0e ef a4 3c 45 bb bc 3c
       0.03950459 -0.047029197 0.020133521 0.023038516
000020 1d e2 1a bd 76 75 5b 3c e9 f1 93 3c 87 0b 70 bd
       -0.037813295 0.013394704 0.018059688 -0.058604743
000030 f9 56 c6 bb 82 fd 29 3d e2 34 05 3d bf 22 4c 3d
       -0.0060528484 0.04150153 0.032521136 0.049837824
000040 86 f5 11 bd 20 40 3b 3d 4c cb 83 3c 74 08 55 bc
       -0.03563454 0.04571545 0.01608815 -0.013002504
000050 84 0b ad b9 cb 6b 5b 3d 68 8b 0e 3d 26 fe 13 bd
       -0.0003300571 0.053569596 0.034800917 -0.036131047
000060 27 26 37 3d ad 47 b8 bc f2 84 69 3c 75 d4 a3 37
       0.04471412 -0.022495115 0.014252888 1.9530047e-05
000070 df de 70 3a 17 a3 7e 3c 4c a2 4d 3d 8a 2b 55 3d
       0.0009188484 0.015541813 0.050203606 0.052043475
000080 12 98 03 bd ba fc 1f bd 57 bc 14 bd 01 b6 8f 3c
       -0.032127447 -0.03905938 -0.036312427 0.01754284
000090 22 ea 20 3d 86 98 ee bc 67 94 e7 bb be 8d 19 bd
       0.039285786 -0.029125463 -0.0070672515 -0.03748869
0000a0 f5 14 54 3d 75 bf 73 3d b7 a3 50 bd f7 bf 89 bc
       0.0517778 0.05950876 -0.05093738 -0.016815169
0000b0 9a d1 a9 3c 3c 70 01 ba 6b 7c 95 bc a7 2f 72 bd
       0.020729829 -0.00049376837 -0.018247804 -0.059127476
0000c0 bd 01 c7 bb ce 0d 6b bd 33 b8 31 bc 96 ce 07 3d
       -0.0060732053 -0.057386212 -0.010847139 0.033156
0000d0 2b f4 0b 3c eb 5c 19 3d 29 17 9f bc 08 07 57 3c
       0.008542101 0.03744213 -0.019420223 0.013124235
0000e0 67 8e 2a bc 2c bb c2 bc e5 55 03 bd 67 fb 7d bd
       -0.010409928 -0.023770891 -0.032064337 -0.062007334
0000f0 5c f0 0c bd 00 84 6c 3d 46 d8 69 bd 34 1d 1b bd
       -0.034408912 0.057743073 -0.05709102 -0.037869647
000100 27 8a c7 bc 81 7f 40 bc 67 75 79 bd 32 9e cd 3c
       -0.024357868 -0.011749149 -0.06090298 0.025099847
000110 5e 32 65 3d 9d d6 63 bd 9d 26 74 3d 29 22 0a 3b
       0.055956237 -0.055624593 0.059607137 0.002107749
000120 14 82 cd bc f7 3b 3f bd f4 07 6f bc 01 03 76 3c
       -0.02508644 -0.046688046 -0.0145892985 0.015015365
000130 0f 32 2e bd 81 ce 3c 3d 8e 11 11 bc 49 8d 47 3a
       -0.04252821 0.046095375 -0.008854283 0.00076123007
000140 be 15 fc 3c 02 38 2b bd 93 87 0c 3c 5a b5 03 bd
       0.030772086 -0.04180146 0.008577245 -0.032155372
000150 86 3b 5a 3c 15 8f 90 bc 41 7d 44 3d 8e ff 29 bc
       0.013319856 -0.017646352 0.047971014 -0.01037587
000160 1a 5d 16 3d d4 83 ed 3c 0f 39 d9 bc f8 83 60 3c
       0.036709882 0.028993525 -0.026516465 0.013703339
000170 00 a7 e7 bb 36 30 19 3d 65 5d c0 3c 80 6d ce 3c
       -0.0070694685 0.037399493 0.023482034 0.025198698
000180 00 e0 43 3d eb b7 4e 3d af d9 55 bd 09 23 88 bd
       0.047821045 0.050468367 -0.052209552 -0.066473074
000190 b5 91 69 bd f0 91 32 bd c2 14 07 3d 11 4d 5d 3d
       -0.057023723 -0.043596208 0.03297878 0.054028574
0001a0 be 3c 3d 3d b4 5c 25 3d 94 9a 4b 3d a9 8f f7 bc
       0.046200506 0.04037161 0.049707964 -0.03021987
0001b0 5f 76 75 bd 11 45 16 3d cb fe 02 bd d1 8f 06 3c
       -0.05992734 0.03668696 -0.03198127 0.008212999
0001c0 8c 81 01 3d c9 97 82 38 7a 07 1a 3d 7b 60 5a bd
       0.031617686 6.227155e-05 0.037604786 -0.053314667
0001d0 4d 99 31 bd 16 d6 c0 3c 34 48 53 bc 17 8e 54 bc
       -0.04335909 0.023539584 -0.012895633 -0.01297333
0001e0 34 58 a3 3c 00 06 69 3d 8a b0 54 bd d6 88 c7 bc
       0.01993952 0.056890488 -0.051926173 -0.02435724
0001f0 51 e8 a7 bc e7 8d 53 3d 74 3e 20 bc 7a 9e 9b 3c
       -0.02049652 0.051649 -0.009780515 0.018996466
000200 b5 f1 22 bc 0e fc 0d bd 62 f9 58 bc 15 db 51 bd
       -0.009945323 -0.034664206 -0.013243051 -0.051234324
000210 75 0b 97 3c e7 d0 a5 bc 19 e7 86 3c 48 30 da 3c
       0.01843808 -0.020241214 0.016467618 0.02663435
000220 cc 4c 4c 3d 9e ab 40 bc 17 31 28 3d 98 b7 fe 3c
       0.049877927 -0.011759667 0.04106244 0.031093404
000230 5c 48 54 bd af ac b0 3c a1 e4 f5 bc 67 33 ea 3c
       -0.05182682 0.021566717 -0.030016245 0.028588964
000240 9b 0d b7 3c ce 77 32 3d 30 73 5b bd 52 a3 0a bd
       0.022345355 0.043571286 -0.05357665 -0.03384716
000250 8f b4 28 3c 0f e6 01 3d 4b 25 3c bd b4 10 62 3c
       0.010296955 0.03171354 -0.045934003 0.013797928
000260 b3 84 33 bd 19 f6 31 3d 66 dc b5 3b 3a 6a 95 bc
       -0.043827724 0.043447588 0.005549955 -0.01823913
000270 b5 9b 9e 3b b7 f3 cc bc ed f3 14 bd 24 0d 1e 3d
       0.004840339 -0.025018556 -0.03636544 0.03858675
000280 9b 4b 43 3d 00 41 06 bd ea 93 83 3b 6a 57 13 bc
       0.047679525 -0.032776833 0.0040154355 -0.008993009
000290 bf e7 76 3d 3c 92 5e bd 74 77 08 bc ba a8 47 bd
       0.060279604 -0.05433868 -0.008329261 -0.048744895
0002a0 16 c2 2d 3d 02 06 a3 bc 1d b6 cb bc e8 56 46 bc
       0.042421423 -0.019900326 -0.024867112 -0.012105681
0002b0 2e 53 88 bd b2 c2 2b 3d 01 16 ce bc 56 84 99 3c
       -0.0665649 0.041933723 -0.025156977 0.01873986
0002c0 91 a5 ba bc 3d 1c fc ba 86 44 53 bd d7 55 4b 3d
       -0.022784026 -0.001923449 -0.05157902 0.04964241
0002d0 ff f3 6f bc f2 8e 05 bd d5 d5 2a bd 1b a3 2f bd
       -0.014645576 -0.032607026 -0.041707832 -0.04288016
0002e0 d7 29 70 3c 68 1c 38 3d 69 1e 3f 3d 09 a6 30 3d
       0.014658413 0.044948965 0.04665986 0.043127093
0002f0 d7 63 94 3c 9d b9 21 3c ff 7c dd ba 51 37 45 3c
       0.018114014 0.009870914 -0.0016898214 0.012037114
000300 61 d0 94 bc 3d c2 12 bd 47 c2 41 3d e7 83 03 bc
       -0.018165769 -0.03582977 0.047304418 -0.008027053
000310 a2 bf 72 3a 61 bf 50 3d 0d 25 0d 3d 25 ca 7b 3c
       0.0009260123 0.050963763 0.034459163 0.015368019
000320 06 53 7e bd 3d fe 48 bd fb c8 9f 3c 35 7f 41 3d
       -0.062090896 -0.049070586 0.019505015 0.047240455
000330 63 a8 6a 3d b0 5f ea ba 8f 18 04 3d f6 a8 c5 bb
       0.057289492 -0.00178813 0.032249983 -0.0060321046
000340 71 d9 a2 bc f1 00 e6 3b 2e 1e c6 b8 7c 06 a9 3c
       -0.019879075 0.007019155 -9.446997e-05 0.020632975
000350 4d 71 f7 3c 7f 03 0a bd 3b d7 51 3c 2b 6b d8 3c
       0.030205393 -0.03369474 0.012807663 0.02641829
000360 c5 01 35 3d a1 4a d0 3c f4 65 4f 3d f6 40 4e bc
       0.04419114 0.02542621 0.05063434 -0.01258873
000370 63 0e b4 bc 09 bc 31 bb 1c 73 5c 3d 57 5a 5e 3c
       -0.021979516 -0.0027120134 0.053820714 0.013571343
000380 dc 0e 33 bd 03 30 cb bb 3d 15 e4 3b fb 48 a6 3c
       -0.043715343 -0.006200792 0.0069605396 0.020298472
000390 3b ca 66 bc b9 5b 0f 3d 1b d9 c1 bc 4c ec 53 bd
       -0.014086301 0.034999583 -0.023663094 -0.051739022
0003a0 18 f5 72 3c 5c bd 10 bc 43 91 7d bc 3a ac 2e bd
       0.014828943 -0.008834209 -0.015476528 -0.042644717
0003b0 84 37 34 3d ef 98 a6 bc 86 36 74 bc 14 5c 10 3c
       0.043998256 -0.020336596 -0.0149055775 0.008811016
0003c0 4f 76 b3 3a d3 d0 04 3d 84 b8 36 bd 25 87 e8 3c
       0.0013691875 0.032425713 -0.04460956 0.028384754
0003d0 e6 3d 36 bd d2 a7 f6 3a 64 3c 39 bd 5f 14 18 3c
       -0.044492625 0.0018818325 -0.04522361 0.009282201
0003e0 25 a1 eb 3c a3 ba a1 3c c8 c9 24 bd 11 07 70 bd
       0.028763363 0.019742316 -0.040231496 -0.05860049
0003f0 91 bc 67 3c 5c 9f 61 bc f3 a4 bc 3a 98 e2 19 bd
       0.014144079 -0.013770904 0.001439242 -0.037569612

model.10.bias f4 [64]
000000 93 6d 99 bc 4b be 1c bd 8c 06 79 3b 1f 9d 56 3b
       -0.018729007 -0.038267415 0.0037998287 0.003274746
000010 be 69 eb 3c 7f 7f 99 3c 0e 09 14 bd 89 68 07 3d
       0.028736945 0.018737553 -0.036141448 0.033058677
000020 74 44 5b bd 6f 9a 22 bd 55 72 54 3d 0b 44 65 3d
       -0.05353208 -0.03969806 0.051866848 0.055973094
000030 be 22 a7 bc 18 a5 33 bc 62 4d b0 ba 5f f4 2a b9
       -0.020402309 -0.010964654 -0.0013450796 -0.00016303499
000040 89 98 b5 3c 25 3b 9a bc 40 a5 3c 3d ca 6a e5 bc
       0.022167461 -0.01882703 0.046056032 -0.028005023
000050 a2 13 d0 3b be cc 97 bc 0e 7e 35 bb e9 bc 65 3d
       0.0063499967 -0.018530246 -0.0027693543 0.056088362
000060 55 00 1f 3c 76 66 08 3d ca d5 f9 bb 9e f5 07 3d
       0.009704669 0.03330084 -0.0076243626 0.033193223
000070 bc e1 fd 3c 7e ad 1b 3c e2 71 02 3d 96 bc 0f bd
       0.030991428 0.009501813 0.03184689 -0.03509196
000080 6b 56 3e bd 3a 8d 61 3d af 30 56 3d 51 8e b9 3b
       -0.046469133 0.055066325 0.052292522 0.0056627174
000090 42 ab 18 bb 00 86 6d 3c 02 59 12 bd e2 13 02 bd
       -0.0023295437 0.01449728 -0.035729416 -0.031757243
0000a0 15 5b 62 bd d9 4e 23 3d 47 1f 15 ba c9 13 52 3d
       -0.055262644 0.039870117 -0.00056885596 0.0512884
0000b0 1a 2a 1e bd 46 2c 44 bd 53 19 73 bc 8c 31 29 3d
       -0.03861437 -0.047893785 -0.014837581 0.041307017
0000c0 3e e4 04 3d a5 c5 76 3d b8 35 46 bd 29 66 69 3d
       0.03244423 0.060247082 -0.048391074 0.056982193
0000d0 71 50 cf bc 08 82 76 bd 3a 4a f5 bc 9d 2b aa 39
       -0.025306912 -0.0601826 -0.02994262 0.0003245742
0000e0 f4 1a b4 3b 60 49 b1 3b ae 00 54 3d ea a2 4f bd
       0.005496377 0.0054103583 0.05175846 -0.050692476
0000f0 8e 29 a4 bb 08 c2 28 3d 19 32 3e bd 99 29 e3 3c
       -0.0050098365 0.041200668 -0.046434496 0.027729796

model.11.weight f4 [64]
000000 93 19 7f 3f fa 05 7e 3f 8b 0c 7e 3f 75 87 80 3f
       0.996484 0.9922787 0.9923789 1.0041338
000010 bf 14 80 3f 1a 35 7e 3f 16 96 7e 3f e1 72 7f 3f
       1.0006331 0.99299777 0.9944776 0.99784666
000020 d5 b8 7e 3f e6 77 7e 3f f9 16 80 3f 44 86 80 3f
       0.9950078 0.994017 1.0007011 1.0040975
000030 58 f3 80 3f 90 32 80 3f 64 b7 81 3f a2 10 80 3f
       1.0074263 1.001543 1.0134091 1.0005076
000040 18 c3 80 3f 8a 6e 7f 3f 33 58 80 3f bc 6e 7f 3f
       1.0059538 0.99778044 1.0026916 0.9977834
000050 c4 32 7e 3f 1c b4 80 3f 29 cf 80 3f 32 62 7f 3f
       0.9929621 1.0054965 1.006322 0.9975921
000060 dd d9 81 3f c6 fe 7f 3f e5 9c 7e 3f b9 a1 7f 3f
       1.0144612 0.9999813 0.9945815 0.99856144
000070 cf 03 81 3f f5 40 80 3f 1d 08 80 3f 25 2d 81 3f
       1.0079287 1.0019823 1.0002476 1.0091902
000080 ca ea 7d 3f 1f bc 7d 3f 38 43 80 3f 9a 83 7f 3f
       0.99186385 0.99115175 1.0020514 0.99810183
000090 06 2f 7e 3f a4 21 80 3f 5d 3f 7f 3f 16 21 81 3f
       0.992905 1.0010266 0.9970606 1.0088222
0000a0 7a 39 80 3f 05 20 7f 3f 8a 84 81 3f e4 0e 7f 3f
       1.001754 0.9965823 1.0118573 0.99632096
0000b0 0c d0 80 3f 09 3c 7f 3f af f0 7e 3f c0 f4 7f 3f
       1.0063491 0.9970098 0.99586004 0.99982834
0000c0 99 7c 80 3f 5d 94 80 3f 91 d4 7e 3f be 42 80 3f
       1.0038024 1.0045277 0.995431 1.0020368
0000d0 b4 17 80 3f 11 54 81 3f e5 6d 7e 3f e6 83 80 3f
       1.0007234 1.010378 0.99386436 1.0040252
0000e0 7c 42 7f 3f 44 f2 80 3f 10 4d 80 3f 9c be 7f 3f
       0.9971082 1.0073934 1.0023518 0.9990022
0000f0 6e 1a 80 3f 3b 45 81 3f 9c 10 81 3f e6 40 7d 3f
       1.0008066 1.0099252 1.0083194 0.9892715

model.11.bias f4 [64]
000000 ff 41 c7 bb 88 a9 13 bc a3 f6 c0 bb 87 67 68 bb
       -0.0060808654 -0.009012587 -0.0058887764 -0.0035462098
000010 34 5e 0b bc 94 99 00 bc 63 a2 5a bb 9e 61 73 bc
       -0.0085063465 -0.007849116 -0.003336095 -0.014854817
000020 77 9f f5 bb 1c 58 41 bc f4 d5 2b 3a ca 7a 54 bb
       -0.0074958163 -0.011800792 0.0006555014 -0.003242182
000030 8e 85 88 3b a6 9d 27 bb 69 03 90 bb e8 aa a0 bb
       0.0041663116 -0.0025576144 -0.004394938 -0.004903186
000040 fe f6 43 bb da 4a 06 bb 8e e3 7b bc 6b c8 eb ba
       -0.0029901857 -0.0020491392 -0.0153740775 -0.0017988806
000050 3c 8e 8b bc af 3a 29 bb d5 64 82 bb 99 bd ad bc
       -0.017035596 -0.0025822332 -0.0039793053 -0.021208571
000060 2f f0 1d 3c bf 32 12 bc 1d a7 ad bb dd 9d 14 bb
       0.009639784 -0.008923232 -0.0052994625 -0.0022677102
000070 6e d2 4e 3b 5e be 66 bb 6d 90 80 bc ac 2c 05 3c
       0.0031558531 -0.0035208683 -0.015693868 0.008128326
000080 f4 d3 b2 bb 2c 3f 3c bc 16 44 22 bb 77 3a 0b bc
       -0.0054573957 -0.011489671 -0.002475982 -0.008497826
000090 8d 6f 3d bc 44 f4 b3 b9 08 28 22 bc ba bc 86 ba
       -0.01156224 -0.00034323533 -0.0098972395 -0.0010279634
0000a0 6c b9 a8 bb d5 c1 c5 bb 6f 01 f7 3b 3c 12 24 bb
       -0.005149057 -0.0060350695 0.0075380127 -0.0025035283
0000b0 2d 0d 13 3b ed 3d 17 bc 47 f9 8a bb 37 2e 8e 3b
       0.0022438273 -0.009231073 -0.004241142 0.0043390053
0000c0 5f ac b1 bb 68 3d 2d bb cd 00 70 bb 72 95 26 bc
       -0.0054221596 -0.0026434306 -0.003662157 -0.0101674665
0000d0 d3 cb 92 bb 43 b2 0f 3c 71 54 57 ba 1c fa 85 3a
       -0.004479864 0.008770528 -0.0008214182 0.0010221633
0000e0 ec 1d 78 bc 5b a1 94 bb ed 14 68 3b 89 61 67 3a
       -0.015143853 -0.0045358366 0.0035412863 0.00088264846
0000f0 80 f7 d4 ba af 46 a6 bb 48 bb de 3a 7a a7 3f bc
       -0.0016248077 -0.005074344 0.001699307 -0.011697644

model.11.running_mean f4 [64]
000000 de 66 19 bd 84 9b 3f 3e d8 ad ea 3e 23 28 08 be
       -0.037451617 0.18711668 0.45835757 -0.13296561
000010 b5 36 e1 3d af 71 0a 3f e8 4d e0 3d 97 b7 39 be
       0.10996763 0.5407972 0.109523594 -0.1813644
000020 da ea d8 bd fd 69 53 3e 1c 28 a2 be a3 6a d9 bd
       -0.105916694 0.206459 -0.31671226 -0.106160425
000030 49 4a 33 be 48 45 56 3e 12 57 8f 3d 49 56 69 bd
       -0.17508806 0.20924866 0.06999029 -0.056967054
000040 5a e7 6b 3c b0 38 5c 3d 3e 23 2c 3e f4 91 cf 3d
       0.01439842 0.053765 0.16810319 0.1013526
000050 4d e9 94 bd 75 ec 3f 3d d7 35 66 be a5 49 8d bd
       -0.07271061 0.046856362 -0.22481476 -0.06898812
000060 fd 7a ff 3c f8 d2 16 be 10 62 eb 3d 90 63 93 bd
       0.031186575 -0.14728916 0.11493313 -0.071967244
000070 cd 81 31 be 8f 6d 1f 3d c4 bb c3 bd 9e 6a d3 bd
       -0.17334671 0.038922843 -0.09557298 -0.1032307
000080 50 50 06 3d c9 ed b6 3d c9 97 4b bc e3 6b 4f 3d
       0.032791436 0.08932073 -0.012426325 0.05064
000090 d0 70 4d be 39 a8 80 be b9 39 5c be 03 3e db bd
       -0.20062566 -0.25128344 -0.21506394 -0.10705187
0000a0 16 72 91 be 38 e5 b5 bd 25 8b f8 bd e5 8b 1a be
       -0.28407353 -0.08881611 -0.12135915 -0.15092428
0000b0 3f ca 38 be 5e 59 83 bd e1 43 fb 3d 95 c6 06 3d
       -0.18045901 -0.0641353 0.12268806 0.032904226
0000c0 f8 59 e1 3c eb 9e 2f be ac b4 9f bd fe 09 ea 3d
       0.02750872 -0.17150466 -0.07798132 0.11427687
0000d0 76 cb 81 be af 53 ed bd 26 a6 ea be d3 11 12 3c
       -0.2535054 -0.11588227 -0.45829886 0.008915382
0000e0 c5 5f e6 3d 56 ef e1 bd da af ce bd 13 19 f1 be
       0.11248735 -0.11031978 -0.10092135 -0.47089443
0000f0 e5 da 30 3e 8a 43 ed 3c 16 e4 4e bd b1 a1 c7 bd
       0.17271002 0.02896287 -0.05051049 -0.09747637

model.11.running_var f4 [64]
000000 bd f7 d7 3d 92 ea 07 3e b4 46 2b 3e c5 67 91 3d
       0.10545299 0.13273075 0.1672619 0.070998706
000010 77 cd a8 3d a6 59 29 3e fa 38 b2 3d 69 da b6 3d
       0.08242314 0.16538104 0.08702274 0.08928377
000020 74 07 e1 3d ca e2 17 3e 81 d6 ca 3d 95 30 aa 3d
       0.1098775 0.14832607 0.099041946 0.083100475
000030 4b 76 0d 3e db cb 99 3d ca d9 8b 3d c9 86 e1 3d
       0.13814656 0.075095855 0.06828649 0.11012036
000040 94 10 c9 3d 46 c1 f9 3d 13 ab e1 3d 79 b5 36 3e
       0.09817615 0.12195067 0.11018958 0.17842664
000050 2b bf d0 3d a7 25 01 3e 59 2f aa 3d ba 80 af 3d
       0.101927124 0.1261202 0.08309812 0.085694745
000060 97 d0 cf 3d b7 97 b8 3d 85 d2 9a 3d 3f 6a bb 3d
       0.10147207 0.09013312 0.07559685 0.09151124
000070 60 62 bc 3d b3 3f f5 3d 71 09 ae 3d 55 38 db 3d
       0.09198451 0.1197504 0.084978946 0.10704104
000080 ad 74 1b 3e f3 46 e2 3d f8 af 9e 3d 23 0c e7 3d
       0.15181227 0.11048689 0.07748407 0.11281612
000090 2d 85 a3 3d 08 21 ae 3d 59 38 f4 3d 0a ab 05 3e
       0.07984386 0.08502394 0.1192481 0.13053527
0000a0 58 8d 22 3e de 96 a5 3d a6 5a e7 3d f1 46 f1 3d
       0.15874231 0.08085416 0.11296587 0.11781109
0000b0 4f 37 d4 3d 98 10 8e 3d dc 99 c1 3d 2b 8a a9 3d
       0.10362112 0.06936759 0.094531745 0.082783066
0000c0 f2 00 d5 3d a9 0d af 3d 20 24 f1 3d be 2b bd 3d
       0.10400571 0.08547527 0.117744684 0.09236859
0000d0 ca 55 1d 3e 6b db c0 3d 4d ac 23 3e 80 2d ff 3d
       0.15364757 0.09416851 0.15983696 0.1245985
0000e0 7e 6e 8a 3d dc 60 8a 3d f2 af 08 3e 3b f4 fa 3d
       0.06759356 0.06756756 0.13348368 0.122536145
0000f0 40 6b b8 3d 90 de 84 3d 58 3f 89 3d 49 c6 a2 3d
       0.09004831 0.06487763 0.06701535 0.07947976
