imitation_learning/models/h1-lr0.001-agent.pt (torch, 959856 bytes, 34 tensors)

model.0.weight f4 [16, 1, 7, 7]
000000 06 11 75 3d 5d ca c6 3d 4f 1e 9e bd d0 37 47 3d
       0.059830688 0.097065665 -0.07720625 0.04863721
000010 85 63 9e bd 89 75 01 be c5 64 00 3e da 24 a1 bd
       -0.077338256 -0.12642492 0.1253844 -0.07868357
000020 b0 69 10 3d 4e a9 09 3d 29 54 dc bd ed 00 81 bd
       0.03525704 0.033608727 -0.1075824 -0.06299005
000030 ca 7c cd 3c 69 47 c6 bd eb 7e 13 3e ae 1a 0b 3d
       0.025083918 -0.09681589 0.14403884 0.03396099
000040 7f 82 b0 bd 53 5c 58 3c 16 56 e0 bd 03 85 21 3b
       -0.0861864 0.013205606 -0.109539196 0.0024645932
000050 d4 3d ff bd 0a 39 03 3e 74 7f e0 bc e6 b3 00 3e
       -0.12462965 0.12814727 -0.027404524 0.12568626
000060 15 1b de bd b4 69 b3 bd eb 0b 09 be cc 55 4b 3d
       -0.10845009 -0.08760396 -0.13383453 0.04964237
000070 ba b2 c9 bd 45 83 53 bd 35 48 78 bd a3 11 08 be
       -0.098485425 -0.05163886 -0.060615737 -0.13287978
000080 c7 4b e0 3d ba 71 7b 3c 2c d6 19 3e 99 6f e3 3d
       0.109519534 0.015346939 0.15023106 0.1110527
000090 7c f8 ad 3d 4c c5 5b bd 71 6d 20 3e 51 33 fa 3d
       0.0849466 -0.053654954 0.15666749 0.12216819
0000a0 1f 2c d5 bd 36 58 01 3e 2a e7 eb bd 0b ca f5 bd
       -0.10408806 0.12631306 -0.115187004 -0.12001427
0000b0 0c 92 d2 bd 8e 8f 13 3e e3 16 ba bd 4d d9 11 3e
       -0.102817625 0.1441023 -0.090863965 0.1424305
0000c0 ea 65 03 3e 85 21 49 3d ef c6 e4 bd c3 74 6b bd
       0.12831846 0.049104232 -0.11170756 -0.0574844
0000d0 3f 77 08 be 48 7f 8d 3b 3b 6c 4a 3c c6 0e 9d 3b
       -0.13326739 0.0043181516 0.012354906 0.004793021
0000e0 5f f3 a2 bd c1 ef 0e bb 0d c6 a5 bb 63 05 8f bd
       -0.079565756 -0.0021810385 -0.00505901 -0.06983449
0000f0 bf 8e fe 3d 7e fc a6 bd 50 bd 81 3c 33 64 cc 3d
       0.124295704 -0.08153628 0.015837342 0.09980049
000100 c1 56 60 3d 0d 48 de bd e6 03 81 bd 90 f9 df 3d
       0.054770235 -0.10853586 -0.06299572 0.10936272
000110 9b 27 30 3d 9a 31 59 3c 6e f8 23 3d a8 20 d7 3c
       0.04300652 0.013256455 0.040031843 0.026260689
000120 16 6e 1e 3d 41 bf 87 bd 62 64 16 3c 6c dc 06 3e
       0.038679205 -0.06628276 0.009179207 0.13170022
000130 b7 ab a2 3d cc 9c 20 3e 63 ae cb 3d da fb 56 bc
       0.07942908 0.15684813 0.09945371 -0.0131215695
000140 5f f9 2a be 72 e5 bd 3c c6 bb f5 bd 1a 89 3d bd
       -0.1669669 0.023180697 -0.119987056 -0.04627333
000150 b4 41 7e bd 20 eb 7b 3d 3f 86 b8 bd 47 98 a2 bd
       -0.062074378 0.06150353 -0.090099804 -0.07939201
000160 0d 9f e6 3b 1e 39 a5 bd bb d0 2a 3d 66 21 cf bd
       0.0070380033 -0.08067535 0.041702967 -0.10113792
000170 46 d9 0a 3e 28 8e 27 3e e0 dd 59 bd 26 cd 0b bd
       0.13559446 0.16362822 -0.053190112 -0.03413119
000180 d2 59 f1 3d 2f 6f e2 bd 1d 21 08 be 92 5b e3 3b
       0.1178471 -0.11056363 -0.13293882 0.0069384063
000190 6a d0 1d 3e 7c fc 1b 3e ec 38 fb bd 96 e7 a2 3d
       0.15411535 0.15233034 -0.12266716 0.07954328
0001a0 af 9b d9 3c e3 cd ef 3b 7a ec 92 bd d0 00 47 3e
       0.026563494 0.007318245 -0.071740106 0.19433904
0001b0 a3 0d 64 3d 34 fd 85 3d 3f 0a a9 bd 8b 13 9f bd
       0.055677067 0.06542435 -0.082539074 -0.077673994
0001c0 40 c7 0f be 46 7d 50 3d 1d 59 44 bd 63 72 1c 3e
       -0.14040852 0.05090072 -0.047936548 0.1527801
0001d0 23 92 06 3e a3 e2 7e 3d b5 3e ce bd cb 0c e2 bc
       0.13141684 0.062227856 -0.10070554 -0.02759399
0001e0 d6 e7 12 3d 17 0f 0c 3e ef 89 c4 3d 41 b3 30 3d
       0.035865627 0.13677631 0.09596621 0.0431397
0001f0 f5 15 5b bd d5 fa 77 bd 9d 12 4b 3d 79 9a bd 3c
       -0.053487737 -0.060541946 0.049578298 0.023144947
000200 1d 32 d6 bd 0f e3 06 be a0 96 fc 3c cb 0c 46 bd
       -0.10458777 -0.13172553 0.030833542 -0.048352044
000210 a1 50 d9 3d 16 de 11 3e 3e b4 ae bc ba a7 16 3d
       0.10611082 0.14244875 -0.02132618 0.03678105
000220 23 c2 32 3c f3 8c eb 3d 86 02 76 bc 80 aa 7e bd
       0.010910544 0.11501493 -0.01501525 -0.06217432
000230 78 e2 aa bd 1c 14 b0 bd 00 2f e9 3d 41 98 11 be
       -0.08343977 -0.085975856 0.11385918 -0.14218237
000240 08 bb 33 3d d8 e5 62 3d 0d 7e 19 bd 05 b7 82 3d
       0.04387954 0.055394977 -0.037473727 0.063825645
000250 49 c9 ab 3d e1 c5 32 3e ca f0 b7 bd f8 1f 82 3d
       0.083880015 0.17458297 -0.08981474 0.06353754
000260 81 10 9c bc ee 60 99 bd 62 17 0e 3d 44 80 b0 bd
       -0.019050838 -0.07489191 0.03469027 -0.08618215
000270 f4 8b 25 3e 0a ce 95 3c 0b aa 2a 3e a0 ef aa bd
       0.16166669 0.018286724 0.16666429 -0.08346486
000280 7e 47 d2 bd ad 60 9d 3c bf e6 7b 3d 40 8d f3 3d
       -0.10267542 0.019211138 0.061499353 0.11892176
000290 60 23 0b bd 28 ec f3 3c 4c 22 00 bc 69 e0 e7 3d
       -0.033969283 0.029775694 -0.007820677 0.113221
0002a0 cc ae ea bc f7 c5 4a 3d 0c 63 f5 bc 1e 4b 2e bd
       -0.028647803 0.0495052 -0.029954456 -0.042552106
0002b0 33 d0 00 be c6 da 1f bd 6a 5d e1 3d 44 52 f2 bc
       -0.12579422 -0.039026998 0.110041454 -0.029580243
0002c0 a7 d4 54 bc d1 c0 c2 bc a6 9a fe 3d 49 49 0f be
       -0.012990153 -0.023773583 0.124318406 -0.139928
0002d0 49 2e 4d 3d 58 6c 12 3e 4f e5 8c bd 70 8b 80 3c
       0.05009297 0.14299142 -0.06879675 0.015691489
0002e0 1a 87 71 bd 3a f4 68 3d e0 46 a0 bd 38 0e 8e bd
       -0.058966734 0.056873538 -0.07826018 -0.06936306
0002f0 e0 18 25 3e 44 8b 0a 3d 20 f0 29 bd 28 0d da bc
       0.1612277 0.03382422 -0.041488767 -0.026617602
000300 44 81 d7 bd 6f d9 97 bc c8 54 8b bc fd 75 28 3e
       -0.10522702 -0.018536298 -0.0170082 0.16451259
000310 20 59 11 3d f4 a9 d3 3d 4f 24 1f 3d aa 0f fe 3c
       0.035485387 0.1033515 0.038852986 0.031013329
000320 c5 49 c4 3d 3b 27 99 3d 89 2f 17 be 21 be a7 3d
       0.09584383 0.07478186 -0.14764227 0.08190561
000330 fd 75 a8 bd 0c 51 cb bd d9 a1 0e bc f7 cc 0c bd
       -0.082256295 -0.09927568 -0.00870558 -0.034375157
000340 37 92 bb 3c bd 2b 96 bd 74 d1 c6 bb 54 81 b1 bc
       0.02289687 -0.07332561 -0.006067449 -0.021668114
000350 e5 d7 1e be be 63 e0 bd 80 d8 02 3e 8c 10 58 3c
       -0.15512045 -0.10956524 0.127779 0.013187539
000360 2b 94 b3 bd ff a3 dd 3d 86 72 48 3e c2 7a 63 bd
       -0.08768495 0.108222954 0.19574937 -0.055536993
000370 1f 35 cf 3d 15 7e e5 bd 6f 44 4a bc f3 49 1d 3b
       0.10117554 -0.11205689 -0.012345417 0.0024000376
000380 42 dc e0 3d a2 0e d7 3d 9b 62 ce 3c eb cb b5 3d
       0.10979511 0.10500838 0.025193503 0.08876785
000390 3f 6f c3 3d e0 88 01 be c4 3b df 3c 8a fd 2c 3e
       0.09542703 -0.1264987 0.027250178 0.16893592
0003a0 d3 8f 29 3d 10 9a c9 bc fd 34 94 3d f9 61 3e 3d
       0.041396927 -0.024609596 0.07236669 0.046480153
0003b0 83 67 d9 3d 74 ab da bc e3 87 15 3e 7e 43 78 3e
       0.106154464 -0.026693083 0.14602618 0.24244496
0003c0 09 6b 2c 3e 97 4a 36 3d 19 5c 81 bd c1 70 89 3d
       0.16837706 0.04450473 -0.06316394 0.06710959
0003d0 bb fe 46 bc 2f a6 01 3e 4d 41 47 bd 76 1a 29 3d
       -0.012145693 0.1266105 -0.04864626 0.041285
0003e0 c8 39 b1 3d d2 98 8b 3d 26 fa f3 3c 62 54 00 be
       0.08653599 0.068162575 0.029782366 -0.1253219
0003f0 40 8d 93 bd eb 19 90 bd 29 76 c8 3d ae c4 9d 3d
       -0.07204676 -0.070361935 0.09788162 0.07703529

model.0.bias f4 [16]
000000 bb ae 28 bd 12 3b 5b 3d 0d bd 01 3e 03 36 e8 3d
       -0.04118226 0.05352313 0.12669773 0.11338427
000010 60 91 48 bc 94 a3 ad 3d 50 f1 0a be 9e 5f 0e be
       -0.012241691 0.08478466 -0.13568616 -0.13903663
000020 8b dd bd bd 05 8e d7 3d c9 8d ee 3d 32 3d ca 3d
       -0.092707716 0.10525135 0.11648137 0.09874953
000030 48 d7 04 3d 5b d1 f9 bd 68 1b e3 bd 12 9c a8 bd
       0.03243187 -0.121981345 -0.11089212 -0.08232893

model.1.weight f4 [16]
000000 6d 89 88 3f 34 3b 81 3f 67 eb 81 3f 35 da 73 3f
       1.0666939 1.0096192 1.0149964 0.9525483
000010 fd a0 6a 3f be 67 7f 3f cb e2 7a 3f 36 f6 86 3f
       0.916519 0.99767673 0.9800231 1.0543888
000020 1c 74 75 3f 56 3e 61 3f 34 8c 79 3f 16 8a 85 3f
       0.95880294 0.8798574 0.9747956 1.0432765
000030 f9 3d 5f 3f cb 5e 75 3f 7f 2d 80 3f 32 c1 85 3f
       0.8720394 0.9584777 1.0013884 1.0449584

model.1.bias f4 [16]
000000 ce ed 09 3d 16 de a7 3b 68 83 72 bd 70 eb 94 bd
       0.033674054 0.0051229103 -0.05920735 -0.07271469
000010 4b 56 02 be 28 85 51 bc a9 cf b9 bd ec f2 87 3c
       -0.1272823 -0.012788095 -0.09072811 0.016595326
000020 73 8c 54 bd 36 9d 22 be bf 72 2b bd 58 f1 5a bd
       -0.051891755 -0.15880284 -0.041857477 -0.05345282
000030 e6 16 c6 bd d7 33 a1 bd b6 58 78 bd fb 7f ac 3c
       -0.09672336 -0.07871216 -0.060631476 0.02105712

model.1.running_mean f4 [16]
000000 c3 8f e8 c0 ff ed 9a 3e fd ad 98 42 12 4a 91 42
       -7.267549 0.30259702 76.33982 72.64467
000010 07 f1 33 43 48 1d 3e c2 de 7b a0 42 a8 dc 80 c1
       179.94151 -47.528595 80.24193 -16.107742
000020 1d 60 63 42 71 75 94 42 25 ef 9a 42 e3 69 37 c1
       56.84386 74.22938 77.46708 -11.463351
000030 33 94 51 c3 6c 62 86 c2 7a b0 9e 41 32 c4 ea 41
       -209.5789 -67.19223 19.83617 29.345798

model.1.running_var f4 [16]
000000 79 71 a0 43 7a ea 4a 43 f5 7f 6a 44 ac 03 57 44
       320.8865 202.91592 937.9993 860.0574
000010 69 48 c4 45 6e a2 09 44 03 69 b5 44 8f 61 a8 43
       6281.0513 550.53796 1451.2816 336.76218
000020 05 52 79 44 16 b1 82 44 ce d9 56 44 84 f6 ab 43
       997.28156 1045.5339 859.4032 343.9259
000030 0e fe bf 45 95 78 48 44 e1 a3 86 43 e4 3b 98 43
       6143.757 801.8841 269.2803 304.4679

model.4.weight f4 [32, 16, 3, 3]
000000 e4 f7 2e bd 62 7c b1 bd b4 23 36 3d 42 87 a8 3c
       -0.042716876 -0.08666302 0.044467643 0.020572308
000010 ad ba 95 3d f4 2d 1d 3d f4 76 b2 bd 48 b2 05 bd
       0.07310996 0.038373902 -0.08714095 -0.032640725
000020 9b 1c 9d bd 6e 71 d9 bc cd e1 91 3c 74 80 a1 bc
       -0.07671472 -0.026543345 0.017807866 -0.019714572
000030 17 c3 d7 bd 34 95 f5 3c ee cd 41 3d 9b 10 0f 3d
       -0.10535257 0.029978372 0.04731553 0.034927946
000040 23 82 53 bd c1 a0 e2 bc 45 ab f3 3c 18 83 c5 3d
       -0.05163778 -0.027664544 0.029744754 0.09644145
000050 64 5a e2 3d b3 09 4f 3d 7c 9b 24 3e 74 76 07 3d
       0.11052397 0.05054636 0.16074938 0.03307195
000060 47 d4 a5 3c 39 2f 06 3e 11 0b 06 bd 4d ff 33 3d
       0.020242823 0.13103952 -0.032725397 0.043944646
000070 1b 52 9a ba 6a ba 83 3d 0d 8b 9e 3d 2b 4f 07 bd
       -0.0011773737 0.0643204 0.077413656 -0.033034485
000080 e7 74 32 3d d5 c8 08 3d aa 5d fa 3d b2 d5 ec 3d
       0.043568518 0.033394653 0.12224896 0.11564197
000090 44 e9 4c 3d 07 de a9 bc 67 19 31 3e 72 9b 18 3d
       0.050027147 -0.020735754 0.17294846 0.03725762
0000a0 e4 91 81 bc 51 a2 b7 3d bc 69 c2 bc 28 1f 1c 3d
       -0.015816636 0.08966506 -0.023732059 0.03811565
0000b0 49 18 9a 3d a6 b6 58 bb 96 c0 23 3d db b3 2e 3d
       0.07524163 -0.0033067851 0.039978586 0.042651992
0000c0 f0 94 8c bb b3 b2 ac 3b a6 03 2a bc bc a4 88 3d
       -0.0042902157 0.005270326 -0.010376846 0.066720456
0000d0 9b 1b 82 bc 10 eb b2 bc ce a1 a1 3d 4b 94 d9 3d
       -0.015882304 -0.021840602 0.0789219 0.10623988
0000e0 8c 02 c3 bd 67 3b 8f bc c1 75 bf 3d 7b db 25 3d
       -0.0952197 -0.01748438 0.09348632 0.040492516
0000f0 4b ee a6 3d 41 b5 9d 3d fd c0 25 bd 32 0b 58 3d
       0.081509195 0.07700587 -0.04046725 0.05274505
000100 04 0b 72 bd 13 ba 48 3d 58 e8 ad bc c5 f8 82 bd
       -0.059092537 0.04900558 -0.021228954 -0.06395105
000110 28 fd 6f bd c3 dc 21 3d f2 58 fb bc f6 68 64 3c
       -0.058591038 0.039517175 -0.03068206 0.01394104
000120 e4 87 95 bc a0 5f 13 3e 30 19 ec bc c6 af 9e bd
       -0.018253274 0.14391947 -0.028820604 -0.0774837
000130 19 79 2a 3d 7c e9 ed 3c a2 7b 8d bd 41 d1 ae 3c
       0.041619394 0.029041998 -0.06908347 0.021340014
000140 34 c8 b0 bc f4 69 23 3d ab bc ac bc 3f 71 5c bd
       -0.02157984 0.039895967 -0.021086058 -0.053818937
000150 d3 61 3f 3d 85 06 50 bc 35 5a 82 bd 14 fa 2c bd
       0.04672415 -0.012696867 -0.06364862 -0.04223068
000160 ef c3 7a bd 9c a3 b4 3d b0 7b a9 3c 11 d8 0b 3d
       -0.061222013 0.088202685 0.020688862 0.034141604
000170 95 66 59 3b d0 4b 49 bd d1 cb 72 3d f2 53 02 3c
       0.0033172716 -0.049144566 0.059276406 0.007954584
000180 34 c5 7b 3d de b8 60 bc 15 45 06 3e ed 71 01 3e
       0.061467364 -0.013715951 0.1311229 0.12641115
000190 75 7b 47 3d 41 73 89 bd 6b e6 17 3d cb 27 9d 3d
       0.048701722 -0.06711436 0.037084978 0.076736055
0001a0 cc 2e fe bc 66 23 42 bd b6 8a 22 3d 9a 4c 2d bd
       -0.031028174 -0.04739704 0.039683066 -0.04230938
0001b0 bd be 7f 3d 51 71 11 3c 91 ec 91 bd c1 11 2d 3d
       0.06243776 0.008877114 -0.071251996 0.04225326
0001c0 cd ff 4d 3d 78 18 c6 bd f5 a2 a9 bd 28 d8 df bc
       0.05029278 -0.09672636 -0.08283035 -0.027324751
0001d0 c3 41 6b 3d 77 0d 8d 3d cd f9 83 bd 6c ae 00 bd
       0.057435762 0.06887334 -0.0644413 -0.03141634
0001e0 0e bc 0f 3d 0d d2 2a 3d 7f f8 dc 3c 3a 9f 49 3d
       0.035091452 0.041704226 0.02697396 0.049224116
0001f0 c6 15 ce 3b bb 35 83 bd 8b 0b 46 3d ee d6 22 3d
       0.0062892167 -0.06406733 0.048350852 0.039755754
000200 18 e6 f4 3c ba c3 30 bd 5c 5e 4a bd 2c 57 2b bc
       0.029894873 -0.04315541 -0.049406394 -0.010457795
000210 36 35 6e 3c 00 c3 98 bd 42 7a 5a bd a3 d8 85 3d
       0.014539054 -0.07459068 -0.05333925 0.06535461
000220 c1 75 10 bd b2 60 60 bc 5d 9b d8 bc 10 03 3c 3d
       -0.03526855 -0.013694929 -0.02644127 0.045901358
000230 b9 06 d4 3c 37 08 03 3d 2f 35 29 bd 1e 50 79 3d
       0.025882112 0.031990256 -0.041310485 0.06086742
000240 e0 89 cd 3c ba 0d 33 bd 5c d8 24 bd 13 ba 85 bc
       0.025090158 -0.043714263 -0.0402454 -0.016324079
000250 f3 f5 38 3d 63 98 b4 3d cc d7 04 3d eb a4 32 3d
       0.04515643 0.08818128 0.032432362 0.04361431
000260 9a 47 98 3d 22 43 20 bd ee 2b 3b 3d 66 65 8a 3c
       0.07435532 -0.039126523 0.04569619 0.016894054
000270 fb 27 04 3d b8 5e 50 bd 85 71 b3 3d 9c db c0 3c
       0.03226469 -0.05087158 0.087618865 0.023542218
000280 0e e8 be bd 47 dc 2f bd 06 6f cb 3d 4b bf 29 3d
       -0.09321605 -0.042934682 0.099332854 0.041442197
000290 58 00 10 be 3f fa 6b 3c 17 c3 74 3c f6 56 91 3c
       -0.14062631 0.014402925 0.014939091 0.017741662
0002a0 aa d4 31 bd 37 5d 18 3b 29 a6 f6 bd ff a4 f4 bb
       -0.043415703 0.002324892 -0.12043411 -0.007465958
0002b0 0d c1 3d bd 17 0e 1b bd 35 99 5a bd 1c d9 b0 3d
       -0.046326686 -0.037855234 -0.053368766 0.0863516
0002c0 37 b3 ee bc ff 7f f9 bc 86 f9 0c bd 50 ed 41 bd
       -0.02913819 -0.030456541 -0.03441765 -0.04734546
0002d0 2f 66 e7 b9 01 ff fb bb bb 64 37 3a 25 32 5b 3d
       -0.00044135886 -0.007690311 0.0006995906 0.05351462
0002e0 17 b3 80 bd c5 54 60 bb 0c 06 87 bd 76 61 4b 3d
       -0.06284159 -0.0034230214 -0.0659295 0.049653493
0002f0 c1 02 ac bc 65 3b 7a bd 69 24 22 3a 10 19 07 bd
       -0.020997407 -0.0610918 0.0006185235 -0.032982886
000300 e0 cf 60 3d a1 7b 45 bd 9e 6b d1 3c 55 c5 f7 3c
       0.054885745 -0.048213605 0.025564011 0.030245462
000310 9a 05 2b bc bb 7f c6 bc a5 88 e1 bd 59 59 a2 bd
       -0.010438347 -0.024230829 -0.11012391 -0.07927198
000320 e3 ff 18 bb 72 3d ee bd 98 9a d0 bd 01 b7 86 bd
       -0.002334588 -0.116328135 -0.101857364 -0.06577874
000330 fe 75 ee bd d9 02 16 bd 28 36 a7 bb 8f e0 4b 3c
       -0.11643599 -0.03662381 -0.0051028915 0.012443676
000340 6e b4 60 3b 49 d0 e5 3c c2 d3 86 bd 64 2b 2f 3d
       0.0034287232 0.02805342 -0.06583358 0.04276599
000350 21 cf 06 bd 42 fc b5 3d d4 de c3 3b 8b fc 80 3d
       -0.032912377 0.08886005 0.005977491 0.06298169
000360 47 44 6f bc 81 c6 82 3d b8 98 1f bd 60 b8 0d bd
       -0.014603681 0.06385518 -0.038964003 -0.03459966
000370 09 a3 45 bc b5 ce 91 bd b0 c5 44 3d 2e 5b f7 bc
       -0.012062796 -0.07119504 0.048040092 -0.030194845
000380 c1 66 5d bd 04 a5 f7 3c df 56 b0 bd 75 c9 48 bd
       -0.054053072 0.030230053 -0.08610319 -0.04902025
000390 80 68 85 bd 07 fd 60 3d af c2 68 3d 06 b5 d2 bd
       -0.065140724 0.054928806 0.05682629 -0.10288434
0003a0 21 9f 99 bd ce b9 b4 bd aa 33 5c 3c a0 81 86 3d
       -0.075010546 -0.08824502 0.013440052 0.06567693
0003b0 fb 10 6f bd 95 c1 95 bd 8b 2e e7 bd 3e 6e d5 bd
       -0.058365803 -0.073123135 -0.11288174 -0.10421418
0003c0 ee e6 97 bd 2c 49 8e 3c b2 07 07 be 37 48 b1 bc
       -0.07417093 0.017368875 -0.1318653 -0.02164088
0003d0 e4 72 b8 3d 37 80 17 3c 65 2e 8f 3d ba 18 ae 3d
       0.09006289 0.009246877 0.06991271 0.0850081
0003e0 5e b0 87 bd 46 a0 04 bd 31 99 41 bd e9 eb 82 bd
       -0.06625436 -0.03237941 -0.047265235 -0.063926525
0003f0 ca fc 8f 3c 82 e7 de 3d 2e ae 74 bd 1b cb c3 3d
       0.017576594 0.10884 -0.059736423 0.09560224

model.4.bias f4 [32]
000000 3a cc d5 bb b1 35 09 3d fd ab c6 3d 6b 82 56 bb
       -0.00652459 0.03349847 0.09700773 -0.0032731544
000010 99 0f a4 3d ac d1 98 3d 83 99 63 bd 90 12 a3 bd
       0.080107875 0.07461867 -0.055566322 -0.07962525
000020 a5 0a 07 bd 00 e2 0a 3d c3 50 0e 3d d1 5c 85 3d
       -0.032969136 0.033906937 0.03474499 0.06511844
000030 32 e9 43 bd 96 e3 ad bb d8 96 5c bc ba 9b 9e bc
       -0.047829814 -0.0053066714 -0.013463698 -0.019361366
000040 47 92 e1 bc 39 2d ea 3c d8 a3 4a 3d 3b d2 9a bd
       -0.02753557 0.028586017 0.04947266 -0.075596295
000050 18 32 20 bd c2 bb 73 bb 6d 5e 92 bd 9e c7 97 3b
       -0.039110273 -0.003719077 -0.071469165 0.0046319505
000060 20 f0 5b 3d 3c 3a af 3c bf c3 b6 3d 2b 2c 43 3d
       0.053695798 0.021390073 0.08924054 0.047649544
000070 d9 54 0d bd 32 2f bd 3a b4 8e c4 3c ff 40 1f 3d
       -0.034504745 0.0014433621 0.023993827 0.038880344

model.5.weight f4 [32]
000000 6b 6e 75 3f 08 81 6f 3f 28 06 89 3f 8e ed 71 3f
       0.9587161 0.9355626 1.0705004 0.94503105
000010 be d8 70 3f 6f 4f 84 3f 72 2e 7b 3f 32 e8 7a 3f
       0.9408072 1.0336741 0.98117745 0.9801055
000020 bb 3e 85 3f 8b f1 7c 3f dc 46 76 3f 2c 66 72 3f
       1.0409769 0.98806065 0.9620187 0.9468715
000030 4c 15 83 3f ec 60 6d 3f cd aa 78 3f 9b 8d 80 3f
       1.0240874 0.92726016 0.9713562 1.0043215
000040 54 88 6d 3f 71 31 81 3f 3a 1a 6d 3f 43 11 8d 3f
       0.92786145 1.0093213 0.92618144 1.1020893
000050 d8 f3 73 3f e8 1a 75 3f 80 40 6d 3f 9a 2f 7d 3f
       0.9529395 0.9574418 0.92676544 0.9890076
000060 73 35 83 3f 8f e5 82 3f fd 66 83 3f 08 6e 83 3f
       1.0250686 1.0226306 1.0265805 1.0267954
000070 68 db 79 3f 6e 34 7e 3f 0f 97 86 3f e4 82 87 3f
       0.9760041 0.9929875 1.051485 1.058682

model.5.bias f4 [32]
000000 f8 e1 e4 bd 63 c9 4f bd 38 82 26 3c 57 8c cd bd
       -0.111759126 -0.050729167 0.0101628825 -0.10036533
000010 6c 0b 84 bd 23 c3 15 bd 86 6c 83 bd 92 b0 cc bd
       -0.06447491 -0.03656305 -0.064171836 -0.099946156
000020 93 26 0e 3c 42 5e ea bc 16 33 cb bd b3 e9 bb bd
       0.008676189 -0.028609399 -0.09921853 -0.09175434
000030 6f 0a 36 bb 13 5d 53 bd 66 4a 87 bd 9d a2 75 3b
       -0.0027777215 -0.051602434 -0.06605987 0.0037480958
000040 c3 00 04 be a9 c7 56 bd 43 a1 ac bd 1a 41 18 bd
       -0.12890916 -0.052436505 -0.08429196 -0.03717146
000050 e9 96 87 bd 2b e1 a7 bd 0b c4 b0 bd 59 5b 3b bd
       -0.06620581 -0.08197244 -0.08631142 -0.045741413
000060 c9 79 c8 bd 17 ba 0d 3c e2 b3 7e bd ba 1b 4f bd
       -0.09788854 0.008650324 -0.06218327 -0.05056355
000070 0b 83 bd bd ab 65 60 bd bd 76 8d bd 90 29 76 bd
       -0.0925351 -0.054784458 -0.06907413 -0.06009823

model.5.running_mean f4 [32]
000000 d0 63 29 3f 74 ba e5 be 2f 78 a7 3e 89 ef 40 3e
       0.66167927 -0.44868815 0.3270888 0.18841375
000010 b1 07 7a be d3 40 f0 3c 9e de 89 be df ff 52 3e
       -0.24416997 0.029327786 -0.26927656 0.2060542
000020 b4 38 da be 3a 43 0e 3f 2f b5 b4 3d 14 f7 b0 3e
       -0.42621386 0.5557133 0.088236205 0.34563506
000030 c9 82 e9 bd 93 81 14 be d5 19 ce be 66 dc 87 bd
       -0.114018984 -0.14502554 -0.40254083 -0.066338345
000040 6a a6 2b 3f df d2 d8 be 15 ed 27 be d0 88 d7 3d
       0.670508 -0.42348382 -0.16399033 0.10524142
000050 ef 62 32 bf b2 2e bf 3e 3b fb 86 be a3 c6 2c bd
       -0.6968221 0.37340313 -0.2636355 -0.042181622
000060 c0 f6 8a 3e b1 af 2d 3e 4f bf f9 bb c3 97 3b 3f
       0.2714138 0.16961552 -0.0076216827 0.73278445
000070 5e 31 2b 3f b3 89 40 be f3 02 57 3e 40 64 53 3e
       0.66872203 -0.18802528 0.20997219 0.20643711

model.5.running_var f4 [32]
000000 56 d0 7e 3e 8d b8 e8 3e 07 e0 b2 3d 44 48 0b 3e
       0.24884161 0.454533 0.08734136 0.13601786
000010 c1 d0 f5 3d 6d f9 1c 3d de 41 b3 3d ee e0 14 3e
       0.12002707 0.03832381 0.087527975 0.14538929
000020 92 2f 48 3e 45 80 00 3e 3d 74 9a 3d 81 3b 17 3e
       0.19549397 0.12548931 0.07541702 0.14768793
000030 76 50 63 3d 51 b0 a2 3d 35 ea 74 3e 67 f4 4a 3d
       0.055496655 0.07943786 0.23917468 0.049549486
000040 f8 8a 04 3e 1f 8c e0 3d 77 a6 8b 3e 68 0d 9d 3d
       0.12943637 0.10964226 0.2727544 0.07668573
000050 69 9e 4c 3f 07 75 b5 3e 21 c7 b8 3e b3 1c 03 3e
       0.79929215 0.35440847 0.36089423 0.12803917
000060 f1 33 8d 3d 6c d3 7c 3d 32 8e 76 3d 22 93 f0 3d
       0.06894673 0.061725065 0.0601942 0.11746813
000070 30 63 5e 3e 53 b5 a6 3e 46 81 6e 3d 80 1d a3 3d
       0.21717525 0.32560214 0.058228754 0.07964611

model.7.weight f4 [32, 32, 3, 3]
000000 96 82 f7 bc a8 9e a1 38 61 e3 15 3d ab b4 56 3c
       -0.030213635 7.70663e-05 0.0365938 0.013104598
000010 9a 99 c0 3c 63 b9 5a bd 7a db a3 3c ce 25 88 bd
       0.023510743 -0.053399455 0.020002116 -0.06647836
000020 87 b5 2b 3d 8b a6 a2 3c 1b 29 83 bd 01 2b d1 3a
       0.041921165 0.019854805 -0.064043246 0.0015958251
000030 1e de a9 bd 58 40 a6 bd c3 a0 23 bd fe 6b 80 bd
       -0.082943186 -0.08117741 -0.039948236 -0.06270598
000040 46 c6 09 bd cc 1c 05 bc 9d bb c8 bd 9f a0 6f bd
       -0.033636354 -0.0081245415 -0.098014094 -0.05850279
000050 92 23 ad bc a6 d7 9e bd 84 bc f4 bd ba f6 9f bc
       -0.021135125 -0.077559754 -0.11950019 -0.019526828
000060 c6 58 4b bd bc f2 57 bd c2 a1 9a bd 00 2c 18 bd
       -0.049645208 -0.052721724 -0.07550384 -0.037151337
000070 fb 77 47 3d 64 1a 09 bd 06 c3 97 bd 99 85 d2 bc
       0.048698407 -0.033472434 -0.07410245 -0.02569847
000080 e2 22 2c bc 86 1b 6f bd 68 95 34 bd 82 91 a5 bd
       -0.010506364 -0.058375858 -0.044087797 -0.08084394
000090 59 86 48 bd 1c ca 22 3c d0 b7 dd bc 53 81 01 3d
       -0.04895625 0.009935882 -0.027065188 0.031617474
0000a0 b4 c6 20 3d 3f 93 27 3b d3 fe 65 bd 2f 35 65 bc
       0.039251998 0.0025569943 -0.056151222 -0.013989731
0000b0 69 82 8f bd ef 5e 4b 3d 5e b5 86 bd 87 9c c9 3c
       -0.07007296 0.049651083 -0.06577562 0.02461077
0000c0 9a 5a 5f 3c a5 d7 a3 bd 69 1f bc bc 61 7d 80 3d
       0.013632441 -0.08000115 -0.022964196 0.06273914
0000d0 5e 6d 2e bc 09 97 3e 3c 1b a1 90 3b b6 ca 6b bd
       -0.010646192 0.011632689 0.0044137365 -0.057566367
0000e0 dd ee 1c bc c1 6c ee bb 72 1a 4e 3c fe 82 b4 3b
       -0.009578434 -0.007276148 0.012579547 0.0055087795
0000f0 57 f8 d5 3b 97 33 ac 3c a7 95 53 bc 0f dc 9f bb
       0.0065298486 0.021020694 -0.012914098 -0.004878528
000100 dd e2 ca bc fd f3 69 bd 34 e8 5c bd 18 15 a0 bc
       -0.02476638 -0.05711745 -0.053932384 -0.019541308
000110 2e ca c5 3b 64 76 1e bd 15 80 b4 bc 8a 89 97 bd
       0.0060360646 -0.038687125 -0.02203373 -0.0739928
000120 e6 2a 8e 3d f0 9a b9 3d d8 5e 48 3d f2 ab 52 3b
       0.06941776 0.09062755 0.048918575 0.0032145944
000130 10 fa bd 3d 8b 2d ec bb 4c 5c 5e 3d a2 ec 15 3c
       0.09276211 -0.0072075776 0.05428724 0.009150656
000140 45 d6 40 3d 81 33 66 bd 95 62 3f 3d 58 1b b4 3c
       0.047079343 -0.05620146 0.046724875 0.021985695
000150 20 0e 93 bd cf 73 6a bd fe 3e 21 bd 61 c1 bd bd
       -0.071804285 -0.05723935 -0.039366715 -0.092654
000160 4a e8 93 bd 0c 88 03 3c e4 e9 79 bd a3 eb af bd
       -0.0722204 0.008028042 -0.06101407 -0.08589866
000170 6b 50 97 bd dc 39 d4 3c c7 b9 55 bd cf b8 c9 bd
       -0.073883854 0.025906496 -0.052179124 -0.098497026
000180 51 a1 ee bb 6f e6 1e bd 04 07 cb 3c 5c dc 89 bc
       -0.007282414 -0.038793977 0.024783619 -0.016828708
000190 6a f4 6d bd 34 cd 70 3c 99 ba 0c 3d bf 42 c7 bc
       -0.05809442 0.014697362 0.03435764 -0.02432382
0001a0 97 b3 84 3b bc c6 ad 3b 2a a2 98 bd c0 eb 8c bd
       0.004049729 0.005303232 -0.07452805 -0.06880903
0001b0 76 45 be bc 4d 96 8c 3c b8 bd c8 3d 96 cc 4a bd
       -0.02322648 0.017161513 0.09801811 -0.049511515
0001c0 3a c6 5a bd 03 8a 63 bc 21 4a e8 3c a6 6b b4 bc
       -0.0534117 -0.013887885 0.02835566 -0.022023987
0001d0 ca cc 4c bd 6a 8b 55 bd 05 63 d5 bd 57 ed 1e 3b
       -0.04999999 -0.05213491 -0.10419277 0.0024250352
0001e0 c8 f9 d2 3c de 97 5b 3c 67 df a0 bd e5 2b ad 3c
       0.02575387 0.013402907 -0.078551106 0.021139095
0001f0 eb b9 f8 bc 5d 97 d5 3c 86 2f 8c 3c 29 b9 cd ba
       -0.03036209 0.026073152 0.017112505 -0.0015695441
000200 48 5d a2 3c 8c 5a 2a 3d 0c 28 ff 3b 50 3d a4 bc
       0.01981987 0.04159026 0.0077867564 -0.020048767
000210 64 2c f6 3c a9 3e 40 bd 60 af 80 3c 6d be a3 bd
       0.030050464 -0.046934757 0.015708625 -0.07995305
000220 b3 a9 b4 3d ca ce e8 3c 39 14 6d bd 2f 94 43 bd
       0.0882143 0.028418917 -0.057880614 -0.04774874
000230 ab 16 a1 bc 5c de 58 3d fa e2 8a bd 31 1d b2 3d
       -0.01966413 0.052946433 -0.067815736 0.08696974
000240 01 42 45 3c 9c 0f d3 bb dd 60 99 3c b7 7a f2 bc
       0.012039662 -0.0064410698 0.018722946 -0.02959953
000250 4e 72 8d bd 22 50 20 3b 54 d2 81 bd 7e be 85 bd
       -0.069065675 0.0024461825 -0.06338945 -0.06530474
000260 83 18 36 bd 60 33 39 bc 12 d1 0e 3c 7c 48 25 bd
       -0.04445697 -0.011303753 0.008716838 -0.04035233
000270 47 bf 46 bd cc ef 80 3d 11 8d 0b 3c 4c a2 e8 bc
       -0.04852226 0.062957376 0.00851752 -0.028397702
000280 af 12 79 3d c9 df fb b8 a4 0b 9f 3c 82 8f 02 3d
       0.060808834 -0.00012010296 0.01941473 0.03187514
000290 e3 8d a1 bd e7 d0 ea 3c 8e 00 30 bd 3d 1e 75 bd
       -0.07888391 0.028664066 -0.04296928 -0.05984329
0002a0 28 aa 87 bd 9b 93 7e 3c bd a7 01 bd 6f c1 44 3d
       -0.066242516 0.015538122 -0.03165411 0.048036035
0002b0 3c 8f a5 bd c8 4d b9 bd 2a c9 a9 3c 74 4a 87 bd
       -0.080839604 -0.09048039 0.020725805 -0.06605998
0002c0 ed 0b 1c bd 91 1d a4 3d 4a 3c 31 3d 7f ee 73 bc
       -0.03809731 0.08013452 0.043270387 -0.014888405
0002d0 20 76 64 39 8a 4e f5 bc 4b d4 30 bd 3e c2 03 3b
       0.0002178778 -0.029944677 -0.04317121 0.002010479
0002e0 60 7f 49 3d 42 ca 33 3d 7d f7 2b bd 13 16 fb 3c
       0.04919374 0.04389406 -0.04198407 0.030650174
0002f0 16 8b 94 bc e8 81 be bc 0c fe 90 3c 88 ea 8d bd
       -0.018132728 -0.023255304 0.017699264 -0.06929499
000300 b8 87 fe bc 0c 8b b5 bc 0f c2 89 bd 79 77 e6 bc
       -0.031070575 -0.02216103 -0.06726467 -0.02813314
000310 a3 d6 b5 bc 8f 5f d1 3c 5f e4 b9 bc 4f 5d 64 3c
       -0.022197073 0.025558261 -0.022691904 0.013938262
000320 f4 28 ed 3a 2f a0 42 bc 47 54 6c bd 55 3e 07 3d
       0.001809387 -0.011879011 -0.05769756 0.03301843
000330 67 a2 4e 3c 41 62 18 3c 33 63 f2 3a f7 88 53 bd
       0.012611962 0.009300769 0.0018492698 -0.05164429
000340 bb 58 a0 bd 52 de 25 3c 34 33 b4 bc 87 d3 93 3b
       -0.07829424 0.010123806 -0.021997072 0.0045113
000350 c3 f9 17 bd 11 f8 7f bc 58 b9 f6 3c 81 e8 68 3d
       -0.037103426 -0.0156231085 0.030117676 0.056862358
000360 63 c7 9a 3c 1e c1 f9 bc 78 31 7e 3d 8d e3 84 bd
       0.018893903 -0.030487593 0.062058896 -0.06488714
000370 f7 ce 3b bb 54 8b c0 3c 41 01 6a bd 0c f2 28 3b
       -0.0028657296 0.023503937 -0.057130102 0.0025779037
000380 95 fa 6d bd d5 3b e1 3c 41 ce 19 bd 89 20 9b 3c
       -0.0581003 0.02749435 -0.037550215 0.018936412
000390 44 4d 33 bd c1 af b8 bb cf c7 21 3d 40 2d c8 bd
       -0.043774858 -0.005636186 0.039497193 -0.09774256
0003a0 76 c8 6b bd 84 54 95 bc 84 0d 80 3c 8f 0f 4e 3d
       -0.05756422 -0.018228777 0.015631445 0.050307807
0003b0 88 92 9c 3c a0 a0 67 bd d3 d0 ce 3c c9 fd 48 bc
       0.01911284 -0.05654967 0.02524606 -0.012267538
0003c0 c3 7a a2 3c c1 5e f5 3c 3b 66 4c bc dd 53 e9 bc
       0.019833928 0.029952409 -0.0124755455 -0.028482372
0003d0 38 20 96 3c bb b9 ee 3c 69 84 62 bd dc 2e cd 3c
       0.01832591 0.029141298 -0.055302057 0.025046758
0003e0 6e e1 41 3d fa 22 a1 bc c0 9a 96 bd 3c 29 72 3d
       0.047334127 -0.019669998 -0.07353735 0.059121355
0003f0 e3 67 64 3a d4 71 8d bc 21 63 66 bd dd 50 67 3d
       0.000871299 -0.017266192 -0.05624688 0.0564736

model.7.bias f4 [32]
000000 4b 98 9a 3b 7c 5d 21 bd 11 a2 40 bd 22 b8 fa bc
       0.004717862 -0.039395794 -0.04702956 -0.03060538
000010 a1 1b 91 bd c5 de 86 bd c4 c4 36 bd c3 da ce 3c
       -0.07085348 -0.06585459 -0.044621244 0.025250798
000020 ee e8 38 3d a4 84 57 3d a0 68 7f bc b4 5f 33 bc
       0.045144014 0.05261673 -0.015588909 -0.01094811
000030 b9 e1 37 3c b7 fb 57 bc 10 78 ff 3c 52 66 fb b9
       0.01122325 -0.013182572 0.03118518 -0.00047950685
000040 aa 89 b4 3c a8 d1 84 3c 6f aa 65 bd 74 9e df bc
       0.0220383 0.016213253 -0.05607074 -0.027297236
000050 a9 5d 4e bd eb ab 2e bd 2f a5 51 bd 5c 58 f0 ba
       -0.05038229 -0.042644423 -0.051182922 -0.001833688
000060 64 80 1f bd db b8 26 bd 9c b6 aa 3c c5 6c b9 bb
       -0.038940802 -0.040703636 0.020839028 -0.0056587183
000070 ac 9e 74 3d 8c 8f 2a bc df fa 06 bd 68 bb 13 bd
       0.059721634 -0.010410201 -0.032954093 -0.036067396

model.8.weight f4 [32]
000000 88 79 6c 3f 38 87 76 3f 63 61 82 3f 38 7d 6f 3f
       0.9237294 0.9630008 1.018597 0.93550444
000010 e5 48 85 3f ee 9f 7b 3f f3 1f 82 3f 2d 5b 7e 3f
       1.0412871 0.9829091 1.0166 0.99357873
000020 2b 15 83 3f 17 a5 8b 3f d0 54 8b 3f 59 8f 89 3f
       1.0240835 1.0909756 1.0885258 1.0746871
000030 23 be 81 3f 6f 93 7d 3f 2e 88 74 3f d8 38 85 3f
       1.013615 0.9905309 0.95520294 1.0407972
000040 3d 8a 7a 3f ff 48 80 3f 81 f5 7c 3f 73 04 7e 3f
       0.97867185 1.0022277 0.9881211 0.9922554
000050 3c e2 68 3f 43 b8 65 3f d2 e5 6b 3f a1 66 66 3f
       0.90970206 0.89734286 0.9214755 0.9000035
000060 f2 18 73 3f 06 e0 80 3f 63 b7 71 3f e1 f6 7d 3f
       0.9495994 1.0068367 0.9442045 0.9920483
000070 57 44 86 3f dc d7 68 3f f3 54 6a 3f 79 0e 70 3f
       1.0489606 0.90954375 0.9153587 0.93772084

model.8.bias f4 [32]
000000 2c 15 e0 bd 38 c6 b6 bd 40 9d 3b bd 21 c8 cc bd
       -0.10941538 -0.08924526 -0.045804262 -0.09999109
000010 69 5b 1d bd 00 61 4a bd 1e ff ff bb 4f a2 8b bd
       -0.038417254 -0.049408913 -0.0078123948 -0.06818067
000020 ae 15 90 bd f7 fe e0 bc c1 5a da 3b 45 0d 54 bb
       -0.07035385 -0.027465327 0.0066636507 -0.0032356542
000030 04 11 d5 bc c3 f5 9c bd ff cc cf bd 00 f7 91 bc
       -0.02600909 -0.07664063 -0.10146522 -0.017817974
000040 53 47 90 bd 36 87 13 bd 73 b3 e5 bd db fd bf bd
       -0.07044854 -0.03601762 -0.11215868 -0.09374591
000050 59 ac bc bd cf ac 02 be de b9 d6 bd 78 bf d1 bd
       -0.0921256 -0.12761234 -0.1048467 -0.10241598
000060 d5 28 1c bd 2d 5b ce bd c0 ae 2c bd 1c c9 7f bd
       -0.038124878 -0.10075984 -0.042158842 -0.062447652
000070 d8 8d 2e bd 67 be 9c bd 09 c2 68 bd 93 8a bc bd
       -0.04261574 -0.07653504 -0.05682567 -0.092061184

model.8.running_mean f4 [32]
000000 0f 94 8a bf 0a 3d 23 bf e8 c4 cd 3c 93 7b 09 3f
       -1.0826434 -0.63765013 0.025118306 0.53704184
000010 7e b8 87 3d 8f 6f b0 be eb 7d c0 be 3f 43 06 3e
       0.06626986 -0.34460112 -0.37596068 0.1311159
000020 64 f3 7b bd 80 91 fd bd 77 d6 09 bf 44 d4 e3 bd
       -0.061511412 -0.123812675 -0.5384287 -0.11124471
000030 61 46 9b 3d 34 03 78 3e b0 55 a5 3e 84 b3 9d bd
       0.07581783 0.24219972 0.32291937 -0.077002555
000040 53 58 93 be fc 24 83 bd 8d fe 89 be a3 68 d0 3c
       -0.28778324 -0.064035386 -0.2695202 0.02544052
000050 b8 e0 9c be b6 02 8d be 4a 4d 0a be 72 94 72 bf
       -0.30640197 -0.2754113 -0.13506046 -0.9475776
000060 06 31 9f be 72 23 72 bd 85 35 f5 be ec c2 ae be
       -0.3109209 -0.059115835 -0.47892395 -0.3413309
000070 e5 3a 1e 3f 68 00 f7 be 36 8f 20 bf 02 10 08 bf
       0.61808616 -0.48242497 -0.6271852 -0.53149426

model.8.running_var f4 [32]
000000 a1 4a a0 3f be 1b 27 3f 74 90 ce 3e bc eb ce 3e
       1.2522775 0.65276706 0.40344584 0.40414226
000010 66 53 cc 3e 96 f9 de 3e de 8c 85 3e 79 be 75 3e
       0.39907378 0.43549794 0.26084036 0.23998441
000020 c6 7d 54 3e d2 55 86 3e d3 99 d8 3e 49 bc 8a 3e
       0.20751104 0.2623735 0.4230486 0.27096775
000030 93 f6 aa 3e 01 32 8e 3e c7 90 19 3f d7 88 ab 3e
       0.33391246 0.27772525 0.5998654 0.33502838
000040 c5 23 17 3f 42 6f 03 3f 0c 8a 56 3e c0 23 da 3e
       0.59038955 0.5134164 0.20951098 0.426054
000050 9f 26 6c 3f b3 db 4e 3f 45 f1 06 3f ff ab 0f 40
       0.9224643 0.80803984 0.527119 2.2448728
000060 2e 94 b3 3e 1a 63 a5 3e b9 c8 41 3f 63 63 7e 3f
       0.3507399 0.3230217 0.75696903 0.993704
000070 cb 84 47 3f 65 74 ef 3f f4 67 93 3f e1 96 ab 3f
       0.77937 1.8707396 1.1516099 1.340542

model.10.weight f4 [64, 32, 3, 3]
000000 f2 b2 16 bd da 12 d9 bc eb 27 25 bd 24 c1 2d bd
       -0.03679175 -0.026498247 -0.040321272 -0.04242052
000010 e1 eb 83 3d 41 31 cc 3b 46 05 37 3d a6 a1 06 3d
       0.06441475 0.0062314575 0.044682764 0.032869004
000020 78 57 b9 3c 6f 46 a9 bc fc 15 66 bc ff 66 04 3c
       0.022624716 -0.020663468 -0.014043327 0.008081197
000030 68 d8 71 3c 40 f5 5d bd 3c d6 95 bd c1 45 88 bd
       0.014761068 -0.054188967 -0.073162526 -0.066539295
000040 29 31 a1 3c eb 32 1d bd 92 ef c9 3d a0 e7 4b 3d
       0.019676762 -0.038378637 0.098601475 0.04978144
000050 80 d5 0f 3d 61 0c 9e bd 05 11 1c bc 4b a3 55 bd
       0.03511572 -0.07717205 -0.009525542 -0.05215768
000060 f8 1d da bc b2 1b b4 bd 5b 8e 1c 3c 20 db 60 3d
       -0.026625618 -0.08794345 0.009555425 0.054896474
000070 a0 04 4e 3d 1e 7c 6f 3d 8d 7b 8e 3d 55 86 09 bd
       0.05029738 0.058467977 0.06957159 -0.033575375
000080 8b 2f 47 3a 81 61 94 bd 75 c0 3c bd 5e f6 e3 3c
       0.0007598332 -0.0724516 -0.04608198 0.027827438
000090 a5 aa 7a 3d e1 e0 7d 3d 82 90 89 3d b6 f4 52 bd
       0.061197896 0.06198204 0.06717016 -0.051502906
0000a0 73 d0 9c bc 22 97 b8 bd 1c 36 2b bc e3 c9 f7 bd
       -0.019142365 -0.09013201 -0.010449912 -0.12099054
0000b0 ab fe ac 3c 57 55 39 3d d0 04 31 3d e8 e3 8f 3d
       0.021117529 0.045247402 0.04321748 0.070258915
0000c0 94 13 00 3d 40 7c 48 bc 3b 5c 2e bd 14 3e c7 bd
       0.03126867 -0.012236655 -0.042568427 -0.09728637
0000d0 3d d0 41 bd cf 78 68 bd 43 6d d3 3c e8 ee 5b 3d
       -0.047317732 -0.056755837 0.025808936 0.053694636
0000e0 73 d5 87 3c c7 72 1e bd ae 87 90 3d e4 f6 a2 bd
       0.016581273 -0.03868368 0.07057129 -0.07957247
0000f0 1e 64 11 bd 32 3d 69 bd e4 bf 28 3c 4b f8 6a 3d
       -0.03549587 -0.056943126 0.010299657 0.057365697
000100 57 ca 53 3d 9c d1 ca bc 96 00 db bc 34 3b 08 bd
       0.05170664 -0.024758153 -0.026733678 -0.033259585
000110 a5 74 65 bd 3e 52 ac 3c d0 b7 a9 bd 71 8c ac bc
       -0.056019444 0.02103531 -0.082870126 -0.021063061
000120 ac 53 9c 3d e2 ca 32 3d e4 7f 9b bd 72 89 7a 3d
       0.07633147 0.043650515 -0.075927526 0.061166234
000130 b5 49 56 bd c5 0f 15 3d 6b 51 a3 3c 39 21 8f bb
       -0.052316386 0.036391992 0.019936284 -0.004367974
000140 b8 f5 51 3c 91 51 89 3d 4a 70 19 3d db 46 4f 3c
       0.012814932 0.06705011 0.037460603 0.012651171
000150 3e 86 21 bd c6 2c 85 bd e9 9e 30 bd c0 09 88 3c
       -0.039434664 -0.065026805 -0.0431203 0.016606212
000160 ff 45 e1 bc e5 f2 23 3d 24 d5 c7 3c 7d 40 2e 3d
       -0.027499197 0.040026564 0.024393626 0.04254197
000170 ac 65 51 3d ad a6 8c bd 0e 4d 11 bd d1 ea 9e 3c
       0.051122352 -0.068677284 -0.035473876 0.019399079
000180 97 97 46 3b c2 48 bb bb 5c 5c dc 3b ed 71 22 3a
       0.0030302757 -0.0057154605 0.0067248773 0.0006196786
000190 fc e3 9f 3d e4 45 5d bd 08 80 04 bd 35 43 7c 3d
       0.078071564 -0.05402173 -0.032348663 0.06158753
0001a0 5e b3 70 bd ec 6c 8d bd 78 5d fb bc 1b c1 3c bd
       -0.058764808 -0.06905541 -0.030684218 -0.046082597
0001b0 00 5e 42 bc 19 a8 62 3c 75 0b 77 3c 7d 0c d5 3c
       -0.011863232 0.013834023 0.015078415 0.026006931
0001c0 0f 3f 77 3d b1 0d aa 3d a1 88 4f 3c cd 9a 01 bd
       0.06036287 0.08303393 0.012666852 -0.03164177
0001d0 e4 d5 8a bd 50 cd 00 bd 53 34 95 3c a9 c1 f8 3d
       -0.06779078 -0.0314458 0.018213427 0.12146313
0001e0 3a 9a 53 bd 73 e3 0b 3b 12 64 04 3d 44 3e ae bd
       -0.051660754 0.0021345287 0.032321997 -0.0850797
0001f0 2b f7 83 bd 90 9e 8d bc d6 cd c9 3d 24 cb ed 3c
       -0.06443628 -0.017287523 0.09853713 0.029027529
000200 a3 c0 0c bd 0b 09 6b bc 85 65 10 bc 31 74 12 bd
       -0.0343634 -0.014345418 -0.008813267 -0.03575534
000210 e2 bf 8e bd 57 67 80 bd be ca d9 3c 44 b3 94 3c
       -0.069701925 -0.062697105 0.026585933 0.018151887
000220 92 50 45 bb 4a e4 90 bd 03 68 c8 3c 9f 8d e9 3b
       -0.0030107838 -0.07074793 0.02446366 0.0071274783
000230 46 27 b3 3c e8 d9 2f bd 37 5e a5 bd 55 24 31 bd
       0.021869313 -0.04293242 -0.08074611 -0.04324754
000240 dd 0c 7a bd f8 7f 02 bd 20 c1 1b 3d 70 48 98 3a
       -0.061047424 -0.03186032 0.038025975 0.0011618268
000250 79 cd e7 bc cf 56 61 3d cf 92 9a bc b2 2d 32 3d
       -0.02829622 0.055014428 -0.018868832 0.04350061
000260 b1 73 57 bc f4 1d c0 bd 8c 8e fc 3c b6 dd 8c 3d
       -0.013150142 -0.09380713 0.03082969 0.068782255
000270 7d 20 e7 bc a6 cc d7 3c 2f 0e e4 3c 9f fa 5e 3d
       -0.028213734 0.026342701 0.027838795 0.05443823
000280 73 6a 3a 3d 2e c5 8f bc df 35 b0 bc 41 dc 25 3c
       0.045511674 -0.017550077 -0.021510063 0.010123313
000290 3f 18 5a bd 66 22 e3 3c c6 18 4e 3d fe 20 1b bd
       -0.05324578 0.027726363 0.050316595 -0.03787326
0002a0 ce 02 b2 3b 76 0b 84 bb a2 67 ae bc d3 5a 71 3d
       0.0054324633 -0.0040296866 -0.02128965 0.058924507
0002b0 8f ac b3 bc ed bf b3 3d b1 47 a2 bd 16 75 db ba
       -0.021932868 0.08776841 -0.0792383 -0.0016743268
0002c0 7e 57 95 3d 50 19 74 3d e7 95 93 3c 8e 90 85 3c
       0.072920784 0.059594452 0.018015815 0.01630428
0002d0 e7 d9 0b 3d b8 b1 ce 3c bc 8d 97 3c c6 5a e2 bc
       0.034143355 0.025231227 0.018500201 -0.027631175
0002e0 82 06 e2 3c 3b 29 3a bc 62 21 a7 3c de 36 a2 3c
       0.027590994 -0.011362369 0.02040166 0.019801553
0002f0 6e 65 0b 3d fc 21 98 bc 40 8c 19 3b 35 35 9d 3c
       0.034032278 -0.018570893 0.0023429543 0.01919041
000300 63 07 8e bc 3e b4 a0 bc e6 26 7d bb 8c 60 90 3d
       -0.017337507 -0.019617196 -0.0038627922 0.07049665
000310 d7 5c 51 3d 3f f6 1d bd 04 8d 38 3d 5e 49 86 3d
       0.05111393 -0.038564917 0.045056358 0.065569624
000320 ba e5 70 3b 19 8c 6b 3d c4 17 56 bd fa 83 6a 3d
       0.0036758021 0.057506654 -0.05226876 0.05725477
000330 00 11 0a bd 6d 3e 6f bc 0a 1a b6 39 c6 24 08 bd
       -0.03370762 -0.014602286 0.00034733146 -0.033238195
000340 41 e4 95 bd 66 4c 98 bb 96 8f 8f 3c a5 6c 96 bc
       -0.073189266 -0.0046477793 0.017524522 -0.018362353
000350 4c 2d 0d bc 4b df 95 3d cc 6b cd bc 98 11 59 3d
       -0.008616757 0.073179804 -0.025075816 0.052995294
000360 32 48 99 bd 9e 3b 71 3d 1e 18 ce 3c 12 90 cd bc
       -0.07484473 0.058894746 0.025157984 -0.025093112
000370 48 85 bc 3d 50 95 84 bc ae c5 92 bd f2 62 22 3d
       0.09205109 -0.016184479 -0.07166611 0.039645143
000380 5c 11 4f 3d 89 83 3b bd ed b0 b0 3d ea fd ea bc
       0.050553665 -0.04577974 0.08627496 -0.028685529
000390 44 77 3d bc 8b ab 8d 3c e7 9f 56 3d d1 06 ea bb
       -0.01156408 0.017293712 0.05239859 -0.007141926
0003a0 9a 34 99 3d df e8 6c bd d0 a5 2e 3c 7e 3b ab 3c
       0.07480736 -0.05783927 0.01065965 0.020902392
0003b0 f9 8b 18 3b dc bc 32 bd 2f ff cf 3b 70 12 60 bc
       0.002327679 -0.04363714 0.006347559 -0.013676271
0003c0 33 50 18 3d 5e 9e e6 3c 26 86 33 bd b6 89 34 bc
       0.03718586 0.028151687 -0.043829106 -0.011019161
0003d0 2e 03 95 3d 81 39 14 3d e8 a6 8f bc 9d 3e aa 3a
       0.07275997 0.036187652 -0.017535642 0.0012988631
0003e0 a8 f1 07 3b cc 11 88 3d b7 9a 8f 3d e8 47 b7 3a
       0.0020743404 0.066440195 0.070119314 0.0013983222
0003f0 2e 24 15 bd 5f 3f df 3c 0f 68 e0 3b 2e f6 c7 bc
       -0.036411457 0.027251897 0.0068483423 -0.02440938

model.10.bias f4 [64]
000000 2d 4c 38 bd ee 2c 23 3d 65 f2 ec bc 6d a0 f0 3c
       -0.044994522 0.03983777 -0.028924176 0.029373372
000010 73 f7 b6 bc e6 81 60 3c 15 34 b2 bc ee 03 39 bd
       -0.02233479 0.013702845 -0.02175335 -0.045169763
000020 92 ef 6c 3d 01 23 ea 3b 1e e3 c0 3c 40 1b 38 3c
       0.05784566 0.007145286 0.023545798 0.011236966
000030 e9 8b 2f 3c 94 33 33 3d 9c 43 40 3d 3d 4c e8 3c
       0.0107145095 0.04375036 0.046939477 0.028356666
000040 7d ce 10 bd 1e 5a 90 3b d6 56 ed bc fc de f3 bc
       -0.035353173 0.004405274 -0.02897207 -0.029769413
000050 8f ad b9 3c 54 f9 3d 3d a6 1e 66 3d 53 a9 fe 3c
       0.022665767 0.046380356 0.056181572 0.0310866
000060 30 85 49 3d 58 2a d2 bc 23 c6 6d 3d a5 76 4b bc
       0.049199283 -0.025654957 0.058050286 -0.012418424
000070 29 5f 35 bc 8f 2f 21 bd 57 47 3b bd 24 ad 80 3d
       -0.011070051 -0.039351996 -0.04572233 0.06283024
000080 09 25 7c bb b6 dc 75 bb 50 c7 de 3c b0 ea 28 3d
       -0.0038474223 -0.0037515587 0.027194649 0.04123944
000090 4e 99 52 bd 8f f4 2c 3b a6 69 b2 3c a0 23 18 bd
       -0.051415734 0.0026390885 0.021778893 -0.03714335
0000a0 10 d0 fd 3c 81 e7 54 3c 06 53 d6 3c e0 b2 e3 bc
       0.030983001 0.012994648 0.026162636 -0.027795255
0000b0 be b9 82 3c 63 f7 2e 3d b6 96 0e bc dc 43 a8 3c
       0.01595771 0.042716395 -0.0087029245 0.02054017
0000c0 11 b6 06 3d 27 ed 63 3d f3 a3 e5 bc 30 8a 8d bc
       0.032888476 0.055646088 -0.028032279 -0.017277807
0000d0 43 ab b6 bc 50 8c a4 bc 8b cf 05 bb 93 19 3e 3d
       -0.02229846 -0.020086437 -0.0020417895 0.04641111
0000e0 d4 7a 3c 3c ce 98 42 3d 3e 6d 3d 3b 77 cb 40 bd
       0.011503894 0.047509007 0.0028904225 -0.04706904
0000f0 b1 13 0b bd 09 7a 4c bd e3 d2 66 3d 61 16 e5 3c
       -0.033954326 -0.04992107 0.05635346 0.027964773

model.11.weight f4 [64]
000000 ae 84 7b 3f b7 5d 7c 3f 4f 50 86 3f b6 24 81 3f
       0.9824933 0.985805 1.0493258 1.0089328
000010 f4 55 6b 3f 29 87 76 3f 86 d3 86 3f bc c6 81 3f
       0.9192803 0.9629999 1.0533302 1.0138774
000020 9a bf 75 3f bf ef 81 3f 7a 55 80 3f 33 09 73 3f
       0.95995486 1.015129 1.0026085 0.9493591
000030 c3 75 79 3f 06 52 7e 3f 3f 19 78 3f 80 21 7c 3f
       0.97445315 0.9934391 0.9691352 0.98488617
000040 d9 39 82 3f ce b1 80 3f 37 2d 80 3f 13 18 72 3f
       1.0173904 1.0054262 1.0013798 0.94567984
000050 9b 08 7a 3f 0d cc 81 3f 9c d0 7b 3f 25 14 85 3f
       0.9766938 1.0140396 0.9836519 1.0396773
000060 31 4d 76 3f 38 06 76 3f 8d 4c 7c 3f c0 7b 86 3f
       0.96211535 0.9610324 0.9855431 1.0506516
000070 9c 73 72 3f 9e b0 6c 3f 54 9f 86 3f 28 87 81 3f
       0.94707656 0.92456996 1.0517373 1.0119371
000080 05 56 83 3f 3e a5 84 3f 96 11 69 3f bf 8b 7b 3f
       1.0260626 1.0362928 0.9104246 0.9826011
000090 d2 bb 75 3f 68 8c 7d 3f 73 7a 7b 3f 8b 9d 85 3f
       0.95989716 0.9904237 0.9823372 1.0438703
0000a0 54 c6 82 3f 25 95 6d 3f c5 8f 88 3f 78 44 83 3f
       1.0216775 0.928057 1.0668875 1.025527
0000b0 10 dd 8a 3f d4 59 82 3f 9f 53 75 3f 8d 78 7b 3f
       1.0848713 1.0183663 0.9583072 0.9823082
0000c0 11 5c 7b 3f 5e fc 78 3f 36 2b 85 3f 92 09 73 3f
       0.9818736 0.9726008 1.0403812 0.9493648
0000d0 8f 72 82 3f 86 4e 7d 3f 4b d6 7f 3f 75 d1 80 3f
       1.019121 0.9894794 0.9993636 1.0063921
0000e0 ac 08 81 3f 30 29 87 3f 83 3d 81 3f ba 77 80 3f
       1.0080771 1.0559444 1.0096897 1.0036538
0000f0 df e1 6c 3f d3 ff 79 3f 04 22 8a 3f db 44 80 3f
       0.9253215 0.9765598 1.0791631 1.0021013

model.11.bias f4 [64]
000000 18 b0 d1 bd 48 33 82 bd 72 ad dd bd 1c 5c f1 bd
       -0.10238665 -0.06357437 -0.10824098 -0.117851466
000010 2c 78 bf bd 04 0b d2 bd 59 ea 64 bd 86 0e 14 be
       -0.09349093 -0.10256007 -0.055887554 -0.14458665
000020 4f 7d 90 bd 9e eb 68 bd 2f e5 a5 bd 19 31 a5 bd
       -0.07055151 -0.056865327 -0.08100354 -0.08066005
000030 53 7a 87 bd cf c5 35 bd 66 44 8f bd 21 11 d3 bd
       -0.06615128 -0.044378098 -0.06995468 -0.103060015
000040 ef 6a 0e bd 61 10 6f bd 64 97 d6 bd 5e 04 ad bd
       -0.03476995 -0.05836523 -0.10478094 -0.084480986
000050 b1 1b 94 bd 3e 9b 0e be f7 38 dc bd b9 6f 60 bd
       -0.07231844 -0.13926408 -0.10753053 -0.054794047
000060 92 d6 58 bd 17 c7 fd bd fe fc f0 bd 3e 7e c4 bd
       -0.052939005 -0.12391489 -0.117670044 -0.09594391
000070 99 a4 c1 bd 6f 20 76 bd c4 09 fd bd 75 05 83 bd
       -0.09455223 -0.060089525 -0.12355378 -0.06397525
000080 52 89 c3 bd 48 ba 6e bd ee 1c b9 bd 65 ff 87 bd
       -0.09547676 -0.05828312 -0.09038721 -0.066405095
000090 60 a2 84 bd 66 b3 97 bd e0 0e 9b bd 7b 29 52 bd
       -0.06476283 -0.074072644 -0.075711966 -0.05130909
0000a0 91 1f 0b be 2c 2d af bd a5 0d 51 bd 0d 19 b2 bd
       -0.1358626 -0.08553538 -0.051038403 -0.08696184
0000b0 24 9d 95 bd ed 72 56 bd 1a 0d c7 bd 37 35 98 bd
       -0.07305363 -0.052355696 -0.09719296 -0.07432025
0000c0 d5 6b 9d bd f1 72 4e bd 85 61 2b be 20 47 b8 bd
       -0.07686583 -0.050402585 -0.1673642 -0.08997941
0000d0 0c 45 3c bd 0f 03 95 bd aa e2 86 bd c8 aa b2 bd
       -0.045964286 -0.07275974 -0.065862015 -0.0872398
0000e0 03 1a 87 bd 50 8f 68 bd b0 51 84 bd e5 92 69 bd
       -0.06596758 -0.0567773 -0.06460893 -0.057024855
0000f0 10 1b ad bd 2d 8e 8a bd a2 cb 78 bd ef 3d c6 bd
       -0.084524274 -0.06765399 -0.060741074 -0.09679782

model.11.running_mean f4 [64]
000000 45 20 21 be 7a db f5 be 82 b9 33 3e a8 5c e9 3c
       -0.15734966 -0.4801901 0.17551234 0.028486565
000010 b7 6f e9 be c3 10 0f bd 54 cb b0 be 73 3c 80 3d
       -0.45593044 -0.034928095 -0.34530127 0.0626153
000020 92 5f 0e be 9f 4e f3 be 06 a9 19 be e5 cd ab bd
       -0.13903645 -0.4752092 -0.15005884 -0.08388881
000030 e4 cd 49 be 61 09 ac be 45 d6 ec be 0e 88 93 be
       -0.19707447 -0.33600906 -0.46257225 -0.2881474
000040 a1 fe d0 bd 23 1e 78 be 1c fa 3d be f0 2e 60 3d
       -0.102048166 -0.24230246 -0.1855244 0.054732263
000050 da c8 9c bd 53 11 89 3d f6 7b 1a 3e 47 5c 44 be
       -0.07655497 0.066927575 0.1508635 -0.19175826
000060 f1 9a 37 be 19 b9 93 be a6 2b 22 3e 27 6e 0e be
       -0.17930199 -0.28852156 0.15836963 -0.13909207
000070 c0 99 ff be ff b6 f1 be b6 a3 9d bc 1b db 62 3d
       -0.4992199 -0.47209927 -0.019243103 0.055384737
000080 74 17 f8 3d 09 52 90 be 82 83 30 bd cf 22 c2 be
       0.12113848 -0.28187588 -0.043094166 -0.37917182
000090 b5 7d a4 be de bc 40 bd e5 04 d4 be 04 20 a3 3d
       -0.32127157 -0.047055118 -0.41409984 0.07965091
0000a0 0a 67 81 3e 56 1e 79 be e1 36 d9 be 5f 72 12 be
       0.25273925 -0.24327978 -0.42424682 -0.14301442
0000b0 1f a4 dd 3e da ed b9 3e 99 12 b7 be 45 6c bb be
       0.43289277 0.3631428 -0.35756376 -0.3660604
0000c0 45 32 87 3d 10 f1 fb 3b 27 63 0c 3e ae 50 d6 be
       0.06601385 0.007688649 0.13709699 -0.4185843
0000d0 a8 a8 ef be d3 50 b2 be 83 4b e2 bd 78 d2 97 3d
       -0.46808362 -0.3482729 -0.11049559 0.074131906
0000e0 af 8f db be 83 50 11 3e 16 40 cb be a6 09 f3 be
       -0.4288306 0.14190869 -0.3969733 -0.474683
0000f0 f3 2a 2f bf da 11 de be 81 91 6f bc 33 64 97 be
       -0.6842491 -0.43372995 -0.014622093 -0.29568633

model.11.running_var f4 [64]
000000 12 ab d4 3e ca 3b c6 3e dc d7 7b 3e 77 04 a6 3e
       0.41536766 0.3871749 0.24594063 0.3242528
000010 f8 2b df 3e b6 8e 68 3e 9c 24 9c 3e ad 7a 93 3e
       0.43588233 0.2271069 0.3049668 0.28804532
000020 cd da d9 3e 68 d3 c5 3e ad 6f a6 3e 3d 69 9b 3e
       0.42549744 0.38637853 0.32507077 0.30353728
000030 a2 30 9a 3e dc 54 93 3e 6f 44 d3 3e 85 72 9a 3e
       0.3011523 0.2877568 0.41263148 0.30165496
000040 29 e4 89 3e e7 8d ca 3e 83 4a a4 3e a9 98 9d 3e
       0.26931885 0.39561388 0.32088098 0.30780533
000050 15 10 a9 3e 2f 41 e2 3e e2 09 8b 3e 86 be bd 3e
       0.33020082 0.44190356 0.27155977 0.3705942
000060 93 4b a7 3e 33 4d b7 3e 7b fd 5a 3e 59 ad 87 3e
       0.32674846 0.35801086 0.21385758 0.2649944
000070 cb f5 15 3f ae cd 0e 3f 4c 7c 86 3e db 7b 7b 3e
       0.58578175 0.5578259 0.26266706 0.24558966
000080 3e 63 84 3e f5 1c 7d 3e 3e 9f 0b 3f fb c7 9a 3e
       0.25856966 0.24718077 0.5453986 0.30230698
000090 9b 28 17 3f 3f 15 92 3e 2d a3 c0 3e b4 05 a6 3e
       0.59046334 0.28531834 0.37624493 0.32426226
0000a0 f1 56 86 3e 24 62 ca 3e 45 16 85 3e 8d 2c 89 3e
       0.26238206 0.39528 0.25993553 0.26791802
0000b0 90 c5 8c 3e ee da 68 3e 31 a6 02 3f 3a 18 bd 3e
       0.27494478 0.22739765 0.5103484 0.36932546
0000c0 78 c7 96 3e 93 e0 88 3e 1c 6d 98 3e 97 03 68 3e
       0.29449058 0.26733837 0.29770744 0.2265762
0000d0 52 92 b7 3e 5a b9 87 3e 4d f7 a4 3e d2 28 a6 3e
       0.3585382 0.265086 0.32219926 0.32453018
0000e0 b2 ef 88 3e e3 12 d6 3e 57 7f bf 3e 92 80 b6 3e
       0.26745373 0.41811284 0.3740184 0.35644966
0000f0 a3 89 21 3f 7c bb be 3e 36 77 5c 3e b3 a5 8f 3e
       0.6310064 0.37252414 0.2152985 0.28056106
