imitation_learning/models/h3-agent.pt (torch, 966128 bytes, 34 tensors)

model.0.weight f4 [16, 3, 7, 7]
000000 41 81 fd 3b f9 14 9b bd 88 a0 27 bd 56 e9 01 3d
       0.0077363555 -0.075723596 -0.04092458 0.031716667
000010 c0 b8 93 bc 75 6c 7f 3d 28 85 d0 3c 05 72 8e 3d
       -0.018032432 0.062359292 0.025454119 0.06955341
000020 5e 31 86 bc 1e e9 39 3d ed 63 0f bd 15 91 65 3d
       -0.016380962 0.045388333 -0.035007406 0.056046564
000030 b4 ee d4 3c f3 25 54 bd 86 c5 56 3d 7c 31 9d bd
       0.025992729 -0.051794004 0.052434467 -0.07675454
000040 f0 d5 02 3d 59 04 e9 3b ec c8 5f bb 0b 6b 96 bd
       0.031942308 0.007111114 -0.0034146858 -0.073446356
000050 29 d0 9a 3c c0 c4 80 3c 9d d9 23 bd 48 06 78 3d
       0.018898087 0.015718818 -0.040002454 0.060552865
000060 08 ea 3d bc 82 f2 9c 3d 4f 56 fa bc cf 94 94 3d
       -0.011591442 0.07663442 -0.030558733 0.072549455
000070 da 98 be 3c 1e 65 4d 3d 9c cd 4f bd 68 48 ca bc
       0.023266245 0.05014526 -0.050733194 -0.02469273
000080 76 6b 7a bd f7 2e 1b 3d 9e eb 48 bd 32 73 23 bd
       -0.06113764 0.037886586 -0.049052827 -0.03990478
000090 8d 52 9d 3d 1e 00 75 bd e4 99 40 3d a5 fa 7e 3d
       0.07681761 -0.059814565 0.04702176 0.062250752
0000a0 ed c4 98 bc 4c db 41 bb 27 29 73 bc 04 f3 a3 bb
       -0.018648589 -0.0029580174 -0.014841354 -0.005003335
0000b0 a2 d4 60 bc 65 35 c1 3c f4 45 85 3d 6a f8 90 bd
       -0.013722571 0.02358503 0.06507483 -0.07078631
0000c0 60 78 85 3a 04 e0 70 bd 79 80 3d 3c 24 01 4b 3d
       0.0010182969 -0.058807388 0.011566275 0.049561635
0000d0 a2 0d f9 bc a1 7e 3b 3d 5b fd 93 3d 76 2e 91 3d
       -0.030402008 0.04577506 0.07226058 0.0708894
0000e0 e0 b8 d7 bc 63 2c a1 3c a0 52 e8 3c d1 8a 81 bd
       -0.026333272 0.019674486 0.028359711 -0.06325305
0000f0 9d 8c 40 bd 54 f0 11 bd 15 15 96 3d 44 b7 d1 3c
       -0.0470091 -0.035629585 0.0732824 0.025600083
000100 80 57 99 bd 45 af 00 bd 16 c8 85 bd 8c 66 25 bc
       -0.074873924 -0.03141715 -0.06532304 -0.01009525
000110 8b ab 80 3d d3 e6 52 bd 2f bc 9b 3d 63 06 ab bd
       0.06282719 -0.051489662 0.076042525 -0.083508275
000120 d0 94 df 3b 29 d2 69 bd 7b ce 4d 3d 31 be 2b bd
       0.0068231598 -0.05708519 0.050245743 -0.041929428
000130 d9 3c 08 bd e6 9c 88 3d 97 8a 42 3c 29 b3 b3 3b
       -0.033261154 0.06670551 0.011873863 0.005484004
000140 ce c2 52 3d dd 1b 75 3b 2a da 8e bd 7c d9 e0 bc
       0.05145531 0.003740064 -0.06975205 -0.027447455
000150 f8 db 86 bc a3 82 db b9 09 34 5a 3d 63 98 a1 3d
       -0.016462311 -0.00041868267 0.05327228 0.078903936
000160 91 0b a9 bc bd 7f 91 bd b3 39 1b 3d 1b cd 8d 3d
       -0.020635398 -0.07104442 0.037896823 0.069238864
000170 91 de 68 3d 18 39 77 3d 59 55 b5 3d 94 d0 fc 3c
       0.05685288 0.060357183 0.088541694 0.030861177
000180 37 42 88 bb 1b fd 25 bc 42 3e 0e 3d 21 bc 08 3d
       -0.004158284 -0.010131146 0.034727342 0.03338254
000190 41 8d 4e 3d b3 39 a3 3c 24 1d 98 bd 82 3b 6d bb
       0.05042768 0.019924974 -0.07427433 -0.00361988
0001a0 48 0a 99 3d a2 bf 95 3d 56 6c 3e 3d e5 71 7a bd
       0.07472664 0.07311942 0.046490036 -0.061143775
0001b0 a7 75 5c 3d ff fc 57 3d c0 5d a3 bd 93 a1 a9 bd
       0.05382314 0.05273151 -0.07976866 -0.08282771
0001c0 d6 f1 d3 bc f9 4c 3e bd e6 62 57 3d 32 f3 64 3d
       -0.025872152 -0.046460126 0.05258455 0.05589599
0001d0 5d 3a 13 3a fb 6e bb 3c 5f e2 34 bd d1 af 5d bc
       0.0005616302 0.022880068 -0.044161197 -0.013530687
0001e0 6e ce df 3c f0 19 aa bc 0c 09 19 3d d2 0f f7 3c
       0.027320113 -0.020764321 0.037362143 0.03015891
0001f0 be 68 a6 3c d8 2f a8 3d 77 23 96 3c 47 55 a3 3d
       0.020313617 0.082122505 0.018327458 0.0797525
000200 2f 96 88 3b 4a 2b 85 bd a0 23 9e 3d 00 7f 0a bd
       0.004168294 -0.06502397 0.07721639 -0.033812523
000210 71 0d fe bc 8e 83 94 3d e9 e0 5a 3c 82 17 b1 bc
       -0.031012269 0.072516546 0.013359287 -0.021617655
000220 99 87 28 3c fd c0 e2 bc bb 95 59 3d f4 9d fd 3c
       0.010286235 -0.027679915 0.05312131 0.030959107
000230 bc 3b 9b 3d b5 73 cb 3c 4f 13 8f 3d 9a ea 8d bd
       0.07579753 0.024835447 0.06986105 -0.06929512
000240 9f 4f 9a bd 00 03 71 3d e0 1f 02 bc b2 da 54 3c
       -0.07534718 0.05884075 -0.00794217 0.012991594
000250 28 d0 a2 3d 9e 74 85 bc 1f 46 52 3c de b3 8f bc
       0.07949859 -0.016290959 0.012834101 -0.017541822
000260 95 62 71 3d 05 59 dc bc f2 dc 0a bc 6c f8 f0 bc
       0.058931906 -0.026897917 -0.008475529 -0.029415332
000270 a2 1f 80 3d 57 68 33 bd 16 3d aa bd 41 30 56 bc
       0.062560335 -0.043800678 -0.083124325 -0.013073028
000280 f5 a1 cd bc d3 43 a9 bc 00 7d ea bc f8 fb a4 bd
       -0.025101641 -0.020662224 -0.028624058 -0.08055872
000290 fb a4 89 3c 97 2f b4 3c 41 7d e9 bc b2 f0 5c 3d
       0.016802302 0.021995349 -0.028502109 0.053940482
0002a0 0b ed 5e bd 43 a6 ce ba bb ba 7f bd 88 ab 94 3c
       -0.05442528 -0.0015766103 -0.06243394 0.018148199
0002b0 c7 70 7a 3d ea e4 93 3c 3a d2 b8 bc 7c a6 75 3d
       0.06114271 0.01805349 -0.022561181 0.059973225
0002c0 1f 5b c8 3b 60 29 ff bc 45 89 29 3d 5a df 1c bd
       0.006114378 -0.031147659 0.041390676 -0.038298942
0002d0 85 f9 ff 3b a4 58 7f bd 26 ab 2c 3d ef c5 73 bd
       0.0078117275 -0.062340394 0.042155407 -0.059514936
0002e0 06 5b 98 ba 5e 00 8b bd 4b a8 4f bd 4f b0 10 3d
       -0.0011623807 -0.067871794 -0.050697606 0.03532439
0002f0 03 ab 5b bd 1d 83 8c bd f9 2a 54 3d 4f 3c 40 bd
       -0.053629886 -0.068609454 0.051798794 -0.046932515
000300 aa 79 7f bd 3c 3f 95 bd fd 0d 99 3d 25 1b 14 3d
       -0.062371887 -0.072874516 0.07473371 0.0361587
000310 50 10 3c bd f7 1e 97 bd 98 fc a3 3d 4c f6 96 bd
       -0.045913994 -0.07378953 0.08007163 -0.07371196
000320 c0 d1 4e 3c c3 79 66 3d d7 c3 85 bd a7 d6 86 bd
       0.0126232505 0.056268465 -0.06531494 -0.065839104
000330 71 3c 60 bd bd 73 82 3d fc 9f 9f bb 06 4b eb 3c
       -0.05474514 0.063697316 -0.0048713665 0.028722297
000340 a3 3d 91 3c b5 66 a2 bc 06 3e 91 bd f8 dc 0e bd
       0.017729586 -0.019824365 -0.07091908 -0.0348787
000350 56 14 86 bd e8 36 17 3d 34 c0 4e bc a2 51 99 3d
       -0.065468475 0.036917597 -0.012619067 0.07486273
000360 f6 fb 31 bd 2a fc 25 39 d3 8f 9e bd 97 02 9f 3d
       -0.04345318 0.00015829565 -0.07742276 0.07764166
000370 81 2b 6a bc 59 44 10 3d 17 16 2c bc 82 4a 96 3d
       -0.014292599 0.03522143 -0.0105033135 0.0733843
000380 c1 29 69 3d 5c 01 81 bd 2c 9b 6d 3a f4 79 76 3d
       0.056924585 -0.062990874 0.0009063955 0.060174897
000390 4c 14 42 3d 97 ae 71 bd a0 da 4f bd 53 0e ee bc
       0.047382638 -0.059004392 -0.050745606 -0.029059565
0003a0 ab b6 57 3c 4e 35 13 3d 50 20 bd bc 1e a8 e1 3c
       0.01316611 0.035939507 -0.023086697 0.027545985
0003b0 5e 30 a2 bd be ff a2 3d 5f 12 fb bc 9b 7e 2d bd
       -0.079193816 0.07958935 -0.030648408 -0.04235707
0003c0 07 1a 15 3d cf 2c 98 3d 37 40 45 3d 4a 1d ae 3c
       0.036401775 0.074304216 0.048156943 0.0212542
0003d0 14 22 67 bd f1 d2 1d 3d e6 e5 e7 3c 68 06 83 3d
       -0.056428984 0.038531248 0.028307866 0.06397706
0003e0 c1 25 5d bc 26 d5 98 3a f8 1d 6c 3c 11 20 90 bd
       -0.013497771 0.0011660203 0.014411442 -0.07037366
0003f0 b2 eb 46 bd f4 70 72 3d 16 01 6c bd aa 41 4c 3d
       -0.04856462 0.05918975 -0.057618223 0.04986731

model.0.bias f4 [16]
000000 0c c2 0e bd 27 af 1e 3d 7c 44 33 bc 1d 1b 04 bd
       -0.034853026 0.038741257 -0.010941621 -0.03225242
000010 da 58 24 3d 59 f0 27 3c de a1 82 bd 4c 75 83 bb
       0.040123798 0.010250174 -0.0637853 -0.0040117856
000020 c0 a4 a5 bd ee c4 a4 3d c5 78 e7 3c 0b 2e a7 bd
       -0.08088064 0.08045374 0.02825583 -0.08163079
000030 07 be 4e 3d a0 b5 84 bd 26 7f 8f 3d 95 35 33 3d
       0.050474193 -0.06479955 0.070066735 0.04375227

model.1.weight f4 [16]
000000 32 04 80 3f 9d 39 7f 3f b9 e3 7f 3f b9 e5 7f 3f
       1.000128 0.99697286 0.9995685 0.99959904
000010 1a 0c 80 3f 19 a8 7f 3f 23 af 7f 3f 8b de 7e 3f
       1.0003693 0.9986587 0.9987661 0.99558324
000020 51 5e 80 3f d6 22 80 3f 93 f7 7f 3f 4a ae 80 3f
       1.0028783 1.0010631 0.99987143 1.0053189
000030 a4 bf 80 3f 6e 07 80 3f 22 61 7e 3f a0 e8 80 3f
       1.0058484 1.0002267 0.9936696 1.0070992

model.1.bias f4 [16]
000000 bf 23 38 3a 18 22 b4 bb dc 5c 2e bb 1c 20 9a 3a
       0.00070243696 -0.0054972284 -0.0026605641 0.0011758837
000010 1f 4e 81 bb c2 e5 22 bb f0 02 2f bb e2 34 ca ba
       -0.0039460803 -0.0024856185 -0.0026704632 -0.0015427137
000020 ca 95 e4 bb 64 2e d8 bb 80 0a 8d bb 8c 0b e8 39
       -0.006975864 -0.006597327 -0.00430423 0.0004425909
000030 25 18 d9 ba 9c 96 e8 38 8c bc f7 bb 19 b3 0d 3b
       -0.0016562982 0.00011090675 -0.0075603183 0.0021621643

model.1.running_mean f4 [16]
000000 c7 0f 0d 43 2b a9 c1 41 33 8e 85 c2 75 10 78 c2
       141.06163 24.207602 -66.77773 -62.01607
000010 41 67 58 40 9d dd 07 43 70 29 3e c2 19 6d a2 c2
       3.381302 135.86568 -47.540466 -81.21308
000020 0e ff c1 41 16 69 21 42 ef 81 03 43 95 8a a4 3f
       24.249538 40.352623 131.50755 1.2854792
000030 50 ab 08 42 e1 b3 ec 42 ec 6b d6 42 ad 72 36 c2
       34.167297 118.351326 107.210785 -45.611988

model.1.running_var f4 [16]
000000 02 d9 40 45 38 25 91 43 1e 99 29 44 a9 99 3a 44
       3085.563 290.29077 678.39246 746.40094
000010 5f 44 2e 43 65 1f 1e 45 ae 19 1b 44 45 05 91 44
       174.26707 2529.9622 620.40125 1160.1647
000020 97 81 be 43 87 e7 11 44 97 47 19 45 aa f4 b3 43
       381.01242 583.6176 2452.4744 359.91144
000030 e4 6d a6 43 01 25 20 45 f2 90 ee 44 2f 67 d7 43
       332.85852 2562.3127 1908.5295 430.80612

model.4.weight f4 [32, 16, 3, 3]
000000 32 43 f7 bc 46 d6 a3 3d af 76 d3 bc 06 d7 4e 3d
       -0.030183408 0.07999854 -0.025813429 0.05049803
000010 15 7e a6 3c 15 84 3c bd 5f 22 0e 3d 0b 9e 8f bd
       0.020323792 -0.0460244 0.034700748 -0.07012566
000020 9c 27 8e 3d 6a e1 bb 3b 06 ea 5f bd a3 55 61 3d
       0.06941149 0.0057336586 -0.05466654 0.05501331
000030 2b 7e 75 3d 59 95 04 3d 5c ed 78 bd e2 31 7d 3d
       0.059934776 0.03236899 -0.06077324 0.06181515
000040 c8 f2 80 bd 1f 83 29 3d 3d 71 98 bd 8c 45 89 3c
       -0.06296307 0.041384812 -0.074434735 0.016756795
000050 9b 8a 88 3d cd fe 8f bd e6 3d 91 bd 90 6a a3 3c
       0.06667062 -0.07031021 -0.07091884 0.019948274
000060 75 4a 70 3d e6 10 a7 bd 05 1d 93 bd 01 90 4f 3d
       0.058664758 -0.0815752 -0.071832694 0.050674442
000070 56 f4 a2 bd 09 c6 37 bd 68 8d 9d 3d 61 b8 57 bd
       -0.0795676 -0.044866595 0.07692987 -0.05266607
000080 07 a2 d0 3c 1f b5 1d bc 12 ac 33 3d b3 4c a0 bd
       0.025467886 -0.009625702 0.04386527 -0.07827129
000090 f5 a5 d2 3c 9f 75 92 3d ed 95 88 bd 66 04 a1 bd
       0.0257139 0.07151341 -0.06669221 -0.07862167
0000a0 c9 56 df 3c 25 12 ba 3c 35 08 72 bd f1 a5 cd bc
       0.027263062 0.02271373 -0.059089858 -0.025103541
0000b0 50 e2 6f 3b e8 a7 88 bd a5 25 23 3d 3f b9 80 bb
       0.0036603399 -0.066726506 0.039830822 -0.003928333
0000c0 aa 40 a0 bd 96 05 91 bd 4a 5e 23 bd df a6 57 bd
       -0.07824834 -0.070811436 -0.039884843 -0.052649375
0000d0 cd 27 65 3d ec de 15 3d cb 4e 92 bd 34 2e 2f 3d
       0.05594616 0.036589548 -0.07143935 0.042768672
0000e0 88 21 68 3d 40 91 b4 bd 45 d3 d7 3b b8 04 02 bd
       0.056672603 -0.08816767 0.0065864646 -0.03174278
0000f0 d1 d2 78 bd f9 d4 0c bd d2 45 32 b8 a5 4f 6d bd
       -0.060747925 -0.034382794 -4.2503532e-05 -0.057937283
000100 2e 63 7b 3d 59 b1 40 3d b8 47 1f bd 6b 39 3d bd
       0.061373882 0.047044132 -0.038886756 -0.046197336
000110 1d 73 16 3d 90 e7 07 bd 01 1e ed ba f0 44 06 bd
       0.036730874 -0.03317982 -0.0018090607 -0.032780588
000120 09 73 34 3d 9a 29 cb 3c f5 95 27 bd a3 77 7c bc
       0.04405502 0.02480011 -0.040914495 -0.015409383
000130 ba 79 82 3d 42 0b 92 3d cb 5a ee 3c 46 93 93 bd
       0.06370874 0.071310535 0.029096028 -0.072058246
000140 0e 81 1c bd f4 9e 1e bb cf 01 65 bd b2 b0 35 3d
       -0.038209014 -0.002420363 -0.055909928 0.044357963
000150 02 27 94 3c 3e ca 3c 3d df d7 44 bd 6c 5e 76 3d
       0.018085007 0.04609131 -0.048057433 0.06014864
000160 19 d9 94 3c cb 9d 33 3a 5e a8 4e bd 7b b7 89 bc
       0.018169926 0.0006851821 -0.050453536 -0.016811123
000170 cf 6c 1f 3d 43 99 95 bc c7 8a 62 3d e0 0c 80 bc
       0.038922127 -0.018261557 0.05530813 -0.01563114
000180 80 14 13 bd 72 0f 4b 3d 27 73 6a bc 12 54 45 3c
       -0.035908222 0.049575277 -0.014309681 0.01204397
000190 ec 0b 40 bd 36 e7 a4 bd c2 c1 89 3d 57 6c c6 bc
       -0.04688637 -0.080519125 0.067264095 -0.024221582
0001a0 ff 88 41 bd cd 49 08 3d 43 63 a1 3d 07 40 3b 3d
       -0.04724979 0.033273507 0.07880261 0.045715358
0001b0 f0 f2 0b 3d 00 72 30 3d 92 58 8d bd 39 45 6d 3d
       0.03416723 0.04307747 -0.06901659 0.057927344
0001c0 90 73 bb bc 9d da 6b 3d 19 e9 36 bd 39 28 97 bd
       -0.022882253 0.057581533 -0.044655893 -0.07380719
0001d0 58 f6 ba bd 6a 03 a4 3c 54 36 95 3d 22 f0 9a bd
       -0.091290176 0.02002116 0.07285753 -0.07565333
0001e0 cb 4c 10 bd 23 d4 90 3d f2 95 31 3c 62 6a d1 3a
       -0.035229485 0.07071712 0.010838972 0.0015977139
0001f0 10 37 fd 3b ad 05 de bb 89 8e 9c bd b3 de a3 3c
       0.007727511 -0.006775579 -0.07644374 0.020003652
000200 ef 66 40 3d 7d 48 39 3d 52 8f 85 3c f8 e7 0e 3d
       0.046973165 0.045235146 0.016303692 0.03488919
000210 cb 54 da bc 74 b8 de bc e9 55 77 bd 23 fe 27 3d
       -0.02665176 -0.027187563 -0.060384665 0.041013848
000220 39 df 56 3d de df 3f bc 63 bd a7 3c 3b 32 4c bd
       0.052458975 -0.011711089 0.020476049 -0.04985259
000230 9d 75 9c bd 41 58 9a 3d 4c 56 7c 3d 78 1e 09 bd
       -0.076396205 0.07536364 0.061605737 -0.033476323
000240 91 5b 24 3d 81 37 a1 bd f4 2b ac bc 7f 47 96 bb
       0.040126387 -0.07871915 -0.021017052 -0.0045861597
000250 d1 ed 0c bd 87 d8 28 3d 05 f9 62 bd f8 30 af bd
       -0.034406487 0.04122212 -0.055413265 -0.08554262
000260 98 ce 3b 3d c5 79 91 3c 2c 74 55 bd 99 2e 39 3d
       0.04585132 0.01775826 -0.052112743 0.045210455
000270 e2 6d 78 3d 24 40 77 3d 30 13 9d 3d 46 cb 17 bd
       0.060651667 0.060363904 0.07669675 -0.03705909
000280 11 41 8f bd df d9 24 3d 6c 3e b0 ba 62 37 8d bb
       -0.06994832 0.04024684 -0.0013446338 -0.0043095807
000290 0e 85 5c 3d fd 69 8c 3d 1b 08 ab bc a5 47 5f 3b
       0.05383783 0.06856153 -0.020877888 0.0034069803
0002a0 3f ba 71 bd f3 65 a3 3d fa f5 a5 3d 35 5e e1 bc
       -0.05901551 0.0797843 0.08103557 -0.027510742
0002b0 fd 78 57 bd df ab 80 bc f6 a3 10 3d 32 3c 1f bc
       -0.052605618 -0.015706955 0.035312615 -0.0097189415
0002c0 d0 7c 29 3d fd 2b 05 3b 02 38 57 bc fe 17 45 bc
       0.041378796 0.0020320409 -0.013135912 -0.012029646
0002d0 6c 7c 4a 3d d2 2f b4 bc f1 f1 9e 3d 81 86 86 bd
       0.049435064 -0.021995459 0.077609904 -0.06568623
0002e0 01 77 8c bd 3d b4 de bb 4f 5c 80 bd 53 1c a4 bd
       -0.06858636 -0.0067963884 -0.062676065 -0.08013215
0002f0 d9 65 8c 3d 61 a1 41 3d bb 60 a4 3c b9 a8 9b 3d
       0.068553634 0.047273044 0.020065656 0.07600541
000300 a0 ac 50 3c 51 9f c3 bb 9c 14 40 3d 0f 3e 98 bd
       0.0127364695 -0.0059699197 0.046894655 -0.07433712
000310 ab 41 a2 3d 1c c1 ee 3c a3 f3 8d 3b 81 49 a1 bd
       0.079226814 0.029144816 0.0043320223 -0.07875348
000320 5a f6 0a bd a4 a7 57 bd c7 78 9f 3d 2d df 21 bd
       -0.033926345 -0.05265011 0.07786708 -0.039519478
000330 fd 54 1c bd 4e d5 75 bd ec 48 a4 3d 3b 7d 2b bd
       -0.03816699 -0.060017876 0.08021721 -0.041867476
000340 71 10 50 bc 71 fc 65 3d b9 3a 11 3d 61 fa 47 3c
       -0.012699232 0.05614895 0.035456393 0.012205691
000350 42 cf a3 3c ac 9f 05 3d c1 6f a7 bd f0 12 3c 3c
       0.01999629 0.032622978 -0.08175612 0.011479124
000360 ee 37 50 3d 5c 83 5d 3c a2 02 c1 bd 59 12 88 bd
       0.05083459 0.013520088 -0.0942433 -0.066441245
000370 e5 d0 98 3d 36 ee 69 3c 39 9a e0 bc 69 09 80 bc
       0.074617185 0.014277985 -0.02741729 -0.015629487
000380 8f 89 aa bd 44 9e 1d bd 8c 2f 90 3d aa d4 b5 bd
       -0.083270185 -0.038481012 0.07040319 -0.08878453
000390 ba 30 fb 3c 04 17 62 3d 91 12 d7 bc 3e d7 ac bc
       0.030662883 0.05519773 -0.02625397 -0.02109873
0003a0 6a 8f 15 bd a0 ed 48 bd 2e 76 89 3d 46 cb 8b bc
       -0.036513723 -0.04905474 0.06711994 -0.017064702
0003b0 a2 d6 eb 3c 78 19 22 bd f7 d1 a5 bd 39 e5 ac 3c
       0.028788868 -0.03957507 -0.08096688 0.021105396
0003c0 b0 fd 57 3d f5 0c 9b bd c4 88 46 bb ec 07 7c 3d
       0.05273217 -0.07570831 -0.003029392 0.061530992
0003d0 d9 e7 32 3d 7b 98 6f 3c b8 67 7a 3d 58 ae 4e bb
       0.04367814 0.0146237565 0.06113407 -0.0031537022
0003e0 6e 19 55 bb 88 c3 ed 3c df 0a 8e bd f9 43 c5 b9
       -0.0032516378 0.0290239 -0.06935667 -0.00037625412
0003f0 84 c4 61 3c 3c 77 12 3d b1 0f 85 3c dd 1a 83 3d
       0.013779763 0.035758242 0.016242834 0.06401608

model.4.bias f4 [32]
000000 c7 40 9a 3c fe 99 21 3d 95 8a 0b 3d b8 fc b1 3d
       0.018829716 0.0394535 0.03406771 0.086907804
000010 03 0c 62 3d 63 ba 5d 3d 1f c2 96 3d ed 7d 47 bd
       0.055187237 0.05413283 0.073612444 -0.048704077
000020 6b 33 bf 3d 3c 57 1d 3c a1 c3 ea bc 24 30 56 bd
       0.09335979 0.009603318 -0.028657736 -0.052292004
000030 70 0f 16 bc 76 b4 8c 3d ef 16 3a 3d eb 50 8b bd
       -0.009158954 0.06870358 0.045432027 -0.06802543
000040 d2 fa 8f bd f5 c0 1e 3d 75 19 b5 39 a1 8b 97 bd
       -0.07030262 0.038758237 0.00034541977 -0.07399679
000050 30 ef 65 bd f4 6a 95 bd 39 d7 af bc 7e 92 98 bd
       -0.05613631 -0.0729579 -0.02146493 -0.07449816
000060 fb 02 ef bc 4b cc 4f 3c f4 59 33 bd 46 ec 35 3c
       -0.029176226 0.012682985 -0.043786958 0.011103695
000070 e9 2b 07 3d 90 6c 68 3c c1 84 84 bd d2 a3 ba 3c
       0.03300086 0.01418604 -0.06470633 0.022783194

model.5.weight f4 [32]
000000 e6 5f 7f 3f a5 b6 81 3f 6b 7f 7e 3f 3d 0b 7f 3f
       0.99755704 1.0133864 0.99413174 0.99626523
000010 85 78 80 3f 00 fa 7f 3f f9 12 7f 3f c8 d2 7e 3f
       1.003678 0.99990845 0.99638325 0.99540377
000020 e5 a1 7f 3f fc e9 7f 3f ec 75 80 3f 6c 3b 80 3f
       0.99856406 0.99966407 1.0035987 1.0018134
000030 79 cc 7e 3f e3 3b 7f 3f 62 29 80 3f bc e5 7e 3f
       0.9953075 0.99700755 1.0012629 0.99569297
000040 43 eb 7e 3f 83 ec 80 3f 10 75 80 3f a9 63 7f 3f
       0.9957773 1.0072178 1.0035725 0.99761444
000050 3f a6 7e 3f ea e6 7e 3f 21 6c 80 3f 9c 69 80 3f
       0.9947242 0.99571097 1.0032998 1.003223
000060 fc fa 7f 3f 45 5a 80 3f 3b 93 81 3f 9e a4 80 3f
       0.99992347 1.0027548 1.0123056 1.0050237
000070 3c 57 7f 3f fc 4c 80 3f 64 3c 7e 3f 2f da 7f 3f
       0.99742484 1.0023494 0.993109 0.99942297

model.5.bias f4 [32]
000000 6f 21 4b bc 06 75 ab bb 29 b0 9f bb 0e b3 db 39
       -0.012398108 -0.005232456 -0.004873295 0.0004190434
000010 97 0f 6f bb 79 3a f6 bb 88 a1 a1 bb 80 e5 ad 3a
       -0.0036477798 -0.0075142947 -0.004932586 0.0013267249
000020 e3 4f 81 bc ed da a9 3a b0 57 8f bb 4a 40 b7 3a
       -0.015785163 0.0012958922 -0.004374467 0.0013980952
000030 0b cc 88 bb c6 32 1a bb a8 ea 82 bb 82 02 df bb
       -0.0041747144 -0.0023528798 -0.0039952584 -0.006805719
000040 4b 9a d9 bb bd 56 70 3b 50 26 c1 ba ec d6 d6 b9
       -0.0066407076 0.0036672794 -0.001473615 -0.0004097739
000050 4c 7c df bb c9 fd cb ba ae a0 de ba 0d 92 70 bb
       -0.0068202373 -0.0015563305 -0.0016985142 -0.0036708147
000060 49 a6 37 bb 59 83 2e 3b ae ed 1f 3c 5d 25 3b 3a
       -0.0028022698 0.0026628582 0.009761257 0.00071390514
000070 bc 6c db bb 80 82 85 b9 30 45 1b bb 16 fb 00 bc
       -0.0066963118 -0.00025464967 -0.0023692362 -0.007872364

model.5.running_mean f4 [32]
000000 de 41 1d be 49 cb 3a 3e 69 79 40 be 48 8f 3d 3e
       -0.15357158 0.1824161 -0.18796314 0.18511689
000010 25 57 61 3e 51 cf 04 be 54 80 b0 3e 7a 48 83 bc
       0.22005899 -0.1296971 0.34472907 -0.01602577
000020 e2 bc 2b ba a9 9d 9c be d0 17 84 3d 14 e6 fa 3d
       -0.0006551278 -0.30589035 0.064498544 0.12250915
000030 dc b2 b1 3e 09 c6 b0 3e e0 3a 8a be 9f 27 4c 3e
       0.3470677 0.3452609 -0.26998043 0.19936989
000040 90 70 f7 3d 5e f1 66 3d a2 3e 1e 3e b4 de 14 3e
       0.120820165 0.05638253 0.1545358 0.1453808
000050 3a 8d 24 3e 0b ae b0 3d 58 2c 15 3d 65 4a 00 3d
       0.16069499 0.08626946 0.036419243 0.03132095
000060 bb 02 a8 be 8b de a3 be d9 9e f7 bd e7 a2 96 be
       -0.32814583 -0.32005724 -0.12090845 -0.2942116
000070 03 6b 53 be 04 61 b0 3d 1c 9c 6a be df af 8b be
       -0.2064629 0.08612254 -0.22911114 -0.27282616

model.5.running_var f4 [32]
000000 3a 06 da 3d d0 76 07 3d 8f 81 80 3d 76 05 1a 3d
       0.10645719 0.033072293 0.06274711 0.037602864
000010 52 36 83 3d 84 74 d7 3d 10 9f 66 3e 2c ee 4f 3d
       0.06406845 0.105202705 0.22521615 0.050764248
000020 43 31 69 3d c6 3e db 3c 16 a8 db 3c 77 0f dc 3c
       0.056931745 0.026763331 0.026813548 0.026862843
000030 ec f7 00 3d 78 4f 5a 3e de bd bb 3d 62 e6 4a 3d
       0.031486437 0.21319377 0.09167074 0.049536116
000040 d7 de c2 3d 12 7e 33 3d 9e 68 d3 3d ef 93 2f 3d
       0.095151596 0.043821402 0.103226885 0.04286569
000050 57 33 0d 3e 6e 24 7e 3e 3e 44 a6 3c 81 28 6d 3d
       0.13789116 0.24818584 0.020296212 0.057899956
000060 2e 78 4f 3d 2c 4d 78 3d ab 4e b9 3d 03 26 1b 3e
       0.05065172 0.06062047 0.09048208 0.15151219
000070 5f fa fd 3d c9 e6 92 3d 2d 27 cf 3d a1 1a 47 3d
       0.1240127 0.07172925 0.10114894 0.04860938

model.7.weight f4 [32, 32, 3, 3]
000000 95 b4 5f bd 8a 20 44 3d c8 0e 9e bc fb b5 e6 3c
       -0.054615576 0.047882594 -0.019294158 0.028162947
000010 1f 6e 10 bd 2b cd d9 bc ff 64 5d 3d 2f 6e 3f 3b
       -0.03526127 -0.02658709 0.054051396 0.0029209962
000020 a2 21 27 3d 57 d9 e1 39 aa 1b 0b 3d 8e c0 5d bd
       0.04080356 0.00043077275 0.03396193 -0.054138713
000030 af c8 ea 3b f9 f8 30 bd d0 de 84 bc ad ed ca 3c
       0.0071650366 -0.04320619 -0.016219527 0.024771536
000040 31 ae 4a 3d d2 c4 77 bd 43 36 44 3d e7 80 ea bc
       0.049482528 -0.060490437 0.04790331 -0.028625919
000050 f7 1c 5e bd f4 73 bc bc 3c 40 23 3d b4 ef 5f bd
       -0.05422684 -0.02300451 0.03985618 -0.054671958
000060 a4 71 2c bd 64 30 21 bd 3d e5 87 39 73 6a 2b 3d
       -0.042100564 -0.03935279 0.00025920002 0.041849565
000070 ad ef c5 3c b3 3d 62 bd 54 16 20 3d 5d a9 70 3d
       0.024162138 -0.055234622 0.039083794 0.058755267
000080 79 2c 1d 3d fa c4 35 bd 39 18 87 3c 21 0a cf 3b
       0.03837249 -0.044377305 0.016491042 0.006318346
000090 da 71 10 bd 27 00 88 bd e0 60 77 bb 38 8f 1c bd
       -0.035264827 -0.06640654 -0.003774695 -0.03822252
0000a0 37 99 6b 3d ca 0e 68 3d 0c b4 6c 3d 7f 95 5b bd
       0.057519164 0.05665473 0.057788894 -0.053609367
0000b0 f0 5a 26 bd 38 40 38 3c f1 73 9e bc a5 6c 72 bc
       -0.04061407 0.01124578 -0.019342395 -0.014796411
0000c0 c4 ff ff bc fd f0 f9 bb d8 d5 61 bd 22 97 ee bc
       -0.031249888 -0.007627605 -0.055135578 -0.0291248
0000d0 65 31 20 3d 79 78 35 bd 13 8f 3b bc ef 3a 61 bd
       0.039109606 -0.044304345 -0.011447686 -0.054987844
0000e0 4c 07 be 3c 88 a8 c4 bc 21 8c b2 3c ba 02 91 bc
       0.023196839 -0.024006143 0.021795334 -0.017701495
0000f0 5f ad 7b bd a7 66 ca bc be a0 5f 3d f5 7e 2a 3d
       -0.061444636 -0.024707152 0.054596655 0.041624982
000100 8c ca de 3c 82 02 43 3d 38 79 0b 3d 43 4d 06 3c
       0.027196191 0.047609814 0.03405115 0.008197132
000110 f2 bb f6 3c ad 96 cc bc cb 3b 03 bd eb 88 b5 3c
       0.030118916 -0.024974192 -0.032039445 0.022160014
000120 a9 d3 1c 3d d9 e7 92 bc c1 ef 0a 3d d9 02 c3 bc
       0.038287792 -0.01793282 0.033920053 -0.023805069
000130 63 b7 3c 3c b3 94 67 bc 3c e1 1d 3c 83 d2 dd bb
       0.011518332 -0.014134574 0.00963622 -0.0067694797
000140 bf 8e 08 3c 3f 88 30 3c ca cd a6 bc 12 d6 e2 3c
       0.008334815 0.010774671 -0.0203618 0.027689967
000150 9d 79 f7 3c 82 bd 01 bd 12 d4 e1 ba 78 d8 5e 3d
       0.030209357 -0.03167487 -0.001722934 0.05440566
000160 71 34 56 bb e0 1c 5d bc 60 f4 55 bd dd de e1 3c
       -0.0032685066 -0.013495654 -0.052235007 0.02757209
000170 8d db 56 bd 6e c4 f7 3c f1 2b 22 3d 86 11 d4 bb
       -0.052455474 0.030245032 0.039592687 -0.0064718155
000180 d4 00 ec bc a7 2d 53 3d 15 35 75 3c 88 11 05 3c
       -0.028808989 0.05155721 0.014966269 0.008121856
000190 3e 52 1c 3d b7 1f da 3b ca 7f ad 3c 73 1a 4f bd
       0.03816437 0.0066566127 0.021179099 -0.050562333
0001a0 46 1d 5e 3d 87 50 2d 3c ae ef 62 3d 31 8f e8 3b
       0.054227136 0.010578281 0.055404358 0.007097148
0001b0 93 b5 51 3c 5c e7 6f bd 0a a1 60 3d 84 b6 1d bd
       0.012799638 -0.05857025 0.05484108 -0.03850414
0001c0 9e d6 bb 3c c7 69 24 3d 60 7f f3 ba 1d 65 4b 3d
       0.022929486 0.04013994 -0.001857739 0.049656976
0001d0 b6 5d 38 3d c2 4b 5e bd d8 de 3f 3d 45 50 54 bd
       0.045011245 -0.054271467 0.04684338 -0.051834363
0001e0 ae d6 11 3c e3 97 ea 3c 8f b4 66 3d e6 e1 5d bc
       0.008901281 0.028636878 0.056324538 -0.013542628
0001f0 bd 5b c8 3c e5 df 01 bd 1f 41 19 3d d1 fe 50 bd
       0.024457807 -0.031707663 0.03741562 -0.05102426
000200 64 a1 e4 3a 91 64 ba 3c d7 f1 9f 3c 5f 42 c5 bc
       0.0017443118 0.022753032 0.019524498 -0.0240795
000210 3b f3 81 bc 3d a9 0c bb 5a 98 34 bd 1c d7 65 bb
       -0.015863052 -0.0021463179 -0.044090606 -0.0035070842
000220 a6 04 10 bd 08 86 01 3d 37 4b 6d bd 1c d3 5b bc
       -0.035160683 0.031621963 -0.05793306 -0.013417032
000230 ab 25 67 3d 7b 4a 14 3b 04 8b 71 bd a5 df 25 bc
       0.056432407 0.0022627402 -0.058970466 -0.010124122
000240 32 15 05 3c 14 33 3f 3d 7f 38 01 3c b7 22 af 3c
       0.008122729 0.04667957 0.007887005 0.021378858
000250 c7 91 57 bc 4c 9c 11 3d 85 87 62 3d 04 ad de bb
       -0.013157315 0.035549447 0.055305023 -0.0067955274
000260 2a b8 c5 3b a0 31 19 3d b8 18 22 3d eb 76 e1 bc
       0.006033917 0.03740084 0.039574355 -0.027522525
000270 88 81 13 3d 01 28 21 bd 63 5c 70 bd 1f d9 56 bd
       0.036012203 -0.03934479 -0.058681857 -0.052453157
000280 fc c3 c7 3c 3b ee e8 bc 75 6e 0b 3d 4c 47 91 bc
       0.024385445 -0.02843391 0.034040887 -0.017734192
000290 cc fc ac 3c 29 fc 60 bd 6b ac 3a bc 37 b9 2a bd
       0.021116637 -0.05492798 -0.011393647 -0.04168054
0002a0 00 d4 38 bd 23 c1 80 bc 8f 24 99 3c f4 d7 50 3d
       -0.045124054 -0.015717095 0.01869419 0.0509872
0002b0 17 ef 69 bc cd 8d 64 3d 67 9d 0b bd e7 16 96 ba
       -0.014278195 0.055799294 -0.034085657 -0.0011450917
0002c0 1d 53 f9 bc 25 a3 44 3d c4 b9 3a 3d 3f 54 ec 3c
       -0.03043514 0.04800715 0.045587316 0.028848765
0002d0 7c d9 10 bc 67 c3 2f bd 26 97 45 3d 4b 8c 68 bd
       -0.008840915 -0.04291096 0.04823985 -0.05677442
0002e0 a4 fb 63 bd c8 11 20 3d 00 da 46 bc 02 74 fd bc
       -0.055659905 0.039079458 -0.012136936 -0.030939106
0002f0 0e a7 6a 3d 22 38 d7 bc 03 5b 07 bd 00 1b 1c 3d
       0.057288222 -0.026271883 -0.03304578 0.038111687
000300 c9 0b 88 bc 99 44 3e bd ae eb 25 3d c8 b7 ad bc
       -0.016607182 -0.04645214 0.040507965 -0.021205798
000310 61 9c 3a 3d 57 64 1c 3d 6f a6 f6 bc ad 48 7e bd
       0.04555929 0.03818163 -0.030108659 -0.062081028
000320 c5 a5 55 bd 48 d4 2a bd d1 c1 2d bd cc 62 10 3c
       -0.052160043 -0.041706353 -0.042421166 0.0088126175
000330 82 9c 78 bc da 9a 81 3d 65 23 3c bd d4 d5 0b bd
       -0.015174033 0.06328364 -0.045932192 -0.03413947
000340 5d ad 9e bc 9f 38 ed bc cd 20 02 3d 21 33 03 bc
       -0.019369775 -0.028957663 0.031769563 -0.008007796
000350 a6 b2 23 3b 83 a1 6e 3d c4 04 a6 3b 4c 1c 0b 3d
       0.002497831 0.0582595 0.005066486 0.033962533
000360 ce 34 95 bb fe 67 3e 3d dd 87 5e 3d e7 d5 54 3d
       -0.004553414 0.046485893 0.054328788 0.051961806
000370 d3 12 97 bc 42 e6 4a 3d 08 d6 2e bd 59 5b ec bb
       -0.018441593 0.049535997 -0.042684585 -0.007213038
000380 98 b4 4c 3d 2b 88 5c 3d c7 05 20 3d 05 ee b3 3c
       0.049976915 0.053840797 0.03906801 0.021964082
000390 41 9d 94 bc 42 f3 b4 bb f5 28 17 bd 04 44 2e bd
       -0.01814139 -0.0055221627 -0.036904294 -0.042545334
0003a0 99 ee 2d 3d ad 24 f2 3b 8f c3 13 3c b0 2e 32 bd
       0.042463873 0.007389626 0.009018793 -0.043501556
0003b0 14 09 c9 b9 c4 94 92 3c 2c d9 6a bd 62 6b 6e bd
       -0.0003834447 0.017893203 -0.057336017 -0.058207877
0003c0 29 7f 25 3d f1 fd 44 3d e5 5e 2d 3d f5 3e 5e 3d
       0.040404473 0.04809374 0.042326827 0.05425926
0003d0 ae 55 29 bd 27 0c ca 3c a1 89 4e bc a7 fc 4a bc
       -0.041341476 0.024663998 -0.0126060555 -0.012389339
0003e0 b0 b3 4c bc 69 f5 e6 3b c4 87 2d bd 57 4c 12 bd
       -0.012494013 0.007048298 -0.042365804 -0.035717335
0003f0 55 f8 87 bc be b1 76 bc fc 09 4c 3d 4a ed 47 bd
       -0.016597906 -0.0150570255 0.04981421 -0.04881028

model.7.bias f4 [32]
000000 45 28 19 3c e6 9b ba bc e6 b6 2a bd 47 89 68 bb
       0.00934798 -0.022779416 -0.04167833 -0.0035482214
000010 71 25 ac 3c 07 6e 2e 3d c4 04 25 3d 04 15 0f bd
       0.021013947 0.0425854 0.040287748 -0.03493215
000020 5f 05 c3 3c 58 d2 f6 bc 14 31 25 3d 77 a0 68 bc
       0.023806272 -0.030129597 0.040330008 -0.014198414
000030 85 0f 28 3d 13 64 4c 3d ba b7 35 3d ea c8 00 3d
       0.041030426 0.049900126 0.04436467 0.031441607
000040 19 bb 5f bb 2e 0f 2f 3c 8a e6 8d 3c fc cc 64 3d
       -0.0034138619 0.010684771 0.017321844 0.05585955
000050 8e 91 ca 3c bf 78 2a bd fa fe 2a bd fd 95 56 bd
       0.024727609 -0.04161906 -0.04174707 -0.052389134
000060 83 45 5e 3c d6 e3 4a bd bd e9 09 3d 9f 23 db bc
       0.013566378 -0.049533688 0.033670176 -0.026750384
000070 0d f2 7a 3c 91 bb 04 3d 3d c3 15 3d 2d 3d 48 3d
       0.0153164985 0.03240544 0.036563147 0.048886467

model.8.weight f4 [32]
000000 54 28 80 3f 95 cb 80 3f cd 61 80 3f c6 60 7f 3f
       1.0012307 1.0062128 1.0029846 0.9975704
000010 76 ec 7f 3f 00 b5 81 3f 90 56 7c 3f 82 8b 7d 3f
       0.99970186 1.0133362 0.98569584 0.99041
000020 32 b5 7f 3f be fa 7f 3f e8 c5 81 3f 7a bd 7d 3f
       0.9988586 0.9999198 1.0138521 0.99117243
000030 78 b6 7e 3f 94 39 81 3f 5a 13 80 3f 61 79 7d 3f
       0.99497175 1.0095696 1.0005906 0.99013335
000040 4a 2e 80 3f 29 82 80 3f a4 39 7f 3f 8f 13 80 3f
       1.0014126 1.0039722 0.9969733 1.0005969
000050 b5 22 81 3f 79 32 7d 3f ca 4c 80 3f fd 05 80 3f
       1.0088717 0.9890514 1.0023434 1.0001827
000060 d2 cb 7f 3f 86 a1 80 3f 5a 47 80 3f dc dc 7e 3f
       0.9992038 1.0049293 1.0021775 0.99555755
000070 e0 e3 7f 3f a5 df 7f 3f 82 10 80 3f ea 78 80 3f
       0.99957085 0.9995063 1.0005038 1.00369

model.8.bias f4 [32]
000000 31 b6 6b 3b f2 32 45 bc 73 ba 8e bb 14 1b 2f bc
       0.003596675 -0.012036072 -0.0043557226 -0.010687608
000010 86 92 9b ba 81 f3 0f bc e5 8d aa bc b0 a2 2f bc
       -0.0011869229 -0.008786083 -0.020819614 -0.01071994
000020 09 1a 4d ba ba c2 14 3b 9f 69 7b 3b 11 99 b4 bb
       -0.0007824009 0.0022699074 0.0038362516 -0.005511411
000030 14 3b b5 b9 87 f5 03 bb b6 7a 86 bb f9 57 65 bc
       -0.00034567027 -0.002013536 -0.0041039838 -0.013998025
000040 a2 3c d9 bb 76 7a ee b8 35 64 8e bb 45 06 ae b8
       -0.0066295424 -0.000113715345 -0.0043454417 -8.298134e-05
000050 6f b9 a0 bb 80 74 0d bc e7 d7 e9 3b 1b e3 64 bb
       -0.004904918 -0.008633733 0.0071363333 -0.0034925404
000060 e4 3f a6 bb d7 a0 52 3c b4 a9 8d bb ab 47 04 bb
       -0.0050735343 0.01285573 -0.0043232087 -0.002018432
000070 91 7d 17 bc a4 44 76 b9 06 73 1a bb 11 ac a5 3b
       -0.009246246 -0.00023485959 -0.0023567094 0.0050559123

model.8.running_mean f4 [32]
000000 e1 2e 31 3e f6 20 45 3e b5 ca 25 bf 02 23 e0 bd
       0.17303039 0.19250855 -0.6476243 -0.10944177
000010 d0 ff 92 3d 8a 39 67 bc 58 47 1c bd 2a 79 55 3e
       0.071776986 -0.0141128395 -0.038153976 0.20847002
000020 5d d6 7d be 1f 83 93 3e 4d 1f 6e 3e ad c2 fd 3e
       -0.24788804 0.28810975 0.23254128 0.49562588
000030 56 12 b0 bd 9f 24 41 3c 41 d7 5a 3e 3f ac 4a 3e
       -0.08597247 0.011788516 0.21371175 0.19792269
000040 ae 29 39 3e 38 d4 fe 3c b4 ff fe bc e3 37 d5 bd
       0.18082306 0.031107053 -0.031127788 -0.1041105
000050 3f 52 ac 3e 6a 48 0c be dd 74 3e 3e 07 be 22 be
       0.336565 -0.13699499 0.18599267 -0.15892802
000060 8b e7 35 3e 48 7d ed bd 30 fa 1d 3d db 89 71 be
       0.17764108 -0.11596161 0.038568676 -0.23587744
000070 a9 e4 0c bd f6 af a0 bd d3 fb 28 bc bb 78 9b be
       -0.034397755 -0.07846062 -0.010313946 -0.30365548

model.8.running_var f4 [32]
000000 4e 3c 35 3e 10 cc 0f 3e f9 7f e5 3d 61 90 c8 3d
       0.17698786 0.14042687 0.112060495 0.09793163
000010 ea 32 49 3e ad 4b 2e 3d 1b 17 1b 3e 5d 16 0d 3e
       0.19648328 0.04255264 0.15145533 0.13778062
000020 01 fe 0f 3d 2a 82 e1 3d 4b a7 80 3d d6 0c d8 3d
       0.035154346 0.11011155 0.062819086 0.10549323
000030 86 22 38 3e 71 20 b8 3d 8a 02 2d 3e d5 aa fa 3d
       0.1798192 0.08990563 0.168955 0.12239615
000040 27 32 c8 3d bb 3a 3d 3d 51 5d a8 3d a2 99 8a 3d
       0.09775191 0.046198588 0.08220924 0.067675844
000050 86 88 64 3d 99 cf d8 3d e9 cf 51 3d 18 f6 f9 3d
       0.05579426 0.10586471 0.05122367 0.12205142
000060 14 af d9 3d 50 46 6a 3d 32 f6 59 3d ca d7 79 3d
       0.106290966 0.05719596 0.053213306 0.060996808
000070 b8 d2 96 3d 3c 37 bb 3d a7 60 28 3d ab 07 c8 3d
       0.0736441 0.091413945 0.0411078 0.097670875

model.10.weight f4 [64, 32, 3, 3]
000000 da 02 2a 3c 0e 17 f7 3c c7 46 81 3c 68 4b aa bc
       0.010376656 0.03016236 0.01578082 -0.02078791
000010 c5 45 4a bc c1 e8 f9 3b 92 f9 a7 bc ca 12 17 bd
       -0.012345736 0.0076266234 -0.020504747 -0.036883153
000020 10 1a 20 bc a1 bc 49 bd 09 f3 61 bd 27 5c 1e 3d
       -0.009771839 -0.049252156 -0.055163417 0.038662102
000030 f3 71 9a bc 33 03 b1 bc 0b e1 fd 3c 47 7c 1d bb
       -0.018853163 -0.02160797 0.030991098 -0.0024030374
000040 f2 18 f4 bc 34 ef 2d 3d 31 6b 9e 3c 8e a2 09 3d
       -0.029797051 0.04246445 0.019338222 0.03360229
000050 72 b6 2c 3d 8d 5e 33 bd f6 6c 2a bd 6b 8a 8b 3c
       0.04216618 -0.043791343 -0.04160782 0.017033776
000060 64 9c 89 3c fb 0d 7a bc 87 f7 e2 bc 9e c2 ea 3b
       0.016798206 -0.015262122 -0.02770592 0.0071643135
000070 81 e4 3a 3d a0 6d 0f bd a9 ba 8e bb 6c 4a 17 bd
       0.045628075 -0.035016656 -0.0043557477 -0.03693621
000080 ed 57 e4 bc e7 b9 f8 3b ca 5f 1d bd 4f 97 ed bc
       -0.027873958 0.0075905207 -0.03842143 -0.029002814
000090 1f b9 54 3d 31 45 6c bd 85 5c 07 3c 87 6f 1d bd
       0.051934358 -0.057683174 0.0082618045 -0.03843644
0000a0 e1 1c 15 3d e8 02 76 3d bc 83 ba 3c 14 7e 01 bd
       0.036404494 0.060061365 0.022767894 -0.031614378
0000b0 14 2c 3f bd a4 8d 45 3d e7 70 38 bc 38 bf 80 bd
       -0.046672896 0.048230782 -0.011257387 -0.06286472
0000c0 63 84 d9 bc e5 46 88 bd 65 b3 58 bd d3 32 31 3c
       -0.026552385 -0.06654147 -0.05290546 0.01081534
0000d0 90 2d 72 3c b8 36 25 ba be 55 30 bd 03 00 01 3c
       0.014781371 -0.0006302404 -0.04305052 0.007873538
0000e0 04 37 24 bc fa 70 86 3c f0 a0 a8 bb f3 2f 0d 3d
       -0.010022882 0.016411293 -0.0051461384 0.034469556
0000f0 8d c2 ff 3c 4c 57 45 bd 70 3f a2 3b 2f cb 45 bd
       0.031220699 -0.048178956 0.00495141 -0.048289474
000100 87 b3 d3 3a f3 d8 ee bc 6c 1b 0c bd 5d 56 27 3d
       0.0016151526 -0.029156184 -0.03420584 0.040853847
000110 b1 00 3d bd 96 0d 02 3d fe cc eb bc 49 3c 21 3d
       -0.046143238 0.031751238 -0.028784271 0.039364133
000120 fd d3 8e bc 93 92 8d 3c 92 15 d0 3b 3c b2 24 bd
       -0.017435068 0.017281806 0.0063502276 -0.04020904
000130 de 7e 85 3b 0c 58 80 3c d9 00 14 bd 3a d8 6a 3d
       0.0040739616 0.015666984 -0.03613362 0.057335116
000140 48 d7 83 3c 0c 62 45 bd b3 d4 0b bd 71 6f bf ba
       0.016093865 -0.048189208 -0.034138393 -0.0014605356
000150 42 6b c1 3c 1a e4 48 bd 5d a7 de 3a 41 5f cd bc
       0.023610715 -0.04904566 0.0016987134 -0.025069835
000160 21 87 4a bc c0 7d 23 3d 86 b5 38 bc a1 3e 33 3d
       -0.012361319 0.039914846 -0.011273747 0.0437609
000170 48 1f 1b bd 74 2c 86 3d ca 20 7a bc 68 81 28 3c
       -0.03787163 0.065514475 -0.015266607 0.010284759
000180 6f e3 82 bc 9e 64 18 3d 87 54 a9 3b c8 a5 29 bd
       -0.01597759 0.03720533 0.005167547 -0.041417867
000190 f2 65 2c bc a4 bd 3c 3d 14 b5 11 3d a7 cc d4 bc
       -0.0105223525 0.046079293 0.03557308 -0.025976492
0001a0 33 02 33 bd 75 75 81 bc 29 01 60 3c 18 84 03 bc
       -0.04370327 -0.015803078 0.013672152 -0.008027099
0001b0 af 90 ff 3c e5 b9 45 3d b3 d2 c0 bc 3f 6f f2 3b
       0.03119692 0.048272986 -0.02353797 0.0073985155
0001c0 5a e3 fb 3c 25 07 2b bc 0f cd 41 bd a3 4b a2 3c
       0.030748058 -0.010438715 -0.0473147 0.019811457
0001d0 97 41 37 3c 05 5a 36 bd 04 2d 5d bd c4 18 08 3c
       0.011185071 -0.044519443 -0.05399801 0.008306686
0001e0 a7 ff c6 3b a5 44 d5 ba b6 c2 95 3c ae b3 e8 3c
       0.0060729566 -0.0016271068 0.018281322 0.02840599
0001f0 6d 79 c7 bc 2b 2e 1e 3b 16 5c a7 bc 20 b6 f8 bc
       -0.024349893 0.0024136405 -0.020429652 -0.030360281
000200 48 e9 08 bd 92 3b c6 3c 8a 35 49 3d b4 35 22 bd
       -0.0334256 0.024198327 0.049123324 -0.039601997
000210 53 cc d8 bb e4 69 e8 bc 29 79 ea 3c 26 5b 65 3d
       -0.006616154 -0.028370805 0.028622227 0.05599513
000220 0e da 30 3d 5b 12 a5 bc a5 09 00 bc 73 61 ca bc
       0.043176703 -0.020150354 -0.007814799 -0.02470467
000230 7a e1 a1 bc 21 7f c2 bc 83 ad 0a bd 14 65 5c bc
       -0.019760836 -0.02374226 -0.03385688 -0.013451833
000240 8a d6 48 bd f6 f4 21 bd 96 33 4c 3c 33 4d d9 ba
       -0.049032725 -0.039540254 0.012463471 -0.0016578793
000250 a3 bc 0b bd 72 4f 7e 3d e6 b2 23 bd 7c 37 1d 3d
       -0.034115445 0.062087484 -0.039965533 0.038382992
000260 00 ae 47 bd ef 95 58 3c 5c 81 1d 3d 5b 3e af 3b
       -0.048749924 0.013219341 0.038453445 0.0053480095
000270 fe 7c 62 3d 70 ca 29 3d e8 a6 09 3d f5 eb 19 bd
       0.055294983 0.041452825 0.03360644 -0.03757854
000280 09 a9 be 3c 75 31 f3 bc bc 85 27 3c 35 9c 04 bd
       0.023273962 -0.029686669 0.010224756 -0.032375533
000290 ab d9 64 3c 89 b3 f4 3c f7 05 9d bc d5 67 41 bd
       0.013967912 0.029870765 -0.019167883 -0.047218163
0002a0 4a ad f4 bc 8d 19 3a 3d 2a 94 2a 3d 8e a2 3f 3c
       -0.029867787 0.045434523 0.041645207 0.011696471
0002b0 da 95 a4 bc 6b 4a ef 3c ad e6 ee bc 2a c9 d5 3c
       -0.020090986 0.02921029 -0.02916273 0.026096899
0002c0 c0 97 10 bd 2e a0 81 bd 57 93 d7 39 fd 2d 3f 3d
       -0.03530097 -0.0632938 0.00041117772 0.046674717
0002d0 8f 26 85 3d a9 52 56 3d 9a 9c af bb ce b0 b9 bc
       0.06501495 0.052324925 -0.0053592445 -0.022667315
0002e0 e2 42 64 3d 9e f7 d0 3c 83 10 f2 3c b7 19 38 bd
       0.055727847 0.025508698 0.029548889 -0.0449464
0002f0 97 ad b3 3b 76 cb 80 bd ce 17 24 3d 5d ae 62 3d
       0.00548334 -0.06288807 0.040061764 0.055342067
000300 72 89 4f 3d 03 c2 51 bc fe b2 5b 3d 49 f6 9b bc
       0.050668187 -0.012802604 0.053637497 -0.019038336
000310 05 f6 72 3d f1 b9 d3 3b 5d 32 fe bc da b5 3c bd
       0.059316654 0.006461375 -0.031029874 -0.046071865
000320 73 87 d3 bb 84 ef 81 3b d3 a8 d9 3c a8 6b c5 3a
       -0.006455356 0.00396532 0.02656976 0.0015061991
000330 3b bc 0c 3d 39 32 d0 bb ad 88 79 bc f1 f6 14 3d
       0.034359198 -0.0063536433 -0.01523034 0.036368314
000340 3e f1 2a 3d 89 64 c4 3c e4 0b 04 3c 4f 3f 8a 3c
       0.041733973 0.02397372 0.008059476 0.016875891
000350 a2 a8 e1 bc 37 23 5b bd 19 67 a0 bc cb 46 f4 bb
       -0.02754623 -0.05350038 -0.01958041 -0.0074547282
000360 8d 58 7d bc 27 ab be 3c e3 56 50 bd b8 5e 12 3d
       -0.015463007 0.023274971 -0.05086411 0.035734862
000370 e9 f3 1a bd 22 54 32 3d c4 99 19 3d 9e 1c 53 3c
       -0.037830267 0.043537267 0.037500158 0.012885241
000380 ce fd be bc 37 98 63 3c 1e 1d ce bc 4e a3 02 3d
       -0.023314383 0.013891271 -0.025160369 0.03189402
000390 bb 8a 84 bd 7f 95 81 3b 64 de df bc 47 7a 2b bd
       -0.06471773 0.003954589 -0.027327724 -0.04186466
0003a0 10 f1 aa 3c dc 58 65 bd ae 03 7f 3d 19 d1 24 3d
       0.0208669 -0.055992946 0.06225937 0.040238474
0003b0 1b 4f 1b bd 06 1e 68 3d 11 5c 1a bd c8 30 5b bd
       -0.037917238 0.056669258 -0.037685458 -0.05351332
0003c0 cc e6 cc bc c2 31 09 3c 12 1e 37 3d 51 c8 08 3c
       -0.025012396 0.00837368 0.04470641 0.00834854
0003d0 38 e0 3e bd 13 d0 57 bd 76 7b 0d bd e1 5b f1 bb
       -0.04660055 -0.05268867 -0.03454157 -0.007365689
0003e0 d8 fe 08 3c bc e6 ff 3b a1 08 0a 3d 61 9f 3e bd
       0.008361541 0.007809488 0.033699635 -0.046538714
0003f0 52 72 f8 bc 52 72 5a 3d 5e 05 a1 3c b5 dc 28 bd
       -0.03032795 0.05333168 0.01965588 -0.041226108

model.10.bias f4 [64]
000000 81 05 58 3d af da 52 bd e7 88 1b bc a1 3e 0c bb
       0.052739624 -0.051478084 -0.009493089 -0.0021399634
000010 9f e1 cf 3c 98 6b 38 bc 06 62 0e bd 2c 21 61 3b
       0.02537614 -0.011256121 -0.03476145 0.0034352047
000020 27 6d b2 bc d7 d9 9f bc 47 de 14 3d f7 ec f0 3b
       -0.021780564 -0.019513054 0.036344793 0.007352467
000030 6b 80 30 3d f8 43 8e 38 d0 90 20 3d 72 d9 4a bd
       0.04309122 6.783748e-05 0.039200604 -0.04952378
000040 a9 28 40 3d f8 50 a5 b8 8f 09 a6 bc cf 9c 2a 3d
       0.046913777 -7.882895e-05 -0.02026823 0.04165345
000050 c1 8c d7 3b 3b 86 ee 3c 74 11 52 bd f4 58 ad bc
       0.0065780585 0.02911674 -0.051286176 -0.02116058
000060 02 33 7e 3a 3b 60 32 3d d0 7d 69 bb cc f4 0a bd
       0.0009696932 0.043548804 -0.0035627969 -0.033924863
000070 94 f0 84 3c 10 21 89 bb 01 6e 7d 3d cc 19 a0 3b
       0.016227998 -0.0041848496 0.061872486 0.0048858877
000080 08 44 3b bc 1c 83 63 bc 78 a5 45 3d b4 f4 b9 3c
       -0.011429794 -0.013886239 0.048253506 0.022699691
000090 8b e0 32 3d bf e4 19 bc f0 bb 60 3d 67 48 36 3b
       0.043671172 -0.009392916 0.05486673 0.0027814151
0000a0 96 6f 98 3c 54 2e 13 3d a6 8a 29 3b 8f 27 30 bc
       0.018607896 0.035932854 0.0025869994 -0.010751619
0000b0 b9 ac 65 3d 10 75 de bc 69 df 7a bb 67 03 b3 3c
       0.056072924 -0.02715543 -0.0038280135 0.021852208
0000c0 29 78 2b bd bc 0b e0 bc 9a 3c 08 bd 25 6d 99 3c
       -0.04186264 -0.027349345 -0.03326092 0.018728802
0000d0 a9 df a7 3c 86 e0 88 3c 61 c9 81 3b 7a 95 5a 3d
       0.020492392 0.016708624 0.003960774 0.05336521
0000e0 11 b5 1d bd c0 53 c1 3c 82 1d 05 3d 90 c7 c2 3c
       -0.038502757 0.023599505 0.032498844 0.0237768
0000f0 05 c9 09 3d 2f 68 5b bd f5 a5 61 bb 2d 6b 51 3d
       0.033638973 -0.053566154 -0.0034431193 0.0511276

model.11.weight f4 [64]
000000 ba 9d 80 3f 09 ed 7e 3f 11 13 7d 3f 8a 5a 81 3f
       1.0048134 0.99580437 0.9885722 1.0105755
000010 42 ba 7e 3f 98 d4 80 3f 98 9a 7d 3f 3a 1a 7d 3f
       0.99502957 1.0064878 0.99064016 0.98868144
000020 64 2f 81 3f 93 df 7d 3f 85 e5 7f 3f 43 66 80 3f
       1.0092587 0.9916927 0.99959594 1.0031208
000030 aa 38 80 3f 4a bb 83 3f 15 22 80 3f 0a a2 80 3f
       1.0017292 1.0291531 1.0010401 1.004945
000040 a9 d5 7d 3f 64 01 80 3f 02 8a 81 3f 7d c5 80 3f
       0.99154145 1.0000424 1.0120242 1.0060269
000050 34 90 7e 3f 55 60 81 3f a4 01 80 3f 68 58 80 3f
       0.99438787 1.0107523 1.0000501 1.002698
000060 cf 42 7f 3f 03 39 7d 3f be dd 81 3f 99 19 7e 3f
       0.99711317 0.9891512 1.0145795 0.9925781
000070 89 70 80 3f 41 9b 80 3f 0a 1e 81 3f fd b6 7d 3f
       1.0034343 1.004738 1.0087292 0.9910734
000080 f4 9b 7e 3f 30 74 80 3f 54 22 80 3f 82 df 7e 3f
       0.99456716 1.0035458 1.0010476 0.99559796
000090 ae 5f 81 3f dc 6c 7f 3f d1 04 80 3f fd 17 7d 3f
       1.0107324 0.9977548 1.000147 0.9886473
0000a0 11 2b 80 3f bc b4 81 3f 69 33 7b 3f bb 12 7f 3f
       1.0013143 1.0133281 0.9812532 0.99637955
0000b0 41 f2 7d 3f 4f 7a 7d 3f 16 42 7e 3f 55 52 80 3f
       0.99197775 0.99014753 0.9931959 1.0025126
0000c0 62 7f 7f 3f ae 1b 7d 3f 63 13 82 3f bd df 7f 3f
       0.99803746 0.9887036 1.0162166 0.9995077
0000d0 f7 5d 7f 3f 4b 4e 80 3f d1 ca 81 3f 8f 29 82 3f
       0.99752754 1.0023893 1.014002 1.0168933
0000e0 9c 0d 81 3f 21 4c 7e 3f b5 d7 80 3f d4 73 80 3f
       1.0082278 0.99334913 1.0065829 1.0035348
0000f0 c7 28 7c 3f 53 40 80 3f f9 c1 7d 3f 04 32 81 3f
       0.9849972 1.001963 0.99124104 1.0093389

model.11.bias f4 [64]
000000 b7 ee 1d bc 62 77 04 bc a7 0c 70 bc d7 ab 9a 3b
       -0.009639434 -0.008085104 -0.014651454 0.004720192
000010 5f be a2 bb 33 bd 96 bb 71 08 fb bb c3 4b 00 bc
       -0.0049665417 -0.004600191 -0.0076609184 -0.007830563
000020 9b dc 22 3a e3 73 9c bc fb 09 87 bc bf c2 a7 bc
       0.00062126823 -0.019098228 -0.016484251 -0.020478604
000030 1c b9 2f bc c5 c7 4d 3b f4 3d 4a ba 2a 6d fd ba
       -0.010725286 0.003139959 -0.000771492 -0.0019334902
000040 60 63 19 bc 5f 6c 1a bb d0 5f 0e bc 22 e0 91 bb
       -0.009362072 -0.002356313 -0.008689836 -0.0044517675
000050 ea 29 49 bc 93 0f 95 39 58 c8 81 bc 39 e1 10 3b
       -0.0122780595 0.00028431098 -0.015842602 0.00221069
000060 b2 70 d1 bb 42 4f 21 bc 7b 58 a8 ba c2 5b 2c bc
       -0.006391608 -0.009845557 -0.0012843752 -0.010519924
000070 72 3a c5 bb ba 8c 87 39 57 5b 15 bc 26 c1 dd bb
       -0.00601893 0.00025854056 -0.009116015 -0.00676741
000080 ff e3 73 bc db 34 00 bc f9 22 a6 bb 4e 92 48 bc
       -0.0148859015 -0.007825102 -0.005070087 -0.012241913
000090 c7 86 3b 3b c3 37 90 bb f9 e1 ee ba 65 cd 8b bc
       0.002861427 -0.0044011786 -0.0018225304 -0.017065713
0000a0 25 83 39 bc 0f 60 48 bc fd 9b ac bc 16 1d 50 bc
       -0.011322771 -0.012229933 -0.021070475 -0.012702247
0000b0 36 61 91 bc 27 97 b5 3a b8 f2 6b bc 40 50 8b bc
       -0.01774655 0.0013854251 -0.01440113 -0.01700604
0000c0 a7 a7 57 bc 4a 7a 46 bc 2a 87 6c 39 db b9 f0 bb
       -0.01316253 -0.012114117 0.00022557066 -0.0073463744
0000d0 52 a5 57 bc 0a 97 99 bb 16 be 1b 3c f5 71 3c 3b
       -0.013161974 -0.0046871947 0.009505769 0.0028754447
0000e0 20 31 13 bb d7 93 b5 bb 1c 91 56 bb ef f5 55 bc
       -0.00224597 -0.0055413055 -0.00327403 -0.013059123
0000f0 ea 64 64 bc 48 8b 8f ba 86 f7 33 bc 5f 43 8e ba
       -0.013940075 -0.0010951543 -0.010984307 -0.0010853818

model.11.running_mean f4 [64]
000000 77 e8 a9 bd 33 11 0a be 2d 03 96 be 37 a2 39 be
       -0.08296292 -0.13483123 -0.29299298 -0.18128286
000010 69 8a 8a 3d be 42 c5 be 7b 73 af 3d 2d aa 9b bd
       0.06764681 -0.38527483 0.08566948 -0.07600818
000020 fa 6d 2d be ad 39 34 bd 5e a1 46 3e 88 04 95 3c
       -0.16936484 -0.044000316 0.19397494 0.018190637
000030 3a c6 f2 bd 57 f5 ed bd 7c fc b0 bd 32 03 8e be
       -0.11854215 -0.116190605 -0.086419076 -0.27736813
000040 75 71 68 3e 5a d6 11 be 7a ad e4 3d bd c0 da 3e
       0.2269953 -0.14241925 0.111659005 0.42725173
000050 af a7 18 be f6 47 91 be ae b1 b4 3d f5 e6 56 be
       -0.14907716 -0.28375214 0.08822952 -0.2098654
000060 95 2f 7b 3d c1 6f 86 3e 86 0a 6f 3c c0 7a 9e 3d
       0.061324675 0.26257136 0.014589911 0.077382565
000070 e7 6b 2b bd ae 9c 58 3c bc 82 a9 bd 1b 2f e1 bd
       -0.04185095 0.013220949 -0.08276889 -0.10995313
000080 bd c9 1d 3e 53 86 45 bd 29 2b fc 3d c6 f8 9a 3d
       0.15408988 -0.048223805 0.1231292 0.07566981
000090 ec 7a f4 3d 34 ae 49 3e c2 1b e6 3e 95 fc 1c 3e
       0.11937508 0.1969536 0.44943053 0.15330727
0000a0 df 8b 59 bd 86 d0 e5 3e 23 ff a7 3e d0 53 9d bd
       -0.053111907 0.44885653 0.3281184 -0.076820016
0000b0 3b 3f 30 3e 01 b5 62 be fe 93 36 bc 2c 0e 45 3c
       0.1721162 -0.2213936 -0.0111436825 0.012027305
0000c0 c6 b3 8a 3e 33 4b 0d 3e 27 3b 4b 3e 4c 2a 23 bd
       0.2709028 0.13798217 0.19846784 -0.03983526
0000d0 0a 89 6f 3e 3a a0 64 3e e3 44 38 3e 5c 3c e6 3d
       0.2339212 0.22326747 0.17995028 0.112419814
0000e0 e8 b5 f6 be 44 e7 9d 3e 70 d6 87 3c eb 83 04 3e
       -0.48185658 0.30840504 0.016581744 0.12940948
0000f0 a7 6c c6 be 6a a8 26 be df b0 12 bd ce 67 c4 3d
       -0.3875477 -0.16275182 -0.03581321 0.09590112

model.11.running_var f4 [64]
000000 6f 81 62 3d 91 c1 01 3e 96 ae 2a 3e 3b 88 a8 3d
       0.05529922 0.12671496 0.16668162 0.08229109
000010 f5 96 c2 3d 6b c2 8c 3d 00 54 c0 3d 1a 81 99 3d
       0.09501449 0.0687302 0.09391022 0.07495327
000020 32 56 a2 3d 06 cf cb 3d 8e 1c 93 3d 59 a5 8b 3d
       0.07926597 0.09951596 0.07183181 0.06818647
000030 d3 9d f6 3d 5b b6 7c 3d c3 d7 be 3d c8 e5 db 3d
       0.12041821 0.061697345 0.09318497 0.10737187
000040 ea 28 ba 3d 52 0b af 3d 37 c2 82 3d aa 49 8c 3d
       0.09089835 0.08547081 0.063847 0.06849988
000050 de 68 a3 3d 20 1a b6 3d 8a 0e ea 3d d5 dc 97 3d
       0.07978986 0.08891702 0.11428554 0.07415167
000060 25 48 c8 3d a0 01 b1 3d 9c c4 a7 3d 31 6b 0e 3e
       0.097793855 0.08642888 0.08191797 0.13908078
000070 77 fe 9c 3d 39 b6 a5 3d 1a 0d 92 3d c0 e3 b2 3d
       0.07665723 0.08091397 0.07131405 0.08734846
000080 53 89 85 3d 2e 2c 7e 3d d0 3f a3 3d 1c ad 91 3d
       0.06520333 0.06205385 0.07971156 0.07113096
000090 3a 4a 7b 3d 31 31 f8 3d c0 9a bd 3d ed 5b d8 3d
       0.061350085 0.121187575 0.09258032 0.105644085
0000a0 77 ba dc 3d fd 6a 80 3d ce a9 0a 3e 76 4e 7d 3d
       0.10777753 0.062704064 0.13541338 0.061842404
0000b0 aa 23 d8 3d 9f da e0 3d a0 7a f5 3d a9 ce 85 3d
       0.105536774 0.10979199 0.119862795 0.06533558
0000c0 1a 23 a3 3d 96 8f b1 3d 50 3d 78 3d 23 1f fb 3d
       0.079656795 0.08669965 0.060605347 0.12261798
0000d0 b3 39 8f 3d 0b 49 ab 3d eb a1 63 3d 38 eb 96 3d
       0.06993427 0.08363541 0.05557434 0.07369083
0000e0 5f c5 a5 3d 48 78 c1 3d 3d 1c a4 3d b3 46 85 3d
       0.08094286 0.0944677 0.080131985 0.065076254
0000f0 79 77 9d 3d 22 df 4e 3d f4 85 dc 3d 5c fc cd 3d
       0.07688803 0.050505765 0.10767737 0.10057899
