imitation_learning/models/h3-lr0.001-agent.pt (torch, 966128 bytes, 34 tensors)

model.0.weight f4 [16, 3, 7, 7]
0	0xbcb139cf	-0.02163401
1	0x3d955077	0.07290738
2	0xbc55d2e7	-0.013050771
3	0xbca1834e	-0.019715931
4	0xbd618b45	-0.05506446
5	0x3da2310f	0.079195134
6	0x3d3586ff	0.044318195
7	0xbd1436db	-0.036185127
8	0x3d3beac9	0.045878205
9	0x3dc01fd7	0.09381073
10	0x3d29dd2c	0.04147069
11	0xbd0b4539	-0.034001563
12	0x3d92389a	0.07139702
13	0x3de10d60	0.10988879
14	0xbc9d80a5	-0.019226382
15	0x3d0674dd	0.032826293
16	0x3d109dca	0.03530673
17	0xbd0acf68	-0.033889204
18	0xbbc374c6	-0.005964848
19	0x3cc4e4d0	0.024034888
20	0x3da94182	0.08264448
21	0xbd21898d	-0.03943782
22	0x3ce3c7fc	0.02780532
23	0xbd23e364	-0.04001178
24	0x3d0efd4d	0.034909535
25	0xbcd5b596	-0.026087563
26	0x3d55bdf4	0.052183107
27	0xbd1aebb2	-0.037822433
28	0x3dd3a95f	0.10335039
29	0x3d8cd6e5	0.068769254
30	0x3c5a4e17	0.013324282
31	0xba67a6d0	-0.00088368077
32	0x3cea99fe	0.028637882
33	0xbd43aed1	-0.04777414
34	0x3da4dce5	0.08049945
35	0x3d9b3b01	0.075796135
36	0xbcfb93e6	-0.030710172
37	0x3c1b2cd4	0.009471137
38	0xbce26dc3	-0.02764023
39	0xbcc4d6ab	-0.024028143
40	0x3c094dbc	0.00838035
41	0x3b164f2f	0.002293538
42	0xbd752483	-0.059849273
43	0xbce7b104	-0.02828265
44	0xbbe196c5	-0.006884428
45	0xbc39fa0e	-0.011351122
46	0x3bf2845d	0.007401033
47	0xbd9c9f13	-0.076475285
48	0xbd6238a8	-0.055229813
49	0x3ceca474	0.028887011
50	0xbcb38a02	-0.021916393
51	0x3da74159	0.08166761
52	0x3cd8ccd0	0.02646485
53	0xbc31be37	-0.010848573
54	0xbd38d900	-0.045128822
55	0xbce6f6ff	-0.028193949
56	0x3c3a6b16	0.01137807
57	0x3caeeabe	0.021352168
58	0x3b293216	0.0025817207
59	0xbd5d2705	-0.05399229
60	0xbca34e66	-0.019934844
61	0x3c554062	0.013015838
62	0x3c3c7a53	0.011503774
63	0x3c045232	0.0080762375
64	0xbcfca63c	-0.030840985
65	0xbd7722d2	-0.06033594
66	0x3ca0c25b	0.019623926
67	0x3d118423	0.035526406
68	0xbbd4145e	-0.0064721545
69	0x3d131001	0.035903934
70	0xbd74bc8d	-0.05975013
71	0x3d9607ee	0.07325731
72	0x3cf02b4b	0.029317519
73	0xbb5555b3	-0.0032552301
74	0xbd86a0c9	-0.06573636
75	0x3d71c58e	0.059026293
76	0xbc75e1f5	-0.015007486
77	0x3d851bbb	0.0649943
78	0x3d5390e0	0.051651835
79	0x3db45b8a	0.08806522
80	0xbc4a38f0	-0.0123426765
81	0xbd0baeb4	-0.034102157
82	0x3cf8e57d	0.030382866
83	0x3d5d1241	0.053972486
84	0x3d1c4557	0.038152065
85	0x3d711233	0.058855247
86	0x3b9114ec	0.004427543
87	0xbd169ba5	-0.036769528
88	0x3cd46f26	0.025931906
89	0x3d2a9f3f	0.041655775
90	0x3c7dc093	0.015487808
91	0x3d889692	0.06669344
92	0xbcb73068	-0.02236195
93	0xbc3faeff	-0.011699437
94	0x3daf8254	0.0856978
95	0x3c5da534	0.013528157
96	0xbca3530d	-0.019937063
97	0x3d2dd1c7	0.042436387
98	0xbd85aa8b	-0.06526669
99	0xbcfa32cd	-0.030541802
100	0xbd8d17ce	-0.06889306
101	0xbcac90c2	-0.02106512
102	0xbd8ac716	-0.06776254
103	0xbc9813c5	-0.018564114
104	0xbd4aaa3c	-0.049478754
105	0x3ce6ae87	0.028159393
106	0xbd6e36e6	-0.058157824
107	0x3d5fe015	0.05465706
108	0x3d33c995	0.043893415
109	0xbdb23c48	-0.08702904
110	0xbd97e7b0	-0.07417238
111	0xbd89ed9a	-0.06734772
112	0xbbd7d649	-0.006586824
113	0xbd7bcd74	-0.061475232
114	0xbd7888f7	-0.060677495
115	0xbd2a1626	-0.04152503
116	0xbce1dba0	-0.027570546
117	0x3d04def1	0.032439176
118	0xbd908b6c	-0.070578426
119	0x3d66ac5c	0.05631672
120	0x3d943fdf	0.07238745
121	0xbd8cd056	-0.068756744
122	0xbd66204d	-0.05618315
123	0xbcfacf81	-0.030616524
124	0xbd88f7fb	-0.066879235
125	0xbd9b8077	-0.07592862
126	0x3cf8b6be	0.030360576
127	0x3d66eda1	0.056378964
128	0x3d751669	0.059835825
129	0xbd068aca	-0.032847203
130	0xbcc781b6	-0.024353843
131	0xbc9ce8ac	-0.019153915
132	0x3ca04115	0.019562284
133	0x3bcda7cc	0.0062761065
134	0x3b7eab4a	0.003885942
135	0x3d85855e	0.065195784
136	0x3cbe068e	0.023196485
137	0xbd5174b6	-0.051136695
138	0x3c415338	0.011799626
139	0xbc59fd63	-0.013305041
140	0x3d7ac6bf	0.061224695
141	0x3b2ea8ab	0.0026650827
142	0xbdb99efc	-0.09063527
143	0xbd8c27b7	-0.068435125
144	0xbd451c45	-0.048122663
145	0xbc5e5afb	-0.013571496
146	0x3dbfcf1f	0.09365677
147	0xbd31cdfc	-0.043409333
148	0x3db58a42	0.08864261
149	0x3c75ac7a	0.014994735
150	0xbbd5a08e	-0.0065193838
151	0x3d74dabd	0.059778918
152	0x3aefefcf	0.0018305721
153	0x3d187f7b	0.03723095
154	0x3defb2fe	0.11704062
155	0xbd1fb055	-0.038986523
156	0xbda87651	-0.08225692
157	0xbcdc5ac7	-0.026898755
158	0x3d69f294	0.057116106
159	0xbd6a4bd3	-0.057201218
160	0x3d41c0c6	0.047302984
161	0xbccf96d3	-0.025340473
162	0xbd0ce737	-0.03440019
163	0xbdad527e	-0.08463
164	0xbdc54e9b	-0.096341334
165	0x3c9094af	0.017649023
166	0x3d88eb9e	0.066855654
167	0xbd1e48f8	-0.038643807
168	0x3dc709f1	0.09718693
169	0x3d9a281d	0.07527182
170	0xbdbd6a18	-0.092487514
171	0x3cab9396	0.020944398
172	0xbdb46a78	-0.0880937
173	0xbd555fa4	-0.052093163
174	0xbd6538fe	-0.055962555
175	0x3db07723	0.086164735
176	0xbc58f158	-0.013241135
177	0x3d1cf14d	0.03831606
178	0xbddbff09	-0.107420035
179	0x3c9e37ed	0.019313777
180	0x3d76afee	0.060226373
181	0x3d4e9477	0.050434556
182	0xbc0079a9	-0.007841506
183	0xbd43b549	-0.04778031
184	0xbdad887f	-0.084733
185	0x3b20a8d7	0.00245147
186	0xbd893059	-0.06698675
187	0xbdf0cc08	-0.11757666
188	0xbdb4d648	-0.088299334
189	0x3cfe1dc6	0.031020056
190	0xbd85c4b6	-0.0653166
191	0x3d3eee69	0.046614084
192	0x3c77d594	0.015126605
193	0x3d8505e7	0.064952664
194	0xbdcc3996	-0.09971921
195	0xbd3d2c2b	-0.0461847
196	0x3cde6405	0.027147302
197	0xbde6f8d8	-0.11277932
198	0x3d03103a	0.031997897
199	0xbd72faa6	-0.05932107
200	0x3c9b8277	0.018983109
201	0xbc23d72c	-0.010000031
202	0xbd37163b	-0.044698935
203	0xbd6c9200	-0.057756424
204	0x3d2134b3	0.0393569
205	0xbd79d5da	-0.06099496
206	0x3c1827e7	0.009286857
207	0x3c5907ed	0.013246519
208	0x3cccdf89	0.025008934
209	0xbd515e8a	-0.05111555
210	0x3d11050b	0.0354052
211	0x3c6e229e	0.014534621
212	0xbd0a1df5	-0.033719976
213	0xb902b0fd	-0.000124637
214	0xbc52f932	-0.012876796
215	0xbd35bc18	-0.044368833
216	0x3d96ee4f	0.073696725
217	0xbdb426ee	-0.08796488
218	0x3cfa424a	0.030549187
219	0xbd8201cb	-0.06347998
220	0x3c8a7062	0.016899291
221	0xbd6fd436	-0.05855199
222	0xbcf1cf99	-0.029517936
223	0xbd1f7c37	-0.03893682
224	0xbd81ac13	-0.06331649
225	0xbd5cd719	-0.05391607
226	0x3d29c5cb	0.041448396
227	0xbdf0fd4d	-0.11767063
228	0xbd3fc972	-0.046822973
229	0xbcb6f3e2	-0.02233309
230	0xbb0f1ba5	-0.0021836546
231	0x3d1e7018	0.03868112
232	0xbbcaad47	-0.006185207
233	0x3d426fec	0.04747002
234	0xbd8aaa38	-0.06770748
235	0x3c8a7ca0	0.016905129
236	0xbd830494	-0.063973576
237	0x38eb94fe	0.00011233425
238	0x3d75f7ee	0.060050897
239	0x3d45713f	0.048203703
240	0x3c975337	0.018472297
241	0xbcd4f986	-0.025997888
242	0x3cb8ae6b	0.022544106
243	0xbc8b795a	-0.017025638
244	0x3c1024b1	0.00879781
245	0xbd5643ec	-0.05231087
246	0xbd960e82	-0.07326986
247	0xbdb829d5	-0.08992354
248	0xbdb8ad75	-0.09017459
249	0x3d95bfac	0.07311949
250	0xbd68dc43	-0.056850683
251	0x3cdeeb0c	0.027211688
252	0x3d54b8a4	0.0519339
253	0xbd31ef31	-0.043441
254	0xbb42e5eb	-0.0029739093
255	0xbd4e0122	-0.05029405

model.0.bias f4 [16]
0	0xbd4ec5c2	-0.050481565
1	0xbcc5ad68	-0.024130538
2	0xbd9f5a2d	-0.077808715
3	0x3d533771	0.051566545
4	0xbc3e21d8	-0.011604749
5	0x3d487b85	0.048945922
6	0x3d234128	0.03985706
7	0xbce54451	-0.027986677
8	0xbd0cf99a	-0.034417726
9	0x3d99d5f3	0.07511511
10	0x3cdc5ca1	0.026899638
11	0xbcba6205	-0.022751817
12	0xbc0a23e9	-0.008431413
13	0xbd3f5737	-0.046714034
14	0x3d8a9c42	0.06768085
15	0x3938777d	0.0001759212

model.1.weight f4 [16]
0	0x3f84b74c	1.0368438
1	0x3f746801	0.954712
2	0x3f83ffe0	1.0312462
3	0x3f759c61	0.9594174
4	0x3f83aeef	1.028776
5	0x3f72fb77	0.94914955
6	0x3f793362	0.9734403
7	0x3f7f8c63	0.9982359
8	0x3f8fd220	1.1236
9	0x3f7890a8	0.9709573
10	0x3f7c7dea	0.9862963
11	0x3f7f89d2	0.9981967
12	0x3f78ebab	0.972346
13	0x3f713cd5	0.9423345
14	0x3f739e60	0.95163536
15	0x3f77ef46	0.9684948

model.1.bias f4 [16]
0	0x3c08e2b1	0.008354829
1	0xbd2ed0ca	-0.042679586
2	0x3bbff16a	0.005857636
3	0xbda13c36	-0.078728124
4	0x3ce50715	0.027957479
5	0xbd7f9408	-0.062397033
6	0xbd280b4a	-0.04102639
7	0xbd8b211d	-0.06793425
8	0x3d4425ed	0.04788773
9	0x3b02e971	0.0019975568
10	0xbdb63ba1	-0.08898092
11	0xbd66c270	-0.056337774
12	0xbd543bf2	-0.05181498
13	0xbdbac604	-0.091198
14	0xbda2d4d0	-0.07950747
15	0xbdba73e2	-0.09104134

model.1.running_mean f4 [16]
0	0x42295771	42.335392
1	0xc31592f0	-149.57397
2	0xc155f5db	-13.372523
3	0x43a76ded	334.8588
4	0xc1a563f9	-20.673815
5	0x4327a0cc	167.62811
6	0xbfdc165e	-1.7194326
7	0xc202ac3e	-32.668205
8	0xc1a3783f	-20.433714
9	0xc16e18f7	-14.881095
10	0x43315c06	177.35947
11	0xc2b06720	-88.201416
12	0xc2cf9345	-103.787636
13	0x437e8610	254.52368
14	0x42a42814	82.07828
15	0x42ed4ffd	118.65623

model.1.running_var f4 [16]
0	0x44449e90	786.47754
1	0x4545a0f8	3162.0605
2	0x43c465b5	392.7946
3	0x466b4830	15058.047
4	0x443a7700	745.8594
5	0x458c31a4	4486.205
6	0x43d24824	420.5636
7	0x43d5a32d	427.2748
8	0x4391da6b	291.7064
9	0x440b048e	556.07117
10	0x458de337	4540.402
11	0x44a8e2eb	1351.0912
12	0x44d28c28	1684.3799
13	0x462a2bf9	10890.993
14	0x44b2942d	1428.6305
15	0x45347262	2887.149

model.4.weight f4 [32, 16, 3, 3]
0	0xbd506179	-0.050874207
1	0xbcf44888	-0.029819742
2	0xbd66ea46	-0.056375764
3	0xbd9ededf	-0.07757353
4	0xbd49b373	-0.0492434
5	0xbc679ff8	-0.014137261
6	0x3d99e58f	0.07514488
7	0x3df2c8c5	0.118547
8	0xbbb0b99d	-0.0053932206
9	0x3dab2c83	0.08358099
10	0xbd094a98	-0.033518404
11	0xbdc862db	-0.0978448
12	0x3ca7ac20	0.020467818
13	0x3dbbbd81	0.091670044
14	0xbd2bf760	-0.041983962
15	0x3d35865b	0.044317584
16	0x3d2e14e4	0.04250039
17	0xbde1ce39	-0.11025662
18	0xbb5fdc79	-0.0034158512
19	0x3d6f174c	0.058371827
20	0x3df806fa	0.12110706
21	0x3cd5c134	0.026093103
22	0x3dd36765	0.10322455
23	0x3d82ccc8	0.06386715
24	0x3d0edede	0.03488051
25	0xbd0840e7	-0.03326502
26	0x3c72c5a0	0.014817625
27	0x3c8b3988	0.016995206
28	0x3d1bfe95	0.038084585
29	0x3d61f9b2	0.05516977
30	0x3d8228a2	0.06355406
31	0x3d7896fc	0.060690865
32	0xbcd7a210	-0.026322395
33	0xbcdb6d0a	-0.026785392
34	0xbd9fa993	-0.077960156
35	0xbd62d1c1	-0.05537582
36	0x3950e2b1	0.00019920875
37	0x3d99f586	0.07517533
38	0xbd4ce2bc	-0.05002092
39	0x3d3be4dc	0.045872554
40	0xbd05c5fc	-0.032659516
41	0xbc3a4324	-0.011368547
42	0xbdafe684	-0.08588889
43	0xbc2bbe3d	-0.010482368
44	0x3c8af933	0.01696453
45	0x3d20c400	0.03924942
46	0xbcbc7514	-0.023005046
47	0x3c94b424	0.018152304
48	0x3d6a611f	0.05722153
49	0xbcf1fabd	-0.029538507
50	0x3d9bab36	0.07601015
51	0x3c08e743	0.008355918
52	0x3c1d9a8e	0.009619368
53	0x3d3eaab4	0.046549514
54	0x3d63f09c	0.055649385
55	0x3d4ca9ed	0.04996674
56	0x3c8940a6	0.01675446
57	0xbd8a2c04	-0.067466766
58	0x3d8d60d4	0.06903234
59	0xbd7dab8c	-0.061931178
60	0xbd24ca8b	-0.040232223
61	0x3c2eb8b3	0.010664153
62	0xbc7cb04c	-0.015422892
63	0xbc23f5c9	-0.01000733
64	0xbbff5c61	-0.007792995
65	0xbd9a8474	-0.07544795
66	0x3d04a4d0	0.03238374
67	0x3c939192	0.01801375
68	0xbdbad9d5	-0.091235794
69	0xbca63905	-0.02029086
70	0x3d4ff431	0.05076999
71	0xbdb27115	-0.08712975
72	0xbd44f4d4	-0.04808505
73	0x3d11a36e	0.03555625
74	0xbd9936c3	-0.07481148
75	0xbc7a6e06	-0.015285021
76	0xbd432e8b	-0.04765181
77	0xbd747998	-0.059686273
78	0xbb592329	-0.003313253
79	0xbdb03a86	-0.086049125
80	0x3d43c468	0.04779473
81	0xbcec450d	-0.02884152
82	0xbccd99fc	-0.02509784
83	0x3d863ff1	0.065551646
84	0x3d3b1f15	0.04568394
85	0xbd448c72	-0.0479855
86	0xbd29a349	-0.041415486
87	0xbd27e7df	-0.040992614
88	0xbd5720d6	-0.05252155
89	0xbc320a38	-0.010866694
90	0x3cd9e093	0.026596343
91	0x3ce49140	0.027901292
92	0x3c85d921	0.016338887
93	0xbd425d19	-0.047452066
94	0xbb594387	-0.0033151822
95	0xbd37be91	-0.044859473
96	0x3d2c4fe6	0.042068385
97	0x3c9b6687	0.018969787
98	0xbcc731ab	-0.024315676
99	0xbc79adb8	-0.015239172
100	0x3d9bf441	0.07614947
101	0x3c195009	0.009357461
102	0x3ddde0ab	0.10833868
103	0xbd831b05	-0.06401638
104	0x3d7e4fb8	0.062087744
105	0xbc182dce	-0.009288264
106	0x3bac3eb9	0.0052565006
107	0xbd2af458	-0.04173693
108	0x3ca4a52a	0.020098288
109	0xbdca3771	-0.09873856
110	0xbd470e53	-0.048597645
111	0xbd6fe145	-0.058564443
112	0x3d2c6109	0.042084727
113	0xbdc5f5e3	-0.0966604
114	0xbb33ecd6	-0.0027454398
115	0x3b96a06a	0.0045967596
116	0xbd02ebe1	-0.031963233
117	0x3caffea8	0.021483734
118	0x3d110ef3	0.035414647
119	0xbd9a9bc1	-0.07549239
120	0x3d2f65ac	0.04282157
121	0xbcab9726	-0.020946097
122	0xbd06fd32	-0.03295631
123	0xba739188	-0.00092914
124	0xbd984726	-0.074354455
125	0x3d00b9c0	0.031427145
126	0xbcdc7c3b	-0.026914706
127	0xbd97e2df	-0.07416319
128	0xbca35bd1	-0.019941242
129	0xb8e7f495	-0.00011060495
130	0xbcdc53db	-0.026895454
131	0x3d695fed	0.056976248
132	0xbd088f3b	-0.03333972
133	0x3cf65cc6	0.030073535
134	0x3d2e29ff	0.04252052
135	0x3d1b2449	0.0378764
136	0x3d705ac9	0.05868033
137	0xbd5e266a	-0.054235853
138	0xbd2a1d48	-0.04153183
139	0xbcca93b5	-0.024728635
140	0xbdab86f2	-0.08375348
141	0x3d863254	0.06552568
142	0xbda6db6d	-0.08147321
143	0x3d0a4c97	0.033764448
144	0x3ccc2f5c	0.024924926
145	0x3dc7da88	0.097584784
146	0xbd8993df	-0.06717657
147	0x3c74833b	0.014923866
148	0x3dda3c53	0.10656037
149	0x3d8c3822	0.06846644
150	0x3caf46ab	0.021396002
151	0x3cfbb97c	0.030728094
152	0x3d6e0633	0.05811138
153	0x3b5c5e71	0.0033625627
154	0x3d8a54e7	0.06754475
155	0xbb945db8	-0.0045277737
156	0xbd46c371	-0.04852623
157	0x3da8c6b8	0.082410276
158	0x3cc3f8a0	0.023922265
159	0x3bcce66e	0.0062530553
160	0x3ca06b1d	0.019582326
161	0x3d89d1a4	0.06729439
162	0xbd201d8f	-0.03909069
163	0xbdab1a29	-0.08354599
164	0x3cf31850	0.029674679
165	0xbca7ae01	-0.020468714
166	0xbc8992f7	-0.016793711
167	0x3d8ec166	0.069704816
168	0xbd41c808	-0.047309905
169	0xbc01523a	-0.0078931395
170	0x3df1b70c	0.118024915
171	0x3d63d4a6	0.05562272
172	0xbd9fb8cc	-0.07798919
173	0x3c2ddca7	0.01061169
174	0x3dc9f01f	0.098602526
175	0x3c94dc37	0.018171413
176	0xbc283b29	-0.010268011
177	0x3dcfdaa9	0.10149128
178	0xbc805d35	-0.015669445
179	0x3c91c1ee	0.017792668
180	0xbabbf0d8	-0.0014338745
181	0x3c76baa3	0.015059146
182	0xbc02bef3	-0.007980096
183	0x3d8df5f2	0.06931676
184	0xbd7daa60	-0.06193006
185	0xbafe9473	-0.0019422903
186	0x3dde1495	0.108437695
187	0xbc988b38	-0.018621072
188	0xbd2df435	-0.042469222
189	0xbdd0fedf	-0.10204863
190	0xbd514b99	-0.051097486
191	0xbd3328b7	-0.04374
192	0xbbd0468f	-0.0063560675
193	0x3d759fb9	0.059966777
194	0xbda64a33	-0.08119621
195	0x3d0a1ea1	0.033720616
196	0xbd075da7	-0.0330483
197	0xbd5028d5	-0.05082019
198	0x3c43b415	0.01194479
199	0xbd296a4a	-0.04136113
200	0x3d12e440	0.035862207
201	0xbc8a9427	-0.016916348
202	0xbc34f4b4	-0.01104467
203	0x3ce3b608	0.02779676
204	0xbabca008	-0.0014390955
205	0xbd5e48f5	-0.054268796
206	0xbc84ee46	-0.016226899
207	0xbd79fcdf	-0.061032172
208	0xbb446c53	-0.0029971793
209	0x3d1f63e9	0.03891364
210	0xbd19c987	-0.037545707
211	0x3d137366	0.035998724
212	0xbd883325	-0.0665038
213	0xbd1f218d	-0.038850356
214	0x3d8eefa8	0.069793046
215	0x3da2457b	0.079234086
216	0x3d053278	0.032518834
217	0xbc9fe4a5	-0.019518206
218	0x3d8b5139	0.06802601
219	0x3c8ca4ef	0.01716849
220	0x3dbfed53	0.09371438
221	0xbd333f6f	-0.043761667
222	0x3d4a62b7	0.049410548
223	0xbdf42653	-0.11921372
224	0xbda36e6c	-0.07980046
225	0x3d70b6b8	0.058768004
226	0xbd07d272	-0.03315968
227	0xbd19a627	-0.03751197
228	0xbc22303e	-0.009899197
229	0xbda77bfb	-0.08177944
230	0x3c5b35ee	0.013379557
231	0x3d6424b6	0.055699073
232	0x3de2abd1	0.11067928
233	0xbd9836bc	-0.07432315
234	0x3d73eeb3	0.059553813
235	0x3b0f52f2	0.0021869508
236	0xbd820854	-0.06349245
237	0x3ddf1007	0.10891729
238	0x3de37078	0.11105436
239	0xbd9cc403	-0.07654574
240	0xbcf53ab7	-0.029935224
241	0x3d9b6014	0.07586685
242	0x3c574676	0.013139358
243	0x3d224f90	0.039626658
244	0x3d8309a3	0.063983224
245	0xbd0c1b35	-0.034205634
246	0xbc0ad3b3	-0.008473325
247	0xbb8af56e	-0.0042406833
248	0x3cadad0a	0.021200676
249	0xba999ae6	-0.0011719137
250	0x3d10dd79	0.035367463
251	0x3d222593	0.039586615
252	0xbc13ceb6	-0.009021452
253	0x3d0dab80	0.034587383
254	0x3be718ee	0.0070525324
255	0x3d39b71e	0.04534065

model.4.bias f4 [32]
0	0xbb8502c4	-0.0040591676
1	0x3c8c743a	0.017145265
2	0xbd21a418	-0.039463133
3	0x3c90b7bd	0.017665738
4	0x3d2b2466	0.04178276
5	0xbc3f2551	-0.011666612
6	0xbc3796a8	-0.011205353
7	0xbc8ae95f	-0.016956983
8	0xbcd67f98	-0.026183888
9	0x3d33cc88	0.043896228
10	0x3d194755	0.037421543
11	0x3d47753f	0.0486958
12	0x3c77faf8	0.015135519
13	0xbcd8c82c	-0.026462637
14	0x3daabbbd	0.083365895
15	0x3db8971f	0.09013199
16	0xbdd18249	-0.10229928
17	0x3c9437d8	0.018093035
18	0xbd720a5a	-0.059091903
19	0xbd3cf129	-0.046128426
20	0x3d24729b	0.04014836
21	0xbcf0159c	-0.02930718
22	0xbc8e832d	-0.017396534
23	0xbd9a42f6	-0.07532303
24	0xbd8ec1ab	-0.06970533
25	0xbd5a629d	-0.0533167
26	0xbc84686f	-0.016163079
27	0xbda12321	-0.078680284
28	0xbcd5eb6f	-0.02611324
29	0x3d072c49	0.033001218
30	0xba955194	-0.001139211
31	0xbd966edb	-0.07345363

model.5.weight f4 [32]
0	0x3f7fcbc5	0.999203
1	0x3f7dfef4	0.9921715
2	0x3f74739e	0.9548892
3	0x3f82420b	1.0176405
4	0x3f72060e	0.9454049
5	0x3f820d54	1.0160317
6	0x3f789223	0.97097987
7	0x3f80d854	1.0066018
8	0x3f73d9c8	0.9525418
9	0x3f76a8f0	0.9635153
10	0x3f88299f	1.0637702
11	0x3f83da39	1.0300971
12	0x3f824118	1.0176115
13	0x3f7ee395	0.9956601
14	0x3f8111b0	1.0083523
15	0x3f77dc8b	0.96820897
16	0x3f7041cc	0.938504
17	0x3f809091	1.0044118
18	0x3f6c9763	0.924185
19	0x3f7b7420	0.9822407
20	0x3f7b3401	0.98126227
21	0x3f7c3cbd	0.9853018
22	0x3f7ba4df	0.9829845
23	0x3f812517	1.0089444
24	0x3f73f4ba	0.952953
25	0x3f8a1ac0	1.0789413
26	0x3f8185a0	1.0118904
27	0x3f86ca3e	1.053047
28	0x3f7ff50f	0.99983305
29	0x3f7a9d41	0.978962
30	0x3f835547	1.02604
31	0x3f7fa6a6	0.9986366

model.5.bias f4 [32]
0	0xbd2b75aa	-0.04186026
1	0xbd718178	-0.05896136
2	0xbd994913	-0.07484641
3	0xbdd562b6	-0.10419218
4	0xbd9161cf	-0.07098734
5	0xbbc3e673	-0.0059783994
6	0xbd1b0c46	-0.0378535
7	0xbd6428bf	-0.05570292
8	0xbd0b7383	-0.034045707
9	0xbd982198	-0.074282825
10	0xbb6b9706	-0.0035948171
11	0xbca9d6b5	-0.020732263
12	0xbd0aec5f	-0.033916827
13	0xbd444b73	-0.047923516
14	0xbd006d6a	-0.031354345
15	0xbd795cb5	-0.060879428
16	0xbce03bfc	-0.027372353
17	0x3c761855	0.01502045
18	0xbd509841	-0.05092645
19	0xbd218656	-0.039434753
20	0xbd25bb90	-0.040462077
21	0xbd221f48	-0.039580613
22	0xbd44e53d	-0.04807018
23	0xbdc7c6ba	-0.09754701
24	0xbd650f72	-0.055922933
25	0xbd012df4	-0.031537965
26	0x3ba1131a	0.004915607
27	0xbcd863f5	-0.02641485
28	0xbd4d87e4	-0.050178424
29	0xbccb1025	-0.024787972
30	0xbd2f4ad5	-0.042795975
31	0xbd0bce20	-0.034132123

model.5.running_mean f4 [32]
0	0xbdd7823b	-0.10522886
1	0x3e827600	0.25480652
2	0x3f298738	0.6622195
3	0x3ef8808e	0.4853558
4	0xbe1c0ed9	-0.15240039
5	0x3cc87987	0.024472011
6	0x3d5591b3	0.052140903
7	0x3f3fcd9f	0.7492313
8	0x3e829dbb	0.25510964
9	0x3edc8361	0.43068984
10	0x3d4e5dac	0.0503823
11	0x3deb3bce	0.11486016
12	0xbe2712a0	-0.16315699
13	0xbce79cd7	-0.02827303
14	0x3e9332f7	0.2874982
15	0x3e8b758f	0.27238128
16	0xbdfcece9	-0.123498745
17	0xbe82f3b0	-0.25576544
18	0xbefa2b98	-0.48861384
19	0xbf117719	-0.56822354
20	0xbeede679	-0.464649
21	0x3de1c5c2	0.110240474
22	0xbf1cf906	-0.6131748
23	0x3de2925c	0.11063072
24	0xbf0bdd78	-0.5463481
25	0x3d9615fd	0.07328413
26	0xbe7aed29	-0.24504532
27	0x3e15498a	0.14578834
28	0xbea62fc6	-0.32458323
29	0x3ecd4a06	0.40095538
30	0x3e382f58	0.1798681
31	0xbecfb466	-0.4056732

model.5.running_var f4 [32]
0	0x3df44b58	0.11928433
1	0x3db910a4	0.09036377
2	0x3ef300e4	0.47461617
3	0x3e0c99ba	0.13730517
4	0x3e99b2d9	0.30019262
5	0x3dad106d	0.084503986
6	0x3e2cf889	0.16891684
7	0x3e94587a	0.28973752
8	0x3f0ab364	0.5417998
9	0x3de12165	0.109926976
10	0x3d61dc79	0.0551419
11	0x3e034c24	0.12822014
12	0x3dc66ac1	0.096883304
13	0x3d6a12d7	0.057146873
14	0x3d8eb550	0.06968176
15	0x3e1362dc	0.1439318
16	0x3d64e146	0.0558789
17	0x3dd29517	0.10282343
18	0x3e09fe2f	0.1347587
19	0x3e2f6250	0.17127347
20	0x3ebb31d6	0.3656146
21	0x3dc48398	0.09595412
22	0x3e8ccd01	0.27500156
23	0x3dc9c4d3	0.09851994
24	0x3e4b65dc	0.19863075
25	0x3d8aa894	0.06770435
26	0x3e068c70	0.1313951
27	0x3df45daa	0.119319275
28	0x3ec8ac42	0.39193922
29	0x3e30d647	0.1726924
30	0x3d896dce	0.06710397
31	0x3e847f12	0.25878197

model.7.weight f4 [32, 32, 3, 3]
0	0x3d3fe396	0.046847902
1	0xbd7ffe07	-0.06249812
2	0x3cd716d9	0.026256012
3	0x3b1a8363	0.0023576848
4	0xbd151886	-0.03640034
5	0x3c548eef	0.012973531
6	0x3d954800	0.072891235
7	0x3cafc70b	0.021457216
8	0x3b2e1536	0.0026562936
9	0xbb1c3e13	-0.002384071
10	0x3cbbde6b	0.022933206
11	0xbd0b14cb	-0.033955377
12	0xbd93b5bd	-0.07212398
13	0xbd295484	-0.041340366
14	0xbcec710c	-0.028862499
15	0xbb974bdb	-0.004617197
16	0xbdef2663	-0.116772436
17	0x3d4c8789	0.049933944
18	0xbcb5c84d	-0.022190237
19	0x3d0124f4	0.031529382
20	0xbd184635	-0.03717633
21	0xbd9ece99	-0.07754249
22	0xbc62e275	-0.013847937
23	0x3d4230b3	0.047409724
24	0x3c2d3953	0.010572749
25	0xbc92398b	-0.017849704
26	0x3d841cb8	0.0645079
27	0xbd10dbd2	-0.035365887
28	0x3d1978b0	0.037468612
29	0x3d7e5ba5	0.062099118
30	0xbc0e1da9	-0.008674064
31	0x3ddd76e7	0.108136944
32	0x3da893d2	0.082313195
33	0xbd4df8c2	-0.050286062
34	0x3db9fb10	0.090810895
35	0x3d8559af	0.065112464
36	0x3bb1e33b	0.0054286993
37	0x3d3d2657	0.04617914
38	0xbd1b2f59	-0.03788695
39	0x3c31c972	0.010851251
40	0xbb1abad3	-0.002360989
41	0x3bccf2f9	0.0062545505
42	0x3d8be5f7	0.06830972
43	0x3c6a54fd	0.014302489
44	0xbba6c207	-0.005089048
45	0xbd49773c	-0.049185976
46	0x3d1b5e84	0.037931934
47	0x3ce8aa67	0.028401567
48	0xbd8b2557	-0.067942314
49	0x3dc8d7dd	0.09806798
50	0xbb3f44a5	-0.0029185202
51	0x3d4a504f	0.049392994
52	0x3c85fc2a	0.016355593
53	0x3d1a627f	0.03769159
54	0x3cc826cf	0.024432568
55	0xbd25e032	-0.040497012
56	0x3d01369a	0.031546213
57	0xbcb5f0b9	-0.022209512
58	0xbc838736	-0.016055685
59	0xbce9bc18	-0.028532073
60	0x3d092a7d	0.033487786
61	0x3d0ba8b8	0.03409645
62	0xbd5f0dc2	-0.05445648
63	0xbd38b5c0	-0.045095205
64	0x3b599831	0.0033202285
65	0x3c0902c0	0.008362472
66	0xbdfd9e44	-0.123837024
67	0xbdcb544d	-0.099281885
68	0xbcbef693	-0.023310935
69	0xbd9bb31e	-0.07602523
70	0xbd302f9d	-0.043014158
71	0x3d3c5345	0.04597785
72	0x3c08048e	0.008301867
73	0xbd23904c	-0.039932534
74	0x3cb62e5a	0.022238899
75	0xbd5c1e6f	-0.05373996
76	0xbd7c374b	-0.06157617
77	0xbd4eb000	-0.050460815
78	0xbd013b0e	-0.03155046
79	0x3b709930	0.00367124
80	0x3c3cc48c	0.01152147
81	0xbd79f42d	-0.06102388
82	0x3c79136c	0.015202384
83	0x3cd8f5b8	0.026484355
84	0xbd193261	-0.03740156
85	0xbd74ea55	-0.05979379
86	0x3bd4b2a4	0.006491022
87	0x3cfff49b	0.031244567
88	0x3d356ab6	0.04429122
89	0xbaf6d818	-0.0018832712
90	0x3d992368	0.07477456
91	0x3db9e902	0.09077646
92	0xbd18a6f4	-0.037268594
93	0xbb3f1619	-0.0029157458
94	0xbc8eb840	-0.017421842
95	0xbd67363e	-0.056448214
96	0xbd0a52e5	-0.03377046
97	0xbd4f7310	-0.05064684
98	0xbd6ac073	-0.05731244
99	0xbd289163	-0.041154277
100	0x3cae065b	0.021243265
101	0x3ceee72d	0.029162968
102	0x3c0e8920	0.008699685
103	0xbd2b5f36	-0.041838847
104	0xbc0f2565	-0.008736943
105	0xbcd770c4	-0.026298888
106	0xbc938bb0	-0.018010944
107	0x3d2d039a	0.042239763
108	0x3c15b50c	0.009137403
109	0xbd565e50	-0.052336037
110	0x3cf32c15	0.029684106
111	0x3d280b5d	0.041026462
112	0x3d32c0c6	0.043640874
113	0xbc12d3e8	-0.008961655
114	0xbc2200fc	-0.00988793
115	0x3be1d5bf	0.0068919356
116	0xbd81363a	-0.06309171
117	0xbd504387	-0.05084565
118	0x3d761018	0.060073942
119	0x3bdcc0f4	0.006736869
120	0x3d3f71bb	0.04673932
121	0x3d313bee	0.043270044
122	0xbba8fc58	-0.005157035
123	0x3d80884a	0.06275995
124	0x3d7ad7b0	0.061240852
125	0xbb91d104	-0.0044499654
126	0x3cd387e1	0.025821628
127	0x3be8a671	0.0070999195
128	0x3d77a2b1	0.06045789
129	0x3d6dfb95	0.058101255
130	0x3d1ad76b	0.037803095
131	0xbd446b62	-0.04795397
132	0x3dabcf86	0.08389191
133	0xbd6aeef6	-0.057356797
134	0xbdbe7e53	-0.09301438
135	0xbcb7e168	-0.02244635
136	0x3d00b8ac	0.031426117
137	0x3db912c5	0.09036783
138	0x3d824cfb	0.06362339
139	0x3dadf0b4	0.08493176
140	0x3b2f07dd	0.0026707568
141	0x3d075c28	0.03304687
142	0xbd3435fd	-0.0439968
143	0xbd04f54d	-0.0324605
144	0xbd1207a5	-0.03565182
145	0xbc0e1957	-0.008673034
146	0xbd933d63	-0.07189443
147	0xbc074658	-0.008256517
148	0x3d6cab00	0.057780266
149	0xbda985f3	-0.08277502
150	0x3d9694af	0.07352578
151	0x3ba24cce	0.0049530035
152	0x3d7943fc	0.06085585
153	0x3d024128	0.03180042
154	0x3d999388	0.074988425
155	0xbd2f6303	-0.042819034
156	0x3c12aee2	0.008952828
157	0x3c613781	0.013746143
158	0x3c870c2f	0.016485302
159	0x3d472c69	0.048626337
160	0x3cca07b1	0.02466187
161	0x3cc808ae	0.024418201
162	0x3cfbbf93	0.030730998
163	0xbcfd3fdf	-0.030914245
164	0xbca2d6bf	-0.01987779
165	0x3a5f455b	0.00085171097
166	0xbca8ad63	-0.02059049
167	0x3cfa8d6f	0.030585019
168	0x3d1a525b	0.037676197
169	0x3c83ce72	0.016089652
170	0xbd328be7	-0.043590453
171	0x3d48fa36	0.049066745
172	0x3d41164c	0.047140405
173	0xbd55d340	-0.052203417
174	0x3d94abf5	0.07259361
175	0x3beeb694	0.0072849486
176	0x3ca21c4a	0.01978888
177	0xbcbef09a	-0.023308087
178	0xbb223331	-0.002474975
179	0x3cf3f401	0.029779436
180	0xbd84dcc4	-0.0648742
181	0x3badfb73	0.005309516
182	0x3b53ce0a	0.0032318854
183	0x3d083e3b	0.033262473
184	0xbd1ee458	-0.038791984
185	0xbd5f3149	-0.05449036
186	0x3b616ef3	0.0034398406
187	0xbd70c485	-0.058781166
188	0xbc84772b	-0.016170105
189	0x3c2802f1	0.010254608
190	0x3bde3845	0.00678161
191	0xbc262794	-0.010141272
192	0xbcf2b988	-0.029629484
193	0xbccd28aa	-0.025043804
194	0xbd756467	-0.059910204
195	0xbd28f763	-0.04125155
196	0xbcbf884d	-0.023380423
197	0x3d184195	0.03717192
198	0xbcbb54f0	-0.02286765
199	0x3cc17a76	0.023617964
200	0xbca6cef9	-0.020362364
201	0xbc60f8c0	-0.013731182
202	0xbcc02d45	-0.023459086
203	0xbd517de1	-0.051145438
204	0xbdba2db1	-0.09090746
205	0x3cea7c70	0.02862379
206	0x3c3e87f1	0.011629091
207	0x38e644b7	0.00010980054
208	0x3bc1b880	0.0059118867
209	0x3d563013	0.05229194
210	0xbd2db76c	-0.042411253
211	0x3b162011	0.0022907297
212	0xbd7c02db	-0.06152616
213	0xbcccbe2a	-0.024993021
214	0x3cf1042e	0.029420938
215	0xbd2df096	-0.04246577
216	0xbd19adf7	-0.03751942
217	0xbc03fda6	-0.00805608
218	0x3d9f20a7	0.077699
219	0xbcfe1456	-0.031015556
220	0xbcb5974a	-0.022166867
221	0x3d5f7b79	0.054561112
222	0x3dc2eac4	0.09517434
223	0x3d0afcee	0.03393262
224	0x3d3eb966	0.04656353
225	0xbb92b5e5	-0.00447725
226	0xbcecf5c1	-0.028925778
227	0x3d2ad00d	0.04170232
228	0x3d9c47a4	0.07630852
229	0xbc883e5e	-0.016631301
230	0xbac4f8dc	-0.0015027779
231	0x3d1d1a57	0.038355198
232	0xbb62eff4	-0.0034627886
233	0x3c4d19b9	0.01251834
234	0x3d1201fa	0.035646416
235	0xbd007e98	-0.03137073
236	0xbcad2e8d	-0.021140361
237	0x3b5d2df0	0.0033749305
238	0x3d99af01	0.075040825
239	0xbd08ec55	-0.03342851
240	0xbd228835	-0.03968068
241	0x3d641117	0.05568036
242	0xbcd47306	-0.025933754
243	0xbc86cd32	-0.016455267
244	0x3dae443b	0.08509108
245	0xbbe67ca3	-0.007033901
246	0xbd9a25e9	-0.07526762
247	0x3ca2ff53	0.019897139
248	0xbc4441ae	-0.01197855
249	0xbd830196	-0.06396787
250	0xbd7cb0fe	-0.06169223
251	0x3d6fefd2	0.05857832
252	0x3d49f4a3	0.04930557
253	0xbbc7446f	-0.006081156
254	0xbc4c0e60	-0.012454599
255	0x3cc54ddb	0.024084976

model.7.bias f4 [32]
0	0x3ba0f040	0.0049114525
1	0xbcb8a18e	-0.022537973
2	0xbd88749c	-0.066628665
3	0x3d925217	0.07144564
4	0x3d05a933	0.032632064
5	0xbd6d24f9	-0.057896588
6	0x3d08f964	0.033440962
7	0x3aa65305	0.0012689537
8	0xbbbf887a	-0.0058451267
9	0xbc98ab51	-0.018636378
10	0x3cb04648	0.021517888
11	0xbd28860f	-0.041143473
12	0x3cfa3ec7	0.030547513
13	0xbcd26aba	-0.025685657
14	0x3d082a45	0.033243436
15	0xbc1168b6	-0.008875063
16	0x3ce47d4a	0.027891774
17	0xbd389c80	-0.045071125
18	0xbc74fb43	-0.014952484
19	0xbb82ea88	-0.0039952435
20	0x3d63ed4f	0.055646237
21	0x3cf0dcf8	0.029402241
22	0xbc22f1e7	-0.009945369
23	0x3c9dbca9	0.019255
24	0xbd018c09	-0.03162769
25	0xbd78489f	-0.060616132
26	0xbd5cdf27	-0.053923752
27	0xbd4cd71c	-0.05000983
28	0xbce8e34d	-0.028428698
29	0xbd1f7543	-0.03893019
30	0x3c35d3e9	0.011097887
31	0x3bb7a362	0.0056041935

model.8.weight f4 [32]
0	0x3f818617	1.0119046
1	0x3f8510ce	1.0395753
2	0x3f84e2de	1.0381734
3	0x3f791a88	0.9730611
4	0x3f848124	1.035191
5	0x3f82698f	1.0188464
6	0x3f80391a	1.0017426
7	0x3f7fb70a	0.9988867
8	0x3f6cec5d	0.9254816
9	0x3f7a7ef1	0.9784995
10	0x3f820d77	1.0160359
11	0x3f7671f6	0.9626764
12	0x3f77763f	0.96664804
13	0x3f770b28	0.965014
14	0x3f81e660	1.014843
15	0x3f7f7ab6	0.9979662
16	0x3f8242ff	1.0176696
17	0x3f70fb4a	0.94133437
18	0x3f7cee20	0.9880085
19	0x3f8310b0	1.0239468
20	0x3f7f25db	0.9966714
21	0x3f85eb12	1.0462363
22	0x3f7f39ff	0.9969787
23	0x3f7cf22b	0.9880702
24	0x3f7d831d	0.9902819
25	0x3f787a16	0.9706129
26	0x3f828b32	1.0198729
27	0x3f7573e9	0.9587999
28	0x3f7bd095	0.98365146
29	0x3f84a3d3	1.0362495
30	0x3f77b839	0.96765476
31	0x3f81e729	1.014867

model.8.bias f4 [32]
0	0xbd874ba9	-0.06606228
1	0xbd552ccc	-0.052044675
2	0xbd8d3085	-0.0689402
3	0xbcfffe91	-0.031249316
4	0xbdf3be57	-0.11901539
5	0xbcc49148	-0.023995057
6	0xbcea0823	-0.028568333
7	0xbc8c7654	-0.017146267
8	0xbdbcd2ae	-0.092198715
9	0xbd2eb9c9	-0.042657647
10	0xbcf2b628	-0.029627874
11	0xbd9c1f22	-0.076231256
12	0xbd9710c8	-0.07376248
13	0xbd72815b	-0.059205394
14	0xbb7d9b58	-0.0038697328
15	0xbdacb291	-0.08432496
16	0xbc07a88e	-0.008279933
17	0xbd8d8ec9	-0.06912
18	0xbcf3addb	-0.029745987
19	0xbd7873f3	-0.060657453
20	0xbd25162d	-0.04030435
21	0xbd34e29b	-0.04416142
22	0xbda98dce	-0.08279
23	0xbd051ce4	-0.032498255
24	0xbcea640f	-0.028612165
25	0xbd4adc3e	-0.049526446
26	0xbdb275e8	-0.08713895
27	0xbd8f785c	-0.070053786
28	0xbba37837	-0.004988696
29	0xbdb0a4b0	-0.08625162
30	0xbdc240e4	-0.09485033
31	0x3aea37c2	0.00178694

model.8.running_mean f4 [32]
0	0x3e135aab	0.14390056
1	0x3d96bd5a	0.07360335
2	0xbb7e16f9	-0.0038771017
3	0xbef51957	-0.47870895
4	0xbd429f7d	-0.04751538
5	0xbe975e2b	-0.29564032
6	0x3e343351	0.175977
7	0xbfafddeb	-1.3739599
8	0x3cbf9fc2	0.023391608
9	0xbccb27eb	-0.024799308
10	0xbd241c63	-0.040066134
11	0x3e6bc235	0.23023303
12	0x3e609650	0.2193234
13	0xbeb47d7e	-0.35251993
14	0xbeaf7328	-0.34267545
15	0xbf1bb7a5	-0.60827094
16	0x3d78e58b	0.060765784
17	0xbf13f14a	-0.5779005
18	0xbe37c660	-0.17946768
19	0x3ea198d4	0.3156191
20	0x3eeba6fc	0.46025836
21	0x3f64ea67	0.8942017
22	0x3e13abca	0.14421001
23	0xbe92e7fd	-0.28692618
24	0xbed11746	-0.4083807
25	0xbf164c34	-0.58710027
26	0xbe52c43e	-0.20582673
27	0xbf095125	-0.5363944
28	0xbf49c4ca	-0.788159
29	0xbe2ccc04	-0.16874701
30	0xbd841c14	-0.06450668
31	0x3d9fe247	0.07806831

model.8.running_var f4 [32]
0	0x3edbce1a	0.4293068
1	0x3e9d53f5	0.30728117
2	0x3eb73bf4	0.35787928
3	0x3e93f0b6	0.28894585
4	0x3e6cc7c7	0.23123084
5	0x3e8223eb	0.25418028
6	0x3e9900d6	0.2988345
7	0x3fb49141	1.4106828
8	0x3f53a2a9	0.82670075
9	0x3ee4358e	0.4457211
10	0x3f175f52	0.5912982
11	0x3ea99646	0.33122462
12	0x3eba3b44	0.3637334
13	0x3fa13357	1.2593793
14	0x3efb509d	0.4908494
15	0x3f3b072c	0.7305782
16	0x3f309acc	0.689862
17	0x3f60af54	0.8776753
18	0x3ef17612	0.47160393
19	0x3eb02e5c	0.3441037
20	0x3ec6a1ca	0.3879531
21	0x3f08d173	0.53444594
22	0x3e886050	0.2663598
23	0x3ea97724	0.3309871
24	0x3ed094ba	0.4073847
25	0x3ec508ce	0.3848328
26	0x3ea17eb5	0.31541982
27	0x3f573f62	0.8408109
28	0x3f746410	0.95465183
29	0x3e7c90f3	0.24664669
30	0x3eafe505	0.34354416
31	0x3eacaec4	0.33727086

model.10.weight f4 [64, 32, 3, 3]
0	0xbb1f6427	-0.002432117
1	0xbd65bf97	-0.056090917
2	0x3d8eff6d	0.06982312
3	0x3c4af4e3	0.012387487
4	0x3cc016cb	0.023448369
5	0x3ce3712a	0.027763922
6	0xbd29cf7f	-0.04145765
7	0xbcd1c848	-0.025608197
8	0x3d259aa8	0.040430695
9	0x3c4d58ae	0.01253335
10	0xbb428f1a	-0.0029687346
11	0xbd3f0265	-0.046633143
12	0x3da12e35	0.078701414
13	0x3c2f2a9c	0.010691311
14	0x3d52f08f	0.051498946
15	0xbba788e0	-0.0051127523
16	0x3c804d4f	0.015661864
17	0x3d667e95	0.05627306
18	0x3ddab3d6	0.10678832
19	0x3d4d1c06	0.050075553
20	0xbca71e6b	-0.020400247
21	0xbd1df4b2	-0.038563438
22	0xbc83bb2a	-0.016080458
23	0xbc9c2299	-0.019059466
24	0x39d9e16d	0.0004155742
25	0x3d72a331	0.059237663
26	0xba9248f1	-0.0011160654
27	0x3d29eccb	0.04148559
28	0x3d5856a3	0.052817
29	0xbd9e9fb5	-0.077453054
30	0xbca7b7b0	-0.020473331
31	0x3c832948	0.016010895
32	0x3ba1a42d	0.0049329014
33	0xbd51eef4	-0.051253274
34	0x3db395aa	0.087687805
35	0xbd8d6618	-0.069042385
36	0x3db48a7a	0.08815475
37	0xbd51207f	-0.05105638
38	0xbc2f5c98	-0.010703228
39	0x3bfc97a3	0.007708506
40	0x3d71f8c3	0.05907513
41	0xbcd97092	-0.026542936
42	0x3caab38d	0.02083757
43	0xbd3a6154	-0.045502976
44	0x3c591d6f	0.013251646
45	0x3c3e57b7	0.011617593
46	0x3d00d35f	0.03145158
47	0x3ce11bd9	0.0274791
48	0xbd266cc6	-0.04063108
49	0x3ca66a66	0.020314407
50	0xbd00ec9a	-0.03147564
51	0xbd7e292e	-0.06205099
52	0x3d998fa0	0.074980974
53	0xb9d66b0b	-0.00040897014
54	0xbd21360c	-0.039358184
55	0xbd0c7eb8	-0.034300536
56	0xbdd8afb4	-0.10580388
57	0xbc03cc66	-0.008044338
58	0x3d67d4d4	0.056599453
59	0xbd2fa856	-0.042885147
60	0xbbaf32f9	-0.0053466526
61	0xbd602647	-0.054724004
62	0xbd2c40c1	-0.04205394
63	0x3d63955c	0.055562362
64	0xbb1e9142	-0.0024195467
65	0x3c80fb96	0.015744966
66	0x3ca8ccfe	0.02060556
67	0xbd8b2c04	-0.06795505
68	0xbd28c64b	-0.041204732
69	0x3d13c760	0.03607881
70	0x3ce48cf5	0.027899245
71	0x3cc29f94	0.023757733
72	0x3cd87ef6	0.026427727
73	0xbd2ca90a	-0.042153396
74	0xbd68de38	-0.05685255
75	0x3a7995bf	0.000952091
76	0xbcd98977	-0.026554806
77	0xbd54d4e6	-0.05196085
78	0x3d827a6a	0.06371005
79	0x3d50862e	0.050909214
80	0xbd0a92af	-0.033831295
81	0x3d728ad4	0.059214428
82	0xbd35005e	-0.044189803
83	0x3c6cd0d1	0.014454083
84	0xbd7ebd9a	-0.062192537
85	0x3cb40ffd	0.02198028
86	0x3d4d7087	0.050156143
87	0xbd5c9d15	-0.053860743
88	0x3d925a73	0.07146158
89	0x3d978c77	0.073998384
90	0xbb217fd5	-0.0024642844
91	0xbd099421	-0.033588532
92	0x3d890d48	0.06691986
93	0x3d557607	0.052114513
94	0x3ae7f6ab	0.0017697414
95	0x3d491e58	0.049101204
96	0x3c63f9e1	0.013914556
97	0xbd685451	-0.056721035
98	0x3cd28ba2	0.025701348
99	0x3c331081	0.010929228
100	0xbd585ec2	-0.052824743
101	0xbcbfeb2a	-0.023427565
102	0x3d602d87	0.05473092
103	0x3d27bb19	0.040949915
104	0x3d97e365	0.07416419
105	0x3bb7ab22	0.0056051174
106	0x3cb07311	0.021539243
107	0x3bff7a36	0.007796551
108	0xbd23f2d0	-0.040026486
109	0x3d55d922	0.052209027
110	0xbd31bcfe	-0.043393128
111	0xbd2f25c2	-0.042760618
112	0x3d087ee2	0.03332413
113	0xbd0ce166	-0.034394644
114	0x3cfc5f80	0.030807257
115	0x3d477173	0.048692178
116	0x3cb1199b	0.021618655
117	0x3b949bec	0.004535189
118	0xbad889aa	-0.0016520519
119	0x3d6068a0	0.05478728
120	0x3d5e5229	0.054277573
121	0x3dc22caf	0.09481179
122	0x3da0967b	0.07841202
123	0x3cf94dbb	0.030432573
124	0xbab63ae3	-0.0013903048
125	0x3d8906da	0.0669076
126	0x3bece9b6	0.007230009
127	0x3be8c82c	0.0071039405
128	0xbd1c284b	-0.038124364
129	0x3b916723	0.0044373437
130	0x3d8cd615	0.068767704
131	0xbda63121	-0.08114839
132	0x3d0c42cc	0.03424339
133	0x3c9d6018	0.01921086
134	0xbd84f1b1	-0.064914115
135	0x3cb7bf96	0.022430222
136	0x3bd2268a	0.0064132856
137	0x3c08ddd6	0.008353671
138	0x3d5e4bfc	0.054271683
139	0xbd01994a	-0.03164033
140	0x3ceb2d7a	0.028708208
141	0x3ba96f0f	0.00517071
142	0xbcf49fdf	-0.029861389
143	0xbd970040	-0.073730946
144	0x3d3ada2f	0.045618232
145	0xbd454d6c	-0.04816954
146	0x3d3f50ec	0.046708032
147	0x3d16a76f	0.03678077
148	0x3aa4bd68	0.0012568654
149	0xbce6c7b2	-0.028171394
150	0x3b185e5a	0.0023249597
151	0x3b856bb3	0.0040716766
152	0x3d1b5dc9	0.037931237
153	0xbd1f6477	-0.03891417
154	0x3c11d660	0.008901209
155	0x3cd6f03d	0.026237601
156	0x3cdd01f6	0.026978474
157	0x3d384f01	0.04499722
158	0x3c54321f	0.012951403
159	0x3d76baa7	0.0602366
160	0x3d7ef52c	0.062245533
161	0xbcf863a3	-0.030320948
162	0xbd819891	-0.06327928
163	0x3d386678	0.045019597
164	0x3bbf3fcf	0.005836464
165	0xbd24d60d	-0.040243197
166	0xbc0f0869	-0.0087300325
167	0xba902b30	-0.0010999199
168	0xbd4a3d8d	-0.049375106
169	0xbd8c61e4	-0.06854609
170	0xbd559e03	-0.052152645
171	0xbd4c1641	-0.04982591
172	0xbd1214c7	-0.035664346
173	0xbc093cf9	-0.008376353
174	0xbba2528e	-0.004953689
175	0xbd74308d	-0.059616614
176	0xb9260334	-0.00015832187
177	0x3cc25edb	0.023726871
178	0xbce0352d	-0.027369106
179	0xbd91c2ea	-0.07117255
180	0xbd89b54e	-0.06724034
181	0x3c43a291	0.011940614
182	0x3c116b65	0.0088757025
183	0x3d2e8edc	0.04261671
184	0x3dab9fcc	0.08380088
185	0xbc9a8cf1	-0.018866034
186	0x3d98067d	0.074231125
187	0xbd3aa314	-0.04556568
188	0x3c8b6c28	0.017019346
189	0x3c0d860a	0.008637914
190	0x3c57860e	0.01315452
191	0xbcc519c6	-0.024060141
192	0x3bcb9519	0.006212842
193	0xbda68c2e	-0.08132206
194	0xbd4a5d74	-0.04940553
195	0xbd1b4e13	-0.037916254
196	0xbc324b4b	-0.010882209
197	0x3c08628e	0.0083242785
198	0xbd03f393	-0.032214712
199	0xbd8df721	-0.06931902
200	0x3d1abdb7	0.037778582
201	0x3ca43101	0.020042898
202	0x3b59d79a	0.003324008
203	0x3c2a96b8	0.010411911
204	0x3a370d35	0.0006982864
205	0xbda47420	-0.080299616
206	0x3c9d7fb8	0.01922594
207	0xbb0020c3	-0.0019550778
208	0x3c840aee	0.016118493
209	0xbd87cbc7	-0.06630664
210	0xbdae760f	-0.08518612
211	0x3d76689f	0.06015837
212	0x3c8b12aa	0.016976673
213	0x3c333a55	0.0109392
214	0xbd77d288	-0.060503513
215	0xbaf56723	-0.0018722754
216	0x3d3a3a06	0.04546549
217	0xbd78a7ad	-0.060706783
218	0xbd860adc	-0.0654504
219	0x3dbc592a	0.09196694
220	0x3d44b520	0.048024297
221	0xbc4984ff	-0.012299775
222	0xbc29a9b9	-0.010355406
223	0xbd9117cc	-0.07084617
224	0x3d247618	0.040151685
225	0x3db27794	0.08714214
226	0x3d6fad69	0.058514986
227	0xbd8ee378	-0.0697698
228	0xbc6360f4	-0.013878096
229	0x3da14ba2	0.07875754
230	0xbda2c07f	-0.07946872
231	0x3b8d8abd	0.0043195174
232	0x3d1c6c9d	0.03818952
233	0x3ca08059	0.019592451
234	0x3d1c951c	0.03822814
235	0xbb8104ce	-0.0039373403
236	0xbc6ecc1f	-0.014575033
237	0x3c0dca98	0.008654259
238	0xbd584e72	-0.052809186
239	0xbae02e7f	-0.0017103701
240	0xbd7424b2	-0.059605308
241	0xbc3d1252	-0.011540012
242	0x3c92d369	0.017923074
243	0xbc1d623a	-0.009605939
244	0x3d1c03bc	0.0380895
245	0xbd80b303	-0.06284144
246	0xbc024248	-0.007950373
247	0xbca6b36d	-0.020349229
248	0x3d40dd85	0.047086257
249	0x3d712af5	0.058878858
250	0x3cb716c5	0.022349725
251	0x3d95cdb4	0.073146254
252	0x3d2254f7	0.03963181
253	0x3ac8ecd7	0.0015329373
254	0x3c4d9d77	0.01254975
255	0xbd40170a	-0.04689697

model.10.bias f4 [64]
0	0xbd72596c	-0.05916731
1	0xbd576169	-0.052583132
2	0x3d4e38f4	0.050347283
3	0x3cb37925	0.021908352
4	0x3c7fbd0b	0.015609036
5	0xbc20c63b	-0.009812887
6	0xbd81d24c	-0.06338939
7	0xbd132fc0	-0.03593421
8	0xbd78a2e4	-0.06070222
9	0x3d4b0f10	0.04957491
10	0x3ca3e6bb	0.020007482
11	0xbc13c1d4	-0.00901838
12	0x3d74fd84	0.059812084
13	0x3d6d7e9b	0.05798207
14	0xbc0b4a90	-0.008501664
15	0xbcd049a1	-0.025425734
16	0x3c6ed214	0.014576454
17	0xbd3278d3	-0.04357226
18	0x3d0cd17d	0.03437947
19	0x3cd02a49	0.025410788
20	0x3cef3593	0.02920035
21	0xbd485422	-0.04890836
22	0xbc8192db	-0.015817096
23	0x3d548ab2	0.051890083
24	0xbc560480	-0.013062596
25	0x3b027386	0.0019905283
26	0xbcd0dbc0	-0.02549541
27	0x3caa1daf	0.020766107
28	0x3c84393b	0.01614057
29	0x3d5ea9f7	0.05436131
30	0xbba2be39	-0.004966524
31	0x3d41bc7e	0.0472989
32	0xbca75333	-0.020425415
33	0xbd26316e	-0.040574484
34	0x3d31d848	0.043419152
35	0xbd078156	-0.03308233
36	0x3c8e8c96	0.017401021
37	0xbd45ce9f	-0.048292752
38	0x3a9c472d	0.0011923068
39	0xbd3a3f30	-0.045470417
40	0x3d676272	0.05649037
41	0x3d5effa3	0.054443013
42	0x3d25a09c	0.040436372
43	0xbc4ec75a	-0.012620771
44	0x3bc34f56	0.0059603853
45	0x3d04d852	0.03243286
46	0xbd19cd94	-0.03754957
47	0xbc27e467	-0.010247326
48	0x3d851cbe	0.06499623
49	0xbd2fae58	-0.042890877
50	0x3cafbd86	0.021452677
51	0xbd1e5154	-0.03865178
52	0xbc42e6b6	-0.011895826
53	0xbce0c851	-0.027439268
54	0xbcd84c00	-0.026403427
55	0x3d82e301	0.06390954
56	0x3d219141	0.039445166
57	0xbd3c8f34	-0.046035007
58	0xbd1b0c26	-0.037853383
59	0x3cb8963a	0.022532571
60	0xbd622a85	-0.05521633
61	0xbcbdef26	-0.023185324
62	0xbd8c4695	-0.068494
63	0x3c9326e4	0.01796288

model.11.weight f4 [64]
0	0x3f75734d	0.9587906
1	0x3f808e91	1.0043508
2	0x3f79f088	0.97632647
3	0x3f7fc57a	0.999107
4	0x3f794f71	0.9738684
5	0x3f706f75	0.9392007
6	0x3f7cf694	0.9881375
7	0x3f805bc9	1.0028011
8	0x3f7a1588	0.97689104
9	0x3f79bede	0.97556865
10	0x3f7423ae	0.9536694
11	0x3f84adf9	1.0365592
12	0x3f7c631e	0.9858874
13	0x3f806969	1.0032169
14	0x3f7ead58	0.9948325
15	0x3f8602ec	1.0469642
16	0x3f6cb846	0.9246868
17	0x3f808730	1.0041256
18	0x3f79d40f	0.975892
19	0x3f75bb84	0.9598925
20	0x3f7615d1	0.9612704
21	0x3f81d889	1.0144206
22	0x3f80f2e8	1.0074129
23	0x3f83c531	1.0294553
24	0x3f80eb6a	1.0071843
25	0x3f826f61	1.019024
26	0x3f822f42	1.0170672
27	0x3f6fab8a	0.9362112
28	0x3f78be53	0.9716541
29	0x3f810188	1.0078592
30	0x3f83a991	1.0286123
31	0x3f83b7f3	1.0290512
32	0x3f787ada	0.97062457
33	0x3f761456	0.9612478
34	0x3f744443	0.9541666
35	0x3f88ffa9	1.0703021
36	0x3f84a234	1.0362
37	0x3f81d533	1.0143188
38	0x3f6ab11d	0.91676503
39	0x3f816247	1.0108117
40	0x3f80452a	1.0021107
41	0x3f882e10	1.0639057
42	0x3f8d3e2c	1.1034598
43	0x3f6fd6a2	0.9368688
44	0x3f7fea36	0.9996675
45	0x3f87155b	1.0553392
46	0x3f7f1417	0.9964003
47	0x3f753233	0.9577972
48	0x3f7dcef6	0.9914392
49	0x3f7c5dc2	0.98580563
50	0x3f8828f2	1.0637496
51	0x3f8654a7	1.0494584
52	0x3f74eb42	0.95671475
53	0x3f82d51d	1.0221287
54	0x3f82c099	1.0215026
55	0x3f846139	1.034217
56	0x3f7fcbc0	0.9992027
57	0x3f7d68e6	0.9898819
58	0x3f740a65	0.9532836
59	0x3f77b512	0.96760666
60	0x3f810593	1.0079826
61	0x3f829ba8	1.0203753
62	0x3f82af45	1.0209738
63	0x3f7afa6a	0.9803835

model.11.bias f4 [64]
0	0xbdb21fea	-0.086974934
1	0xbd272147	-0.04080322
2	0xbd4576c8	-0.04820898
3	0xbd8a313c	-0.06747672
4	0xbd20fab3	-0.039301585
5	0xbd558d0c	-0.052136466
6	0xbda6458a	-0.08118732
7	0xbda2f000	-0.079559326
8	0xbd944573	-0.07239809
9	0xbd98d064	-0.07461622
10	0xbd3c1b34	-0.04592438
11	0xbd8decc9	-0.06929929
12	0xbdd4634e	-0.10370503
13	0xbc072815	-0.008249302
14	0xbd965513	-0.07340445
15	0xbcf999f0	-0.030468911
16	0xbd66af7f	-0.05631971
17	0xbd89a020	-0.067199945
18	0xbcd3eb83	-0.025869137
19	0xbd61cc17	-0.055126276
20	0xbd9a0beb	-0.075218044
21	0xbdcded59	-0.10055036
22	0xbd5d36f3	-0.05400748
23	0xbd581bc9	-0.052760873
24	0xbd25bdc3	-0.040464174
25	0x3a153d73	0.00056930556
26	0xbd0870bd	-0.03331064
27	0xbdc95d20	-0.09832215
28	0xbda48f23	-0.08035114
29	0xbdacdffb	-0.084411584
30	0xbd7adb5b	-0.06124435
31	0xbdd18790	-0.102309346
32	0xbe0b8a77	-0.13627039
33	0xbd55ca21	-0.05219472
34	0xbda7fdaa	-0.082026795
35	0xbd17a8ce	-0.03702622
36	0xbd5bc028	-0.05365005
37	0xbd2e6f38	-0.042586535
38	0xbdfb635c	-0.12274811
39	0xbd7b85d5	-0.06140693
40	0xbdaea256	-0.08527057
41	0xbd900686	-0.07032494
42	0xbdbc66ea	-0.09199317
43	0xbd140208	-0.03613475
44	0xbd530027	-0.051513817
45	0xbd4e5038	-0.05036947
46	0xbd15e1d3	-0.036592316
47	0xbde69e10	-0.11260617
48	0xbda5ae31	-0.08089865
49	0xbd9b5a37	-0.075855665
50	0xbdd0d771	-0.10197342
51	0xbccff4c1	-0.025385262
52	0xbdfda717	-0.123853855
53	0xbd8e577c	-0.0695028
54	0xbd7f1f0f	-0.06228548
55	0xbd142a67	-0.03617325
56	0xbdfa3bed	-0.12218461
57	0xbd38f8ae	-0.045159034
58	0xbd4f44f1	-0.050602857
59	0xbdc1d291	-0.094639905
60	0xbd80ab4e	-0.06282674
61	0xbd70457c	-0.058660015
62	0xbd9b21e2	-0.07574822
63	0xbd529f96	-0.051421724

model.11.running_mean f4 [64]
0	0x3e1dee66	0.15422973
1	0xbf03dff6	-0.5151361
2	0xbf0091c6	-0.5022243
3	0xbee4fa3d	-0.44722167
4	0x3e14438e	0.14478895
5	0xbf809d27	-1.0047959
6	0xbeefe96d	-0.46857777
7	0xbe8da459	-0.2766445
8	0xbe05292c	-0.13003987
9	0xbef53fd1	-0.4790025
10	0xbe82221b	-0.25416645
11	0xbeb145cd	-0.34623566
12	0x3e1b0447	0.1513835
13	0xbe9d8cc6	-0.30771464
14	0xbe154e4e	-0.14580652
15	0xbe83dacf	-0.25752875
16	0xbf2e5230	-0.6809416
17	0xbe2cdd56	-0.16881308
18	0xbb7b179c	-0.0038313633
19	0xbb9e2c59	-0.004827064
20	0xbf4b06ed	-0.7930744
21	0xbf0775f2	-0.52914345
22	0xbe8408af	-0.25787875
23	0xbe8d94d0	-0.27652597
24	0xbd7b2013	-0.061309885
25	0x3dd315d1	0.103068955
26	0x3ec4cc72	0.3843723
27	0xbedb66cf	-0.42851874
28	0x3de83cb3	0.113397025
29	0x3e8ddd37	0.27707836
30	0xbe104a0a	-0.14090744
31	0xbcfe034b	-0.03100743
32	0xbd323c96	-0.04351481
33	0xbef43849	-0.47699192
34	0xbe935111	-0.28772786
35	0x3e0cf234	0.13764268
36	0xbeb0d73e	-0.34539217
37	0xbea19a70	-0.3156314
38	0x3e6f43fb	0.23365776
39	0xbc9c337a	-0.019067515
40	0xbf2179f5	-0.63076717
41	0xbe8ff985	-0.28120056
42	0xbf0a54a3	-0.54035395
43	0xbebe022b	-0.3711103
44	0xbe45c1d2	-0.19312218
45	0xbe24e4aa	-0.16102853
46	0xbee2359d	-0.4418153
47	0x3db14d22	0.0865729
48	0xbe345b99	-0.17613067
49	0xbe0cf600	-0.13765717
50	0x3dd6e7b1	0.104934104
51	0xbed4fec2	-0.41600615
52	0x3e01391a	0.12619439
53	0xbe36ede8	-0.17864192
54	0xbd4352e3	-0.04768647
55	0xbd74b99e	-0.05974733
56	0x3c3bf727	0.0114725
57	0xbf172866	-0.5904602
58	0xbe8518a7	-0.2599537
59	0xbe019020	-0.12652636
60	0xbab3ca50	-0.001371691
61	0xbceaf2a9	-0.028680163
62	0xbe3deaf9	-0.18546666
63	0xbf1e6fef	-0.6188955

model.11.running_var f4 [64]
0	0x3e9627e4	0.2932731
1	0x3ea65c1d	0.32492152
2	0x3ed13870	0.4086337
3	0x3ed0d6c9	0.40788868
4	0x3f16d49f	0.58918184
5	0x3fa86bdd	1.3157917
6	0x3eb40f15	0.35167757
7	0x3e9ef4ce	0.31046146
8	0x3ebf448f	0.37356994
9	0x3eda28f4	0.4260937
10	0x3f10b210	0.565217
11	0x3eb7f54a	0.35929328
12	0x3ec80202	0.39064032
13	0x3ec5eefc	0.38658893
14	0x3eb4fabc	0.35347545
15	0x3e93b93a	0.28852254
16	0x3f46a82d	0.77600366
17	0x3e92f930	0.2870574
18	0x3f06e6e3	0.52696055
19	0x3e8c96d5	0.27458826
20	0x3ef7e643	0.48417863
21	0x3e9936e3	0.29924688
22	0x3edc91b8	0.43079925
23	0x3f065d68	0.52486277
24	0x3edc5498	0.4303329
25	0x3ee1bd64	0.44089806
26	0x3e958174	0.29200327
27	0x3f1875d5	0.595548
28	0x3eaa4cf3	0.33261833
29	0x3ea666ac	0.32500207
30	0x3e9703b6	0.2949502
31	0x3e8c9713	0.2745901
32	0x3eaaecd8	0.33383822
33	0x3f0dcfaf	0.55395025
34	0x3f1793bd	0.59209806
35	0x3ece73b7	0.40322658
36	0x3e9d267d	0.30693427
37	0x3e89d309	0.2691882
38	0x3eedfbd0	0.4648118
39	0x3eb9e066	0.36304015
40	0x3ee83e29	0.45359924
41	0x3eaaa550	0.33329248
42	0x3e9905fb	0.29887375
43	0x3f0baa72	0.54556954
44	0x3ecab134	0.3958832
45	0x3ea760e5	0.32691112
46	0x3eef0dee	0.46690315
47	0x3e940bdd	0.289153
48	0x3e8bcbf1	0.27304032
49	0x3e783880	0.24240303
50	0x3e86ec94	0.2635237
51	0x3ec119e0	0.37715054
52	0x3edc6ff8	0.43054175
53	0x3ec11b34	0.37716067
54	0x3ebf39f0	0.3734889
55	0x3ec8483c	0.3911761
56	0x3e8d5c6f	0.27609584
57	0x3ef2f28b	0.4745067
58	0x3e9fadcc	0.31187284
59	0x3eb1e5bb	0.34745583
60	0x3e9a11d0	0.30091715
61	0x3e835381	0.25649646
62	0x3ea9d98d	0.3317379
63	0x3f090962	0.5352994
