imitation_learning/models/h3-lr0.01-agent.pt (torch, 966128 bytes, 34 tensors)

model.0.weight f4 [16, 3, 7, 7]
0	0xbe9b88b7	-0.30377743
1	0xbea3b6b7	-0.31975338
2	0xbe520729	-0.20510544
3	0x3deb34d7	0.11484688
4	0x3da02089	0.078187056
5	0x3cd2865f	0.025698839
6	0xbd42a8e5	-0.04752435
7	0xbe7f0c38	-0.24907005
8	0xbec00973	-0.3750721
9	0xbed06bae	-0.40707153
10	0xbb1d986c	-0.002404715
11	0xbd77d532	-0.060506053
12	0x3dc723ac	0.09723601
13	0x3b38f49a	0.0028221966
14	0xbe89460f	-0.26811263
15	0xbecce574	-0.4001881
16	0xbeeb98d5	-0.4601504
17	0xbda051c1	-0.07828093
18	0xbdd31de7	-0.10308438
19	0x3cbf7013	0.02336887
20	0xbe186c94	-0.1488517
21	0xbe2bfc3b	-0.16795437
22	0xbe88179c	-0.26580513
23	0xbe9fcdd4	-0.31211722
24	0xbe088b00	-0.13334274
25	0xbdf4fa27	-0.11961775
26	0xbd964431	-0.07337225
27	0xbdf7b32a	-0.1209472
28	0xbe64f62c	-0.22359532
29	0xbe32c0b5	-0.17456324
30	0xbe90f031	-0.28308252
31	0xbe045ac0	-0.12925243
32	0xbdbfe66c	-0.09370121
33	0xbddd11a2	-0.10794379
34	0xbd5d8365	-0.054080386
35	0xbe4cf879	-0.2001666
36	0xbe749faf	-0.2388904
37	0xbe6d0755	-0.23147328
38	0xbe0d6888	-0.13809407
39	0x3d9aac51	0.07552398
40	0xbc85abd2	-0.016317282
41	0x3c8b6a2b	0.017018398
42	0xbe57b9be	-0.21066949
43	0xbe6396d2	-0.22225502
44	0xbe92fcc4	-0.2870847
45	0xbdf162e3	-0.11786439
46	0x3dd86dd1	0.10567821
47	0xbcbe3385	-0.023217926
48	0x3cde7896	0.02715711
49	0xbdc2e8a5	-0.0951703
50	0xbcdffd72	-0.027342532
51	0x3cc7c3e4	0.0243854
52	0xbd309d5d	-0.043118823
53	0xbd33a550	-0.043858826
54	0x3d66d3ae	0.056354217
55	0x3d8c4c87	0.06850534
56	0xbc667866	-0.014066791
57	0xbd2c14f6	-0.042012177
58	0x3db94c37	0.0904774
59	0x3e144476	0.14479241
60	0x3e00c4a9	0.1257502
61	0x3bca3217	0.006170522
62	0x3de461e3	0.11151483
63	0xbe000a78	-0.12503994
64	0xbd439adb	-0.047755104
65	0x3c84952a	0.016184408
66	0x3e29d4f7	0.16585146
67	0x3e642bf9	0.22282399
68	0x3e3f6bca	0.18693462
69	0x3dccca24	0.09999493
70	0xbdc96083	-0.09832861
71	0xbdcd364a	-0.100201204
72	0x3d9d83b0	0.07691133
73	0x3d9c71d4	0.076388985
74	0x3e05eee9	0.13079418
75	0x3e11b552	0.14229324
76	0xbd5e910d	-0.05433755
77	0xbd828e27	-0.0637477
78	0xbd0b5a1f	-0.034021493
79	0x3dc304df	0.095224135
80	0x3e357b0b	0.17722718
81	0x3e2518eb	0.16122787
82	0x3d2481fb	0.04016302
83	0xbd90aaaf	-0.07063805
84	0x3d50b0fd	0.05095004
85	0x3c744b7c	0.014910575
86	0x3dc9532c	0.09830317
87	0x3e4e246e	0.20131084
88	0x3e806ef4	0.2508465
89	0x3e2bcd21	0.16777469
90	0xbdd4a0f7	-0.10382264
91	0x3d68d2de	0.056841724
92	0x3a4338f6	0.00074471475
93	0xbda2f724	-0.079572946
94	0x3ce7650d	0.028246427
95	0x3e04856e	0.12941524
96	0x3dbbfb21	0.091787584
97	0xbdf4b8b7	-0.11949294
98	0x3e883e54	0.26610053
99	0x3eb25181	0.34827808
100	0x3ed39bc2	0.4132977
101	0x3e8fdea0	0.28099537
102	0x3c78a6c1	0.015176476
103	0x3c0bf97a	0.008543367
104	0xbcb18ab0	-0.021672577
105	0x3e9675e3	0.29386815
106	0x3ed708ff	0.4199905
107	0x3ecea018	0.40356517
108	0x3e8d41b2	0.27589184
109	0x3c987ade	0.018613275
110	0x3d3d78e2	0.04625786
111	0x3cef0748	0.029178277
112	0x3e7a19ed	0.24423952
113	0x3ee25276	0.44203538
114	0x3f17b1f4	0.5925591
115	0x3ec0ce90	0.37657595
116	0x3e21ac66	0.15788421
117	0x3e2af9f8	0.16696918
118	0x3c820aa9	0.015874224
119	0x3e5ad834	0.21371537
120	0x3f098b96	0.53728616
121	0x3f31b6ba	0.69419444
122	0x3ecddc7c	0.4020728
123	0x3e86967c	0.26286685
124	0x3df9d3c0	0.12198591
125	0x3c6dc1e1	0.014511556
126	0x3e3b6ea6	0.18303928
127	0x3ee94297	0.45558617
128	0x3f24ca11	0.6437083
129	0x3ed3369c	0.412526
130	0x3e46e7f3	0.19424419
131	0x3e3de9fa	0.18546286
132	0x3c9dcb3c	0.019261949
133	0x3e1761d4	0.14783412
134	0x3e8e1b13	0.2775503
135	0x3f08eb21	0.5348378
136	0x3eb6bf68	0.35692906
137	0x3e85ad88	0.26108956
138	0x3c5182fd	0.012787578
139	0xbd245140	-0.04011655
140	0x3dbc767b	0.09202286
141	0x3e6cd36e	0.23127529
142	0x3e581d9d	0.21105047
143	0x3e96db54	0.2946421
144	0x3e6f6d63	0.23381571
145	0xbd1dc08a	-0.038513698
146	0xbd6dc037	-0.05804464
147	0xbe19c837	-0.15017782
148	0x3dbedd96	0.09319608
149	0x3cfd9c1b	0.030958226
150	0xbde468b5	-0.11152784
151	0xbeb3a60b	-0.35087618
152	0xbe45e957	-0.19327293
153	0xbe08a77b	-0.13345139
154	0xbd266844	-0.04062678
155	0x3ca81adb	0.020520618
156	0x3e489002	0.19586185
157	0xbe476198	-0.19470823
158	0xbe9b97d7	-0.30389282
159	0xbd9b1176	-0.0757169
160	0xbba8b080	-0.0051479936
161	0xbd173f6c	-0.03692572
162	0x3d67efe2	0.056625254
163	0x3e31a6d1	0.17348792
164	0xbe1beee2	-0.15227845
165	0xbe3bb983	-0.18332486
166	0xbdfbd0ae	-0.12295662
167	0x3cb4b1f2	0.022057507
168	0x3c9f0d81	0.019415619
169	0x3e27598c	0.16342753
170	0x3e4c8818	0.1997379
171	0xbe093b42	-0.13401511
172	0xbe64597a	-0.22299758
173	0xbd907a1c	-0.070545405
174	0xbd853f47	-0.0650621
175	0xbcd31efc	-0.02577161
176	0x3e0643ca	0.13111797
177	0x3e6959b5	0.22788127
178	0xbd9dd11e	-0.077059016
179	0xbd130f01	-0.03590298
180	0x3d8b3109	0.06796462
181	0x3cd224d3	0.025652325
182	0x3aaa23c9	0.0012980636
183	0x3d8b5bf7	0.0680465
184	0x3ea9d0ef	0.33167216
185	0xbc752ac5	-0.01496381
186	0xbb15526d	-0.0022784725
187	0xbd25df51	-0.040496174
188	0xbd768773	-0.06018777
189	0xbd76ce7e	-0.06025552
190	0x3e37c846	0.17947492
191	0x3e4ffd6b	0.20311515
192	0xbde28385	-0.110602416
193	0xbd556678	-0.052099675
194	0x3da5d86f	0.08097922
195	0x3d2e2ba7	0.0425221
196	0xbdbc50f5	-0.09195129
197	0xbd11c0db	-0.035584312
198	0x3d880af1	0.06642712
199	0xbe48de06	-0.19615945
200	0xbe47748f	-0.19478057
201	0xbe16376e	-0.14669582
202	0xbc413ef1	-0.011794792
203	0xbd2c941b	-0.042133432
204	0x3d4781ff	0.04870796
205	0x3e189cff	0.1490364
206	0xbe784788	-0.24246037
207	0xbe68d06c	-0.22735757
208	0xbd871845	-0.06596426
209	0xbe1ad530	-0.15120387
210	0x3d649810	0.05580908
211	0x3e17c90a	0.14822784
212	0x3dd2a30c	0.10285005
213	0xbe2e4819	-0.1701969
214	0xbe56f9f9	-0.20993795
215	0xbe2d0d23	-0.16899543
216	0x3a194dae	0.0005848062
217	0xbb519a20	-0.0031982735
218	0x3e698c54	0.22807437
219	0x3e861b15	0.26192537
220	0xbe2aee3c	-0.16692442
221	0xbe92a316	-0.2864005
222	0xbe26f892	-0.1630576
223	0xbdba0c96	-0.09084432
224	0x3e0371a0	0.12836313
225	0x3e879849	0.26483372
226	0x3e32a369	0.17445149
227	0x3d1ba278	0.03799674
228	0xbdc61228	-0.09671432
229	0xbe037724	-0.12838417
230	0x3c170ef1	0.009219871
231	0x3d878005	0.06616215
232	0x3e7777c4	0.2416678
233	0x3e8ea694	0.27861464
234	0x3d549930	0.051903903
235	0xbe0b4bec	-0.1360318
236	0xbd121888	-0.035667926
237	0xbd9df4e4	-0.07712725
238	0x3cc88504	0.02447749
239	0x3e69f78a	0.22848335
240	0x3e60d80b	0.21957414
241	0xbe0a28db	-0.13492148
242	0xbd941e84	-0.07232383
243	0xbd403235	-0.04692288
244	0x3c82b0ce	0.015953448
245	0x3dab4751	0.08363212
246	0x3cc5d75c	0.024150543
247	0x3db4c7e2	0.08827187
248	0x3d12800e	0.035766654
249	0xbd34e005	-0.044158954
250	0x3ce1a241	0.027543189
251	0xbd8b23cb	-0.06793936
252	0x3de48fd8	0.111602485
253	0x3e068bbe	0.13139245
254	0x3da29c61	0.07939983
255	0xbd651ef9	-0.05593774

model.0.bias f4 [16]
0	0x3c3fd652	0.011708813
1	0x3d6231e5	0.055223364
2	0xbcf60918	-0.030033633
3	0xbcba19ef	-0.022717444
4	0xbc89ae45	-0.016806731
5	0xbd194868	-0.037422568
6	0x3d1fc3dc	0.039005145
7	0x3d6350ad	0.05549686
8	0xbd821eb1	-0.0635351
9	0xbdb89d5e	-0.090143904
10	0xbd2837ba	-0.04106877
11	0x3cbd11c8	0.023079768
12	0x3d2f62e2	0.04281891
13	0x39fa0e28	0.00047694263
14	0xbda9dda2	-0.08294226
15	0x3d9d6c3c	0.0768666

model.1.weight f4 [16]
0	0x3fa3c885	1.2795569
1	0x3f6b526a	0.9192263
2	0x3f8ad0e7	1.0845002
3	0x3f666b26	0.90007246
4	0x3f6bfd50	0.921834
5	0x3f744262	0.9541379
6	0x3f88a25b	1.0674547
7	0x3f4fd0a4	0.81177735
8	0x3f8279fc	1.0193477
9	0x3f99e417	1.2022732
10	0x3f646516	0.89216745
11	0x3f8c64d9	1.0968276
12	0x3f91d6f2	1.1393721
13	0x3f6f1035	0.93384105
14	0x3f7b93a8	0.9827218
15	0x3f64d8e7	0.89393467

model.1.bias f4 [16]
0	0xbe11eb7a	-0.14249983
1	0xbed67098	-0.41882777
2	0xbdc0f6a2	-0.094220415
3	0xbdd630d9	-0.10458536
4	0xbd66f990	-0.056390345
5	0xbdfbb240	-0.12289858
6	0xbda48d44	-0.08034757
7	0xbe3f3392	-0.18672016
8	0x3ad2ab7c	0.0016072835
9	0xbe4e7dcd	-0.20165177
10	0xbdc48f5d	-0.09597657
11	0x3d2a2f91	0.04154927
12	0xbde6c9d6	-0.11268966
13	0xbd18d4db	-0.03731237
14	0xbe7e9745	-0.24862392
15	0xbd50182b	-0.0508043

model.1.running_mean f4 [16]
0	0x44736e09	973.7193
1	0xc348d497	-200.83043
2	0x43aa03d2	340.02985
3	0xc428c48d	-675.0711
4	0xc43414bb	-720.3239
5	0xc4136ade	-589.6698
6	0xc384863d	-265.04874
7	0xc415a7de	-598.6229
8	0xc447b12b	-798.76825
9	0x448425f0	1057.1855
10	0xc48cb73e	-1125.7263
11	0x43757c56	245.48569
12	0x44909d55	1156.9166
13	0xc49fe0b6	-1279.0222
14	0x442bd568	687.3345
15	0xc454b572	-850.8351

model.1.running_var f4 [16]
0	0x4810553e	147796.97
1	0x46ab5a50	21933.156
2	0x47be77dc	97519.72
3	0x4782288e	66641.11
4	0x48103c9a	147698.4
5	0x47373f59	46911.348
6	0x468f6de2	18358.941
7	0x47422c1f	49708.12
8	0x47e7d30e	118694.11
9	0x48244011	168192.27
10	0x4823d025	167744.58
11	0x4727c56b	42949.418
12	0x484d9959	210533.39
13	0x4875e992	251814.28
14	0x47c2ee50	99804.625
15	0x48011e05	132216.08

model.4.weight f4 [32, 16, 3, 3]
0	0xbd567fd7	-0.05236801
1	0xbe0451d4	-0.1292184
2	0xbd9e1083	-0.07717993
3	0xbe604a34	-0.21903306
4	0xbe95ec2d	-0.2928175
5	0xbe1475e4	-0.14498097
6	0xbe9ab6f8	-0.3021772
7	0xbec56684	-0.38554776
8	0xbe2f64cb	-0.17128293
9	0x3d82fabe	0.063954815
10	0xbdb64a62	-0.08900906
11	0xbd225106	-0.03962805
12	0x3e0f7cde	0.14012477
13	0xbdef5bc3	-0.11687424
14	0x3d899d3d	0.06719444
15	0x3cd5eec8	0.026114836
16	0xbdc4d9d3	-0.09611859
17	0x3e202faf	0.1564319
18	0xbde2527e	-0.110508904
19	0x3bb045fe	0.0053794375
20	0x3da26414	0.07929245
21	0xbe42b279	-0.19013394
22	0xbcdc0803	-0.026859289
23	0x3e3842e0	0.17994261
24	0xbd0297dd	-0.03188311
25	0x3d11b9bc	0.03557752
26	0x3e1a4ada	0.15067616
27	0x3d692036	0.056915484
28	0x3dae353f	0.0850625
29	0xbdcf7e5c	-0.10131523
30	0xbdb97d37	-0.09057086
31	0xbd85fbde	-0.065421805
32	0xbda0ddef	-0.078548305
33	0xbd820b3d	-0.063498
34	0xbbe85306	-0.0070899753
35	0xbd9d4225	-0.07678632
36	0x3daa5319	0.08316631
37	0x3c862e1b	0.016379407
38	0xbe1d453e	-0.15358445
39	0xbe03e900	-0.12881851
40	0xbd2e53fe	-0.04256057
41	0xbcfd65ef	-0.030932395
42	0xbd6a4b6a	-0.057200827
43	0xbdc415a6	-0.095744416
44	0xbdc89799	-0.0979454
45	0xbd25870a	-0.040411986
46	0xbd6b35e1	-0.05742443
47	0x3d12f10e	0.03587442
48	0xbd89720a	-0.06711204
49	0xbdeaf5bf	-0.114726536
50	0xbdb8dedf	-0.09026884
51	0xbcf845ed	-0.03030678
52	0xbd9c080a	-0.07618721
53	0xbdca88a5	-0.09889344
54	0xbda419be	-0.080127224
55	0x3e5abb73	0.21360569
56	0x3e39e62d	0.18154211
57	0xbe1d9211	-0.15387751
58	0x3dadcaf7	0.08485978
59	0x3de65061	0.112458
60	0xbe09e813	-0.13467436
61	0x3cc7fbfa	0.024412144
62	0x3d7f11cf	0.062272843
63	0xbd95ccc8	-0.073144495
64	0xbd829c3e	-0.06377457
65	0xbd33de1c	-0.043912992
66	0x3caec86e	0.021335807
67	0xbe209050	-0.15680051
68	0xbdca1f5d	-0.09869263
69	0xbcf0e5c6	-0.02940644
70	0xbda3f22f	-0.08005177
71	0xbd86404a	-0.06555231
72	0xbcb541e0	-0.022126138
73	0xbd006339	-0.031344626
74	0xbc9c9b48	-0.019117013
75	0xbd328918	-0.043587774
76	0xbdb7ede3	-0.0898092
77	0xbda625b5	-0.08112661
78	0xbe256a35	-0.16153796
79	0xbe27a17e	-0.16370198
80	0xbd82e962	-0.063921705
81	0xbbbfb8e8	-0.0058509
82	0xbd233fd3	-0.03985579
83	0xbd970c64	-0.0737541
84	0xbc2c93fc	-0.010533329
85	0xbe3c3bbe	-0.18382165
86	0xbdf89e2a	-0.121395424
87	0x3da0471c	0.07826063
88	0xbd30613e	-0.043061487
89	0xbe11d8ad	-0.14242812
90	0xbdfc1016	-0.12307756
91	0xbca0008b	-0.019531509
92	0x3a25de66	0.00063273904
93	0xbcd247a2	-0.025668923
94	0xbdef9672	-0.11698617
95	0xbdcc6365	-0.099798955
96	0xbb8eb82a	-0.00435545
97	0xbd32016c	-0.043458387
98	0xbdd62787	-0.10456758
99	0x39c7cca3	0.00038108704
100	0x3d05ff85	0.032714386
101	0x3e1cd552	0.1531575
102	0x3cfb1203	0.030648237
103	0x3e3d5976	0.18491158
104	0x3d877e7c	0.06615922
105	0x3d7eed13	0.06223781
106	0x3dc6d6e5	0.09708957
107	0x3e26451f	0.16237305
108	0xbd35f1ee	-0.044420175
109	0xbe161413	-0.14656095
110	0xbd091b88	-0.03347352
111	0xbde78bca	-0.113059595
112	0xbdbcc42a	-0.09217103
113	0xbdec3c96	-0.11534993
114	0xbc808b06	-0.015691292
115	0xbdf250f8	-0.1183185
116	0xbd24aeec	-0.04020588
117	0xbdb969df	-0.090533964
118	0xbdcef7d2	-0.10105862
119	0xbd37f149	-0.04490784
120	0xbc3bf058	-0.011470877
121	0xbe0ddc8d	-0.13853665
122	0x3b634aca	0.003468203
123	0xbe28245a	-0.16420117
124	0xbd29201a	-0.04129038
125	0xbdc16926	-0.094438836
126	0x3cc8008a	0.02441432
127	0xbdb0d732	-0.08634795
128	0xbc3950a4	-0.01131073
129	0xbcd4b332	-0.025964353
130	0xbc2f84dd	-0.010712829
131	0xbca11b19	-0.019666241
132	0x3bf5cc1c	0.0075011384
133	0xbda9bfc5	-0.0828853
134	0x3e7adae2	0.2449756
135	0x3d95b45b	0.07309791
136	0xbaebcdc8	-0.0017990405
137	0xbd8c3486	-0.068459556
138	0xbc00a585	-0.007851963
139	0xbd7fc81f	-0.06244671
140	0xbdf68a89	-0.12038142
141	0xbd157bee	-0.03649514
142	0xbdeda2c0	-0.11603308
143	0xbe01f468	-0.1269089
144	0x3d2a9920	0.041649938
145	0x3dce1cdf	0.100641005
146	0xbd04a04b	-0.03237943
147	0xbcf15a3e	-0.029461976
148	0x3e06f38f	0.13178848
149	0xbc91a87a	-0.017780531
150	0x3dd9d85f	0.10636973
151	0x3da0044f	0.07813322
152	0x3d4859a0	0.048913598
153	0x3ca725da	0.020403791
154	0x3dbeb8a1	0.09312559
155	0x3dce89d6	0.10084884
156	0xbaf907de	-0.0018999537
157	0xbd122c15	-0.03568657
158	0x3d06e9ab	0.032937687
159	0x3d661a6e	0.05617755
160	0x3d83a8ab	0.06428655
161	0x3d9eeed4	0.077603966
162	0xbcc8d5c6	-0.024515998
163	0x3dd4f5d3	0.1039845
164	0x3cfad49e	0.030618962
165	0xbba6b6c6	-0.0050877063
166	0x3e1be2c2	0.1522322
167	0x3dfd78d6	0.12376563
168	0x3d01c537	0.03168222
169	0x3d9f8ed1	0.07790912
170	0x3e0b1d9c	0.13585514
171	0x3da588e8	0.080827534
172	0xbd29ed49	-0.04148606
173	0xbdfe8dfb	-0.124294244
174	0x3e2ccfb8	0.16876113
175	0x3d72ce86	0.059278987
176	0xbe08494e	-0.13309214
177	0x3d13306f	0.03593486
178	0xbdd404bd	-0.10352466
179	0xbdc140a3	-0.094361566
180	0xbc430390	-0.011902705
181	0xbd5ee519	-0.054417703
182	0xbe1fb022	-0.15594533
183	0xbda1fda4	-0.07909706
184	0xbd1e7ab7	-0.03869125
185	0xbdb9eab8	-0.09077972
186	0xbe097139	-0.13422097
187	0xbdf08946	-0.11744933
188	0xbd1f3371	-0.038867418
189	0x3cda1455	0.026621023
190	0xbca924d3	-0.020647442
191	0x3d942c45	0.07235006
192	0x3cbcbd5a	0.023039509
193	0x3d1836dc	0.037161693
194	0x3df99a0a	0.12187584
195	0x3d619c6b	0.055080812
196	0x3d807b16	0.06273477
197	0x3defd40a	0.11710365
198	0x3d06cf64	0.032912627
199	0x3d537c4b	0.051632207
200	0x3d8c6abe	0.06856297
201	0x3d44053a	0.047856547
202	0x3da25c8d	0.07927809
203	0x3cd8778e	0.026424196
204	0x3de1efb0	0.11032045
205	0x3da70fd3	0.08157315
206	0x3ddfe9b9	0.10933251
207	0x3caec44d	0.021333838
208	0xbcc1cac2	-0.023656253
209	0xbca62a13	-0.020283734
210	0x3d386a3f	0.0450232
211	0xbcbbf821	-0.022945466
212	0x3df3563b	0.118816815
213	0x3c5febee	0.01366709
214	0x3c285910	0.01027514
215	0x3cdbe75e	0.026843723
216	0x3ca8cc93	0.020605361
217	0xbdc8d5bc	-0.098063916
218	0xbd89a707	-0.06721311
219	0xbe0b5db6	-0.13609967
220	0xbde05f06	-0.10955624
221	0xbd5f3544	-0.054494157
222	0xbe0a051c	-0.13478512
223	0xbd55e1a4	-0.05221714
224	0xbde95a50	-0.11394179
225	0xbbaee5ab	-0.005337437
226	0x3d4f8981	0.050668243
227	0x3d97c6bb	0.07410952
228	0x3d97f98f	0.074206464
229	0x3db73cf6	0.08947174
230	0x3deeabb4	0.116538435
231	0xbc2a6874	-0.01040088
232	0x3d0496d9	0.032370422
233	0xbc5dca60	-0.0135370195
234	0xbd30e47a	-0.043186642
235	0xbd4ccbf8	-0.049999207
236	0xbda26f10	-0.0793134
237	0xbd187e15	-0.037229616
238	0xbcc6b483	-0.024255997
239	0xbd366209	-0.044527087
240	0xbc8dcc20	-0.017309248
241	0xbdec7113	-0.11545005
242	0xbdd440fb	-0.103639565
243	0xbd304caa	-0.043041863
244	0x3db2b6a9	0.08726246
245	0x3d7e5422	0.062091954
246	0x3d02ce7b	0.031935196
247	0x3d837d9a	0.06420441
248	0x3dbcc46f	0.09217154
249	0x3d240c8b	0.040051024
250	0x3e1cd3fb	0.15315239
251	0x3df3a203	0.11896136
252	0x3da0ede3	0.07857873
253	0x3ca7fd30	0.020506471
254	0x3d7f757f	0.062367912
255	0x3d989468	0.07450181

model.4.bias f4 [32]
0	0xbdd3efe8	-0.10348493
1	0xbc903e53	-0.017607844
2	0xbd0217e8	-0.03176108
3	0xbceecae8	-0.029149488
4	0xbdec8311	-0.115484364
5	0x3d55b394	0.052173212
6	0x3d603a02	0.05474282
7	0xbd3381d9	-0.043825004
8	0x3df44c09	0.11928565
9	0x3d0e52a1	0.03474677
10	0xbbfe5dbe	-0.00776264
11	0xbcf4361d	-0.02981096
12	0xbcdd6173	-0.027024006
13	0xbdc1594e	-0.09440862
14	0x3d943ecd	0.07238541
15	0x3b851fb9	0.0040626195
16	0x3c4c5fc2	0.012474002
17	0x3e2bc8d1	0.16775824
18	0x3dbb47d7	0.09144562
19	0xbdb01379	-0.08597464
20	0xbc51dd79	-0.012809151
21	0xbcfef668	-0.031123355
22	0x3cb7f837	0.022457225
23	0xbd4656dd	-0.048422683
24	0x3db04e66	0.08608703
25	0xbde9367f	-0.113873474
26	0x3de52a86	0.11189751
27	0x3deb603d	0.11492965
28	0xbe04d82e	-0.12973091
29	0x3e1ef809	0.15524305
30	0xbd979f31	-0.0740341
31	0xbe08c564	-0.13356549

model.5.weight f4 [32]
0	0x3f8f8fb0	1.1215725
1	0x3f579a13	0.84219474
2	0x3f03adee	0.5143727
3	0x3f750cf3	0.95722884
4	0x3f9d5cf4	1.2293992
5	0x3fab4e58	1.3383284
6	0x3f7d08ac	0.9884136
7	0x3f8f0e46	1.1176231
8	0x3f7fc761	0.99913603
9	0x3f883f26	1.0644271
10	0x3f716872	0.94299996
11	0x3f6d5cb4	0.9271958
12	0x3f6ea2ee	0.9321736
13	0x3f783e08	0.9696965
14	0x3f82b5cb	1.0211729
15	0x3f7678b0	0.96277905
16	0x3f8558d6	1.0417736
17	0x3f6fc1bf	0.9365501
18	0x3f61baf3	0.88175887
19	0x3f823466	1.0172241
20	0x3f8c99c1	1.0984422
21	0x3f827ed1	1.0194951
22	0x3f810c54	1.0081887
23	0x3f858dfe	1.0433958
24	0x3f808154	1.0039468
25	0x3f944465	1.1583372
26	0x3f785150	0.96999073
27	0x3f5c0e6c	0.85959506
28	0x3f72136f	0.94560903
29	0x3f77dab7	0.9681811
30	0x3f8e7cfb	1.1131891
31	0x3f75da54	0.9603627

model.5.bias f4 [32]
0	0x3e2cc79e	0.16873023
1	0xbe379191	-0.17926623
2	0xbedb3425	-0.4281322
3	0xbd1c8620	-0.03821385
4	0x3e0d785e	0.13815448
5	0xbe2dfdee	-0.16991398
6	0xba5fdddf	-0.0008539836
7	0xbe4b54cf	-0.1985657
8	0xbd06ca1a	-0.032907583
9	0xbd5388ae	-0.05164402
10	0xbdaf0ab2	-0.08546962
11	0xbd8a358f	-0.06748497
12	0xbcfc938e	-0.030832078
13	0xbce4aa06	-0.027913105
14	0xbcf7f752	-0.030269299
15	0xbde757ae	-0.112960204
16	0x3cdee940	0.027210832
17	0xbd8abd62	-0.06774403
18	0xbd27fca4	-0.04101242
19	0xbe9b83d7	-0.30374023
20	0x3cf18268	0.029481128
21	0x3c7823d8	0.015145265
22	0x3d800279	0.062504716
23	0xbd260cad	-0.040539432
24	0xbe0a24c4	-0.13490587
25	0xbc6a3491	-0.014294759
26	0xbc700184	-0.014648799
27	0xbea70326	-0.3261959
28	0x3bf01d8d	0.0073277415
29	0x3cd9b3dd	0.026575023
30	0xbdc6642b	-0.09687074
31	0xbde8be88	-0.11364466

model.5.running_mean f4 [32]
0	0xc014702d	-2.3193467
1	0x3ebfa420	0.37429905
2	0x4025a175	2.5879796
3	0x3ec6aaab	0.38802084
4	0xbfbff4f2	-1.4996626
5	0x407c2ec5	3.9403546
6	0xbdf2a676	-0.11848156
7	0xc00cd0fd	-2.2002556
8	0x3f08b6db	0.53404015
9	0xc03b91ba	-2.9307694
10	0xbebbb6cf	-0.3666291
11	0xc033236c	-2.799037
12	0xbf7a79b4	-0.97841954
13	0xc03ebea4	-2.9803858
14	0xbfaafb82	-1.3358004
15	0xbd85c7e2	-0.06532265
16	0xbf2b4329	-0.66899353
17	0xbef19b03	-0.47188577
18	0xbf4d998b	-0.8031241
19	0x40b569c3	5.6691604
20	0xbec2279f	-0.37920853
21	0xbf214e0e	-0.63009727
22	0xbf4a755d	-0.7908533
23	0xc084f5f2	-4.1550226
24	0x3f90c984	1.1311498
25	0xc016ea77	-2.3580606
26	0xbf0ce5c4	-0.55038095
27	0x3f9a7dcb	1.2069639
28	0xbf81532d	-1.0103508
29	0x40218263	2.5235832
30	0xbf5a276b	-0.852164
31	0x3e4ecc78	0.20195186

model.5.running_var f4 [32]
0	0x40970116	4.7188826
1	0x4084dc1a	4.151868
2	0x3fe11c78	1.7586813
3	0x4015f339	2.3429701
4	0x410022f0	8.00853
5	0x40e205ff	7.063232
6	0x3fc4a4c4	1.5362782
7	0x4119fc53	9.624103
8	0x412fe1c0	10.992615
9	0x40e8c9ed	7.274649
10	0x40572f02	3.3622441
11	0x4108ad9d	8.542386
12	0x4145c548	12.360664
13	0x41183e9e	9.515287
14	0x40f6e318	7.7152214
15	0x4017f806	2.3745131
16	0x3ff56dd0	1.9174137
17	0x40db2ac2	6.8489695
18	0x40240948	2.5630665
19	0x40b2c3a3	5.5863814
20	0x4015036d	2.328334
21	0x40c50179	6.15643
22	0x40a51534	5.1588383
23	0x41997442	19.181767
24	0x3fca6cab	1.5814413
25	0x41212c27	10.073279
26	0x412f4e57	10.956626
27	0x41250202	10.31299
28	0x402b8ca4	2.680459
29	0x40c980bd	6.296965
30	0x403e93e9	2.9777777
31	0x411f2d55	9.948567

model.7.weight f4 [32, 32, 3, 3]
0	0x3ea3c9a2	0.3198977
1	0x3dbbd9d8	0.0917241
2	0xbc324c66	-0.010882473
3	0x3ded2516	0.11579339
4	0x3cbb6f85	0.022880325
5	0xbd90e0ec	-0.070741504
6	0x3d062a15	0.032754976
7	0xbdbc3f65	-0.09191779
8	0xbdc0cc8a	-0.09414013
9	0x3d2eadb0	0.04264611
10	0x3cff2056	0.031143349
11	0xbdc48659	-0.09595937
12	0x3c1c797c	0.0095504485
13	0xbdfd7db4	-0.123774916
14	0xbe05267c	-0.13002962
15	0x3c69fbc3	0.014281216
16	0x3d582533	0.05276985
17	0xbdf60578	-0.12012762
18	0xbc1842ee	-0.009293301
19	0x3d1b5f7b	0.037932854
20	0x3d5d7a81	0.054071907
21	0x3c94d489	0.01816775
22	0xbcdf6e09	-0.027274149
23	0xbcf79372	-0.030221675
24	0x3d5e7812	0.054313727
25	0xbd97ba02	-0.07408525
26	0xbd8078c8	-0.06273037
27	0x3df11b40	0.11772776
28	0x3e41ec41	0.1893778
29	0x3deb5f65	0.114928044
30	0x3d62099e	0.055184953
31	0x3c3b9224	0.011448417
32	0xbd0debb9	-0.03464863
33	0x3b4908ff	0.0030675528
34	0xbb31dbb5	-0.0027139012
35	0xbd8d4000	-0.06896973
36	0xbe5a7111	-0.21332194
37	0xbdf2f99b	-0.11864015
38	0xbdb75d48	-0.08953339
39	0xbdd402c4	-0.1035209
40	0x3d6ae9be	0.05735182
41	0x3d8d6e86	0.06905846
42	0xbcd9a72b	-0.02656897
43	0x3e3511aa	0.1768252
44	0xbb3ca5c8	-0.0028785337
45	0xbc8c5453	-0.017130053
46	0xbe5f9de5	-0.21837576
47	0x3c0c5841	0.008565963
48	0xbd206b65	-0.03916492
49	0xbe8257f5	-0.2545773
50	0x3c6488f7	0.013948671
51	0xbd6ee14a	-0.05832032
52	0xbe287398	-0.16450346
53	0xbd901e9e	-0.0703709
54	0x3d0ee16b	0.034882944
55	0x3d32f7a4	0.0436932
56	0x3e6ae335	0.22938235
57	0x3ca12e63	0.01967544
58	0x3d34f222	0.04417623
59	0x3cc7f0db	0.024406841
60	0x3d82459a	0.06360932
61	0xbd0a2eff	-0.033736225
62	0xbd69b11d	-0.057053674
63	0x3d9506b0	0.07276666
64	0x3e024520	0.12721682
65	0x3d31aee2	0.043379672
66	0x3d598c13	0.0531121
67	0x3dce90d0	0.100862145
68	0x3cdc779a	0.0269125
69	0x3dd893e7	0.10575085
70	0x3de0903e	0.10965012
71	0x3cd36d7c	0.025809042
72	0xbe53e7c0	-0.20693874
73	0xbdc56839	-0.096390195
74	0x3d090c1d	0.033458818
75	0xbe1c8767	-0.15286027
76	0xbdacb594	-0.08433071
77	0xbbb1151f	-0.005404129
78	0xbdb7e42a	-0.08979066
79	0xbd259d06	-0.040432952
80	0xbdb80253	-0.08984818
81	0xbc6482d4	-0.0139472075
82	0x3bf3f5cd	0.007445073
83	0x3dcb664e	0.099316224
84	0x3d4d3f98	0.050109476
85	0x3dd10952	0.10206856
86	0x3d9d78ef	0.07689082
87	0x3e3e9bd8	0.18614137
88	0x3e1620a7	0.14660893
89	0x3e32be74	0.17455465
90	0xbc9cfa15	-0.019162217
91	0xbd28d95d	-0.04122292
92	0xbdb65a02	-0.089038864
93	0xbdedd76d	-0.11613355
94	0xbdf50f11	-0.11965764
95	0xbd1bc904	-0.0380335
96	0xbd9c5e4a	-0.07635172
97	0xbd50cb4b	-0.050975125
98	0xbd69f591	-0.057118956
99	0x3db8fe58	0.09032887
100	0x3e113162	0.14178994
101	0x3d64a553	0.055821728
102	0x3e411ad8	0.18857896
103	0x3e8e8a9b	0.27840123
104	0x3df56d53	0.119837426
105	0x3e0ecd29	0.1394545
106	0x3dfd911e	0.123811945
107	0x3d6daad7	0.058024254
108	0xbd852183	-0.065005325
109	0xbca1ac68	-0.01973553
110	0xbcbfddd6	-0.02342121
111	0xbd28dacd	-0.04122429
112	0xbd86b6ef	-0.065778606
113	0xbdf4b4ae	-0.119485244
114	0xbc85ee23	-0.016348904
115	0xbd1a2c2f	-0.037639793
116	0xbcc29446	-0.023752343
117	0xbdce721a	-0.10080357
118	0x3d3798c8	0.044823438
119	0x3d98d09e	0.074616656
120	0x3de65bf1	0.11248005
121	0x3d3ab040	0.04557824
122	0x3de88891	0.11354173
123	0x3d95392b	0.072862945
124	0x3db474dd	0.088113524
125	0x3df2c667	0.118542485
126	0xbc2968c6	-0.010339921
127	0xbe014016	-0.12622103
128	0xbde71e56	-0.11285083
129	0xbd512bdf	-0.05106723
130	0xbe0bb61e	-0.13643691
131	0xbe05a79c	-0.13052219
132	0xbdbf223e	-0.09332703
133	0xbd41fae6	-0.047358416
134	0xbe3c7728	-0.1840483
135	0xbd9b3563	-0.07578542
136	0xbd93c874	-0.07215968
137	0xbd4c6289	-0.049898658
138	0xbba28680	-0.0049598813
139	0xbd92faa1	-0.0717671
140	0xbdc8b1ff	-0.09799575
141	0xbd7e5745	-0.062094945
142	0xbde76818	-0.11299151
143	0xbda61ca1	-0.08110929
144	0x3db58bdc	0.08864567
145	0x3e873ed6	0.26415128
146	0x3d171fa7	0.03689542
147	0x3e09a01c	0.13439983
148	0x3dbe4d7d	0.092921235
149	0xbda9b8b6	-0.08287184
150	0x3cad4348	0.021150246
151	0x3d772c09	0.06034473
152	0xbd16b70a	-0.036795653
153	0xbd2af7c2	-0.041740187
154	0xbca13104	-0.019676693
155	0xbdb639e0	-0.088977575
156	0xbd9d92ac	-0.07693991
157	0xbb46dc59	-0.003034374
158	0xbdb34cf3	-0.08754911
159	0xbe016390	-0.12635636
160	0xbd2c7a17	-0.04210862
161	0xbd57a104	-0.05264379
162	0xbd65efb4	-0.0561368
163	0xbd7f2505	-0.062291164
164	0x3d77fcf8	0.060543984
165	0xbe08f36e	-0.13374111
166	0xbd9e03a7	-0.077155404
167	0xbd40198f	-0.046899375
168	0xbdee7956	-0.11644237
169	0xbdc23079	-0.09481902
170	0x3d648250	0.05578834
171	0xbd3e1aee	-0.0464124
172	0xbe188527	-0.14894544
173	0xbdce223a	-0.10065122
174	0xbdd487ba	-0.1037745
175	0xbd6f76c0	-0.05846286
176	0xbde25dc2	-0.11053039
177	0xbd28ad51	-0.041180912
178	0xbd066a13	-0.032816004
179	0xbe0945d0	-0.13405538
180	0x3d9b5d2c	0.075861305
181	0x3da37fd4	0.07983366
182	0x3dd4f879	0.10398955
183	0x3d33506a	0.04377786
184	0x3d808664	0.06275633
185	0xbdc78012	-0.09741224
186	0x3da586b9	0.08082337
187	0x3dec297f	0.11531352
188	0xbdc8cd8c	-0.0980483
189	0xbe461e1c	-0.19347423
190	0xbdf8cbc2	-0.12148239
191	0x3d93f106	0.07223706
192	0xbdb086c7	-0.08619457
193	0xbd88d07b	-0.066803895
194	0x3da7b3ec	0.08188614
195	0xbdacb00f	-0.08432018
196	0xbc831ef0	-0.016005963
197	0x3db59764	0.08866766
198	0x3d40fed5	0.047118027
199	0x3d8c3faf	0.06848084
200	0x3ce6d8d1	0.028179558
201	0x3cd715cf	0.026255516
202	0x3dde3558	0.10850018
203	0x3d37289c	0.044716462
204	0x3d34b15c	0.044114456
205	0x3db892be	0.09012364
206	0xbd84d1c7	-0.06485324
207	0x3d414f9c	0.047195062
208	0x3dd7a070	0.10528648
209	0x3c935432	0.017984483
210	0x3d9c113e	0.07620476
211	0x3e35767f	0.17720984
212	0x3d814c40	0.06313372
213	0x3d2228fe	0.039589874
214	0x3dfec68a	0.12440212
215	0x3e01cb59	0.12675227
216	0xbd62a42e	-0.055332355
217	0xbd511590	-0.051045954
218	0xbcce0831	-0.02515039
219	0xbd19caf8	-0.03754708
220	0xbdba456c	-0.090952724
221	0xbd618600	-0.055059433
222	0xbdc2a2db	-0.095037185
223	0xbe0f3765	-0.13985975
224	0xbd2ad7d9	-0.041709755
225	0x3d179e65	0.03701629
226	0x3d9aae91	0.07552827
227	0x3e266ff2	0.16253641
228	0x3d2c8480	0.04211855
229	0x3e126147	0.14294921
230	0x3d3f3442	0.046680696
231	0x3d4dbafa	0.050227143
232	0x3d2af7c4	0.041740194
233	0xbc908cba	-0.017645229
234	0xbc9b60c0	-0.018967032
235	0x3cd653ed	0.026163066
236	0xbd787258	-0.06065592
237	0xbdcab787	-0.09898286
238	0xbd4c63cd	-0.049899865
239	0xbe028c4f	-0.12748836
240	0xbd7d21d3	-0.061799835
241	0xbddf40d2	-0.10901035
242	0xbd7d713f	-0.061875578
243	0x3d8a3bad	0.067496635
244	0x3d6469cd	0.055764962
245	0x3de52d16	0.1119024
246	0x3d3849f1	0.04499239
247	0x3de5d475	0.112221636
248	0x3da586f1	0.08082379
249	0x3d5608fa	0.052254654
250	0x3cfcedc0	0.030875087
251	0x3da9f577	0.08298772
252	0xbb735d9d	-0.0037134655
253	0xbdf9549e	-0.121743426
254	0xbd7ca495	-0.061680395
255	0x3c50382e	0.012708707

model.7.bias f4 [32]
0	0xbda6db13	-0.08147254
1	0xbc716c1f	-0.014735251
2	0xbc039a51	-0.008032397
3	0xbcb2803e	-0.021789666
4	0xbd9b191d	-0.07573149
5	0x3ba2c809	0.0049676937
6	0x3d1293c4	0.03578545
7	0xba966b27	-0.0011476026
8	0xbc0225b8	-0.007943563
9	0x3d2f4497	0.04279002
10	0x3c871ad2	0.016492281
11	0xbc23d52e	-0.0099995565
12	0x3d62fdad	0.055417705
13	0x3cf01fde	0.02931207
14	0x3cbade56	0.022811096
15	0x3d3963af	0.04526108
16	0x3d6ec02f	0.05828875
17	0xbd3f2b95	-0.046672422
18	0x3ca35932	0.019939993
19	0xbcb57958	-0.022152588
20	0xbd9a8082	-0.07544042
21	0xbc7c88c5	-0.015413468
22	0xbc658abe	-0.0140101295
23	0x3d2deca6	0.042462014
24	0xbc586bae	-0.013209267
25	0xbbec640e	-0.007214076
26	0x3d4f8255	0.050661404
27	0x3d96515f	0.07339739
28	0x3985bef1	0.0002551
29	0x3b2d7292	0.0026465994
30	0x3bc50266	0.006012249
31	0x3bc213a9	0.005922754

model.8.weight f4 [32]
0	0x3f891053	1.0708107
1	0x3f820655	1.0158182
2	0x3f8a07b0	1.0783596
3	0x3f89e76c	1.0773749
4	0x3f6f537f	0.9348678
5	0x3f80cce2	1.0062525
6	0x3f735ff4	0.9506829
7	0x3f8df82a	1.1091359
8	0x3f92d896	1.1472347
9	0x3f78fa77	0.9725718
10	0x3f833476	1.0250385
11	0x3f7764d6	0.9663824
12	0x3f8c09c0	1.0940475
13	0x3f43f1ea	0.76541007
14	0x3f8aad09	1.0834056
15	0x3f73a400	0.9517212
16	0x3f8eff6b	1.1171697
17	0x3f8ac12b	1.08402
18	0x3f8fd9a3	1.1238292
19	0x3f77dff8	0.96826124
20	0x3f823781	1.0173188
21	0x3f4597a9	0.7718454
22	0x3f829241	1.0200883
23	0x3f82d2fc	1.0220637
24	0x3f7e3d8e	0.99312675
25	0x3f880397	1.0626096
26	0x3f91743e	1.1363599
27	0x3f66088a	0.8985678
28	0x3f5d36ca	0.86411726
29	0x3f5a22a8	0.8520913
30	0x3f84e0f3	1.0381149
31	0x3f6ec658	0.932714

model.8.bias f4 [32]
0	0xbd4dc3d0	-0.05023557
1	0xbe3e7b8e	-0.1860182
2	0x3996fe6b	0.00028799786
3	0x3d02d344	0.03193976
4	0x3ac5b9d1	0.0015085285
5	0xbd08a695	-0.03336199
6	0xbdddd83d	-0.1083226
7	0x3c89b1c4	0.016808398
8	0x3d5601c6	0.052247785
9	0xbe06398b	-0.13107888
10	0x3dde1bd2	0.1084515
11	0xbcdf40a0	-0.027252495
12	0xbe1f8347	-0.15577422
13	0xbe6ec121	-0.2331586
14	0xbdf8c8e0	-0.12147689
15	0xbd060a46	-0.03272464
16	0xbc8659ba	-0.016400207
17	0x3cf6a9fc	0.030110352
18	0xbe899fec	-0.26879823
19	0x3d0ce72d	0.034400154
20	0xbe1ffb75	-0.15623267
21	0xbe2a8069	-0.16650547
22	0xbd9d634f	-0.07684957
23	0x3ccf42a4	0.025300331
24	0xbd0788bc	-0.033089384
25	0x3dc0be59	0.09411306
26	0xbdc3895a	-0.09547682
27	0xbdf3de20	-0.11907601
28	0xbe445356	-0.19172415
29	0xbdf7ccbf	-0.12099599
30	0x3d1a49b6	0.037667952
31	0x3b886fc3	0.0041637137

model.8.running_mean f4 [32]
0	0xbf240a0c	-0.6407783
1	0x3f0f2982	0.5592271
2	0xbf8b43e0	-1.0880089
3	0x3f133d03	0.5751497
4	0xc08a5976	-4.3234205
5	0xbe39570b	-0.1809961
6	0x3c64f15c	0.01397356
7	0xc022703a	-2.5380998
8	0xc0451f6d	-3.080043
9	0xc06069b9	-3.5064528
10	0xbd291b83	-0.041286003
11	0x3ed59448	0.41714692
12	0x3e435315	0.19074662
13	0x40678913	3.6177413
14	0xbe7247e8	-0.23660243
15	0x3e643b1d	0.22288175
16	0xbf05385b	-0.52039117
17	0xbfe2041e	-1.7657506
18	0x4024ed78	2.576994
19	0xbf70f277	-0.9411997
20	0x3fca7495	1.5816828
21	0x3fd1205c	1.6338
22	0xc080d439	-4.025906
23	0xbf4ae77d	-0.79259473
24	0xc00d9b84	-2.212617
25	0xbf23df01	-0.6401215
26	0xbe6100fc	-0.21973032
27	0xbf2b719a	-0.6697022
28	0xbee375f7	-0.44425938
29	0xbf57c89b	-0.84290475
30	0xc00ef39e	-2.2336192
31	0x3ec25961	0.37958816

model.8.running_var f4 [32]
0	0x412af6f3	10.68529
1	0x414afba5	12.686437
2	0x413ecc47	11.924872
3	0x40b8c953	5.7745757
4	0x4206ce0c	33.701218
5	0x40ab67d9	5.3564267
6	0x410f3949	8.951486
7	0x40bbc0ef	5.8673015
8	0x41e94652	29.159336
9	0x4103b134	8.2307625
10	0x4121ad1f	10.104766
11	0x413b2c16	11.698263
12	0x40fc2d5d	7.8805375
13	0x40fe2f9c	7.9433117
14	0x415179ba	13.092218
15	0x41203c05	10.014653
16	0x40e9b9c7	7.303928
17	0x411c835c	9.78207
18	0x412553a0	10.332916
19	0x40a76030	5.2304916
20	0x40e6afe1	7.2089696
21	0x41146233	9.273974
22	0x41b5ab01	22.708498
23	0x41895670	17.167206
24	0x41053a2a	8.3267
25	0x4111da06	9.115728
26	0x41116210	9.086441
27	0x4162d1fd	14.176267
28	0x4129b0a1	10.605622
29	0x414026fa	12.009516
30	0x4136b663	11.419528
31	0x413dc746	11.861151

model.10.weight f4 [64, 32, 3, 3]
0	0x3b750c1c	0.003739125
1	0xbd376be7	-0.044780638
2	0xbc5e2304	-0.013558153
3	0x3ce4e526	0.027941298
4	0x3d07ae37	0.03312513
5	0x3d04b004	0.032394424
6	0x3d521d9e	0.051297776
7	0x3c85922a	0.016305048
8	0x3d48589a	0.048912622
9	0xbdc09973	-0.09404268
10	0x3bc655c9	0.006052707
11	0xbe14bed3	-0.14525919
12	0xbdd76733	-0.105177306
13	0xbcf092b4	-0.029366829
14	0xbdf90df5	-0.12160865
15	0xbe6b4fcc	-0.22979659
16	0xbe27a885	-0.16372879
17	0xbe1a8c42	-0.15092567
18	0x3cafaf04	0.021445759
19	0xbd6ddc5f	-0.05807149
20	0xbe1c6173	-0.15271549
21	0x3e00a445	0.12562664
22	0x3c86e19a	0.016464997
23	0xbe0f33a2	-0.1398454
24	0x3d877510	0.06614125
25	0xbc61336b	-0.013745169
26	0xbe15d9b0	-0.14633822
27	0xbda78247	-0.08179145
28	0xbe303f09	-0.17211546
29	0xbe273424	-0.16328484
30	0xbc8d6240	-0.017258763
31	0xbdafe46b	-0.08588489
32	0xbd87e897	-0.0663616
33	0xbe1636f6	-0.14669403
34	0xbe1b1b4c	-0.15147132
35	0xbd77a5f5	-0.060461003
36	0xbe13a9f8	-0.14420307
37	0xbe030025	-0.12793024
38	0x3ca744a2	0.020418469
39	0xbd8ade99	-0.067807384
40	0xbe2847af	-0.16433595
41	0x3b5fdfc8	0.0034160484
42	0x3d5802a0	0.05273688
43	0xbd861df4	-0.06548682
44	0xbc58219e	-0.013191609
45	0xbdc6cfbb	-0.0970759
46	0xbe0a0871	-0.13479783
47	0xbcec2ec0	-0.028830886
48	0xbd07b5e7	-0.03313246
49	0xbd983484	-0.074318916
50	0xbdd33e84	-0.10314658
51	0x3c9e0f0e	0.019294288
52	0xbd9d3753	-0.07676568
53	0xbcb10327	-0.021607948
54	0x3ab2f56d	0.0013653465
55	0x3e0c4878	0.1369952
56	0xbd88d0da	-0.0668046
57	0x3cc93c34	0.02456484
58	0x3d2fbc85	0.042904396
59	0x3d07c24f	0.03314429
60	0xbd9206f7	-0.07130235
61	0x3c4b0500	0.012391329
62	0xbd8a516a	-0.0675381
63	0x3e3c4c54	0.18388492
64	0x3df4a88a	0.11946209
65	0xbcf1b134	-0.029503442
66	0x3d8911e9	0.06692869
67	0x3e003559	0.1252035
68	0x3cc8dfa5	0.024520705
69	0xbda0b3c2	-0.07846786
70	0xbce4da6b	-0.027936181
71	0xbd24d7c9	-0.04024485
72	0xbe0829e7	-0.13297234
73	0xbd9d0922	-0.076677576
74	0xbd96e5f3	-0.07368078
75	0xbd5cf3d9	-0.05394349
76	0xbcbd8bc4	-0.023137935
77	0x3d2d226f	0.042269167
78	0x3e03113d	0.12799545
79	0xbc9c80d4	-0.019104399
80	0xbc170446	-0.009217327
81	0x3e06d781	0.13168146
82	0x3db9415e	0.09045671
83	0x3e0469ca	0.1293098
84	0x3dccf527	0.100076966
85	0x3c9c1b6f	0.01905605
86	0x3dcf629f	0.10126232
87	0x3d7f3c85	0.062313575
88	0xbcb93f06	-0.02261306
89	0x3d485ef6	0.048918687
90	0x3e541263	0.20710139
91	0x3e4ea4d7	0.20180069
92	0xbdae4841	-0.08509875
93	0x3d9fbb57	0.07799404
94	0x3e76bf02	0.24096301
95	0xbba7360b	-0.005102878
96	0x3cd61e3e	0.026137467
97	0x3dc7f581	0.09763623
98	0xbdbc0ad5	-0.091817535
99	0x3eacc4ee	0.33743995
100	0x3e60c463	0.21949916
101	0x3deb0e5d	0.11477349
102	0x3e88ee77	0.26744434
103	0x3e655517	0.2239574
104	0x3daea1c3	0.08526947
105	0x3dc66ec6	0.09689097
106	0x3e349eef	0.17638753
107	0x3c8c38a1	0.017116847
108	0xbd23e4fd	-0.040013302
109	0xbe66b3dd	-0.2252955
110	0xbe92e0a8	-0.28687024
111	0xbdec18b5	-0.1152815
112	0xbd289b53	-0.041163754
113	0xbe6cdf7f	-0.23132132
114	0xbe6b9ae8	-0.23008311
115	0xbe68665b	-0.22695296
116	0xbe1091f9	-0.14118184
117	0x3dd6773b	0.1047196
118	0x3e0084b4	0.12550622
119	0xbd6e611f	-0.05819809
120	0x3d78f982	0.060784824
121	0x3dfead35	0.1243538
122	0xbaa525c9	-0.0012599762
123	0xbd7e3f18	-0.06207189
124	0x3ca393a7	0.019967867
125	0xbc21c84f	-0.009874417
126	0x3c66e768	0.0140932575
127	0x3d12dd89	0.035855804
128	0xbe1b3c8c	-0.15159816
129	0xbc717bdc	-0.014739003
130	0x3c0bb7dc	0.008527722
131	0xbd1802f2	-0.037112184
132	0xbe076150	-0.13220716
133	0x3ab72e69	0.0013975623
134	0xbdada886	-0.08479409
135	0xbe2a5cb3	-0.16636924
136	0xbe10dfd2	-0.1414788
137	0xbda39d6e	-0.07989012
138	0xbe167259	-0.14692058
139	0xbdaff1a7	-0.085910134
140	0xbda35a87	-0.07976251
141	0xbd696b9c	-0.05698739
142	0xbe3628af	-0.17788957
143	0xbd8d1eb8	-0.06890625
144	0xbda0a7cd	-0.078445055
145	0xbe6bfc44	-0.2304545
146	0xbe41b8b8	-0.18918121
147	0xbe895a3d	-0.2682666
148	0xbda5a856	-0.08088748
149	0xbe643f05	-0.22289665
150	0xbe928b9d	-0.2862214
151	0xbd81680d	-0.06318674
152	0xbe338b98	-0.1753372
153	0x3e36a64b	0.17836873
154	0x3d84a923	0.06477573
155	0x3d35e2b5	0.044405658
156	0x3df44277	0.1192674
157	0x3dfb98f8	0.12285036
158	0xbd0ea2d6	-0.03482326
159	0x3d9d230e	0.07672702
160	0x3d81bb1f	0.06334519
161	0x3d89289b	0.06697198
162	0x3c64194f	0.01392205
163	0xbd8eca34	-0.06972161
164	0x3d7e2253	0.062044453
165	0x3c8ed58f	0.017435817
166	0xbd546a6d	-0.051859308
167	0xbca3b417	-0.019983334
168	0xbcce4cdd	-0.025183136
169	0xbdf60df9	-0.12014384
170	0x3c3fb6d7	0.011701307
171	0xbbf852fd	-0.0075782523
172	0xbda5711f	-0.08078217
173	0xbcf35337	-0.029702766
174	0xbceccd7c	-0.028906576
175	0xbd7d5cad	-0.06185596
176	0x3d1c2ded	0.038129736
177	0x3d899ef8	0.06719774
178	0x3c8ea069	0.017410474
179	0xbb51f890	-0.0032039024
180	0xbd540f5e	-0.051772468
181	0xbd592d22	-0.053021558
182	0xbe1e98cc	-0.15487975
183	0x3a161551	0.0005725222
184	0x3d433ecd	0.047667313
185	0xbde69e81	-0.11260701
186	0xbe88a468	-0.26687932
187	0xbe3059ac	-0.17221707
188	0xbe0e8cb6	-0.13920864
189	0x3e319ac0	0.17344189
190	0x3ded62c5	0.115911044
191	0xbcc71342	-0.024301175
192	0x3dcbc205	0.09949116
193	0x3dba68d1	0.091020234
194	0x3d30294a	0.043008126
195	0x3d741693	0.05959184
196	0xbd4a1521	-0.049336556
197	0xbd6a4e36	-0.057203494
198	0xbe640d4e	-0.222707
199	0xbe5cb21e	-0.21552321
200	0xbd8db7f4	-0.06919852
201	0xbca83bee	-0.02053639
202	0xbde0e4e1	-0.10981155
203	0x3cc938a5	0.024563143
204	0xbda0920e	-0.07840358
205	0xbd6ec7fe	-0.058296196
206	0xbd1af208	-0.037828475
207	0xbe41db72	-0.18931368
208	0xbe3a26dc	-0.18178886
209	0xbd26b54c	-0.040700242
210	0xbe1b005c	-0.15136856
211	0xbe010356	-0.12598929
212	0x3d859260	0.065220594
213	0x3c0bebdc	0.00854012
214	0xbcfbdf23	-0.030746048
215	0x3caba2b3	0.020951604
216	0xbdbeae62	-0.09310605
217	0xbe3b5392	-0.18293598
218	0xbdac39c4	-0.084094554
219	0xbda3f489	-0.08005626
220	0xbd9c4683	-0.076306365
221	0xbc05005d	-0.008117762
222	0x3d415ece	0.047209553
223	0xbcc4da71	-0.024029942
224	0x3c443c4a	0.011977265
225	0xbe5fd7c0	-0.21859646
226	0xbe0fa63e	-0.1402826
227	0xbdb945d1	-0.090465195
228	0xbe4b617b	-0.19861405
229	0xbe3f8aeb	-0.18705337
230	0xbe3d289e	-0.18472525
231	0xbe02940d	-0.1275179
232	0xbd585c5e	-0.052822463
233	0xbe2366ab	-0.15957133
234	0xbda83ae0	-0.082143545
235	0xbdce3fb2	-0.10070743
236	0xbe0f8705	-0.1401635
237	0xbddce061	-0.107849844
238	0x3ba1f49c	0.00494249
239	0xbe21ad72	-0.1578882
240	0xbe882ba8	-0.26595807
241	0xbde1a36b	-0.11017498
242	0xbdb70061	-0.08935619
243	0x3e8a4add	0.2701024
244	0x3e47e98d	0.19522686
245	0x3cc8e728	0.024524286
246	0x3e62d68a	0.22152153
247	0x3e0f8eb7	0.14019285
248	0x3d50ad67	0.05094662
249	0x3def12b5	0.1167349
250	0x3e021976	0.12705025
251	0x3d5ed465	0.054401774
252	0x3c808e59	0.015692877
253	0x3d7f8f9d	0.06239282
254	0xbc4271d0	-0.011867955
255	0x3d65bb55	0.056086857

model.10.bias f4 [64]
0	0x3c91291e	0.017719802
1	0xb857a05e	-5.1409348e-05
2	0x3ca5e57b	0.020251026
3	0x3d94c93b	0.07264944
4	0x3d80578d	0.06266699
5	0x3bafe13a	0.0053674253
6	0xbb0fcd11	-0.0021942297
7	0xbc9e0bc1	-0.019292714
8	0xbd48ad10	-0.04899317
9	0x39d9527c	0.0004145092
10	0x3d87ead2	0.06636585
11	0xbd88f6d4	-0.06687704
12	0xbca31c55	-0.01991097
13	0x3d28146e	0.04103511
14	0xbc0d5475	-0.008626093
15	0xbd56c61b	-0.05243502
16	0x3c8a7085	0.016899357
17	0xbc0365ef	-0.008019908
18	0x3c2de32b	0.010613243
19	0x3ca6e0f0	0.02037093
20	0xbabffef7	-0.0014648129
21	0xbbadb649	-0.005301271
22	0xbd9f55cc	-0.07780036
23	0x3d70cdc7	0.058789995
24	0xbbd60bdf	-0.006532177
25	0xbdbf5b71	-0.09343613
26	0x3d29ad0a	0.04142479
27	0xbc299b20	-0.010351926
28	0xbd00c9bc	-0.03144239
29	0xbd4d86b0	-0.050177276
30	0xbc94baa1	-0.018155398
31	0xbd75e723	-0.060034882
32	0xbd787829	-0.06066147
33	0x3b3eaf1d	0.0029096075
34	0x3d62ee02	0.055402763
35	0xbdaca605	-0.08430103
36	0x3bb7f9b0	0.005614482
37	0xbb8dc88d	-0.004326886
38	0x3beb312b	0.007177492
39	0x3d14200e	0.036163382
40	0xbc62b77d	-0.013837692
41	0x3c87f211	0.016594918
42	0x3bccb769	0.00624745
43	0x3d1ebd5c	0.038754806
44	0x3c0420af	0.008064433
45	0xbd3d5326	-0.046221875
46	0xbc95ffe7	-0.0183105
47	0xbc3e17bb	-0.0116023375
48	0x3db284f8	0.08716768
49	0xbd47d389	-0.04878572
50	0xbd0c685e	-0.03427922
51	0xbc4696b2	-0.0121208895
52	0xbd032b2b	-0.03202359
53	0x3c2b3cb9	0.010451489
54	0xbcba9166	-0.02277441
55	0x3d1791b5	0.03700419
56	0x3b37cc29	0.0028045273
57	0xbd560497	-0.05225047
58	0xbbcdb980	-0.006278217
59	0x3d47e23c	0.04879974
60	0x3b80de29	0.0039327336
61	0xbc93703d	-0.017997855
62	0x3caad95b	0.020855596
63	0x3b8b9418	0.0042595975

model.11.weight f4 [64]
0	0x3f85f56f	1.0465525
1	0x3f99f86e	1.202894
2	0x3f8d469c	1.1037173
3	0x3f6287aa	0.88488257
4	0x3f8712cc	1.0552611
5	0x3f390941	0.72279745
6	0x3f6d91da	0.92800677
7	0x3f8160e7	1.0107697
8	0x3f85ceb8	1.045371
9	0x3f8b4174	1.087935
10	0x3f817fcd	1.0117127
11	0x3f695f78	0.911613
12	0x3f90b8cc	1.1306396
13	0x3f688192	0.9082271
14	0x3f6b6f2f	0.9196653
15	0x3f7e7327	0.9939446
16	0x3f7ad57e	0.97982013
17	0x3f9c7cc5	1.2225577
18	0x3f714767	0.94249576
19	0x3f838b61	1.027691
20	0x3f959cd1	1.1688482
21	0x3f752d1b	0.9577195
22	0x3f78a144	0.9712107
23	0x3fbe7abd	1.4881207
24	0x3f84c20d	1.037172
25	0x3f6e61d8	0.9311805
26	0x3f891ec8	1.0712519
27	0x3f716777	0.942985
28	0x3f66cfcf	0.9016084
29	0x3fa3d93c	1.280067
30	0x3f6d1eb7	0.9262499
31	0x3f9f7c7d	1.2459866
32	0x3f866ff3	1.0502914
33	0x3f599511	0.8499308
34	0x3f6a6d88	0.9157338
35	0x3f755048	0.95825624
36	0x3f722c9b	0.9459931
37	0x3f7c90a7	0.9865822
38	0x3f761b99	0.9613586
39	0x3f757182	0.95876324
40	0x3f757b96	0.958917
41	0x3f95b929	1.1697131
42	0x3f83bf1b	1.0292696
43	0x3f73fbe5	0.95306236
44	0x3f846805	1.0344244
45	0x3f9d078c	1.2267928
46	0x3f8f0784	1.1174169
47	0x3f929cb0	1.1454067
48	0x3f6fc5a5	0.93660957
49	0x3f8538d6	1.040797
50	0x3f526a6a	0.82193625
51	0x3f613667	0.87973636
52	0x3f3a808d	0.728524
53	0x3fbd7b82	1.4803317
54	0x3f60f7bc	0.8787801
55	0x3f852858	1.0402937
56	0x3f9b1627	1.2116135
57	0x3f6ff08a	0.9372641
58	0x3f99b0b7	1.2007054
59	0x3f8d3b53	1.1033729
60	0x3f53f87f	0.8280105
61	0x3f863109	1.0483714
62	0x3f79efd5	0.9763158
63	0x3f803522	1.0016215

model.11.bias f4 [64]
0	0xbe60e1bc	-0.21961111
1	0xbdbc47f0	-0.091934085
2	0x3d933e7a	0.07189651
3	0xbe88cfe9	-0.26721123
4	0xbd1a9a0d	-0.03774457
5	0xbe818ea7	-0.25304148
6	0xbda4cc75	-0.080468096
7	0xbec8b8e1	-0.3920355
8	0xbd309a68	-0.043116003
9	0x3c9fea5f	0.019520937
10	0xbcf1717c	-0.029473059
11	0xbe115b47	-0.14194976
12	0xbb879f68	-0.0041388758
13	0xbd41b9da	-0.047296382
14	0x3da1ea7d	0.07906053
15	0xbe670c40	-0.22563267
16	0xbe9dcdae	-0.30820984
17	0x3e60997e	0.21933553
18	0xbdd1444b	-0.10218104
19	0xbb3d27b1	-0.002886277
20	0x3e31620a	0.17322555
21	0x3de3dc7f	0.11126041
22	0xbe2f507f	-0.1712055
23	0x3ebcbbfc	0.3686217
24	0xbe237266	-0.15961608
25	0xbedbb93b	-0.42914757
26	0x3dbda46b	0.09259876
27	0xbe0c01b9	-0.13672532
28	0xbe85e5b5	-0.26151815
29	0x3e3bba89	0.18332876
30	0xbed9c84a	-0.4253562
31	0x3e8a334f	0.2699227
32	0x3d3cba96	0.04607638
33	0xbd8f2db8	-0.06991142
34	0xbe4095c1	-0.18807127
35	0xbe4c44b3	-0.19948082
36	0xbe5e7f58	-0.21728265
37	0xbc983bbb	-0.01858317
38	0xbe4e8edc	-0.20171684
39	0x3da9c58a	0.08289631
40	0xbeb31094	-0.34973586
41	0x3cd673ce	0.026178267
42	0x3ddac2e1	0.106817015
43	0xbd19d83c	-0.037559733
44	0xbe3833b3	-0.17988472
45	0xbdf6437f	-0.120245926
46	0x3e539267	0.20661317
47	0xbcb14d90	-0.02164343
48	0xbd358472	-0.044315763
49	0xbe2d289c	-0.16910022
50	0xbea99f19	-0.33129194
51	0xbe6998cb	-0.22812192
52	0xbe531c9b	-0.20616381
53	0xbd138dfb	-0.036024075
54	0xbec52e94	-0.385121
55	0xbd567b54	-0.05236371
56	0x3e4a1832	0.19735792
57	0xbe5a7d72	-0.21336916
58	0x3dcfc51f	0.1014502
59	0xbdb6521a	-0.089023784
60	0xbe1235aa	-0.14278284
61	0x3bfbacbc	0.0076805037
62	0xbea42a1f	-0.32063386
63	0x3dd852b1	0.10562647

model.11.running_mean f4 [64]
0	0xc0571476	-3.3606238
1	0x3e5643d5	0.20924313
2	0xbe372820	-0.178864
3	0x3fd199ae	1.6375024
4	0x3ecd5bfd	0.40109244
5	0xbf6fd7b7	-0.9368853
6	0xbf1831ad	-0.594508
7	0x3f974541	1.181801
8	0xbd6fa23e	-0.058504336
9	0x3ef22e9a	0.4730118
10	0xc03ea493	-2.9787948
11	0x3ff3042c	1.8985648
12	0xc03072c0	-2.7570038
13	0xbfabca9c	-1.3421206
14	0xc005b8c3	-2.089402
15	0xbef53e22	-0.47898966
16	0xbf08e2d5	-0.5347112
17	0x3ea92a4a	0.33040076
18	0x3f23498d	0.63784105
19	0x3f386f38	0.72044706
20	0xbf0ac3ce	-0.54205024
21	0xbe53507f	-0.20636176
22	0x3f932a73	1.149733
23	0x3d0e5bcb	0.03475551
24	0xc00ba477	-2.1819131
25	0x3eb7637b	0.35818085
26	0xbff0925e	-1.8794668
27	0x3fd5915c	1.6684985
28	0x3f7153d7	0.94268554
29	0x3f6bc586	0.9209827
30	0x3fc0f8e1	1.5075952
31	0xbeeb2880	-0.45929337
32	0x3d3321d1	0.04373342
33	0xbe823601	-0.25431827
34	0xc073ba34	-3.80824
35	0xc03b17b3	-2.9233215
36	0x3f9e5f30	1.2372799
37	0xbfb10912	-1.3830893
38	0xbf5e4354	-0.86821485
39	0xbef732ef	-0.48281047
40	0x3ee2483a	0.4419573
41	0x3f22bf1e	0.6357287
42	0xbffe0d46	-1.9847801
43	0x3e8323ed	0.25613347
44	0xbfe7c95e	-1.8108327
45	0xc04450ff	-3.0674436
46	0xbf4fad4e	-0.81123817
47	0x3f0249d7	0.5089392
48	0x3ff68fd3	1.9262642
49	0xbfa0fd79	-1.2577354
50	0x405ad925	3.4195035
51	0xbe9fd82d	-0.31219617
52	0x3fc869c1	1.5657274
53	0x3e4c2a15	0.19937928
54	0x404d5762	3.2084584
55	0x3eb8f281	0.36122516
56	0xbf7f87d7	-0.9981665
57	0xc0652a0a	-3.5806909
58	0xc004877f	-2.07077
59	0xc0351b32	-2.8297849
60	0x3f450a0f	0.76968473
61	0xbe922a37	-0.28547832
62	0x3fe6ef09	1.8041698
63	0xbf8232e1	-1.0171777

model.11.running_var f4 [64]
0	0x41ac48ea	21.535603
1	0x414da235	12.852101
2	0x410d0716	8.81423
3	0x41396acc	11.588573
4	0x418a1e19	17.264696
5	0x40cb6c12	6.356942
6	0x418b6093	17.422155
7	0x41207906	10.029547
8	0x410aea8b	8.682261
9	0x40b95184	5.7912006
10	0x4150c8aa	13.04899
11	0x4109b8ab	8.607585
12	0x42064c2b	33.574383
13	0x416a6613	14.64992
14	0x418d1b49	17.638323
15	0x41d32b34	26.396095
16	0x41430748	12.189278
17	0x411bd653	9.739825
18	0x411b26f5	9.697011
19	0x4178b1be	15.543394
20	0x418a1309	17.259295
21	0x4084a37f	4.144958
22	0x41055aca	8.334665
23	0x4174fd02	15.3117695
24	0x41ee53a6	29.790844
25	0x41209002	10.035158
26	0x413ed707	11.927497
27	0x413ecd6d	11.925153
28	0x411fe2ae	9.992842
29	0x411e2baa	9.88566
30	0x412d83df	10.844695
31	0x41261edc	10.382534
32	0x415b3353	13.70003
33	0x41330ec6	11.191107
34	0x41a0b33d	20.087519
35	0x41c26fd5	24.304605
36	0x414e17c9	12.880807
37	0x41c3f396	24.493938
38	0x415a2933	13.635058
39	0x41779f82	15.476442
40	0x41224728	10.142372
41	0x40fe1faa	7.9413652
42	0x4117e28a	9.492807
43	0x415526a1	13.321931
44	0x419a54dd	19.291437
45	0x41284bdc	10.51852
46	0x41684e98	14.519188
47	0x415179c4	13.092228
48	0x4149e822	12.619173
49	0x410871fd	8.527829
50	0x41005697	8.02114
51	0x41f4c7f2	30.59763
52	0x40eb4599	7.352246
53	0x4120bd64	10.046238
54	0x40e73c55	7.2261147
55	0x413b875f	11.72055
56	0x415c1bb8	13.756767
57	0x41f1f4ae	30.244473
58	0x41830187	16.375746
59	0x40ba99be	5.8312674
60	0x412e8256	10.90682
61	0x418b89a3	17.442205
62	0x4142a3c4	12.164982
63	0x4119be90	9.609024
