imitation_learning/models/h3-lr1e-05-agent.pt (torch, 966128 bytes, 34 tensors)

model.0.weight f4 [16, 3, 7, 7]
000000 6c 4a ac bc 02 6f 14 bc 7c a1 d9 3c 7c a6 03 3d
       -0.02103158 -0.009059669 0.02656626 0.032141194
000010 14 5a 8f 3d e3 54 67 bd c2 4d 2c bd 63 c2 94 bc
       0.06999603 -0.05647744 -0.042066343 -0.018159097
000020 3a 77 ca bb 03 aa 0a bd 41 26 39 bc 4a cb ed bc
       -0.0061787637 -0.033853542 -0.011300624 -0.0290276
000030 ed 7e 8a 3d 24 a4 4e ba 94 30 9e bd 03 27 a2 bd
       0.067624904 -0.0007882735 -0.07724109 -0.07917597
000040 2e d5 9c bd 3d 5b a0 bd 33 de 5b 3d 82 55 33 bc
       -0.07657848 -0.07829902 0.053678703 -0.01094568
000050 eb 0a 29 3d 04 fe eb bc f6 cf ec 3c 39 62 29 3d
       0.041270178 -0.028807648 0.028907757 0.041353438
000060 ef 7e d8 bc 22 c7 94 3d a5 0a b2 bc e3 d6 9d bd
       -0.026427714 0.07264544 -0.021733591 -0.07707002
000070 58 f8 6c 3b 8a 30 a7 3c 26 74 9e bd cd 8e b6 bc
       0.0036158767 0.020408887 -0.07736997 -0.02228489
000080 40 37 1a bd 1c 41 54 3c f6 fd 58 3d aa 83 7f bd
       -0.037650347 0.012954976 0.05297657 -0.062381424
000090 b4 81 9f 3d 71 2a 9d bd c0 5b 24 bd be af ee bb
       0.07788411 -0.07674111 -0.040126562 -0.0072841337
0000a0 0f bc 00 bd 68 3e 33 bd e9 83 9c bb 7b 9e 9e bd
       -0.031429347 -0.043760687 -0.004776467 -0.077450715
0000b0 2f 37 ee 3b bf 9d 69 3d 0a e2 35 3d 4b a6 82 3d
       0.007269762 0.057035204 0.04440502 0.06379374
0000c0 80 bb 8c bc bf ee 3c bd a8 c3 ec 3c 72 e3 dd 3a
       -0.01717925 -0.046126124 0.02890189 0.0016928746
0000d0 e4 30 8c bc 83 c9 44 bd e0 2c 32 3d 58 07 60 bd
       -0.017113157 -0.04804374 0.043499827 -0.054694504
0000e0 89 62 96 bd 26 83 2a 3c 89 84 19 bd e0 35 ac bc
       -0.07343013 0.010407245 -0.03747991 -0.021021783
0000f0 1e f2 9d bd b3 fd a6 bd b2 34 21 3c 63 dd 9e 3d
       -0.07712196 -0.08153858 0.009839224 0.0775707
000100 10 e1 20 bd fe af 0f bd 2c 54 a7 3d 1d 8c a0 bc
       -0.039277136 -0.03507995 0.081703514 -0.019598061
000110 b5 e1 9d bd ef 33 4e 3d 68 5b 8b bd 1d 28 84 3b
       -0.07709066 0.050342496 -0.06804544 0.004033102
000120 e2 df 50 bd db 42 a9 3d 1b e7 9d bd 76 8a a7 bd
       -0.05099476 0.08264705 -0.077100955 -0.08180706
000130 bb a9 a6 bc bb 54 f7 bb b0 a4 32 3d 3d 15 a7 3d
       -0.020344606 -0.0075479425 0.04361409 0.08158348
000140 f5 0f 58 3d 78 90 26 b9 df 86 2d 3c fb 57 6a 3c
       0.052749593 -0.00015884812 0.010591238 0.014303203
000150 2c 50 74 bd a7 e8 18 bd a6 da 27 3a 90 f1 40 bd
       -0.05964677 -0.03733125 0.00064031256 -0.047105372
000160 99 b4 6d 3d 37 6f 4a 3b 6e d1 95 3d 79 83 da 3c
       0.05803356 0.0030889043 0.07315336 0.02667402
000170 e0 b2 44 3d 33 cb 0c bc 1c b4 80 3d e6 05 88 bc
       0.04802215 -0.008593368 0.06284353 -0.016604375
000180 ef 15 b5 3c 9a 27 9d 3d a3 f6 a8 bd 0c b4 a0 bd
       0.022105185 0.07673569 -0.08250167 -0.07846841
000190 2e a1 00 3d 33 56 f8 bc ae 56 54 3d f1 a1 7b 3d
       0.031403713 -0.03031454 0.051840477 0.061433736
0001a0 58 e1 78 bd de ed 0a 3d 07 55 09 3d 34 6b 82 bd
       -0.06076178 0.033918254 0.033528354 -0.063681036
0001b0 45 94 71 3d e2 34 62 3c 63 56 f3 3c fc 7b 03 bb
       0.05897929 0.013806554 0.029704278 -0.0020062914
0001c0 9f dc e9 bc 0d bb 2f b9 b8 11 df bc 69 90 82 bd
       -0.028547583 -0.00016758982 -0.027230129 -0.063752
0001d0 b6 54 39 bd af df 77 bc 4f c8 ca 3c d5 cc 5a 3d
       -0.045246802 -0.015129014 0.024753718 0.053418
0001e0 a2 df db 3c 79 40 87 3c 72 62 0c 3d e4 3b 85 3d
       0.026840035 0.016510235 0.034273572 0.06505564
0001f0 fe 54 1d bd a7 86 98 3d 80 09 80 3d 69 2e 89 bc
       -0.038411133 0.07447558 0.06251812 -0.016745763
000200 3d 10 25 3d e9 91 70 bc 6d 65 2e bd ef 85 0c 3c
       0.04029869 -0.014683225 -0.042577196 0.008576854
000210 6b dc a6 bc 88 d7 d8 3c 03 1e 98 bd ed 2b 99 3b
       -0.020368775 0.02646996 -0.07427599 0.004674426
000220 1a fa 40 3d 4e 85 1f 3d c9 5c 27 bd 77 a6 5b bc
       0.047113515 0.03894549 -0.04085997 -0.0134063875
000230 59 41 6a 3d 88 2b 52 3d 29 61 e1 bc 6e 79 82 bc
       0.057191227 0.051311046 -0.02751215 -0.015927043
000240 2c 7f 86 3c 52 61 7f 3d 63 af 68 3d c5 07 56 3d
       0.016418062 0.06234867 0.056807887 0.052253503
000250 07 12 ac 3c fc 47 b1 bc 77 71 00 bd 3d 5c 86 bd
       0.02100469 -0.02164077 -0.03135821 -0.06560562
000260 ea d7 a0 bd 0c f8 08 bd 18 a5 9c 3d 82 06 4f 3b
       -0.07853682 -0.03343968 0.07648677 0.0031589572
000270 31 e1 4c bc 60 7d 51 bd 93 a1 eb 3c 12 79 57 3d
       -0.012504862 -0.051144958 0.028763568 0.052605696
000280 da b7 9b 3d 31 21 9e bd e6 ca 8d 3d 4c 15 63 3c
       0.07603426 -0.077211745 0.069234654 0.013860058
000290 73 c8 75 bd 8e 76 b8 3c 74 35 21 3d 76 65 06 3c
       -0.060005616 0.022517469 0.039357617 0.008202901
0002a0 9a 8e 06 bd 73 46 7b bd 59 71 58 3d 70 b5 97 3d
       -0.03285084 -0.061346482 0.05284247 0.07407653
0002b0 af a5 97 bd 3e d2 27 3d 7a 46 82 3c d6 a9 52 3d
       -0.074046485 0.040971987 0.015902746 0.0514315
0002c0 aa 44 84 bc a3 1c 88 bd 14 f4 0b bd ba 59 ee 3c
       -0.016146023 -0.06646087 -0.034168318 0.02909552
0002d0 e1 3d 8a bd 87 85 fa 3c eb ec c6 3a 3d 67 8b bd
       -0.06750084 0.030581249 0.0015176808 -0.068068005
0002e0 60 2d 6d bd f1 d9 ae 3d f0 f4 f3 3b 0a d4 7e 3d
       -0.0579046 0.08537663 0.0074449703 0.062213935
0002f0 24 66 8b bc 19 9a 14 3d a9 a8 61 bc 9e dc 76 3d
       -0.017016478 0.03627977 -0.013773122 0.06026899
000300 87 4d ca 3c c0 24 50 bc b9 58 9e bd 1a e5 30 bd
       0.024695171 -0.012704074 -0.07731766 -0.04318724
000310 33 ce 24 3d 17 a4 24 bd cd a5 20 bd 82 dc 4a bd
       0.04023571 -0.04019555 -0.03922062 -0.0495267
000320 86 33 b4 3c dd a6 93 bd 3d e4 20 3c 08 57 b8 3c
       0.021997225 -0.07209561 0.009820041 0.022502437
000330 15 c0 80 3c 36 8d 68 3d a2 f4 86 bd dc aa c3 bc
       0.015716592 0.056775294 -0.06589629 -0.023885183
000340 66 30 33 bc 56 a1 83 bc 9a ed a9 3c 0c 84 8e 3d
       -0.010936832 -0.016068142 0.02074318 0.0695878
000350 fe 67 89 3c c7 7c e5 bb e6 a2 1b bd 39 f3 8a 3a
       0.01677322 -0.0070034 -0.03799715 0.001060105
000360 b3 a1 78 bd 3b 81 82 3d ce 16 7a 3d 2a c9 57 bd
       -0.060701083 0.06372305 0.061056904 -0.05268208
000370 40 cf 8f bb a9 4b 79 3d 3c 94 82 3c ed 35 d6 bb
       -0.00438872 0.06086317 0.015939824 -0.00653719
000380 38 50 16 3c b9 4f 93 3d 8b 31 18 3d d8 64 0d bc
       0.009174399 0.0719294 0.037156623 -0.00863
000390 d8 cf 67 bd 8c 5e 49 bd 4a 55 7a 3d 76 03 3b 3d
       -0.0565947 -0.049162433 0.061116494 0.045657597
0003a0 d0 0a 0d bb a8 33 7e bc b5 e4 b7 3c 08 08 81 bd
       -0.0021521337 -0.0155152455 0.022447923 -0.0630036
0003b0 5a e4 73 bd 74 96 5a 3c 98 8a 55 3b a6 c9 54 3d
       -0.059543945 0.013341535 0.003258383 0.05195012
0003c0 e5 6b 35 3d f8 5a b5 bc cd 6d 90 bd 15 c9 8a bd
       0.04429235 -0.022138104 -0.07052193 -0.067766346
0003d0 93 29 85 3c 13 1b 55 bc 4e db 05 3d 25 27 8e 3d
       0.016255176 -0.013006943 0.03267985 0.0694106
0003e0 8c 71 9d 3d 8b 91 1b bd fb 51 26 bd 86 8c 4f bd
       0.07687673 -0.037980597 -0.040605526 -0.050671123
0003f0 f5 2c 2e 3b 86 df 21 bd 0a c5 44 bd b2 68 86 bd
       0.002657709 -0.03951981 -0.048039474 -0.06562938

model.0.bias f4 [16]
000000 b9 b1 3e bd 4c 54 b1 3c 1c c8 c6 bc 9e d7 b4 3b
       -0.04655621 0.021646641 -0.024265341 0.0055188676
000010 db 60 e6 3c 58 90 9b bc 54 e7 49 bc cc bb a9 bc
       0.028122356 -0.018989727 -0.012323219 -0.020719431
000020 18 2a 52 bd c8 52 04 3d 8e 37 90 3d ed 89 68 3d
       -0.051309675 0.03230551 0.07041846 0.05677216
000030 a0 77 59 3d 4c 71 a6 3d 2b 7f 5a 39 32 d6 90 bd
       0.0530926 0.081270784 0.00020837474 -0.070721045

model.1.weight f4 [16]
000000 6f c7 7f 3f f2 94 7f 3f 41 23 80 3f 05 04 80 3f
       0.99913687 0.9983665 1.0010759 1.0001227
000010 8b f8 7f 3f 0f c8 7f 3f 64 31 80 3f 53 fb 7f 3f
       0.9998862 0.9991464 1.0015073 0.99992865
000020 03 24 80 3f 99 14 80 3f 68 b2 7f 3f 09 0a 80 3f
       1.001099 1.0006286 0.998816 1.0003062
000030 bc 1b 80 3f af 42 80 3f e3 11 80 3f a7 9c 7f 3f
       1.0008464 1.002035 1.0005459 0.9984841

model.1.bias f4 [16]
000000 de 70 33 3a b0 cd 9c b9 ac 1a 5d 39 d8 00 15 3a
       0.00068451266 -0.00029907888 0.00021086138 0.00056840247
000010 7c cd fa b9 2e e2 65 3a 4c 12 02 3a b6 b8 90 3a
       -0.00047836814 0.000876936 0.0004961833 0.0011041376
000020 d9 22 ff 3a 32 f0 64 3a ce 66 92 ba bb 97 9c 3a
       0.0019465341 0.00087333017 -0.0011169554 0.0011947075
000030 7a 07 34 3b ae 67 f4 3a 7d 30 02 3b 4d 06 90 39
       0.0027470277 0.0018646622 0.0019865327 0.00027470515

model.1.running_mean f4 [16]
000000 58 ef 34 c2 08 b5 d0 c2 87 b9 38 43 ac be 80 c2
       -45.233734 -104.35358 184.72472 -64.372406
000010 1d 6a 2e c2 76 2c 0d 42 b6 93 19 42 d8 b1 b3 c1
       -43.603626 35.29342 38.39425 -22.461838
000020 44 a4 41 c2 a2 b2 9c c2 c2 ac 49 c2 0e ce 05 43
       -48.410416 -78.34889 -50.41871 133.8049
000030 79 d1 74 c2 4f 58 15 42 84 6c 8a c2 92 5c de c2
       -61.204563 37.33624 -69.211945 -111.1808

model.1.running_var f4 [16]
000000 70 7b 12 44 81 ca c9 44 a2 ae 98 45 00 4d 76 44
       585.9287 1614.3282 4885.829 985.2031
000010 48 11 b8 43 22 6f a8 43 88 99 f1 43 e3 4c 88 43
       368.135 336.86823 483.19946 272.60068
000020 fc a9 e2 43 1d 51 83 44 8e 42 32 44 ce f8 2d 45
       453.328 1050.5348 713.0399 2783.5503
000030 d1 1e 49 44 a0 b4 00 44 72 f5 a3 44 f7 8e dd 44
       804.4815 514.82227 1311.6702 1772.4677

model.4.weight f4 [32, 16, 3, 3]
000000 b7 27 9d ba b1 02 39 3d 74 bd 73 3d d1 a0 38 3d
       -0.0011989985 0.045168582 0.05950685 0.04507524
000010 58 d0 7a 3d 48 6d 9f 3d 49 08 8a 3c bf 98 29 3d
       0.06123385 0.077845156 0.016849654 0.041405436
000020 47 ce 32 bd 74 19 94 3d 50 d0 a0 3d aa b8 c6 bc
       -0.043653753 0.07231417 0.078522325 -0.024257977
000030 15 8e ab bd 60 1b 19 bd e0 58 6b 3d b2 9d 88 3d
       -0.08376709 -0.037379622 0.057457805 0.06670703
000040 b6 9b 8c bd 6c 7e 83 3c a1 2a 4d 3c d1 cb fa bb
       -0.06865637 0.016051494 0.012522371 -0.0076536913
000050 1d ee 91 3d 62 ad 43 3d a4 43 99 3d 21 d4 05 3d
       0.07125495 0.047772773 0.074836046 0.032673005
000060 57 07 a0 bd d8 34 18 bd 7f d7 f5 bc 22 14 88 bd
       -0.078139 -0.03715977 -0.030009983 -0.06644465
000070 82 9b 9d bc c5 a3 03 3d e7 e5 a8 bc f8 d1 38 3c
       -0.019239191 0.032138605 -0.020617438 0.011280529
000080 df 5c eb 3c 48 1f ac 3b eb a0 86 bd 06 1e 4b bb
       0.028730808 0.0052527525 -0.065736614 -0.0030993237
000090 63 3e 44 bd f7 0a 8f bd 6c c2 40 bd 04 8d 19 bd
       -0.04791106 -0.06984513 -0.047060415 -0.037488
0000a0 ce ed 52 bc 32 6d 81 3d 85 12 ac 3d e5 45 5e 3b
       -0.01287408 0.063196555 0.0840197 0.0033916172
0000b0 09 db 53 3d 4f ba 3e 3d dc 55 ed bb ed f5 8d 3d
       0.05172256 0.046564396 -0.0072429013 0.06931672
0000c0 d3 14 13 3d 7e 00 5f 3d d3 45 0e 3d ed f9 a4 3d
       0.03590853 0.05444383 0.03473456 0.08055482
0000d0 48 10 10 bd b5 da 6a 3d e2 ce 23 bd 30 32 93 bd
       -0.035171777 0.05733748 -0.03999222 -0.07187307
0000e0 4a e0 4b 3a c7 aa 49 bc 35 b5 dd bc 72 93 ce 3c
       0.0007777257 -0.012308783 -0.027063945 0.025216792
0000f0 b7 88 a4 bd 9e 0a 1a bd 06 b8 8c bd 17 a0 8b 3b
       -0.08033889 -0.03760778 -0.06871037 0.0042610276
000100 1b b0 6f bd 89 23 4a b8 73 d4 d7 bc 77 5c 9b bd
       -0.058517557 -4.8193648e-05 -0.02634642 -0.07585996
000110 45 f8 63 3c 60 2f 2b bd 8e 88 26 bd ca 4e 5e bd
       0.013914173 -0.041793227 -0.040657572 -0.054274358
000120 83 55 39 3d ad ab 9d bd ed 09 c3 bc e5 27 87 bc
       0.045247566 -0.0769876 -0.023808444 -0.016498515
000130 44 3e 51 bd e8 b3 07 bd dd ed 54 3d 64 0b 1f bc
       -0.05108477 -0.033130556 0.051984657 -0.009707306
000140 0e ff 99 bc fa 06 2b bd 81 59 19 3d 40 a5 86 bc
       -0.018798377 -0.0417547 0.037438873 -0.01643622
000150 45 3d be 3c 24 40 d7 3c 8e cc 6a 3d 82 b0 4c bd
       0.023222575 0.026275702 0.057323985 -0.04997302
000160 41 15 8e 3d ff 06 4b 3d de 9f 98 bd 0c 78 8e 3b
       0.069376476 0.04956722 -0.07452367 0.004347807
000170 97 6e 82 bc 30 c2 74 bd 1d 42 21 bd 6b ec 81 bd
       -0.015921874 -0.059755504 -0.03936969 -0.06343921
000180 d8 06 cb bc c9 80 d3 bb 70 3e 57 3c a9 6a a4 bd
       -0.024783537 -0.0064545614 0.013137445 -0.08028156
000190 95 82 ab 3d 91 92 40 bc f3 e4 1b bd ed 29 98 bd
       0.08374516 -0.011753694 -0.03806014 -0.07429872
0001a0 e4 e6 91 bd d8 25 89 3c 31 1c 55 bd c4 5d 84 3d
       -0.07124117 0.016741678 -0.05202884 0.06463197
0001b0 df 0d c3 bc 3b a5 c7 ba ef ad 47 3d 75 64 d1 3c
       -0.023810325 -0.0015231738 0.04874986 0.025560597
0001c0 ed 0e 38 3c 32 d7 59 3c fe ef 84 3d 19 94 97 bd
       0.011234027 0.0132959355 0.064910874 -0.07401294
0001d0 6f 08 08 bc b3 68 32 3d 05 83 7a 3d d6 2f 17 bc
       -0.008302792 0.04355688 0.061160106 -0.009227714
0001e0 da 59 59 3d e1 fb 9d bd 1d 74 5e bc 36 09 a7 3d
       0.053064205 -0.07714058 -0.013577488 0.08156054
0001f0 78 d2 4c 3d e7 4f 73 bd 7f 04 9a 3c bb 28 91 bc
       0.050005406 -0.059402373 0.018800972 -0.017719617
000200 4d 69 1d bd 86 26 55 3d 6e c5 87 3d c1 c8 bc 3b
       -0.0384305 0.052038692 0.066294536 0.0057612364
000210 0a af 8a 3d e4 4a e1 3c cc 7e 63 bd 5c d0 35 3d
       0.06771667 0.027501531 -0.055540845 0.04438816
000220 57 80 8c bd 28 d0 57 3d 7d ee cc bc f7 23 a6 bd
       -0.068604164 0.052688748 -0.025016064 -0.081123285
000230 21 6b 96 bd 8c b0 95 bc da 7e 81 3c 95 58 51 3d
       -0.07344652 -0.01827266 0.015807558 0.05110987
000240 86 fe a0 3d bb 66 25 3d ed 18 fc 3c e8 23 d8 3c
       0.078610465 0.040381175 0.030773604 0.026384309
000250 8c c6 19 3d 6b f2 6a bd b8 2a 25 3d 6c 80 9d 3d
       0.037542865 -0.057360094 0.040323943 0.0769051
000260 44 ad a3 3c 17 09 8f bd 84 56 7b bd 0a 86 91 3d
       0.01998008 -0.069841556 -0.061361805 0.07105644
000270 a8 ae 78 bd 48 34 09 3d fa 96 0a bd ac 0d 3d 3d
       -0.06071344 0.033497125 -0.03383539 0.046155617
000280 9e c0 18 bd 46 4c c4 bc 62 03 be 3a c9 22 a4 3d
       -0.03729307 -0.023962151 0.0014496858 0.08014447
000290 e1 dd 8d 3d 09 c0 5a bd da 22 6d bc 13 c9 17 bc
       0.06927086 -0.053405795 -0.014473641 -0.009264248
0002a0 5e c1 3c 3c 8d 01 cf bb a1 36 53 bd ee 4b 99 bc
       0.011520712 -0.0063173235 -0.05156577 -0.018712964
0002b0 38 b0 95 3c 96 f2 3e bd 80 28 2d 3d 77 c0 6d bd
       0.018272504 -0.046618067 0.042274952 -0.058044877
0002c0 30 59 13 3d 80 32 6f bc d0 fc 64 bc 19 c3 8c bd
       0.035973728 -0.0145994425 -0.013976291 -0.068731494
0002d0 6f f5 a5 3d 16 1d 24 bd a5 76 5b bd 6d b0 23 3d
       0.08103453 -0.0400668 -0.053579945 0.039963175
0002e0 9b d9 ec bc 5c ef 97 3d 3c 96 9d bd f0 41 85 3d
       -0.028912356 0.07418701 -0.076946706 0.06506717
0002f0 15 0c 8b bc 64 6a 89 3d 28 6a 85 bc a6 74 b0 3b
       -0.016973535 0.067097455 -0.01628597 0.0053849993
000300 a4 ae 9f bd c1 e3 05 bd b6 e7 96 bd c3 b8 85 bd
       -0.07796982 -0.032687906 -0.07368414 -0.06529381
000310 ab 7e 64 bd ee ee d2 3c a2 96 a9 3c 6d b3 a3 bc
       -0.055784862 0.025748696 0.02070171 -0.019983018
000320 e8 27 95 3c fd ce f8 bc 78 e4 6e bd 2f 60 0d 3b
       0.018207505 -0.030372137 -0.058323354 0.0021572222
000330 9b e4 6c bd ab 69 35 3d e4 06 28 3d 67 78 0e 3c
       -0.057835203 0.044290226 0.041022196 0.008695698
000340 34 a7 6c bd e8 7f 9c 3d 76 38 a7 bd d5 ae 7c bd
       -0.057776645 0.07641584 -0.08165066 -0.06169017
000350 63 a6 26 3d 29 af 91 bd 17 15 4f 3d 70 b4 a2 bd
       0.040686022 -0.07113487 0.050557222 -0.07944572
000360 c7 94 94 3d d0 3f 79 3d 19 7a 85 bd eb 8c 1e 3c
       0.072549395 0.060851872 -0.06517429 0.009677152
000370 35 3d 59 bd e9 49 5f bc ab 3c 76 3b 0f 6b 3f 3b
       -0.053036887 -0.013628461 0.0037572782 0.00292081
000380 3b 6f b6 3c 44 15 9c bd 93 89 06 3c 23 6b 8e bd
       0.022269836 -0.076212436 0.008211511 -0.069540285
000390 a0 01 12 3d 36 0a 35 bc 8e 2b 18 3d 6f ee 42 3d
       0.03564608 -0.011049798 0.037150912 0.04759067
0003a0 ac 8c 77 3d e6 76 56 bd 38 7d d7 3c 4e 63 56 3c
       0.06043689 -0.052359484 0.026304826 0.0130851995
0003b0 21 41 7a 3d 2a 20 2a bb 01 c3 b8 bc a8 fe 7d bd
       0.061097268 -0.0025959113 -0.022553923 -0.062010437
0003c0 b6 7f 2b bd bb e7 1d 3d a3 b5 9d bd 9d 9b ea bb
       -0.04186984 0.038551074 -0.0770066 -0.007159664
0003d0 0a 3d bb 3b 64 a4 96 3d c4 4c 35 3d ed dd 76 3c
       0.0057140635 0.07355574 0.044262663 0.01506756
0003e0 f3 07 7f bd 57 35 f6 bc 38 79 3c bd a1 e0 8b 3d
       -0.06226344 -0.030054731 -0.04601404 0.06829954
0003f0 3d 08 2d 3d b9 46 68 3c 1b 87 8d bd 2a e8 3f bd
       0.042244185 0.014177018 -0.06910535 -0.04685227

model.4.bias f4 [32]
000000 5f 12 83 3d c1 02 10 bc 60 2f a8 3b 8b 05 86 3d
       0.063999884 -0.008789719 0.0051326007 0.06544026
000010 1c 08 16 bd 38 3e 5d 3c 06 85 54 39 07 69 7c 3d
       -0.036628827 0.013503604 0.0002026745 0.0616236
000020 33 1d 33 3d c7 f8 99 bd 4f e2 16 3d 34 65 ce bc
       0.04372902 -0.07518154 0.03683692 -0.025194742
000030 b8 e1 e6 3c d2 37 55 bd 1e ca 85 3d 9f 84 a2 3d
       0.028183803 -0.052055188 0.065326914 0.07935452
000040 65 19 81 3d 8e d6 9b bc 62 13 a2 3b fc d5 90 bd
       0.06303672 -0.019023206 0.0049461583 -0.07072064
000050 14 57 12 3c 24 83 32 3d 4a c6 0b 3d 11 ed 32 3c
       0.008931894 0.043582097 0.03412465 0.010920779
000060 45 8f bf bb 60 10 74 bd 4f 54 c1 3c 2d ad 2d bc
       -0.0058459365 -0.05958593 0.023599772 -0.01060037
000070 ba 7f 6e 3d 37 70 0d bd 8a a3 89 bc 0f 7d 59 bd
       0.05822728 -0.034530845 -0.016801614 -0.05309778

model.5.weight f4 [32]
000000 ce bf 7f 3f e4 43 80 3f ff bd 7f 3f b9 25 80 3f
       0.99902046 1.0020719 0.99899286 1.0011512
000010 6f d5 7f 3f 7c 19 80 3f d1 1a 80 3f ee 34 80 3f
       0.9993505 1.0007777 1.0008184 1.0016153
000020 49 8a 7f 3f b1 4d 80 3f 39 c3 7f 3f 58 98 7f 3f
       0.9982038 1.002371 0.9990726 0.99841833
000030 6c 06 80 3f 03 f1 7f 3f a1 04 80 3f 42 25 80 3f
       1.000196 0.9997713 1.0001413 1.001137
000040 61 14 80 3f b1 b5 7f 3f 38 6b 80 3f df 57 80 3f
       1.0006219 0.99886614 1.003272 1.0026816
000050 96 f6 7f 3f f4 34 7f 3f b5 29 80 3f 8d 83 7f 3f
       0.99985635 0.99690175 1.0012728 0.99810106
000060 2d c7 7f 3f 7b 23 80 3f 0f 38 80 3f 14 47 80 3f
       0.99913293 1.0010828 1.0017108 1.0021691
000070 bd 05 80 3f d1 d2 7f 3f 0d 57 7f 3f a0 60 7f 3f
       1.0001751 0.99931055 0.99742204 0.99756813

model.5.bias f4 [32]
000000 d8 e6 d4 ba 68 01 c3 3a 5e be 6f ba d9 a3 9d 3a
       -0.0016243113 0.0014877738 -0.00091454934 0.001202698
000010 bc 0d 03 3a 79 8a 4d 3b 72 33 51 3a c8 ab b1 ba
       0.00049993 0.0031363054 0.0007980383 -0.0013555223
000020 1c 1a 44 3a 1e 1a fa 3a a9 cc 1a 3a d3 78 11 ba
       0.0007480697 0.001908127 0.00059051305 -0.0005549315
000030 de a7 b2 3a 4b 93 7c 39 d2 aa 0d ba bd 29 1e 3b
       0.0013630351 0.00024087464 -0.00054041774 0.0024133765
000040 e5 c8 ce 3a f7 75 d2 ba 7d 37 fb 3a d2 de 32 3b
       0.0015776424 -0.0016056885 0.0019166317 0.0027293456
000050 d7 2d b4 3a 85 ca 5c bb 77 eb e5 3a 93 ab 16 bb
       0.0013746571 -0.0033690047 0.0017541487 -0.002299045
000060 28 7a f2 b9 1b a5 58 39 12 a8 06 3b 26 54 eb 3a
       -0.0004624885 0.00020660872 0.0020546955 0.0017954155
000070 61 47 20 3b 86 18 1d b9 6f 87 9f ba 28 0e f5 39
       0.0024456608 -0.00014981822 -0.00121711 0.0004674059

model.5.running_mean f4 [32]
000000 3b c4 33 3d 96 c0 f6 bd 8b c5 85 3e e5 db 0c 3c
       0.04388831 -0.120484516 0.26127276 0.008597349
000010 0b 7e 83 3e dd 73 ab be eb 06 60 be 8f 3d 9b 3d
       0.256821 -0.33486834 -0.21877639 0.07580101
000020 e6 01 01 3d 61 aa ca be b5 32 f2 bd 2c 34 84 3d
       0.03149595 -0.39583114 -0.11826078 0.064552635
000030 ff 39 3c 3d 52 00 2d 3e 41 9c a4 3d ff c2 aa 3e
       0.045953747 0.16894653 0.080376156 0.33351895
000040 0f 18 21 3e 52 33 2b bd 38 18 6b be 59 39 de be
       0.15731834 -0.04179699 -0.22958457 -0.43403128
000050 80 20 39 3e ab 32 9c 3d c5 b6 72 be 07 4e c5 bd
       0.18078804 0.07626852 -0.23702534 -0.09634023
000060 ad ff a4 3d 7d 3c e8 bc 78 3b 8b be 95 19 6d 3c
       0.08056579 -0.028349156 -0.2719381 0.014471431
000070 1c 69 62 3e a1 77 68 bd 2a 96 40 3e 59 1a 00 be
       0.22110409 -0.056754712 0.18807283 -0.12510051

model.5.running_var f4 [32]
000000 54 20 e5 3c c2 df 4b 3d 0c 99 2c 3e 81 ad a3 3e
       0.027969517 0.04977394 0.16855258 0.3196831
000010 2b 20 a0 3e e0 32 5d 3d 8b 5d 86 3d 25 f8 ca 3c
       0.31274542 0.054003596 0.06560811 0.024776528
000020 d3 b8 0f 3d c3 5b c5 3e 3f 48 d4 3d 25 b1 10 3f
       0.03508837 0.3854657 0.10365342 0.565203
000030 42 1a 46 3d 3a 4d 92 3e c8 71 8b 3d 2a 24 54 3e
       0.048364885 0.28574544 0.068088114 0.2071692
000040 21 7d 6e 3e 32 37 fb 3c bd 77 85 3d d2 34 cb 3d
       0.2328992 0.030665968 0.06516979 0.09922184
000050 b8 42 5c 3d 96 8f 65 3d 75 b7 0b 3e 43 cf d9 3c
       0.053774565 0.056045137 0.13644202 0.026588088
000060 8b 60 f2 3c 26 dd 51 3d d9 b1 c8 3d c5 53 d4 3c
       0.02958705 0.051236294 0.09799547 0.02591885
000070 68 27 6f 3e ea aa 7d 3e 5f f7 00 3d 6c 23 57 3d
       0.23354876 0.2477223 0.03148591 0.052524015

model.7.weight f4 [32, 32, 3, 3]
000000 87 64 5c bd ab 32 45 3d ac 6f 01 bd 76 28 66 bd
       -0.053806808 0.048144024 -0.03160064 -0.05619093
000010 dc 4d cd 3c b3 29 af bc f3 a8 12 3c 05 6f c3 3c
       0.02506154 -0.021382188 0.008951413 0.02385665
000020 98 6a 43 bd c4 d1 fc bc 3c fb e9 3b 0a 81 3c bd
       -0.047709078 -0.030861743 0.007140545 -0.0460215
000030 7d ad de 3c 9e eb ff bc 78 f3 6e 3c 74 3f ba 3c
       0.027182335 -0.03124028 0.014584415 0.022735335
000040 ae 21 09 3d 2b da 6a bd 71 e4 0c 3d 38 5e d5 bb
       0.033479385 -0.057336967 0.034397546 -0.006511476
000050 35 cb 5e bd 2c bc be bc b1 2a a1 bc 72 99 50 3d
       -0.054393012 -0.023283087 -0.019673677 0.050927587
000060 10 5c b8 3c fc 08 5d 3d 84 b5 15 bd 2d b7 36 3d
       0.022504836 0.053963646 -0.03655006 0.044608284
000070 14 85 69 3d 1a 96 01 3d 99 2a 32 3d 0c d3 3d 3d
       0.05701168 0.03163729 0.043497656 0.046343848
000080 fc 11 51 3d c7 d2 1f 3d df 3c 56 3d 5a 8c a3 bb
       0.05104254 0.039019372 0.052304145 -0.0049910964
000090 3d 99 22 3d 73 8f 6d bd e3 47 e9 3c db 9c 58 bd
       0.03969692 -0.057998132 0.028476661 -0.052883964
0000a0 09 73 8c bc 06 48 4f bd 60 4a 0e 3d 0c 72 09 bd
       -0.017144697 -0.050605796 0.0347389 -0.03355603
0000b0 9e cd 48 bd f3 84 96 bc e8 04 15 bd b3 7a 18 bc
       -0.049024217 -0.018373942 -0.036381632 -0.0093065975
0000c0 5b 6d 4e bd 11 f5 32 3d 61 db 22 3c dd cf 72 bd
       -0.05039726 0.043690745 0.009939999 -0.059280265
0000d0 4c d0 5d bd a5 19 a5 3b cc 45 52 3c f5 df 27 bd
       -0.054153726 0.0050384575 0.012834024 -0.040985066
0000e0 3f 82 31 3c da 40 07 3d 68 a1 c0 bc 0e 8b c7 bc
       0.010834276 0.03302083 -0.023514464 -0.024358299
0000f0 13 cf fb 3c 90 4b 53 bb da 40 ee 3b ff 53 0a bd
       0.03073839 -0.0032241084 0.0072709145 -0.03377151
000100 de cc 3b 3c 4f e0 a4 ba 30 4d a3 3c 06 5d d1 3c
       0.011462418 -0.0012579056 0.019934267 0.025557052
000110 49 8e 1f bd 36 c3 1e bd 0f 5d 8c bc a0 15 33 3c
       -0.038954053 -0.038760386 -0.017134218 0.010930449
000120 65 e5 39 bd ca fb 1d 3c 41 d8 da 3c d9 89 6c bd
       -0.045384783 0.009642551 0.026714446 -0.05774865
000130 e6 cd 08 3c 22 5b 26 bd 6c ed 41 3d 60 76 5c 3d
       0.008349871 -0.040614255 0.047345564 0.05382383
000140 f2 b6 2e bd f3 a3 a1 3c 6d 91 98 bc ef 35 a2 3c
       -0.04265494 0.019731497 -0.018624032 0.019801108
000150 a1 f5 fe bc 19 f0 69 3c 7c 76 d7 37 53 c2 51 bc
       -0.031122984 0.014278435 2.568517e-05 -0.012802678
000160 f2 dd 54 bd 01 99 3a bd 29 ec 2a 3b 37 3a 0f bc
       -0.051969476 -0.045556072 0.0026080704 -0.008741907
000170 c7 45 12 3d d0 7b 12 bd d8 a0 97 b8 d5 55 b5 bb
       0.035711076 -0.035762608 -7.2302006e-05 -0.0055339136
000180 84 3c 64 bd 81 15 d9 3c ff 61 6a 3c e4 63 75 bd
       -0.055721775 0.026499512 0.014305591 -0.059909716
000190 90 89 3d 3d c3 97 8c bc e6 7a 75 bd 77 7a 0f 3c
       0.046273768 -0.01716221 -0.05993166 0.008757225
0001a0 b5 a8 b0 bc 17 9d 31 bc 92 19 07 3c 2f e9 32 3d
       -0.02156482 -0.010840676 0.0082458425 0.043679412
0001b0 b5 66 a5 bc 61 b3 0f 3d 69 b2 05 3d e2 31 59 bc
       -0.020190576 0.03508318 0.03264085 -0.013256522
0001c0 f0 d1 75 bc e1 fb b6 3c 69 f7 1e 3b 76 5c 4a bd
       -0.015003666 0.022336902 0.0024256355 -0.049404584
0001d0 93 25 26 bd c3 a7 08 bd 0a ba cf bc 6c f0 f7 3c
       -0.040563177 -0.033363115 -0.025357265 0.03026601
0001e0 cd 1f 39 bd 2f 1a 3e 3c 5f b4 fa bc 48 cc 55 3d
       -0.045196343 0.011602922 -0.030603586 0.05219677
0001f0 61 4a 14 3d f1 68 1e bd ce ee 1c bd c7 58 84 bc
       0.036203746 -0.0386743 -0.03831368 -0.016155614
000200 0c 0c 24 3d cc 5b 86 bc 3c e6 bc 3c aa 90 93 bb
       0.04005055 -0.016401194 0.023059003 -0.0045033293
000210 2b 0a 79 bc 34 85 ca bc 59 7b 6d 3d 0c 98 51 bd
       -0.015200178 -0.02472172 0.05797896 -0.051170394
000220 c6 34 45 3d d4 64 bc bb b1 ae 48 bd 0e c0 c2 3c
       0.04814603 -0.0057493243 -0.048994724 0.02377322
000230 c5 ef 2e bd f5 b6 9e 3c ef df a7 3a 6b 9d d5 3b
       -0.04270913 0.01937435 0.0012807826 0.00651901
000240 6a 91 77 bd 23 7c 61 3d 20 72 26 3d 93 75 1f 3d
       -0.060441412 0.055050027 0.04063618 0.038930487
000250 87 1c 42 bd 0a 0c 89 bc 14 b7 e3 3c ab dc a7 bb
       -0.047390487 -0.016729373 0.02779726 -0.005122741
000260 5d 7e 11 bd 38 49 ef 3c b3 12 a6 3c f1 97 c4 3b
       -0.0355209 0.029209718 0.020272588 0.005999558
000270 15 b4 49 3d fe a8 07 3d 99 cf 85 3a c4 63 0f 3d
       0.049244005 0.033120148 0.0010208964 0.035007253
000280 0e 60 ed bc 2b f0 dc 3b 54 5e cf 3b 18 97 44 3c
       -0.028976467 0.0067424974 0.0063283835 0.011998914
000290 44 b9 14 3d d4 c6 44 bd 72 90 71 bd 5b 68 2c 3d
       0.036309496 -0.04804118 -0.058975644 0.04209171
0002a0 f3 54 66 3d 6c 3b f8 3b f9 d8 68 bd cf e4 43 bd
       0.056233358 0.007575443 -0.056847546 -0.04782563
0002b0 ec 34 20 3d b6 1b 14 bd 60 20 70 3c df 76 55 bc
       0.03911297 -0.03615924 0.014656156 -0.013028829
0002c0 5f 7a 06 bd 1c 1f 5a 3d 76 71 cc 3c c7 65 5e 3d
       -0.032831546 0.053252324 0.024956446 0.05429628
0002d0 ea 78 fa 3c 2a 14 3f 3d 56 4d 53 bc a3 ca 91 bc
       0.030575234 0.04665009 -0.012896856 -0.01779682
0002e0 fa bf 2c 3d 97 44 68 bc 4c b7 38 bc a9 53 67 3d
       0.04217527 -0.014176509 -0.01127417 0.05647627
0002f0 21 13 6b 3c b8 97 d3 bc 24 cd 6d bb d6 ce 25 3d
       0.014347822 -0.025829181 -0.0036285603 0.040480457
000300 4d 5c 20 bd d7 10 18 3c 2d 9b 20 bd e1 13 74 3d
       -0.039150525 0.009281359 -0.039210487 0.05958927
000310 bb cc 93 bb e0 63 17 3d fc 4c 38 3d f4 cb 1e 3d
       -0.0045104898 0.036960483 0.044995293 0.038768724
000320 45 c9 68 3d 9a 03 16 3d 24 92 2b bd b5 6c 0f bc
       0.05683257 0.03662453 -0.041887417 -0.008753945
000330 aa f6 48 3d 41 ff 1e bb f0 5e 28 bc 1f 22 67 3c
       0.049063362 -0.002426103 -0.010276541 0.014107256
000340 d8 5c cc bc 6c 0a 61 3c b4 76 4a 3c 0f 98 42 bc
       -0.024946615 0.013735395 0.012357403 -0.011877074
000350 d4 84 c0 3c df 27 db 3c 8f 21 93 bc 87 17 e9 3c
       0.023500837 0.02675241 -0.017960338 0.028453602
000360 71 25 eb bc a9 ce 8b bb 08 54 ca 3c af 4a 68 bd
       -0.028704377 -0.004266579 0.024698272 -0.05671185
000370 96 f5 2f 3d e6 5d 16 3d 95 43 fc 3c 5f 7f 69 3b
       0.04295882 0.036710642 0.030793944 0.0035628898
000380 fe c4 00 bd 83 f3 40 3d 28 db 44 ba a9 75 f8 3b
       -0.031437866 0.04710723 -0.00075094635 0.0075823856
000390 ec 8e a7 bb 1d eb a5 3b 14 1a 5b bd 93 b1 05 3d
       -0.005113473 0.005063428 -0.053491667 0.03264005
0003a0 1c bf 6e bd e9 a8 a5 3c 47 83 b7 bc e7 ef 4a bd
       -0.058287725 0.020222144 -0.022401465 -0.049545195
0003b0 0f 84 45 bd 52 d5 87 3c f0 64 4e bc fb 57 43 3c
       -0.048221644 0.016581211 -0.012597308 0.011922832
0003c0 60 82 db bc 3a c3 01 bb 67 2c 0e 3d 8d 14 3f bc
       -0.026795566 -0.0019800202 0.034710314 -0.0116626145
0003d0 4f 2f cb bc c2 27 2f 3c 79 bf 32 3d eb 8a 26 bd
       -0.024802832 0.010690631 0.043639634 -0.040659826
0003e0 fe 1b 50 3d f0 be 3c 3d 02 2e ed 3c af ee 2a 3c
       0.050807945 0.04608053 0.028952602 0.010432883
0003f0 b4 ff 3c bd 1e 24 53 3d a0 2a 21 bd 23 15 16 bd
       -0.046142295 0.051548116 -0.03934729 -0.03664125

model.7.bias f4 [32]
000000 87 00 a0 3c 13 89 34 bd 11 c1 fa bc 21 cc 33 3c
       0.019531501 -0.044076037 -0.03060964 0.010973961
000010 88 37 33 bb d4 11 b6 ba 1b ee de 3c 38 a7 6a bc
       -0.0027346332 -0.0013890811 0.027213147 -0.014322095
000020 1b 59 df bc 8c dd 11 3d 78 ac 0b bd ab b7 0d 3d
       -0.027264168 0.035611674 -0.034100026 0.034598988
000030 72 42 bd 3b 81 74 bf 3c 3e f9 11 3d 65 49 2f bc
       0.005775743 0.023370983 0.035638086 -0.010698651
000040 f9 5b 6a 3d af 95 e8 bc 18 8b 2d bd 85 6d 3c bd
       0.05721662 -0.028391687 -0.04236898 -0.046002883
000050 0a 56 02 3c 4d 60 67 3d 3e 5f 75 bc 64 36 07 3d
       0.007955084 0.056488324 -0.014976321 0.033010855
000060 c6 98 01 3d aa ee 9d bc fd a2 bf bc b0 96 24 3d
       0.031639837 -0.019278843 -0.023393149 0.04018277
000070 cc 71 63 3d fc 7d 64 bc 5d a6 48 3c 46 c9 80 bc
       0.055528447 -0.013946053 0.012246695 -0.015720975

model.8.weight f4 [32]
000000 bb 3c 7f 3f 89 0b 80 3f e8 0e 80 3f f0 20 80 3f
       0.9970204 1.000352 1.0004549 1.0010052
000010 21 a7 7f 3f ef da 7f 3f ce 21 80 3f 5d 65 80 3f
       0.99864393 0.9994344 1.0010316 1.0030934
000020 82 62 80 3f 5b 66 80 3f 26 72 7f 3f 68 27 80 3f
       1.0030062 1.0031236 0.9978355 1.0012026
000030 b1 1d 80 3f 0e a7 7f 3f 5e 39 7f 3f 2f 46 80 3f
       1.0009061 0.9986428 0.9969691 1.0021418
000040 8e 7e 7f 3f 70 fe 7f 3f ee 19 80 3f 30 8f 7f 3f
       0.9980248 0.99997616 1.0007913 0.9982786
000050 65 13 80 3f d2 2d 80 3f 2f 47 80 3f 97 63 7f 3f
       1.0005919 1.0013983 1.0021724 0.9976134
000060 1c c7 7f 3f 7e 82 7f 3f 35 65 80 3f 02 41 80 3f
       0.9991319 0.9980849 1.0030886 1.0019839
000070 d2 68 7f 3f a4 c5 7f 3f bb 56 7f 3f 8b 45 7f 3f
       0.9976932 0.9991095 0.99741715 0.9971549

model.8.bias f4 [32]
000000 47 70 a3 b9 fa f8 39 ba 71 b2 67 3a a3 69 a2 3a
       -0.00031173436 -0.00070942903 0.00088385405 0.0012391101
000010 a2 14 a3 ba 03 80 ca ba 8a 5f 63 ba cd 41 a7 3a
       -0.0012442062 -0.0015449527 -0.0008673599 0.0012760699
000020 f4 f2 37 3b 3f 5f 0b 3b 0f c7 19 3b c6 72 fe 3a
       0.0028068395 0.0021266488 0.0023464595 0.0019412867
000030 99 fc 07 3b 7e f8 b8 ba e6 aa b2 ba 96 b9 c2 36
       0.0020749925 -0.0014112142 -0.0013631254 5.8032556e-06
000040 dc b2 88 bb 34 97 07 3b 8b a2 4e ba cd d7 2e bb
       -0.0041717123 0.002068949 -0.0007882497 -0.002667892
000050 71 d1 d1 3a 0b b8 02 bb 34 82 00 3b 6c 49 1d ba
       0.0016007853 -0.0019946124 0.0019608857 -0.00060000154
000060 64 3a 80 ba cc 8a 6b 38 9e 9d 0f 3b 77 60 36 3b
       -0.0009783027 5.615763e-05 0.0021914016 0.0027828494
000070 f5 cc ee ba a9 a7 5d 3a 9e 6f 03 bb 19 90 0e bb
       -0.0018219041 0.0008455464 -0.0020055543 -0.002175337

model.8.running_mean f4 [32]
000000 0a f4 a9 3d af e6 05 be 12 7c da be 15 a7 00 3e
       0.082985 -0.1307628 -0.42672783 0.12563737
000010 83 97 33 3d 94 90 8b 3e b7 b2 75 3e 95 e7 15 3e
       0.043845665 0.27258742 0.23993956 0.14639123
000020 59 60 3a bd 6d 79 b9 be fa 04 06 3e d1 e1 23 3e
       -0.04550204 -0.36225453 0.13087836 0.16004111
000030 9c de 23 3e 5f 92 bd 3e c1 2a 81 3e f3 de 77 be
       0.16002887 0.37025735 0.2522793 -0.24206142
000040 cb 4d 26 3e 45 af 1c 3d 35 36 9b bc 5d ed bb 3d
       0.16240613 0.038253088 -0.018946746 0.09176133
000050 ac f9 8b bd 29 7d 10 3d 59 9c b6 be 1d 27 a8 bc
       -0.068347305 0.035275612 -0.3566616 -0.020526463
000060 2b 2c 3a 3e 2c 8d 33 bd 55 e6 6a 3d 7e 61 b1 3d
       0.18180911 -0.043835804 0.057348568 0.08661173
000070 2a 43 f6 3e f0 f8 9a 3e 0e 36 91 3e 25 5e b8 3d
       0.48098117 0.3026805 0.28361553 0.09002332

model.8.running_var f4 [32]
000000 de de 35 3e a7 c8 19 3e e4 ae 04 3e 33 fe f0 3d
       0.17760798 0.15017949 0.1295734 0.11767235
000010 5f af 9b 3d 58 d8 2c 3e 2d 52 56 3d 85 18 fc 3d
       0.07601809 0.16879404 0.052324463 0.12309364
000020 36 78 ca 3d ed 6e 55 3d a2 b3 97 3e ad f5 dd 3d
       0.0988621 0.05210774 0.29629236 0.108378746
000030 27 ad fa 3d 0d 0a be 3d 62 a2 0f 3e 95 0d ba 3d
       0.122400574 0.09279261 0.14026788 0.09084622
000040 83 b9 7f 3d b9 c8 5c 3d 55 6a 92 3d 8d 00 53 3e
       0.062432777 0.05390236 0.071491875 0.20605679
000050 22 5e 74 3d 11 a8 ad 3d 53 84 41 3e 98 69 f5 3d
       0.059660085 0.08479322 0.18898134 0.11983031
000060 33 79 20 3d 09 31 1c 3d 10 42 b0 3d 5a 05 97 3d
       0.039178085 0.0381327 0.086063504 0.073740676
000070 28 dc 87 3d 62 c3 ef 3d 25 50 81 3d 15 ed 21 3e
       0.06633788 0.11707188 0.063141145 0.15813096

model.10.weight f4 [64, 32, 3, 3]
000000 b5 7b f7 3b 9e 60 3b 3d 4f 9b 57 3d b7 11 a8 3a
       0.007552589 0.04574644 0.05263835 0.0012822662
000010 ef b5 60 bd 33 6c a6 bc 0f f8 74 3a f4 53 a5 3b
       -0.054861005 -0.020315265 0.0009344825 0.0050454084
000020 ed 3e 18 bd 70 f6 c8 3c 51 4a 9d 3c 52 a0 1c 3d
       -0.037169386 0.024531573 0.019200476 0.03823883
000030 4b 51 6a bd cd 95 01 bd 0f 1b 29 bd 7a f7 11 3d
       -0.057206433 -0.031637 -0.04128557 0.035636403
000040 90 57 53 3d 51 cc 84 3b 6b b3 35 3d d7 ca 8b 3c
       0.051597178 0.0040526767 0.04436056 0.017064495
000050 13 3c 57 bd be 11 63 3c 8e ca 64 bd 1b 04 3e bd
       -0.052547526 0.013859211 -0.055857234 -0.046390634
000060 a5 17 f5 3c 06 da 14 3d a5 77 78 3c 2e ab 20 bd
       0.029918501 0.036340736 0.015165244 -0.03922575
000070 0a 5f 6e bc fb de f8 3c 4b fa db 3c fe 7d 56 bd
       -0.014549026 0.030379763 0.026852747 -0.05236625
000080 71 76 62 bd 9b 4c 8e 3b da 99 67 3d a8 0b 46 3d
       -0.055288736 0.004342628 0.05654321 0.04835096
000090 be e3 b3 bc fa e3 9d bc 0a aa 3b 3d fa 82 3a 3c
       -0.021959182 -0.019273747 0.04581646 0.011383766
0000a0 b6 3d 4e bd cc 5d 64 3d a7 8e d6 bc 2c 06 49 3c
       -0.05035182 0.055753514 -0.026191069 0.012269538
0000b0 90 6b 4e bd e6 22 57 bd 2d 43 aa 3c 70 93 1a 3a
       -0.05039555 -0.052523516 0.020783985 0.00058966037
0000c0 10 80 10 3d 41 42 22 3d 3b ed 6f bd 1c ea 4a 3d
       0.03527838 0.039613966 -0.05857585 0.04953967
0000d0 d3 89 33 3c 5f a7 b4 bc 18 c9 d8 3c da 3e ec bc
       0.010958153 -0.022052465 0.026463076 -0.028838564
0000e0 bc 6f 48 bd 23 08 e7 3c 3d 11 b7 bc e6 cc 69 bd
       -0.048934683 0.028202122 -0.022347087 -0.057080172
0000f0 3e 00 84 3c b1 01 d0 bc 30 b5 0e bb 29 c2 26 3c
       0.016113397 -0.025391432 -0.0021775477 0.010178127
000100 77 15 3f bc fd cc db 3b 6f e0 4f 3d b9 08 9d b9
       -0.011662832 0.006707786 0.050751146 -0.00029951872
000110 00 db 74 3d 9f 35 2f bd 6e 27 93 3b f6 86 09 3d
       0.059779167 -0.042775746 0.0044907844 0.033575974
000120 3e 70 a3 3c ca b8 43 bd a5 6b 6c 3c b1 fb 39 3d
       0.019950982 -0.04778365 0.014429961 0.045406047
000130 57 33 0b 3c c1 c7 31 3d d2 93 fc 3c 1b 79 a1 bc
       0.008496127 0.04340339 0.030832205 -0.019711068
000140 97 31 85 3c c7 90 d7 3b d5 51 eb bb 2a df db bc
       0.016258998 0.006578538 -0.007181386 -0.026839811
000150 5f 7d dd 3c f6 36 59 3d 78 c1 a2 3c c7 30 05 bd
       0.02703732 0.05303093 0.019867644 -0.03251722
000160 d8 c6 22 3d a3 e6 81 3d d8 ea 36 bd e0 70 1a 3d
       0.039740413 0.063428186 -0.04465756 0.037705302
000170 09 fb 6f 3c 42 df da bc 48 1e 25 3d 52 e0 19 bd
       0.014647254 -0.026717786 0.04031208 -0.037567444
000180 6c cb 46 3b 3e b6 8e bc c6 fd 53 3d a7 c6 99 bc
       0.0030333651 -0.017420884 0.05175569 -0.018771483
000190 53 5a f1 bc 5d 00 89 bc ef c2 44 3d a3 fa 44 3d
       -0.029462015 -0.016723806 0.048037466 0.04809059
0001a0 c9 ac b3 3c b8 5c aa bc b2 8a 64 3d 76 d9 62 3d
       0.021932976 -0.020796165 0.055796333 0.05538317
0001b0 d4 dc 38 bd 16 c3 74 3d 71 12 e4 3c 20 81 ec 39
       -0.045132473 0.05975636 0.027840825 0.00045109633
0001c0 7e cf 52 3d e2 80 fd 3b 0e f6 43 bd f5 e6 41 3c
       0.05146741 0.0077363113 -0.047842078 0.01183485
0001d0 2c 23 2c 3c ed ad 5e 3d 2c cf 90 3c 06 cf df bc
       0.0105064325 0.054365087 0.017676912 -0.027320396
0001e0 a1 8e f8 3c 4b 58 04 3d d0 09 63 bd bd 1d 81 bc
       0.030341448 0.032310765 -0.05542928 -0.01576125
0001f0 95 1c a9 3c de 8c be bc 44 fb e0 3c 5a 21 52 bb
       0.020643512 -0.02326053 0.027463563 -0.0032063336
000200 cc 97 e9 3c 98 c0 08 bc 44 66 77 bb 56 1c 1d 3d
       0.028514765 -0.008346699 -0.0037750164 0.0383571
000210 d3 26 5a 3d 5e 57 36 3d 7a 4a e7 3c 55 8d 44 bd
       0.053259682 0.044516914 0.028233755 -0.047986347
000220 12 34 a1 bc ef c4 e7 3c 6b 9b 13 bc 9f e2 4d 3d
       -0.01967815 0.028292147 -0.0090092225 0.05026495
000230 82 58 f9 bc 9c d8 14 3b e6 86 4d 3d 3a 82 62 bc
       -0.030437712 0.0022712117 0.050177477 -0.013824994
000240 ed 79 33 bb dc da 20 bd 7a f6 36 bd b5 cf 47 3c
       -0.0027385906 -0.03927122 -0.044668652 0.012195517
000250 13 fd da 3c 81 73 da bc e3 1f e4 3c f9 0f 4e bd
       0.026732003 -0.026666405 0.027847236 -0.0503082
000260 6a ae 3a bc 7a 87 b0 3c a6 33 20 bc 28 c1 20 bd
       -0.011394123 0.021548975 -0.009777939 -0.03924671
000270 6b 30 61 bd eb 55 2b bd ba a4 1d 3d 5a 99 5b 3d
       -0.054977816 -0.041829985 0.038487174 0.053613044
000280 b3 e1 df bb 61 60 63 bd 97 fa e4 3a 6d a1 20 3d
       -0.0068323254 -0.055511836 0.0017469701 0.039216448
000290 7e 8e 1e bc d8 d0 e3 bc 3b aa 51 bc 91 21 35 bd
       -0.0096775275 -0.027809545 -0.012796934 -0.044221465
0002a0 fc d4 18 bd 50 e0 23 3d 5c 5f 3e 3d eb 7b 66 3d
       -0.037312493 0.040008843 0.04647766 0.05627052
0002b0 31 7e 50 bd de 7b 46 bd 03 cb 43 bd b9 3c ed 3c
       -0.050901596 -0.048457973 -0.04780103 0.028959619
0002c0 d0 46 be 3b 10 9d ba bc 8b 9c 7e bc 6f 1b 35 3d
       0.0058067814 -0.022779971 -0.015540252 0.044215616
0002d0 d6 c6 5c 3d 2b b1 14 bd e0 37 8b bc d0 3a f7 3c
       0.053900562 -0.036301773 -0.016994417 0.030179411
0002e0 71 d7 7d bc a3 a0 36 3d 41 96 65 3d dc fa ca 3c
       -0.01549326 0.04458679 0.056051496 0.024777822
0002f0 4d 8a 04 bd aa 20 72 3d 18 00 2f bd 8a ba 3d 3d
       -0.032358456 0.059113182 -0.0427247 0.046320476
000300 11 c1 cd bc 40 68 48 3d ad de 09 bd a3 b9 12 bd
       -0.025116475 0.048927546 -0.033659626 -0.03582157
000310 71 72 64 bd ad 4d 11 3d 0e 71 65 3d 9b b3 c3 bc
       -0.055773202 0.035474468 0.05601602 -0.023889353
000320 33 6e 61 3d 11 08 01 bd 2a 4a ec 3b d9 a4 96 3c
       0.055036735 -0.031501833 0.0072109895 0.018389152
000330 b0 af 2e bd 5f d2 6f 3d 9b d8 c1 bb 21 6d ee bc
       -0.042648017 0.058550235 -0.005915714 -0.029104771
000340 7f 86 0c 3d 99 f4 fb bb b9 cd f8 ba 80 f5 22 bd
       0.034307953 -0.0076890704 -0.0018982209 -0.03978491
000350 c7 1b 61 bc a7 93 2a 3d 97 59 e8 ba 11 15 24 bd
       -0.013739533 0.04164472 -0.0017726895 -0.040059153
000360 32 62 cc 3c f0 af 16 bc 22 ad 60 3c 72 35 48 bd
       0.024949167 -0.00919722 0.013713153 -0.048879094
000370 bb 04 0a bd 7b 5c 11 bc ea 64 2b 3d a4 4e c4 bc
       -0.033695918 -0.008872147 0.041844286 -0.02396328
000380 93 44 7b bc 29 dd 37 bd a9 39 15 bd a9 92 4f 3d
       -0.015336174 -0.04488865 -0.036431942 0.050676975
000390 84 d1 04 3d aa 0f d4 3c c5 37 fa 3c 9a cd 36 3d
       0.032426372 0.025886375 0.030544171 0.04462967
0003a0 e1 9f e6 bc be 00 59 ba 9c 67 b0 3c af 35 29 bc
       -0.028152408 -0.00082780037 0.02153378 -0.010327741
0003b0 52 c8 9b bc 0f 20 f4 3c 19 72 d5 b9 d5 8e 0c 3d
       -0.019016419 0.029800443 -0.00040711535 0.034315903
0003c0 f9 1d 30 bd 8c 2f 28 bc 11 5f 71 bd 11 2e db bc
       -0.042997334 -0.010265242 -0.058928553 -0.026755365
0003d0 d2 a7 33 3c 8b fc ff ba ab 6a db 3c 3e 96 69 bc
       0.010965304 -0.001953022 0.026784262 -0.014257012
0003e0 be 3a 77 3d 81 21 86 3c 4c 05 f4 bc 0e 7d 47 bd
       0.060358755 0.016373398 -0.029787682 -0.048703246
0003f0 41 2c 43 3d 5d df 9a 3c bf 77 3f bc e4 31 60 3c
       0.047649626 0.018905336 -0.011686265 0.01368377

model.10.bias f4 [64]
000000 fb 91 3e bd db 26 ce bc 15 61 83 bb bd 7a b2 bb
       -0.046525937 -0.025165012 -0.004009376 -0.0054467604
000010 80 0a 59 bc 78 b9 6f 3d 24 9d 9b 3c 4d 3f 5b bd
       -0.013247132 0.058526486 0.018995829 -0.053527165
000020 e2 84 04 ba 4d 90 67 3d f7 99 6f 3d 9b c6 d1 3c
       -0.00050552015 0.0565341 0.05849644 0.025607398
000030 57 23 a8 3b a8 18 d1 bb 45 cc 16 bd 49 d3 3c bd
       0.005131166 -0.006381113 -0.0368159 -0.046099935
000040 df 91 09 3d 4b 0a 4c bc 00 14 29 bd 32 ef 48 bd
       0.03358638 -0.012453626 -0.04127884 -0.04905624
000050 bd 5c c9 bb 86 c7 08 3c 35 07 20 bd a2 5c 2a bd
       -0.0061450885 0.008348351 -0.039069373 -0.041592248
000060 6d 2a 3c bc 7c 57 54 bd 66 d1 f0 3c 3e 2a a7 bc
       -0.0114847245 -0.051841244 0.029396724 -0.020405885
000070 69 07 37 3d 3c 8e 74 3c ad c0 2a 3d a6 a0 fa bc
       0.0446848 0.014926489 0.041687656 -0.030594181
000080 8d 62 df ba 47 f1 38 bc 2d a2 5d 3d e7 a0 42 bc
       -0.001704292 -0.011287994 0.05410974 -0.011879182
000090 e0 0c 2c bc 4f 76 19 bd aa 93 90 3b 7e cd 0f bd
       -0.0105011165 -0.037466343 0.004412134 -0.035108082
0000a0 ee 7f 50 3c b0 e3 13 bd 18 8f 5d bc 81 7b 22 bd
       0.012725813 -0.03610581 -0.013522886 -0.039668564
0000b0 80 71 1a bd 9b 92 44 3d 00 74 59 3d 16 56 b2 3a
       -0.0377059 0.047991376 0.05308914 0.0013605978
0000c0 ad 3c c7 bc 14 aa 18 bc 6b ff bd bc 8e ba 91 bc
       -0.024320925 -0.009317894 -0.023193082 -0.017789152
0000d0 58 63 5c bd bd 50 83 3c 01 36 3b bd 7a 0b b2 3c
       -0.05380568 0.01602971 -0.0457058 0.021733988
0000e0 72 71 6e 3c f8 c1 59 bd 95 a9 93 3c 28 4d 62 bd
       0.014553415 -0.0531635 0.018025199 -0.055249363
0000f0 d8 13 9d bc 5b d4 72 bc 75 64 5b 3d 4f 8e c3 3c
       -0.019174501 -0.014821137 0.0535626 0.023871569

model.11.weight f4 [64]
000000 93 dd 7f 3f 38 1c 80 3f 11 ad 7f 3f bb 6f 80 3f
       0.9994747 1.0008612 0.99873453 1.0034097
000010 e6 f2 7f 3f b3 29 80 3f 7e 38 80 3f c3 60 80 3f
       0.9998001 1.0012726 1.001724 1.0029529
000020 b4 5f 7f 3f 8f e1 7f 3f 90 56 80 3f 64 dc 7f 3f
       0.99755406 0.9995355 1.0026417 0.99945664
000030 35 07 80 3f f3 e2 7f 3f f7 00 80 3f ce 96 7f 3f
       1.00022 0.9995567 1.0000294 0.99839485
000040 1a 2e 80 3f 15 dd 7f 3f cf 1b 80 3f 46 06 80 3f
       1.0014069 0.9994672 1.0008487 1.0001915
000050 af 13 80 3f fe 92 7f 3f 15 37 80 3f 0d 3d 7f 3f
       1.0006007 0.9983367 1.001681 0.9970253
000060 57 44 7f 3f a2 79 7f 3f 88 c2 7f 3f 39 87 7f 3f
       0.99713653 0.9979497 0.99906206 0.9981571
000070 d0 0f 80 3f 5d 03 7f 3f 14 74 80 3f f7 4d 7f 3f
       1.0004826 0.99614507 1.0035424 0.9972834
000080 cb 79 7f 3f 60 6d 80 3f 0c 68 7f 3f d0 8e 7f 3f
       0.99795216 1.0033379 0.9976814 0.9982729
000090 72 91 7f 3f 50 c0 7f 3f 8f 4f 80 3f b2 32 80 3f
       0.99831307 0.9990282 1.0024279 1.0015471
0000a0 d9 14 7f 3f aa 36 80 3f 75 6e 7f 3f 20 13 80 3f
       0.99641186 1.0016682 0.9977792 1.0005836
0000b0 15 50 80 3f ea 62 80 3f 77 15 80 3f 9f 20 80 3f
       1.0024439 1.0030186 1.000655 1.0009955
0000c0 bd 1d 80 3f 4f 58 80 3f 64 41 80 3f d1 18 80 3f
       1.0009075 1.002695 1.0019956 1.0007573
0000d0 05 52 80 3f 26 ff 7f 3f 6f 53 7f 3f 2a 1d 80 3f
       1.002503 0.999987 0.99736685 1.00089
0000e0 d9 9b 7f 3f bf 55 80 3f 6e b0 7f 3f ef b0 7f 3f
       0.9984718 1.0026168 0.99878585 0.99879354
0000f0 df 7e 7f 3f 2d 27 80 3f ce f4 7e 3f 15 7b 7f 3f
       0.99802965 1.0011955 0.9959229 0.99797183

model.11.bias f4 [64]
000000 a4 40 86 39 32 ed 32 ba 84 37 eb ba 42 72 32 3b
       0.00025606633 -0.0006825506 -0.0017945622 0.0027228747
000010 07 de b1 39 54 23 b6 b8 ab 08 59 3b 78 92 09 3b
       0.00033925494 -8.685017e-05 0.0033116739 0.0020991843
000020 f3 de 30 bb ee b2 ab ba 0b 7f 2e b9 b8 38 b5 39
       -0.0026988357 -0.001309959 -0.0001664126 0.0003456527
000030 7a b0 23 3b 86 c0 87 b8 e7 8d 10 3a cc 2f 63 bb
       0.0024977014 -6.473162e-05 0.0005514309 -0.003466594
000040 cf 05 b2 b9 9c 9b da b9 6a 7e ca 3a 29 36 45 b9
       -0.00033955133 -0.00041696138 0.0015449051 -0.0001880756
000050 21 af e4 38 35 d9 be ba 0e c6 eb b9 48 d6 11 bb
       0.000109045075 -0.0014560582 -0.00044970255 -0.0022252966
000060 e2 eb 0a bb ec c7 23 3a 77 3e ab b9 d4 1b 24 bb
       -0.0021197726 0.0006247747 -0.00032662202 -0.0025041
000070 5b bc 24 ba 3a 1e 4e bb ef 8e 72 3b e4 3e 1a bb
       -0.00062841707 -0.0031451122 0.0037011465 -0.002353602
000080 95 d6 7f ba 12 b9 b4 3a 1c 0c 8d 3a 46 aa 10 bb
       -0.0009759453 0.0013788065 0.0010761055 -0.0022074147
000090 fa c4 3f b9 d9 87 66 ba 4d 68 3e 39 e5 25 2c 3b
       -0.00018288559 -0.00087940466 0.00018158667 0.0026267704
0000a0 1b 00 ad ba ce 8b 9b 3a 69 fa b3 ba 7f 4c 0a 3b
       -0.0013198884 0.0011867227 -0.0013731244 0.0021102724
0000b0 eb ea 2f 3b da e7 9f 39 d8 9a fa 3a a8 b8 62 3a
       0.0026842903 0.00030499586 0.0019119633 0.0008648732
0000c0 f5 1a 87 39 47 fb 10 3b 5c f5 55 3b 44 14 f8 3a
       0.0002576929 0.002212243 0.0032647466 0.0018926938
0000d0 f3 0c 93 3a f3 67 8b 3a 30 7e e2 ba 1d b2 09 ba
       0.0011219069 0.0010635838 -0.0017280038 -0.0005252676
0000e0 7c 6a 7b ba 6e fa 0d 3b 66 8f d2 ba 61 b9 b2 b8
       -0.00095907575 0.002166416 -0.0016064465 -8.522231e-05
0000f0 ad 77 54 38 09 cb 6f 3b 6b 36 1c bb 14 a7 f7 b9
       5.0656196e-05 0.0036589524 -0.0023836147 -0.00047235994

model.11.running_mean f4 [64]
000000 65 a5 d1 3d 91 00 77 be eb 91 de 3d a5 1e 70 3e
       0.10236625 -0.2412131 0.108676754 0.2344919
000010 c4 7c 87 bd e4 7e 01 3e 69 9f f9 3b 9c ce 8a be
       -0.06615594 0.12646061 0.00761788 -0.27110755
000020 32 2d 05 be b1 8e a3 3c ee d4 3a 3e 38 75 3c be
       -0.13005522 0.019965502 0.18245289 -0.1840409
000030 ad b1 f8 bd 5b 6a 9f 3e 89 47 d5 be eb bc 69 bd
       -0.12143264 0.3113583 -0.4165614 -0.05706493
000040 dd e0 f4 3e 20 4b 0d be aa 40 66 3c ff 55 9d be
       0.47827807 -0.13798189 0.014053503 -0.30729672
000050 2c 83 8d be 35 ca 9d 3d ee 38 8f 3d a0 11 48 3e
       -0.2763914 0.077045836 0.0699328 0.19537973
000060 e8 26 69 3d 83 3c 0f be 8e 12 6a 3d 62 46 86 be
       0.05692187 -0.13987927 0.0571466 -0.26225573
000070 a3 6b 40 be 02 cd 02 3f 1b 53 77 be 9c 77 cf bd
       -0.1879106 0.5109407 -0.24152796 -0.101302356
000080 a8 11 f1 bd 93 f6 76 3e c2 8e 61 3e ac b6 85 3e
       -0.11770946 0.24117498 0.22027114 0.2611593
000090 28 2c 32 3e bc e5 97 3e 08 77 7c 3d 5e 8b 63 be
       0.17399657 0.2966746 0.061636955 -0.22221133
0000a0 0d 61 c9 3d cc 91 2b be e5 17 c8 3d 87 e6 89 3d
       0.09832964 -0.16754836 0.097701825 0.06733423
0000b0 4d cd a8 be 9d 99 8a be 66 ab 31 3e 91 1d 65 3e
       -0.32969132 -0.27070323 0.1735054 0.2237456
0000c0 71 bf 19 3e fe 6d 88 be b3 88 59 3e 15 ff 3f 3e
       0.15014435 -0.26646417 0.21243553 0.1874965
0000d0 83 63 a3 bd 49 9d e6 ba 05 a0 9e 3c a1 bf 20 3d
       -0.07977965 -0.0017594482 0.019363413 0.03924525
0000e0 ba 9f 25 be e6 a2 a3 be 8b 44 a5 3d d6 f4 0c be
       -0.16174212 -0.3196022 0.08069714 -0.13765272
0000f0 ef 15 c9 bc c8 53 0e 3e 46 6f 66 3e 7b 62 85 bd
       -0.024546592 0.13899148 0.22503385 -0.06512924

model.11.running_var f4 [64]
000000 ed fb a3 3d 10 3d bb 3d d2 68 89 3d bc 30 03 3e
       0.080070354 0.09142506 0.06709446 0.1281156
000010 8a 94 48 3d 9b f9 3b 3e 80 58 9c 3d 30 21 e3 3d
       0.048969783 0.18356936 0.076340675 0.110903144
000020 db 4a 8a 3d 81 8a a0 3d 61 4e b4 3d 35 07 30 3d
       0.06752559 0.078389175 0.08804012 0.042975623
000030 f5 fd df 3d e5 b6 c0 3d 87 75 31 3e 13 1b 51 3d
       0.1093711 0.09409884 0.1732999 0.05105121
000040 d7 5b b2 3d 0f 10 da 3d 32 58 ce 3d 3f ce af 3d
       0.08708923 0.10647594 0.10075416 0.0858426
000050 cc 23 a1 3d f0 7b ad 3d 92 2f 0b 3d de 68 99 3d
       0.07868156 0.08470905 0.033980913 0.07490705
000060 b4 d9 fd 3d cf 1b ab 3d 67 d1 97 3d 93 ca 5b 3d
       0.12395039 0.083549134 0.07412987 0.053659987
000070 4f 39 73 3d 7b 54 32 3e 4f c8 66 3e d8 f8 cb 3d
       0.059380826 0.17415039 0.22537349 0.099595726
000080 24 af 74 3d 00 20 95 3d 48 6a b5 3d f0 f4 9f 3d
       0.05973734 0.07281494 0.08858162 0.0781039
000090 82 d1 38 3e 2d 02 33 3e 56 4a 97 3d af e6 d1 3d
       0.18048671 0.17481299 0.07387225 0.102490775
0000a0 bf e9 30 3e eb 05 1b 3e e5 88 90 3d 89 72 ab 3e
       0.17276667 0.15138976 0.070573606 0.3348582
0000b0 95 ee b2 3d 80 c0 11 3e 68 6f a1 3d c7 79 65 3e
       0.08736912 0.14233589 0.07882577 0.22409736
0000c0 a4 a9 2b 3e b2 97 af 3d 12 c2 aa 3d 7d 82 c9 3d
       0.16763932 0.085738555 0.08337797 0.09839342
0000d0 2b 5c 9e 3d 38 d4 b4 3d c0 c1 d6 3d b2 50 c5 3d
       0.077324234 0.0882954 0.10486174 0.09634532
0000e0 2d e2 d4 3d f6 3f 73 3d c0 25 f8 3d fe 9c 8b 3d
       0.10394702 0.05938717 0.12116575 0.06817053
0000f0 ee 99 92 3d be 2f eb 3d 46 b0 9d 3d 52 51 e7 3d
       0.07158266 0.114837155 0.07699637 0.112948075
