imitation_learning/models/h3-lr0.0001-agent.pt (torch, 966128 bytes, 34 tensors)

model.0.weight f4 [16, 3, 7, 7]
000000 96 fe a7 bc 33 62 37 3d 56 db a3 bd 2a e4 ec bc
       -0.020507138 0.044771384 -0.080008194 -0.02891739
000010 f5 49 5b 3c f4 79 34 3d 12 5f 86 3c 41 0b 35 bd
       0.013384332 0.044061616 0.016402755 -0.044200186
000020 d2 20 fe bc d8 6a 89 3c 1a 62 14 bb 8d df 84 bd
       -0.03102151 0.01677458 -0.002264148 -0.064879514
000030 62 8d 86 bc a4 78 bc 3c 12 1d 4f 3d 2b ae 03 3d
       -0.016424838 0.023006745 0.050564833 0.03214852
000040 91 9a 6a bc 57 92 89 bd 49 03 38 bd 7a b3 5a bd
       -0.014319078 -0.06717365 -0.044925008 -0.05339382
000050 e9 6b c6 3c ca f8 69 3c 4e 79 3f 3d 40 7a 9c 3c
       0.024221377 0.014280507 0.046746545 0.019101262
000060 93 e2 3d 3c a3 d7 de bc f5 a6 d4 3a 7c 82 40 3d
       0.011589664 -0.027202433 0.0016224073 0.04699944
000070 09 4e 42 b7 6e e6 85 3d b8 3e 65 bd 2e 2b 06 bd
       -1.158147e-05 0.065380916 -0.055968016 -0.032756023
000080 ed 66 19 bd c3 ee 5a 3c 8c 53 d4 3c fc a8 c9 3c
       -0.037451673 0.013362589 0.025918745 0.02461671
000090 fb 0c 93 bd fd ac d1 3c b8 92 ca bb 8b bd 5c bd
       -0.0718021 0.025595183 -0.006182041 -0.0538917
0000a0 55 c3 fd bb b9 e7 e8 bc 49 b2 66 bd c4 a0 d0 bc
       -0.0077442327 -0.028430806 -0.05632237 -0.025467284
0000b0 a6 46 8f bd c4 b1 28 3d 9e c7 dd bc bf 1b 4d bd
       -0.06995897 0.041185156 -0.027072724 -0.05007529
0000c0 70 8b 3f bd 48 9e 36 3d 0d 3c 41 bd 5f 4e 98 3d
       -0.046763837 0.044584543 -0.04717641 0.07436823
0000d0 d6 06 f5 3c 98 60 cc bc 7e c5 0e bd ff aa 5a 3d
       0.029910486 -0.024948403 -0.034856312 0.05338573
0000e0 97 9e ae bc 53 9b 5c bd 43 72 0a 3d f9 77 25 bd
       -0.021315856 -0.053859066 0.033800375 -0.040397618
0000f0 fc 9c b3 bc fb 3a 30 bd 6f 33 9d bb cd 03 51 bd
       -0.021925442 -0.043025 -0.004797391 -0.051029015
000100 50 a8 6f bd bf 9b f3 bb e6 21 92 3d 15 56 51 3c
       -0.058510125 -0.007434338 0.07135372 0.012776871
000110 1b 18 c9 bc 4a a9 16 3d a9 69 a4 3d c1 35 37 bc
       -0.024547627 0.03678254 0.080279656 -0.0111822495
000120 a6 61 2b bd 7e 92 26 3d 6b 8c ce 3c f0 db 0e bc
       -0.04184117 0.04066705 0.02521344 -0.008719429
000130 0b 6a 82 bd a2 a2 31 bd 33 08 99 3d 89 57 12 bd
       -0.06367882 -0.04336799 0.07472267 -0.03572801
000140 40 d8 8a 3d ad 76 82 3d 09 59 a0 3d 47 6b 02 3c
       0.06779528 0.06370292 0.07829482 0.007960147
000150 ae f6 a5 3d b2 8b ca 3c 9d 8c 97 bc 3e 75 96 3d
       0.08103691 0.024724815 -0.018499667 0.07346581
000160 7e 62 25 bc 2f 5d c7 3c f1 e8 e0 bc 2f 0f ca 3c
       -0.010094283 0.024336426 -0.027454825 0.024665443
000170 01 b1 db bc cc ad 81 bd 0e f1 95 bd 49 77 2f bc
       -0.0268178 -0.06331977 -0.07321368 -0.010709592
000180 d5 e0 fd 3b d5 01 90 ba 00 71 91 bd 1c bd 11 bd
       0.0077477493 -0.0010986874 -0.07101631 -0.03558074
000190 eb a4 4f 3b 1d 62 b4 bb 44 a7 80 bd ed 8d 85 3d
       0.0031683992 -0.00550486 -0.062819034 0.06521211
0001a0 7d d8 ea bc 84 b1 b7 3c 29 86 65 bb 15 55 af 3c
       -0.028667683 0.022423513 -0.0035022593 0.021402875
0001b0 9c 92 33 3d 43 a4 42 bd bd 02 7f 3d 5d 00 0b bd
       0.04384099 -0.047519933 0.06225847 -0.033935893
0001c0 ff ad 89 bd a0 fb 86 bd e2 42 c2 3c 04 31 4f bc
       -0.0672264 -0.065909624 0.023713533 -0.012645964
0001d0 e9 00 aa bd d0 f3 a0 3d de 6f 8e bd f6 30 9f bd
       -0.08300955 0.078590035 -0.06954931 -0.077730104
0001e0 09 78 93 bd a8 35 a5 3c 34 42 79 3d 81 5d 4b 3d
       -0.07200629 0.020167187 0.06085415 0.04964972
0001f0 c4 f4 7d bd 75 33 af bb 4f 71 e3 3c 07 af 8b 3c
       -0.062001005 -0.0053467103 0.02776399 0.017051233
000200 ae 4d ba bc 3a 01 34 3d f2 68 25 3d eb 2a a5 3d
       -0.022742119 0.043946482 0.040383287 0.080648266
000210 72 95 86 3d 15 9b a1 3d 55 b3 62 3d c1 c5 41 bc
       0.06571473 0.07890908 0.055346806 -0.011826933
000220 bc 5a 41 bd b1 af 52 bc 88 94 9a ba b0 b4 11 bd
       -0.04720567 -0.012859271 -0.0011793533 -0.035572708
000230 0a e2 ed 3c c5 57 75 3d 4e 5a 1e 3c bd aa 88 bd
       0.029038448 0.059898157 0.009665085 -0.06673191
000240 3f 14 3c 3d 12 5f 67 3c ea b5 01 bd 75 6f a4 3d
       0.045917746 0.014121788 -0.031667627 0.08029071
000250 43 47 82 bd b9 0a 93 3d 87 eb 9a 3c 98 87 51 3d
       -0.06361248 0.071797796 0.018911136 0.051154703
000260 eb 8a 9c bd e0 f3 26 3c e0 99 9f 3c 7d e0 50 3c
       -0.07643684 0.01018998 0.019482553 0.012748835
000270 a6 bc 82 bd 82 57 62 3d 22 40 42 bd 1e f9 30 bd
       -0.06383638 0.055259235 -0.047424443 -0.043206327
000280 1e 41 44 bd 24 ca fb 3c c2 33 8d bd 48 a6 46 bd
       -0.047913663 0.030736037 -0.06894638 -0.048498422
000290 7e 1b 78 3c ee 77 80 3d bd 17 a5 3d ce 5c 9a bd
       0.015143273 0.06272875 0.08061168 -0.07537232
0002a0 f5 4f 85 bd 06 e8 f8 bc 4d 9a cb 3c d3 fc 13 bd
       -0.06509391 -0.030384075 0.02485385 -0.036129784
0002b0 0d 4c 22 bd 5c 41 8f 3d 0b 67 e8 3c e2 62 1e 3d
       -0.03962331 0.06994888 0.028369447 0.03866852
0002c0 07 57 64 3d 62 2a d4 3c d1 94 1e bd 10 bb 8e 3d
       0.05574706 0.025899116 -0.03871614 0.06969273
0002d0 34 f6 85 bd 38 42 af bc 54 35 5e 3d d8 c7 44 bd
       -0.065411 -0.02139388 0.054250076 -0.04804215
0002e0 a0 12 8b bd e8 a9 2b bb b9 31 98 3d 3c 49 dd 3b
       -0.06790662 -0.0026193801 0.07431359 0.006753115
0002f0 37 46 1f bd 25 1d 96 bd 6b ab ab bc 0e 35 2e 3d
       -0.03888532 -0.07329778 -0.020955762 0.042531066
000300 36 21 54 3b eb d6 4f bc 72 a7 15 bd d4 ee 12 bd
       0.0032368428 -0.012685518 -0.03653664 -0.035872295
000310 db 32 d6 bc 74 85 f8 3c fb a1 12 3d 12 b9 17 bc
       -0.026147297 0.030337073 0.035799008 -0.009260433
000320 ac b3 82 3d 9b 80 8f 3c 28 df 0a 3d f6 2f 88 bd
       0.06381926 0.017517379 0.033904225 -0.06649773
000330 9f 4e 21 3d 23 f9 ae 3c 59 97 30 3d 3b 53 8a bd
       0.03938162 0.021359032 0.043113086 -0.06754156
000340 97 11 36 3d f4 7f 3e 3d 08 7a 96 bd 7c 3a e1 3c
       0.04445037 0.046508744 -0.07347494 0.027493708
000350 f3 3e 62 bd bd 99 72 bd 05 a5 8b bd ed f1 83 bc
       -0.055235814 -0.059228648 -0.06818584 -0.01610657
000360 cb c2 52 bd cb 78 6c bd d1 04 f8 3c 41 58 c5 3c
       -0.0514553 -0.057732385 0.030275734 0.024089934
000370 db 79 17 bd ca cb 3c bb 53 b8 44 3d 50 0a 95 bd
       -0.036981445 -0.0028807991 0.048027348 -0.072773576
000380 1a 8f 7e 3d a1 77 88 3d f5 ad 81 3d b7 4a 76 bc
       0.06214819 0.066634424 0.06332008 -0.015032462
000390 82 3e 1a bd 47 06 1c bc 4c 2c 36 bd cc 23 fb 3b
       -0.03765727 -0.009522981 -0.04447584 0.0076641794
0003a0 f6 b4 51 3d b0 34 82 bd f8 73 4b bc 05 b4 41 3d
       0.05119797 -0.063577056 -0.012417786 0.04729082
0003b0 81 69 e8 bc 39 89 6b 3d 07 47 8d bd d9 7f 23 bd
       -0.02837062 0.057503913 -0.06898313 -0.039916847
0003c0 e2 19 75 bc 22 43 9f bd 5e 50 33 bd 88 a9 34 bd
       -0.014959784 -0.077764764 -0.043777816 -0.04410699
0003d0 9b 1b ec 3b 6b c1 a4 bd 3e 49 89 3c 58 5f 62 3d
       0.0072054393 -0.08044704 0.016758557 0.055266708
0003e0 fd be ff 3c 23 a4 69 3c 91 a3 fb bc 68 ca cf bc
       0.031219 0.014260325 -0.030717643 -0.02536507
0003f0 0d 3d 95 bd c9 e0 9e bc 9f 54 9f 3d 27 21 02 bd
       -0.07287035 -0.019394295 0.07779812 -0.031769898

model.0.bias f4 [16]
000000 0f 14 9c 3d 13 e9 8c bd 04 75 7a bd 08 ca 8a bd
       0.076210134 -0.06880393 -0.06114675 -0.06776816
000010 da 28 d8 3c 7c 54 0e bd d5 aa ae 3c d5 c7 a0 bd
       0.026386667 -0.03474854 0.021321693 -0.07850615
000020 de b0 36 bd 8e ef d7 bc 17 61 24 3d 27 42 26 3d
       -0.044602267 -0.026359346 0.040131655 0.04059043
000030 bb 0c 42 3d 54 37 92 bd 9d 50 15 3d 5c 09 f6 3c
       0.047375422 -0.07139459 0.036453832 0.03003376

model.1.weight f4 [16]
000000 2a b8 80 3f 9d 45 7f 3f de 2d 80 3f fb 2a 80 3f
       1.0056202 0.99715596 1.0013998 1.0013117
000010 fb 6f 80 3f 74 8e 7f 3f c2 59 7f 3f a2 d6 7f 3f
       1.0034174 0.9982674 0.99746335 0.9993688
000020 64 1f 7f 3f ea 5f 7f 3f da a0 80 3f 05 25 7f 3f
       0.99657273 0.9975573 1.0049088 0.9966586
000030 90 31 80 3f e9 7d 80 3f 80 56 80 3f b4 7a 7f 3f
       1.0015125 1.0038425 1.0026398 0.99796605

model.1.bias f4 [16]
000000 00 eb 72 bb ac ac 00 3b 3b 17 2c 3b ca 41 39 bb
       -0.003706634 0.001963417 0.0026258964 -0.0028267973
000010 22 95 89 3b 98 c2 5e bb a0 88 d0 bb 65 7d d7 3a
       0.004198686 -0.0033990499 -0.006363943 0.0016440569
000020 58 b4 84 bb 90 96 4e bb 6a 47 cc 3b f0 68 e1 3b
       -0.004049819 -0.0031522848 0.006234099 0.0068789646
000030 f9 69 a4 bb 81 92 a9 bb 33 b6 55 3b a8 26 c9 b8
       -0.0050175157 -0.0051749353 0.003260982 -9.591627e-05

model.1.running_mean f4 [16]
000000 6b 39 29 c2 96 b8 db c2 c2 a3 34 c2 f3 96 9b c1
       -42.306072 -109.86052 -45.15992 -19.448706
000010 f4 13 2f 42 c1 6a ca 42 4d 18 79 c2 1e 0f b5 bf
       43.769485 101.2085 -62.27373 -1.4145238
000020 0b 74 4d c2 75 60 60 42 4b e9 c9 42 a3 db 26 40
       -51.363323 56.094196 100.95565 2.6071556
000030 e4 11 59 c1 4d e0 b2 42 37 69 c2 42 f7 0c 29 c2
       -13.566868 89.43809 97.2055 -42.26266

model.1.running_var f4 [16]
000000 fe 44 c0 43 63 1e 00 45 e0 24 c8 43 52 e9 af 43
       384.539 2049.8992 400.2881 351.8228
000010 ed 4e 40 44 b1 a2 b7 44 12 55 23 44 22 9c 82 43
       769.2332 1469.0841 653.3292 261.2198
000020 93 fa 1c 44 c3 5b 9f 44 c8 0c f5 44 34 7a 4d 43
       627.9152 1274.8676 1960.3994 205.47736
000030 52 c8 78 43 bd 51 a1 44 00 73 dd 44 9d cb 0e 44
       248.7825 1290.5543 1771.5938 571.18146

model.4.weight f4 [32, 16, 3, 3]
000000 65 ee e2 bc 33 4b a7 3c c0 8a 9b bd d9 e4 bc bc
       -0.027701566 0.0204216 -0.07594824 -0.023058342
000010 54 9d 0e bd 2b c2 a9 bb b4 6c 99 3d a4 48 5c bd
       -0.03481801 -0.0051806173 0.074914366 -0.053780213
000020 d8 a2 a1 bd c2 f0 ab bc c0 7a ee bc 0b ab 16 3d
       -0.07892388 -0.020988826 -0.029111266 0.036784213
000030 69 61 9a bd fa be 41 3d 24 b7 67 bd 4b 3c 27 bd
       -0.07538111 0.04730127 -0.05657114 -0.040828984
000040 f1 27 06 3d 7d db ac 39 2b b8 48 3d 26 3a 89 3b
       0.032752935 0.00032969928 0.04900376 0.00418784
000050 d8 d7 84 bd 63 9a fb 3b da 17 7c 3d e9 ee 8b 3d
       -0.064864814 0.0076783164 0.061546184 0.06832678
000060 28 40 5a bd 41 89 70 3d 09 19 79 bd 02 d9 f0 bc
       -0.05328384 0.058724646 -0.06081489 -0.029400352
000070 98 bd 93 bd e7 bc 8b 3c bd 32 3a 3d ee 6c 06 bd
       -0.072138965 0.01705785 0.045458544 -0.032818727
000080 81 8a 10 3c 20 08 0f bd 57 b5 3e 3d 90 88 84 3d
       0.008822084 -0.034919858 0.046559658 0.0647136
000090 62 34 6c bc e5 d2 e1 bc 23 02 9d 3c a7 08 be 3c
       -0.014416786 -0.027566383 0.019166058 0.023197485
0000a0 51 f1 73 3b dd 99 a7 3d 46 73 71 bd 6f e9 8e bd
       0.0037222693 0.08183644 -0.058947824 -0.06978118
0000b0 fd 80 d6 bc df 2e 2c 3d a3 b2 19 3d 89 e1 63 3d
       -0.026184553 0.042036887 0.037523877 0.05563501
0000c0 26 fd ea bc 79 f0 8c 3c b5 e2 ea bc b7 bb 16 bd
       -0.028685164 0.01720451 -0.028672555 -0.036800113
0000d0 c4 17 80 bd 6b 7a 15 bd e2 72 6e 3d 09 56 54 3d
       -0.06254533 -0.0364937 0.05821503 0.051839862
0000e0 57 92 17 3d ed ec bf bc 97 88 97 3c 8d b0 83 bd
       0.037004795 -0.023428405 0.018497748 -0.06430159
0000f0 d5 26 81 bb 4f fc 1d 3d 7b 7e 55 bc 40 ee 61 3d
       -0.0039413967 0.0385707 -0.013030644 0.055158854
000100 1b 19 0a 3d e2 2d 16 3d cb 0b 86 bc 05 f4 92 bc
       0.03371535 0.03666485 -0.016363045 -0.017938623
000110 0b 86 13 bc e8 6a 81 bd 9c 90 02 3d 16 b7 7e bd
       -0.009004126 -0.06319219 0.03187619 -0.062186323
000120 40 a3 8b bd c3 e7 1b bd 0a c8 a7 3d e6 7c 77 ba
       -0.06818247 -0.038062822 0.08192451 -0.00094409136
000130 63 08 31 bd 56 15 52 3c c9 c0 7c bd cb fc c3 bb
       -0.04322089 0.01282247 -0.06170729 -0.005981063
000140 d9 c4 7a 3d 0a 87 b5 3d 55 4e 70 3c 32 1f 6c bd
       0.061222885 0.08863647 0.014667113 -0.057646938
000150 20 60 79 bd 62 ea ba 3d d8 d9 9f 3c d1 e0 ab bc
       -0.060882688 0.09126736 0.019513056 -0.020981224
000160 77 94 98 3a 65 b2 c6 3a d1 2e 2a bd 8d 52 9a bd
       0.0011640926 0.0015159367 -0.041548554 -0.075352766
000170 83 29 7f bc ca 12 7c 3d e6 4b 89 3d d0 2a ab bd
       -0.015573862 0.061541356 0.067039296 -0.08357775
000180 ea ae 81 3c 13 53 dc 39 6d 0e 25 bd 4d 99 4a 3d
       0.015830476 0.00042023565 -0.04029696 0.049462605
000190 00 af 0c 3d ee 5f 82 3d ea 87 0e bd 39 4d 98 3d
       0.03434658 0.063659534 -0.034797587 0.07436604
0001a0 11 9f 76 bc 1d 42 8f bd da cb c4 3c 00 79 25 3b
       -0.015052573 -0.06995032 0.024022985 0.0025249124
0001b0 85 5d 0d 3d 4c b5 5a 3c e9 fc 18 3c 5f 1c a8 3c
       0.034513015 0.013348889 0.009337642 0.02052134
0001c0 6d a5 91 3d 56 9a 31 3d 27 98 b7 bb 3b 88 21 3a
       0.071116306 0.043360077 -0.005602855 0.00061619625
0001d0 55 f5 2d 3c 49 c1 d6 3c 56 9d b9 3b cc e9 58 3d
       0.010617574 0.026215212 0.005664508 0.05295734
0001e0 d5 0e 98 bd 66 08 ac bc ca 93 03 3c f6 29 2e 3c
       -0.07424704 -0.021000098 0.008030841 0.010630121
0001f0 07 bf 2a bc 25 44 3a 3d c3 e2 2e bd d2 2a c7 3b
       -0.010421521 0.045475144 -0.042696726 0.0060781026
000200 6f 8c 05 bd c9 32 0c 3d 20 57 74 bd 9c cb ec 3b
       -0.03260463 0.03422812 -0.0596534 0.0072264206
000210 76 fd a3 bc af 17 c3 3c 59 06 5b bd fd d2 e8 3c
       -0.02001832 0.023815004 -0.05347285 0.02842092
000220 b0 0c 62 bc ac 44 39 3d 34 a8 fb 3c 0a 13 69 3d
       -0.01379697 0.045231506 0.030719854 0.056902923
000230 41 43 07 3d ac 1f 1e bd 2a ff 33 bd ce 80 2d bc
       0.033023123 -0.038604423 -0.043944515 -0.010589791
000240 a9 0f aa bd 48 de 40 3d 41 36 e4 bc 4e c7 82 3c
       -0.08303768 0.047086984 -0.027857902 0.015964177
000250 1a 86 cf bc 99 c4 b7 bc 23 6d 53 3d 19 20 45 3b
       -0.0253325 -0.022432612 0.051617753 0.0030078946
000260 02 42 66 3b c5 f3 70 3d 61 15 68 3d d5 c2 8f bd
       0.0035134559 0.058826227 0.056661014 -0.07019583
000270 a4 89 0c 3d 15 dc 12 3d b1 eb 2a 3d 7c c7 14 bd
       0.03431095 0.035854418 0.04172868 -0.036323056
000280 ae 86 07 bd 16 e4 89 3c 0f 73 5c 3d f6 44 b0 3d
       -0.033087425 0.016832393 0.053820666 0.08606903
000290 11 a1 c1 bc 1d ca 96 bd 41 5b 0f bd 48 bc 96 bd
       -0.023636373 -0.07362769 -0.034999136 -0.073601305
0002a0 e9 40 12 bc f5 41 96 39 c9 65 aa 3b 80 63 20 3d
       -0.008926609 0.0002865937 0.005200122 0.03915739
0002b0 c5 c6 53 bd 4b a9 96 3d 2d 5e 38 bc 92 1e 03 3d
       -0.051703233 0.07356509 -0.011252922 0.032011576
0002c0 57 6f 41 bb b4 36 72 39 c7 a6 c7 3b 41 52 30 bd
       -0.0029515827 0.00023099297 0.0060928795 -0.043047193
0002d0 db 89 75 bd 4f 32 a3 3d 2e 54 73 bc 18 18 32 3d
       -0.059945922 0.0796858 -0.014851613 0.04348001
0002e0 5d 64 ce bc 9c 42 28 bc d8 7d b9 3c ee 40 af 3c
       -0.025194341 -0.010269787 0.022643015 0.021393266
0002f0 e5 54 1e bd 71 7f 66 bd 4f 2d 28 3d 0d e6 18 bd
       -0.03865518 -0.05627388 0.041058835 -0.03732877
000300 4a 7c 92 3d b1 7c 50 3c 21 99 a4 bd 83 72 56 3d
       0.071526125 0.012725041 -0.080370195 0.0523553
000310 17 a8 86 bd 97 88 81 bd 4a a2 44 bd f6 04 de 3b
       -0.06575029 -0.063248806 -0.048006333 0.0067754937
000320 e8 ff 93 bd 30 c2 4c 3d d4 c0 97 3d de bb 2d bd
       -0.072265446 0.04998988 0.07409826 -0.042415492
000330 d3 18 9c bc 0b b1 73 bd 90 e6 76 bd d6 0f 9c bd
       -0.019054806 -0.059495013 -0.060278475 -0.07620208
000340 a1 91 03 3c 42 66 e2 bc 69 2a 92 bd ee 19 4e 3d
       0.008030326 -0.027636651 -0.07136995 0.050317697
000350 9e bf 22 3d dd 9d 6d bc a1 30 f8 3c 3b d1 85 bd
       0.03973352 -0.01450297 0.030296626 -0.06534048
000360 e4 55 34 bb aa c5 43 3d 5f e9 24 bd ad cd 8a 3d
       -0.0027517015 0.04779593 -0.040261623 0.06777511
000370 a6 cc 97 bd 51 e1 92 bd 92 d5 a5 3d 92 41 67 3b
       -0.074120805 -0.07171882 0.08097376 0.0035286886
000380 7f 41 67 3c 55 a4 52 bd aa 8e 87 bd fa 41 86 bc
       0.014114737 -0.05142625 -0.06619008 -0.016388882
000390 54 8a 8a bb 7b 72 79 3d 6f b1 64 bd f2 0b b6 3b
       -0.004227916 0.060900193 -0.055833276 0.005555623
0003a0 49 90 3e 3d 50 ab 91 3d 2b 60 56 3d 25 ff 7e bd
       0.04652432 0.071127534 0.052337807 -0.062255044
0003b0 20 94 33 3d db 61 c4 bb fc f4 48 3d 49 29 7c bd
       0.043842435 -0.0059931106 0.04906176 -0.06156281
0003c0 3b 88 26 3c 36 ee ea 3c 0b 56 df bc ac 0c 3f bd
       0.010164316 0.028678041 -0.027262708 -0.046642944
0003d0 3d 7c af 3b 25 92 aa 3d 5e 0f 6a 3d 34 03 10 3b
       0.0053553865 0.08328656 0.05714356 0.0021974565
0003e0 0e 03 98 bb f8 5f 1a 3d 77 56 94 bd 3c 70 66 bd
       -0.004639036 0.03768918 -0.07243054 -0.05625938
0003f0 ad 65 74 bd 73 fa 6a 3d a5 1d e1 3c f7 ff 93 3d
       -0.059667278 0.057367753 0.027479956 0.07226556

model.4.bias f4 [32]
000000 1d 5d a7 3c a6 08 a2 3c 40 2f 8a 3c 76 95 ea 3c
       0.020430142 0.019779515 0.016868234 0.028635722
000010 5f d7 4f bd 2c 9c 2c bd 39 56 fb 3c 02 35 59 bd
       -0.050742503 -0.042141125 0.030680763 -0.053029068
000020 19 5a 8e bc bb 65 9c 3c 05 34 68 3d b8 8a d2 ba
       -0.017376946 0.019091478 0.056690235 -0.001606307
000030 84 70 6f bd 3d 41 38 3d 80 73 8b 3d 60 b7 85 3d
       -0.058456913 0.04498409 0.06809139 0.06529117
000040 53 46 05 bd d8 ce c3 bc e0 96 e1 3c ab a8 9f 3d
       -0.03253777 -0.023902342 0.027537763 0.07795843
000050 a3 ff 2c 3c 5e 01 7d bb c7 d9 a0 3d c0 a2 1d 3d
       0.010558995 -0.0038605551 0.07854038 0.03848529
000060 eb 60 f0 3c 16 80 c7 bb 5d 12 9b bd b0 05 04 bd
       0.02934309 -0.006088267 -0.07571862 -0.032231987
000070 4a c2 d5 bc ae c4 90 bd 93 81 38 3d 8f e9 88 3d
       -0.02609362 -0.07068764 0.045045447 0.06685173

model.5.weight f4 [32]
000000 46 a2 80 3f 1b f7 7f 3f 2b 0e 80 3f 57 97 80 3f
       1.0049522 0.9998643 1.0004324 1.0046185
000010 f7 c8 7f 3f cf cd 7d 3f ad 49 7f 3f 20 79 7f 3f
       0.99916023 0.99142164 0.99721795 0.997942
000020 d8 cb 7e 3f 7f 25 81 3f 84 3a 80 3f c1 55 7f 3f
       0.9952979 1.0089568 1.0017858 0.99740225
000030 1e 1d 80 3f ed 8e 80 3f 6b 37 7e 3f c2 11 7f 3f
       1.0008886 1.0043617 0.9930331 0.9963647
000040 1b 41 80 3f e0 ca 80 3f ca a3 80 3f 3f 31 80 3f
       1.0019869 1.0061913 1.0049984 1.0015029
000050 f6 3d 80 3f ff 14 80 3f c1 2b 80 3f 2b 06 80 3f
       1.0018909 1.0006407 1.0013353 1.0001882
000060 ea 8c 80 3f 7c d3 7f 3f dc 3e 80 3f fa ab 7e 3f
       1.0043004 0.99932075 1.0019183 0.99481165
000070 b7 23 7f 3f 55 ea 7f 3f b1 f3 7f 3f 3c a0 7f 3f
       0.9966387 0.9996694 0.9998122 0.99853873

model.5.bias f4 [32]
000000 00 66 7c bb 7f 31 16 bb e8 27 d9 3a ee c5 bc bb
       -0.0038512945 -0.0022917686 0.0016567679 -0.0057608997
000010 78 f2 01 ba 61 2f ee bb 41 f0 33 bb 83 7d ad bb
       -0.000495709 -0.0072688316 -0.0027456435 -0.005294503
000020 e3 04 8f bb 5f 05 11 bc 17 4f d0 3a f0 b3 d4 bb
       -0.004364596 -0.008851378 0.0015892711 -0.006491177
000030 ed 8b c6 39 3f b0 88 3b 6f f1 38 bc 5d 06 a2 ba
       0.00037869756 0.004171401 -0.011288031 -0.0012361516
000040 54 2c b0 bb 6e 80 45 ba bd 17 39 bb 24 59 fb 3a
       -0.005376378 -0.0007534091 -0.002824291 0.0019176346
000050 6a 7b 40 3b 87 01 21 3a d8 c6 f3 3a e5 49 d0 bb
       0.0029370436 0.000614189 0.0018598689 -0.006356465
000060 b0 eb a3 ba 14 fe 57 bb 7d 2c 8e ba 63 69 af ba
       -0.0012506153 -0.003295784 -0.0010846999 -0.0013382848
000070 b3 43 a5 ba 35 60 cb bb 56 98 79 bb 1a 92 72 ba
       -0.0012608677 -0.006206537 -0.0038085184 -0.0009253338

model.5.running_mean f4 [32]
000000 b2 ef 4e bd 4e 02 57 3c 88 bb 8f be 56 0b ea 3b
       -0.05052156 0.013123108 -0.28072762 0.0071424646
000010 aa ee bb bd a6 83 ba 3e a5 02 b3 be 89 a8 51 3e
       -0.09176381 0.36428565 -0.34962955 0.20474447
000020 09 a3 63 be 81 d5 1c 3e 11 72 f2 3d 61 c6 0a 3e
       -0.22230162 0.1531582 0.11838163 0.13552238
000030 af f6 da 3d 33 68 31 3e d6 e6 e6 3d bf ae 2c 3d
       0.106915824 0.17324905 0.11274497 0.04215884
000040 06 21 5d be fc 23 9d bc 12 1c a9 bd 63 5a 7a 3e
       -0.21594629 -0.019182198 -0.08257307 0.24448542
000050 ca 99 a7 3e 6e 6b c6 be 26 18 fc be c6 ca 80 3e
       0.3273452 -0.38753837 -0.49237174 0.25154704
000060 ee 32 6d be e8 76 d0 3d ea e1 85 be 69 39 95 bd
       -0.2316396 0.101789296 -0.2614892 -0.07286341
000070 34 9e b9 be 12 4f 25 bb c6 8a d6 bd 8c fd a9 3e
       -0.36253512 -0.0025224132 -0.10475688 0.33201253

model.5.running_var f4 [32]
000000 5e fc 44 3d 0b 2c 5a 3d 82 7a c2 3d 7e 52 fd 3c
       0.04809224 0.05326466 0.09496023 0.030923124
000010 f9 38 35 3d 99 29 96 3d 94 9f 4a 3d 49 2b e1 3d
       0.044243786 0.07332153 0.04946859 0.10994584
000020 f6 3e 96 3d 2f 83 1d 3d 34 ac 34 3d 1f 7e 15 3d
       0.073362276 0.038455185 0.04410954 0.03649723
000030 ee 7d 6c 3d b8 35 d1 3d e7 06 cd 3d 0f ed 2f 3d
       0.057737283 0.10215324 0.10011082 0.042950686
000040 ba 5e c8 3c 0c 6f 05 3d d2 f6 27 3d be d8 db 3d
       0.024459232 0.032576606 0.04100687 0.107347
000050 ae b5 5e 3d 5f a9 1d 3e ac 54 a4 3d f3 08 32 3d
       0.054372482 0.15396641 0.080239624 0.043465566
000060 aa f2 6e 3d c5 a2 ed 3d 33 4c ef 3c 0c 8d 51 3e
       0.05833689 0.116033114 0.02921114 0.20463961
000070 79 3b 3e 3d 0d b1 1a 3d e7 96 e2 3d 9a a8 2b 3e
       0.046443436 0.037766505 0.110639386 0.16763535

model.7.weight f4 [32, 32, 3, 3]
000000 21 b1 ba 3b bf 1a 51 bb a1 12 09 3c 8e 74 84 bd
       0.005697385 -0.003190681 0.008366258 -0.064675435
000010 e1 45 e2 3c ac 40 82 3c 1e 2a c5 3c 6d 48 3d 3d
       0.027621211 0.015899979 0.024067935 0.04621165
000020 a9 86 62 3c db 4a c3 bc 53 1d 0f bd f5 f8 4c 3d
       0.013826051 -0.023839405 -0.034940075 0.05004211
000030 1a a3 92 bc 49 99 dc bc 69 9b 99 3c cd 7c 09 3d
       -0.017900039 -0.02692856 0.018750863 0.033566285
000040 6d 4c 80 3c 44 ea 98 bc 8f f9 a1 bb c1 eb 21 3d
       0.015661443 -0.018666394 -0.00494308 0.039531473
000050 c5 b2 df 3c 54 5a ca 3c eb 11 22 bd 45 3b a0 3c
       0.027306924 0.024701275 -0.03956787 0.019559512
000060 ff 5a ba bc c7 ec 36 3c 79 e3 43 bd b2 97 eb bc
       -0.022748468 0.011164851 -0.047824357 -0.028758857
000070 28 7e b3 3c dd 4f a5 3b d1 92 49 3d 0d c6 cb bc
       0.021910742 0.005044921 0.04921228 -0.024874711
000080 50 a6 5e 3d a3 3d 59 bd 38 68 11 bd b6 8a c8 bc
       0.054357827 -0.053037297 -0.03549978 -0.024480205
000090 23 13 88 bc d8 29 69 3d 03 54 0b bd 4c ef fe 3c
       -0.016610688 0.05692467 -0.034015667 0.031119965
0000a0 e8 d9 f6 3c 00 50 0a 3d 0f cf a9 3c 84 d5 42 bd
       0.030133203 0.0337677 0.020728616 -0.047566906
0000b0 30 17 9f bc 07 1c 18 bd 28 a6 2b 3d e9 f5 c4 bc
       -0.019420236 -0.037136104 0.041906506 -0.02404304
0000c0 87 94 26 bd af d2 4a 3b 0a 52 fa 3c cf b9 13 bd
       -0.04066899 0.003094833 0.030556697 -0.036065873
0000d0 4c 5d 48 bb 27 1f 34 3d b5 96 93 bc ba a0 f6 3c
       -0.0030573187 0.04397502 -0.018016199 0.030105937
0000e0 bb da 9c 3c 61 35 5e bd 35 52 5b 3d f2 14 cc bc
       0.019147268 -0.054250125 0.053545196 -0.024912331
0000f0 60 af 08 3d 75 12 2c bd 27 89 bb 3c 21 2d 5e 3d
       0.033370376 -0.04200979 0.022892548 0.054242257
000100 43 a8 80 bd 04 b2 62 3c e9 5f 96 bb 66 36 d2 bc
       -0.062820934 0.013836388 -0.00458907 -0.025660705
000110 19 c9 ed ba e2 2a 44 ba af 84 90 bd 61 0d fd ba
       -0.0018141597 -0.00074831967 -0.070565574 -0.0019306355
000120 df 4d 46 bc b1 c5 28 bc 43 cf 43 bc a1 f1 8b 3c
       -0.012103527 -0.01030104 -0.0119512705 0.017082991
000130 26 0c c9 3b b1 17 9f bc b8 54 44 3c c9 5c 6e 3c
       0.0061354814 -0.019420477 0.011983089 0.014548489
000140 c0 97 12 bc 00 b4 af bb cb 2e 28 3c 4a fd cd bc
       -0.008947313 -0.005362034 0.010265063 -0.025145192
000150 4e 76 f5 3c 26 9a c5 3c 52 7d ec 3c e7 e6 2f bd
       0.029963639 0.024121355 0.028868351 -0.042944815
000160 b7 87 4e bd bc b2 81 3d 3e 80 e2 3c 3a 56 23 bd
       -0.050422397 0.06332919 0.027649041 -0.039877154
000170 13 c8 b2 3c 35 c7 ef 3a cf 5a 10 bc 92 ee 4e bc
       0.021823918 0.0018293621 -0.008810713 -0.012630122
000180 1a 53 50 bd 29 15 26 bd c3 cc 41 bd 37 b5 2f 3d
       -0.0508605 -0.040547524 -0.047314417 0.04289743
000190 62 2b 01 3d ab cb 53 bd d8 9e 75 3d 70 78 a4 bb
       0.031535514 -0.051707905 0.05996594 -0.00501924
0001a0 c6 e7 44 bc de b4 2b 3d f0 1a b7 bb 6e 4d df bc
       -0.01201815 0.041920535 -0.005587928 -0.027258601
0001b0 96 e6 16 bd 1e 0a 10 3b 25 7b c3 bc bf 7a 72 3c
       -0.036840998 0.0021978687 -0.02386243 0.014799773
0001c0 ae d4 b9 3c d4 99 47 bc c9 73 43 bc f3 6e e9 3c
       0.022684421 -0.012182672 -0.011929461 0.028495288
0001d0 eb fb 6f bd 2d 43 da 3c 94 df fa bc 36 ab 36 3d
       -0.058589857 0.02664336 -0.030624188 0.044596873
0001e0 e1 62 34 3d 95 ec 58 bd 8c a9 9b bc 1d e0 04 3d
       0.04403961 -0.052959997 -0.019001745 0.032440294
0001f0 5c b1 62 bc ba 89 1f bd 52 12 e6 3c cd 23 8b 3c
       -0.013836231 -0.038949706 0.028084908 0.016984845
000200 c5 45 60 3d 6f f5 3e 3d 8c 10 39 3d 81 cd 3a 3d
       0.054754037 0.046620782 0.045181796 0.04560614
000210 04 71 51 bd 34 61 92 bc d6 f2 03 3d dc c6 55 3b
       -0.05113317 -0.017868616 0.03221401 0.003261975
000220 f1 cf 0b bd 68 c7 10 bc 31 b1 e6 3c 6d d7 5e 3d
       -0.034133855 -0.008836605 0.028160663 0.054404665
000230 5d 06 6c bd ec cc 16 bd a2 6d 17 bd 50 df 33 3d
       -0.057623256 -0.036816522 -0.03696979 0.04391414
000240 52 f4 6f 3d bc 13 14 3d 56 a6 fb 3c 82 9d 4f 3d
       0.05858261 0.036151633 0.030718964 0.05068732
000250 1f 09 e1 bc f6 89 5b 3d 06 79 de ba 45 38 6d bd
       -0.02747017 0.053598367 -0.0016973324 -0.05791499
000260 d6 5f 46 bd 1e 2b e5 3c be 4d 77 3d a2 f6 9b 3c
       -0.04843124 0.027974661 0.060376875 0.019038502
000270 06 7e 3e 3d 57 72 78 3c fc 35 c3 3c 60 c3 40 3d
       0.046506904 0.0151639795 0.023829453 0.047061324
000280 7f ab 2a bd 48 f4 53 3d 33 35 b1 bb 3d d5 41 bd
       -0.041667458 0.051746637 -0.005407953 -0.0473225
000290 69 11 15 3d ce 61 86 3c 6f eb a2 bb 98 b8 ec 3c
       0.036393557 0.016404059 -0.0049719135 0.028896615
0002a0 89 d5 fc bb 50 7c dc 3c ae 06 36 3d 73 f3 8e bb
       -0.007715885 0.026914746 0.044439964 -0.0043625175
0002b0 a5 3a f9 39 51 a7 4c bd 14 12 f8 bb 28 5f 65 bd
       0.00047536675 -0.049964253 -0.0075705145 -0.05599895
0002c0 64 ea 3b bd 03 02 db 3c 95 78 dd bc a6 81 a3 3c
       -0.04587783 0.026734358 -0.027035037 0.019959282
0002d0 26 6f 19 bd b2 3b 3f 3d b5 5c 07 bc 2a 04 06 bb
       -0.037459515 0.04668779 -0.008261849 -0.002044926
0002e0 6f 9e c3 3b b9 d7 f5 3c 1e 9c 57 3d 86 7f 41 3d
       0.0059698145 0.030010091 0.05263912 0.047240756
0002f0 a5 2a 1d bd 63 d3 24 bd 91 41 da 3c 57 8c e0 bc
       -0.038370747 -0.040240657 0.026642593 -0.02741067
000300 bd 52 42 bd 2a 3b ea 3c 68 4a d0 bc 65 12 86 bc
       -0.047442187 0.028592665 -0.025426105 -0.016366193
000310 08 18 9d 3c fe 85 58 bd 3d 2f e0 3c db b3 01 bc
       0.019176498 -0.05286216 0.027366275 -0.007916416
000320 5b 67 31 bd d3 78 4c bd 23 b6 12 3d 6b c8 fd bb
       -0.043311458 -0.049919914 0.03581823 -0.007744839
000330 a4 f0 c2 3b 88 2d 66 3b 4c 53 69 bd f5 55 f6 bc
       0.0059490968 0.0035122354 -0.056964204 -0.030070284
000340 fe 10 29 bd 3d 64 8d 3c 73 f7 2e bd 5b b7 16 bc
       -0.04127597 0.017259711 -0.042716455 -0.009198989
000350 06 fd 96 bc 34 43 b8 3b ac a0 24 3c 88 04 81 bd
       -0.018431198 0.0056232456 0.010048073 -0.062996924
000360 40 19 2a 3d eb 77 26 3c bd 86 55 3c 90 88 1a 3d
       0.041527987 0.010160427 0.013032612 0.037727892
000370 4d 83 c9 bc b1 c5 5a 3c 7c 84 48 3d 09 53 64 3c
       -0.024598742 0.013352797 0.048954472 0.013935813
000380 19 8d 38 bd 68 87 d8 3c f3 9c 0f 3d 72 80 ce bc
       -0.045056436 0.026431754 0.035061788 -0.025207732
000390 84 93 66 3d 65 e7 fa 3c e9 8b 00 3d af 70 b6 bc
       0.056293026 0.030627916 0.03138343 -0.022270529
0003a0 7d d0 2d 3d 6d 1b 5f 3d be bd dc bc 2f 53 3c 3c
       0.042435158 0.054469515 -0.026945945 0.011494442
0003b0 e6 55 9e 3a 2d 07 09 3d 32 67 d4 bc e7 66 77 bc
       0.0012080043 0.03345411 -0.025928114 -0.015100217
0003c0 14 1d 9e 3b 0c 11 f2 3c c0 cc 34 bd 55 2a 40 bd
       0.0048252437 0.029549144 -0.044140577 -0.04691537
0003d0 32 00 46 bc a4 bb 09 bd a1 8e 3b 3c ae 40 06 bd
       -0.0120850075 -0.033626214 0.01144758 -0.032776527
0003e0 36 75 c1 3c 1b 92 ee bc 69 83 f4 3c d2 b1 2c bd
       0.02361546 -0.029122403 0.029847817 -0.04216177
0003f0 4a b0 ee bc b5 dc ee bc 0f 2b 41 bd 7d 3e 49 3d
       -0.029136796 -0.029157976 -0.047160204 0.04913186

model.7.bias f4 [32]
000000 2b 27 68 bd ee f6 13 bc 53 9d 5b 3b 57 e5 0b 3c
       -0.05667798 -0.009031041 0.003351052 0.008538566
000010 0a b8 61 3d dd b4 24 3d 57 a8 4b bc a4 ef d6 bc
       0.055107154 0.040211547 -0.012430272 -0.026237316
000020 bf 4f 16 3b 00 38 e5 3b 07 0f 84 38 e2 e8 1e 3d
       0.0022935716 0.006995201 6.2970495e-05 0.038796313
000030 68 20 06 bd ce d4 40 bd b1 bd ff bc c5 5f 55 3d
       -0.03274575 -0.047077946 -0.031218382 0.052093286
000040 a0 e9 b4 bb a5 de 58 3c 8f be 7c 3c 5d 81 62 3d
       -0.0055210143 0.013236676 0.015426292 0.05529915
000050 67 06 bb 39 cd 47 eb bc 42 9d 82 bc e4 b7 c3 bc
       0.0003567219 -0.02872076 -0.015944127 -0.023891397
000060 7c ac c6 3c 59 85 1b 3d b3 3a e8 3c e6 b0 16 bc
       0.024252169 0.037968967 0.028348302 -0.009197449
000070 df de fe 3c 7f aa 86 bc 39 fa 0b 3d c6 3c f6 bc
       0.031112133 -0.01643872 0.034174178 -0.030058276

model.8.weight f4 [32]
000000 87 a9 7f 3f f7 aa 7f 3f 87 a4 7f 3f 52 52 80 3f
       0.99868053 0.99870247 0.99860424 1.0025122
000010 9f c9 7f 3f fe 3e 7f 3f 1a 35 80 3f 17 2e 7f 3f
       0.99917024 0.99705493 1.0016205 0.996797
000020 89 07 7f 3f 0a db 7e 3f 81 a3 80 3f 1a cc 80 3f
       0.9962087 0.9955298 1.0049897 1.0062287
000030 f1 c0 7f 3f 9f fc 7f 3f 1b 18 7f 3f b6 79 80 3f
       0.9990378 0.99994844 0.9964616 1.0037143
000040 ee 03 81 3f 70 3d 7f 3f a5 4f 80 3f 40 3a 80 3f
       1.0079324 0.9970312 1.0024306 1.0017776
000050 61 8e 7f 3f f7 97 7e 3f 4c dd 7f 3f b5 3d 7f 3f
       0.9982663 0.9945063 0.9994705 0.9970353
000060 4a 53 80 3f d4 ed 80 3f d2 2a 80 3f 60 79 81 3f
       1.0025418 1.0072579 1.0013068 1.0115166
000070 36 e3 7e 3f 2c 43 7f 3f 17 38 7e 3f 0e 3a 7e 3f
       0.99565446 0.9971187 0.99304336 0.99307334

model.8.bias f4 [32]
000000 44 b9 5d 3b 0f 37 c1 38 b8 66 83 bb 29 8e 67 39
       0.003383235 9.2132126e-05 -0.0040100478 0.00022082835
000010 f9 4b cd bb ca df af 38 f9 60 91 bb d3 ef b6 3a
       -0.00626516 8.386334e-05 -0.004436609 0.0013956971
000020 bc 9a 9d 3b 40 df 38 bb 6b 06 fc bb 81 c4 fb b7
       0.0048097055 -0.002820924 -0.007691195 -3.0013036e-05
000030 77 e8 c1 bb e3 f7 7d bb 9a 39 f5 39 b4 41 cb bb
       -0.0059176045 -0.0038752488 0.00046772958 -0.006202901
000040 b7 6a 66 3b b9 af 3e bb ae 6a 18 bb a1 ef fc 3a
       0.0035158822 -0.0029096438 -0.0023256945 0.0019297489
000050 bf 7f e9 ba 85 e3 2a bc 85 df f3 3a 0d 22 b0 bb
       -0.001781456 -0.010430221 0.0018606043 -0.005375153
000060 f7 ae c5 bb 7f 70 8b 3b 24 51 bb 3a 03 c4 04 bb
       -0.0060328203 0.004255354 0.001429115 -0.0020258434
000070 79 a3 fa 38 22 01 28 ba 6a 26 03 bc 8d d2 b9 bb
       0.00011951378 -0.000640886 -0.008004764 -0.0056708516

model.8.running_mean f4 [32]
000000 90 c7 81 3d ca 94 c1 3e fa 46 3d 3e ef 7d 58 3e
       0.06336892 0.3780883 0.18484107 0.2114179
000010 f9 c3 16 bd 70 82 15 3e 8c 6d fa 3d 0b 77 98 be
       -0.036807988 0.14600539 0.12227926 -0.29778323
000020 58 a3 10 3e ec 7d e7 bc fd 81 86 3e 20 5a cd 3c
       0.1412481 -0.028258286 0.26271048 0.025067389
000030 0a 0d 39 be 81 bc 6f be 94 d3 81 be 0b 8e 6a bd
       -0.1807138 -0.23411752 -0.25356734 -0.05726437
000040 03 81 3f be cf 4a 82 be 42 73 8d 3e d9 6d a1 3d
       -0.18701558 -0.254477 0.27626997 0.0788228
000050 7b 1c fa bd 15 0d 03 bf d3 7b 1d 3e d8 82 94 be
       -0.122124635 -0.51191837 0.15379266 -0.29006076
000060 9f ab ad 3e 14 6b 78 be d2 eb 40 3d 2d c1 60 be
       0.3392 -0.24259597 0.047099896 -0.2194869
000070 24 a4 42 3e 70 8b cc be 5f f9 fc 3b 1b 7b b1 3e
       0.19007927 -0.39950132 0.007720157 0.34664235

model.8.running_var f4 [32]
000000 10 8c 78 3d 89 45 7e 3d 14 a7 f2 3d a8 84 57 3e
       0.06068045 0.062078033 0.11848274 0.21046698
000010 56 df 8f 3d f9 f7 2e 3e 68 d5 52 3d b9 1a ff 3e
       0.0702502 0.17086782 0.05147305 0.49825075
000020 92 f3 f2 3e e8 84 f5 3d d2 32 42 3d 59 a4 7f 3d
       0.47451454 0.119882405 0.047411747 0.062412594
000030 43 02 1e 3e 3b 76 8b 3d df bf e5 3d 8d bb 84 3d
       0.1543055 0.0680966 0.11218237 0.06481085
000040 a9 82 85 3d ca 6e 5a 3e ed e0 8f 3d 81 37 45 3d
       0.06519062 0.21331325 0.07025323 0.048148636
000050 57 ba 90 3d d4 b9 26 3e a7 a9 6b 3d 02 b0 14 3e
       0.070667915 0.16281825 0.05753484 0.14520267
000060 c2 d4 b9 3d 5a 19 82 3d 47 1f 9e 3d 78 ef 50 3d
       0.090737835 0.06352492 0.077208094 0.051009625
000070 b3 a3 9d 3d 36 09 7c 3e 3e 2e d3 3d b4 34 56 3e
       0.07697239 0.24612889 0.10311554 0.20918542

model.10.weight f4 [64, 32, 3, 3]
000000 6e 7c ed bb 3f 4e f6 3c 67 23 5a bc 81 80 f9 3c
       -0.007247499 0.030066608 -0.013314105 0.030456783
000010 3c ab 41 bd 33 c7 e7 3c bc 9d 62 3c 74 fc 32 3d
       -0.047282442 0.028293228 0.013831552 0.04369779
000020 35 d0 de bc 83 2c f5 bc 40 70 54 3d 1c 77 00 bd
       -0.02719889 -0.029928451 0.051864862 -0.03136359
000030 e2 91 01 3c de 0d d3 bc 28 67 42 bd 75 42 b2 bb
       0.007908316 -0.025763448 -0.04746166 -0.005440051
000040 ee 2a 35 3d cb b9 fa 3a a2 0a 24 bd 8d 71 f2 bc
       0.044230394 0.0019128857 -0.040049203 -0.02959516
000050 61 c8 6d bd c7 6c 59 3d 65 0a 12 3c e7 73 ee 3c
       -0.058052424 0.053082254 0.008913611 0.029108
000060 a3 0c 03 bc dc 42 1c bd 0b 55 3c 3d 6a a0 22 3d
       -0.007998618 -0.0381497 0.04597954 0.039703764
000070 5f aa b3 bb 23 c7 fb 3b 3c d9 00 bd 66 69 90 3c
       -0.0054829563 0.007683651 -0.03145717 0.017628383
000080 be 30 0e 39 24 99 4d 3d 75 c9 94 3c c3 63 dd bc
       0.00013560333 0.050194874 0.018162468 -0.02702511
000090 d6 f4 ce 3b e2 67 9e 3c e4 88 5a bd e5 dc 73 bd
       0.006315808 0.019336645 -0.053353205 -0.059536833
0000a0 68 64 ee bc 29 eb de bc 5d 51 28 bc 2a 12 00 3d
       -0.029100612 -0.027211742 -0.010273305 0.031267323
0000b0 c4 8c a3 3b 1b d8 ab bc 3b f3 5c 3d 24 bb 52 3d
       0.004991146 -0.02097707 0.0539429 0.051448002
0000c0 94 b1 2d 3d b9 ed 20 bd e4 2c 2c bd de bc c5 3b
       0.04240568 -0.03928921 -0.042035 0.0060344776
0000d0 76 24 46 bd 05 05 c8 bc a4 38 85 bd bd dd 11 bd
       -0.048374616 -0.024416456 -0.06504944 -0.035611857
0000e0 b6 79 1d bd da 24 38 bd 1b a9 16 3d 61 2e f1 3b
       -0.03844615 -0.04495702 0.036782365 0.007360265
0000f0 c3 b7 d5 3c 7c 9b 4a bd a3 af dd 3b 6e 8e 4b 3d
       0.026088601 -0.049464688 0.0067653223 0.04969638
000100 17 2a 52 bd cb 44 56 3d f6 5f a7 bc 36 34 18 3c
       -0.05130967 0.0523117 -0.0204315 0.009289792
000110 f8 a1 44 3c fe c7 2a bd b0 93 35 bc da a1 0e 3d
       0.012001507 -0.041694634 -0.011082575 0.034822322
000120 63 12 33 bd 2c 2a 4e bd 97 e5 1f 3d 43 8a 42 3d
       -0.043718707 -0.050333187 0.039037313 0.047495138
000130 dc f4 e4 bb c1 73 34 3d a8 a7 3f bb 19 de dd bc
       -0.0069871973 0.044055704 -0.0029244218 -0.027083443
000140 ce 7a 6e 3c 11 ec 0b bd c0 fc 3a bd e9 72 21 bd
       0.014555646 -0.034160677 -0.045651197 -0.039416227
000150 f9 d7 e2 bc cc 9d d9 bc 98 cd 7c 3c 31 81 69 3d
       -0.027690874 -0.026564501 0.015429877 0.057007972
000160 41 17 4d bd 7a 08 34 bc 14 65 91 3d 96 0d 45 3d
       -0.050071005 -0.010988349 0.07099357 0.04810866
000170 e1 82 c2 3b 78 08 a1 bc 3c 8d 57 3b e4 32 99 bc
       0.005936012 -0.019657359 0.0032890579 -0.018701024
000180 c9 2e c5 3c 0e 5f a7 bc cb 40 05 bd 56 76 46 bc
       0.02407016 -0.020431068 -0.032532495 -0.012113174
000190 f9 c2 ff bc 92 31 ed 3c 34 79 1c bd 6f 9a 5b bd
       -0.0312209 0.028954301 -0.038201526 -0.053614076
0001a0 ed 81 19 3d af 5f c3 bc bb 4e d4 bb a5 e7 27 bd
       0.037477423 -0.023849336 -0.006479112 -0.040992398
0001b0 f4 59 10 bd 8b 02 3d 3c f2 20 2e 3c bb 71 f4 3b
       -0.035242036 0.011536251 0.010627972 0.007459847
0001c0 3b e8 95 bc a7 da dd bc 17 11 15 3d 35 c2 a9 bc
       -0.018299213 -0.0270818 0.03639325 -0.020722488
0001d0 e0 26 c8 bc 5b 9f ab 3c e9 6b 22 3d 3a cb a1 bc
       -0.0244326 0.02095001 0.039653692 -0.019750226
0001e0 9a f8 58 3d 31 a6 62 bd f2 38 04 3c dc 02 cc 3c
       0.05297146 -0.055334274 0.008070217 0.024903707
0001f0 43 27 04 3d a5 bc 24 bd 94 b8 48 bc a2 cb eb 3c
       0.032264005 -0.040218968 -0.012251038 0.028783623
000200 e1 63 b3 bb 63 de bb 3c 49 e3 c0 3c 8a 46 42 bd
       -0.005474553 0.02293319 0.023545878 -0.047430553
000210 fb ee 4f 3d e0 0d 51 3c 2d a2 0d bd 1d f2 5f 3d
       0.05076502 0.012759656 -0.03457849 0.054674257
000220 c7 e4 32 3d a0 dd 19 bd b1 ac 57 bc 5e 0e 83 bd
       0.04367521 -0.037564874 -0.013163731 -0.06399225
000230 1a 2b 4c bc e5 c7 32 3d bc 08 ad bc 72 47 59 3c
       -0.012461448 0.043647666 -0.021122329 0.013261663
000240 b5 5e d7 bc 86 42 35 bd fa 9a ba 3c 59 d3 c8 bc
       -0.026290277 -0.044252895 0.022778977 -0.02451484
000250 9e d6 ba bc 3d 61 e9 3c 3d 07 db bb 4e eb 27 bd
       -0.022807416 0.02848875 -0.0066842125 -0.04099589
000260 9e e8 ab 3c f3 bc 84 3d 9a ba 0f 3d 6c c9 22 bd
       0.020984944 0.06481352 0.035090066 -0.039742872
000270 1b 5d 89 3c 65 82 41 3b d5 31 ca bc 1d b3 b6 bc
       0.016768029 0.0029527184 -0.024681965 -0.022302205
000280 fd 54 ed bc 5d 0d 12 bb d6 b5 66 bd ea b0 31 3b
       -0.02897119 -0.0022285797 -0.056325756 0.0027113506
000290 a4 d5 21 3c 45 57 b5 3c 7f f1 07 3d 23 f2 39 3d
       0.009877596 0.02213634 0.033189293 0.045396935
0002a0 67 46 10 bd 1b 2a 19 bc 88 94 1e 3d 9b e5 19 3d
       -0.03522339 -0.009348418 0.03871587 0.037572484
0002b0 70 d4 3f 3d 76 ee 55 bd 18 53 1f 3d 02 d9 11 bd
       0.046833456 -0.052229367 0.038897604 -0.035607345
0002c0 3d 05 81 3c 72 b6 41 bd de f9 6f bb 16 cb 4c 3d
       0.015749568 -0.047293134 -0.0036617438 0.049998365
0002d0 72 70 46 3d b1 c5 0c bd ea 88 39 bd 3c 12 a1 bc
       0.04844708 -0.03436822 -0.045296587 -0.019662015
0002e0 8c 6c 5c 3d d6 c5 1e 3d 3b 80 27 bd 80 0e 1f bd
       0.053814456 0.03876289 -0.040893774 -0.038832188
0002f0 b1 f9 e2 3b f4 62 0b bd 02 d8 6f bd 21 3b 26 3d
       0.006926738 -0.034029916 -0.05855561 0.040583733
000300 a0 a9 56 3d b4 4d 42 bd 03 a3 b5 3c ce 4b 84 bc
       0.05240786 -0.047437385 0.022172457 -0.016149428
000310 dc 53 27 3d db cd 5a bd 8c 96 77 bd 49 2a 23 3d
       0.04085146 -0.053418975 -0.060446307 0.03983525
000320 33 42 a6 bc 3e 34 e0 bc 3a ed d5 3c d2 3a 43 bc
       -0.020295238 -0.027368661 0.026114095 -0.011915879
000330 4c 12 4f 3c c1 20 24 3d e0 42 2f 3d a1 47 66 3b
       0.01263864 0.0400703 0.042788386 0.003513791
000340 25 5d 3d 3d 91 6a 9c bb 8b 8f a9 3c 7a b0 2e 3d
       0.046231408 -0.004773446 0.02069833 0.04264877
000350 21 85 2e 3d f2 75 54 3d 72 bc 26 bc 34 fe 10 bd
       0.04260743 0.051870294 -0.010176765 -0.035398677
000360 f6 4b 9a 3c 5f 7b be 3c b6 f5 36 3c d8 89 b4 bc
       0.01883505 0.023252187 0.0111669805 -0.022038385
000370 71 c2 34 3c 00 5f 08 bd 36 30 05 3d e6 68 12 b8
       0.011032687 -0.033293724 0.03251668 -3.4906807e-05
000380 8c d7 68 3d 14 9d ab 3c 24 00 88 3b 9c 80 94 bb
       0.056846187 0.020948924 0.0041504074 -0.004531933
000390 df 0a 64 bd 82 5d ed 3c ea 5e 85 3c 68 2b 21 3c
       -0.05567443 0.028975252 0.01628061 0.009837009
0003a0 ea 9d 5c 3c de d1 ef bc 0b 57 e2 3c 8d 66 bd 3c
       0.013465384 -0.029274877 0.027629396 0.02312019
0003b0 28 3a 46 3d cb 2e be bc c3 0b 9d 3c 08 3e d2 bc
       0.048395306 -0.023215672 0.019170647 -0.025664344
0003c0 2f 6a 74 bc 45 33 15 bd cc 0e a6 3c f8 e6 bc bc
       -0.014917894 -0.036425848 0.020270728 -0.023059353
0003d0 70 08 3c bd b5 e4 0d 3d f0 d9 52 3d a9 76 ad bc
       -0.045906484 0.03464194 0.051477373 -0.021174746
0003e0 fd d8 2e bd 07 84 18 bc e4 58 36 bd 71 73 6b 3d
       -0.042687405 -0.0093088215 -0.044518366 0.05748314
0003f0 41 61 23 3d 9c 9a f9 b8 04 0d 3e bc cf 36 9c bc
       0.03988767 -0.000119020435 -0.011599783 -0.019069104

model.10.bias f4 [64]
000000 46 f3 60 3d 7d bc ee bb 93 21 16 bd d4 99 75 3d
       0.054919504 -0.007285653 -0.036653113 0.059961155
000010 2c 01 d4 3c a3 50 30 bd 7d 52 2d 3d 6c a7 40 bd
       0.025879465 -0.04304565 0.042314995 -0.047034666
000020 54 0f 16 bd 1f d2 0c 3d da 05 05 3d b2 43 08 3d
       -0.03663571 0.034380075 0.032476284 0.033267684
000030 4c 2d 21 3d e7 b8 33 bb fc 1d 33 bd 95 b8 a6 bc
       0.03934984 -0.0027423443 -0.043729767 -0.020351687
000040 83 1a 6f 3c 53 28 23 3c d2 b6 2e bd c4 05 64 3d
       0.014593723 0.0099583445 -0.04265482 0.05566956
000050 b2 b5 0b 3b e9 ca 20 ba 7b 9e eb bc 3c b8 fc bc
       0.0021318016 -0.00061337516 -0.028762093 -0.030849569
000060 d5 33 dc 3c 6a 23 bb 3c bf e8 3b bd 0e 01 ad 3c
       0.026880184 0.022844035 -0.04587626 0.021118667
000070 82 05 39 bd 32 5d d1 3c c1 58 2d bd 3b f4 1c bd
       -0.04517127 0.025557134 -0.04232097 -0.038318854
000080 c8 96 a5 3c 49 64 2a bd 86 b0 bb 3b 3b 2b 9e 3c
       0.0202135 -0.041599546 0.0057278303 0.019307723
000090 8f 60 37 3d a8 e0 2d 3d db 5d 61 3d 54 2f 95 3c
       0.04476982 0.042450577 0.05502115 0.018211044
0000a0 3f c2 81 bc ab dc d3 bc 01 e2 ff bb e2 18 4b bc
       -0.015839694 -0.025862059 -0.007808924 -0.012396069
0000b0 0b c5 42 3d 5e 2e a0 3c a3 2b ad 3c e4 ab 40 3c
       0.047551196 0.01955336 0.021138972 0.011759732
0000c0 f5 2b 4a 3d 7c 9e b7 3c fb f8 8f 3c aa 34 6c bd
       0.049358327 0.022414438 0.017574778 -0.057667412
0000d0 7c 67 30 3d 40 54 0f 3d c1 52 49 bd 9f 24 57 bd
       0.04306744 0.034992456 -0.049151186 -0.05252516
0000e0 a4 2a a2 bc 3d 51 65 39 db ab 1d bd f2 07 2d 3d
       -0.019795723 0.00021869405 -0.038493972 0.042243905
0000f0 1e fc ba bc da 35 c6 3c 81 e2 3a bc 82 75 93 3c
       -0.022825297 0.0241956 -0.011406542 0.018000368

model.11.weight f4 [64]
000000 bf 2c 80 3f d9 3d 80 3f 04 d1 7f 3f 37 58 80 3f
       1.0013655 1.0018874 0.9992831 1.0026921
000010 0d 38 80 3f b4 b6 80 3f c6 b2 81 3f 95 e5 7e 3f
       1.0017105 1.0055757 1.0132682 0.99569064
000020 66 67 7e 3f a0 d2 7e 3f 3f 11 80 3f 2c 11 7e 3f
       0.99376523 0.9954014 1.0005263 0.9924495
000030 69 63 80 3f c5 06 7f 3f 96 09 80 3f 8f 86 81 3f
       1.0030338 0.99619704 1.0002925 1.0119189
000040 b0 c6 7c 3f 94 14 81 3f 5c 62 80 3f ea 47 80 3f
       0.98740673 1.0084405 1.0030017 1.0021946
000050 ec 44 80 3f f1 34 80 3f b0 c8 7d 3f 01 4f 7f 3f
       1.0021033 1.0016156 0.9913435 0.99729925
000060 d0 fd 7f 3f b9 8f 80 3f d0 0f 80 3f 4f 7d 7e 3f
       0.9999666 1.0043861 1.0004826 0.99409956
000070 1a 7b 80 3f e2 b6 7f 3f ec ef 7f 3f 48 3a 7f 3f
       1.0037568 0.9988843 0.99975467 0.99698305
000080 b7 08 80 3f b2 a5 80 3f 3e ae 7e 3f 71 e2 80 3f
       1.000266 1.0050566 0.9948462 1.0069104
000090 8e 67 7f 3f b4 46 80 3f 34 da 7e 3f 43 10 80 3f
       0.99767387 1.0021577 0.995517 1.0004963
0000a0 e9 22 80 3f 5f 96 7f 3f 8f fb 7e 3f a4 aa 81 3f
       1.0010654 0.99838823 0.996026 1.01302
0000b0 d3 0c 80 3f bf 3c 7f 3f 61 39 81 3f 33 e2 7f 3f
       1.0003914 0.99702066 1.0095636 0.9995453
0000c0 f8 ee 7e 3f f6 89 7f 3f c1 c1 7f 3f e0 eb 80 3f
       0.9958339 0.99819887 0.9990502 1.0071983
0000d0 fc 90 7f 3f 6c 59 7f 3f d9 12 81 3f db b6 7d 3f
       0.99830604 0.9974582 1.0083877 0.9910714
0000e0 4c ef 80 3f f4 56 7e 3f 49 47 7e 3f 56 f1 7e 3f
       1.0073028 0.9935143 0.9932752 0.99587
0000f0 5a 18 81 3f ed d9 7f 3f 5e ec 80 3f 1a 0c 80 3f
       1.0085557 0.99941903 1.0072134 1.0003693

model.11.bias f4 [64]
000000 a3 f7 8f bb fd 2d 9a bb 74 cc 20 bc 92 e0 0e bb
       -0.0043935343 -0.0047051893 -0.00981437 -0.0021801335
000010 60 57 99 bb cd 45 d3 ba 63 84 14 bb 23 a5 c8 bb
       -0.0046796054 -0.0016118825 -0.0022661916 -0.0061232015
000020 60 48 d3 bb 46 87 23 bc 1a 9a 5a bb dc 16 a4 bb
       -0.0064478368 -0.009980982 -0.0033356012 -0.005007608
000030 c1 8a 26 3b 14 a9 ed ba 05 d9 1a ba ce 87 55 bb
       0.0025412294 -0.0018132054 -0.0005906972 -0.0032582167
000040 3c a3 6f bc d1 a8 ad bb 9a 22 47 bc 33 ce fb bb
       -0.01462632 -0.0052996655 -0.012154246 -0.007684493
000050 43 ed ac bb d6 ef 46 bc f9 e2 11 bc fe 16 07 bc
       -0.0052773072 -0.012142142 -0.008904212 -0.008245228
000060 42 08 fa ba ae 1f 9e bb 8c 9a 45 bc 1c 20 15 bc
       -0.0019075947 -0.004825554 -0.012060773 -0.009101894
000070 90 0c cc b9 d3 ba e3 b8 f6 20 8b 3a 00 ac 25 bc
       -0.00038919272 -0.00010859002 0.0010614682 -0.010111809
000080 26 a5 a2 39 60 36 e5 3b 94 81 36 bb 72 28 f6 ba
       0.00031022093 0.0069950074 -0.002784823 -0.0018780364
000090 e1 93 4a bb 11 39 08 b9 96 2c 12 bc d0 0e b7 bb
       -0.0030910897 -0.0001299123 -0.008921763 -0.0055864826
0000a0 25 d8 c3 bb 34 24 33 bb d5 7c 95 bb 20 51 e4 3b
       -0.005976694 -0.0027334811 -0.0045620003 0.0069676787
0000b0 29 de e1 bb 91 22 b0 3a cf c4 2c bc 9a 4d 0d ba
       -0.0068929386 0.0013438036 -0.01054497 -0.00053902867
0000c0 35 d4 02 bc 89 45 f3 bb bc 09 8b bb a4 a0 85 3b
       -0.007985164 -0.0074240607 -0.004243104 0.0040779877
0000d0 13 d0 33 bc b7 57 14 bb 56 b4 77 bb 4f fb 5f bc
       -0.010974902 -0.002263529 -0.0037796698 -0.0136707565
0000e0 d2 51 e7 ba 2b 89 96 bb 6b a0 58 bb 6d e4 0a b9
       -0.0017648286 -0.0045939884 -0.00330546 -0.00013245801
0000f0 91 b6 e9 3a 03 8f 0b bb 02 40 05 bb e1 b3 fb b7
       0.0017830898 -0.0021294958 -0.002033234 -3.0005294e-05

model.11.running_mean f4 [64]
000000 c8 a0 cb bc ae 08 6a be 49 d4 15 be f8 ef a8 bd
       -0.02485694 -0.22854874 -0.14631762 -0.082488954
000010 43 0a 66 be 24 70 e1 be f4 0e 8b 3d 48 a5 a6 3b
       -0.22464852 -0.4403087 0.067899615 0.005085621
000020 c6 7d 5d be 26 02 89 3d 2f 66 e1 3d f5 e3 7f be
       -0.2163001 0.06689863 0.11005818 -0.24989302
000030 c8 b4 30 bd b1 ae 6e be 6d c9 b3 bc 87 be c8 bd
       -0.043141156 -0.23308827 -0.021946633 -0.09801965
000040 0c af c9 3d c4 5b 21 3e 9b 8e 3b be 72 d6 88 3d
       0.09847841 0.15757662 -0.18316118 0.06681527
000050 89 bf 36 3d 37 99 8f bd 6a a5 86 3d b2 a4 20 be
       0.044616256 -0.07011645 0.06574519 -0.15687826
000060 37 11 18 bd dd b6 f6 bd 76 a7 8a be f9 72 b6 3e
       -0.037125792 -0.12046597 -0.27080888 0.35634592
000070 ed b9 41 be 01 eb a3 be da a7 41 be f7 fc 18 be
       -0.18918581 -0.3201523 -0.18911687 -0.14940248
000080 86 ee 02 be 2f fc 49 3e 53 ff bf 3d c5 ab b6 3b
       -0.12786302 0.19725107 0.09374871 0.0055746757
000090 53 1f ed bd 8c 1e df bd 74 3f 4e be 4d 3f ae be
       -0.1157824 -0.10894498 -0.20141393 -0.3403267
0000a0 e7 a4 28 bd b6 52 6b be 6c 3b 38 3d 14 ee cb bd
       -0.041172888 -0.2298077 0.044978544 -0.09957519
0000b0 ca 8d 9f bd 31 7f 88 be 6f 83 80 be ea d3 a9 be
       -0.07790716 -0.2665954 -0.25100276 -0.3316949
0000c0 fb aa 49 3d c5 55 c4 3e 35 c5 ce bc 8d f0 3b 3e
       0.049235325 0.38346687 -0.02524052 0.18353482
0000d0 da 04 ad bb f2 29 86 bd 8e 38 3b 3e f5 92 39 3e
       -0.0052801194 -0.06550969 0.18283293 0.18122466
0000e0 85 b8 36 3e 9f 68 18 3e e0 a7 7a 3d be 52 6c 3e
       0.17843826 0.1488366 0.061195254 0.23078439
0000f0 6d 68 16 be da f5 7a be f6 ab 97 3e f8 7a 73 bd
       -0.14688273 -0.24507847 0.29623383 -0.059443444

model.11.running_var f4 [64]
000000 41 b4 a4 3d a3 a9 86 3d a5 ec 26 3d 15 ef 9f 3d
       0.08042193 0.065753244 0.040753026 0.07809273
000010 cd a4 12 3e 22 6b 8c 3d 20 32 49 3d b1 09 85 3d
       0.14320679 0.068563715 0.04912007 0.06495989
000020 86 a5 0b 3e c2 da 7e 3d a9 eb 96 3d 18 83 0e 3e
       0.13637361 0.062220342 0.07369167 0.13917196
000030 0d a1 6d 3d f7 8d 7c 3e 2f b9 ba 3d a0 eb 6a 3d
       0.058014918 0.2466353 0.09117352 0.057353616
000040 7c 4a ab 3d be 8a 4f 3d c6 fd 86 3d a8 0b 8c 3d
       0.08363816 0.050669424 0.06591372 0.06838161
000050 11 6f b3 3d 16 08 a2 3d 38 70 ae 3d 17 16 71 3d
       0.087614186 0.079116985 0.08517498 0.058858957
000060 e5 95 89 3d 56 a7 ad 3d 60 9e 9c 3d a3 47 08 3e
       0.06718043 0.084791824 0.07647395 0.13308577
000070 26 ca e6 3d 4b 77 a0 3d 3c 84 c7 3d 07 f5 fa 3d
       0.112690255 0.07835253 0.097420186 0.122537665
000080 fa d9 c8 3d e0 4c 66 3d d8 16 88 3d 6a 07 99 3d
       0.09807201 0.056225657 0.06644982 0.07472117
000090 5e 90 d3 3d 06 9c 8b 3d 31 c2 d7 3d 0f 18 a1 3d
       0.1033027 0.068168685 0.10535086 0.07865917
0000a0 c4 34 a9 3d 8e 5c d8 3d a7 a2 9b 3d b0 95 9c 3d
       0.08262017 0.105645284 0.07599383 0.07645738
0000b0 e5 c1 85 3d 9b 02 06 3e c2 4d d4 3d 9e bd 11 3e
       0.06531123 0.13086931 0.103663936 0.1423249
0000c0 f8 94 8e 3d 46 e1 c9 3d 70 89 91 3d b9 3d db 3d
       0.06962007 0.098574206 0.07106292 0.10705132
0000d0 79 fb b1 3d 1a 2a 8b 3d 81 30 90 3d 51 3f 40 3e
       0.08690543 0.067951396 0.070405014 0.18774153
0000e0 a2 fa 86 3d 0a ef e4 3d 16 87 8b 3d 08 8d a8 3d
       0.06590773 0.111784056 0.06812875 0.082300246
0000f0 11 1f 8b 3d e0 e9 13 3e 6c 45 e9 3d fe f0 9e 3d
       0.06793035 0.14444685 0.11390194 0.07760809
