imitation_learning/models/h5-lr0.001-agent.pt (torch, 972400 bytes, 34 tensors)

model.0.weight f4 [16, 5, 7, 7]
0	0xbd365b36	-0.04452058
1	0x380c9fc1	3.3527383e-05
2	0xbc708989	-0.014681228
3	0x3bc2cedf	0.005945071
4	0xbd5e8597	-0.05432662
5	0x3c4977ac	0.012296598
6	0xbd9c2f1d	-0.07626174
7	0x3d01a376	0.03165003
8	0x3b4a04ec	0.0030825688
9	0xbd58ef66	-0.052962683
10	0xbd435fb1	-0.04769868
11	0xbd01564a	-0.031576432
12	0xbcc41c6f	-0.02393934
13	0x3c931ba7	0.017957522
14	0x3d4c76d7	0.049918022
15	0x3d0eaf69	0.034835253
16	0x3c67e79d	0.014154342
17	0xbc85d634	-0.016337492
18	0xbcf19554	-0.02949015
19	0x3c5cb600	0.013471127
20	0xbb9bc380	-0.00475353
21	0xbca1cb35	-0.019750217
22	0xbc810a3e	-0.015751954
23	0x3dc44a76	0.09584515
24	0xbd2e15da	-0.042501308
25	0xbd01d123	-0.03169359
26	0x3c926430	0.017870039
27	0xbc99fac8	-0.01879634
28	0xbcd1d92b	-0.02561625
29	0x3de5c853	0.112198494
30	0x3d29b8f6	0.041436158
31	0xbda55413	-0.080726765
32	0xbd8b93d0	-0.06815302
33	0x3bdd58c9	0.006754969
34	0xbd624f0f	-0.055251177
35	0x3d053023	0.03251661
36	0xba6a7ca6	-0.00089449657
37	0x3d637181	0.055528168
38	0xbc55f506	-0.013058906
39	0xbd4bf5a3	-0.049794804
40	0x3c75bab1	0.014998124
41	0xbc4cbb94	-0.012495894
42	0xbd722337	-0.059115615
43	0xbddd70a7	-0.10812502
44	0xbd7669e3	-0.060159575
45	0x3d9ee9fd	0.077594735
46	0x3b99bca7	0.0046916786
47	0x3be29c75	0.006915624
48	0x3bbb04d0	0.005707361
49	0xbd6b0f23	-0.057387482
50	0xbd6b9ae2	-0.057520755
51	0xbd12a663	-0.03580321
52	0xbc1e2475	-0.009652247
53	0xbd1cc3de	-0.03827273
54	0x3ccaca56	0.024754684
55	0xbd46c9bf	-0.048532244
56	0x3d2ee3cf	0.042697724
57	0xbd0347cb	-0.03205089
58	0x3c304278	0.010758035
59	0x3c662cb1	0.014048741
60	0x3ce63a3e	0.028103944
61	0x3d47edc0	0.04881072
62	0xbd13571b	-0.035971742
63	0x3d0a2c64	0.03373374
64	0xbd888874	-0.06666651
65	0xbc475a35	-0.012167503
66	0x3c9cebd9	0.01915543
67	0xbb829905	-0.0039855265
68	0x3c8c01e0	0.017090738
69	0xbd6734ad	-0.05644672
70	0xbd2c3d52	-0.042050667
71	0xbd16a2d0	-0.036776364
72	0xbcfe6c4f	-0.031057505
73	0xbd1ed97f	-0.03878164
74	0x3d888b9b	0.06667253
75	0xbd911ab8	-0.07085174
76	0x3cbe64f5	0.0232415
77	0x3d3204d1	0.043461625
78	0x3d94745e	0.07248758
79	0xbce985a3	-0.028506106
80	0x3b96a414	0.0045971964
81	0xbd8bd533	-0.06827774
82	0x3c126b47	0.00893671
83	0x3acf6b7f	0.0015824883
84	0xbd4363d9	-0.047702644
85	0x3bd959c3	0.006633015
86	0x3c591572	0.013249742
87	0xbd4e7176	-0.050401174
88	0xbccf9450	-0.025339276
89	0x3ca15a73	0.01969645
90	0x3ce64e6f	0.028113572
91	0x3d91f3a8	0.07126552
92	0xbdbea8cc	-0.09309539
93	0xbcfc6648	-0.03081049
94	0xbcf641ac	-0.030060612
95	0x3d9a9579	0.07548041
96	0xbbf8ae9f	-0.007589176
97	0xbd562ee2	-0.052290805
98	0x3c3c58e5	0.0114958035
99	0x3c92a59f	0.01790124
100	0x3ce09486	0.027414571
101	0x3d516476	0.051121198
102	0x3cd53819	0.026027726
103	0xbcb958f4	-0.022625424
104	0x3d32717c	0.04356526
105	0xbd3b3807	-0.04570773
106	0x3d66be89	0.056334052
107	0x3d0b5aaa	0.03402201
108	0x3ba621af	0.0050699334
109	0x3d600bbd	0.054698694
110	0xbc99a7e8	-0.018756822
111	0xbcfb70b1	-0.030693384
112	0x3d3bb40e	0.04582601
113	0xbceca86a	-0.0288889
114	0x3b23c770	0.00249907
115	0xbd39ce31	-0.045362655
116	0xbd14e341	-0.03634954
117	0x3c58eddc	0.013240304
118	0xbc7192b4	-0.014744449
119	0xbd9ab942	-0.075548664
120	0x3aa9b7df	0.0012948475
121	0xbd79251a	-0.0608264
122	0xbd8b6db0	-0.068080306
123	0xbd84fd68	-0.06493646
124	0x3d021503	0.03175832
125	0x3be20f40	0.0068987906
126	0x3c4b2644	0.01239926
127	0x3d412e9d	0.047163595
128	0x3d40fcaf	0.047115978
129	0xbd0dbc6c	-0.03460352
130	0x3d19ed5d	0.037579883
131	0xbc57ee65	-0.013179396
132	0x3b63cf9c	0.0034761196
133	0x3c5be4a6	0.013421213
134	0xbd9de386	-0.07709412
135	0xbbc1c722	-0.005913631
136	0xbcaaf665	-0.020869443
137	0x3c2e2ed4	0.010631282
138	0x3d3d6095	0.046234686
139	0x3c0130ed	0.0078852
140	0xbce7c973	-0.0282943
141	0xbcd49000	-0.02594757
142	0xbc309391	-0.01077737
143	0x3cd3c4f8	0.025850758
144	0x3db23d52	0.08703102
145	0x3cbdd4e0	0.023172796
146	0x3c91da84	0.017804392
147	0x3ce8988d	0.028393054
148	0x3c8c3ebf	0.017119763
149	0x3d39a9dc	0.045328006
150	0x3d68d3f0	0.056842744
151	0xbdaf5f1f	-0.08563065
152	0xbd8767dc	-0.066116065
153	0xbaf5614d	-0.0018721014
154	0x3d9fc3d1	0.07801021
155	0xbd724d7c	-0.059155926
156	0x3ce830c1	0.02834356
157	0x3d85717d	0.06515787
158	0x3d1a4e4c	0.037672326
159	0xbc8e7eb1	-0.017394396
160	0xbceb15f4	-0.028696992
161	0x3c7ba463	0.015359017
162	0xbc646fbc	-0.013942655
163	0xbceadfcf	-0.028671173
164	0xbd2486e5	-0.040167708
165	0x3bbe435b	0.0058063692
166	0xbb7b58aa	-0.0038352408
167	0x3c19f6b0	0.009397194
168	0xbb5a1707	-0.0033277886
169	0x3c5c1666	0.013433075
170	0x3b066a69	0.0020510203
171	0x3c03a88f	0.008035793
172	0x3c9f939b	0.019479563
173	0x3d73f2ef	0.05955785
174	0x3ca82ce3	0.020529216
175	0xbdb5d52f	-0.08878552
176	0xbc03507e	-0.008014796
177	0x3cdde435	0.027086357
178	0xbd8067a3	-0.06269767
179	0xbd63eed4	-0.055647686
180	0xbd09a30d	-0.033602763
181	0xbd6265c0	-0.055272818
182	0xbd62bc44	-0.055355325
183	0xbdccfcb1	-0.100091346
184	0xbdb8dc1a	-0.09026356
185	0xbc46dd1c	-0.0121376775
186	0x3d8c603d	0.068542935
187	0xbcfce81f	-0.030872403
188	0x3d85e462	0.06537701
189	0xbd7e88ab	-0.062142055
190	0xbd4a3302	-0.04936505
191	0xbdc63246	-0.09677558
192	0x3b6c389a	0.003604448
193	0x3b27c3c9	0.0025598875
194	0xbd04c6ed	-0.032416273
195	0xbc1dbeef	-0.009628042
196	0xbd56c967	-0.052438166
197	0xbd5d5b4a	-0.05404214
198	0xbdd90568	-0.10596734
199	0xbd25f1bc	-0.04051374
200	0xbd924956	-0.07142894
201	0xbd1ffb01	-0.039057735
202	0x3c36e53d	0.011163053
203	0xbd33cd02	-0.043896683
204	0xbd948cba	-0.07253404
205	0xbb86d4e7	-0.0041147354
206	0xbd5d6cdc	-0.054058895
207	0xbc86bd60	-0.016447723
208	0x3cb1d288	0.021706834
209	0xbc32b8c3	-0.010908308
210	0x3d827884	0.06370643
211	0xbcdc8b25	-0.026921818
212	0xbd80f6fe	-0.0629711
213	0xbcbb28d1	-0.022846611
214	0xbc2bd57e	-0.010487912
215	0x3c802855	0.015644232
216	0x3da703d6	0.081550285
217	0xbd589b2e	-0.052882366
218	0xbd60792f	-0.05480307
219	0x3c087317	0.008328221
220	0x3bf6cba9	0.0075316024
221	0x3ba6cb9f	0.0050901915
222	0xbb6113f7	-0.0034344175
223	0x3d87515b	0.06607314
224	0x3d65aaef	0.056071218
225	0xbc284115	-0.010269423
226	0x3d3a52ef	0.045489248
227	0xbda7b71b	-0.081892215
228	0xbcf0c1a1	-0.029389204
229	0x3d8feee0	0.07027984
230	0xbd177a3a	-0.0369818
231	0xbd3e5e50	-0.046476662
232	0xbda3d510	-0.07999623
233	0xbda2271d	-0.079176165
234	0x3c08fed9	0.008361542
235	0x3d7016b9	0.05861542
236	0x3de2c882	0.110734
237	0x3dab9603	0.08378222
238	0xbddd110f	-0.10794269
239	0xbdfa8d31	-0.122339614
240	0xbdd8b9c0	-0.10582304
241	0xbc8f9719	-0.017528104
242	0xbd59599e	-0.05306398
243	0x3d45b2d1	0.048266236
244	0x3d895c9a	0.067071155
245	0xbd0574e4	-0.03258218
246	0x3d497c17	0.049190607
247	0xbd437a59	-0.0477241
248	0xbd03700c	-0.032089278
249	0xbd8e4345	-0.069464244
250	0xbceaa840	-0.028644681
251	0xbd894c76	-0.06704037
252	0xbd8bc3f6	-0.06824486
253	0x3d084359	0.033267353
254	0x3bf44c90	0.007455416
255	0xbdaaf225	-0.08346967

model.0.bias f4 [16]
0	0xbd02c927	-0.031930115
1	0x3d470920	0.048592687
2	0x3cba665c	0.022753887
3	0x3bc0eb9b	0.0058874614
4	0xbc931fbd	-0.01795947
5	0xbb3855c6	-0.0028127297
6	0xbc1dfb47	-0.009642429
7	0xbc815ed7	-0.015792293
8	0xbd47dbff	-0.04879379
9	0x3d12467c	0.03571175
10	0xbd7677b3	-0.060172748
11	0xbc97c5e8	-0.018526986
12	0x3d510a3c	0.05103515
13	0xbc619b08	-0.0137698725
14	0xbb56176f	-0.0032667776
15	0xbd630e5a	-0.05543361

model.1.weight f4 [16]
0	0x3f77b351	0.9675799
1	0x3f76ed27	0.96455616
2	0x3f8304e5	1.0235869
3	0x3f83f690	1.030962
4	0x3f74ce00	0.9562683
5	0x3f862b54	1.0481973
6	0x3f82355b	1.0172533
7	0x3f818403	1.0118412
8	0x3f6718d2	0.9027225
9	0x3f85ff28	1.0468493
10	0x3f82b4ab	1.0211385
11	0x3f79d7db	0.97594994
12	0x3f808b86	1.0042579
13	0x3f7af7c4	0.9803431
14	0x3f79a5cb	0.97518605
15	0x3f7b8b16	0.98259103

model.1.bias f4 [16]
0	0xbd05b577	-0.03264376
1	0xbca032f9	-0.019555556
2	0xbd163e99	-0.03668079
3	0x3d9d3e76	0.07677929
4	0xbd7105d0	-0.058843434
5	0xbc78d057	-0.015186391
6	0xbcf1f4f2	-0.029535744
7	0xbd2e3d13	-0.042538714
8	0xbda351ee	-0.07974611
9	0x3c3c390c	0.01148821
10	0xbd281a8b	-0.04104094
11	0xbd2cbdcf	-0.042173203
12	0xbcca3936	-0.024685483
13	0xbd76d2b4	-0.060259536
14	0xbd9e8245	-0.07739691
15	0xbda36fab	-0.07980283

model.1.running_mean f4 [16]
0	0xc341a3d4	-193.63995
1	0xc2a571de	-82.7224
2	0xc2c790fd	-99.78318
3	0x42871bc2	67.554214
4	0xc34615f6	-198.08578
5	0xc0535467	-3.3020265
6	0x42832390	65.56946
7	0x4204bc7b	33.184063
8	0xc3d28289	-421.0198
9	0xc165ae02	-14.354982
10	0x438f7d3f	286.9785
11	0x41b9f8a5	23.246408
12	0x4410b8af	578.8857
13	0xc2570660	-53.756226
14	0x43546b04	212.41803
15	0x439fe25b	319.7684

model.1.running_var f4 [16]
0	0x45bc25b7	6020.7144
1	0x44e46a1c	1827.3159
2	0x44ee6bbb	1907.3666
3	0x449b1802	1240.7502
4	0x45aa071e	5440.8896
5	0x43cc5193	408.6373
6	0x447ee5b5	1019.5892
7	0x442899ca	674.40295
8	0x46cb3c2b	26014.084
9	0x4424109a	656.2594
10	0x46313597	11341.397
11	0x44a6d01e	1334.5037
12	0x4744804d	50304.3
13	0x443a3628	744.8462
14	0x4661f551	14461.329
15	0x46a4de66	21103.2

model.4.weight f4 [32, 16, 3, 3]
0	0x3d66385f	0.056206103
1	0xbd75307e	-0.0598607
2	0xbd7b0d34	-0.06129189
3	0x3d814737	0.06312411
4	0xbd7deb64	-0.061992064
5	0x3d2db0a3	0.042404782
6	0xbd5dcad0	-0.054148495
7	0x3da9b749	0.08286912
8	0x3da29fc6	0.079406306
9	0xbc473d30	-0.012160584
10	0x3d3d2912	0.046181746
11	0x3d88f05d	0.06686471
12	0xbcf1e502	-0.029528145
13	0xbbbbb741	-0.0057286327
14	0x3dcf01f8	0.101077974
15	0xbd7bdd76	-0.0614905
16	0xbd1b1a6e	-0.037867002
17	0x3ca1e393	0.019761836
18	0xbd632f1d	-0.055464853
19	0xbd854a3d	-0.065083005
20	0xbb757ecc	-0.003745961
21	0x3be88537	0.0070959586
22	0xbd968aca	-0.07350691
23	0x3d6f6cf5	0.05845352
24	0x3e052940	0.13004017
25	0x3cc4892f	0.023991195
26	0xbc095311	-0.008381621
27	0x3d8212cb	0.06351241
28	0x3dc055ec	0.09391388
29	0x3cece5d0	0.028918177
30	0x3d65b40f	0.05607992
31	0x3dd1251f	0.102121584
32	0x3d922bf0	0.07137287
33	0xbd977180	-0.07394695
34	0xbd07bc88	-0.03313878
35	0x3d07222c	0.032991573
36	0xbc8c9750	-0.017161995
37	0xbd4f1276	-0.050554715
38	0xbc593a59	-0.01325854
39	0x3d942ea9	0.07235462
40	0xba55d562	-0.00081571017
41	0xbd7de592	-0.061986513
42	0x3db1418f	0.086550824
43	0x3cba8242	0.02276719
44	0xbd60b11a	-0.054856397
45	0xbd94447c	-0.07239625
46	0xbca0baef	-0.019620387
47	0x3d6dae1f	0.058027383
48	0xbd29a7a7	-0.04141965
49	0xbcb07d37	-0.021544082
50	0x3d94f5b7	0.07273429
51	0x3d51c7b6	0.05121585
52	0x3c85187a	0.016247023
53	0xbd544e43	-0.05183245
54	0x3c5bf119	0.013424181
55	0xbc123e9f	-0.008926063
56	0x3d6e0b34	0.058116153
57	0x3cf4006e	0.029785361
58	0x3d502d74	0.050824597
59	0xbd849b31	-0.06474913
60	0x3cd664c7	0.026171101
61	0x3dae393f	0.085070126
62	0x3cb706f2	0.022342179
63	0xbb11fc01	-0.002227545
64	0xbd390278	-0.04516837
65	0xbc2c1950	-0.010504082
66	0xbda44c68	-0.08022386
67	0x3c743c73	0.01490699
68	0x3c7db45e	0.015484897
69	0x3c70f7df	0.014707535
70	0x3d2f92fe	0.042864792
71	0xbcd6572c	-0.026164614
72	0x3cc25c4a	0.023725647
73	0x3ba3ffeb	0.005004873
74	0x3d9336cc	0.07188186
75	0xbd5ac254	-0.053407982
76	0x3c878f6e	0.016547885
77	0xbd3725a6	-0.04471364
78	0xbaa9e15e	-0.0012960841
79	0x3c899cca	0.016798396
80	0xbd401ed3	-0.046904396
81	0xbd46d104	-0.048539177
82	0x3df06534	0.11738053
83	0xbcf3eb2b	-0.029775223
84	0x3d5dec67	0.05418053
85	0x3dde3c07	0.10851293
86	0xbd03365a	-0.032034256
87	0xbac892a9	-0.0015302497
88	0x3d2088ed	0.039193083
89	0x3d8a4f3d	0.06753395
90	0x3db1ed42	0.086878315
91	0x3d457ea6	0.048216484
92	0x3dafcdd7	0.08584183
93	0xbd19e832	-0.037574954
94	0xbcbd9ede	-0.023147043
95	0x3d1609ee	0.036630563
96	0x3cada81a	0.021198321
97	0x3d8871e6	0.066623494
98	0xb9c808a0	-0.000381534
99	0x3c6e0f2a	0.014529983
100	0x3d1a7a0d	0.037714053
101	0x3d085ca4	0.033291474
102	0xbd9ca2ca	-0.07648237
103	0x3d8cc5e7	0.068736844
104	0x3d8d76c6	0.0690742
105	0xbd11c009	-0.03558353
106	0x3a247713	0.0006273847
107	0xbd844d9b	-0.064601146
108	0xbd489cbe	-0.048977606
109	0x3d5b81aa	0.053590454
110	0xbd02af30	-0.031905353
111	0xbd029f50	-0.031890213
112	0x3c68b6da	0.014203751
113	0xbda75854	-0.08171144
114	0xbc324f77	-0.010883204
115	0xbcbdb07a	-0.02315544
116	0xbdb11f32	-0.08648528
117	0x3cae2efb	0.021262636
118	0x3dbdf700	0.09275627
119	0x3d49406b	0.0491337
120	0xbcc76588	-0.024340406
121	0xbcb00562	-0.021486942
122	0xbd9cc820	-0.07655358
123	0xbd48ee58	-0.049055427
124	0x3d18fdc6	0.037351392
125	0x3d3f3cf5	0.046688993
126	0xbd72b9fc	-0.0592594
127	0xbcff1754	-0.031139053
128	0xbd80ddbe	-0.06292294
129	0xbda2af25	-0.079435624
130	0x3c5f40ca	0.013626287
131	0x3d7dcb48	0.061961442
132	0xbc9e8f12	-0.01935533
133	0xbc44853a	-0.011994654
134	0xbdbc61cc	-0.09198341
135	0xbd4ffadf	-0.05077636
136	0xbd820074	-0.06347743
137	0x3c42c314	0.011887331
138	0xbdbad429	-0.091224976
139	0x3ca41aa2	0.02003223
140	0x3c5abb43	0.013350311
141	0x3cdf6c16	0.02727322
142	0xbdc5d0c5	-0.0965896
143	0x3cf85787	0.030315174
144	0x3d38105e	0.044937484
145	0x3d8c4052	0.068482056
146	0xbd6ae1bc	-0.057344183
147	0xbda74bbf	-0.08168744
148	0xbbd4e55a	-0.0064970674
149	0xbd4a3c9c	-0.049374208
150	0xbd78d76a	-0.06075231
151	0xbd48dedc	-0.04904066
152	0xbd6b837d	-0.057498444
153	0x3cba1dc0	0.022719264
154	0x3909a1f4	0.0001312567
155	0xbd0ed98e	-0.034875445
156	0x3c9dfbd1	0.019285114
157	0x3cfd8903	0.030949121
158	0xbd84495a	-0.06459303
159	0xbd01c306	-0.03168013
160	0xbd04f738	-0.03246233
161	0xbd9ebfd9	-0.07751436
162	0x3c98dcf0	0.018660039
163	0x3d8e3e3a	0.069454625
164	0x3ba887b1	0.005143129
165	0x3cbb618e	0.022873666
166	0x3cc1ffe1	0.023681583
167	0xbdba2755	-0.09089533
168	0xbd29933d	-0.041400183
169	0xbdc96546	-0.098337695
170	0xbd915e05	-0.07098011
171	0x3d58a8c9	0.05289534
172	0xbdab2ef5	-0.08358566
173	0x3da11062	0.07864453
174	0xbd9c1898	-0.076218784
175	0xbdb8d34d	-0.090246774
176	0x3b9554cd	0.004557228
177	0xbd83fca9	-0.064446755
178	0xbdd1c97b	-0.102435075
179	0xbc6698f6	-0.014074555
180	0xbd8cc326	-0.06873159
181	0x3db261c8	0.087100565
182	0x3d86aabe	0.06575535
183	0x3cc8e52b	0.024523338
184	0x3ccb81a4	0.02484209
185	0x3b0b3e48	0.002124684
186	0xbdbc1bc3	-0.09184983
187	0xbd5e65fd	-0.054296482
188	0x3c351ea8	0.011054672
189	0x3d194c0d	0.037426043
190	0xbd8a7240	-0.06760073
191	0x3dc2dfc2	0.09515335
192	0x3c97c04f	0.018524317
193	0x3ccd896f	0.025089948
194	0xbbf5a4f2	-0.0074964697
195	0xbdd6897a	-0.1047544
196	0xbc1c15d5	-0.00952669
197	0xbb14cb19	-0.0022704063
198	0xbdf4c17e	-0.11950968
199	0x3bfff36e	0.0078110015
200	0x3d449628	0.047994763
201	0x3d038417	0.032108393
202	0x3d3c6f4e	0.046004586
203	0xbd74cedf	-0.0597676
204	0xbafb18b1	-0.0019157139
205	0xbb20ce4a	-0.002453702
206	0xbd06485d	-0.032783855
207	0xbd9b9e91	-0.075986035
208	0x3d79cb08	0.06098464
209	0x3d10ec3d	0.035381544
210	0xbd721e68	-0.05911103
211	0xbd057436	-0.03258153
212	0x3d991a84	0.074757606
213	0x3d94b28e	0.07260619
214	0xbd23638b	-0.039889853
215	0x3be5e30b	0.007015591
216	0xbd6b3c12	-0.057430334
217	0x3d810491	0.06299699
218	0xbdcae66e	-0.09907232
219	0x3d3410c9	0.04396132
220	0xbcf24c4f	-0.029577402
221	0x3b866cd6	0.0041023297
222	0x3d85c493	0.06531634
223	0x3a4a6b14	0.00077216444
224	0xbd9e3c4b	-0.07726344
225	0x3c8590fb	0.016304484
226	0x3d18814a	0.037232675
227	0x3d39a3a7	0.045322087
228	0xbc884f53	-0.016639387
229	0x3cb607ef	0.02222058
230	0x3db7c350	0.089728
231	0x3da4ac1b	0.08040639
232	0x3b7de456	0.0038740835
233	0xbcbf0be6	-0.023321103
234	0x3d063b34	0.032771304
235	0xbc3d9cc2	-0.0115730185
236	0x3d1f80d1	0.03894121
237	0xbd7cf511	-0.06175715
238	0x3bbcb7a4	0.0057591964
239	0xbd6c46c7	-0.057684686
240	0xbd0b5b8e	-0.03402286
241	0x3bce5d6c	0.006297758
242	0x3c6784ec	0.014130812
243	0xbd2d2e8c	-0.04228072
244	0xbd415a55	-0.047205288
245	0x3d2378b0	0.03991002
246	0xbd3ff63d	-0.04686569
247	0xbd4bdd24	-0.049771443
248	0xbc825c80	-0.015913248
249	0x3d5f0b1e	0.05445396
250	0x3cda3633	0.026637172
251	0xbcf48b49	-0.029851573
252	0x3cc0d386	0.023538362
253	0x3c030ba8	0.007998385
254	0xbd9228fa	-0.07136722
255	0x3c84502a	0.016151506

model.4.bias f4 [32]
0	0xbd34f096	-0.044174753
1	0xbd103e1d	-0.035215486
2	0xbd8e963f	-0.06962251
3	0x3d380f00	0.04493618
4	0x3d817598	0.06321257
5	0xbd522a01	-0.05130959
6	0xbd003814	-0.03130348
7	0x3da4e410	0.08051312
8	0xbcbc75b3	-0.023005342
9	0xbcb500fe	-0.0220952
10	0x3dc4a080	0.096009254
11	0x3cb87106	0.022514831
12	0x3b93e84a	0.004513775
13	0x3d7c9d52	0.06167347
14	0x3d8b739c	0.0680916
15	0x3d663b99	0.05620918
16	0xbd78b1b8	-0.06071636
17	0xbd0b2cff	-0.03397846
18	0xbd122724	-0.03568186
19	0xbd1177c9	-0.035514627
20	0x3caf0a00	0.021367073
21	0x3d900f67	0.07034188
22	0xbcbe03d1	-0.02319518
23	0xbd2eb853	-0.042656254
24	0x3c56e77c	0.013116714
25	0x3c5b30b3	0.01337831
26	0x3c4c5380	0.01247108
27	0x3bb44554	0.0055014286
28	0xbd15421e	-0.036440007
29	0xbd1052c2	-0.035235174
30	0x3ddb19db	0.10698291
31	0x3d0caa82	0.034342296

model.5.weight f4 [32]
0	0x3f8051d9	1.0024978
1	0x3f7d38a1	0.98914534
2	0x3f7256fa	0.94663966
3	0x3f6c2dcc	0.9225738
4	0x3f80e261	1.0069085
5	0x3f736f13	0.9509136
6	0x3f7f361e	0.9969195
7	0x3f7fcec1	0.99924856
8	0x3f8054e6	1.0025909
9	0x3f7c057d	0.98445874
10	0x3f68d717	0.909532
11	0x3f845ca3	1.034077
12	0x3f774490	0.96588993
13	0x3f7f8c8f	0.9982385
14	0x3f83641e	1.0264928
15	0x3f66e05c	0.90186095
16	0x3f81689b	1.0110048
17	0x3f80a994	1.0051751
18	0x3f826e9f	1.0190009
19	0x3f762d44	0.9616282
20	0x3f80b386	1.0054786
21	0x3f8b8621	1.0900308
22	0x3f812627	1.0089768
23	0x3f836caf	1.0267543
24	0x3f76fcff	0.9647979
25	0x3f7ef47c	0.99591804
26	0x3f75a429	0.95953614
27	0x3f81c1f3	1.0137314
28	0x3f93ccb0	1.1546841
29	0x3f62f866	0.88660276
30	0x3f8076ef	1.0036296
31	0x3f7cb7cf	0.9871797

model.5.bias f4 [32]
0	0xbd82fe2e	-0.06396137
1	0xbc827aea	-0.01592775
2	0xbd441d8f	-0.04787975
3	0xbd874f9c	-0.06606981
4	0xba8a008a	-0.0010528725
5	0xbd3b1cc9	-0.04568175
6	0xbb35bf06	-0.0027732267
7	0xbd57fdf4	-0.052732423
8	0xbd407215	-0.046983797
9	0xbc8704c7	-0.01648177
10	0xbd79f534	-0.06102486
11	0xbd36e6fa	-0.04465387
12	0xbd60517a	-0.054765202
13	0xbc0a76c8	-0.008451171
14	0xbce27cc3	-0.027647382
15	0xbdaf806f	-0.08569419
16	0xbccdef44	-0.025138505
17	0x3c39cd80	0.011340499
18	0xbd371a2d	-0.044702698
19	0xbd472f7c	-0.04862927
20	0xbadfb6ff	-0.0017068087
21	0x3c3532f3	0.0110595105
22	0xbd6a0beb	-0.057140272
23	0xbd7c438c	-0.061587855
24	0xbd63b8bb	-0.055596095
25	0xbc2568ea	-0.010095814
26	0xbd0b25f5	-0.033971746
27	0xbcf30e40	-0.02966988
28	0x3cbbc363	0.022920316
29	0xbdc09cb6	-0.0940489
30	0xbd434a13	-0.047678065
31	0x3bd7c7aa	0.006585081

model.5.running_mean f4 [32]
0	0x3e1c8710	0.15285897
1	0xbe4eda40	-0.20200443
2	0xbe993eb5	-0.29930654
3	0x3f192866	0.5982727
4	0x3d710f96	0.058852755
5	0x3c4241ef	0.01185654
6	0x3eaf141a	0.34195024
7	0x3f88f427	1.0699509
8	0x3f1915f9	0.5979915
9	0xbcf5430f	-0.029939203
10	0x3f20cc91	0.62812144
11	0x3f370667	0.71494144
12	0x3eaaccb5	0.33359304
13	0x3f418d7c	0.75606513
14	0x3ea272ad	0.31728116
15	0xbf153bac	-0.5829418
16	0x3d3b3af6	0.045710526
17	0x3d9fefd6	0.07809417
18	0x3d18418c	0.037171885
19	0xbec556da	-0.38542825
20	0xbe72306a	-0.23651281
21	0x3e555c13	0.20835905
22	0x3e668ad7	0.225139
23	0x3e680bfb	0.2266082
24	0xbed8e3ca	-0.4236129
25	0xbedf3bb7	-0.43600246
26	0x3e88493b	0.2661837
27	0x3e06bc66	0.13157806
28	0x3e29be11	0.16576411
29	0x3edf065b	0.43559536
30	0xbda00d29	-0.0781501
31	0xbf1416e2	-0.57847416

model.5.running_var f4 [32]
0	0x3dc70df9	0.09719462
1	0x3e56dc69	0.20982517
2	0x3e8a76a3	0.27043638
3	0x3e1f0f3c	0.15533155
4	0x3d978c11	0.073997624
5	0x3eca89fb	0.39558396
6	0x3ded2336	0.115789816
7	0x3eb38bea	0.35067683
8	0x3df8da9a	0.1215107
9	0x3f25aa05	0.64712554
10	0x3ef37b52	0.47555023
11	0x3db4bb5d	0.08824799
12	0x3e0dd92b	0.13852374
13	0x3e12c45d	0.14332719
14	0x3dcd4c70	0.10024345
15	0x3f4b0d10	0.79316807
16	0x3e9410b0	0.28918982
17	0x3d93d5f0	0.0721854
18	0x3daf265f	0.085522406
19	0x3e79ee86	0.24407396
20	0x3f186c19	0.59539944
21	0x3d20cbd7	0.039256897
22	0x3d818340	0.06323862
23	0x3dc9fc0a	0.09862526
24	0x3f013563	0.50472087
25	0x3e687656	0.22701392
26	0x3e4c6023	0.19958548
27	0x3dbfaa62	0.0935867
28	0x3d2c40a9	0.042053852
29	0x3e58e0e9	0.21179546
30	0x3d23c72d	0.03998487
31	0x3ef8ef4b	0.48620066

model.7.weight f4 [32, 32, 3, 3]
0	0xbd345842	-0.04402948
1	0xbbfdb572	-0.007742577
2	0xbc676fa2	-0.014125736
3	0x3d0a0c01	0.033702854
4	0xbd381ed1	-0.044951264
5	0x3b136d7c	0.0022495678
6	0xbb752afd	-0.0037409656
7	0xbc470875	-0.012148012
8	0xbc63d7a5	-0.013906394
9	0xbdabb247	-0.08383613
10	0xbd556f1a	-0.052107908
11	0x3b62857d	0.0034564428
12	0xbd9f081f	-0.07765221
13	0x3c106f68	0.008815624
14	0xbd2a7aa6	-0.041620873
15	0x3d504dbd	0.050855387
16	0xbcf65018	-0.030067489
17	0xbd4f6458	-0.050632805
18	0xbbbe18bc	-0.0058012884
19	0xbbb8a1f0	-0.005634539
20	0x3d010b41	0.031504873
21	0xbd5fd095	-0.05464228
22	0xbc740490	-0.014893666
23	0xbd8348d7	-0.064103775
24	0xbbde700b	-0.006788259
25	0xbd5e56ff	-0.054282185
26	0x3c4537ab	0.012037198
27	0xbd474398	-0.048648447
28	0x3d0fe7c9	0.035133157
29	0x3b88ad9d	0.004171087
30	0xbd51aaed	-0.0511884
31	0xbd4df074	-0.050278142
32	0xbcb40726	-0.021976065
33	0xbc96e14f	-0.018417982
34	0xbaff0886	-0.0019457496
35	0xbc84b4e5	-0.016199538
36	0xbd134756	-0.035956703
37	0x3d67e2b1	0.056612674
38	0xbd835ce0	-0.06414199
39	0xbd14a972	-0.03629441
40	0xbcfc3697	-0.03078775
41	0x3c787bad	0.015166205
42	0x3d1b5435	0.037922103
43	0x3d126693	0.035742354
44	0x3d32b4a4	0.043629304
45	0x3b8fa0b7	0.0043831724
46	0x3d1188bd	0.035530794
47	0x3c5d7e26	0.013518846
48	0xbd5059a9	-0.050866757
49	0xbd2a82bb	-0.04162858
50	0xbd7bec4c	-0.061504647
51	0xbdc2a4f8	-0.095041215
52	0xba9aef5b	-0.0011820601
53	0xbd9f8c73	-0.077904604
54	0x3b635600	0.0034688711
55	0x3c2fc9be	0.010729251
56	0x3bac88d7	0.005265336
57	0x3d7d6b1e	0.061869733
58	0xbd5e06a5	-0.054205555
59	0x3d0d46f0	0.03449148
60	0x3d436c8e	0.047710948
61	0xbd37f3d3	-0.044910263
62	0x3d8189d1	0.063251145
63	0xbd2993ec	-0.041400835
64	0x3d6b54fb	0.05745409
65	0xba927609	-0.0011174093
66	0x3cafbd2d	0.02145251
67	0x3cae5839	0.021282302
68	0x3d70b70b	0.058768313
69	0x3d315628	0.043295056
70	0x3c2a61c6	0.010399288
71	0x3d32c969	0.04364911
72	0x3c476714	0.012170572
73	0x3d2add77	0.04171511
74	0x3d334915	0.04377087
75	0xbcfdd371	-0.030984612
76	0xbcd54a89	-0.026036518
77	0xbbe87ef0	-0.0070952103
78	0xbcac0ad1	-0.021001251
79	0x3c623783	0.01380718
80	0xbbdfe6a7	-0.006832916
81	0x3d02bfe5	0.031921286
82	0x3caf3047	0.021385325
83	0xbd8075d3	-0.06272473
84	0x3d3394be	0.043843023
85	0x3ced84fc	0.028994076
86	0x3d4022d1	0.046908204
87	0xbbd9af60	-0.006643221
88	0x3caf2576	0.021380167
89	0x3c9ce4e2	0.019152109
90	0xbd2ad844	-0.041710153
91	0x3cef6885	0.029224643
92	0x3cfaa076	0.030594092
93	0xbba215d4	-0.00494645
94	0x3cf9f87c	0.030513994
95	0x3d318ea9	0.043348942
96	0xbd551cb0	-0.05202931
97	0x3a558788	0.0008145501
98	0xbc3904c1	-0.011292637
99	0xbc81efff	-0.01586151
100	0x3d400a9d	0.04688512
101	0x3ac82b83	0.0015271757
102	0xbccd822d	-0.025086487
103	0xbcbed3a3	-0.023294276
104	0x3c8d1882	0.0172236
105	0xbd097399	-0.03355751
106	0xbb300d9c	-0.002686358
107	0x3bc926e6	0.0061386703
108	0xbd39858b	-0.045293372
109	0xbd083535	-0.033253867
110	0xbd85bd0e	-0.065302
111	0xbddd2bef	-0.10799395
112	0xbdc7fe7e	-0.097653374
113	0xbbef6dfe	-0.0073068133
114	0xbc17165e	-0.009221641
115	0xbcf57dc6	-0.0299672
116	0xbda71816	-0.08158891
117	0x3d50c5a9	0.050969753
118	0xb9ece4fc	-0.00045184034
119	0x3bbdf5cb	0.005797123
120	0xbbde7bc0	-0.0067896545
121	0xbce8ed42	-0.028433446
122	0x3d167a80	0.03673792
123	0x3cf183e4	0.029481836
124	0xbcd13464	-0.025537677
125	0xbd3412ed	-0.04396336
126	0xbc21501f	-0.0098457625
127	0xbcf19d28	-0.029493883
128	0x3cf3622b	0.029709896
129	0x3d0b65ea	0.03403274
130	0x3dac978a	0.08427341
131	0x3dac5e4e	0.08416425
132	0x3c24dfd0	0.010063127
133	0x3c6c40ec	0.014419775
134	0x3c107651	0.008817271
135	0xbca9c603	-0.020724302
136	0x3d1f4585	0.03888466
137	0x3c80316b	0.015648564
138	0x3d620584	0.05518104
139	0xbd495185	-0.04915001
140	0xbd26e260	-0.04074323
141	0x3cb559bc	0.022137515
142	0x3c5d7340	0.013516247
143	0xbd2d457c	-0.042302594
144	0x3ca11135	0.019661525
145	0xbd531543	-0.05153395
146	0x3cdaf5d9	0.026728557
147	0xbd1e13bd	-0.038593043
148	0xbba1094f	-0.0049144397
149	0xbca92b77	-0.020650608
150	0xbd434d9b	-0.047681432
151	0xbcd87d79	-0.026427018
152	0x3a3a13a5	0.0007098264
153	0x3d372974	0.044717267
154	0x3d3ed805	0.04659273
155	0xbd1a9f75	-0.037749726
156	0x3c5a1fe6	0.013313269
157	0x3cadddd6	0.021223944
158	0x3cc3da76	0.023907881
159	0x3cf03782	0.029323343
160	0x3d678714	0.056525305
161	0x3bdc3e85	0.00672132
162	0xbcc043a3	-0.023469752
163	0x3d0363d4	0.032077625
164	0x3b5731df	0.0032836122
165	0xbdd84158	-0.10559338
166	0xbaf03cb6	-0.001832864
167	0xbd8e6ac1	-0.069539554
168	0xbdd8f238	-0.105930746
169	0x3d0f01c2	0.034913786
170	0xbd82c4ba	-0.06385179
171	0xbd74c676	-0.05975958
172	0xbd9fda92	-0.07805361
173	0x3c7283e1	0.01480195
174	0xbdb2f6a1	-0.08738447
175	0xbce9cb05	-0.02853919
176	0xbbedbd82	-0.007255257
177	0xbc4c574a	-0.012471983
178	0xbd20a0af	-0.03921574
179	0xbd32bcd0	-0.043637097
180	0xbc1d2dfc	-0.009593483
181	0xbc0a7c22	-0.008452447
182	0xbc8172de	-0.015801843
183	0x3cd88793	0.026431834
184	0xbcfae942	-0.030628804
185	0x3cb0479d	0.021518523
186	0x3d11b76e	0.035575323
187	0x3c908fd2	0.017646704
188	0xbd62f214	-0.055406645
189	0xbd7e2732	-0.0620491
190	0xbd0be10e	-0.034150176
191	0xbd24e5f7	-0.040258374
192	0xbd843456	-0.06455295
193	0x3d33837d	0.04382657
194	0x3c17ffa3	0.009277257
195	0x3c17731e	0.009243755
196	0xbc074ef7	-0.008258573
197	0x3a887c70	0.0010413062
198	0x3d3fca94	0.046824053
199	0x3c2dea1d	0.010614899
200	0xbd85060c	-0.06495294
201	0xbc509340	-0.01273042
202	0xbd78fac9	-0.060786042
203	0xbd290058	-0.041260093
204	0x3cea8f41	0.028632762
205	0x3cc0f457	0.02355401
206	0xbd99d31a	-0.075109676
207	0xbdb177eb	-0.08665451
208	0xbd8145df	-0.06312155
209	0x3d39a8a7	0.045326855
210	0xbdaf7c5a	-0.0856864
211	0xbd41dcf0	-0.047329843
212	0x3b0d8356	0.0021593175
213	0xbd434c5f	-0.047680255
214	0xbc421964	-0.011846874
215	0xbd1f1bc1	-0.038844828
216	0x3db5089b	0.08839532
217	0xbd2ffecd	-0.042967606
218	0x3d1f5370	0.03889793
219	0x3af471ca	0.0018649634
220	0xbd34c5de	-0.044134013
221	0x3d150388	0.03638032
222	0x3d205712	0.039145537
223	0x3cc6d911	0.024273427
224	0xbd8a761b	-0.06760808
225	0xbdd38978	-0.103289545
226	0xbd790bbd	-0.06080221
227	0x3c99a555	0.018755594
228	0xbd9bbc7c	-0.0760431
229	0xbcafc0fb	-0.021454325
230	0xbd4186d7	-0.047247734
231	0xbd6ea79a	-0.058265306
232	0xbd29d47c	-0.041462407
233	0x3d10c95f	0.035348292
234	0xbbf64b05	-0.0075162672
235	0x3d237da2	0.039914735
236	0xbca23e0a	-0.019804973
237	0xbb41524c	-0.0029498516
238	0xbcaca85f	-0.02107638
239	0xbd8377f0	-0.06419361
240	0xbc730c9f	-0.014834552
241	0x3d121239	0.03566191
242	0x3d2ac625	0.04169287
243	0xbd740485	-0.059574623
244	0xbcc1009d	-0.023559863
245	0xbb5f1815	-0.0034041454
246	0xbdccab8f	-0.0999366
247	0xbcf45efb	-0.029830446
248	0xbc31be01	-0.010848523
249	0xbd49e619	-0.049291704
250	0xbd1f5e84	-0.038908496
251	0x3ccfa1bd	0.025345678
252	0x3d45cdae	0.048291855
253	0x3cbf35fc	0.023341171
254	0x3d93af59	0.07211179
255	0xbd5ed600	-0.054403305

model.7.bias f4 [32]
0	0x3d176774	0.036963895
1	0xbd2b6e94	-0.041853502
2	0x3d35e904	0.044411674
3	0x3c6dbb26	0.014509952
4	0x3c93942f	0.018014995
5	0x3c740cc6	0.014895624
6	0x3a97e82c	0.0011589578
7	0xbc875710	-0.016521007
8	0xbd76c988	-0.06025079
9	0xbbd23958	-0.0064155273
10	0xbc3b962c	-0.011449378
11	0xbcb257d7	-0.0217704
12	0xbc4bc31f	-0.012436657
13	0xbd492c87	-0.04911473
14	0xbc2be310	-0.010491148
15	0xbd30244e	-0.043003373
16	0xbc7c573b	-0.015401657
17	0x3d9189ad	0.07106338
18	0x3b711a3e	0.0036789323
19	0x3d772794	0.06034048
20	0x3d56c325	0.052432198
21	0x3d71d8f3	0.05904479
22	0xbd35dccd	-0.044400025
23	0xbcd2ea73	-0.02574656
24	0xbd3858b5	-0.045006473
25	0xbcb49af7	-0.02204655
26	0x3d2f51b9	0.042802546
27	0x3c8c0fec	0.017097436
28	0xbc20264a	-0.009774754
29	0xbd6a97cb	-0.057273667
30	0x3d3a07ae	0.04541748
31	0xbceb87cb	-0.028751275

model.8.weight f4 [32]
0	0x3f694635	0.9112275
1	0x3f857fe7	1.0429658
2	0x3f7f5b1c	0.99748397
3	0x3f7d7bb5	0.99016887
4	0x3f802217	1.0010403
5	0x3f730228	0.94925165
6	0x3f76cd61	0.96407133
7	0x3f80badd	1.0057026
8	0x3f81f032	1.0151427
9	0x3f81790d	1.0115067
10	0x3f825191	1.0181142
11	0x3f89e4a9	1.0772907
12	0x3f7f5678	0.99741316
13	0x3f7e939c	0.99443984
14	0x3f856132	1.0420287
15	0x3f796833	0.9742462
16	0x3f7a9411	0.9788218
17	0x3f87af12	1.0600302
18	0x3f76ecbd	0.96454984
19	0x3f7d9746	0.9905895
20	0x3f76c042	0.9638711
21	0x3f6e733e	0.93144596
22	0x3f88457e	1.0646207
23	0x3f7b0340	0.98051834
24	0x3f8008a1	1.0002633
25	0x3f795bbe	0.9740561
26	0x3f804352	1.0020545
27	0x3f76b383	0.96367663
28	0x3f8154c7	1.0103997
29	0x3f8109d3	1.0081123
30	0x3f7b106b	0.98071927
31	0x3f79c023	0.975588

model.8.bias f4 [32]
0	0xbd5a7435	-0.05333348
1	0xbd9d46f8	-0.07679552
2	0xbd706ea8	-0.05869928
3	0x3b6a9628	0.0035795067
4	0xbd4872d6	-0.04893764
5	0xbd92753c	-0.07151267
6	0xbd99bcaf	-0.07506692
7	0xbd0b55b1	-0.03401727
8	0xbd698f3f	-0.057021376
9	0x3a84edb7	0.0010141645
10	0xbd8091c9	-0.06277806
11	0x3c8c7867	0.017147256
12	0xbda2b62d	-0.079449035
13	0xbcef576c	-0.02921649
14	0xbd6134c0	-0.054981947
15	0xbdb42453	-0.08795991
16	0xbcb7b9e1	-0.022427501
17	0xbc290888	-0.010316975
18	0xbd028746	-0.031867288
19	0xbd8aea04	-0.06782916
20	0xbdbdc6f4	-0.09266463
21	0xbd608b5b	-0.0548204
22	0xbd73c62f	-0.059515174
23	0x3cc81adf	0.024426876
24	0xbd3fd594	-0.046834543
25	0xbd42e998	-0.047586054
26	0xbd9c24e5	-0.076242246
27	0xbcab01d3	-0.020874893
28	0x3c7209a6	0.014772808
29	0xbd3ca0ce	-0.046051793
30	0xbd0cf9c9	-0.0344179
31	0xbd80603d	-0.06268356

model.8.running_mean f4 [32]
0	0xbf46c0ac	-0.77637744
1	0x3f1686e0	0.5879955
2	0xbf176367	-0.5913605
3	0xbf81a3e0	-1.0128136
4	0xbda806e6	-0.08204441
5	0xbeeffeea	-0.46874171
6	0x3eeb0822	0.45904642
7	0xbcba235a	-0.022721935
8	0xbe664d41	-0.22490408
9	0xbe147f61	-0.14501716
10	0x3eca4d99	0.39512327
11	0x3d4d6c28	0.050151974
12	0x3e151a59	0.14560832
13	0x3c4b63d8	0.012413941
14	0x3e159132	0.14606169
15	0xbeccf95c	-0.40033996
16	0xbf1ba1d7	-0.60793823
17	0x3e9bb81b	0.304139
18	0x3ddece6d	0.10879216
19	0x3f00c100	0.50294495
20	0x3e2c9ed5	0.16857465
21	0x3f022edb	0.50852746
22	0xbd679655	-0.056539852
23	0xbfd0c3dd	-1.6309773
24	0x3f061dfd	0.5238951
25	0xbec8aa89	-0.39192608
26	0x3e0142b1	0.12623097
27	0xbbc78bd3	-0.0060896664
28	0x3dde25be	0.108470425
29	0xbc6b87f5	-0.014375676
30	0xbd50ca5f	-0.050974246
31	0xbef6332b	-0.48085913

model.8.running_var f4 [32]
0	0x40044b21	2.0670855
1	0x3edd452a	0.4321683
2	0x3eaa9219	0.3331459
3	0x3f604d5d	0.87618047
4	0x3ea933a1	0.33047202
5	0x3f8f3a31	1.1189634
6	0x3ebf336e	0.37343925
7	0x3ebededb	0.372794
8	0x3e77387b	0.2414264
9	0x3f2a3cbc	0.66498923
10	0x3f2d86c6	0.6778377
11	0x3eb1c5f5	0.34721342
12	0x3ebfaa74	0.37434733
13	0x3f26b421	0.65118605
14	0x3e8ba9c3	0.27277955
15	0x3f0cea42	0.5504495
16	0x3f4bff64	0.7968657
17	0x3eebec69	0.46078804
18	0x3f067dc8	0.52535677
19	0x3edde110	0.43335772
20	0x3e9f37c0	0.3109722
21	0x3f23ee96	0.6403593
22	0x3e8de382	0.27712637
23	0x3fc43c80	1.5330963
24	0x3f2fbc13	0.68646353
25	0x3f12aa53	0.57291144
26	0x3e8dac05	0.27670303
27	0x3ec326bb	0.38115487
28	0x3ead5a57	0.33857986
29	0x3f029e62	0.51022923
30	0x3f190d22	0.59785664
31	0x3f1a561f	0.6028766

model.10.weight f4 [64, 32, 3, 3]
0	0xbbbb095a	-0.005707902
1	0x3d623fb2	0.055236526
2	0x3ccc54fc	0.024942867
3	0xbcf10408	-0.029420868
4	0xbc332763	-0.0109346835
5	0xbd15e282	-0.036592968
6	0xbd2c17b8	-0.042014807
7	0xbb8e0056	-0.004333536
8	0xbd920eaf	-0.07131707
9	0x3dc29777	0.09501546
10	0x3c524310	0.012833372
11	0x3d509b38	0.050929278
12	0x3c4bf09e	0.012447504
13	0xbd8c3c86	-0.068474814
14	0xbc26193f	-0.010137855
15	0xbd6a2f05	-0.057173748
16	0xbc10f109	-0.00884653
17	0x3dad0ed0	0.08450091
18	0xbd546bef	-0.051860746
19	0xbd76dcf1	-0.0602693
20	0xbd19e41a	-0.03757105
21	0xbca2925b	-0.019845178
22	0xbcaa0359	-0.02075355
23	0xbca1dbb1	-0.019758077
24	0x3d39bda4	0.04534687
25	0xbc272205	-0.010200982
26	0xbc6c9752	-0.014440374
27	0xbbfa8c74	-0.007646138
28	0x3c0ebcdc	0.00871202
29	0xbb83e237	-0.0040247696
30	0x3da07549	0.0783487
31	0x3d86b22c	0.06576952
32	0x3c6ec7ee	0.014574034
33	0xbd2accba	-0.04169915
34	0xbd52450f	-0.05133539
35	0xbce484a7	-0.027895285
36	0xbd81e106	-0.06341748
37	0x3d55dd05	0.052212734
38	0x3d98a4b0	0.07453287
39	0xbcd0bd8c	-0.025481008
40	0x3d76cc9f	0.060253736
41	0x3cd86070	0.026413172
42	0x3ada02f3	0.0016632959
43	0xbd584c91	-0.052807394
44	0xbd2dee49	-0.042463575
45	0x3cf52dce	0.029929068
46	0x3b630723	0.0034641705
47	0x3d2d5fdc	0.042327747
48	0x3cd89cee	0.026442017
49	0x3c3ba179	0.011452072
50	0xbd53a276	-0.051668607
51	0x3d471297	0.048601713
52	0x3c828ea2	0.015937153
53	0x3bc2528c	0.0059302505
54	0x3d95fd38	0.07323688
55	0xbd7663b2	-0.06015367
56	0xbd6436cc	-0.05571632
57	0x3cf380e1	0.02972454
58	0xbd710a75	-0.058847863
59	0x3c409f09	0.011756667
60	0x3d2b8b9f	0.0418812
61	0x3d352490	0.04422432
62	0xbcd38a8b	-0.025822898
63	0xbd426d39	-0.047467444
64	0x3ca22da6	0.019797157
65	0xbd5583bb	-0.05212758
66	0x3bfc16c5	0.007693144
67	0x3d5254c7	0.05135038
68	0x3cfa0358	0.030519173
69	0xbd454ce3	-0.048169028
70	0xbd553860	-0.052055717
71	0xbcad825e	-0.021180328
72	0xbc537f5c	-0.012908783
73	0xbba32173	-0.0049783527
74	0x3d1901bc	0.03735517
75	0xbce6d956	-0.028179806
76	0xbbf724aa	-0.0075422125
77	0xbc201bb8	-0.009772234
78	0xbc821f4e	-0.015884068
79	0x3d0b23a3	0.033969533
80	0xbc943e66	-0.01809616
81	0x3cbebef8	0.02328442
82	0xbccfdda2	-0.025374237
83	0x3c6bb5a6	0.01438657
84	0xbd33ccbd	-0.043896426
85	0x3d973b73	0.07384386
86	0xbc687a4f	-0.014189317
87	0xbd530ba2	-0.051524766
88	0x3b372255	0.0027944047
89	0x3d8f1054	0.06985536
90	0x3c49db9a	0.0123204235
91	0x3ca4a701	0.020099165
92	0xbdbfed19	-0.09371395
93	0xbd8ca07d	-0.06866548
94	0xbd1d3c7c	-0.03838776
95	0xbddf2715	-0.10896126
96	0xbdbcff54	-0.092283875
97	0x3b1351e7	0.0022479238
98	0xbd67f7d8	-0.056632847
99	0x3bbffee5	0.005859243
100	0x3d809665	0.062786855
101	0xbc10ab69	-0.00882993
102	0x3d363470	0.044483602
103	0xbc570596	-0.01312389
104	0x3ac37dd0	0.0014914814
105	0x3d504caa	0.050854363
106	0x3c8b50e6	0.017006349
107	0x3cbd99d7	0.023144646
108	0x3d95cbeb	0.07314285
109	0x3aa001e9	0.00122076
110	0xbcc9ce2f	-0.024634449
111	0xbc839700	-0.016063213
112	0xbd0b2ee1	-0.033980254
113	0x3d4c8655	0.049932797
114	0xbd9484c0	-0.072518826
115	0x3c9cd849	0.019146102
116	0x3d8cc7a4	0.06874016
117	0xbd8489a9	-0.06471569
118	0x3d8cdfb1	0.06878603
119	0x3d300eaa	0.042982735
120	0xbce9820c	-0.028504394
121	0x3d44689a	0.04795132
122	0xbd472fb5	-0.04862948
123	0xbd1972f7	-0.037463155
124	0xbbed4d9f	-0.007241919
125	0xbcae38b4	-0.021267273
126	0xbaae8e7d	-0.0013317611
127	0x3dc47dc3	0.095943
128	0x3c1267b5	0.0089358585
129	0x3d5edbd3	0.05440886
130	0xbc97ffde	-0.018554624
131	0xbd8e4e7d	-0.06948564
132	0x3d0a2ea8	0.0337359
133	0xbdc3833b	-0.095465146
134	0x3ce3f5fd	0.027827257
135	0xbd1296db	-0.0357884
136	0x3d062660	0.03275144
137	0xbd29e10e	-0.041474395
138	0xbd1a6706	-0.037695907
139	0xbca74219	-0.02041726
140	0xbd32ea65	-0.043680567
141	0xbd51014c	-0.051026627
142	0x3ca0b867	0.01961918
143	0x3d1900dc	0.037354335
144	0xbcd93eb6	-0.02651916
145	0x3d1308e1	0.03589714
146	0x3d55d0e8	0.05220118
147	0x3d794d26	0.06086459
148	0xbd1966c9	-0.03745154
149	0x3c07d97e	0.0082916
150	0xba24acf3	-0.0006281875
151	0xbd0a7356	-0.0338014
152	0x3d851dcc	0.06499824
153	0xbc694a77	-0.014238945
154	0xbc9497a4	-0.018138714
155	0x3bbf0615	0.0058295825
156	0x3db0f4f0	0.08640468
157	0x3d8a13d9	0.06742067
158	0x3d1900a9	0.037354145
159	0x3d8cc6f2	0.06873883
160	0xbd71caba	-0.059031226
161	0x3d920e5f	0.07131647
162	0x3da55fa8	0.080748856
163	0x3d0c2c45	0.034221906
164	0xbd32b2ee	-0.043627672
165	0xbcfffb84	-0.031247862
166	0xbb0ed27a	-0.0021792934
167	0x3cee1bdc	0.029066019
168	0xbd20e19c	-0.039277658
169	0x3c7d0d09	0.015445002
170	0x3c106475	0.008813013
171	0x3d9335f4	0.07188025
172	0xbcdd102d	-0.026985252
173	0x3cc62724	0.024188586
174	0xbc322dba	-0.01087516
175	0x3d7f53fe	0.06233596
176	0x3a263332	0.0006340026
177	0xbd7f9686	-0.06239941
178	0x3d55b27f	0.05217218
179	0xbaf35f00	-0.0018567741
180	0xbd596cf5	-0.053082425
181	0xbd37fcd4	-0.04491885
182	0x3b7e561b	0.0038808647
183	0xbc80fec9	-0.015746491
184	0x3cb1df75	0.021712998
185	0x3d096bbc	0.03355001
186	0x3da43dd0	0.08019602
187	0xbd8983d7	-0.067145996
188	0xbd068a1a	-0.032846548
189	0xbd0755e1	-0.033040885
190	0x3d2be980	0.04197073
191	0xbd87a5fa	-0.066234544
192	0x3d8c4d61	0.06850696
193	0x3ca41c1a	0.020032931
194	0xbd356af0	-0.044291437
195	0x3d183c73	0.037167024
196	0xbda4cfcd	-0.08047447
197	0xbb922ec5	-0.004461142
198	0xbdec19a4	-0.11528328
199	0x3c364868	0.011125661
200	0x3c702c77	0.014659039
201	0x3d3cadfb	0.04606436
202	0xbc0b8128	-0.00851468
203	0xbd31cff2	-0.043411203
204	0xbb0013b3	-0.0019542992
205	0xbd866e2b	-0.065639816
206	0xbd244c35	-0.04011174
207	0xbd865615	-0.065593876
208	0x3d5276cb	0.05138282
209	0xbc84c38f	-0.01620653
210	0xbd6cb26e	-0.05778735
211	0x3b868dd0	0.004106261
212	0xbc156004	-0.00911713
213	0x3bc5200f	0.0060157846
214	0x3cc465e3	0.023974365
215	0xbd7d7beb	-0.061885756
216	0xbd1b6cd3	-0.03794558
217	0xbc8bb377	-0.017053349
218	0xbdacc025	-0.08435086
219	0xbd64269b	-0.05570088
220	0x3cf4ad8b	0.029867908
221	0xbd7899aa	-0.06069342
222	0x3d0c3df7	0.03423878
223	0xba110743	-0.0005532393
224	0xbd0e4370	-0.034732282
225	0xbcdba2f6	-0.026811104
226	0xbcb87571	-0.022516938
227	0xbc946037	-0.018112285
228	0xbcc6c865	-0.024265477
229	0x3bc0d3a3	0.005884604
230	0x3c07a6aa	0.008279482
231	0xbcbe8d42	-0.023260716
232	0x3cda9589	0.026682632
233	0xbd3adb9e	-0.0456196
234	0x3d27eac6	0.04099538
235	0x3d6eab37	0.058268752
236	0x3d49be8d	0.04925399
237	0x3caad2e7	0.02085252
238	0x3d2a4fa9	0.041579876
239	0x3bdaee26	0.0066812215
240	0x3da5dd5d	0.08098862
241	0x3d621163	0.055192363
242	0xbdefe892	-0.11714281
243	0xbd35f4bc	-0.04442285
244	0xbd602816	-0.05472573
245	0xbd0ecb58	-0.034861892
246	0xbbf46f8f	-0.007459588
247	0x3d469a65	0.048487086
248	0x3d8804b5	0.06641523
249	0xbc2aea94	-0.010431904
250	0xbc8acecf	-0.016944317
251	0x3d330807	0.043708827
252	0x3d76ce33	0.06025524
253	0xbda92ff7	-0.08261102
254	0xbd5cba45	-0.053888578
255	0xbc4ca9f9	-0.0124916965

model.10.bias f4 [64]
0	0x3d1872bd	0.037218798
1	0xbcd1c81a	-0.025608111
2	0xbd646d2a	-0.05576817
3	0xbd412d73	-0.047162484
4	0x3bca847c	0.006180344
5	0x3bd9f411	0.0066514094
6	0x3c47fc1c	0.012206104
7	0x3ccf9f21	0.025344433
8	0xba5cc1d0	-0.00084212143
9	0xbd0a2356	-0.033725105
10	0x3ceded63	0.029043859
11	0x3d64533d	0.055743445
12	0xbbd1517f	-0.006387889
13	0xbc068474	-0.00821029
14	0x3d56c574	0.0524344
15	0x3d81b2cb	0.0633293
16	0x3cacf3c5	0.021112332
17	0x3d28a202	0.041170128
18	0xbce9fe39	-0.028563606
19	0x3c305da8	0.010764517
20	0x3c367fe4	0.01113889
21	0x3d550444	0.05200602
22	0xbc8a616a	-0.016892154
23	0x3d711dfa	0.05886648
24	0xbb4b26e3	-0.003099852
25	0x3cf24820	0.029575408
26	0xbcf57369	-0.029962258
27	0x3c483726	0.01222018
28	0xbd400567	-0.046880152
29	0x3d0b69d7	0.034036484
30	0xbcb3fbad	-0.021970594
31	0xbd119db4	-0.035550788
32	0xbd385cf2	-0.045010515
33	0x3c4d43a8	0.012528338
34	0x3d564076	0.05230757
35	0xbcd13c97	-0.025541587
36	0x3d2111da	0.039323665
37	0x3d252639	0.040319655
38	0xbb7d9c03	-0.0038697727
39	0xbd57e578	-0.052709073
40	0xbd674da8	-0.056470543
41	0x3bca79e3	0.006179081
42	0xbd4d13fb	-0.050067883
43	0xbb0977c4	-0.0020975927
44	0x3d3d8ddb	0.046277862
45	0x3d677303	0.056506168
46	0x3cc3eb48	0.023915902
47	0xbd46b938	-0.048516482
48	0x3a048d2e	0.0005056438
49	0xbd04ab8a	-0.032390155
50	0x3d441d04	0.047879234
51	0xbc865db0	-0.016402096
52	0xbd39d75a	-0.04537139
53	0xbd7e8b8a	-0.062144794
54	0x3d00ab38	0.031413287
55	0xba2c55cc	-0.0006574064
56	0x3d22564b	0.039633077
57	0xbc4f9d41	-0.01267177
58	0xbd22783a	-0.03966544
59	0x3c4c6756	0.012475809
60	0xbb61584f	-0.0034384911
61	0x3be30da1	0.006929115
62	0xbd57efbc	-0.052718863
63	0xbaef769a	-0.0018269599

model.11.weight f4 [64]
0	0x3f7ce920	0.9879322
1	0x3f7ffa56	0.9999136
2	0x3f857798	1.0427122
3	0x3f76e494	0.9644253
4	0x3f795cc5	0.9740718
5	0x3f79e717	0.9761824
6	0x3f70e323	0.94096583
7	0x3f858782	1.0431979
8	0x3f796605	0.97421294
9	0x3f78b615	0.97152835
10	0x3f81f711	1.0153524
11	0x3f8275c7	1.0192193
12	0x3f7b41d5	0.98147327
13	0x3f82fb87	1.023301
14	0x3f895a69	1.0730716
15	0x3f7f6641	0.997654
16	0x3f81ce97	1.0141171
17	0x3f68910d	0.9084633
18	0x3f6b5c8c	0.9193809
19	0x3f7906a6	0.9727577
20	0x3f7e2743	0.9927866
21	0x3f84a8d9	1.0364028
22	0x3f886e27	1.0658616
23	0x3f7fa5b8	0.9986224
24	0x3f818008	1.0117197
25	0x3f84e71c	1.0383029
26	0x3f698545	0.9121898
27	0x3f835308	1.0259714
28	0x3f800dfa	1.0004265
29	0x3f79a24e	0.9751328
30	0x3f85a5a7	1.0441178
31	0x3f7c0129	0.9843927
32	0x3f7b70e2	0.9821912
33	0x3f81b1a4	1.0132337
34	0x3f7ac797	0.979608
35	0x3f75b4c5	0.9597896
36	0x3f7ea7ae	0.9947461
37	0x3f7c7052	0.9860889
38	0x3f7d3726	0.98912275
39	0x3f6d2eae	0.9264935
40	0x3f82ff8c	1.0234237
41	0x3f775c8a	0.9662558
42	0x3f85cfb7	1.0454015
43	0x3f77cb67	0.9679474
44	0x3f8218cf	1.0163821
45	0x3f80c0f3	1.0058883
46	0x3f7ac2e8	0.97953653
47	0x3f7c94e7	0.98664707
48	0x3f7c6724	0.9859488
49	0x3f7b5ce4	0.98188615
50	0x3f76cc89	0.96405846
51	0x3f878275	1.0586687
52	0x3f824829	1.0178272
53	0x3f7e43d5	0.99322253
54	0x3f8b3277	1.0874776
55	0x3f790e6a	0.9728762
56	0x3f85421a	1.0410798
57	0x3f81dc56	1.0145366
58	0x3f81dc18	1.0145292
59	0x3f8012a3	1.0005687
60	0x3f6f6dfd	0.93527204
61	0x3f81fa8e	1.0154588
62	0x3f7fef9d	0.99974996
63	0x3f8146ba	1.0099709

model.11.bias f4 [64]
0	0xbd25e0d5	-0.04049762
1	0xbdff96c5	-0.12479929
2	0xbddcf5c0	-0.107890606
3	0xbdc69f92	-0.09698404
4	0xbd841a50	-0.06450331
5	0xbd22b2dc	-0.039721355
6	0xbd85b9e3	-0.06529596
7	0xbd930053	-0.07177796
8	0xbd804568	-0.06263238
9	0xbd40c296	-0.04706057
10	0xbdeb0191	-0.11474908
11	0xbcfe27e7	-0.031024886
12	0x3c31e1da	0.01085707
13	0xbd804a80	-0.0626421
14	0xbd7f8371	-0.06238121
15	0x3b753221	0.0037413912
16	0xbdc715a6	-0.09720926
17	0xbdee43f3	-0.11634054
18	0xbe09bc52	-0.13450745
19	0xbda58e0b	-0.08083733
20	0xbdbd6bed	-0.09249101
21	0x3cabe3e9	0.0209827
22	0xbd57d55e	-0.052693717
23	0xbd7b7135	-0.06138726
24	0xbd5ee251	-0.05441505
25	0x3b9cfd0d	0.004790908
26	0xbde4b920	-0.11168122
27	0xbe242dea	-0.1603314
28	0xbd55b116	-0.052170835
29	0xbd261497	-0.04054698
30	0xbd885b3e	-0.06658028
31	0xbd422f01	-0.047408108
32	0xbe1fbf16	-0.15600237
33	0xbda8d2d6	-0.08243339
34	0xbd6d84cb	-0.05798797
35	0xbd2c86ea	-0.04212085
36	0xbd945731	-0.07243193
37	0xbcac6638	-0.021044835
38	0xbd466fed	-0.048446584
39	0xbd41d5de	-0.0473231
40	0xbd38960a	-0.045064963
41	0xbda893d8	-0.08231324
42	0xbdb07e19	-0.08617801
43	0xbde032a0	-0.10947156
44	0x3bb02113	0.0053750365
45	0xbd005ed1	-0.031340424
46	0xbdb44046	-0.08801322
47	0xbd8b0584	-0.067881614
48	0xbdb36597	-0.08759611
49	0xbd80c6c9	-0.06287915
50	0xbd117335	-0.03551026
51	0x3b98c175	0.0046617338
52	0xbdc98d71	-0.09841431
53	0xbd86d006	-0.06582646
54	0x3c1b1ed3	0.009467798
55	0xbd02256f	-0.03177398
56	0xbc8a15a3	-0.01685602
57	0xbdfceaaa	-0.12349446
58	0xbc825395	-0.015908996
59	0xbd163b7f	-0.036677834
60	0xbe0a6677	-0.1351565
61	0xbdba44ca	-0.09095152
62	0xbdc2a0fe	-0.09503363
63	0xbc3385ec	-0.010957222

model.11.running_mean f4 [64]
0	0xbe559122	-0.20856145
1	0xbec50978	-0.38483787
2	0xbeb953dc	-0.36196792
3	0xbf03de90	-0.5151148
4	0x3e49c4cc	0.19703978
5	0xbea97aa7	-0.3310139
6	0xbe4e7a0c	-0.20163745
7	0xbe1d55c9	-0.15364756
8	0xbf36fe90	-0.7148218
9	0xbf9ec6be	-1.2404401
10	0xbd1f3f3f	-0.038878676
11	0xbe804f04	-0.25060284
12	0xbf574eb8	-0.8410449
13	0xbf392e70	-0.72336483
14	0xbeb134f5	-0.34610716
15	0xbf11abd5	-0.5690282
16	0xbf000344	-0.5000498
17	0xbe8ac884	-0.27106106
18	0x3c2e67d5	0.010644873
19	0xbf0ac7b2	-0.5421096
20	0xbf1a177c	-0.60192084
21	0xbed92a4d	-0.42415085
22	0xbdbb796c	-0.09154019
23	0xbe2dbf00	-0.16967392
24	0xbec15a7d	-0.3776435
25	0x3d7784f5	0.060429532
26	0x3e5da1de	0.21643779
27	0x3dea032d	0.11426387
28	0xbec3b851	-0.3822656
29	0xbf65e427	-0.8980126
30	0xbe6536fe	-0.22384259
31	0xbe4e5116	-0.2014812
32	0xbe31f72e	-0.17379448
33	0xbe1a6de0	-0.15080976
34	0xbe73976d	-0.23788233
35	0xbf4fea73	-0.81217116
36	0xbe55a3df	-0.20863293
37	0xbe832c5c	-0.2561978
38	0xbee2392a	-0.44184238
39	0xbf480b3f	-0.7814216
40	0xbf2b8d3b	-0.67012376
41	0xbed0687e	-0.4070472
42	0x3e3f6643	0.18691353
43	0x3c39179e	0.011297135
44	0xbd9fec8e	-0.07808791
45	0xbee48d75	-0.44639173
46	0xbe1ae708	-0.15127194
47	0xbf21b7eb	-0.6317126
48	0xbe22d35d	-0.15900941
49	0xbec08f98	-0.37609553
50	0xbf3359c0	-0.7005882
51	0xbe4863ef	-0.19569372
52	0xbc2fed9f	-0.010737806
53	0xbf029122	-0.51002705
54	0xbea5fbaf	-0.32418582
55	0xbf3164e7	-0.6929459
56	0xbe5a8dd5	-0.21343167
57	0x3d5c8b59	0.05384383
58	0xbdcbdf9a	-0.09954758
59	0xbf1283e0	-0.57232475
60	0xbecf965e	-0.4054441
61	0xbba88276	-0.0051425053
62	0xbf008930	-0.5020933
63	0xbf356a92	-0.7086574

model.11.running_var f4 [64]
0	0x3e8daee7	0.27672502
1	0x3ed09871	0.40741304
2	0x3e90e476	0.28299302
3	0x3f011994	0.50429654
4	0x3f25b5eb	0.6473071
5	0x3f3826fe	0.719345
6	0x3f191c8f	0.598092
7	0x3e5bc873	0.21463184
8	0x3f23d345	0.63994247
9	0x3f761901	0.961319
10	0x3e8444f8	0.2583387
11	0x3ea7abbe	0.32748216
12	0x3f9eb378	1.239852
13	0x3efc21da	0.49244577
14	0x3eba6a46	0.36409205
15	0x3ef533bd	0.47891036
16	0x3eb6acb5	0.3567864
17	0x3f04e67d	0.519142
18	0x3ec9b715	0.39397493
19	0x3eeb84b5	0.45999685
20	0x3eaa6d4d	0.33286515
21	0x3ed3ce80	0.41368484
22	0x3eb0168c	0.34392202
23	0x3eab0e9f	0.33409593
24	0x3e9cfc04	0.30661023
25	0x3e9b1772	0.30291325
26	0x3f0d84fd	0.5528105
27	0x3e8e7690	0.2782483
28	0x3ed0947a	0.4073828
29	0x3f6d5962	0.9271451
30	0x3ea83042	0.32849318
31	0x3f407cb7	0.751903
32	0x3eedff28	0.4648373
33	0x3e645146	0.22296628
34	0x3edda277	0.43288013
35	0x3f80bba3	1.0057262
36	0x3ed12d29	0.40854767
37	0x3f20e55f	0.6284999
38	0x3f24dafa	0.6439663
39	0x3f7d2da2	0.98897755
40	0x3eb2efc6	0.34948558
41	0x3f1158d3	0.5677616
42	0x3f24d65d	0.6438959
43	0x3e94ed71	0.29087403
44	0x3ed7c38f	0.42141387
45	0x3f3fdb32	0.7494384
46	0x3e9ee829	0.310365
47	0x3f3f376b	0.74693936
48	0x3f16cb38	0.5890384
49	0x3ee099d3	0.4386736
50	0x3f386d84	0.7204211
51	0x3f01f5bf	0.50765604
52	0x3e8f799b	0.28022465
53	0x3eafbc15	0.34323183
54	0x3eaa7349	0.3329108
55	0x3f88838c	1.0665145
56	0x3f1581fd	0.5840147
57	0x3ee03418	0.43789744
58	0x3ebfadfc	0.37437427
59	0x3ec94a94	0.3931471
60	0x3eb6a69a	0.35673982
61	0x3efd3810	0.49456835
62	0x3ece067f	0.4023933
63	0x3f14778e	0.57994926
