imitation_learning/models/h5-lr1e-05-agent.pt (torch, 972400 bytes, 34 tensors)

model.0.weight f4 [16, 5, 7, 7]
00000000: 1886 053d a0bc 85bc 2569 b43c 4ad6 2dbb
00000010: 6ac3 39bd 1044 65bd 742d 653d 3ccb 753d
00000020: 3e89 713b 1457 c1bc c8c2 d63c 951e 9f3b
00000030: 6893 a0bb c3f5 4c3d 5209 70bd 7394 3abd
00000040: 25b0 5dbc 6401 4d3b c7b3 463c a69b 0cbd
00000050: dbd5 1d3c a141 243c c040 17bd 34c8 7dbd
00000060: ebd8 bd3c 331b 60bd 9fe2 ea3c 1c31 86bd
00000070: ae09 723c 28a2 7fbd 5588 9a3c 7238 c43c
00000080: 8881 27bd 6364 763c 772a b83b 7831 2ebd
00000090: 72ea 723d 00ff 833c 71a8 aabb 355f 5e3d
000000a0: b90a 5bbd 2452 12bd 68cc 193d 4f79 003d
000000b0: 3458 133d 6bf2 09bd 48cf ba3c 381b 3cbd
000000c0: 99bc 49ba 6ee0 24bd 8d5d 083b 255f 803b
000000d0: a21f 21bc 1daa 9c3c 518b 1a3c 863e 563c
000000e0: e8dd 413d ffa0 113d 6a89 a039 ffc4 be3c
000000f0: 2bf4 7c3d 11a3 233c 0540 633d de8f 593c
00000100: 4edd 1aba 9822 39bc 9030 0a3d 37cb f6bc
00000110: 7aea 583d 92d9 873b 6d6f bc3c 4d42 f4bc
00000120: f6ea 2abb b461 4cbd cd35 d8bc 47c3 c73c
00000130: 61bc 2d3d 6628 0d3d 0960 58bc 7921 d23c
00000140: 094d 12bc 7ce7 64bd ec7c 20bd ac9a 67bc
00000150: 961e 803c 8831 653d 489b 873b 28cf 573d
00000160: 4d8a 82bd 00d1 72bd 918b 47bd 8a2a 5dbd
00000170: 8f53 90bc 8c62 80bd c29b 793d 640f 3d3d
00000180: 1878 113c 3a63 fa3c 0902 82bd ef4b 103d
00000190: 3080 77bd 4a76 cd3b 7bae a5bc 0252 22bd
000001a0: f2f3 113d 83f5 f8bb 05be 26bc c1ab 0abd
000001b0: ca35 333c f9f8 b6bc 8166 4739 5261 e23c
000001c0: fe88 63bd 4658 5f3c 700c 813d ee80 dc3b
000001d0: 14be 9c3c e176 3e3b 5dcc d7bc 2d0d b2bc
000001e0: 8f19 5b3d badd 383b 270f 65bd 860c 57bb
000001f0: 31a8 febc df9c 29bd 13e0 bdbc 31a3 68bd
00000200: 0f87 66bd a588 22bd fef2 9bbc fd85 633d
00000210: 4ffa 10bd 0aff 0c3a fae7 7e3d 6490 c0bc
00000220: 5a01 dbbc aa8f 113d 232d a9bc 874e 8139
00000230: 0171 6dbd a16f b83c f607 793d 54e6 4fbd
00000240: 2701 2d3d 7962 9bbc ab45 95bc dc47 b13c
00000250: 9ab6 58bd ed8d 2fbd c9a6 de3c 113f 81bd
00000260: 1efa a73c fa9d f0bc 2837 453b 9695 78b9
00000270: cda1 d43c d5a7 03bd 77dc 7abd 8a37 d0bb
00000280: f621 2cbd 0ac7 443d ab91 f3ba 8e34 9e3c
00000290: 3533 a83c 7ae3 25bd 6726 c83c f9f0 c93c
000002a0: cfaf 29bd 8732 fc3c 18d4 413d 4180 34bd
000002b0: 1fd9 10bd 47c5 763c 1176 c43a 6338 ffbc
000002c0: e83b 1ebd b4f0 cdbb 5b24 f43c 9a2a 2a3d
000002d0: a78f 2e3d 323b 04bc 7749 393b 3cc5 61bc
000002e0: cde4 74bd 8d2e 603d ddaa 5f3d 8dd6 4b3d
000002f0: 8c7b cdbb 24a6 193d 99d5 febc e66a fcbc
00000300: 64b5 043d 0565 40bd b70b a03c 5604 cb3c
00000310: 5b7a 813d 90f9 293d 076f 4b3d db25 59bd
00000320: 444a 66bc 8ce3 6cbd ad07 123d 692b 373d
00000330: d6aa 403d 704e c03b 2f75 43bd 9bd2 703d
00000340: 3eb0 66bd 5c53 123d 5b0a 9b3c 58fb c33b
00000350: 6a01 943c 1cd7 0e3d 317d 32bd 6955 433d
00000360: 0eb7 673d a4ff 21bd 8597 51bd 3e65 d33c
00000370: 23f0 7c3d 7617 64bc 64d2 1ebd 9324 fdbb
00000380: 2723 00bd fa22 23bb 6fce 4a3d c31b dbbc
00000390: 88b2 a43c 5a23 363d 342f 63bc 9fac 72bd
000003a0: 8f06 503d 6749 0ebc 4a8b e53c 68d9 a0bb
000003b0: b452 033d eb85 253d 0091 243d c5f9 043c
000003c0: ed55 9d3c f26c 4c3d 6634 813d 4b57 6b3d
000003d0: 60cd 7e3d 7745 383d 5c15 83bd ac95 f4bc
000003e0: f2a9 523c cbd6 2a3d 53f8 003c 3d1a 8cbc
000003f0: bd15 1cbd e860 ed3c 308c 983c caea 1d3c
0.032598585 -0.016325295 0.022022793 -0.0026525431 -0.045352377 -0.055973113 0.05595155 0.060008273
0.0036855484 -0.023601092 0.026215926 0.0048559406 -0.0049003847 0.050039064 -0.05860264 -0.04555173
-0.013530766 0.0031281346 0.012127823 -0.034328125 0.009633507 0.010025413 -0.036926985 -0.061958507
0.023174724 -0.05471344 0.028672514 -0.065523356 0.014772816 -0.062410504 0.018863836 0.023952696
-0.040895015 0.0150385825 0.0056202966 -0.042527646 0.059305616 0.016112804 -0.005208068 0.054290015
-0.053477023 -0.035722867 0.037548453 0.03136569 0.03597279 -0.033678453 0.022803918 -0.045924395
-0.0007695645 -0.040253095 0.0020807714 0.003917592 -0.009834202 0.019124085 0.00943263 0.01307643
0.047330767 0.03555393 0.0003061996 0.023287294 0.061756294 0.0099876085 0.055480976 0.0132789295
-0.0005907611 -0.011299752 0.03373772 -0.030126197 0.05295799 0.0041458094 0.02300235 -0.02981677
-0.002607999 -0.049897864 -0.026392842 0.024385108 0.04241598 0.034462355 -0.01320649 0.025650727
-0.008929499 -0.055884823 -0.039181635 -0.014135998 0.015639585 0.05595544 0.004138384 0.052687794
-0.06374035 -0.05928135 -0.048717085 -0.053995647 -0.017617969 -0.06268796 0.060939558 0.046157256
0.00887873 0.030564893 -0.063480444 0.035228666 -0.060424984 0.0062702047 -0.0202248 -0.03962899
0.035633035 -0.0075976267 -0.01017714 -0.033855204 0.010938117 -0.022335516 0.00019016305 0.027634297
-0.055550568 0.013631886 0.063012004 0.006729237 0.019133605 0.0029062557 -0.026342565 -0.021734798
0.05349117 0.0028208331 -0.055922654 -0.003281386 -0.03108606 -0.04140937 -0.023178136 -0.056796256
-0.056281146 -0.039681096 -0.019036766 0.055547703 -0.035394963 0.000537858 0.06223295 -0.02350635
-0.026734043 0.0355374 -0.020651406 0.00024663305 -0.057969097 0.022514166 0.060798608 -0.050756767
0.042237427 -0.018967854 -0.018221697 0.02164071 -0.052908517 -0.04285996 0.027179139 -0.06310857
0.020505007 -0.029372204 0.003009269 -0.00023706848 0.025956059 -0.03214248 -0.061245408 -0.006354277
-0.042024575 0.04804138 -0.0018582841 0.01931217 0.02053223 -0.04050014 0.024432374 0.024651038
-0.04142743 0.030785812 0.04732141 -0.044067625 -0.035363313 0.015061683 0.00149888 -0.031154817
-0.03863135 -0.0062847976 0.029802492 0.041544534 0.042617466 -0.008070754 0.0028272548 -0.0137799345
-0.059788514 0.054731894 0.054606307 0.04976516 -0.0062708315 0.03751196 -0.03110771 -0.030812692
0.03239955 -0.04697134 0.019536836 0.024782341 0.063221656 0.041497767 0.04966643 -0.053014617
-0.014055792 -0.057834193 0.03565185 0.044719134 0.04703792 0.0058687255 -0.047719177 0.0587946
-0.05632042 0.03572403 0.018925836 0.0059808902 0.01806708 0.034873113 -0.043576423 0.047688875
0.05657106 -0.03955044 -0.05116989 0.025805112 0.06175245 -0.013921609 -0.038774863 -0.0077253073
-0.031283524 -0.0024892674 0.049513277 -0.026746636 0.020104662 0.044467308 -0.013866235 -0.059246656
0.050787505 -0.008684493 0.02802052 -0.0049087293 0.032061294 0.040410917 0.040177345 0.00811619
0.019206012 0.049908586 0.06308822 0.057456296 0.06220758 0.04498812 -0.06400558 -0.029856525
0.012857901 0.04170875 0.007871705 -0.017102355 -0.03810667 0.028976873 0.018621534 0.009638498

model.0.bias f4 [16]
00000000: aa95 c93b 6585 63bd 61c3 203d 6bee 413d
00000010: aa58 6a3c 671b eb39 f245 783c a9c5 573d
00000020: 91c9 4ebd de14 2fbc 4fbf 50bc 13d8 b23c
00000030: f7ea 5abd fb3a 303d cd44 243b f4a6 a8bc
0.0061518745 -0.055547137 0.039248828 0.047346514 0.014303366 0.0004484311 0.015153395 0.052678738
-0.050485197 -0.0106861275 -0.012740924 0.021831548 -0.053446736 0.043025 0.0025065423 -0.020587422

model.1.weight f4 [16]
00000000: 7745 803f ba26 803f 0812 803f 5319 803f
00000010: 3ebd 7f3f cdbe 7f3f d00f 803f 3c75 7f3f
00000020: 02d2 7f3f dd28 803f f86c 7f3f cc28 803f
00000030: c91b 803f aeec 7f3f 9002 803f 2602 803f
1.0021199 1.0011818 1.0005503 1.0007728 0.99898136 0.99900514 1.0004826 0.9978826
0.9992982 1.001247 0.9977565 1.001245 1.0008479 0.9997052 1.0000782 1.0000656

model.1.bias f4 [16]
00000000: 057a 893b c20e 0e3b f3ec d43a fe5d 113a
00000010: 8b80 5a3a ec61 ecb7 f408 c639 992e 53ba
00000020: a475 ef39 4a78 963a 3b02 4cbb cb94 463a
00000030: c284 f839 1db4 0d39 1d5d 2639 6026 a7ba
0.004195454 0.0021676277 0.0016244933 0.0005545317 0.00083351944 -2.817899e-05 0.00037772174 -0.0008055955
0.0004567328 0.0011479941 -0.003112926 0.00075752725 0.00047401158 0.00013513905 0.00015865681 -0.0012752526

model.1.running_mean f4 [16]
00000000: a45c fb41 39f5 2043 6423 4cc2 33fa 50c2
00000010: d251 e942 5189 0f43 34c5 c4c2 9d48 3f3f
00000020: 1de7 1bc3 86ab 0443 6d80 31c0 8704 49c2
00000030: 0e52 cfc2 e1cf 10c2 4e1c 1242 bf55 01c2
31.420235 160.9579 -51.03456 -52.244335 116.659805 143.53639 -98.38516 0.74720174
-155.90279 132.67001 -2.7734635 -50.25442 -103.66026 -36.203007 36.52764 -32.333736

model.1.running_var f4 [16]
00000000: c9ef cf43 e4c0 5645 7a06 e543 a9aa 2c44
00000010: ff1e ee44 4c67 3045 b1d5 b144 a87a 9c43
00000020: 9781 7245 a7c7 1a45 7e74 aa43 4f60 0f44
00000030: df9f bd44 63ea c943 7694 ab43 53ed 6e44
415.87332 3436.0557 458.0506 690.66656 1904.9686 2822.456 1422.6779 312.95825
3880.0994 2476.4783 340.9101 573.5048 1516.996 403.83115 343.15985 955.7082

model.4.weight f4 [32, 16, 3, 3]
00000000: fe25 b3bc a1ef 9d3d 9719 92bd 685a 813d
00000010: b3b2 883d c48c 4cbd a574 67bd 63b7 4c3d
00000020: d2b0 15bd e245 8c3d c6c3 a63d a823 83bd
00000030: 9cc2 6f3d 3fc4 a0bd 6409 823d 999c b33c
00000040: b989 8a3d ddea 9ebb abef fa3c 7d33 9dbc
00000050: 1b66 4c3d 9a48 8dbb e313 a4bd 8f24 a9bd
00000060: d9f5 083d 89b5 19bd af3a c73c 4f77 9c3c
00000070: 6aad abbd 7fcf 9b3d 1627 fcbc 681c 5dbd
00000080: fbb2 ecbc 6b01 773d 1c51 0ebd 11ce 22bd
00000090: c988 783d 38e2 273c e40e c73c f3e0 7b3d
000000a0: e64e 323d 5456 8abd 673c aabd d944 6b3c
000000b0: 4b26 91bc 4d36 333d 507f 1ebc 02c5 a0bd
000000c0: 4e35 99bd 54a8 e33c 010d a6bc 951a a4bd
000000d0: cb6a 4dbd 97be 543d 01bf 723d 7433 b9bb
000000e0: 918b 61bd be98 bdbc a0ab 3fbc caf2 943d
000000f0: 0483 c8bc 098a bebc 34f6 44bb 91d4 793d
00000100: 9d90 8cbd 0f5e 203d e287 53bd d1cb b33b
00000110: 8138 923d 97dc 943c 88f4 8f3c e357 44bd
00000120: 09ab b5bc 4046 893c 74cd 583d b875 1e3c
00000130: 95a5 5b3d d935 673b 231b 82bc 63b4 f6bc
00000140: 27af 1abb 6d37 933d 439c 8fbd 2cce 813b
00000150: b128 1c3c d8c8 893d 4f9b b2bc cb7c cdbc
00000160: 8c6e 873d 97ca 103d 0207 ae3c 8187 003d
00000170: bee5 e4bb fe54 82bd d0f9 99bd bc0b 9c3d
00000180: 33ff 8bbd edfe a7bd 3260 75bd e2eb a03d
00000190: d10b 833d a25f 1c3b 4d22 543d 03f4 183d
000001a0: 0e4e 87bd 3c29 9ebd 30bc 54bd 3c77 3b3d
000001b0: e8fe 1ebd 509f 28bd ed5b 69bd 6397 1bbc
000001c0: ac71 3abd ab66 90bd 22d0 0fbd 59f4 eabc
000001d0: b8c9 dd3c 3062 63bc 8ff1 42bc b820 a13d
000001e0: 580f 37bd f047 8ebd 326f 863b abe9 5bbd
000001f0: 34c1 96bc cd10 44bc d7b1 06bd 8491 98bd
00000200: 8065 453c 6c4c 093c 27dc a33d 0d07 35bc
00000210: 59d5 7c3d b3a0 a23d 874b 90bd ea13 93bd
00000220: f2f8 da3c d276 14bd a56b ecbc ab60 4a3d
00000230: d738 503d 8422 94bd 7749 9fbc 06a8 233d
00000240: 4da9 d63c 21c8 a7bd c335 663d 70e2 a23c
00000250: f423 cb3b 78b6 843c 2118 9fbc 634f da3c
00000260: a1ff 0e3d 5f1c 623d 0ceb a63d 0d1c 5a3d
00000270: 8e6d 713d 106b 623d 0f9f 903d 4009 1ebd
00000280: 089e 3cba cafa 973d f3fa 143d 87ed 2a3d
00000290: a9ec 8cbc 21f8 07bd 4dde 8fbd 25e3 82bc
000002a0: 0b0e c43c 342b 15bd d608 31bd 12fa 74bb
000002b0: f462 f53c dfb1 2e3d 5ca5 1a3d 0f91 17bd
000002c0: 00f5 4cbc 5c2b 57bd 33d5 673d b808 2abc
000002d0: 6816 843d d13c 003d 9f63 93bb e1b0 fd3c
000002e0: ac19 5bb8 4b9f 6ebd 3f90 c53c 89a2 f3bb
000002f0: d929 573d 3cfc 70bd 3ccb 5b3d 6740 75bc
00000300: 657f 9e3c 8aab 7f3b 77cb a4bb e2be b9bc
00000310: ca8a 2cbd 1400 723d 9efb 313d d29e 87bd
00000320: 5b13 b1bc b1f7 933d de22 933c 5064 4dba
00000330: bdc0 1b3c af30 97bd 4d19 d13c ec3c 113b
00000340: 989c 403d fa63 36bd ddcd 76bd 9aea 34bd
00000350: 049a ca3c cb50 8cbd 2bee ff3c 6ebf 1c3d
00000360: 7ddc a23d f161 93bd 0052 123d a061 60bd
00000370: ca70 6dbd b559 12bd af5d 7c3d 86ab c0bc
00000380: df3a 2e3c b97e cbbb f577 b2bc 01ee 633c
00000390: 28a3 babc d381 493d b5e6 853d ee37 973d
000003a0: bbfd 90bd 16bf f9bc 356d 813d d810 59bd
000003b0: 0d21 6d3d 6ad0 8d3d 5efc 92bc 443c e7bc
000003c0: cd18 6c3c ce84 28bd 5457 31bd e956 0ebd
000003d0: d594 e0bc 669d 913d 1e12 a43b 3330 843d
000003e0: 9036 a63d 2d7c 133d 72d4 a23d 53fa 44bd
000003f0: d958 7f3a 6b15 923d 1835 a43c f6b1 073d
-0.021868702 0.07711721 -0.07133787 0.06316072 0.06674709 -0.049938932 -0.056507725 0.04997958
-0.036545582 0.068492666 0.081428096 -0.06403285 0.058535203 -0.07849931 0.06349447 0.021925258
0.0676455 -0.004849775 0.03063186 -0.01918959 0.049902063 -0.0043116333 -0.080116056 -0.08258926
0.033437584 -0.03752664 0.024319975 0.01909986 -0.083826855 0.07607936 -0.030780356 -0.05398217
-0.028893938 0.060304087 -0.03474532 -0.0397473 0.060677323 0.010246806 0.024299093 0.061493825
0.043532275 -0.06754747 -0.08312302 0.014359676 -0.017718455 0.043752957 -0.009673908 -0.07850076
-0.0748087 0.027790226 -0.020269873 -0.080128826 -0.050150674 0.051939573 0.059264187 -0.0056518856
-0.05506474 -0.023144122 -0.011698633 0.07272871 -0.024476536 -0.02325918 -0.0030053975 0.060993735
-0.0686352 0.0391522 -0.05164326 0.0054869433 0.071396835 0.018171592 0.017572656 -0.047935378
-0.022176282 0.01675713 0.05293031 0.009671621 0.05362471 0.0035279898 -0.01588208 -0.030115312
-0.0023602934 0.07188306 -0.070122264 0.003961345 0.009531186 0.06727761 -0.021802573 -0.02508392
0.06612882 0.035349455 0.021243576 0.031379227 -0.006985395 -0.06363867 -0.07518351 0.07619426
-0.06835785 -0.0820292 -0.059906192 0.07857491 0.06398738 0.0023860713 0.051790524 0.037342083
-0.066066846 -0.077227086 -0.051937282 0.045768008 -0.038817316 -0.041167557 -0.056972433 -0.009496543
-0.045518562 -0.07050832 -0.0351106 -0.028680967 0.027073726 -0.01387839 -0.011898412 0.07867569
-0.044692367 -0.06947315 0.004102611 -0.05368964 -0.018402673 -0.011966896 -0.032884445 -0.0744963
0.012048125 0.008380037 0.08000975 -0.011049044 0.0617269 0.07940807 -0.07045656 -0.07181533
0.026730035 -0.03624613 -0.028859923 0.049408596 0.050835457 -0.07233146 -0.01944421 0.03995516
0.026203776 -0.081924684 0.056203615 0.019883364 0.0061993543 0.01620029 -0.019420685 0.026649183
0.034911755 0.055202838 0.081503004 0.053249408 0.05894237 0.055277884 0.07061588 -0.03858304
-0.00071951794 0.07420881 0.036372136 0.04173043 -0.017202692 -0.03319562 -0.070248224 -0.015977452
0.023932477 -0.036418155 -0.043221317 -0.0037380499 0.029954411 0.0426501 0.037755355 -0.037003573
-0.012509584 -0.052531585 0.056599807 -0.010378055 0.06449586 0.031308 -0.0044979597 0.030968131
-5.2237578e-05 -0.058257382 0.024116633 -0.007435147 0.052530143 -0.0588343 0.053660616 -0.014968968
0.019347856 0.0039012157 -0.0050291377 -0.022674028 -0.042124547 0.059082106 0.04345285 -0.066220894
-0.021615675 0.07224978 0.017960962 -0.0007835077 0.009506402 -0.073823325 0.02552476 0.0022161556
0.04702434 -0.04452894 -0.06025492 -0.044169046 0.024731643 -0.068513475 0.031241497 0.0382685
0.07952211 -0.07196415 0.035722733 -0.054780602 -0.057968892 -0.035730083 0.06161278 -0.023519289
0.010634153 -0.006210175 -0.021785716 0.013911725 -0.022782877 0.049196076 0.065381445 0.073837146
-0.07079645 -0.030486625 0.06319658 -0.05299458 0.057892848 0.069245175 -0.017942604 -0.02822698
0.01441021 -0.041142277 -0.043296173 -0.034750853 -0.027414719 0.071100995 0.0050070425 0.06454506
0.08115876 0.036007095 0.07950677 -0.04809029 0.00097407174 0.071329914 0.020044848 0.0331287

model.4.bias f4 [32]
00000000: 2309 93bd 55f4 6bbc e6a0 a73c 82f4 cc3a
00000010: b837 8f3d 6fcc 493d deb0 8c3d 347e 83bc
00000020: f4df fdbc 93e3 ce3c 5795 bd3c 9cf1 493d
00000030: 18be 3fbd 6f5b 943d 7114 8cbb e520 103d
00000040: dcbd a53d 52dd 6fbd 9fbe 9c3d c2c1 bb3c
00000050: 80bf 863d 6b06 8bbd 196a 33bd 0be6 6ebd
00000060: 770c 54bc 2e7a 763d 30ea 15bd 3759 493d
00000070: fb1a 303d 7937 41bd c625 873d 0563 1c3c
-0.07179477 -0.014401515 0.020462465 0.0015636834 0.069930494 0.04926723 0.06869672 -0.01605139
-0.030990578 0.025255 0.0231425 0.049302682 -0.046812147 0.07244002 -0.0042748977 0.03518762
0.080928534 -0.058560677 0.076535456 0.02291954 0.065794945 -0.067883335 -0.043802354 -0.058324855
-0.012942425 0.060175113 -0.03660029 0.049157348 0.04299448 -0.047172043 0.065990016 0.0095450925

model.5.weight f4 [32]
00000000: 73f0 7f3f 0052 7f3f f4ff 7f3f 1df9 7f3f
00000010: aac9 7f3f 4d26 803f 49d7 7f3f 6b99 7f3f
00000020: bad3 7f3f 22e3 7f3f d0f1 7f3f 6d9b 7f3f
00000030: e3dc 7f3f 0719 803f 5f10 803f ad74 803f
00000040: 2111 803f b45b 803f f026 803f 54c2 7f3f
00000050: 2d20 803f 7015 803f 4651 803f da56 7f3f
00000060: 93b2 7f3f 7fa9 7f3f f555 803f d57e 7f3f
00000070: 8d02 803f bacf 7f3f 3f85 7f3f 1f37 803f
0.9997627 0.997345 0.9999993 0.9998949 0.9991709 1.0011688 0.99937874 0.9984347
0.99932444 0.9995595 0.9997835 0.99846536 0.9994642 1.0007638 1.0004996 1.0035607
1.0005227 1.0027986 1.0011883 0.99905896 1.0009819 1.0006542 1.0024803 0.997419
0.9988186 0.99868006 1.0026232 0.99802905 1.0000778 0.9992634 0.9981269 1.0016822

model.5.bias f4 [32]
00000000: c5ac a939 ffd1 e7ba a2ca 023b 9b35 d939
00000010: ad0e 0bbb ff6e 18bb 0d3d 8f3a 129c c6b9
00000020: 5ed0 95ba 954a bd36 f292 a03a 462a bc3a
00000030: db60 fb3a f7cb 9939 f0aa d03a 7050 293b
00000040: 6bb4 433a ff18 d83a 0352 563a 303e ebba
00000050: 8782 973a 2cc5 7b3a 383b 0f3b 0766 bcba
00000060: d575 15bb 57ce 9eba 2f07 3e3b 2455 4aba
00000070: 7ba0 0e38 be8c a03a dc13 1939 993b b1ba
0.00032362915 -0.0017686485 0.0019957204 0.00041429405 -0.0021218464 -0.0023259518 0.0010928229 -0.00037881784
-0.0011429896 5.6413214e-06 0.0012250824 0.001435586 0.0019178645 0.000293344 0.0015920084 0.0025835298
0.0007465544 0.0016486942 0.0008175673 -0.001794761 0.0011559286 0.0009604271 0.0021855365 -0.0014373668
-0.002280583 -0.0012115937 0.002899598 -0.00077183754 3.4004897e-05 0.0012248976 0.00014598615 -0.001352179

model.5.running_mean f4 [32]
00000000: 69e2 62be 5590 a93e f702 ea3e 217d 0fbf
00000010: d001 933e 191e 5dbd aa7d 113d ff5b 423e
00000020: 332b 153e 8488 0cbf ce34 533e 3f7c 96be
00000030: aed4 fcbc 1249 cb3e ef82 bb3c 80ae 553d
00000040: 0c89 0e3e d366 89be b0d6 dbbd 2ff6 a5bb
00000050: f85f 0d3e a446 2ebe 9eaa 5cbe 815a 4abe
00000060: 65dc 103e ab9a 963d 806b 0d3e f823 1b3e
00000070: 6d04 463c 7fe2 7cbe b4ae cb3d 9c06 1fbe
-0.22156681 0.3311793 0.45705387 -0.56050307 0.2871232 -0.05398378 0.035520233 0.18980406
0.1456726 -0.54895806 0.20625612 -0.29391667 -0.030863132 0.39704186 0.022889582 0.05216837
0.13919467 -0.2683626 -0.10734308 -0.0050647478 0.1380614 -0.17019135 -0.2154946 -0.19761087
0.14146574 0.07353719 0.13810539 0.1515044 0.012086016 -0.24695776 0.09945431 -0.15529865

model.5.running_var f4 [32]
00000000: 02f0 733e d2e0 743d 5de5 e13d d4b6 8b3e
00000010: 4542 3a3d 0127 2b3d 271c 243d 459e 383e
00000020: 4f82 043e 76e1 d03d d66e 683d 1c73 953d
00000030: 7d12 a93e 0006 2d3e 943e 5d3d 4cb4 253d
00000040: df93 9b3d e32b 0c3d c299 663e c7bb ea3d
00000050: 8b9d 1b3d ec03 473d 75e8 db3d 7956 983d
00000060: 0625 de3d 7d8a 3c3e aea7 0f3e 76ba 913e
00000070: 56ae 1e3d 93ba ec3d 1b11 533d bb45 a63d
0.23822024 0.059784718 0.11030076 0.27287924 0.045473356 0.041785244 0.04006591 0.18029125
0.12940334 0.10199253 0.056746326 0.07297346 0.33021918 0.1689682 0.054014757 0.040455148
0.075965635 0.03422154 0.22519591 0.11461597 0.03799204 0.048587725 0.10737697 0.07438368
0.108469054 0.18412204 0.14028808 0.2846257 0.03874048 0.11559024 0.051529985 0.08118769

model.7.weight f4 [32, 32, 3, 3]
00000000: 6e21 7ebc ebd3 9e3b 37cd 6f3d bd36 b43c
00000010: 3784 1cbd 2f56 9dbc a1ef a53c 1650 523d
00000020: ed89 31bd 8584 ed3c 0f51 2ebb 73f6 663d
00000030: 9f8d ff3c 4ee3 96bc 03c4 1dbd d4f9 543d
00000040: ffaf 383d ac42 65bd aa48 4f3d 97e7 403c
00000050: 147f 953c cd83 343c 78fc 633d 70cc 5ebc
00000060: 8963 65bb 1bc1 683c 9296 3c3d 5edb 9bbc
00000070: cacc 8a3c c8c3 d1bb d558 503d 3096 6dbd
00000080: 1a48 033d eca0 49bd 2fd0 da3c 82ea 413d
00000090: af2c d93b 2f0e d9bb f654 423d 81b1 543d
000000a0: 048e 05bc 550d 4fbd c35e 80bc 93e4 64bd
000000b0: 90b5 aaba 5b03 053d 86f4 a4bc 7911 24bc
000000c0: fa08 3fbd 0640 323d 6990 143d 9c86 20bd
000000d0: 5d35 0cbd 7b69 023c 02c4 a93c 6c43 f13c
000000e0: 79be 29bc 0f43 523d 21f0 c43c 00a0 68bd
000000f0: 6424 423c 6266 78bb 3017 20bd 4966 4ebd
00000100: 481e 2f3d 2026 8a3c f30d 363d f4ac b13c
00000110: 9d5a eebc 3911 fabc 946f c23c 82c3 30bd
00000120: 16ed e73c d3db 0a3d d935 89bc d08d 343d
00000130: ce90 243c 05c0 00bd 53ad 5f3d cc20 283d
00000140: 35c3 d5bc ab9e 69bd e7ac 523d fb84 ca3c
00000150: 0cea 64bd 7bf0 3fbd b7d2 d2bc 36aa 07bc
00000160: 07cd 48bd 4a90 343d e5b1 87bc dc9c 933c
00000170: 0413 21b9 1b51 ca3c 51f2 673d 9cd7 6dbd
00000180: 1917 213d 0154 3abc 6759 16bc 93c6 1f3d
00000190: a151 a93b 7afd 31bd daae 1f3c 7b9c 50bc
000001a0: 2f3d 85bc 4dfd 2bbd a1ef c93c 4171 09bd
000001b0: efd3 b2bb 0e34 dfbc d650 5c3a 6346 08bd
000001c0: abb8 1f3d 76d7 113d 490b 623d 64a7 30bd
000001d0: eb80 503d daa3 4e3d 9364 503d 3e0e 313d
000001e0: a061 933c a4b7 283d 29ca 1d3c c726 c4bc
000001f0: dc12 3ebd cf85 c3bc 7206 32bc 82f7 563c
00000200: 9ff5 ea3c 7e69 06bd 4cb2 a7bc 8577 34bd
00000210: 47a6 033c 1926 48bd f7ff 6f3c 053b 1d3d
00000220: a9a2 b33c c40c 633c c3b8 3bbd 7f3b 043d
00000230: 6782 c6bc 9dda 1a3d 8328 64bd f172 ebba
00000240: b238 c33b 67c7 40bd 5e94 dfbc 025f 61bd
00000250: 60be aebc 5e8d 0c3d 17b9 373a 6c35 733c
00000260: 034e 8e3c b11a 12bd 236d 5cbd 59df 51bd
00000270: ebe4 a13c 5bb4 b8bb 72fd 5abd 178f 183d
00000280: c7e5 aabc 3d6e 453d f89b 2bbd 75e0 3abd
00000290: 3202 c73c 7023 353d af3b eebc 89b1 373d
000002a0: c733 0abd 02ce 27bd b20e 63bd 9005 8ebc
000002b0: b81e 773d 82cb f73c 7fed 25bc 99a4 2c3d
000002c0: a606 6cba fb67 3bbd df67 02bd 883f e7bc
000002d0: 694f 5d3b 66ac e2bc 2c46 0a3d d7bd fe3c
000002e0: 605c 643d 0359 acbc ccf2 573d 35c7 713c
000002f0: 64ef 123a 8ee7 9d3c 6d23 0e3d 44f4 413d
00000300: 01b0 0c3b 27c0 553d a508 473d 8ff7 0abd
00000310: 3663 9c3c cfe1 b8bc ea62 b93c cfba fc3b
00000320: 2a67 4f3b ac95 c5bc 375d 3bbd c7dc bc3b
00000330: a9ec f83c 2797 52bd ea06 593d ca4d 58bd
00000340: 9895 24bc ee8f 393c b4f5 71bb f098 debc
00000350: 6532 3cbd 68b4 20bd 9c97 ed3c 81a9 40bb
00000360: 0e4f 46bd 0f4c a83b a31b 45bc e03f 0e3d
00000370: 0b51 55bd b35d 393d f242 1b3d e5c6 483b
00000380: d19c 90bc a6ea 45bc 5191 b23c 3db6 56bc
00000390: 5a68 063c 08b5 6d3d 216e 073d 4333 88bc
000003a0: 5533 6a3b 24e6 3cbb f336 10bd 9afd babc
000003b0: 03f1 59bb bec1 26bd 603a 4abd e032 fd3b
000003c0: 631d a1bc 4aaa bcbb 556b 0fbd 356b 0abc
000003d0: af59 53bd 63f0 123d 20d1 0ebd 5d3d 42bd
000003e0: 3f7d f53b f7f3 33bd a162 12bd ff5f 323d
000003f0: 419f adba d6b8 5b3d cca8 e83c c4c1 45bd
-0.0155109 0.00484704 0.058545318 0.021998757 -0.038212027 -0.019206135 0.020255866 0.051345907
-0.043344427 0.028993854 -0.0026598608 0.056387376 0.03119546 -0.018418934 -0.03851701 0.051996067
0.045089718 -0.055971786 0.050606407 0.011773965 0.018249072 0.011017752 0.055660695 -0.013598546
-0.0035001955 0.014206196 0.046042033 -0.0190255 0.016943354 -0.006401513 0.050865967 -0.058004558
0.032051183 -0.049225733 0.026710598 0.047342785 0.006627641 -0.0066240053 0.047444306 0.051927093
-0.008151535 -0.050549824 -0.015670186 -0.055882048 -0.001302408 0.032473903 -0.02013613 -0.010013931
-0.04663942 0.04351809 0.036270533 -0.039190874 -0.03423058 0.007959719 0.020723347 0.029451095
-0.010360354 0.051333483 0.024040284 -0.056793213 0.0118494965 -0.0037902822 -0.039084613 -0.050390515
0.042753488 0.016863883 0.044446897 0.021688916 -0.029095942 -0.03052579 0.023734845 -0.0431552
0.028311294 0.033901047 -0.01674931 0.044080555 0.01004429 -0.031433124 0.054608654 0.041046903
-0.026094059 -0.057036083 0.051434424 0.024721613 -0.055887267 -0.0468602 -0.025735242 -0.008280328
-0.049023654 0.044082917 -0.016564319 0.018019132 -0.0001536124 0.024696877 0.056627575 -0.05806695
0.03932867 -0.011372567 -0.009176589 0.039007735 0.0051672016 -0.043454625 0.009746278 -0.01273262
-0.016264526 -0.041989613 0.024650397 -0.033555273 -0.0054573934 -0.027246501 0.00084043795 -0.03327025
0.038994472 0.03560587 0.055186544 -0.043128386 0.050904196 0.05044923 0.050877165 0.043226473
0.017990887 0.04119076 0.009630718 -0.023944272 -0.046404704 -0.023867516 -0.0108657945 0.013120534
0.028681574 -0.03281545 -0.02047076 -0.044059295 0.008035249 -0.048864458 0.014648429 0.038386364
0.021928148 0.013858024 -0.0458305 0.032283302 -0.024232103 0.037806142 -0.055702697 -0.0017963332
0.0059576863 -0.047065165 -0.027292427 -0.055022247 -0.021331012 0.034314506 0.00070084765 0.01484428
0.017371183 -0.035669986 -0.05381502 -0.05123839 0.019762477 -0.0056367344 -0.05346436 0.037245836
-0.02086152 0.048200835 -0.04189679 -0.045624215 0.024293039 0.04422325 -0.029081194 0.044847045
-0.033740785 -0.04096795 -0.055433936 -0.017336637 0.06033203 0.030248407 -0.010127424 0.04214916
-0.0009003676 -0.04575346 -0.03183734 -0.028228536 0.0033769256 -0.027670097 0.033758327 0.031096382
0.05575216 -0.021038538 0.052721784 0.014756967 0.000560513 0.019275453 0.034701753 0.04735209
0.0021467211 0.052185204 0.04859223 -0.033927497 0.019090276 -0.022568611 0.022630174 0.007712699
0.0031647184 -0.02411922 -0.045743193 0.0057636234 0.030386286 -0.05141368 0.05298511 -0.05280856
-0.010045432 0.011325819 -0.0036920132 -0.027172536 -0.045946497 -0.03923455 0.029002957 -0.0029397907
-0.048415236 0.00513602 -0.012030515 0.034728885 -0.05207924 0.045255374 0.03790564 0.0030636129
-0.0176529 -0.01207987 0.021797808 -0.013104972 0.00820359 0.058033973 0.03306401 -0.016626006
0.0035736163 -0.0028823698 -0.035208654 -0.022826005 -0.0033255226 -0.04071211 -0.049372077 0.007727012
-0.019667333 -0.0057576047 -0.03501447 -0.008448412 -0.0515992 0.035873782 -0.034867406 -0.0474218
0.007491737 -0.043933835 -0.03573859 0.04354858 -0.0013246314 0.05364307 0.028400801 -0.048280492

model.7.bias f4 [32]
00000000: 40f9 243d 3e46 51bc 4a77 3b3d 8acd 213d
00000010: 6055 403c b338 183d 5095 15bd 8e45 e73a
00000020: 8ac1 5b3d 76da 97bc b3c9 01bd 6a2e 05bd
00000030: 7de3 57bd 12f9 3fbd 0dd6 833c eac0 6b3d
00000040: 0959 5c3c de3a d13c 346f 1c3d e0cd 073d
00000050: c5d7 4a3d 5cbc 703c 2502 56bd 3874 58bc
00000060: dbd5 04bd 04d0 a0bc 027a 3fbd d4e8 e1bc
00000070: e824 783b 72df 2f3d 1bd6 643d 0c34 443d
0.040276766 -0.012773095 0.04576806 0.039502658 0.011739105 0.037163448 -0.03651935 0.001764463
0.05365137 -0.018536787 -0.031686496 -0.032514967 -0.052707184 -0.04686839 0.016093278 0.057557024
0.013448962 0.025540765 0.03819199 0.033155322 0.04952218 0.014693346 -0.05224814 -0.013211302
-0.03243051 -0.01963044 -0.046747215 -0.027576841 0.0037863795 0.042937703 0.05586825 0.0479012

model.8.weight f4 [32]
00000000: 187c 7f3f c9c7 7f3f 64c2 7f3f 65e6 7f3f
00000010: 54d8 7f3f 523d 803f d0e0 7f3f 7c00 803f
00000020: 4e24 803f 802f 803f 45a9 7f3f cb4f 7f3f
00000030: 5a3d 803f 9947 7f3f 198e 7f3f e0b7 7f3f
00000040: e02c 803f f522 803f e491 803f 2011 803f
00000050: 4751 803f 981e 803f dd5d 803f 4d10 803f
00000060: 2611 803f 5d1b 7f3f 8511 803f 15ac 7f3f
00000070: 37f4 7f3f 17c6 7f3f 4df4 7f3f cb2c 7f3f
0.9979873 0.9991422 0.9990599 0.9996093 0.99939466 1.0018713 0.9995241 1.0000148
1.0011079 1.0014496 0.9986766 0.9973113 1.0018723 0.99718624 0.998262 0.99889946
1.0013695 1.0010668 1.0044522 1.0005226 1.0024804 1.0009336 1.0028645 1.0004975
1.0005233 0.9965113 1.0005347 0.9987195 0.9998202 0.99911636 0.9998215 0.99677724

model.8.bias f4 [32]
00000000: 90da 1dbb 762a 2cba 9574 bdba 5168 14bb
00000010: f257 05ba 866f 9e3a 3525 dd3a bf37 72ba
00000020: 29a2 5638 6c00 743a 9865 e7b8 b77a 16bb
00000030: a67d 413b acf8 a8ba 0614 51ba 3b2d a0ba
00000040: e1ae 2e3b e438 7d3a 1991 8e3b 4b43 3e38
00000050: 2f25 a639 e1ec 443a ffe1 8f3b 1f2c 46ba
00000060: b2e7 673a 434f 9e3a 9065 eb38 483f 90ba
00000070: ebe3 92ba ff1c a839 076b 9c3a 20ce 21ba
-0.0024086572 -0.00065676065 -0.00144543 -0.0022645185 -0.0005086652 0.001208768 0.001687205 -0.0009239874
5.11726e-05 0.0009307924 -0.00011033862 -0.0022961327 0.0029524355 -0.0012891493 -0.0007975701 -0.0012220511
0.002665453 0.00096596614 0.004350793 4.53622e-05 0.0003168969 0.00075121043 0.0043909545 -0.0007559675
0.0008846476 0.0012078065 0.00011224591 -0.0011005187 -0.0011206841 0.0003206506 0.0011933752 -0.00061723776

model.8.running_mean f4 [32]
00000000: d9df 233e e4ec ffbe cc7c 2b3e d1b2 b63d
00000010: 8b09 7dbd f815 8dbe 597c 853e 6058 033d
00000020: 92e9 be3e 81a4 963d a80c fbbd a109 07be
00000030: b0ff d6bd 9dfe 163e 817b 22be 2e4d 383e
00000040: 89cb 80bd f95c 403d fff2 15be d5b3 0dbe
00000050: a06a 323e 2360 14be fae5 c0be f1a5 2abc
00000060: c841 353e 2e06 eabe b1ea d0be 2fe0 d5bd
00000070: 8792 9e3d ebd0 dd3d 3369 303d ed87 c53d
0.1600336 -0.4998542 0.16746825 0.08920825 -0.06177668 -0.27555823 0.26071432 0.032066703
0.37287575 0.073555954 -0.12258273 -0.13187267 -0.10497987 0.14745565 -0.15867426 0.17998192
-0.06288821 0.046963666 -0.14643477 -0.13838132 0.17423487 -0.14489798 -0.37675458 -0.01041554
0.17700875 -0.4570784 -0.40804055 -0.1044315 0.077427916 0.108308636 0.043069076 0.096450664

model.8.running_var f4 [32]
00000000: 8b98 f73d d315 b13e c5fa d23d 283d b93d
00000010: 92b9 b13e 2004 7b3d b1e1 353d 7fae a83d
00000020: fe5a 833d 6b7f 9d3d 9259 f53d 0a8a ae3d
00000030: 7524 0d3e f918 8f3d 6c0f c23e d940 b83d
00000040: f94b b73d bd88 b43d 60de 703d d836 fd3d
00000050: b40f 923d 8936 0e3d 57a4 9b3d 172e 5c3d
00000060: c1a7 863d f88f 933e 316d ea3d 9d19 423d
00000070: 23d7 953d 2484 7f3d 4b96 253d 165d c13d
0.12089642 0.34586963 0.10301737 0.09044868 0.3471189 0.06128323 0.04440469 0.082364075
0.0641384 0.07690319 0.11979975 0.085224226 0.13783439 0.06987185 0.3790239 0.08996744
0.089500375 0.08815143 0.058805823 0.12363976 0.071319014 0.034719978 0.07599705 0.053754892
0.06574965 0.28820777 0.11446608 0.047387708 0.07316425 0.06238188 0.040426534 0.09441583

model.10.weight f4 [64, 32, 3, 3]
00000000: 244d ff3c 25fa 173d 576e 67bb a71a 1d3d
00000010: 0799 e7bc d19d b53b ad81 70bb 2eb3 edbc
00000020: 5d3e 0bbd c042 633d 1d48 fd3c 1d66 873c
00000030: 39d7 2a3d 14e3 bf3c 4a45 903c 49db c33c
00000040: 59e9 e83b b9c6 4fbd b662 25bc 3287 513c
00000050: f25a 18bb a786 b13c 1fc5 833c b670 23bb
00000060: 3b33 6ebc 8ea2 a23c d97f 28bd 2300 053c
00000070: 114f 223d 3601 b7bc 4e97 c0bb ccaf da3a
00000080: a6e6 21bb 4999 21bd bd77 9a3c 3da5 1a3c
00000090: f18b 4dbd 36f5 b8bc 114a b03a 1914 b8bc
000000a0: 01d7 32bd f1cc 6d3c 12d7 a43c 10de 5a3d
000000b0: 22dd 663d 96a8 193b 1a56 723d e4e8 18bd
000000c0: 4050 773d 280c 3abd 6905 39b8 514a 033d
000000d0: 2a93 8cbc 8047 70bd bb42 55bd e11f 19bc
000000e0: aeea a73c 7017 4c3c 1a96 b23c 1f11 bf3b
000000f0: 5402 55bd 6d40 20bd 1597 233d 248c 233c
00000100: 979c fa3c 3c0b 8ebc d34e cd3c 2d1f c5bc
00000110: 3929 83bb 92bf 13bd 6195 94bc ce26 463d
00000120: 3168 3c3d bfe7 0ebd 1873 b83b 1db9 c0b9
00000130: 259a 94bc 0537 cd3c dd64 f33c d79f 44bd
00000140: c477 b23c f15f 68bd d774 8fbc be22 ca3c
00000150: 0c83 3c3d 0388 9f3c 2094 073d 9f9b dabc
00000160: 91f1 67bd c68e afbc e403 57bd 7072 d23c
00000170: ab39 cb3c 6cb2 4a3c 7b1f 3cbd e40f de39
00000180: d68c 6d3c c14b 54bd 921f 3e3d 847c 82bc
00000190: 9f5d 19bd acf8 7d3c ff32 cb3c 883f 3b3c
000001a0: 7c12 4abd fb5f 5f3d 93e7 203d ef53 03bc
000001b0: 807b 37bd 1b47 b4bc 50cb 82bc f25d fb3b
000001c0: 3952 86bc 001d 9f3c 6781 cd3a dc7f 583d
000001d0: 0562 23bd 8891 dfbc cdbf 64bd a066 0b3d
000001e0: e82d 6f3d a947 17bd c132 203c 5bc3 dbbb
000001f0: b2da 143d 5114 343c c4e4 dd3c b55c 0b3c
00000200: c4dd 43bb f15f 503b ba5e 5f3c 80fb d1bc
00000210: 09ca 4ebd d9f8 7bbc e608 23bd c6e5 0dbd
00000220: 1096 49bd 420d b23b 05ff 033d 6a56 943c
00000230: 03c4 15bd 1f95 d53c 4a48 a83b 8400 49bc
00000240: 39ab 0c3d 1f44 03bd 8872 3bbd 802e 4abd
00000250: bbd3 583b a6da 8e3c 716f 41bd 848a 89bc
00000260: 4454 713d d2e0 75bd 4770 083d 003b ca3c
00000270: 7223 fc3c 3151 56bd 2c3d f53c f17a 2bbd
00000280: 7197 123d 9627 dfbb ab22 503c 3826 c83c
00000290: 278b 8abb e9a7 c5bc c1b6 3a3d c6af 633d
000002a0: cb34 4b3c db4d b8bb 07a7 733d 9e96 2a3d
000002b0: 1efd 533d efb6 f03c 7136 903c be31 2bbd
000002c0: ac9f 013b 3acb 88bc 5e0d 1a3d 2f5a 58bd
000002d0: 7191 043c 3652 283d 3897 873c f9be 0c3d
000002e0: 01fa bb3c 4ba6 31bd 5b60 13bd 6ab7 353d
000002f0: 7beb 9f3c 57c1 c83c d095 6a3d 959e 2c3c
00000300: 8751 853c 4627 43bd 3130 63bc e3c6 453c
00000310: 91d1 503d ba4c 02bd 689c 24bd 158f 073d
00000320: 1352 263d deda 5c3c 98b0 41bd 22f1 7f3b
00000330: a5a2 75bc 073b f73c 00ac 5f3d 5923 55bd
00000340: 83e9 c03c 0602 9c3c b21f 0f3d 4286 3cbd
00000350: a5c0 963c e2d4 5e3b 9036 aa3c 8e2a 273d
00000360: 612f 9fbc b35a 003d f262 6b3d 4a04 d5bc
00000370: 8a01 c33c 6b11 3ebd 0c10 7f3b eb6f 38bd
00000380: 4986 a93c f613 303d 7728 c5bc fa81 d63b
00000390: 62dd 963c 99c8 603d c47c 86bc 07f1 3cbd
000003a0: 1390 1dbd 14e8 053d d8fb 5bbd 3a8d db3a
000003b0: ce31 64bd bf00 24bd 8802 38bd f623 7b3c
000003c0: e451 ddbc aaf1 4d3b ab3b bf3c 4d48 493d
000003d0: 8173 05bc de03 45bd 10f7 f4bb 41ac 073d
000003e0: 0af5 a43c 4cee 1a3d 7ae2 013c 74d7 4abd
000003f0: 6a24 afbc 1ae4 33bd f708 0a3d 8665 8b3c
0.031164713 0.03710379 -0.003531357 0.038355496 -0.028271211 0.005542495 -0.0036698387 -0.029016104
-0.03399502 0.05548358 0.030918175 0.016528184 0.04170916 0.023423709 0.017611165 0.023908274
0.0071078953 -0.050726626 -0.010094335 0.012788581 -0.0023247567 0.021670653 0.016085206 -0.0024939007
-0.0145385815 0.019852903 -0.04113755 0.008117708 0.039626185 -0.022339445 -0.005877412 0.0016684472
-0.0024704128 -0.039452825 0.018855924 0.00943881 -0.050182287 -0.022577863 0.0013449808 -0.02247052
-0.043662075 0.014514194 0.020122085 0.05343443 0.056363232 0.0023446432 0.059164144 -0.037331477
0.060379267 -0.04542175 -4.4112476e-05 0.032053296 -0.017160017 -0.058661938 -0.052065592 -0.009345979
0.020497646 0.01245676 0.02180009 0.0058308984 -0.052004173 -0.03912394 0.039939005 0.009982143
0.030592246 -0.017339341 0.025062 -0.024062717 -0.004002717 -0.036071368 -0.018137636 0.04837685
0.045997802 -0.03488898 0.0056289546 -0.00036759014 -0.018139908 0.02505065 0.029711181 -0.048003998
0.021785624 -0.05673212 -0.017511768 0.02467477 0.046023414 0.019474035 0.033100247 -0.026685534
-0.05662686 -0.021430384 -0.052493945 0.025689334 0.024807772 0.012371641 -0.04592846 0.0004235498
0.01449891 -0.051830057 0.046416827 -0.015928514 -0.0374428 0.0155011825 0.02480459 0.011428721
-0.049334034 0.054534893 0.039283346 -0.008015617 -0.044795513 -0.022006562 -0.015966088 0.0076711113
-0.016396629 0.019423008 0.0015678824 0.05285631 -0.0398884 -0.027291074 -0.055846978 0.034033418
0.05839339 -0.036933575 0.009777726 -0.006706638 0.036341377 0.010991172 0.027086623 0.00850599
-0.0029886821 0.0031795467 0.013633424 -0.02563262 -0.050485644 -0.015379154 -0.039803408 -0.034642957
-0.049215376 0.0054337094 0.032225627 0.018107612 -0.036563884 0.026072083 0.0051355707 -0.012268189
0.03434298 -0.032047387 -0.045763522 -0.049360752 0.0033085186 0.017438244 -0.04722542 -0.016789682
0.058918253 -0.06002886 0.0333102 0.024686337 0.03077862 -0.052323524 0.029936396 -0.041865293
0.035788957 -0.006810139 0.012703578 0.024432287 -0.004228014 -0.024127917 0.045584444 0.055587552
0.012402724 -0.0056245155 0.05948546 0.041647546 0.051755063 0.029384105 0.017604085 -0.041795485
0.001977901 -0.016698468 0.037610404 -0.05282038 0.008091317 0.041094027 0.016551599 0.034361813
0.02294636 -0.04337148 -0.035980564 0.04436437 0.019521466 0.024506254 0.05727178 0.010535856
0.016274227 -0.047644876 -0.01386647 0.012071344 0.050981108 -0.031811453 -0.040188223 0.033095438
0.040605616 0.013479916 -0.047287554 0.0039053638 -0.014992391 0.030179514 0.05460739 -0.052035663
0.023548847 0.019043934 0.034942336 -0.046026476 0.018402407 0.00340014 0.02077797 0.040812068
-0.019431772 0.031336498 0.05746741 -0.026003022 0.023804445 -0.04640333 0.0038919477 -0.04502861
0.020693915 0.042987786 -0.024067147 0.006546256 0.01841611 0.054878805 -0.016416915 -0.0461283
-0.038467478 0.03269203 -0.053706974 0.0016750463 -0.05571156 -0.040039774 -0.04492429 0.015328398
-0.027016588 0.003142456 0.023343882 0.049141217 -0.008145214 -0.04809939 -0.007475741 0.03312326
0.020136375 0.037824914 0.007927531 -0.04952188 -0.021379668 -0.043918706 0.033699956 0.017016184

model.10.bias f4 [64]
00000000: b800 62bd a238 113d 4b3d 28bc cb5e 56bd
00000010: 9feb 6f3d 8fe0 3f3d 7ae9 d83c 6b89 3e3d
00000020: 4172 a7bc 5f62 553d 7158 63bd 0d2c c2bc
00000030: c462 66bd be01 18bc 1729 f23c c9b9 403a
00000040: 9713 6cbd e43c e4bc 041a 42bd 9ba2 173d
00000050: 0e0e b6bb 70c6 5e3d 993f 303c 86f3 2fbd
00000060: 6ae8 2a3d 2fc9 76bc 9e44 283d b2b6 96bc
00000070: 1428 f8bb 951e 06bd 51a6 9f3c a76a 53bd
00000080: 8bff 463d 344f 10bc ed6c acbc 3171 83bc
00000090: 60f7 893c b36e 473d 5f00 37bd da12 67bd
000000a0: c217 5bbc 6828 92bc 72b9 1f3d 1cc0 09bd
000000b0: 377d c6bc 7fc4 4d3d a3b3 333d cfad b83c
000000c0: ab25 e53c 4efe cdbb fd47 e03b 2430 213d
000000d0: dc1d 303c caf8 63bd 332c 163d 5c70 47bd
000000e0: a452 6abd 1029 7bbc 3fe2 1dbc 3c6d dbbb
000000f0: a5d0 91bb bf14 c1bc f97e 643d ea11 6fbc
-0.055176467 0.0354544 -0.01026852 -0.052336495 0.058574315 0.046845015 0.026478518 0.04651777
-0.020440223 0.052095767 -0.055504266 -0.023702646 -0.056246534 -0.009277759 0.029560609 0.0007351903
-0.05763587 -0.027861066 -0.04738809 0.037020307 -0.0055558747 0.054388463 0.01075735 -0.04295685
0.041725554 -0.015062614 0.041081063 -0.018397663 -0.007573137 -0.03274401 0.019488486 -0.051615383
0.04858355 -0.008807946 -0.021048034 -0.016045185 0.01684159 0.048689555 -0.04467809 -0.056414463
-0.0133723635 -0.017841533 0.038995214 -0.033630475 -0.024229629 0.05023622 0.043872487 0.022543816
0.027972063 -0.006286419 0.006844519 0.03935255 0.0107493065 -0.055657186 0.036663245 -0.04869114
-0.05720772 -0.015329614 -0.009636461 -0.0066963714 -0.004449921 -0.023569463 0.055785153 -0.014591673

model.11.weight f4 [64]
00000000: a0d6 7f3f 92ee 7f3f b401 803f 126b 7f3f
00000010: dae0 7f3f d1af 803f 5505 803f e201 803f
00000020: 2255 7f3f 0b84 7f3f 3459 7f3f bc3f 803f
00000030: 1708 803f b0a4 7f3f 3c1e 803f 4615 7f3f
00000040: 9fa1 7f3f b46b 7f3f e1d1 7f3f f844 7f3f
00000050: 3c61 7f3f 2509 803f 9483 7f3f 5d2a 803f
00000060: 655d 7f3f 1b2f 803f 0e38 803f 8d60 803f
00000070: fb64 7f3f c68c 803f 923a 803f 965c 803f
00000080: 940a 803f 7d51 803f 57c3 7f3f 8430 7f3f
00000090: 7064 803f d4b6 7f3f c75d 803f 2729 7f3f
000000a0: b91c 803f 954d 803f 7e52 7f3f 3443 803f
000000b0: e072 7f3f ea60 803f cc69 803f 410d 803f
000000c0: 4ba4 7f3f 2be0 7f3f f105 803f c850 7f3f
000000d0: fee9 7f3f a4b0 7f3f 38d7 7f3f d719 7f3f
000000e0: 8c15 803f ffed 7f3f c61c 803f ab1a 803f
000000f0: 881e 803f e960 803f d1f8 7f3f 81dc 7f3f
0.99936867 0.99973404 1.000052 0.9977275 0.9995247 1.0053655 1.0001627 1.0000575
0.9973928 0.99810857 0.9974549 1.001945 1.0002469 0.9986067 1.0009227 0.99641836
0.9985599 0.99773717 0.99929625 0.9971461 0.9975774 1.0002791 0.9981015 1.0012928
0.99751884 1.0014375 1.0017107 1.0029465 0.9976346 1.0042961 1.0017874 1.0028255
1.0003228 1.0024868 0.9990744 0.99683404 1.0030651 0.9988835 1.0028619 0.9967217
1.0008765 1.0023676 0.9973525 1.0020509 0.9978466 1.0029576 1.0032287 1.0004045
0.99860066 0.9995143 1.0001813 0.9973264 0.9996642 0.9987891 0.9993777 0.99648803
1.0006576 0.9997253 1.0008781 1.0008138 1.0009317 1.0029575 0.9998904 0.9994584

model.11.bias f4 [64]
00000000: 310f cd3a 781a d93a 003a ee3a aded 21bb
00000010: 4f64 c6b9 5275 af3b 9de5 0939 aa27 9fb9
00000020: f8b3 19ba 1ae6 19ba 17f6 30ba e85e d83a
00000030: 659f 16b9 36c1 39ba 50e0 263b ffc7 beba
00000040: 62c3 153a 6c28 81ba b50d 08ba c293 c4ba
00000050: 72e1 eeba f72b 3fb9 ae46 d2ba a9f1 f0b9
00000060: fe5f f0ba 4f7f fcb8 55d5 da39 d942 133a
00000070: 342a 3ebb 6797 0c3b dfd7 293b 43b3 2e3b
00000080: da5b 88ba 3041 bc3a 73a5 cdba 277b 08ba
00000090: ee72 173a b925 443a 4c95 5f3b aa7f 3fbb
000000a0: e368 493b 2e7e 643a 4634 f8ba 74bb 133b
000000b0: dc68 9539 9d33 5a3b 8cd7 fe3a 9eb4 dd3a
000000c0: e065 153b 94f0 1eba 22e4 b4ba 84bc 8cba
000000d0: 757d 233a 5a3d 28bb 3d2a 0abb f143 3bbb
000000e0: 81ab 0c3b 088f 0639 3908 243a 6f30 f839
000000f0: 3fcc 073b de26 373b 4e93 413a 25a4 393b
0.0015644786 0.0016563674 0.0018175244 -0.0024708316 -0.0003784024 0.005354562 0.00013150876 -0.00030356395
-0.0005863304 -0.00058707746 -0.00067505374 0.0016507776 -0.00014364494 -0.00070859806 0.002546329 -0.0014555453
0.0005713013 -0.0009853966 -0.0005190031 -0.0014997649 -0.0018225147 -0.00018231558 -0.0016042793 -0.00045956418
-0.0018339155 -0.000120400095 0.00041739145 0.0005617566 -0.0029016854 0.0021452548 0.0025916023 0.0026657141
-0.001040335 0.0014362689 -0.0015689566 -0.00052063394 0.0005777319 0.0007482428 0.0034116087 -0.002922038
0.0030732683 0.0008716312 -0.0018936477 0.002254215 0.0002849762 0.0033294924 0.00194429 0.001691479
0.0022796318 -0.00060630706 -0.0013800899 -0.0010737334 0.0006236651 -0.0025671334 -0.0021082305 -0.0028574432
0.002146453 0.00012832519 0.0006257329 0.00047338332 0.0020721105 0.002794675 0.0007384316 0.0028326598

model.11.running_mean f4 [64]
00000000: 3f5d 463d 307a 293d 551f 283d d689 80be
00000010: b6b5 94be 59fd 8c3d 31dd 03be ad56 b53c
00000020: 26d5 2bbe 7c50 643e 517f abbe 921d 81bd
00000030: d3da 06bf b41d 2f3e 8c79 bb3e 8008 60bd
00000040: 1a20 d63b 2ec8 3bbe 197c 163e 8a40 143d
00000050: b8e2 273d 0b5a b93e 13d7 87be 7796 13be
00000060: b1f6 30bd a451 e1be e723 1cbd 1d4a 943e
00000070: 8e00 04bf 4745 f4bc 6c40 3cbd 4cb5 66be
00000080: de71 d0bb b082 11be 920a 1bbe 0010 073e
00000090: a8b9 18be 2036 773e 4742 2b3e f8ec 91be
000000a0: 70d6 24be 013d 2b3c 6d1d e1be 5f96 133e
000000b0: ed5c 4cbe d401 e3bd a7ca 4cbe 348a 903e
000000c0: bd4f b13d ed05 06be e1a4 dd3d 7543 d4bd
000000d0: 009e 4ebe 97fe 84be 9f1a 0bbe ccdc e43d
000000e0: 852d babe a92a 383c ed53 59be dd01 27be
000000f0: a5bd 783d 0614 38be f302 e93e c0be f1bd
0.04842877 0.041376293 0.041045506 -0.2510516 -0.29044884 0.0688426 -0.12877347 0.022136057
-0.16780528 0.22296327 -0.33495572 -0.06304468 -0.5267765 0.17101175 0.3661617 -0.054695606
0.0065345885 -0.18338081 0.14695777 0.03619436 0.0409877 0.3620151 -0.26531276 -0.14412867
-0.043204013 -0.440076 -0.038120177 0.28962794 -0.51563346 -0.02981819 -0.045959875 -0.22530097
-0.0063612303 -0.1421001 -0.15140751 0.13189697 -0.14914572 0.24141741 0.16724502 -0.28501105
-0.16097426 0.010451556 -0.43967763 0.14412831 -0.19957323 -0.11084333 -0.1999918 0.2823044
0.08657787 -0.13088198 0.10822464 -0.10364429 -0.2017746 -0.25975487 -0.13584374 0.11174926
-0.36362854 0.01124064 -0.21223421 -0.16309305 0.060727734 -0.17976388 0.45510063 -0.11803961

model.11.running_var f4 [64]
00000000: e535 603d a35d b43d 4846 903d e1f0 3d3e
00000010: 1383 dc3d 870a 8b3d 1e12 883d 41f1 8c3d
00000020: dfaf ab3d ebd1 db3d 1099 e63d b41c 873d
00000030: 95db 063e 0ad9 7c3d 4715 8b3d 6983 183e
00000040: df55 883d c478 a13d 5ee8 8e3d 0cb4 303e
00000050: 69fc 4f3d c9f5 503e da62 043e bc6f 673d
00000060: ed67 943d 5806 493e 5ec5 893d 3ff0 d43d
00000070: 819e 8c3d 394f 9f3d 3b8e ba3d e691 b83d
00000080: 97f9 733d 5e5a 803d 5f5f 003e 5d63 cc3d
00000090: 4905 f53d 49b8 023e 5edf f83d 6c28 c13d
000000a0: 17a6 5c3d e6c4 f73d 4071 da3d ee26 133e
000000b0: 68cd 6c3d 1361 073e 84da 073e f3dd a63d
000000c0: ca61 193e df4c 993d 3f1a 853d e66c 283e
000000d0: f50c ee3d 424a 973d 9c81 683d 9e54 743d
000000e0: 6628 aa3d 46aa b23d d77e 563d 3c45 0d3e
000000f0: 306f e03d 4696 e83d 53a3 2f3e ce02 c33d
0.054738898 0.08806922 0.07044655 0.1854892 0.10767188 0.06789117 0.066440806 0.06881953
0.08383154 0.10733398 0.11259663 0.065972716 0.13169701 0.061730422 0.06791168 0.14893879
0.066570036 0.07884362 0.06977914 0.17256182 0.050777826 0.2040626 0.12928334 0.056503043
0.07246385 0.19631326 0.06727098 0.10397386 0.0686617 0.077787824 0.091091596 0.09012203
0.0595642 0.06267236 0.12536381 0.099798895 0.11963899 0.12765612 0.12151979 0.09431538
0.053869333 0.12098102 0.10666132 0.14370319 0.05781308 0.13220625 0.13266951 0.08147802
0.1497871 0.07485365 0.06499147 0.16447791 0.11623565 0.073872104 0.05676423 0.05965101
0.08308487 0.08723883 0.052367058 0.13795942 0.10958707 0.113567874 0.17152147 0.09522019

model.13.weight f4 [64, 64, 3, 3]
00000000: 7865 99bb 2c48 8f3c c614 0abd 665a fbbb
00000010: cc00 b3ba d7d8 133d b95c 1dbd 5318 493c
00000020: b10d 6dbb 686e d03b 22f7 2e3d c82e 38bc
00000030: 55aa 013d 7bf8 5cbc bc59 263d 043c 09bc
00000040: ea5c 063d dfd0 1e3d 5715 f6bc 4fb5 1e3d
00000050: ca4a d13c 5382 b93c 34b7 2d3b 0197 123c
00000060: 91c6 09ba 1b2f 73bc 05ab de3c 202e 933a
00000070: 0e76 81bc 1ecf a03c 0423 f1bc 5546 783b
00000080: 83f7 943c ce5b 0abb a8bc c4bc e8ac 1a3d
00000090: db2f 0abd 7123 853c ca14 df3c 3e85 ed3c
000000a0: 4e85 bbba 34a1 e53b 34c4 81bb 0ba2 bbbc
000000b0: 4c6d f03c 2c60 1a3c d344 253d 0d78 debc
000000c0: c5d6 413c 5435 e8bc 7234 f43a a7d5 dd3c
000000d0: 2b6c efbc 1ab2 16bc e567 d13c d61f a9bc
000000e0: b49b 2c3d a66e b0bc 937f c7bc dcfb ec3c
000000f0: c668 423c a918 09bd fe1b f13c 32c5 6b3b
00000100: ebe2 653c 3811 4cbc 5c55 343c 3bc6 c43c
00000110: f916 1fbd 3e8b 5b3c a783 00bd 5c64 c6bc
00000120: 1801 e1bc 3364 04bd e685 16bd 6523 59bc
00000130: 87a1 f83c de74 dcbb 0575 0fbd f994 dabc
00000140: 5031 b9bc 418a e03c 3063 b1bc 76bf 26bd
00000150: ce15 273a 8dba 523c 7b7e c1bb e4b0 39bc
00000160: 486b 913c dcdb d0bc 5bef 173d e6e9 05bd
00000170: e768 12bc 6a79 c73b e1db 453b c53a 383d
00000180: efeb 003d b2b8 173d f207 e4bb fdc0 96bc
00000190: 9fdc 28bd 01cc 013d 2008 963b 5ebe bfbc
000001a0: 32fb bb3c 9c23 613c 6fe5 073d 784c c2bc
000001b0: c608 123d 8c34 f83c 3aa5 c7b9 ed43 ab3a
000001c0: 223d 173d c7ba 1ebd 9501 af3c e165 f8bc
000001d0: 8dc1 b5bc 834d 20bc 354e c93c b640 273d
000001e0: 6d96 59bb 9f19 2bbc e8c7 913b 641b 133d
000001f0: 67a7 f03c e016 36bc 164e a9bc 7355 fc3c
00000200: 2995 bcb9 9bef 733c b3b8 20bd e0e0 eabc
00000210: daa6 c8bc 7d73 0cbd 5369 073d c8b6 f83b
00000220: 26b5 013c 656c f6bc 0022 25bd ce78 363c
00000230: 239f 02bd 7f53 97bc 87fb dfbc 7a00 923c
00000240: 99ae dc3c c4de bbbc 11b4 f73c cfa3 f3bc
00000250: 37d8 05bd 1127 37bc 8840 71bb cab5 ccbc
00000260: b708 93bc f93f 92bc 6f4c 223d 68c9 e33b
00000270: 336b 143d aa97 b7bc 23b8 f4bc 7606 b5bb
00000280: 532d 1abd d30d 0f3d aa23 5a3c 8423 273d
00000290: f9ab ed3c 8bdf 0ebd 868d 7e3c e88f a53c
000002a0: 342b 053d 74d4 113d ec7b 053c bacb 213d
000002b0: f796 ad3c bde9 9d3c a51a a6bb 18cf fa3c
000002c0: 93e2 6cbb c2e6 1ebd 17d6 04bd 653e 21bd
000002d0: affd 9cbb 3790 04bc 8e03 c7bc ebec cf3c
000002e0: aa42 073d 0c6f bcbc 5bc3 073d 43ae d63a
000002f0: fe23 7d3c 6a55 123d 88e7 cbbb eabd 6dbb
00000300: eb44 16bd 4c52 ab3c abb9 0c3d 50d0 23bd
00000310: 1aad 1cbd b5e0 9f3c b25a 2abc 9964 453c
00000320: ebf7 35bc 7333 153d c892 51bc bb67 b83b
00000330: 2861 aebc fb37 0e3d 5122 8bbc 7317 1a3d
00000340: 11d2 153d 0ec3 16bd b330 193c f470 cf3b
00000350: 3486 383c fb0e b03c 80b3 153c 5202 9f3c
00000360: 58be ebbc c037 cdbc b726 ef3b 58f4 233c
00000370: e42c 1e3d a5f9 c53c 7ebd 43bc a79e b7bb
00000380: 7e99 a53c ac74 0d3a 14da 113d 2baa 0f3c
00000390: cddf 473c 5804 0ebd b885 f3bc 0621 90ba
000003a0: 2e38 d43c c40c 1bbd 7ded 7e3c c9d9 e1bc
000003b0: 450b 313c 69e2 6dbc e24c 20bd 92b6 b0bc
000003c0: a29c f03c bba9 abbb f305 b4bc 45e4 203d
000003d0: 26eb 253d db86 04bc 4166 df3c 8bbf 4dbc
000003e0: 2e46 fa39 3246 20bd 2a5c 283b e4d7 afbb
000003f0: 6d6b 31bd f2bb 223d 6793 2b3d e7dc 133d
-0.0046812855 0.017490469 -0.033711217 -0.0076706884 -0.0013656854 0.036095466 -0.038418505 0.012273866
-0.003617149 0.0063608177 0.042716153 -0.011241622 0.031656582 -0.013486977 0.04061292 -0.008376125
0.032803454 0.038773414 -0.030039473 0.038747128 0.025548358 0.022645151 0.0026506903 0.008947135
-0.0005255724 -0.014842774 0.027181158 0.0011228956 -0.015803363 0.019630011 -0.029435642 0.0037883718
0.018184429 -0.0021111849 -0.02401574 0.037762552 -0.033737045 0.016252251 0.027231593 0.028994199
-0.0014306696 0.0070077423 -0.003960157 -0.022904417 0.029348992 0.009422343 0.04034884 -0.027156854
0.01183099 -0.028345741 0.0018631353 0.027079416 -0.029226383 -0.009197736 0.025562236 -0.020645063
0.042140678 -0.021537136 -0.024352824 0.02892869 0.0118658 -0.033470783 0.029432293 0.0035975692
0.014031152 -0.012455277 0.011006679 0.024020305 -0.038840268 0.013399897 -0.031375553 -0.024217777
-0.027466342 -0.03232212 -0.03674879 -0.013253068 0.03035046 -0.006727799 -0.035023708 -0.026682364
-0.022606522 0.027409675 -0.021653742 -0.040709935 0.00063737936 0.01286186 -0.00590497 -0.011333678
0.017751351 -0.025495462 0.0370935 -0.032693766 -0.0089361435 0.0060874717 0.0030190872 0.044977922
0.031475004 0.037041374 -0.006958955 -0.01840257 -0.041226026 0.031688694 0.0045786053 -0.023406204
0.022946928 0.0137414 0.03317779 -0.023718104 0.0356529 0.030298494 -0.0003807934 0.0013066508
0.036923535 -0.038752344 0.021363059 -0.030322017 -0.022187019 -0.009784105 0.024573425 0.040833198
-0.0033201233 -0.01044312 0.0044488795 0.035914794 0.029376699 -0.011113852 -0.020667117 0.030802464
-0.00035969287 0.014888669 -0.039238643 -0.028671682 -0.024493624 -0.034289826 0.03305943 0.0075901486
0.007916724 -0.030080983 -0.040315628 0.0111372005 -0.031890046 -0.018472431 -0.027341617 0.017822493
0.026938723 -0.022933371 0.03023723 -0.029741196 -0.0326769 -0.011178748 -0.0036812145 -0.024989028
-0.017948491 -0.01785277 0.039623674 0.0069514997 0.036235046 -0.022411186 -0.02987296 -0.005524452
-0.03764088 0.034925293 0.013314167 0.040805355 0.029012667 -0.034881156 0.0155366715 0.020210221
0.032511905 0.035603 0.008147221 0.03950093 0.02119015 0.019276494 -0.0050690942 0.030616328
-0.003614579 -0.038794287 -0.032430734 -0.039366145 -0.0047909836 -0.008091024 -0.024293687 0.025381526
0.03302256 -0.02300217 0.03314529 0.0016378838 0.015450476 0.03572599 -0.006222669 -0.0036276528
-0.03668682 0.020913266 0.034356754 -0.039993584 -0.03825102 0.019516328 -0.0103976 0.01204791
-0.0111064715 0.03642602 -0.012791343 0.0056276 -0.021286562 0.034721356 -0.016984137 0.03762002
0.036577288 -0.036807112 0.00934999 0.0063306037 0.011262465 0.021491518 0.009137034 0.019410286
-0.028777286 -0.025050998 0.0072983163 0.010006987 0.03861703 0.024166891 -0.011947034 -0.0056036296
0.020214792 0.00053961086 0.035608366 0.008768599 0.012199354 -0.03467211 -0.029726848 -0.001099617
0.025905695 -0.03785397 0.015559551 -0.027569668 0.0108059095 -0.014519312 -0.03913582 -0.021571431
0.029371563 -0.0052387393 -0.021975493 0.039280195 0.04050746 -0.008088793 0.027270438 -0.012557874
0.00047736004 -0.039129443 0.00256897 -0.0053663123 -0.04331534 0.03973002 0.04188862 0.03609934
