imitation_learning/models/h5-lr0.0001-agent.pt (torch, 972400 bytes, 34 tensors)

model.0.weight f4 [16, 5, 7, 7]
0	0x3d4e7221	0.05040181
1	0x3cc2cce0	0.023779333
2	0x3a5bc071	0.0008382863
3	0x3d096530	0.033543766
4	0x3d6639a7	0.056207325
5	0xbcaad35c	-0.020852737
6	0xbc596a8f	-0.013270034
7	0x3d50636b	0.050876062
8	0xbd4f7c36	-0.050655566
9	0x3c8f4d2f	0.017492859
10	0xbd40f5a6	-0.04710927
11	0x3c838dff	0.01605892
12	0x3d58773e	0.052848093
13	0xbcd3cef0	-0.025855511
14	0x3d1b7c54	0.037960365
15	0x3cfdbc2e	0.03097352
16	0x3cbf03a5	0.023317168
17	0xb9c1d2db	-0.00036968928
18	0x3cff9a0e	0.031201389
19	0x3cbb57df	0.022869049
20	0x3b8c28b6	0.004277314
21	0xbd748ea5	-0.05970635
22	0x3d14a16d	0.03628676
23	0xbd40fe14	-0.047117308
24	0xbd846b96	-0.06465833
25	0x3d59385e	0.05303227
26	0xbd743c7d	-0.059628
27	0xba67a687	-0.0008836765
28	0x3c8ba236	0.017045122
29	0xbd0ebbe4	-0.034847155
30	0xbba4e1a4	-0.0050317813
31	0x3d37c05f	0.044861194
32	0x3c35150a	0.011052379
33	0xbc885c0f	-0.01664546
34	0x3d76ba26	0.06023612
35	0x3a329b41	0.0006813296
36	0x3c5ea848	0.013589926
37	0xbd389f71	-0.04507393
38	0x3d67418d	0.056459
39	0x3d7ef309	0.062243495
40	0xbd6b9b74	-0.0575213
41	0x3b9d8a81	0.0048077707
42	0x3c8a5000	0.01688385
43	0x3d24b23f	0.04020905
44	0x3d094ea1	0.033522252
45	0x3b8c2b3f	0.0042776163
46	0xbd61a8d3	-0.055092644
47	0x3d1b26ca	0.03787879
48	0x3d0ec3f9	0.034854863
49	0x3b4eb833	0.0031542897
50	0xbd0c0e44	-0.034193292
51	0xbb855fe4	-0.004070269
52	0x3d46e879	0.048561547
53	0xbd1f95c4	-0.038961187
54	0x3c93f2e2	0.018060151
55	0x3d1ccc23	0.038280617
56	0x3cce7e9e	0.02520686
57	0x3d6c4ad6	0.057688557
58	0x3d2415d5	0.040059883
59	0xbd7c7847	-0.061638143
60	0xbcbd37dd	-0.023097927
61	0x3cc049fc	0.023472778
62	0xbd38cd68	-0.045117766
63	0xbcf9fcd2	-0.030516062
64	0xbcc43699	-0.023951815
65	0x3cbc46f2	0.022983048
66	0xbd2d9c26	-0.042385243
67	0xbce6e6e4	-0.02818627
68	0xbd05d2ae	-0.032671623
69	0x3d32cce8	0.043652445
70	0xbd558a0c	-0.052133605
71	0x3d28617c	0.041108593
72	0xbd4eb147	-0.050462034
73	0xbb0526a0	-0.0020317212
74	0xbcf28f53	-0.029609358
75	0xbd2cd764	-0.0421976
76	0x3d1b7371	0.03795189
77	0xbd618282	-0.055056103
78	0xbd6da126	-0.05801501
79	0x3c3e289c	0.011606362
80	0x3d35ff03	0.04443265
81	0x3d559a16	0.0521489
82	0x3d0cd22b	0.03438012
83	0x3d13c6f8	0.036078423
84	0x3d867ffc	0.0656738
85	0xbd2fa10b	-0.042878192
86	0xbca1a818	-0.019733474
87	0xbc91f3aa	-0.017816383
88	0xbd26e7c6	-0.04074838
89	0x3cf96760	0.0304448
90	0xbc3aa674	-0.011392225
91	0x3d68f7c8	0.056876928
92	0xbd5bffa1	-0.053710584
93	0xbcf7d65e	-0.030253585
94	0xbc2d2324	-0.01056746
95	0x3ccb83e1	0.024843158
96	0xba1fe67d	-0.0006099714
97	0x3cd5ea7b	0.026112786
98	0xbd4c86df	-0.04993331
99	0x3d44b247	0.04802158
100	0x3c63e12e	0.0139086675
101	0xbce8de1f	-0.028426228
102	0xbd304e2e	-0.043043308
103	0xbd315932	-0.043297954
104	0xbd0f97e2	-0.035056956
105	0xbd0636e0	-0.032767177
106	0xbbe388e5	-0.0069438093
107	0x3d257563	0.04039515
108	0x3bca3d1f	0.006171837
109	0x3c9282e4	0.01788468
110	0x3ba13a78	0.0049203
111	0x3d65b85b	0.05608402
112	0x3cfe3434	0.031030752
113	0xbd729bde	-0.059230678
114	0x3cdfba6f	0.027310578
115	0xb888b2d1	-6.5182925e-05
116	0xbb8645c8	-0.004097674
117	0xbcff56b4	-0.031169273
118	0x3c36ff2c	0.011169236
119	0x3cdf9857	0.027294321
120	0x3caf4444	0.021394856
121	0x3d0376c6	0.032095693
122	0x3c872c7c	0.016500704
123	0xbd20bdb6	-0.039243422
124	0xbc92b430	-0.017908186
125	0xbd72f204	-0.059312835
126	0x3bfc3cb1	0.0076976647
127	0xbc2ad27b	-0.010426159
128	0x3d114503	0.035466205
129	0x3ca04f76	0.01956914
130	0xbd4078db	-0.046990257
131	0xbbc142ca	-0.0058978545
132	0xbd5dc1f2	-0.05414004
133	0xbad44741	-0.0016195552
134	0x3cf93543	0.030420905
135	0x3b905bbc	0.004405467
136	0x3c512c45	0.012766902
137	0xb83befec	-4.480772e-05
138	0xbcec7438	-0.028864011
139	0x3916aaae	0.00014368698
140	0xbb2b5f63	-0.0026149384
141	0x3d6767fc	0.05649565
142	0xbcefce5c	-0.029273205
143	0xbcffbead	-0.031218851
144	0xbba38758	-0.0049904995
145	0xbd70db11	-0.058802668
146	0x3bb5aee6	0.005544531
147	0x3ae486b2	0.0017435162
148	0x3c6dda87	0.014517433
149	0x3aa18ba8	0.0012324946
150	0x3d75e402	0.0600319
151	0x3b85c40b	0.004082208
152	0x3d177bb9	0.036983225
153	0x3d5920df	0.053009864
154	0xbd24fc9e	-0.040279977
155	0xbd620ce3	-0.05518807
156	0xbc375218	-0.011189006
157	0x3d52049f	0.05127394
158	0xbcb3e450	-0.021959454
159	0xbd422c3c	-0.047405466
160	0x3cb89b77	0.022535069
161	0xbd80249d	-0.062569834
162	0xbd239a60	-0.039942145
163	0xbcf435da	-0.029810835
164	0x3d10c4c8	0.035343915
165	0x3d2d8b78	0.042369336
166	0x3c38364d	0.011243415
167	0xbcab29bd	-0.020893926
168	0xbceaaf0b	-0.02864792
169	0xbd63f05b	-0.055649143
170	0x3d5a3f95	0.053283293
171	0xbd34526d	-0.04402392
172	0x3bc28931	0.0059367646
173	0xbd31a1d9	-0.04336724
174	0x3ce76de3	0.02825064
175	0xbd33477c	-0.043769345
176	0xbd04495d	-0.032296527
177	0x3d660557	0.056157436
178	0x3bb25e65	0.0054433816
179	0x3cd66af6	0.02617405
180	0x3caf1c8e	0.02137592
181	0xbc27103a	-0.01019674
182	0xbd509cf5	-0.050930936
183	0x3c2f4e9e	0.010699896
184	0x3d502479	0.050816033
185	0xbcfe71d9	-0.031060146
186	0x3d421fcb	0.0473936
187	0x3ce61fd2	0.028091345
188	0xbd0f02ed	-0.0349149
189	0x3d8d2f63	0.06893804
190	0x3d7a35ef	0.06108659
191	0xbc677e24	-0.014129195
192	0xbcbebae7	-0.023282481
193	0x3d4b52a6	0.049639367
194	0x3cdbbfb3	0.026824808
195	0xbc972e97	-0.018454833
196	0xbc8d4b73	-0.017247891
197	0xbc33d6c0	-0.010976493
198	0xbcdacc8a	-0.02670886
199	0x3c858814	0.016300239
200	0xbd4cd044	-0.050003305
201	0x3d73b94f	0.059502896
202	0xbd6f1e47	-0.058378484
203	0xbca806fa	-0.02051114
204	0xbd7d753d	-0.061879385
205	0xbd115307	-0.03547957
206	0x3ce748f0	0.028233021
207	0x3c64c591	0.013963119
208	0xbd7db847	-0.06194332
209	0xbc05dfc0	-0.008171022
210	0x3c338f1f	0.010959416
211	0xbcf57491	-0.02996281
212	0x3cab51d1	0.020913037
213	0x3d32fd56	0.04369863
214	0xba09b846	-0.0005253594
215	0x3b38c85e	0.00281956
216	0xbc09519c	-0.008381274
217	0xbd34c181	-0.044129852
218	0x3d059300	0.032610893
219	0xbca73413	-0.020410573
220	0xbd5a6639	-0.053320143
221	0xbc3d84d9	-0.011567318
222	0x3d69449f	0.056950208
223	0xbd5ccc07	-0.053905513
224	0xbcfb8029	-0.03070076
225	0x3d052e5f	0.032514926
226	0xbd11eaa0	-0.035624146
227	0x3c639abf	0.013891875
228	0x3d11700e	0.035507254
229	0xbd831ff7	-0.06402581
230	0x3c91e422	0.017808978
231	0x3cf3725c	0.029717617
232	0x3d6d0f8e	0.057876162
233	0x3d576ba6	0.052592896
234	0xbce1892f	-0.027531235
235	0xbccff278	-0.025384173
236	0x3c6f1f1c	0.014594819
237	0x3d073db7	0.03301784
238	0xba80e002	-0.0009832385
239	0x3d5b5559	0.05354819
240	0xbd7cea88	-0.061747104
241	0xbd72e1b7	-0.05929729
242	0xbd54ebef	-0.051982816
243	0xbd692b98	-0.05692634
244	0x3d0c062f	0.034185585
245	0xbd09bd9d	-0.033628095
246	0x3c48450d	0.012223494
247	0x3cd016b1	0.025401445
248	0xbce4bbbd	-0.027921552
249	0x3c795938	0.015219025
250	0xbce296fa	-0.027659882
251	0x3d63d7c0	0.055625677
252	0xbb5fcaae	-0.0034147906
253	0x3d1cd013	0.038284373
254	0xbcfb4cdf	-0.030676303
255	0xbd3ede56	-0.046598755

model.0.bias f4 [16]
0	0x3b8c0419	0.0042729494
1	0x3c16b50a	0.0091984365
2	0xbd5a2c5a	-0.053264953
3	0xbcd2a438	-0.025713071
4	0x3d0c2cd9	0.034222458
5	0x3cb4986e	0.02204534
6	0x3d7d198c	0.06179194
7	0xbc8f0e90	-0.017462999
8	0x3d03e27c	0.032198414
9	0xbd2e82d2	-0.04260523
10	0xbd3f117e	-0.04664754
11	0x3c07b49a	0.008282805
12	0xbd2b73b4	-0.04185839
13	0x3cba61df	0.022751747
14	0xbd5e6c2d	-0.054302383
15	0xbd1e2b59	-0.03861556

model.1.weight f4 [16]
0	0x3f810f15	1.0082728
1	0x3f804162	1.0019953
2	0x3f7f9148	0.99831057
3	0x3f7fb6a2	0.9988805
4	0x3f7df83c	0.992069
5	0x3f8045b9	1.0021278
6	0x3f80be23	1.0058025
7	0x3f804791	1.002184
8	0x3f7fe305	0.9995578
9	0x3f7f5e17	0.99752945
10	0x3f7ed156	0.9953817
11	0x3f803865	1.001721
12	0x3f7f0bfc	0.9962766
13	0x3f7de941	0.9918404
14	0x3f80855f	1.0040702
15	0x3f800121	1.0000345

model.1.bias f4 [16]
0	0xbaa47f46	-0.0012550137
1	0xbb3cdcdb	-0.0028818164
2	0xb9e62370	-0.00043895422
3	0x3b075da6	0.0020655184
4	0xbbc5b57a	-0.0060335966
5	0xbb89faa7	-0.0042107883
6	0x3bae43ff	0.0053181644
7	0x3b1c86cc	0.0023884056
8	0x3bbf398e	0.0058357185
9	0x3a370e0e	0.00069829903
10	0xbb85605e	-0.0040703258
11	0xbb4dd6ed	-0.0031408623
12	0xbbb205ce	-0.005432821
13	0xbc0530e4	-0.008129332
14	0x3b3cc3d8	0.0028803255
15	0xbaee3ee3	-0.0018176701

model.1.running_mean f4 [16]
0	0xc1804269	-16.032427
1	0xc1397c98	-11.592918
2	0xc322fa52	-162.97781
3	0x41cb3a91	25.403597
4	0x3e5a6e91	0.2133124
5	0xc2a794d8	-83.79071
6	0xc22ea824	-43.6642
7	0x42b47b9e	90.24144
8	0xc3168301	-150.51173
9	0xc281031c	-64.50607
10	0xc30cd227	-140.8209
11	0xc25b2ab0	-54.791687
12	0x42a6db1a	83.42793
13	0xc20037a9	-32.054356
14	0x418f1ab1	17.888033
15	0xc331b191	-177.69362

model.1.running_var f4 [16]
0	0x434b3890	203.22095
1	0x43879ad8	271.20972
2	0x4568183d	3713.515
3	0x438097d5	257.1862
4	0x438d3a91	282.45755
5	0x44925290	1170.5801
6	0x43bd7bf1	378.9683
7	0x448f66ce	1147.2126
8	0x455c3a2b	3523.6355
9	0x447c9531	1010.3311
10	0x454309bd	3120.6086
11	0x440aef50	555.73926
12	0x44961feb	1200.9974
13	0x43fb63f7	502.78098
14	0x43673aba	231.2294
15	0x458ab7b2	4438.962

model.4.weight f4 [32, 16, 3, 3]
0	0x3cb4543b	0.02201282
1	0xbda4dff8	-0.08050531
2	0xbccbdb19	-0.024884747
3	0x3dac495c	0.0841243
4	0xbc4f0d65	-0.012637471
5	0x3ca805fe	0.02051067
6	0x3da5fb45	0.081045665
7	0xbdb45b22	-0.08806445
8	0xbb8b2c63	-0.0042472347
9	0xbc66ef5e	-0.0140951555
10	0x3d871a98	0.06596869
11	0x3d8e457e	0.06946848
12	0xbd9129d0	-0.07088053
13	0x3da1b304	0.07895473
14	0x3b845127	0.0040379944
15	0x3d2370df	0.039902564
16	0xbc039e00	-0.008033276
17	0xbb73373d	-0.0037111782
18	0x3cfc6490	0.03080967
19	0xbdac7451	-0.08420623
20	0xbd88fef2	-0.06689252
21	0x3ceab779	0.02865194
22	0xbcc2c675	-0.023776272
23	0xbc8b8299	-0.017030047
24	0xbcbab11f	-0.022789536
25	0xbcb31ff1	-0.021865817
26	0xbd2de320	-0.04245293
27	0xbcf6c53f	-0.030123351
28	0xbcf39f0a	-0.029738922
29	0xbd4ac874	-0.049507573
30	0xbd03f8f8	-0.032219857
31	0xba5c6c1c	-0.00084084435
32	0xbd53768a	-0.05162672
33	0x3d6d542c	0.0579416
34	0x3d48985a	0.04897342
35	0x3d922a9d	0.07137034
36	0x3ca2eeb2	0.01988921
37	0x3d2e4b21	0.042552117
38	0xbd89adde	-0.06722616
39	0x3d329c3a	0.04360602
40	0xbd7115ba	-0.05885861
41	0x3da00fc9	0.07815511
42	0x3db1fffd	0.08691404
43	0x3d09661f	0.033544656
44	0xbcee8c8a	-0.029119749
45	0x3d3ebf51	0.046569172
46	0x3c923110	0.01784566
47	0x3b1b4932	0.002369475
48	0x3d9fa93b	0.0779595
49	0xbab4ddea	-0.0013799046
50	0xbd4c68ad	-0.049904514
51	0xbd0f73ab	-0.03502242
52	0xbd9c4ca7	-0.07631808
53	0xbd992bdb	-0.07479068
54	0xbc6fa651	-0.014627055
55	0x3d981e51	0.074276574
56	0xbc439971	-0.011938439
57	0x3c8581e6	0.016297292
58	0xbd984c56	-0.07436435
59	0xbd239304	-0.039935127
60	0xbcc5c09c	-0.024139695
61	0x3d8f263a	0.06989713
62	0x3ac5bc04	0.001508594
63	0xbd1c1f51	-0.038115803
64	0xbd7af6b8	-0.061270446
65	0xbcec9090	-0.028877527
66	0x3d8b8bae	0.06813751
67	0x3d8bb091	0.06820787
68	0x3c691334	0.01422577
69	0x3c086a7b	0.008326168
70	0x3d4f162c	0.050558254
71	0x3caffffc	0.021484368
72	0x3ce177fb	0.027523031
73	0x3ccead07	0.02522899
74	0x3d206ecb	0.03916816
75	0x3c226b7e	0.009913323
76	0x3c1b40d4	0.009475905
77	0xbb217b47	-0.002464013
78	0xbd90dddc	-0.07073566
79	0xbd10b24d	-0.03532629
80	0xbd67db15	-0.056605417
81	0xbc8891aa	-0.01667102
82	0xbd1400d9	-0.03613362
83	0x3ccfc01c	0.02536016
84	0xbd354afe	-0.04426097
85	0xbc67abb6	-0.01414006
86	0xbd9def1a	-0.07711621
87	0x3d5ecbde	0.05439364
88	0x3aef25b5	0.001824549
89	0x3cc7c27f	0.024384735
90	0xbbf48fac	-0.007463416
91	0x3cf00abc	0.029301994
92	0xbcde76cd	-0.027156258
93	0xbc185dfd	-0.009299752
94	0x3d2eda9e	0.04268896
95	0xbc856962	-0.016285602
96	0x3d3eac6d	0.046551157
97	0xbda9a669	-0.08283693
98	0x3b6ddfd2	0.0036296737
99	0x3ce64cb7	0.028112752
100	0x3d9dff5e	0.07714723
101	0x3ca9580c	0.020671867
102	0x3d260f19	0.040541742
103	0xbd69d08a	-0.057083644
104	0x3db5cf10	0.08877385
105	0xbb956364	-0.0045589674
106	0x3c927789	0.017879264
107	0xbc91216a	-0.017716128
108	0x3d83eeed	0.06442056
109	0xbd8594fb	-0.065225564
110	0x3c0bef72	0.008540975
111	0xbdb45960	-0.088061094
112	0xbd7ec2ef	-0.062197622
113	0xbd04547d	-0.032307137
114	0xbd5b710c	-0.053574607
115	0xbd2d0bf5	-0.04224773
116	0x3cbaa6c3	0.022784596
117	0x3cb4be0b	0.022063276
118	0x3c171400	0.009221077
119	0xbd072dcf	-0.03300267
120	0x3d464bb2	0.048412032
121	0xbd8eed35	-0.069788374
122	0xbc6e7f25	-0.014556681
123	0xbd7274a8	-0.059193283
124	0xbd7be61c	-0.061498746
125	0x3c107d25	0.008818899
126	0xbc37c995	-0.0112174945
127	0xbb3eaffe	-0.0029096599
128	0x3d8f2d12	0.06991018
129	0xbd8adf4e	-0.06780873
130	0xba35c1d1	-0.0006933483
131	0x3d61bfc5	0.055114526
132	0x3d210a71	0.0393166
133	0xbd046901	-0.032326702
134	0xbc109d00	-0.008826494
135	0xbd025cb2	-0.031826682
136	0xbd450993	-0.048104834
137	0xbcff5f86	-0.031173479
138	0xbc636744	-0.013879601
139	0x3c9dcaa9	0.019261675
140	0xba520f08	-0.0008013104
141	0xbc548c98	-0.012972973
142	0xbc4fa3bf	-0.012673317
143	0xbd03ccc1	-0.03217769
144	0xbc69d38a	-0.014271626
145	0xbd80468f	-0.06263458
146	0x3c1f707a	0.009731406
147	0xbd61496f	-0.055001672
148	0x3d02a445	0.03189494
149	0x3db8df1e	0.09026931
150	0x3bd54935	0.006508971
151	0x3ccdb15d	0.025108987
152	0xbd1b9546	-0.037984155
153	0xbd7ba7d6	-0.061439358
154	0xbd83d637	-0.064373426
155	0x3d806813	0.062698506
156	0xbd89a666	-0.06721191
157	0xbb7ce11a	-0.003858632
158	0x3d321a4d	0.043482114
159	0x3d3af3e7	0.04564276
160	0xbd8aa4d5	-0.067697205
161	0x3ce9c811	0.028537782
162	0xbd9c48cf	-0.07631075
163	0xbd909dd2	-0.07061352
164	0x3c450a08	0.012026317
165	0x3d35e1a2	0.044404633
166	0x3c9f96ee	0.019481149
167	0x3d979447	0.074013285
168	0x3da6b537	0.08140033
169	0xbd73c0a6	-0.059509896
170	0x3c6f1ab3	0.014593768
171	0x3d539755	0.051657993
172	0x3d45e41d	0.04831325
173	0xbbc79094	-0.006090233
174	0x3da86287	0.082219176
175	0x3c1ffc2c	0.009764712
176	0xbb5bbfd1	-0.003353108
177	0xbcf31361	-0.029672327
178	0xbd835b87	-0.06413942
179	0x3cf8b458	0.030359432
180	0xbc07ad0c	-0.008281004
181	0xbcbeacb0	-0.023275703
182	0x3d310dc9	0.043226037
183	0x3c33d701	0.010976554
184	0xbd8c9ca9	-0.06865818
185	0xbcd2f8bf	-0.025753377
186	0x3c84c572	0.01620743
187	0x3ce5d399	0.028055
188	0xbd240e2e	-0.040052585
189	0xbd92a269	-0.071598835
190	0x3d479106	0.04872229
191	0x3c175ac9	0.009237953
192	0x3d25b3bd	0.040454615
193	0x3d012b5b	0.031535488
194	0x3da25cf6	0.07927887
195	0x3d87ad25	0.066248216
196	0xbd6675b6	-0.0562646
197	0xbd8ddc90	-0.069268346
198	0xbda5a3ac	-0.080878586
199	0x3d860cbc	0.06545398
200	0xbd277ff8	-0.040893525
201	0x3d34e794	0.044166163
202	0x3d469695	0.04848345
203	0x3d557a2d	0.05211847
204	0x3d472033	0.048614692
205	0xbd062af9	-0.032755826
206	0x3d91667d	0.07099626
207	0xbd81b2c4	-0.06332925
208	0x3ce7eafe	0.028310295
209	0x3d469290	0.048479617
210	0xbd4754e1	-0.04866493
211	0x3d3bc0a7	0.045838024
212	0xbc44ea5a	-0.012018764
213	0x3cfeb583	0.03109241
214	0x3c2c2abb	0.010508235
215	0xbd87b797	-0.06626814
216	0xbc2b4bd6	-0.010455092
217	0x3d50e0b2	0.050995536
218	0x3b674db2	0.0035294113
219	0x3d1792d3	0.037005257
220	0x3b939878	0.0045042597
221	0xbd62a024	-0.055328503
222	0xbd38fae9	-0.04516116
223	0xbd1e5841	-0.038658384
224	0xbcde23b8	-0.027116641
225	0xbcd1b988	-0.025601164
226	0xbd8d78de	-0.06907819
227	0x3cbcf0c0	0.023064017
228	0xbd68126f	-0.056658205
229	0xbd1714a6	-0.036884926
230	0xbc85747d	-0.016290898
231	0xbb1e08ca	-0.0024114125
232	0x3d9473fe	0.07248686
233	0x3d9281cc	0.07153663
234	0xbd320d1b	-0.04346953
235	0xbcaced0a	-0.021109123
236	0x3da1f2f7	0.0790767
237	0xbd9a7352	-0.07541527
238	0x3d46548a	0.048420466
239	0xbd147677	-0.03624579
240	0xbb313e4c	-0.0027045188
241	0xbc236cec	-0.0099746995
242	0x3d19711a	0.037461378
243	0xbc268f4a	-0.010165999
244	0xbd455849	-0.0481799
245	0xbd9c3c60	-0.07628703
246	0x3d80b580	0.062846184
247	0x3d861810	0.06547558
248	0xbd9352fb	-0.07193562
249	0x3cce565f	0.02518767
250	0x3d877d8e	0.066157445
251	0xbda84b5e	-0.082175
252	0x3b9b567b	0.004740534
253	0x3c7fe2bc	0.0156180225
254	0xbaf6c977	-0.0018828352
255	0x3d59fd5b	0.053220134

model.4.bias f4 [32]
0	0xbc26b61e	-0.010175256
1	0x3d6cf473	0.057850312
2	0xbdaa4c51	-0.083153374
3	0x3d657c97	0.05602702
4	0x3d4887f2	0.048957773
5	0xbb3f0fb6	-0.0029153652
6	0xbb8b5edb	-0.004253251
7	0x3d9285a8	0.07154399
8	0xbd9fddb1	-0.07805956
9	0xbd11cc23	-0.03559507
10	0xbda03db7	-0.07824271
11	0xbd4ae136	-0.049531184
12	0x3cc5488d	0.024082446
13	0xbc8f8754	-0.017520584
14	0xbd2c559a	-0.042073824
15	0xbb181494	-0.0023205625
16	0xbcf69df4	-0.030104615
17	0x3d1ef7e7	0.038810637
18	0x3af824e8	0.0018931897
19	0x3d93cfe1	0.07217384
20	0x3d77961c	0.06044589
21	0x3cde7e2e	0.027159777
22	0xbda60ecc	-0.08108291
23	0x3d4c86e6	0.049933337
24	0xbd9f541a	-0.07779713
25	0x3d8c4b00	0.068502426
26	0x3bf12a85	0.007359805
27	0x3c6cd9b0	0.014456198
28	0xbbf2f26c	-0.007414153
29	0x3d8f2768	0.06989938
30	0x3d984f9a	0.07437058
31	0xbd15adfe	-0.036542885

model.5.weight f4 [32]
0	0x3f802e58	1.0014143
1	0x3f804373	1.0020584
2	0x3f7fba16	0.9989332
3	0x3f7fbeed	0.99900705
4	0x3f8033ba	1.0015786
5	0x3f802cb4	1.0013642
6	0x3f805234	1.0025086
7	0x3f80874f	1.0041293
8	0x3f7dd01b	0.9914567
9	0x3f7f5eb5	0.99753886
10	0x3f805435	1.0025698
11	0x3f7fe3b8	0.99956846
12	0x3f8028fe	1.001251
13	0x3f8066ec	1.0031409
14	0x3f7ef56c	0.99593234
15	0x3f80055f	1.0001639
16	0x3f800466	1.0001342
17	0x3f7efdbb	0.9960591
18	0x3f7dbf10	0.99119663
19	0x3f7eb2aa	0.9949137
20	0x3f80228a	1.001054
21	0x3f813282	1.0093539
22	0x3f7f333b	0.99687546
23	0x3f7f0126	0.9961113
24	0x3f80ed2c	1.0072379
25	0x3f81786c	1.0114875
26	0x3f7fd642	0.99936306
27	0x3f811365	1.0084044
28	0x3f7e6882	0.99378216
29	0x3f7fe554	0.999593
30	0x3f7ee166	0.9956268
31	0x3f803492	1.0016043

model.5.bias f4 [32]
0	0xbaae2395	-0.0013285751
1	0xbbaebce7	-0.0053325775
2	0xbb258910	-0.0025258698
3	0xbbcc79b2	-0.006240093
4	0x3a7b3c79	0.0009583901
5	0xbaf677b1	-0.0018803981
6	0x3b3e7b57	0.0029065215
7	0xbaa69ece	-0.0012712122
8	0xbb7d07b8	-0.0038609337
9	0xb997edd3	-0.00028978157
10	0xbb5adee6	-0.0033397018
11	0xbb338a34	-0.0027395608
12	0xb98ea3aa	-0.0002720629
13	0xba874a8e	-0.0010321902
14	0xbbeb5970	-0.0071822926
15	0xbb4b58de	-0.003102831
16	0xbc235d1c	-0.0099709295
17	0xbb2b3597	-0.0026124471
18	0xbbfaa698	-0.007649254
19	0xbbf4174b	-0.007449066
20	0xba727bcc	-0.00092500146
21	0xbb2effdf	-0.0026702804
22	0xbc0d857d	-0.008637783
23	0xbbbe042c	-0.005798837
24	0xbba10e6d	-0.0049150498
25	0x3c261c70	0.010138616
26	0x3aeeb12f	0.0018210764
27	0xbb822e35	-0.0039727935
28	0xbba93b7b	-0.0051645613
29	0xba8195d0	-0.0009886567
30	0xbbedc3fa	-0.0072560282
31	0xba88cf56	-0.0010437767

model.5.running_mean f4 [32]
0	0xbe5f43cb	-0.21803205
1	0x3e18fef9	0.14941014
2	0xbe3f9465	-0.18708952
3	0x3e177bf1	0.14793374
4	0x3ee634d3	0.44962177
5	0xbe06cca6	-0.13164005
6	0xbe8b6b19	-0.27230147
7	0x3eebc21a	0.46046525
8	0x3da59fc0	0.080871105
9	0x3e17bf5b	0.1481909
10	0xbe060a4a	-0.13089862
11	0x3d822a17	0.06355684
12	0xbe3775a8	-0.17915976
13	0x3e8008f0	0.2500682
14	0x3c8146b7	0.01578079
15	0xbdf75a38	-0.12077755
16	0x3e448127	0.19189893
17	0xbe74e6b2	-0.23916128
18	0x3e2452e4	0.16047245
19	0x3d8bbdbc	0.06823298
20	0x3de5611b	0.11200162
21	0xbb7ccd83	-0.0038574643
22	0xb9f2f15f	-0.00046337672
23	0x3e8545bb	0.26029763
24	0xbc209737	-0.009801677
25	0x3e046681	0.12929727
26	0x3e00bcaa	0.1257197
27	0xbcfc4e55	-0.03079907
28	0x3e7cea5e	0.24698779
29	0xbe45767e	-0.19283482
30	0x3e0a7cf6	0.13524231
31	0xbd9b6cbd	-0.075890996

model.5.running_var f4 [32]
0	0x3e011ece	0.12609407
1	0x3d10123e	0.035173647
2	0x3d9607e2	0.07325722
3	0x3d27f8a4	0.041008607
4	0x3dac85b7	0.084239416
5	0x3d121989	0.035668883
6	0x3e34d556	0.17659506
7	0x3d66b41d	0.056324113
8	0x3ef5ed23	0.48032483
9	0x3d92c42b	0.07166322
10	0x3d9f7434	0.07785836
11	0x3d4cbc21	0.0499841
12	0x3e40fdcd	0.18846817
13	0x3ea5a5eb	0.32353148
14	0x3da08657	0.07838123
15	0x3d9483c4	0.07251695
16	0x3d11bdbb	0.03558133
17	0x3ed22f7c	0.41051853
18	0x3d815c4f	0.063164346
19	0x3d1c81bd	0.038209666
20	0x3dc89729	0.097944565
21	0x3cbcdd7f	0.023054836
22	0x3d35e51d	0.044407953
23	0x3ce5e3c4	0.028062709
24	0x3cee0c7b	0.029058686
25	0x3d08b55d	0.033376087
26	0x3d237b1f	0.03991234
27	0x3cac6433	0.021043872
28	0x3d508b84	0.050914302
29	0x3e66690b	0.22501008
30	0x3da3b4bb	0.07993456
31	0x3d095361	0.033526782

model.7.weight f4 [32, 32, 3, 3]
0	0xbc3f68bd	-0.011682686
1	0xbca78c59	-0.020452665
2	0x3d4329f8	0.047647446
3	0x3d3582e3	0.044314276
4	0xbd38ce1d	-0.04511844
5	0xbc23bd21	-0.009993822
6	0x3c6d01c3	0.014465752
7	0xbd2d1481	-0.042255882
8	0x3d090736	0.033454143
9	0xbd33d1be	-0.043901198
10	0xbc5891a3	-0.013218316
11	0xbc88d672	-0.016703818
12	0xbb4165f2	-0.0029510227
13	0xb9e9ab18	-0.00044568698
14	0x3cee430e	0.029084709
15	0x3c8e90b1	0.017402979
16	0xbd3437dd	-0.043998588
17	0xbb57ac40	-0.0032909065
18	0xbc5f6d85	-0.013636951
19	0xbcd901ce	-0.026490118
20	0xbd20c4b2	-0.039250083
21	0xbcba0ab8	-0.02271019
22	0xbd26d16d	-0.040727068
23	0x3d0d2407	0.034458186
24	0xbd0d3b26	-0.034480236
25	0x3cd85e0a	0.026412029
26	0x3c21ed1f	0.009883194
27	0xba336a63	-0.0006844161
28	0xbd273a63	-0.040827166
29	0xbbc08a56	-0.005875866
30	0x3ce0e2a1	0.027451815
31	0x3c02aaa5	0.007975255
32	0x3c2763fb	0.010216708
33	0xbbc2f9d7	-0.0059501934
34	0x3cba6518	0.022753283
35	0xbccc744e	-0.024957802
36	0xbd004faa	-0.031325974
37	0xbd27940e	-0.04091268
38	0xbd3ce537	-0.046117034
39	0xbab2303e	-0.00135947
40	0xbd321b85	-0.043483276
41	0xbcefd57d	-0.029276604
42	0xbcd3f485	-0.025873432
43	0xbd716be7	-0.058940794
44	0xbced93be	-0.029001113
45	0x3c2f94e1	0.010716648
46	0x3b1f3da5	0.0024298218
47	0x3c081d06	0.008307701
48	0x3bc0d1d3	0.005884388
49	0xbd6d1722	-0.05788339
50	0xbd04fa28	-0.03246513
51	0xbb3023b8	-0.0026876759
52	0x3d43bf46	0.047789834
53	0x3d0a4d09	0.033764873
54	0x3d20ad63	0.039227854
55	0x3d2b4e45	0.04182269
56	0x3c6b4863	0.01436052
57	0xbd32c983	-0.043649208
58	0x3b88af1c	0.0041712653
59	0xbbc08c2d	-0.0058760853
60	0xbd24ebb6	-0.040263854
61	0x3d351059	0.044205043
62	0x3d1a84c7	0.037724283
63	0xbd5b13ac	-0.053485557
64	0xbd1b1847	-0.03786495
65	0x3c6f06f1	0.014589057
66	0xbcde9685	-0.027171383
67	0xbc269c9e	-0.010169176
68	0x3cf0c7cb	0.029392144
69	0xbd314cdd	-0.043286193
70	0x3d66108f	0.056168135
71	0x3d7358f0	0.05941099
72	0xbc48095f	-0.0122092655
73	0xbd505f4f	-0.050872143
74	0x3ac19ebe	0.001477204
75	0xbbee28b9	-0.007268038
76	0xbd11fdc5	-0.035642404
77	0x3c203bc6	0.009779876
78	0xbc8dc461	-0.017305555
79	0xbd4b2bb2	-0.049602218
80	0x3c9fb600	0.019495964
81	0x3cada263	0.021195596
82	0xbd07663c	-0.033056483
83	0xbd22a93e	-0.039712183
84	0xbd62e136	-0.05539056
85	0x3d435d48	0.04769638
86	0x3b258cec	0.0025260998
87	0xbcdc8725	-0.02691991
88	0x3a60580c	0.0008558042
89	0xbcbe7544	-0.023249276
90	0x3cea5b8b	0.028608104
91	0xbd13ce2f	-0.036085304
92	0xbd0c9ec8	-0.034331113
93	0x3ccbd9d5	0.024884144
94	0x3d4afe98	0.049559206
95	0xbd46b95c	-0.048516616
96	0xbca2b8ad	-0.01986345
97	0xbc71c253	-0.014755803
98	0xbd42f8f9	-0.04760072
99	0x3c903180	0.017601728
100	0xba228b1b	-0.0006200538
101	0x3a48821e	0.00076487835
102	0x3c538e57	0.012912354
103	0x3d6f3c93	0.058407377
104	0xbd464bb4	-0.04841204
105	0x3d6d3ede	0.057921283
106	0xbd7df6ee	-0.06200307
107	0x3cf78c44	0.030218251
108	0xbd12a21b	-0.035799127
109	0x3ccad2a9	0.024758654
110	0x3c6bc9cc	0.014391374
111	0x3d02671e	0.03183662
112	0xbc1251f5	-0.008930673
113	0xbd58a649	-0.052892957
114	0xbcc6833a	-0.024232496
115	0xbcf5307d	-0.029930348
116	0xbd74f86c	-0.059807226
117	0x3d560c68	0.052257925
118	0xbcb618d8	-0.022228643
119	0x3d06f8cf	0.032952126
120	0xbb705336	-0.0036670691
121	0x3beefc69	0.007293273
122	0x3d06b8ad	0.032890964
123	0xbcf44f38	-0.02982293
124	0x3d174614	0.036932066
125	0xbcf36a9c	-0.029713921
126	0xbd642283	-0.055696975
127	0x3c0a0be8	0.00842569
128	0x3b2a2dcc	0.0025967238
129	0xbce9b5c3	-0.028529054
130	0xbd06dee0	-0.032927394
131	0xbd41814f	-0.04724246
132	0x3bc42d40	0.0059868395
133	0x3ca80c4d	0.020513678
134	0xbc1edb1e	-0.009695796
135	0xbcfafc82	-0.030637983
136	0x3c19a6ad	0.0093781175
137	0x3c223173	0.009899485
138	0x3d4070db	0.046982627
139	0xbd50fa3e	-0.0510199
140	0x3c1fd9eb	0.009756546
141	0xbd34721d	-0.04405414
142	0xbd42f5d5	-0.047597725
143	0x3cc5449c	0.024080567
144	0x3d78044d	0.060550977
145	0x3d307ff3	0.043090772
146	0x3cfb8960	0.030705154
147	0x3d0e8f2b	0.034804504
148	0x3cd81689	0.026377933
149	0xbd289ead	-0.04116695
150	0xbaae1670	-0.0013281833
151	0x3ce91dee	0.028456654
152	0xbc63becf	-0.013900473
153	0x3c9c6c53	0.019094622
154	0x3c21787a	0.009855384
155	0x3989d549	0.00026289586
156	0xbd0c8db2	-0.03431482
157	0x3c02b19f	0.0079769185
158	0x3afd009e	0.0019302552
159	0xbcdc73d6	-0.026910704
160	0x3b97d5e2	0.004633651
161	0x3d44c394	0.04803808
162	0xbd3b06c3	-0.045660745
163	0xbc793845	-0.01521117
164	0xbd55b740	-0.052176714
165	0x3d3726d7	0.044714775
166	0x3c8f28c2	0.01747549
167	0x3cff03b6	0.0311297
168	0xbcc94124	-0.024567194
169	0xbd2a6564	-0.0416006
170	0xbd4ca656	-0.049963318
171	0xbd4201d8	-0.04736504
172	0xbcc775f0	-0.02434823
173	0x3d402f9d	0.046920408
174	0x3d4d82b1	0.050173465
175	0x3cd2c476	0.025728446
176	0xbd08ad4e	-0.0333684
177	0x3cdfa5c7	0.027300728
178	0xbc132b9a	-0.008982563
179	0x3cbdda7a	0.023175467
180	0x3d34f0f8	0.04417512
181	0xbcd65bc0	-0.026166797
182	0xbbd86ec9	-0.0066050035
183	0xba420dd2	-0.0007402572
184	0xbd0f73c4	-0.035022512
185	0x3c3e57c2	0.011617603
186	0x3d20111b	0.039078813
187	0xbd485565	-0.048909564
188	0x3cff3ccf	0.031156925
189	0x3b663123	0.0035124503
190	0xbd147f85	-0.036254425
191	0xbd435e5a	-0.047697403
192	0x3c3b9b67	0.011450625
193	0xbcd36272	-0.025803778
194	0x3d1d9158	0.03846869
195	0xbcfd9da0	-0.03095895
196	0xbcc04fd9	-0.023475574
197	0xbc3ae4c6	-0.011407083
198	0x3d3e303d	0.046432722
199	0xbbd31ca9	-0.0064426255
200	0xbb201556	-0.002442678
201	0x3b183584	0.0023225257
202	0xbb46c627	-0.003033051
203	0x3d5aefa0	0.05345118
204	0x3c874130	0.016510576
205	0x3b21108d	0.0024576515
206	0x3d375c14	0.044765547
207	0xbbf65b0a	-0.007518177
208	0x3d58e6a4	0.05295433
209	0xbd2c8b19	-0.04212484
210	0xbb0697cd	-0.0020537258
211	0x3d0b65a8	0.034032494
212	0x3c9916cf	0.018687634
213	0xbccaeab4	-0.024770118
214	0xbd718426	-0.058963917
215	0x3d1909dd	0.037362922
216	0xbd295568	-0.041341215
217	0xbd858ae9	-0.06520636
218	0xbd2911f9	-0.041276906
219	0xbd64ccdd	-0.055859435
220	0x3d3e1cb0	0.046414077
221	0xbcf0e1d7	-0.029404564
222	0x3a31beab	0.0006780426
223	0x3d29338a	0.041308917
224	0xbd4b9a5c	-0.049707755
225	0xbd395e99	-0.04525623
226	0xbc957671	-0.018244954
227	0x3d340bb9	0.043956492
228	0xbc2ceff1	-0.010555253
229	0xbd2d3e9c	-0.042296037
230	0xbd0b6cb6	-0.03403922
231	0xbd56808c	-0.052368686
232	0x3d691667	0.05690613
233	0x3d76f3f2	0.060291238
234	0x3d2abc5d	0.041683543
235	0xbb5f2db4	-0.003405434
236	0x3d1d0975	0.038339097
237	0xbd666ec8	-0.056257993
238	0xbd0ff0ce	-0.03514176
239	0x3c136c2e	0.00899796
240	0xbd0cc743	-0.03436972
241	0x3c9aa43e	0.018877145
242	0xbd7f25fb	-0.06229208
243	0x3cc8f5ac	0.024531208
244	0x3d8676ca	0.06565626
245	0xbcea2cf0	-0.028585881
246	0x3d002599	0.031285856
247	0x3aecfe58	0.0018081171
248	0xbb3be7ce	-0.0028672102
249	0xbc6a8181	-0.014313103
250	0xbd0aad90	-0.03385693
251	0xbd46c852	-0.048530884
252	0x3cc75129	0.024330692
253	0xbcc16df2	-0.023611996
254	0x3c8568ac	0.016285263
255	0x3d3cc8d7	0.046089973

model.7.bias f4 [32]
0	0xbccb5cb4	-0.024824478
1	0x3c95910f	0.018257646
2	0xbd67816b	-0.056519907
3	0x3cf49273	0.029854989
4	0x3d22a210	0.039705336
5	0xbd4378d4	-0.047722653
6	0xbc180d5d	-0.00928053
7	0xbd07d95c	-0.033166274
8	0xbc09a7af	-0.008401795
9	0xbc0a0064	-0.008422945
10	0x3d53496d	0.051583696
11	0x3d41bccf	0.047299203
12	0x3ca842ab	0.020539602
13	0x3d7e2201	0.062044147
14	0x3d168304	0.03674604
15	0x3c6ea035	0.0145645635
16	0x3d19e045	0.037567396
17	0xbc17a602	-0.009255888
18	0xbb46b305	-0.0030319106
19	0xbd7ead66	-0.062177084
20	0x3cf5993d	0.029980296
21	0x3d69d38e	0.05708652
22	0x3ca475ad	0.020075643
23	0x3d62a1a5	0.055329937
24	0x3d4e2150	0.050324738
25	0xbd12a370	-0.035800397
26	0x3c258fff	0.010105132
27	0x3d2b3d6d	0.041806627
28	0x3d3ae61d	0.04562961
29	0x3cffe58e	0.03123739
30	0xbd2eedaa	-0.042707123
31	0xbd04bad3	-0.032404732

model.8.weight f4 [32]
0	0x3f7ec9f1	0.9952689
1	0x3f7e3cf7	0.99311775
2	0x3f806822	1.0031779
3	0x3f8016d1	1.0006963
4	0x3f7e8e8d	0.99436265
5	0x3f7f5e52	0.99753296
6	0x3f8019e3	1.00079
7	0x3f80152c	1.0006461
8	0x3f7fdd8f	0.99947447
9	0x3f7ed993	0.9955074
10	0x3f7f1f9a	0.99657595
11	0x3f7ed4d2	0.9954349
12	0x3f80789c	1.0036807
13	0x3f7ffbb0	0.9999342
14	0x3f807b51	1.0037633
15	0x3f7f7720	0.99791145
16	0x3f8072ed	1.0035073
17	0x3f7eb4df	0.9949474
18	0x3f80ffcc	1.0078063
19	0x3f7e99af	0.9945325
20	0x3f7eefe8	0.9958482
21	0x3f805ffa	1.002929
22	0x3f813e0f	1.0097064
23	0x3f7fa242	0.9985696
24	0x3f7f9ab7	0.9984545
25	0x3f80e201	1.0068971
26	0x3f7f3052	0.99683106
27	0x3f80361a	1.001651
28	0x3f814817	1.0100125
29	0x3f80507d	1.0024563
30	0x3f808d50	1.0043125
31	0x3f7f0ddf	0.9963054

model.8.bias f4 [32]
0	0xbb80078e	-0.0039071506
1	0xbbef0495	-0.0072942474
2	0xba2f3b60	-0.0006684568
3	0x3a6becfa	0.0008999851
4	0x39869435	0.00025668895
5	0xbc1bf693	-0.009519237
6	0x3b0d550e	0.002156559
7	0xbb936be4	-0.0044989455
8	0x3af1142b	0.0018392851
9	0xbbac2021	-0.0052528535
10	0xbba92d16	-0.0051628454
11	0x396bf780	0.00022503547
12	0xba0bb13f	-0.0005328841
13	0xbc1c24ba	-0.009530241
14	0xbc108593	-0.008820909
15	0xbb079018	-0.0020685252
16	0xbbb648c1	-0.005562872
17	0xbbf3295e	-0.007420703
18	0xbb82a7e3	-0.003987299
19	0x3b272e14	0.0025509642
20	0xbb7a692e	-0.0038209665
21	0xbb6aeb3c	-0.0035845777
22	0x3bed3b4e	0.0072397357
23	0xb8dc1862	-0.00010494959
24	0x3b1b8897	0.0023732537
25	0x3acd63e0	0.0015670024
26	0xbbd7843f	-0.0065770443
27	0xbbfa3ae4	-0.007636415
28	0x3adca3da	0.00168335
29	0xbafec35e	-0.0019436886
30	0x3b624f99	0.0034532307
31	0xbbd2bc31	-0.0064311256

model.8.running_mean f4 [32]
0	0xbeb49fe6	-0.35278243
1	0x3e0588b6	0.13040432
2	0x3ebcd04c	0.36877668
3	0x3dbb0d6a	0.09133418
4	0x3d25d8dd	0.04049002
5	0x3d173e11	0.036924426
6	0xbeb5e84c	-0.3552879
7	0x3e32afee	0.17449924
8	0xbdf17936	-0.11790697
9	0x3e02633c	0.12733167
10	0x3bb17d2d	0.0054165334
11	0x3cad843b	0.021181216
12	0x3dedc152	0.116091385
13	0xbe581070	-0.2110002
14	0xbe361d6f	-0.17784666
15	0x3db44a38	0.088032186
16	0xbea458aa	-0.32098895
17	0x3dec9e70	0.11553657
18	0x3e16541a	0.1468052
19	0xbe9a2b66	-0.30111235
20	0x3e8fdd1b	0.28098378
21	0x3bec8e5d	0.0072191195
22	0xbcf0e22a	-0.029404718
23	0xbe641584	-0.22273833
24	0x3e884709	0.26616696
25	0xbe4979ea	-0.19675413
26	0xbe81f878	-0.2538488
27	0xbd8daf07	-0.069181494
28	0xbcea338d	-0.028589034
29	0x3e0afba6	0.13572559
30	0x3e978b42	0.29598433
31	0xbe6c27af	-0.23062013

model.8.running_var f4 [32]
0	0x3ea2f202	0.31825262
1	0x3e595922	0.21225408
2	0x3e573235	0.21015246
3	0x3e0364c6	0.12831411
4	0x3d85a4c7	0.065255694
5	0x3e0ce4e9	0.13759197
6	0x3e4505f9	0.1924056
7	0x3e2101c8	0.15723336
8	0x3d917c26	0.071037576
9	0x3e81efa0	0.25378132
10	0x3dacdf1a	0.08440991
11	0x3d65ac93	0.056072783
12	0x3dd3aaf4	0.10335341
13	0x3d58cbf2	0.052928872
14	0x3d714bad	0.05891006
15	0x3e5c96ba	0.21541873
16	0x3d5b06c2	0.05347324
17	0x3d9f5824	0.07780483
18	0x3dbfc472	0.09363641
19	0x3da74955	0.08168284
20	0x3d7d4f92	0.061843462
21	0x3dd3431c	0.103155345
22	0x3d3143f5	0.0432777
23	0x3e263453	0.16230898
24	0x3db4fa70	0.0883683
25	0x3d729b68	0.05923024
26	0x3e7c5a11	0.24643733
27	0x3d8fcb86	0.07021241
28	0x3d838f72	0.064238444
29	0x3db70f12	0.08938421
30	0x3e1227b4	0.14272958
31	0x3dd942bd	0.106084324

model.10.weight f4 [64, 32, 3, 3]
0	0xbd36f445	-0.044666547
1	0x3cea4bee	0.02860066
2	0xbd342c3a	-0.04398749
3	0x3d1c0af9	0.0380964
4	0xbc228817	-0.009920142
5	0xba967d69	-0.0011481467
6	0xbc013dff	-0.007888316
7	0x3c46ceb4	0.012134243
8	0xbd2eacdd	-0.042645324
9	0xbd518862	-0.051155455
10	0xbc87241a	-0.016496707
11	0xbcafdd84	-0.021467932
12	0xbd6e4b05	-0.058177013
13	0xbd40d1fc	-0.047075257
14	0x3cdd4f52	0.027015362
15	0x3d0ce972	0.03440232
16	0x3d591bd5	0.05300506
17	0xbc0f359e	-0.008740811
18	0x3c6edf8b	0.014579664
19	0xbd5a09e6	-0.053232096
20	0xbcad5ef3	-0.02116344
21	0xbd55c43e	-0.052189104
22	0xbd461dda	-0.048368312
23	0xbd6407c4	-0.05567147
24	0xbd60cfc7	-0.054885652
25	0x3d287cb2	0.041134544
26	0x3d555bf4	0.052089646
27	0xbd36933d	-0.04457401
28	0x3d392ced	0.04520886
29	0xbd1c1116	-0.038102232
30	0xbc6aca83	-0.014330509
31	0x3d2de5ed	0.042455602
32	0x3c66d9f1	0.014090047
33	0xbc1dced4	-0.009631831
34	0xbd438187	-0.04773095
35	0xbd50d6b0	-0.050985992
36	0xbd7cafcd	-0.061691094
37	0xbc9271e4	-0.017876573
38	0x3d2a1d7f	0.041532036
39	0x3d44052c	0.047856495
40	0xbc482119	-0.012214922
41	0x3d5b8b4d	0.053599644
42	0xbd01ee2e	-0.031721286
43	0x3d3b78ec	0.045769617
44	0xbd637e13	-0.055540156
45	0xbd10a008	-0.035308868
46	0x3d129f47	0.03579643
47	0xbc8f7f45	-0.017516742
48	0xbc8d00bc	-0.017212264
49	0x3d162144	0.03665282
50	0xbc817e6c	-0.015807353
51	0x3a092664	0.0005231856
52	0x3cbdd3df	0.023172317
53	0x3be08427	0.0068516913
54	0x3d43f1ea	0.04783813
55	0x3d217584	0.039418712
56	0xbd6906cd	-0.05689125
57	0xbc1658a8	-0.009176411
58	0x3cddad55	0.02706019
59	0xbcf3aff9	-0.029746996
60	0xbcac1ace	-0.021008875
61	0xbcb1a6c5	-0.021685967
62	0x3cac5ba5	0.021039793
63	0x3cce9d6d	0.02522155
64	0xbcdff601	-0.027338983
65	0xbb34194d	-0.00274809
66	0x3d67f6cf	0.05663186
67	0x3cf06c01	0.029348375
68	0x3d01db4d	0.031703282
69	0xbcd7a853	-0.02632538
70	0xbd25a87c	-0.040443882
71	0xbd515a8e	-0.05111175
72	0x3d451f4d	0.048125554
73	0xbd0546f4	-0.03253837
74	0xbd497c3e	-0.049190752
75	0x3cc33246	0.023827683
76	0xbd3c088e	-0.045906596
77	0x3d089dd6	0.03335365
78	0x3d1e7e93	0.03869493
79	0x3c990eb6	0.018683773
80	0x3d4c4e14	0.04987915
81	0xbd0ba72e	-0.03409498
82	0x3d1a8ab2	0.037729926
83	0xbcc6a021	-0.024246277
84	0x3d77c465	0.06049003
85	0xbd474a2d	-0.048654724
86	0x3c8e1580	0.017344236
87	0x3d21f969	0.039544497
88	0xbd1d8f0d	-0.038466502
89	0xbd0506d4	-0.032477215
90	0x3b3d1029	0.0028848744
91	0xbc8073e8	-0.015680268
92	0x3c025467	0.007954693
93	0x3c16353a	0.009167964
94	0xbbe58a4e	-0.0070050126
95	0xbca1f5c9	-0.01977052
96	0xbd72b679	-0.05925605
97	0x3a011810	0.0004924545
98	0xbaab73ce	-0.0013080777
99	0x3d2778ed	0.04088681
100	0x3bfb5116	0.0076695783
101	0xbc83c112	-0.016083274
102	0xbd1d5e30	-0.038419902
103	0x3d3605fb	0.044439297
104	0xbc92d79f	-0.017925082
105	0xbb8dd79b	-0.0043286807
106	0xbd4917fa	-0.04909513
107	0xbc266e5b	-0.010158147
108	0x3d58ebc5	0.052959222
109	0x3c9a8309	0.01886131
110	0xbce4c954	-0.027928032
111	0xbd185ad1	-0.037195984
112	0xbd478b7d	-0.04871701
113	0xbcf5888a	-0.029972333
114	0xbd59328f	-0.053026732
115	0x3d0aa13f	0.033845183
116	0xbc3b9cd9	-0.01145097
117	0xbd2f054a	-0.042729653
118	0x3c8b696a	0.017018039
119	0x3d2ef483	0.042713653
120	0xbcd42ae4	-0.025899358
121	0x3cba1f1b	0.02271991
122	0x3d487342	0.048938043
123	0x3d0ef2ab	0.034899395
124	0xbd12c57f	-0.03583288
125	0x3c5ec259	0.013596141
126	0xbcbd0d9c	-0.023077779
127	0xbaaa145e	-0.0012976041
128	0x394f0c18	0.00019745564
129	0xbd364007	-0.044494655
130	0x3ca3e904	0.020008571
131	0xbc155766	-0.009115076
132	0xbd640208	-0.055666
133	0x3cfeca23	0.031102246
134	0xbcd56075	-0.02604697
135	0x3d02cb04	0.031931892
136	0x3b5644a3	0.003269472
137	0x3d178c04	0.036998764
138	0xbccd6550	-0.025072724
139	0xbbae6498	-0.0053220503
140	0xbd5eca73	-0.05439229
141	0x3d325a42	0.043543108
142	0xbd7b36c9	-0.061331544
143	0x3cbb2ec4	0.022849448
144	0xbd02a432	-0.03189487
145	0xbcab862f	-0.020938007
146	0x3c3263a8	0.010888018
147	0x3d01410b	0.03155617
148	0xbd1c3c02	-0.038143165
149	0x3cd76ac7	0.026296033
150	0x3cd0660b	0.025439283
151	0x3ba408ff	0.005005955
152	0x3ce6b3be	0.02816188
153	0xbccbbaef	-0.02486941
154	0xbd6bff5a	-0.05761657
155	0x3c5701d6	0.013122996
156	0x3d3edfc8	0.046600133
157	0x3c354255	0.011063178
158	0xbc77439f	-0.015091806
159	0x3d220ff4	0.039565995
160	0xbd274f21	-0.040846948
161	0xbc7bf45d	-0.015378085
162	0x3d34eb70	0.044169843
163	0xbc847682	-0.01616979
164	0x3c77e1db	0.015129532
165	0xbce7eac9	-0.028310196
166	0x3d1d665c	0.038427696
167	0xbd2691a2	-0.04066623
168	0x3c352b96	0.011057755
169	0xbd47c2a9	-0.048769627
170	0xbd564cec	-0.052319452
171	0x3d002ae2	0.031290896
172	0xbd4cc526	-0.049992703
173	0x3d35da9f	0.044397946
174	0xbc9ea7d3	-0.019367134
175	0xbcbfd723	-0.023418015
176	0xbd360202	-0.04443551
177	0x3d0bb6fa	0.034110047
178	0xbbefa01b	-0.007312787
179	0xbbc813f4	-0.006105894
180	0x3d3c917b	0.04603718
181	0x3d1fdd97	0.039029684
182	0xbc2c5c01	-0.010519982
183	0xbceaaf57	-0.028648062
184	0x3ca0825d	0.019593412
185	0xbce56e29	-0.02800663
186	0xbd6bb7a3	-0.057548176
187	0x3c347013	0.011013049
188	0x3ccd986d	0.025097096
189	0xbd427ad9	-0.047480438
190	0x3c9925a0	0.018694699
191	0xbc53a33e	-0.012917338
192	0xbc70511f	-0.014667778
193	0xbd413014	-0.04716499
194	0xbcc75f57	-0.024337454
195	0xbcdc3c88	-0.026884332
196	0x387253a4	5.7775193e-05
197	0x3d1aea23	0.037820946
198	0x3d0d77f2	0.034538217
199	0x3b4cdf88	0.0031261165
200	0xbd2f2af3	-0.04276557
201	0xbc735c68	-0.014853574
202	0xbd6dbed7	-0.058043327
203	0x3d392d76	0.04520937
204	0xbc894936	-0.016758543
205	0xba54e92d	-0.0008121904
206	0x3ce01d1d	0.027357632
207	0xbd094a70	-0.033518255
208	0x3d18cd17	0.037304964
209	0xbc961058	-0.01831834
210	0x3c32df4e	0.010917498
211	0xbc84b4aa	-0.016199429
212	0xbc97b232	-0.018517587
213	0x3ceca40f	0.028886823
214	0x3d3209cd	0.043466378
215	0x3d2f9b73	0.042872857
216	0x3cd2ab04	0.025716312
217	0x3d223ed2	0.03961069
218	0xbc1c69de	-0.009546725
219	0x3c8d03fe	0.017213818
220	0xbd219547	-0.039449003
221	0xbd86d770	-0.0658406
222	0x3b9984c9	0.0046850187
223	0x39306892	0.00016823623
224	0x3d067cdd	0.032833923
225	0x3d05e6f1	0.032690946
226	0xbd498da0	-0.04920733
227	0xbc753257	-0.014965615
228	0x3bfb6d07	0.007672909
229	0xbd2525ae	-0.040319137
230	0x3d194d01	0.037426952
231	0x3b8b3eef	0.0042494456
232	0x3bc05f29	0.005870719
233	0x3cc6a33f	0.024247764
234	0x3cd956e2	0.026530687
235	0x3d7b4a96	0.061350428
236	0x3ce5154b	0.027964255
237	0xbcc0a26e	-0.023514953
238	0xbb02ff67	-0.0019988657
239	0x3c0c54cd	0.00856514
240	0xbd129f14	-0.03579624
241	0x3d5333fc	0.051563248
242	0xbca97dab	-0.020689806
243	0x3bd1a369	0.006397654
244	0x3d157e05	0.036497135
245	0xbd21555d	-0.03938805
246	0xbbabdf98	-0.0052451603
247	0xbd33a6c3	-0.04386021
248	0x3ca53e94	0.020171441
249	0x3c811706	0.015758049
250	0xbcd9ca30	-0.026585668
251	0x3d1fe93c	0.03904079
252	0x3d22216f	0.039582666
253	0xbc887203	-0.016655928
254	0xbd420138	-0.047364444
255	0x3cd6da8e	0.026227262

model.10.bias f4 [64]
0	0xbd532344	-0.051547304
1	0x3d1ab897	0.037773695
2	0xbccd214f	-0.025040297
3	0x3d6071f6	0.05479618
4	0x3d6bebd7	0.05759796
5	0x3d43d186	0.04780724
6	0x3d1fd56c	0.039021894
7	0x3cc24839	0.02371608
8	0x3d43178c	0.047629878
9	0xbd2112d9	-0.039324615
10	0x3c8b10ed	0.016975844
11	0x3d6dbaf7	0.05803963
12	0x3bfe233f	0.0077556665
13	0xbd14754e	-0.036244683
14	0x3bca621d	0.006176247
15	0x3d13938c	0.036029384
16	0xbb094be2	-0.002094977
17	0x3d6a10f9	0.057145093
18	0xbd2cff58	-0.042235702
19	0x3b36ea27	0.0027910562
20	0x3d5fe0a3	0.05465759
21	0xbad40f41	-0.0016178862
22	0xbd783330	-0.06059569
23	0x3cf4b6c6	0.02987231
24	0xbc94ed37	-0.01817952
25	0x3d59c71e	0.05316841
26	0xbc779781	-0.015111805
27	0xbc86f87e	-0.016475912
28	0x3c41f0c7	0.011837191
29	0x3d622a9f	0.055216428
30	0x3a1751eb	0.00057723996
31	0xbc550ed6	-0.013004025
32	0xbd2eb869	-0.042656336
33	0x3b5b4503	0.0033457882
34	0x3d0a510d	0.033768702
35	0xbd1cecb0	-0.03831166
36	0xbd61adf3	-0.05509753
37	0x3d4302ce	0.047610097
38	0xbcfaf7e3	-0.03063578
39	0xbd02415a	-0.031800605
40	0xba925fca	-0.0011167463
41	0xbc784f10	-0.015155569
42	0xbd38d9fe	-0.04512977
43	0xbd64ba90	-0.055841982
44	0xbcf4de51	-0.029891165
45	0x3c218c6d	0.00986014
46	0xbc8307d2	-0.01599494
47	0x3c722eb2	0.014781641
48	0x3d33faa4	0.0439402
49	0x3d676cff	0.05650043
50	0x3d0d5f20	0.034514546
51	0x3b88e092	0.0041771615
52	0x3ced613f	0.028977035
53	0x3cb55222	0.02213389
54	0x3cbf4a5f	0.023350893
55	0xbd40ff18	-0.047118276
56	0x3cad717b	0.021172276
57	0xbd489dfc	-0.04897879
58	0x3d4c8f0f	0.04994112
59	0xbcb1575b	-0.0216481
60	0x3d233e69	0.03985444
61	0x3ccd31d9	0.025048183
62	0xbd037f64	-0.03210391
63	0x3d39dce6	0.04537668

model.11.weight f4 [64]
0	0x3f7faf89	0.9987722
1	0x3f81253a	1.0089486
2	0x3f808c5b	1.0042833
3	0x3f7ffd84	0.9999621
4	0x3f80633e	1.0030286
5	0x3f800c7f	1.0003814
6	0x3f81d42b	1.0142874
7	0x3f7e267b	0.99277467
8	0x3f806b76	1.0032794
9	0x3f8068d2	1.0031989
10	0x3f800e78	1.0004416
11	0x3f7de8d3	0.99183387
12	0x3f7fd0ad	0.9992779
13	0x3f80c917	1.0061368
14	0x3f806824	1.0031781
15	0x3f801de5	1.0009123
16	0x3f8099c6	1.0046928
17	0x3f8123e9	1.0089084
18	0x3f810753	1.008036
19	0x3f802e3f	1.0014113
20	0x3f7f7dff	0.9980163
21	0x3f7e44a7	0.99323505
22	0x3f7f2d02	0.9967805
23	0x3f7eed9d	0.9958132
24	0x3f81d2a9	1.0142413
25	0x3f7dc3b5	0.9912675
26	0x3f7d8706	0.99034154
27	0x3f805783	1.0026706
28	0x3f7e56c7	0.9935116
29	0x3f816f11	1.011202
30	0x3f80494e	1.0022371
31	0x3f8041b8	1.0020056
32	0x3f8021dd	1.0010334
33	0x3f7e1738	0.9925418
34	0x3f801779	1.0007163
35	0x3f7efc40	0.9960365
36	0x3f805abf	1.0027694
37	0x3f80536c	1.0025458
38	0x3f7c233d	0.9849127
39	0x3f803345	1.0015646
40	0x3f80c734	1.0060792
41	0x3f7f7282	0.997841
42	0x3f7e8e95	0.9943631
43	0x3f7ec49d	0.9951876
44	0x3f7fb568	0.9988618
45	0x3f80b26a	1.0054448
46	0x3f801a8f	1.0008105
47	0x3f7e50db	0.99342126
48	0x3f807023	1.0034221
49	0x3f807164	1.0034604
50	0x3f7f3be7	0.9970078
51	0x3f7fa372	0.9985877
52	0x3f8077c2	1.0036547
53	0x3f801470	1.0006237
54	0x3f7d613a	0.9897648
55	0x3f7f695b	0.99770135
56	0x3f8023de	1.0010946
57	0x3f80a265	1.0049559
58	0x3f7f381b	0.99694985
59	0x3f802e0a	1.001405
60	0x3f7dcdce	0.9914216
61	0x3f808cf2	1.0043013
62	0x3f7f9786	0.9984058
63	0x3f80b9be	1.0056684

model.11.bias f4 [64]
0	0x390499e7	0.00012645834
1	0xba0442b9	-0.0005045343
2	0x3bb91484	0.0056481976
3	0xbb250971	-0.002518263
4	0xbb60b0bb	-0.0034285027
5	0xbae0ec1c	-0.001716021
6	0xba984e1e	-0.001161996
7	0xbc49748d	-0.012295854
8	0xbb864f05	-0.0040987753
9	0xbb1346b1	-0.0022472555
10	0xbb156372	-0.002279487
11	0xbbdf1cc9	-0.0068088514
12	0xbb648229	-0.003486762
13	0xbb32e706	-0.0027298345
14	0x3ac9a15e	0.0015383174
15	0x3b24c439	0.0025141372
16	0xbb262e03	-0.0025357015
17	0x3be127e9	0.0068712127
18	0xbbbb507f	-0.005716383
19	0xbbbe7b7e	-0.0058130613
20	0xbbe2b58e	-0.0069186157
21	0xbc287fbf	-0.010284363
22	0xb9aed2e2	-0.00033344986
23	0xbba7686a	-0.0051088827
24	0xbbe565eb	-0.007000675
25	0xbc721072	-0.014774429
26	0xbb801402	-0.003908635
27	0xbc0aae6b	-0.008464436
28	0xbb75735f	-0.00374528
29	0xbbd9dfca	-0.006648992
30	0xbb24315a	-0.002505383
31	0xbbe88553	-0.0070959716
32	0x3acd3861	0.0015657061
33	0xbc653954	-0.013990719
34	0xbbd1bfb8	-0.0064010285
35	0xbc009123	-0.007847103
36	0x3b052cf3	0.0020320981
37	0xb850a936	-4.9748654e-05
38	0xbbdaaeb9	-0.0066736606
39	0xbbd7b6c4	-0.0065830667
40	0x3bbc7ac8	0.0057519414
41	0x3932f93d	0.00017068251
42	0xbc1457bc	-0.009054121
43	0x3ab6c46b	0.0013944035
44	0x3a881e90	0.0010385085
45	0xbb28f5e1	-0.002578132
46	0xbc1372df	-0.008999555
47	0xbbbe462a	-0.005806704
48	0xbb6a6173	-0.003576365
49	0xbb0f4023	-0.0021858297
50	0xbba7957d	-0.005114256
51	0xba963b4f	-0.0011461767
52	0x3b82ab51	0.0039877077
53	0xbc4d82d9	-0.012543404
54	0xbb1aabab	-0.0023600857
55	0xbac1b752	-0.0014779365
56	0x3a819942	0.0009887593
57	0xbc2c64a3	-0.010522041
58	0xbbaa7f7c	-0.0052031856
59	0xbc978917	-0.018497987
60	0xbbe6c5c0	-0.0070426166
61	0xbb0d2700	-0.0021538138
62	0xbbe79b4d	-0.007068074
63	0xbbbe2dd5	-0.0058038034

model.11.running_mean f4 [64]
0	0xbeb1bda1	-0.34714988
1	0x3c975130	0.01847133
2	0xbebaa91a	-0.3645714
3	0xbe967c17	-0.29391548
4	0xbdbc0406	-0.09180455
5	0xbdca277e	-0.09870814
6	0xbe01add5	-0.12663968
7	0x3ee806d6	0.45317715
8	0xbdf12c27	-0.117759995
9	0xbe58625f	-0.21131276
10	0x3db8b508	0.09018904
11	0x3e533f4e	0.20629618
12	0x3e8ca1e2	0.27467257
13	0x3d7eb343	0.062182676
14	0xbc7c6748	-0.015405484
15	0x3d64ee44	0.05589129
16	0xbd67a531	-0.056554023
17	0xbd94874a	-0.07252367
18	0xbe4e7c36	-0.2016457
19	0x3de37030	0.111053824
20	0x3e115f46	0.141965
21	0xbbc9dc51	-0.006160297
22	0xbecea553	-0.40360507
23	0x3d87971c	0.06620619
24	0x3d870c65	0.06594161
25	0x3e37bc7b	0.17942993
26	0x3e7454ec	0.2386052
27	0xbe966868	-0.2937653
28	0xbdc707cb	-0.09718283
29	0x3eaba2e3	0.3352271
30	0x3c23ce3a	0.009997899
31	0xbe8a4659	-0.27006796
32	0xbead0d43	-0.3379918
33	0xbdd03aaf	-0.10167443
34	0x3c743c8a	0.014907012
35	0xbe6e8388	-0.23292363
36	0xbdf98667	-0.12183838
37	0xbc774d8c	-0.015094172
38	0xbd8f8f0f	-0.07009708
39	0xbe4214a3	-0.18953185
40	0xbedfe7ff	-0.43731686
41	0xbdaf397b	-0.085558854
42	0xbc597acf	-0.013273909
43	0xbe5d0ed2	-0.21587685
44	0xbe7d2216	-0.24720034
45	0x3d3ffbe0	0.046871066
46	0x3cbde86e	0.02318212
47	0x3d9b03e1	0.07569099
48	0xbe25dba6	-0.1619707
49	0xbbafda16	-0.005366574
50	0xbdd2218e	-0.10260306
51	0xbdb23642	-0.08701755
52	0x3d32f1ac	0.043687508
53	0xbc89f939	-0.016842471
54	0xbeb3d3bc	-0.35122478
55	0xbdf68d3a	-0.120386556
56	0xbedd12a5	-0.43178287
57	0x3e58a0e0	0.21155119
58	0x3ea02f7e	0.31286234
59	0x3c6f443f	0.0146036735
60	0x3c04030e	0.008057369
61	0xbdfcc2fc	-0.12341878
62	0xbc29941d	-0.010350254
63	0xbe23e589	-0.1600553

model.11.running_var f4 [64]
0	0x3e6162df	0.22010373
1	0x3d98fd36	0.07470171
2	0x3e05a514	0.13051254
3	0x3e3b9841	0.18319799
4	0x3d94b1d5	0.07260481
5	0x3df4ffe6	0.11962871
6	0x3d90d331	0.070715316
7	0x3e474aaa	0.19462076
8	0x3e854f13	0.2603689
9	0x3e0e9a67	0.13926087
10	0x3d8512d4	0.06497732
11	0x3e046abb	0.1293134
12	0x3ddc083b	0.10743757
13	0x3d8ac5ab	0.067759834
14	0x3e3b71dd	0.18305154
15	0x3ded7bfe	0.11595915
16	0x3d58515c	0.052811965
17	0x3d93ada8	0.07210857
18	0x3d9ac959	0.07557935
19	0x3d64bbf5	0.055843312
20	0x3d99ae06	0.075038955
21	0x3d94c6ab	0.072644554
22	0x3e423528	0.1896559
23	0x3e156df0	0.14592719
24	0x3d83c664	0.064343244
25	0x3e022334	0.12708741
26	0x3dbf071f	0.0932753
27	0x3e37114d	0.17877693
28	0x3de4573b	0.111494504
29	0x3db5019e	0.08838199
30	0x3d9fcc2a	0.07802613
31	0x3e0c707a	0.13714781
32	0x3e0c6bb7	0.13712965
33	0x3dbd0916	0.09230249
34	0x3df937c1	0.12168837
35	0x3d84efd2	0.064910546
36	0x3d8255de	0.06364034
37	0x3dbc25a2	0.091868654
38	0x3e04eeb4	0.12981683
39	0x3d890d51	0.06691993
40	0x3da0fac2	0.07860328
41	0x3de0b099	0.10971183
42	0x3dae7821	0.085190065
43	0x3e151a6a	0.14560857
44	0x3e3c865f	0.18410634
45	0x3d8355b5	0.06412832
46	0x3d8d32ff	0.06894492
47	0x3dc6f545	0.0971475
48	0x3e56c125	0.20972116
49	0x3dc193b8	0.09452003
50	0x3dc1d92d	0.09465251
51	0x3d69fd55	0.057126362
52	0x3da043b8	0.07825416
53	0x3d6ffab9	0.058588717
54	0x3dcf95d9	0.10136003
55	0x3e01c4be	0.12672707
56	0x3e6fce0b	0.23418443
57	0x3d906de1	0.07052208
58	0x3d8534b8	0.06504196
59	0x3d75a9db	0.05997644
60	0x3d79a362	0.06094683
61	0x3d87cc86	0.066308066
62	0x3d810a2f	0.063007705
63	0x3da2f2b7	0.079564504
