imitation_learning/models/h5-lr0.01-agent.pt (torch, 972400 bytes, 34 tensors)

model.0.weight f4 [16, 5, 7, 7]
-0.06985179 -0.101485476 -0.04651236 -0.11230833 0.0007193915 -0.032070875 -0.040289048 -0.035598435
-0.013488769 -0.09233042 -0.03011068 -0.014384421 -0.039964132 -0.08283264 -0.12597679 -0.00042509264
-0.109121114 -0.03186299 -0.040894505 -0.015092573 -0.05737853 -0.07206376 -0.027728453 -0.06794676
-0.077843174 -0.053513665 -0.111752935 -0.031818412 0.011899549 -0.05680219 -0.112129234 -0.041220337
-0.07296565 -0.106056064 -0.07180962 -0.022380594 -0.08562051 -0.03362235 0.023071758 -0.08611851
-0.08236105 0.0010299676 -0.062459614 -0.022174086 -0.089074455 -0.025084507 -0.09523839 0.00342946
-0.04860812 0.013479919 -0.05046118 -0.10042365 -0.026752964 -0.03428552 -0.04218503 -0.046453156
-0.031127343 -0.10070525 -0.07904665 -0.053767763 -0.08570995 -0.070745006 -0.117448956 -0.10625051
-0.13096511 -0.123842694 -0.118626505 -0.1042817 -0.08015784 -0.11155941 -0.09894802 -0.08227092
-0.1070726 -0.078622684 -0.10296642 -0.04160537 -0.10552755 -0.073405206 -0.049607664 -0.03719543
-0.08852656 -0.041451074 0.00087603024 -0.084164344 -0.004391346 -0.033698454 -0.06288626 -0.0911203
-0.06518365 0.006357427 0.015553958 0.023795543 -0.063825674 -0.07589195 0.015516921 -0.07476996
-0.00073684484 -0.03509245 -0.011403422 -0.04776984 -0.06725738 -0.08055901 -0.023988955 -0.03236125
-0.011846386 -0.023900472 -0.01209349 -0.092243165 -0.049536437 -0.103463024 -0.10005555 -0.0439821
-0.04030307 0.0016122502 -0.05357994 -0.07023542 -0.051778577 -0.11001365 -0.0052400455 -0.031916983
-0.075447276 -0.05035247 -0.12055112 -0.05943377 -0.06275327 -0.08725395 -0.080495164 -0.08058705
0.019419981 -0.080342315 -0.07164593 -0.07854883 -0.080935694 -0.04826182 -0.05083401 -0.02761379
0.026010849 -0.01756246 0.032591462 0.032357235 -0.009813762 0.019401897 -0.07955156 0.039188027
0.057038236 0.02129156 0.011051216 -0.10791224 -0.06591036 -0.12051982 -0.11083288 -0.056909513
-0.015873242 -0.12857723 -0.08430941 -0.07141815 -0.12692222 -0.112814344 -0.07743988 -0.05592014
-0.071797915 -0.113165304 -0.09731854 -0.050811343 -0.09620306 -0.024958095 -0.11228524 -0.042022493
-0.12536523 -0.06309282 -0.09085676 -0.11856008 -0.07044067 -0.082310766 -0.0897069 -0.06403343
-0.068737894 -0.07813115 -0.11306452 0.012260519 -0.05214658 -0.007166023 -0.053880807 -0.08379875
0.029102301 -0.08668367 -0.027875142 -0.0068563484 0.12799 -0.039658193 -0.0499051 -0.04952763
-0.008397943 -0.057045974 0.058418762 0.07086885 -0.22164346 -0.20658094 -0.2822367 -0.20625739
-0.3073534 -0.16303954 -0.20055224 -0.21676409 -0.42637646 -0.33944476 -0.5220606 -0.19940016
-0.21166477 0.009988718 -0.171823 -0.26008618 -0.22711019 -0.13775542 -0.0061913654 0.017338824
-0.04910446 -0.0687526 -0.04873786 -0.13647366 -0.10752132 -0.0757544 -0.048645005 0.01404221
0.029137159 -0.05087759 0.045486994 0.015209472 0.046218812 0.0011625574 0.03401613 0.06952929
0.059751164 0.006132503 -0.022520438 0.012032215 0.014668035 0.07815301 0.08720943 -0.010448638
-0.019878035 -0.019638665 0.080921285 0.0892174 0.07904697 0.0751783 0.040909335 0.13994026
0.11428981 0.11765377 0.06336785 0.07467583 0.067937255 0.02520237 0.15400249 0.11572053
00000000: 750e 8fbd 9ed7 cfbd bf83 3ebd e901 e6bd
00000010: 8c95 3c3a c05c 03bd 2106 25bd aacf 11bd
00000020: ffff 5cbc bb17 bdbd acaa f6bc a2ac 6bbc
00000030: 6eb1 23bd 29a4 a9bd 0f00 01be f8de deb9
00000040: e47a dfbd c482 02bd ff80 27bd d746 77bc
00000050: c005 6bbd 2a96 93bd c826 e3bc ac27 8bbd
00000060: 3e6c 9fbd 2531 5bbd b9de e4bd 0654 02bd
00000070: 53f6 423c 6aa9 68bd 03a4 e5bd a8d6 28bd
00000080: 046f 95bd ec33 d9bd ec10 93bd 8257 b7bc
00000090: ce59 afbd 97b7 09bd fc00 bd3c e75e b0bd
000000a0: e9ac a8bd faff 863a a7d5 7fbd 6ea6 b5bc
000000b0: ab6c b6bd 067e cdbc 580c c3bd cbc0 603b
000000c0: 4f19 47bd e1da 5c3c 62b0 4ebd eaaa cdbd
000000d0: 0829 dbbc f96e 0cbd 36ca 2cbd aa45 3ebd
000000e0: c5fe febc 8e3e cebd 36e3 a1bd 963b 5cbd
000000f0: b388 afbd c2e2 90bd 1489 f0bd de99 d9bd
00000100: b81b 06be 3da1 fdbd 74f2 f2bd a591 d5bd
00000110: cb29 a4bd 4379 e4bd 42a5 cabd a87d a8bd
00000120: e148 dbbd ee04 a1bd 0fe0 d2bd 646a 2abd
00000130: d41e d8bd 7855 96bd 6831 4bbd 3c5a 18bd
00000140: 6a4d b5bd 9ac8 29bd 65a5 653a 5b5e acbd
00000150: 48e5 8fbb 6407 0abd 83ca 80bd 489d babd
00000160: 017f 85bd f751 d03b 07d6 7e3c dfee c23c
00000170: 09b7 82bd 3d6d 9bbd af3a 7e3c fe20 99bd
00000180: d228 41ba 1abd 0fbd 6bd5 3abc 4faa 43bd
00000190: 3dbe 89bd 1ffc a4bd 7c84 c4bc 3b8d 04bd
000001a0: 5817 42bc ecca c3bc c623 46bc fce9 bcbd
000001b0: b8e6 4abd 6ce4 d3bd ede9 ccbd 9326 34bd
000001c0: d514 25bd 2452 d33a a476 5bbd 96d7 8fbd
000001d0: c615 54bd d64e e1bd b0b4 abbb 62bb 02bd
000001e0: 1a84 9abd 643e 4ebd 81e3 f6bd d370 73bd
000001f0: c984 80bd 33b2 b2bd a6da a4bd d30a a5bd
00000200: a716 9f3c 838a a4bd 1abb 92bd 35de a0bd
00000210: 9dc1 a5bd 30ae 45bd 5337 50bd 5136 e2bc
00000220: b414 d53c 26df 8fbc a07e 053d 0589 043d
00000230: e7c9 20bc baf0 9e3c eeeb a2bd a083 203d
00000240: eda0 693d a36b ae3c 2910 353c 1801 ddbd
00000250: 03fc 86bd 18d3 f6bd 59fc e2bd f319 69bd
00000260: 9a08 82bc c0a9 03be 69aa acbd ae43 92bd
00000270: e6f7 01be 350b e7bd cd98 9ebd 840c 65bd
00000280: c90a 93bd 36c3 e7bd f14e c7bd 8e1f 50bd
00000290: 1c06 c5bd eb74 ccbc cef5 e5bd c71f 2cbd
000002a0: be5f 00be cf36 81bd 1c13 babd a1cf f2bd
000002b0: 3343 90bd 8c92 a8bd 40b8 b7bd f523 83bd
000002c0: 74c6 8cbd 3903 a0bd 5f8e e7bd 58e0 483c
000002d0: a797 55bd f5d0 eabb 1fb2 5cbd ae9e abbd
000002e0: f367 ee3c 3587 b1bd 695a e4bc 38ab e0bb
000002f0: d00f 033e a170 22bd 4a69 4cbd 7cdd 4abd
00000300: 8797 09bc 0aa9 69bd 8348 6f3d b023 913d
00000310: 81f6 62be f489 53be 5481 90be 2335 53be
00000320: 6d5d 9dbe d6f3 26be 915d 4dbe 68f7 5dbe
00000330: 044e dabe b4cb adbe c3a5 05bf 8e2f 4cbe
00000340: a6be 58be b8a7 233c 5ef2 2fbe 042a 85be
00000350: 938f 68be c20f 0dbe f0e0 cabb 260a 8e3c
00000360: c221 49bd 2ace 8cbd 5aa1 47bd c0bf 0bbe
00000370: 2334 dcbd 1f25 9bbd fc3f 47bd 4c11 663c
00000380: 0db1 ee3c 0565 50bd 9250 3a3d 2631 793c
00000390: f04f 3d3d f460 983a 7f54 0b3d 5f65 8e3d
000003a0: a3bd 743d 2af3 c83b c87c b8bc c422 453c
000003b0: 3352 703c af0e a03d dc9a b23d c430 2bbc
000003c0: 43d7 a2bc 44e1 a0bc 0fba a53d 9db7 b63d
000003d0: 61e3 a13d 15f7 993d 8c90 273d 804c 0f3e
000003e0: c710 ea3d 76f4 f03d 01c7 813d a4ef 983d
000003f0: b022 8b3d 3375 ce3c d4b2 1d3e e3fe ec3d

model.0.bias f4 [16]
-0.025489768 -0.024295783 0.024193078 -0.031462908 -0.011491303 0.012778692 -0.0068984586 -0.022023281
0.035685077 -0.018080533 0.000260055 -0.047608558 0.010581271 0.059417453 0.052622084 -0.06512487
00000000: ebcf d0bc f307 c7bc 9030 c63c 40df 00bd
00000010: 0546 3cbc b85d 513c 770c e2bb 2b6a b4bc
00000020: 842a 123d a01d 94bc fe57 8839 3101 43bd
00000030: 115d 2d3c b75f 733d 418a 573d 3060 85bd

model.1.weight f4 [16]
0.8419166 0.93825525 0.9032885 1.1606562 1.2635583 0.9023796 1.1180326 0.86666083
0.8756965 0.96112144 1.0604336 1.0106748 0.8397471 1.1554482 0.9363966 0.83104134
00000000: d987 573f 7f31 703f ea3d 673f 6290 943f
00000010: 47bc a13f 5902 673f b11b 8f3f 7cdd 5d3f
00000020: a52d 603f 0e0c 763f 4abc 873f cb5d 813f
00000030: aaf9 563f bae5 933f b0b7 6f3f 20bf 543f

model.1.bias f4 [16]
0.11148353 -0.077461794 -0.1338522 0.21337135 -0.33783233 -0.15555686 -0.066884354 0.032639965
-0.08856487 -0.23580883 -0.21882348 -0.20983845 -0.099501655 0.038400184 -0.044203304 0.072695605
00000000: 7a51 e43d 4aa4 9ebd 8d10 09be 057e 5a3e
00000010: 5cf8 acbe 4c4a 1fbe aafa 88bd 7cb1 053d
00000020: 8061 b5bd df77 71be 4313 60be e4df 56be
00000030: 86c7 cbbd 8349 1d3d 860e 35bd 6fe1 943d

model.1.running_mean f4 [16]
-2107.3599 2019.6935 1325.7833 -59.947193 2147.3726 -1608.8788 2271.1868 -1146.1163
1980.4532 1887.8187 2311.6592 -525.7532 -1728.1653 604.1095 1913.5558 -582.0129
00000000: c2b5 03c5 3176 fc44 11b9 a544 edc9 6fc2
00000010: f635 0645 1f1c c9c4 fdf2 0d45 b943 8fc4
00000020: 818e f744 33fa eb44 8c7a 1045 3470 03c4
00000030: 4a05 d8c4 0207 1744 c931 ef44 d380 11c4

model.1.running_var f4 [16]
562860.2 559754.44 302358.0 37081.96 630776.1 372557.94 814661.1 171062.08
547197.9 501476.56 795168.8 66120.1 382531.9 58975.098 552395.8 153733.28
00000000: c36a 0949 a7a8 0849 c0a2 9348 f6d9 1047
00000010: 82ff 1949 bee9 b548 52e4 4649 850d 2748
00000020: de97 0549 92dc f448 0d22 4249 0d24 8147
00000030: 7dc8 ba48 195f 6647 bddc 0649 5221 1648

model.4.weight f4 [32, 16, 3, 3]
-0.1419281 -0.079420604 -0.18025164 -0.08391069 -0.10910206 -0.011459094 -0.05362585 -0.10932339
-0.08660531 0.054394554 -0.015478051 0.07788497 0.06891924 0.03445378 0.10029579 0.020696754
0.08266404 0.012321624 0.023812424 -0.09914833 -0.035551812 -0.054135144 -0.0387818 0.030301448
-0.039278887 0.026738577 0.10553831 -0.11488516 -0.045084517 -0.02302253 -0.13427441 -0.15068266
-0.14937864 -0.099275 -0.12270333 -0.14017017 -0.071769975 -0.14724217 -0.110174075 -0.10505264
-0.05095308 0.007883163 0.07832793 -0.029576981 0.0077064615 -0.06465707 -0.11732483 -0.13424364
0.005792933 0.023457533 -0.041088805 0.039816108 -0.01777606 -0.1271939 0.1645562 0.17763437
0.06116906 0.08590303 0.12439376 0.09009706 0.08194283 0.18899111 0.123292826 -0.16838318
-0.13610983 -0.15535289 -0.07556554 -0.032322202 -0.016057888 -0.07996699 -0.04466624 0.035193898
0.010946586 0.11793524 0.012347125 0.16239105 0.09307898 0.15690446 0.08721597 0.15751025
0.040163696 0.0106425285 0.025415987 -0.024341471 0.12784527 0.061123144 0.15436618 0.14243183
0.002827272 0.088218324 0.05503655 0.13835062 0.15076885 0.111418135 0.09226839 0.21578379
0.054757547 0.215695 0.23300318 -0.10389785 -0.043238703 -0.19027151 -0.12668578 -0.14712994
-0.079892814 -0.0016922931 -0.15231259 -0.059872676 -0.1261828 -0.009783679 -0.03822459 -0.059568748
-0.09282093 0.009372207 -0.10381823 -0.117908776 -0.092950396 -0.25294688 -0.18077938 -0.2254345
-0.24364898 -0.27083626 -0.29675457 -0.1791682 -0.25649953 -0.2628295 0.028509995 0.0054092677
-0.019250102 0.16484018 0.019489795 0.09734854 0.14139907 0.122821644 0.07686577 -0.08360075
-0.12057794 -0.051944613 -0.08381955 -0.048021056 -0.06253274 -0.004536216 -0.015412521 0.110099815
0.10347155 0.026878243 0.10450249 0.039962444 0.048645277 0.14585623 0.09564006 0.10272409
0.056371067 -0.00980332 -0.028670667 -0.036310226 0.040216107 -0.025505375 0.003936178 0.04727913
-0.01975247 0.09660104 0.051147114 0.035316214 -0.014248889 0.042401306 -0.11796949 -0.010210104
-0.062295374 0.02950648 0.015246393 0.13777466 0.06412965 0.13055505 -0.046292365 0.054151744
0.14992274 -0.07385472 -0.1021038 -0.0026747042 0.05117788 0.03498067 0.120346926 0.023735143
0.0051412485 -0.014786643 0.014854794 0.045918487 0.07695862 0.06687989 0.06390939 0.104462214
0.20000553 0.118571185 0.14321473 0.0966114 0.15344754 0.035917334 0.03177085 0.104177065
-0.016074667 0.04368543 0.13039404 -0.027959472 -0.03058487 0.1384983 0.084961355 -0.0203134
0.08731215 0.067383386 0.07435545 -0.0065161455 0.08845931 0.12755637 0.0928215 0.053137675
0.060653143 -0.01823649 0.018922575 -0.09011407 -0.010615143 -0.051228303 -0.08395877 0.059015777
-0.03200584 0.05138992 0.06756389 0.012067911 -0.061630413 0.0070922906 0.054376837 0.084351264
0.07047029 -0.0036053646 0.0038470433 0.026672658 0.006525233 -0.016698208 0.032428402 0.047141086
-0.04321467 -0.0081053255 0.045440312 0.110444985 0.16155963 0.078637555 0.17964034 0.18198502
0.26824397 0.18084621 0.16813669 0.1241012 -0.036724187 0.10911396 0.06943638 0.029667953
00000000: 9a55 11be 45a7 a2bd e393 38be 5ed9 abbd
00000010: e770 dfbd ecbe 3bbc c7a6 5bbd f1e4 dfbd
00000020: 205e b1bd d3cc 5e3d a797 7dbc 2882 9f3d
00000030: 8825 8d3d 681f 0d3d e167 cd3d 3d8c a93c
00000040: c44b a93d a3e0 493c 4612 c33c 480e cbbd
00000050: c79e 11bd d0bc 5dbd aad9 1ebd be3a f83c
00000060: e6e2 20bd dc0a db3c 7824 d83d e948 ebbd
00000070: 8baa 38bd bf99 bcbc 3b7f 09be 8e4c 1abe
00000080: b7f6 18be b150 cbbd e24b fbbd c588 0fbe
00000090: 23fc 92bd a7c6 16be f2a2 e1bd d725 d7bd
000000a0: 2db4 50bd 6228 013c 656a a03d 6d4b f2bc
000000b0: 7c86 fc3b ed6a 84bd 0048 f0bd 2a77 09be
000000c0: a5d2 bd3b 032a c03c bc4c 28bd 3716 233d
000000d0: 1a9f 91bc 1e3f 02be 6c81 283e c9e5 353e
000000e0: 698c 7a3d eeed af3d 28c2 fe3d cf84 b83d
000000f0: a4d1 a73d e386 413e f380 fc3d a46c 2cbe
00000100: 6060 0bbe d414 1fbe 1bc2 9abd 4964 04bd
00000110: d58b 83bc bcc5 a3bd f3f3 36bd 7a27 103d
00000120: 4f59 333c 0888 f13d 994b 4a3c d749 263e
00000130: 31a0 be3d 90ab 203e 499e b23d 5e4a 213e
00000140: b082 243d 005e 2e3c 3035 d03c c467 c7bc
00000150: dfe9 023e 435c 7a3d 2b12 1e3e a6d9 113e
00000160: c149 393b cfab b43d 016e 613d c9ab 0d3e
00000170: 2663 1a3e 312f e43d 36f7 bc3d 6df6 5c3e
00000180: 7349 603d 26df 5c3e 6398 6e3e 65c8 d4bd
00000190: 111b 31bd 89d6 42be ebb9 01be 3ba9 16be
000001a0: d89e a3bd efcf ddba d5f7 1bbe 0d3d 75bd
000001b0: 1036 01be b94b 20bc 6391 1cbd 5cfe 73bd
000001c0: e618 bebd e38d 193c a79e d4bd 287a f1bd
000001d0: c75c bebd 4182 81be 3b1e 39be 4dd8 66be
000001e0: 1e7f 79be 0dab 8abe 37f0 97be de77 37be
000001f0: e853 83be 9791 86be cb8d e93c 3a40 b13b
00000200: 64b2 9dbc ddcb 283e 10a9 9f3c ac5e c73d
00000210: ebca 103e ea89 fb3d cd6b 9d3d df36 abbd
00000220: 91f1 f6bd e0c3 54bd 96a9 abbd bab1 44bd
00000230: 2a11 80bd 8aa4 94bb cc84 7cbc 037c e13d
00000240: e4e8 d33d c32f dc3c 6705 d63d a9af 233d
00000250: 4540 473d 565b 153e f0de c33d 0261 d23d
00000260: 59e5 663d 1b9e 20bc bfde eabc 08ba 14bd
00000270: a5b9 243d a6f0 d0bc 0efb 803b c3a7 413d
00000280: efcf a1bc c4d6 c53d a37f 513d bca7 103d
00000290: 2c74 69bc feac 2d3d fd99 f1bd 4848 27bc
000002a0: 6f29 7fbd 93b7 f13c 02cc 793c cd14 0d3e
000002b0: 6856 833d 39b0 053e 109d 3dbd 38ce 5d3d
000002c0: 5985 193e 2541 97bd cc1b d1bd 174a 2fbb
000002d0: e69f 513d e447 0f3d 7378 f63d 3470 c23c
000002e0: eb77 a83b ad43 72bc 8661 733c 0615 3c3d
000002f0: 7b9c 9d3d 53f8 883d ede2 823d 49f0 d53d
00000300: 40ce 4c3e 73d5 f23d e2a6 123e 33dc c53d
00000310: 5a21 1d3e 0e1e 133d 2722 023d c95a d53d
00000320: 05af 83bc 7eef 323d 0486 053e 430b e5bc
00000330: 1f8d fabc 80d2 0d3e 3800 ae3d 4a68 a6bc
00000340: b6d0 b23d 4d00 8a3d ac47 983d 6485 d5bb
00000350: 282a b53d 239e 023e 3319 be3d e4a6 593d
00000360: 6e6f 783d b164 95bc 8403 9b3c ba8d b8bd
00000370: 23eb 2dbc c5d4 51bd 93f2 abbd 87ba 713d
00000380: 8e18 03bd 3d7e 523d f05e 8a3d 7db8 453c
00000390: 2c70 7cbd 7266 e83b 3fba 5e3d 5bc0 ac3d
000003a0: ba52 903d fb47 6cbb ad1e 7c3b 9e80 da3c
000003b0: 9fd1 d53b aeca 88bc a5d3 043d 0317 413d
000003c0: de01 31bd 33cc 04bc 9f1f 3a3d fb30 e23d
000003d0: e36f 253e ba0c a13d a3f3 373e 485a 3a3e
000003e0: 4657 893e c02f 393e 062c 2c3e c528 fe3d
000003f0: 1a6c 16bd 2477 df3d a934 8e3d 350a f33c

model.4.bias f4 [32]
-0.01344196 -0.050485443 -0.010172955 0.14739123 -0.096550085 -0.14477018 -0.15126707 -0.033949886
0.17095676 -0.08982326 -0.0988981 0.11128463 0.030451065 0.036937255 0.10004714 0.058003645
0.027111778 0.06662873 0.06797389 -0.035146337 -0.075342916 0.08625323 -0.118146904 0.0022029458
-0.072560504 -0.027721593 0.053376682 0.013209265 0.05276608 -0.031975284 -0.049805876 0.09076568
00000000: ab3b 5cbc d3c9 4ebd 77ac 26bc baed 163e
00000010: 0dbc c5bd a23e 14be c1e5 1abe 090f 0bbd
00000020: 4a0f 2f3e 42f5 b7bd 168b cabd 32e9 e33d
00000030: 8374 f93c 854b 173d 84e5 cc3d 3b95 6d3d
00000040: 8519 de3c a574 883d e535 8b3d 9bf5 0fbd
00000050: 634d 9abd 89a5 b03d 01f7 f1bd 4c5f 103b
00000060: 9a9a 94bd 6518 e3bc 82a1 5a3d ac6b 583c
00000070: 3f21 583d 84f8 02bd 3f01 4cbd 5be3 b93d

model.5.weight f4 [32]
1.237932 0.8927488 1.1526569 1.2429938 0.97182566 0.72251976 1.2438765 0.9233408
1.2372942 1.0895532 1.0169522 1.0112752 1.0621209 1.0366703 1.0428216 1.087978
0.9135703 0.8530527 0.95924556 1.2069509 0.9887436 0.9515098 0.9284943 0.8552154
0.82816833 0.799194 0.80966693 1.0196838 0.9979975 1.1427612 1.0932714 0.9356451
00000000: 8e74 9e3f 2f8b 643f 438a 933f 6c1a 9f3f
00000010: 91c9 783f 0ef7 383f 5837 9f3f 1060 6c3f
00000020: a85f 9e3f 7b76 8b3f 7d2b 823f 7771 813f
00000030: 94f3 873f 9db1 843f 2e7b 853f dd42 8b3f
00000040: bedf 693f a961 5a3f 1e91 753f 5e7d 9a3f
00000050: 4d1e 7d3f 2596 733f cdb1 6d3f 65ef 5a3f
00000060: d702 543f fa97 4c3f 5546 4f3f 0085 823f
00000070: c47c 7f3f 0046 923f 51f0 8b3f 7086 6f3f

model.5.bias f4 [32]
0.18971066 -0.2551803 0.16157377 -0.2719838 0.010027365 -0.19143923 -0.02232486 0.1478831
0.29312077 -0.07272574 -0.17916895 0.0681242 -0.14308049 -0.045700327 -0.017930163 -0.06760013
-0.18826172 -0.17520015 0.031556785 -0.047326386 -0.13911504 -0.051959082 -0.056520246 -0.2772377
-0.4348107 -0.20187439 -0.017949035 -0.046407595 -0.11337574 -0.15424915 -0.0032900644 0.07843265
00000000: 8343 423e fea6 82be 9873 253e 7641 8bbe
00000010: d149 243c a508 44be a0e2 b6bc ab6e 173e
00000020: ed13 963e 3cf1 94bd 1178 37be b384 8b3d
00000030: b183 12be 4430 3bbd 47e2 92bc f071 8abd
00000040: aec7 40be ab67 33be b041 013d 50d9 41bd
00000050: 2c74 0ebe 0cd3 54bd c681 67bd 1af2 8dbe
00000060: 829f debe 29b8 4ebe db09 93bc e415 3ebd
00000070: 8a31 e8bd 7df3 1dbe 1f9e 57bb 4ca1 a03d

model.5.running_mean f4 [32]
-1.2589347 2.0597057 -4.0766716 3.1092799 -1.5080873 -0.46796793 -3.8410137 0.26540095
-0.14527623 0.8336889 3.3051305 -0.12319097 2.1630971 0.82450956 0.5660976 1.1603024
0.46200854 -1.2025377 -2.0020883 2.366712 -2.934777 -1.0879511 0.21355438 0.51061475
-0.90392256 -1.6780596 0.7309543 -3.2075787 0.6040873 2.847439 -0.12946947 -0.3063217
00000000: c624 a1bf 38d2 0340 1874 82c0 71fe 4640
00000010: 0109 c1bf 7e99 efbe 2bd3 75c0 a2e2 873e
00000020: 4bc3 14be a36c 553f 4287 5340 8c4b fcbd
00000030: 2f70 0a40 0f13 533f c6eb 103f ca84 943f
00000040: 628c ec3e c1ec 99bf 3722 00c0 3678 1740
00000050: 63d3 3bc0 fb41 8bbf 00ae 5a3e a6b7 023f
00000060: 7867 67bf a8ca d6bf d21f 3b3f f848 4dc0
00000070: 77a5 1a3f 713c 3640 a593 04be 33d6 9cbe

model.5.running_var f4 [32]
7.370126 5.5830054 18.958954 5.9144444 4.1020517 4.2575345 7.7280107 4.4799604
3.4761417 3.9675322 5.4130077 3.7272344 3.9167597 4.390363 1.6811001 5.219492
4.2657876 4.3988724 3.5006936 2.573029 5.201742 4.4716086 6.843705 4.5547996
1.1491514 4.263538 5.7039604 10.882378 1.5523967 5.246544 6.710997 6.2401247
00000000: 12d8 eb40 fba7 b240 f0ab 9741 2143 bd40
00000010: 0244 8340 b93d 8840 dd4b f740 d65b 8f40
00000020: 1b79 5e40 0cec 7d40 5c37 ad40 028b 6e40
00000030: 31ac 7a40 db7d 8c40 4a2e d73f 1406 a740
00000040: 5581 8840 90c3 8c40 5d0b 6040 82ac 2440
00000050: ac74 a640 6b17 8f40 a2ff da40 ebc0 9140
00000060: 6517 933f e76e 8840 d886 b640 381e 2e41
00000070: efb4 c63f b0e3 a740 7dc0 d640 1aaf c740

model.7.weight f4 [32, 32, 3, 3]
-0.18821953 -0.11459226 0.003900416 -0.12839586 -0.122189514 -0.103764646 -0.16028816 -0.12518136
-0.13899432 -0.071212396 -0.09582795 -0.16547167 -0.065565154 -0.06554366 -0.022358594 0.020281872
0.036600523 -0.02967222 -0.21874183 -0.068945035 -0.075143136 -0.11966117 -0.084011465 -0.124022946
-0.08802801 -0.04064336 -0.101265855 -0.02035865 -0.014532129 -0.015846208 -0.0775604 -0.072988875
-0.12425277 -0.0322587 -0.072891936 -0.07170453 -0.020914305 -0.11399925 -0.12114332 0.01713059
0.029041449 0.05690541 0.05772201 0.053325694 0.040948134 0.016216455 0.032391552 0.07263016
0.013599523 -0.008192639 0.075430356 0.002330841 -0.10830458 -0.06779606 -0.007836032 0.075720124
0.014425298 0.025524607 -0.013064567 0.035948943 0.067096986 0.1038236 0.10000243 0.2899279
0.0005953703 -0.15567419 0.03866635 0.051372435 -0.12023958 0.053432275 -0.009256907 -0.043824777
-0.09332683 -0.06403675 -0.06065028 -0.05908092 -0.17222068 -0.03405432 -0.10646941 -0.0933956
-0.08104112 0.0044575823 0.0068835607 -0.07309851 -0.08381387 -0.001286513 -0.08916662 -0.052058488
-0.033823095 0.066371 0.06715047 -0.0148255145 0.0041389978 0.04163432 0.045940857 0.01590826
0.08088596 0.071089715 0.09055965 -0.05790439 -0.0013995366 -0.15076075 -0.06228218 -0.063777246
-0.07347678 0.013577418 0.09056987 0.0133238 0.026114078 -0.08178645 -0.044732988 0.07325052
-0.048302785 -0.110641405 0.07163204 -0.0534677 -0.041822556 0.09904579 0.07253002 0.066422105
0.07987737 0.00031438752 -0.19943821 0.038329225 0.06357211 0.051393278 -0.015565392 -0.051562347
0.062457617 0.066275835 0.0780362 0.03608905 0.08925898 0.07158151 0.036441956 -0.13239202
-0.043432776 -0.049998216 -0.08040215 -0.11146377 -0.13750286 -0.118187875 -0.04522057 -0.09621404
-0.08825657 -0.17829816 -0.2004515 -0.1694853 -0.1671691 -0.25514418 -0.18238257 -0.15836549
-0.20395797 0.11356908 0.12902544 0.12947275 0.04812245 0.10594772 0.18988097 0.010048255
0.05043732 0.12837106 -0.13610667 -0.16898386 0.011721485 -0.10118387 -0.07422303 -0.042290445
-0.06280378 -0.18053469 -0.086737044 0.15144739 0.10648845 0.061589874 0.10858227 0.039534044
-0.045369525 -0.0067351772 0.0013454758 -0.09633422 -0.0077117006 -0.044082243 -0.0028572327 -0.01836926
-0.053763133 0.0016552241 0.029700313 -0.027172074 0.017957933 0.116556786 0.058393277 0.019355427
0.07777114 0.04055294 0.014461602 0.0134124495 0.064857095 -0.04940458 -0.074500054 -0.15971701
-0.09144741 0.04254275 0.045731917 0.0020964455 0.13226168 0.25725678 0.0050403583 -0.03413151
-0.070677966 -0.090718344 0.05039918 -0.069693215 -0.13071214 0.0073838267 -0.012421783 0.082739465
-0.08781913 -0.15621327 0.021638881 0.010340419 -0.06343008 0.1258341 0.1302047 0.020009398
0.15219973 -0.070668735 -0.06380994 0.012974589 0.0421452 -0.05649874 0.056443956 -0.123391554
-0.17071576 -0.029434001 -0.049786095 -0.022391295 0.04232175 -0.12526837 -0.1345375 -0.06148325
0.012206682 -0.03712901 -0.056304142 -0.21260828 -0.13806544 -0.08945895 -0.19395988 -0.12761462
-0.112571895 -0.12552674 -0.14840989 -0.0067759436 0.11003106 0.051942557 0.04265121 0.044262204
00000000: 9fbc 40be 59af eabd 1f9e 7f3b 347a 03be
00000010: 7f3e fabd 8f82 d4bd 9422 24be 8b2f 00be
00000020: 8754 0ebe ced7 91bd 7241 c4bd 6871 29be
00000030: 0647 86bd c13b 86bd 5f29 b7bc 2b26 a63c
00000040: 6eea 153d 2813 f3bc dcfd 5fbe 0e33 8dbd
00000050: a5e4 99bd ea10 f5bd 340e acbd beff fdbd
00000060: 0848 b4bd a779 26bd 7964 cfbd 2fc7 a6bc
00000070: 2b18 6ebc e8cf 81bc fdd7 9ebd 317b 95bd
00000080: 3c78 febd b321 04bd 5e48 95bd d3d9 92bd
00000090: 7a54 abbc 7078 e9bd fd19 f8bd 7355 8c3c
000000a0: 55e8 ed3c a615 693d ea6d 6c3d 0b6c 5a3d
000000b0: 3bb9 273d 5fd8 843c 01ad 043d 1fbf 943d
000000c0: 89d0 5e3c 6b3a 06bc 3b7b 9a3d 06c1 183b
000000d0: cbce ddbd a9d8 8abd b362 00bc 2713 9b3d
000000e0: 1658 6c3c fb18 d13c c40c 56bc 333f 133d
000000f0: 256a 893d 78a1 d43d 13ce cc3d 6e71 943e
00000100: a012 1c3a 0e69 1fbe 9b60 1e3d e76b 523d
00000110: 2b40 f6bd cddb 5a3d 48aa 17bc 9c81 33bd
00000120: 2322 bfbd b325 83bd 6e6c 78bd d6fe 71bd
00000130: 9e5a 30be 8b7c 0bbd a20c dabd 3146 bfbd
00000140: e3f8 a5bd e910 923b 7e8f e13b acb4 95bd
00000150: 9ba6 abbd 37a0 a8ba fd9c b6bd 483b 55bd
00000160: 168a 0abd 85ed 873d 3086 893d b7e6 72bc
00000170: 6ea0 873b c088 2a3d 7b2c 3c3d 0a52 823c
00000180: 8aa7 a53d 7c97 913d 5677 b93d 272d 6dbd
00000190: a870 b7ba 0761 1abe 991b 7fbd a59d 82bd
000001a0: fe7a 96bd d273 5e3c b27c b93d 114c 5a3c
000001b0: 31ed d53c a87f a7bd f039 37bd 5e04 963d
000001c0: 24d9 45bd f697 e2bd d2b3 923d f200 5bbd
000001d0: 214e 2bbd 85d8 ca3d 9e8a 943d 5008 883d
000001e0: bf96 a33d 61d4 a439 8839 4cbe 1bff 1c3d
000001f0: 1832 823d c281 523d fc05 7fbc 0a33 53bd
00000200: 8fd3 7f3d a0bb 873d 71d1 9f3d 1dd2 133d
00000210: 69cd b63d 5499 923d 2944 153d c691 07be
00000220: 91e6 31bd eeca 4cbd e2a9 a4bd 1e47 e4bd
00000230: 8dcd 0cbe 7c0c f2bd 3439 39bd de0b c5bd
00000240: dcbf b4bd cb93 36be 2843 4dbe 8e8d 2dbe
00000250: 602e 2bbe 42a2 82be 7fc2 3abe 902a 22be
00000260: 5cda 50be e896 e83d 3f1f 043e 8194 043e
00000270: 0c1c 453d 1efb d83d 2870 423e 70a1 243c
00000280: 5d97 4e3d b473 033e 8c5f 0bbe 1b0a 2dbe
00000290: 790b 403c 7d39 cfbd 3e02 98bd bf38 2dbd
000002a0: 459f 80bd 16de 38be 31a3 b1bd 0615 1b3e
000002b0: 9e16 da3d aa45 7c3d 6260 de3d 73ee 213d
000002c0: 65d5 39bd c3b2 dcbb ad5a b03a e04a c5bd
000002d0: 6fb2 fcbb 958f 34bd 6940 3bbb 217b 96bc
000002e0: bb36 5cbd 1bf4 d83a 124e f33c f897 debc
000002f0: 841c 933c 53b5 ee3d ca2d 6f3d 468f 9e3c
00000300: 7a46 9f3d d71a 263d 5bf0 6c3c e4bf 5b3c
00000310: ccd3 843d 755c 4abd 7c93 98bd db8c 23be
00000320: c848 bbbd 4e41 2e3d 6451 3b3d 8564 093b
00000330: 9b6f 073e 29b7 833e 9729 a53b 7bcd 0bbd
00000340: 9cbf 90bd 8aca b9bd 5f6f 4e3d 51bb 8ebd
00000350: 67d9 05be 07f4 f13b bc84 4bbc 4f73 a93d
00000360: 84da b3bd 5ff6 1fbe 0644 b13c dc6a 293c
00000370: a1e7 81bd a8da 003e 6254 053e c0ea a33c
00000380: 3fda 1b3e c5ba 90bd c9ae 82bd 5f93 543c
00000390: 72a0 2c3d 396b 67bd c731 673d b6b4 fcbd
000003a0: 1dd0 2ebe 931f f1bc 81ec 4bbd f36d b7bc
000003b0: 9259 2d3d 5a46 00be 33c4 09be dcd5 7bbd
000003c0: 89fe 473c 9714 18bd 2c9f 66bd fcb5 59be
000003d0: 0761 0dbe 4136 b7bd 6b9d 46be 68ad 02be
000003e0: 188c e6bd 158a 00be c3f8 17be bc08 debb
000003f0: f757 e13d b8c1 543d 09b3 2e3d 494c 353d

model.7.bias f4 [32]
0.011134387 0.017219106 0.022016367 0.03492128 -0.02835967 -0.06405743 -0.016763536 -0.037667137
-0.030024894 -0.045464717 0.005438684 -0.10520952 0.06981959 0.04510756 -0.036639623 0.013658867
-0.0122903995 -0.020588113 -0.01712328 0.04413897 -0.031211276 0.00661034 -0.04871202 0.026530256
0.015114457 0.0046548625 0.003271761 -0.058537677 0.025303947 -0.050132554 0.028272444 -0.012829272
00000000: 016d 363c 150f 8d3c ab5b b43c 9e09 0f3d
00000010: 8a52 e8bc 8b30 83bd af53 89bc db48 1abd
00000020: c4f6 f5bc 3639 3abd fd36 b23b 1778 d7bd
00000030: 93fd 8e3d b4c2 383d 6e13 16bd 71c9 5f3c
00000040: ac5d 49bc 67a8 a8bc 1f46 8cbc 11cb 343d
00000050: caae ffbc 8d9b d83b 4186 47bd fb55 d93c
00000060: a1a2 773c d187 983b 0a6b 563b 34c5 6fbd
00000070: 394a cf3c cb57 4dbd 9d9b e73c de31 52bc

model.8.weight f4 [32]
0.84421325 1.0424253 0.83012694 1.0463089 1.1351761 0.89551437 0.6979094 1.036588
0.75207645 1.132941 0.98350626 1.1651111 1.0082726 0.9973451 1.0592281 1.1908517
1.1426635 0.98186475 1.051839 1.0959115 1.1357151 1.1583288 1.0280309 0.90447456
0.70933086 0.85758555 1.010087 1.2360119 0.82784736 0.8497868 0.9335141 1.0458454
00000000: 5c1e 583f 316e 853f 3383 543f 73ed 853f
00000010: 734d 913f 6e40 653f 31aa 323f eaae 843f
00000020: 1588 403f 3604 913f 11c7 7b3f 5c22 953f
00000030: 140f 813f 0252 7f3f c994 873f d46d 983f
00000040: cc42 923f 7d5b 7b3f a9a2 863f d446 8c3f
00000050: 1d5f 913f 1e44 943f 8496 833f a58b 673f
00000060: b596 353f ba8a 5b3f 884a 813f a335 9e3f
00000070: ceed 533f a18b 593f c8fa 6e3f 43de 853f

model.8.bias f4 [32]
-0.15516958 0.103081 -0.072025836 -0.10944524 -0.03589009 -0.31482574 -0.024060829 -0.11958312
-0.096425965 -0.1713904 -0.3294489 -0.112300985 0.22050619 -0.054748386 0.10737013 -0.056909654
-0.08779988 -0.33405533 -0.013321293 -0.40833035 -0.0043567666 -0.22953208 -0.034491114 -0.1259668
-0.07388649 -0.28621256 -0.040054165 -0.5871611 0.057779923 -0.14186762 -0.11939914 0.15498476
00000000: c6e4 1ebe 221c d33d 4882 93bd d324 e0bd
00000010: 7d01 13bd d730 a1be 371b c5bc ffe7 f4bd
00000020: fa7a c5bd f780 2fbe 87ad a8be 0ffe e5bd
00000030: 60cc 613e d83f 60bd dfe4 db3d 191a 69bd
00000040: 6cd0 b3bd 4d09 abbe 8d41 5abc ad10 d1be
00000050: 35c3 8ebb 750a 6bbe 8e46 0dbd 71fd 00be
00000060: cd51 97bd 748a 92be d60f 24bd 3150 16bf
00000070: a4aa 6c3d bf45 11be 8987 f4bd 53b4 1e3e

model.8.running_mean f4 [32]
-2.176117 -7.2080545 -2.8895943 1.7661281 -2.6328003 4.813421 -3.9177675 -3.6843138
-1.2451644 -0.2757549 0.77088046 0.16698618 -2.2993882 -4.1192493 -4.4099617 5.2269864
-3.0862627 -2.142486 3.0743039 1.5358554 4.851073 0.9029868 -2.0190012 -1.4665184
-0.74661905 -0.55179334 -3.5132215 -6.3104887 -3.687401 -1.8383081 1.1825243 -3.624018
00000000: 8045 0bc0 62a8 e6c0 1def 38c0 7c10 e23f
00000010: cd7f 28c0 8b07 9a40 b4bc 7ac0 cccb 6bc0
00000020: 8c61 9fbf bf2f 8dbe 6c58 453f 6dfe 2a3e
00000030: 2d29 13c0 e4d0 83c0 681e 8dc0 7943 a740
00000040: 5485 45c0 7e1e 09c0 65c1 4440 e996 c43f
00000050: fd3b 9b40 252a 673f 5137 01c0 e0b6 bbbf
00000060: 6d22 3fbf 5442 0dbf 9fd8 60c0 86ef c9c0
00000070: 61fe 6bc0 ae4d ebbf f55c 973f e9ef 67c0

model.8.running_var f4 [32]
7.4444914 21.457571 21.042824 9.571794 11.825154 13.811408 13.683357 13.106173
9.171524 13.722255 15.832282 9.650436 12.008041 21.232843 29.957111 16.531342
14.8346405 5.8894773 12.184987 10.756402 10.722366 12.645442 15.073344 24.209982
15.842981 10.802244 19.453865 18.676579 20.94245 29.552177 4.7813873 20.73131
00000000: 4639 ee40 1ba9 ab41 b457 a841 1126 1941
00000010: d533 3d41 87fb 5c41 08ef 5a41 e2b2 5141
00000020: 90be 1241 5b8e 5b41 0751 7d41 3068 1a41
00000030: f020 4041 dddc a941 2aa8 ef41 3040 8441
00000040: b05a 6d41 9976 bc40 b5f5 4241 391a 2c41
00000050: d08e 2b41 bb53 4a41 6b2c 7141 0bae c141
00000060: da7c 7d41 fed5 2c41 84a1 9b41 a269 9541
00000070: 238a a741 dc6a ec41 2001 9940 b9d9 a541

model.10.weight f4 [64, 32, 3, 3]
0.009819358 -0.04726946 0.005284742 0.007973426 0.11778022 0.14504117 0.056705534 0.10862914
0.11310568 -0.07473629 -0.03169516 -0.01675938 -0.022266613 -0.0598048 -0.030667987 -0.029713465
0.008629109 -0.035212465 -0.015340826 0.0035204291 0.05079758 0.05558895 -0.05665318 -0.0015044416
0.012223065 0.0013900329 -0.0010154787 0.017704668 -0.06715402 -0.07054862 0.04546695 -0.13203332
-0.09251213 -0.0373449 -0.12144205 -0.027604798 0.03146494 0.051530156 0.058813844 0.012786295
0.0074223257 0.06646116 -0.026771639 -0.0037580852 -0.029772019 0.012495312 0.0029102366 -0.036261734
-0.04117439 -0.063075304 -0.11611504 0.008384668 -0.0689004 -0.057791434 0.06267436 0.09273663
0.07069407 0.034689963 0.057444107 0.10912926 0.024798969 0.02976468 -0.0131004155 -0.09222192
-0.10191618 -0.043133024 -0.012563141 -0.11117608 -0.1260149 -0.026880862 -0.07353622 -0.07830587
0.053453546 0.010124602 0.0538681 0.029463712 0.05045823 0.09776714 0.038555726 -0.032345317
0.06711155 -0.021938385 -0.07725703 -0.023580655 -0.07412051 -0.075540796 -0.056901358 -0.03054007
-0.099977896 -0.19558467 0.047871843 0.06314444 0.09355499 0.030540828 -0.018123198 0.06237955
0.07138415 -0.048235707 0.050946765 0.26857144 -0.05627385 -0.06679253 -0.045711398 -0.039290052
-0.116285905 -0.11487274 -0.06667418 -0.1017562 -0.039907906 -0.08177821 -0.122195154 -0.03740101
-0.014711834 -0.025167707 -0.052716725 -0.11525447 -0.054737315 -0.076832205 -0.06805291 0.11535686
-0.021004457 -0.0074330554 0.22935928 0.015236404 0.057694774 0.33077565 -0.104545355 -0.079245776
-0.2835756 -0.0620009 -0.07117661 -0.29578307 0.146017 -0.018385356 -0.3118769 0.0065818205
-0.089305915 -0.06449276 -0.014695417 -0.13436548 -0.052735038 -0.07047214 -0.05089669 -0.0041010585
0.0065858797 -0.11851353 -0.145715 -0.036768768 -0.07359931 -0.2056676 -0.010482837 -0.0027089738
-0.042433552 -0.00144337 -0.09641723 -0.076914206 0.017329639 -0.040763512 0.00033044483 0.038053542
0.07909716 0.042571865 -0.018285625 -0.05193851 -0.043169994 -0.017028298 -0.026042253 -0.020116003
-0.08940042 -0.03733534 -0.04229096 -0.050804865 -0.149516 -0.0009391654 0.028859802 -0.106316276
-0.039310228 0.024014322 -0.10228362 -0.07988571 -0.013261054 -0.13684346 0.04320995 0.05858223
-0.090360984 -0.07600513 0.06792658 -0.1531694 -0.0946068 0.06507693 0.10522863 0.090587825
-0.038976002 0.07537474 0.03338553 -0.024848834 -0.008577999 -0.10053108 -0.04268683 0.052548822
0.08553028 -0.04093127 0.11618317 0.14754647 0.06436669 0.13051963 0.11028802 -0.049799424
-0.026693402 0.031123573 0.08120404 -0.06841719 0.12737437 0.053161442 -0.040331945 0.09162456
0.023369718 -0.026330713 0.0028354847 0.03937465 -0.014120465 0.090900466 -0.07438911 -0.038842008
-0.06099555 0.03217966 0.08378784 0.18944925 0.059225358 0.14719404 0.1846541 0.09640885
0.077872604 0.1938529 -0.013665499 -0.034076698 -0.033114433 -0.032255754 -0.0402325 -0.028623184
-0.105314486 -0.027679674 -0.01990539 0.10133811 0.12621225 0.06511625 -0.0053644357 0.03199684
0.050856974 -0.013792179 -0.046837404 0.004894742 -0.042704456 0.1504039 0.13374162 -0.04064515
00000000: 5fe1 203c 9f9d 41bd a12b ad3b f9a2 023c
00000010: c236 f13d ac85 143e 1044 683d f478 de3d
00000020: f3a3 e73d 570f 99bd c9d2 01bd f84a 89bc
00000030: 7968 b6bc e1f5 74bd 6e3b fbbc a769 f3bc
00000040: 1b61 0d3c f23a 10bd 1658 7bbc 00b7 663b
00000050: 2011 503d 3db1 633d 2a0d 68bd af30 c5ba
00000060: 4043 483c c431 b63a d019 85ba 6109 913c
00000070: 0c88 89bd cb7b 90bd 8d3b 3a3d be33 07be
00000080: 0077 bdbd f7f6 18bd 9cb6 f8bd 7523 e2bc
00000090: 62e1 003d 4911 533d c9e6 703d 9c7d 513c
000000a0: fb36 f33b ca1c 883d 3250 dbbc 354a 76bb
000000b0: 73e4 f3bc 23b9 4c3c abb9 3e3b 2f87 14bd
000000c0: 7aa6 28bd a02d 81bd b9cd edbd d95f 093c
000000d0: a71b 8dbd b6b6 6cbd 6a5b 803d b4ec bd3d
000000e0: 0dc8 903d 1017 0e3d 834a 6b3d 297f df3d
000000f0: 3527 cb3c 0fd5 f33c 20a3 56bc d9de bcbd
00000100: 6eb9 d0bd 41ac 30bd a2d5 4dbc 49b0 e3bd
00000110: 0d0a 01be 4135 dcbc 289a 96bd d45e a0bd
00000120: 1bf2 5a3d a9e1 253c cca4 5c3d e25d f13c
00000130: 4aad 4e3d 233a c83d 9cec 1d3d 867c 04bd
00000140: c871 893d 21b8 b3bc ef38 9ebd 382c c1bc
00000150: 7ecc 97bd 22b5 9abd 6611 69bd 2b2f fabc
00000160: 36c1 ccbd 5947 48be 4415 443d df51 813d
00000170: c299 bf3d c230 fa3c 1a77 94bc b381 7f3d
00000180: da31 923d ce92 45bd 8ead 503d 3282 893e
00000190: 697f 66bd 86ca 88bd e03b 3bbd 9bee 20bd
000001a0: 4e27 eebd 6642 ebbd 798c 88bd 8e65 d0bd
000001b0: 7976 23bd 567b a7bd 7441 fabd cd31 19bd
000001c0: e709 71bc 822c cebc 7eed 57bd 890a ecbd
000001d0: 3c34 60bd 345a 9dbd 535f 8bbd 3840 ec3d
000001e0: 8a11 acbc fd90 f3bb 29dd 6a3e 1ca2 793c
000001f0: 5b51 6c3d 6d5b a93e e01b d6bd 9c4b a2bd
00000200: d230 91be a8f4 7dbd 0bc5 91bd e170 97be
00000210: 7b85 153e e39c 96bc 54ae 9fbe 50ac d73b
00000220: 05e6 b6bd c814 84bd 0cc5 70bc 1b97 09be
00000230: b200 58bd b353 90bd 0c79 50bd 2c62 86bb
00000240: 5dce d73b 39b7 f2bd 5036 15be d99a 16bd
00000250: 3cbb 96bd 879a 52be 35c0 2bbc 0a89 31bb
00000260: cece 2dbd 762f bdba 6676 c5bd 3285 9dbd
00000270: e3f6 8d3c a4f7 26bd 8e3f ad39 08de 1b3d
00000280: b1fd a13d d65f 2e3d bccb 95bc 7abd 54bd
00000290: 05d3 30bd ee7e 8bbc 9056 d5bc 51ca a4bc
000002a0: 9117 b7bd f1ec 18bd 4939 2dbd c318 50bd
000002b0: b91a 19be 5332 76ba 646b ec3c 59bc d9bd
000002c0: c303 21bd afb9 c43c 137a d1bd 1e9b a3bd
000002d0: e444 59bc b120 0cbe ebfc 303d ecf3 6f3d
000002e0: 2e0f b9bd 94a8 9bbd 171d 8b3d 70d8 1cbe
000002f0: 36c1 c1bd 0e47 853d 1c82 d73d 1c86 b93d
00000300: 4da5 1fbd 125e 9a3d 44bf 083d c88f cbbc
00000310: bc8a 0cbc 3de3 cdbd 63d8 2ebd 6f3d 573d
00000320: 802a af3d 8ca7 27bd 71f1 ed3d 6c16 173e
00000330: afd2 833d f0a6 053e afde e13d 7bfa 4bbd
00000340: 1fac dabc ddf6 fe3c 4e4e a63d 501e 8cbd
00000350: 6d6e 023e d0bf 593d 1c33 25bd a8a5 bb3d
00000360: da71 bf3c 82b3 d7bc 8ad3 393b 5047 213d
00000370: 8659 67bc 062a ba3d 5159 98bd cc18 1fbd
00000380: 78d6 79bd d2ce 033d f698 ab3d fcfe 413e
00000390: 4a96 723d 09ba 163e f715 3d3e 0172 c53d
000003a0: ac7b 9f3d 6081 463e 42e5 5fbc 0294 0bbd
000003b0: 00a3 07bd 9c1e 04bd d5ca 24bd 2b7b eabc
000003c0: 1faf d7bd 7cc0 e2bc a110 a3bc 5b8a cf3d
000003d0: c93d 013e ab5b 853d 26c8 afbb 1e0f 033d
000003e0: 674f 503d 97f8 61bc 94d8 3fbd 1264 a03b
000003f0: deea 2ebd 7b03 1a3e 90f3 083e 877b 26bd

model.10.bias f4 [64]
0.03808977 0.056869075 -0.011957393 -0.060182888 -0.0856394 -0.036617756 -0.051614888 0.0590989
0.023325559 -0.038822528 0.0066837952 0.016917424 -0.010890058 -0.023697471 -0.07388193 -0.004659497
-0.046659004 -0.029099837 0.017023344 -0.0035430368 0.026480695 -0.03584909 -0.023831636 -0.017269164
0.013179894 -0.009661292 0.0074538663 0.0386598 0.051516324 0.00066764123 0.042272676 0.034371495
0.0060875886 -0.05207174 -0.039794747 -0.055610184 0.012085796 -4.2639385e-05 -0.06107853 -0.02403134
0.035398077 -0.00036456477 -0.053110387 -0.012364548 -0.01659947 0.09897977 0.037965134 -0.0403641
-0.049776733 -0.0038300916 -0.022325672 0.017857024 0.022599522 -0.025438443 -0.020528343 0.06338717
-0.0021486173 0.027658245 0.0059267594 0.015611609 0.0528761 0.027747592 -0.031599373 0.0013251521
00000000: 0504 1c3d 8cef 683d f1e8 43bc 5582 76bd
00000010: b663 afbd 80fc 15bd 226a 53bd b011 723d
00000020: 3e15 bf3c 5f04 1fbd bd03 db3b 6996 8a3c
00000030: 376c 32bc 3321 c2bc 694f 97bd b2ae 98bb
00000040: 831d 3fbd c862 eebc 8a74 8b3c 4b32 68bb
00000050: 0bee d83c 7fd6 12bd 903a c3bc 1078 8dbc
00000060: 7bf0 573c 654a 1ebc 903f f43b bd59 1e3d
00000070: c802 533d a504 2f3a 1d26 2d3d 20c9 0c3d
00000080: 657a c73b 2d49 55bd d1ff 22bd 81c7 63bd
00000090: 8103 463c b1d7 32b8 7b2d 7abd 5fdd c4bc
000000a0: 93fd 103d 0e23 bfb9 478a 59bd ac94 4abc
000000b0: 9dfb 87bc e8b5 ca3d 5481 1b3d d454 25bd
000000c0: b0e2 4bbd 4602 7bbb 54e4 b6bc e548 923c
000000d0: a222 b93c 4864 d0bc 0e2b a8bc 22d1 813d
000000e0: d1cf 0cbb 8b93 e23c 4335 c23b d6c7 7f3c
000000f0: 9c94 583d eb4e e33c 586e 01bd bab0 ad3a

model.11.weight f4 [64]
0.8937624 1.1024324 1.0423834 1.6392756 0.6514101 0.74207246 0.9727047 1.5491626
0.74838483 0.99322784 1.1559113 0.9222847 0.7117149 1.0023694 0.98955965 0.655798
1.1125786 1.2492518 0.90243214 0.7907226 0.93004006 0.8067531 0.73505783 0.80076367
1.1466911 0.9648205 1.3834823 1.0332181 0.9200179 1.0688621 1.2034076 1.1206092
0.95899826 0.9633515 0.8966689 0.97125256 0.87336504 1.0875916 1.0287416 0.8797381
1.062353 0.8559533 0.90754485 0.9132194 1.0156097 0.94495255 1.0310842 0.8917402
0.99450797 0.9184747 1.3413689 1.3057773 0.93952984 1.3216897 0.96486676 1.0782136
1.3534614 1.4510808 1.1327217 1.040663 1.0693086 0.75569254 0.8534466 1.0352015
00000000: 9dcd 643f 811c 8d3f d26c 853f c8d3 d13f
00000010: d0c2 263f 76f8 3d3f 2d03 793f f64a c63f
00000020: 2696 3f3f 2e44 7e3f e7f4 933f da1a 6c3f
00000030: f332 363f a44d 803f c853 7d3f 61e2 273f
00000040: fa68 8e3f 7ce7 9f3f cb05 673f cc6c 4a3f
00000050: 1b17 6e3f 5f87 4e3f c02c 3c3f d9fe 4c3f
00000060: c6c6 923f 7afe 763f f315 b13f 7e40 843f
00000070: 4b86 6b3f 79d0 883f 4309 9a3f 1f70 8f3f
00000080: e980 753f 349e 763f 188c 653f 02a4 783f
00000090: da94 5f3f 3436 8b3f cead 833f 8436 613f
000000a0: 2ffb 873f c11f 5b3f dc54 683f bfc8 693f
000000b0: 80ff 813f 69e8 713f 91fa 833f 1649 643f
000000c0: 1398 7e3f 2821 6b3f fab1 ab3f b623 a73f
000000d0: 0785 703f 212d a93f 8201 773f e702 8a3f
000000e0: 393e ad3f 04bd b93f 06fd 903f 7234 853f
000000f0: 1bdf 883f 1175 413f 7a7b 5a3f 7c81 843f

model.11.bias f4 [64]
-0.13372539 0.05877984 -0.1348877 0.27969667 -0.36187023 -0.011307664 0.13062772 -0.15768284
-0.029751051 -0.037442558 -0.08961175 0.0027185697 -0.22241938 -0.2302918 -0.2864253 0.15813932
-0.12512483 0.038502775 -0.31073532 -0.119330525 -0.2536796 0.08193668 -0.27553564 0.063207656
-0.05330713 0.019902768 -0.2674992 -0.20901982 -0.28745848 -0.25835997 -0.0028744317 -0.23538613
-0.17185503 -0.09776737 -0.24305125 -0.16788442 -0.15461275 0.08214104 -0.039812937 -0.3509171
-0.08217088 -0.2454692 -0.10495463 0.0026600515 -0.03930646 -0.35738 -0.09528227 -0.08303855
-0.1414179 0.2146694 0.23159452 -0.17708518 -0.2070308 -0.02225354 -0.29125905 -0.3454209
-0.13374174 -0.1531074 0.22877084 -0.051170804 -0.18055892 -0.13924663 -0.19071381 0.1798035
00000000: 4fef 08be 21c3 703d 0020 0abe 6734 8f3e
00000010: 0e47 b9be c843 39bc 46c3 053e 9c77 21be
00000020: 7ab8 f3bc 5e5d 19bd 5d86 b7bd 082a 323b
00000030: e8c1 63be 9dd1 6bbe 56a6 92be 46ef 213e
00000040: b920 00be 16b5 1d3d b318 9fbe 9063 f4bd
00000050: 4be2 81be 6bce a73d 0213 8dbe 0473 813d
00000060: 9458 5abd 210b a33c a8f5 88be 4b09 56be
00000070: c22d 93be c247 84be f660 3cbb 1009 71be
00000080: c4fa 2fbe 423a c8bd 6de2 78be e5e9 2bbe
00000090: ce52 1ebe 9039 a83d e412 23bd 68ab b3be
000000a0: 3549 a8bd 475c 7bbe 74f2 d6bd 4254 2e3b
000000b0: d0ff 20bd 83fa b6be 5a23 c3bd 1e10 aabd
000000c0: dbcf 10be 4cd2 5b3e 1d27 6d3e d155 35be
000000d0: e2ff 53be 0e4d b6bc e81f 95be 02db b0be
000000e0: 98f3 08be 30c8 1cbe e742 6a3e 7a98 51bd
000000f0: 70e4 38be ab96 0ebe 7b4a 43be 691e 383e

model.11.running_mean f4 [64]
-1.3933951 -3.8332627 -2.7057192 -1.124533 -1.0772831 0.5566753 3.7975612 5.2957277
3.6252124 -0.69193864 -0.49456325 0.58058 1.2610458 3.186381 5.4680805 1.3191254
-4.801725 -3.7347445 -0.5930587 2.1800375 3.6652253 -3.2847376 -0.6855498 0.29353502
-1.5422921 2.3224456 -2.591215 2.6615682 0.3110839 0.24649678 -1.6927574 -1.3000019
-2.0989044 4.0449867 3.0368707 1.9506912 0.6677827 -3.9871128 -3.4977193 -0.8939241
0.63295734 -1.3232414 4.7956367 0.42699412 -0.9803976 4.2062645 -0.9044332 -1.0900427
-0.83913654 -0.8865719 -2.685676 -3.6997514 -1.3042926 -1.0013964 5.304864 -0.5189178
-3.3356037 2.4003143 -2.0710657 -2.0999525 4.6444454 -0.99989665 1.1955711 -3.1667182
00000000: c55a b2bf 2d54 75c0 812a 2dc0 b3f0 8fbf
00000010: 6ae4 89bf 4682 0e3f 3e0b 7340 9a76 a940
00000020: 7b03 6840 e422 31bf 6537 fdbe e4a0 143f
00000030: f369 a13f abed 4b40 84fa ae40 1ad9 a83f
00000040: bba7 99c0 0e06 6fc0 b2d2 17bf bc85 0b40
00000050: 0d93 6a40 2439 52c0 3180 2fbf 394a 963e
00000060: d469 c5bf f3a2 1440 77d6 25c0 2257 2a40
00000070: 6446 9f3e a769 7c3e 46ac d8bf 7666 a6bf
00000080: 7354 06c0 8870 8140 175c 4240 40b0 f93f
00000090: cff3 2a3f db2c 7fc0 a2da 5fc0 36d8 64bf
000000a0: 7e09 223f f95f a9bf db75 9940 f99e da3e
000000b0: 56fb 7abf b899 8640 ef88 67bf 8586 8bbf
000000c0: a7d1 56bf 60f6 62bf 1ee2 2bc0 bac8 6cc0
000000d0: 0ff3 a6bf c22d 80bf 72c1 a940 ccd7 04bf
000000e0: 887a 55c0 c09e 1940 578c 04c0 9f65 06c0
000000f0: 4c9f 9440 3af9 7fbf 7908 993f 83ab 4ac0

model.11.running_var f4 [64]
11.252203 27.425758 22.596815 16.747803 9.424426 27.767477 15.673935 25.634499
24.074991 27.864262 11.069897 35.895203 14.2687025 21.075212 22.864807 23.579067
23.876335 30.076803 13.513053 15.67513 20.73789 19.780764 10.253669 15.891135
14.502472 11.417988 28.830862 14.516469 18.386528 7.8901505 18.965473 13.705141
14.386885 16.332779 19.08577 19.454199 8.095936 33.635162 24.582836 11.119087
17.299715 11.239193 16.944387 17.603943 22.661211 24.098312 11.208055 29.764658
19.092548 24.383316 9.319626 10.607554 13.278544 24.051113 22.646915 12.037726
15.365824 20.715218 26.653162 23.868902 16.62807 14.596689 10.800493 17.017282
00000000: 0609 3441 f467 db41 47c6 b441 80fb 8541
00000010: 73ca 1641 cb23 de41 70c8 7a41 7413 cd41
00000020: 9599 c041 02ea de41 4c1e 3141 b094 0f42
00000030: 9b4c 6441 099a a841 20eb b641 eea1 bc41
00000040: bc02 bf41 4b9d f041 7735 5841 55cd 7a41
00000050: 33e7 a541 013f 9e41 070f 2441 1742 7e41
00000060: 200a 6841 14b0 3641 9ba5 e641 7543 6841
00000070: 9c17 9341 1d7c fc40 4ab9 9741 4248 5b41
00000080: ae30 6641 88a9 8241 a8af 9841 33a2 9b41
00000090: f488 0141 688a 0642 a6a9 c441 c8e7 3141
000000a0: d165 8a41 bcd3 3341 1b8e 8741 e0d4 8c41
000000b0: 294a b541 58c9 c041 3154 3341 051e ee41
000000c0: 8abd 9841 0811 c341 301d 1541 8bb8 2941
000000d0: eb74 5441 ae68 c041 e22c b541 879a 4041
000000e0: 6ada 7541 c4b8 a541 ad39 d541 83f3 be41
000000f0: 4a06 8541 0a8c 6941 d2ce 2c41 6523 8841

model.13.weight f4 [64, 64, 3, 3]
-0.0015215055 -0.038163498 0.042786777 -0.056702547 0.0073004086 0.055639237 -0.005590408 -0.0069126273
0.016009206 -0.109261945 0.01953946 0.10375916 -0.0026163855 0.06415454 0.15304726 -0.06477967
0.0012909953 0.18672006 -0.07645871 -0.2011899 -0.00770851 -0.0874896 -0.035335556 -0.043706845
-0.000888352 -0.021480272 -0.047807425 0.14677572 0.11187557 0.011340189 0.06612327 0.14589794
0.007238296 0.008727639 0.16243257 0.09480691 0.059645936 -0.04718297 -0.079322785 0.04119264
-0.025086625 -0.07897886 0.06161744 0.038199145 0.062194176 -0.00434602 0.07108865 0.12164894
-0.13714178 -0.031010697 0.015070613 -0.13990672 -0.10819114 0.014496485 -0.039823182 0.042140547
0.002974303 0.0003404218 -0.005628802 -0.015875507 0.00095009163 -0.0188339 -0.0020247814 -0.07409251
-0.00073852995 0.082193136 -0.05151513 -0.10168998 -0.001498383 -0.13305335 -0.10669165 -0.057180624
0.02149084 0.06152246 0.13202201 0.042452544 0.053775005 0.06084325 -0.008427731 -0.027646394
-0.0082051 0.041350298 0.1604785 0.09952795 -0.02012834 0.119971894 0.10803787 -0.11200234
0.058414612 0.08053661 -0.10299774 -0.055232752 -0.10934935 -0.08694635 -0.09592276 -0.072578385
-0.0828417 -0.052454982 -0.06901705 0.0046185567 0.09685066 0.14136533 -0.01933127 0.10090967
0.11478208 -0.093656324 0.00095393497 0.12978576 -0.024617385 0.10182831 0.109852426 -0.08676442
-0.048869908 0.08217917 -0.04990214 -0.11778828 0.040901307 0.10526575 -0.00058160874 -0.019633535
-0.059419654 -0.040789347 -0.14250168 -0.05534795 -0.13367538 -0.18073985 -0.10170568 -0.03268929
-0.12152309 -0.13218144 -0.045703594 -0.09291387 -0.05423588 -0.11566318 -0.1092325 0.0041679377
0.09638427 0.18004602 0.03632475 0.03543531 0.069773525 -0.040153213 0.018165339 0.059629112
-0.042141315 -0.038219057 -0.0744442 -0.08114088 -0.10783331 -0.13848372 0.096568935 0.05994278
-0.07051189 0.15720199 -0.08838291 -0.06460786 0.045724973 -0.12190306 -0.06850313 -0.0647285
-0.045576215 -0.06805937 -0.034037985 -0.045278937 0.08872535 0.035567086 -0.097218744 0.13744767
0.04078598 -0.021246118 0.13929857 0.024437524 0.117588684 0.13688798 0.0037782446 0.022533288
0.014931351 -0.046828475 -0.07837983 0.0047316635 -0.11219814 -0.07346215 -0.12564349 -0.15307225
-0.106780365 -0.09654977 -0.13760933 -0.11391562 -0.20936164 -0.12216505 -0.006557599 0.014878522
-0.077111356 0.017903527 0.05543696 -0.07403192 0.054718003 0.029062068 -0.09184089 0.059964694
0.08724745 -0.12001577 -0.034707636 0.06396994 -0.10933233 -0.044473834 0.08963452 -0.050880294
-0.009522689 0.10231947 -0.026259778 0.0050931005 0.03586707 -0.026123574 0.05109666 0.009484846
-0.17683819 -0.20594965 -0.2167533 0.020059187 -0.1382038 -0.122324854 0.041911677 -0.14783108
-0.14231347 -0.032317314 0.08795286 0.06640026 -0.08322881 -0.0060680388 0.07854725 -0.09616999
-0.039615784 -0.029296521 -0.0055205594 -0.0761553 -0.21015751 -0.09561175 -0.08205154 -0.1765888
-0.06914781 -0.08369838 -0.16345654 -0.0066896626 -0.0506612 -0.041738823 -0.039788373 -0.07175903
-0.100243226 -0.049584918 -0.06773122 -0.06435876 0.020673374 0.0067293746 0.12610565 0.09812273
00000000: 416d c7ba 5451 1cbd 3041 2f3d ee40 68bd
00000010: 4438 ef3b f8e5 633d be2f b7bb 5283 e2bb
00000020: bd25 833c bac4 dfbd 3811 a03c af7f d43d
00000030: aa77 2bbb 7563 833d 6cb8 1c3e 34ab 84bd
00000040: 9d36 a93a 8b33 3f3e 6296 9cbd ba04 4ebe
00000050: ab97 fcbb bf2d b3bd 04bc 10bd f305 33bd
00000060: 4be0 68ba 65f7 afbc b8d1 43bd 604c 163e
00000070: 051f e53d 33cc 393c a36b 873d 4566 153e
00000080: 3a2f ed3b 5ffe 0e3c b954 263e 202a c23d
00000090: 4c4f 743d ee42 41bd fc73 a2bd 9db9 283d
000000a0: 7782 cdbc abbf a1bd 9262 7c3d b576 1c3d
000000b0: 52bf 7e3d 0f69 8ebb ed96 913d 1423 f93d
000000c0: e56e 0cbe 250a febc bbea 763c b543 0fbe
000000d0: 5193 ddbd aa82 6d3c a21d 23bd 919b 2c3d
000000e0: 86ec 423b a47a b239 d071 b8bb 5a0d 82bc
000000f0: 920f 793a 8d49 9abc 32b2 04bb d0bd 97bd
00000100: e899 41ba e054 a83d 8701 53bd d642 d0bd
00000110: 6465 c4ba 233f 08be 2781 dabd 3b36 6abd
00000120: 8f0d b03c fafe 7b3d c730 073e b8e2 2d3d
00000130: 2e43 5c3d c636 793d 7714 0abc b17a e2bc
00000140: af6e 06bc ee5e 293d 7a54 243e 4fd5 cb3d
00000150: 30e4 a4bc d3b3 f53d f542 dd3d 7c61 e5bd
00000160: 2944 6f3d 61f0 a43d 7bf0 d2bd bd3b 62bd
00000170: 8df2 dfbd ee10 b2bd 2773 c4bd faa3 94bd
00000180: e9a8 a9bd 09db 56bd d058 8dbd 4357 973b
00000190: a459 c63d 13c2 103e 9d5c 9ebc bba9 ce3d
000001a0: de12 eb3d e3ce bfbd 7e11 7a3a 8fe6 043e
000001b0: 66aa c9bc 5c8b d03d 4ffa e03d 8bb1 b1bd
000001c0: d02b 48bd 8d4d a83d 3066 4cbd fb3a f1bd
000001d0: 2188 273d 9295 d73d 1a77 18ba 82d6 a0bc
000001e0: 0662 73bd bb12 27bd f6eb 11be 88b4 62bd
000001f0: 33e2 08be de13 39be 114b d0bd 34e5 05bd
00000200: 19e1 f8bd 925a 07be b133 3bbd a149 bebd
00000210: 7126 5ebd d1e0 ecbd 4ab5 dfbd 3293 883b
00000220: 1e65 c53d fc5d 383e 43c9 143d 9e24 113d
00000230: 6ce5 8e3d b277 24bd 7acf 943c a83d 743d
00000240: 5f9c 2cbd 968b 1cbd 3376 98bd 312d a6bd
00000250: b6d7 dcbd adce 0dbe efc5 c53d 8f86 753d
00000260: 8a68 90bd 8ff9 203e 1902 b5bd 2051 84bd
00000270: 1c4a 3b3d 50a8 f9bd 5e4b 8cbd 6090 84bd
00000280: 20ae 3abd b662 8bbd 6a6b 0bbd 6876 39bd
00000290: a3b5 b53d cbae 113d 9f1a c7bd 15bf 0c3e
000002a0: 330f 273d 570c aebc 49a4 0e3e 3431 c83c
000002b0: 56d2 f03d 5d2c 0c3e 6d9c 773b bb97 b83c
000002c0: a0a2 743c 37cf 3fbd 9b85 a0bd 120c 9b3b
000002d0: 23c8 e5bd 5373 96bd b0a8 00be f9be 1cbe
000002e0: aaaf dabd e3bb c5bd 76e9 0cbe 984c e9bd
000002f0: e662 56be ab31 fabd 21e1 d6bb 0bc5 733c
00000300: 8fec 9dbd 6baa 923c de11 633d 0c9e 97bd
00000310: fc1f 603d 9313 ee3c 1417 bcbd 8a9d 753d
00000320: cbae b23d d4ca f5bd 9829 0ebd ac02 833d
00000330: a1e9 dfbd 322a 36bd 4e92 b73d db67 50bd
00000340: 0d05 1cbc df8c d13d bf1e d7bc 06e4 a63b
00000350: 59e9 123d 1b01 d6bc bb4a 513d 5466 1b3c
00000360: 1215 35be 77e4 52be 94f4 5dbe 2a53 a43c
00000370: 4c85 0dbe 7485 fabd 94ab 2b3d 0861 17be
00000380: 9fba 11be 295f 04bd a120 b43d dcfc 873d
00000390: de73 aabd 66d6 c6bb 61dd a03d c6f4 c4bd
000003a0: 2944 22bd 42ff efbc cfe5 b4bb 4ff7 9bbd
000003b0: 8833 57be 18d0 c3bd a30a a8bd b2d3 34be
000003c0: 5e9d 8dbd 0e6a abbd 2761 27be f534 dbbb
000003d0: 1e82 4fbd 54f6 2abd 22f9 22bd 66f6 92bd
000003e0: 524c cdbd 8e19 4bbd aab6 8abd 87ce 83bd
000003f0: 355b a93c 1682 dc3b d721 013e 92f4 c83d

model.13.bias f4 [64]
0.031607818 0.04971003 -0.010367265 -0.0043496047 -0.015015642 0.043460738 0.03354568 -0.039998364
0.069613956 0.053186677 -0.026196893 -0.056038395 0.035128903 -0.00041674307 -0.029141935 -0.07458981
0.005929983 0.011581353 0.036650524 0.007748498 -0.048175167 0.001953281 0.019022837 -0.0048886547
0.0084316265 -0.00269787 -0.06894748 0.025964694 -0.0027069873 -0.026521016 0.012070871 0.009414382
-0.009737129 -0.053944886 0.0073862746 0.012731275 -0.0015612866 0.060710557 -0.010371971 0.0072832457
-0.0138941705 -0.03013166 0.0031755466 0.053349156 0.021241218 -0.009894451 -0.009033116 -0.04476982
0.035192624 -0.0692102 -0.02302326 0.032444976 -0.0011641837 0.024286533 -0.022725292 0.052603327
0.025403524 -0.031244941 -0.009278655 0.021610776 -0.011137862 0.030926736 0.061950136 -0.038611997
00000000: 3377 013d bf9c 4b3d 76db 29bc 2187 8ebb
00000010: 2b04 76bc e303 323d 3267 093d 53d5 23bd
00000020: c391 8e3d 46da 593d de9a d6bc 8488 65bd
00000030: 53e3 0f3d 4f7e dab9 11bb eebc 8bc2 98bd
00000040: 4e50 c23b b7bf 3d3c dc1e 163d 1de7 fd3b
00000050: 5353 45bd 9e02 003b c8d5 9b3c 0231 a0bb
00000060: ce24 0a3c bfce 30bb 5634 8dbd e9b3 d43c
00000070: b667 31bb 9a42 d9bc e7c4 453c c83e 1a3c
00000080: 7b88 1fbc 50f5 5cbd 9008 f23b d696 503c
00000090: 16a4 ccba a2ab 783d 33ef 29bc 4ba8 ee3b
000000a0: 60a4 63bc acd6 f6bc d51c 503b a584 5a3d
000000b0: 1002 ae3c 561c 22bc a2ff 13bc 8f60 37bd
000000c0: 2426 103d 14be 8dbd 479b bcbc 06e5 043d
000000d0: 8697 98ba 8df4 c63c 642a babc 9676 573d
000000e0: 0d1b d03c 64f5 ffbc 8005 18bc 1509 b13c
000000f0: 947b 36bc 115a fd3c 6dbf 7d3d 9d27 1ebd
